models/cfv/1lkfcv4.pth (torch, 490360 bytes, 18 tensors)

lstm.weight_ih_l0 f4 [392, 1]
00000000: c878 4cbe a71a 253c a7ea cf3f d3b4 d43e
00000010: 0498 463e 4c18 fdbd d4c3 513e 353f 9e3f
00000020: 44e4 ce3e c617 5d3f 1457 bebe 83a1 aebd
00000030: 3b50 053f 02b6 39be 3c7a 993e 8afa 36bd
00000040: 1ea0 7d3e 5bf9 413e fc95 48be 1c1c 57bf
00000050: efb0 233c b734 1b3f eed3 5ebf c5ea 22bd
00000060: b029 c83e 9ad9 88bc 4bfb 6c3d c9c1 6dbe
00000070: 0911 5b3d 8a93 f1bd e3f0 163e ee11 b53e
00000080: c2af 7d3f 8d3f 8bbf 6399 1fbe 1872 3ebf
00000090: ccf6 cabd 9e5f cfbd 8c20 d7be 72a9 e63e
000000a0: 51c2 75bd bb4b c5bd 0dcc d2bd 6dfd 973f
000000b0: 34c9 c6be f1e9 d6bd 855f 04be c77a 8b3e
000000c0: 6d7e b7bb bdad 763f 2323 e43e dd51 f9be
000000d0: 2c62 b23e 9146 a33f ef1d fc3e 305a 2a3e
000000e0: b316 b43e 314f 213e 2664 89bf 9088 83be
000000f0: 9d4c 9cbe 21c2 2cbf bbbf d6be 1530 163e
00000100: 3f2c eebd 6d80 53bf f918 6d3f 8316 df3e
00000110: a0b3 aa3d 8366 df3f 6d0d 07be 8543 0bbf
00000120: cdf5 c33e 1015 a03e d134 37bf 2b25 3e3d
00000130: e893 08ba 7e00 93bf 7216 533f 7fc5 753e
00000140: b815 46bf 32ef 9bbe 0c26 c13f 8fbc 113e
00000150: 9c6e dc3e f2d6 5a3e 6feb eabe 65e6 2b3f
00000160: 0218 28bf 1dde 5cbf 00d1 c5be 8d2f 7ebf
00000170: e832 993d 86aa 3abe 7e3a 9c3f 0820 22be
00000180: 5b13 813e 691a 28be 5e24 b3be 3df4 df3d
00000190: a749 2d3e 3a29 e43e 80d1 213f 55ac bd3e
000001a0: ad9f e7be eb4a 1cbf 7168 4d3f ee03 d1bd
000001b0: 9c4d 53bd 9523 4a3e e15e 903e 88b3 20be
000001c0: 9120 13be 7a00 2f3f 11b1 4f3e 7489 923e
000001d0: a38a dc3e aa91 b6be d5fa 9bbe 9ef5 893d
000001e0: c93c a5bd 4944 fc3d 5e11 8bbf 1c03 6e3c
000001f0: 02aa f0bd 507a 2c3e 6690 943e 4dab 13bf
00000200: 4db9 cfbe 98fd b83e 1dca 813f 5857 4cbe
00000210: ab1d 1b3d 3425 08bf 27ea d23e dfc2 dbbd
00000220: 170d 09bf 133d 013f 08f9 9c3e b735 d43d
00000230: 655e cd3d 2478 16bf 744e 30bd fdca 1b3d
00000240: cf02 1d3f 5703 103f 020f 2a3f e61e 3c3e
00000250: f1d8 2f3d b844 93be 7677 213e 5f09 c23c
00000260: 8372 cd3e d3fe b93e 5323 073f 042c 853e
00000270: 0e8d f9be 2d0a fcbd 357e 9bbb 2e2e 44bc
00000280: c9df 65bf 816c 363d 2899 01be 89fe 70bf
00000290: 9aa6 943d b6d8 073f a620 b3be 1f26 62bf
000002a0: e82e 9f3d 8c9e 873d d4d6 593f 3ba7 903d
000002b0: 4f64 4e3e 611b a43d b41e 773e 3211 cabe
000002c0: c024 eb3b f87e 1f3f 7e42 c63d c530 59bf
000002d0: 1424 353e 110d bebe f971 a8bd 669b 443e
000002e0: 618d 53bc 316c 113f a634 4fbe 8600 1ebf
000002f0: 8e1b 22be 7f1d 9dbe 9dff cebd 34c4 0dbe
00000300: 5846 1dbd c4af 5a3e 954b dabd 9f27 a53d
00000310: 9659 b3be acc4 b43e b83e c63e ed6a e9be
00000320: aa0c 673e fe0d 3dbe 00bc 9b3f d586 95bf
00000330: 6f1c 40be 7cb3 a0be e637 5e3e 3b4d bc3e
00000340: b5cd 4b3e 74d9 a0be c78e 003f 941b ed3e
00000350: 27bd 7e3d 360b 613d 2409 d2be b7b2 86bf
00000360: beda 583e 4bce 0a3f eae6 673f 5bbd 743d
00000370: e909 113f baac 993d ba59 c13d 25ec d33c
00000380: d798 b8bd 6ef3 48be 7f82 88be 856f db3c
00000390: b473 563e e702 26bf c807 c0bc 0176 f3bd
000003a0: 7e76 0c3d 2519 23be 9fa2 83bf 2a2a 50be
000003b0: 14e9 19be 756e 6a3e 482b 613d 3947 7dbf
000003c0: a8b6 0c3f e3e5 dc3d 5374 45bf e089 55bf
000003d0: 17e6 b6be 9ba1 113f 5e4c 83bc 8baf c93e
000003e0: 02d5 123f 0774 0f3f 1940 093e 67c1 5abd
000003f0: 195c 69be b9e5 f33e 7bd1 a1be d6ff c33d
-0.1996795 0.010077155 1.6243485 0.41544208 0.19393927 -0.1235815 0.20484859 1.2363039
0.40408528 0.863644 -0.3717581 -0.085269 0.52075547 -0.18135837 0.2997607 -0.044672526
0.24768111 0.18942778 -0.19588464 -0.84027267 0.009990915 0.6062731 -0.8704213 -0.039774675
0.39094305 -0.016705323 0.05785684 -0.23218454 0.053483043 -0.11795719 0.14740328 0.35365242
0.9909631 -1.0878769 -0.15585856 -0.74392843 -0.09910354 -0.101256594 -0.4201702 0.45051152
-0.059999768 -0.09633585 -0.10292826 1.1874214 -0.3882538 -0.104938395 -0.12927063 0.2724211
-0.005599788 0.96358854 0.44558057 -0.4869527 0.34840524 1.275591 0.49241588 0.16635966
0.35173568 0.15752865 -1.0733688 -0.25690126 -0.305272 -0.6748372 -0.41943154 0.1466678
-0.11629533 -0.8261784 0.9261623 0.43571863 0.08335042 1.7453159 -0.13188715 -0.543999
0.3827347 0.3126607 -0.71564966 0.046422165 -0.0005210028 -1.1484525 0.82456124 0.2400112
-0.7737689 -0.3045593 1.5089736 0.14232086 0.43053138 0.21371058 -0.45882747 0.6714843
-0.65661633 -0.8627642 -0.38636017 -0.99291307 0.07480413 -0.18229112 1.220535 -0.15832531
0.2521008 -0.16416325 -0.34988683 0.10935257 0.16922627 0.44562703 0.63210297 0.3704554
-0.4523901 -0.61051816 0.8023749 -0.10205828 -0.051587686 0.19740136 0.28197387 -0.15693486
-0.14367892 0.683601 0.20282389 0.28620493 0.4307452 -0.35658008 -0.30464807 0.06736301
-0.080682345 0.12317712 -1.0864675 0.0145271085 -0.117511764 0.16843534 0.29016417 -0.5768326
-0.4057106 0.36130977 1.0139805 -0.19955194 0.03787009 -0.5318177 0.4119427 -0.10730528
-0.535356 0.50483817 0.30658746 0.10361808 0.1002777 -0.5877707 -0.04304357 0.03803538
0.6133241 0.56255096 0.6642915 0.18371162 0.0429315 -0.28763366 0.15768227 0.02368611
0.40126428 0.36327228 0.52788275 0.26010144 -0.4874043 -0.123066284 -0.0047452697 -0.011973901
-0.89794594 0.04453707 -0.1265608 -0.9413839 0.07258339 0.5306505 -0.34985846 -0.8833942
0.077726185 0.06622037 0.85093427 0.07063147 0.20155452 0.080130346 0.24132806 -0.39466244
0.007176012 0.62303114 0.09680651 -0.8484004 0.17689544 -0.37119344 -0.082248636 0.19199905
-0.012912125 0.5680571 -0.20234928 -0.6171955 -0.15830824 -0.30686566 -0.10107348 -0.13844377
-0.038397163 0.21356112 -0.106589474 0.08064198 -0.35029286 0.353063 0.38719726 -0.4558939
0.22563425 -0.18462369 1.2166748 -1.1681772 -0.18760847 -0.31386936 0.21701011 0.36777672
0.1990269 -0.31415904 0.5021786 0.46310103 0.06219211 0.054942332 -0.410226 -1.052329
0.21177194 0.5422103 0.9058672 0.059750896 0.56655747 0.07503648 0.09440942 0.025869438
-0.09013527 -0.19624111 -0.2666206 0.026786575 0.20942575 -0.6484818 -0.02344121 -0.11887742
0.03429269 -0.1592756 -1.0284003 -0.20328584 -0.15030318 0.22893699 0.054972917 -0.989368
0.5496621 0.10786035 -0.7713062 -0.83413506 -0.3572242 0.56887215 -0.016027626 0.3939174
0.57356274 0.5603642 0.13403358 -0.0534071 -0.22789039 0.47636202 -0.31605133 0.09570281

lstm.weight_hh_l0 f4 [392, 98]
00000000: 0d88 12bf d8fc 1cbf 2261 193e 9458 f43c
00000010: 2caf d2be fa8e 34be 4575 673a 599b 6cbd
00000020: d945 21bd 6121 26be a005 8ebc 13d9 b4bd
00000030: d10c 3c3c 2d39 27bd 0115 c9be 218b 073f
00000040: 48ab 7d3e ff63 953d eaf5 a63d cc57 c73e
00000050: 729a a9be 6192 28be a865 07be e09d a33c
00000060: 76f8 c33d 9316 e33e 9246 b3be fbf3 443e
00000070: 4ff2 fd3e 280b ffbe d051 653e 17c0 ed3d
00000080: 38b5 febe e47a 323d 8a30 ddbc 12b9 45be
00000090: e7f8 2abf 7c20 13be 4b40 9ebe 8f85 3f3f
000000a0: 4527 10bf 025e 13bf 5dc0 8fbe ac6e e9be
000000b0: a124 793e f7ce eabe d1a5 b93e 6514 df3e
000000c0: cac5 6fbe 89f5 a23e 8343 e4be 82f0 fc3e
000000d0: 68a1 d5bd 8710 92be 8731 273e c82a 6abe
000000e0: b1c5 983e ac44 56bd e1ab a53d 3c53 9b3e
000000f0: 1604 183e 4479 c8bc 5d27 47be b8b9 603e
00000100: 9584 11bd 3f93 e43d 2373 2d3f 1163 eabe
00000110: 5d11 4dbe 9d46 15be 5326 98be f2ce c63a
00000120: 855a d83e 2443 603f 19b3 523f 85eb 1b3f
00000130: ec3b c0be bbaf 85be 1223 9abe 9419 28be
00000140: 2499 68be 2647 94be 4073 a33e a325 f9bd
00000150: bd5c e6bd 3fd0 863e aca1 813e 54ac 3e3d
00000160: 33ee f83d c99c 293d 8375 2b3d 012d 133e
00000170: 9ed4 463e a5d4 84be 570e 0ebf 0700 06bf
00000180: 7b9c 41bd 3a42 0ebe 5e01 5abe 928a dabe
00000190: ff26 c1bd b8fb 59bf 3463 9cbe eb38 203e
000001a0: b746 b3bd c660 11bf 19c2 803e 1674 c53e
000001b0: 595f 76be c8e7 babe 7f14 1abe e600 81be
000001c0: 3221 273f 922a b63e eb8e 3d3d b7a5 7ebe
000001d0: 922c 9ebe ce42 61be 7b0f 85be f23e fabe
000001e0: c7f6 223f f0af 8a3d 9485 b93d c38a 3cbf
000001f0: 99ff 9dbe bc48 083f d3f0 b43c 4153 7bbe
00000200: 8371 61be 6088 803e 1141 24be ba7b d53e
00000210: cd8f 2ebd 2aed 01bf 7259 593e 225c 78be
00000220: 1465 103e 38ef a23e d8d9 75be 3c64 5bbe
00000230: db93 263f 4346 53be 3d66 f93e 2c33 ae3d
00000240: 6361 0c3e bff3 403e fcfe f6bd f59d 223f
00000250: 8f81 223e 472c bf3e 3cef 973e 4a26 ff3e
00000260: dc49 93be 3f59 ea3d 2277 923e 4be7 d03e
00000270: df2b a33e aa2b 3abd 1f18 9bbd a971 f73d
00000280: 7138 6e3e e9ff f0bd ed8f 483e 3538 703f
00000290: 41b2 b2bd 579e 39bc fe06 42be af6e dd3d
000002a0: fa70 813e 8c89 f93e 68fd cf3e 1724 0c3e
000002b0: 3b48 023e 7605 e93d cf45 62be fd99 25bf
000002c0: afc2 393e 35d3 dfbd c05c 63be 23ca 133e
000002d0: b91d 463e cb85 8a3d 011b c5be 1b67 2ebf
000002e0: 488e e33e 5261 0a3f 9d57 56bc 1480 2e3e
000002f0: 2f68 2c3c be89 983d 32f7 8d3d a4b0 353e
00000300: 94ab 153d ec66 93be 93b5 9c3e 3c79 2dbe
00000310: 2922 28be 66a4 07bf 0fc0 9a3d d9e6 5ebe
00000320: fbd7 5bbe e40a dc3e a61b 8fbe 4bb3 b7bd
00000330: 9585 333e f340 debe dc1b dc3e 80a7 8d3e
00000340: 7d89 cb3e 4a63 80be 6516 a83e 1d88 603e
00000350: 2121 84bd 0874 f93e 5cb8 c1be fb9d e7be
00000360: 8715 653c 55b1 b53d f184 ee3d 12ab 413d
00000370: 46d0 203e 4525 8f3d 0e45 313e 9d85 6cbc
00000380: 03d6 113e 36fa c8bd 3b8b b3be a098 bcbe
00000390: afdc c83d dec5 7fbe a872 073e b03f a53d
000003a0: 5f04 d1be a6f8 a9be e07a 363e 712c 8dbe
000003b0: c3d1 67be b897 a5bd 42ee 8dbd aa13 61bc
000003c0: db86 143e b5e3 06be d19d 093d f50f c4be
000003d0: 4d1f 76be e180 fd3d fc24 453e 106f 883e
000003e0: 682a b63e 6e22 443e fd1e 40bd f28d edbc
000003f0: c64c 453e 250d 883c 7566 dd3d e1cb 0bbe
-0.57238847 -0.6132331 0.1497846 0.029827394 -0.4114927 -0.17632666 0.0008829425 -0.05776534
-0.039373253 -0.1622367 -0.017336667 -0.08830466 0.011477665 -0.04082601 -0.39273837 0.5294667
0.2477237 0.07294463 0.08152373 0.3893417 -0.33125645 -0.16462089 -0.13222373 0.019972742
0.095688745 0.4435316 -0.35014778 0.19233696 0.4959893 -0.498132 0.2239449 0.11608904
-0.49747634 0.04357423 -0.027000684 -0.1930888 -0.66786045 -0.1436786 -0.30908427 0.7481317
-0.5630992 -0.5756532 -0.2807645 -0.45592248 0.24330379 -0.45861027 0.3625932 0.43570247
-0.23415294 0.31827953 -0.44582757 0.49402243 -0.104311764 -0.28528234 0.16327487 -0.22867882
0.29838327 -0.052311584 0.08089424 0.3033694 0.14845309 -0.024471886 -0.1944861 0.21945846
-0.03552683 0.111608975 0.6775381 -0.45778707 -0.20026155 -0.14577718 -0.2971674 0.0015167876
0.4225656 0.8760245 0.8230453 0.6090625 -0.37545717 -0.26110634 -0.30104882 -0.16416007
-0.22714669 -0.28960532 0.31923866 -0.12165382 -0.11248157 0.26330754 0.25318658 0.046551064
0.12154808 0.041409288 0.041860115 0.14372636 0.19417045 -0.25943485 -0.5549063 -0.5234379
-0.047268372 -0.13892451 -0.21289584 -0.42683846 -0.09431266 -0.8514972 -0.30544436 0.15646712
-0.08753722 -0.5678829 0.25148085 0.3856513 -0.2405981 -0.3650496 -0.15046881 -0.25195998
0.6528503 0.35579354 0.046278875 -0.24867903 -0.3089338 -0.2199814 -0.25988373 -0.48876148
0.636578 0.06771839 0.09058681 -0.73649234 -0.30859068 0.53235984 0.02208749 -0.24543478
-0.22015958 0.25104046 -0.16040446 0.41695958 -0.042617608 -0.5075251 0.21225527 -0.24253896
0.14101058 0.31823134 -0.24008882 -0.21424955 0.6506936 -0.20632271 0.48710814 0.08505854
0.13709025 0.18842982 -0.12060353 0.63522273 0.15869735 0.37338468 0.2967471 0.498339
-0.28767288 0.114428036 0.28606516 0.40801463 0.31869408 -0.045451798 -0.0757296 0.12082226
0.23263718 -0.11767561 0.19586153 0.93835765 -0.087254055 -0.011329255 -0.1894798 0.10812127
0.25281507 0.48737752 0.4062302 0.13685642 0.12722866 0.11377995 -0.22096942 -0.6468809
0.18140672 -0.109289564 -0.2220335 0.14432578 0.19347276 0.067638 -0.38497165 -0.68126076
0.4444449 0.5405475 -0.013082412 0.17041045 0.010522886 0.07448147 0.069319144 0.17743164
0.036540583 -0.2878946 0.3060728 -0.16940778 -0.16419281 -0.5298523 0.075561635 -0.21767749
-0.21469109 0.4297706 -0.27950782 -0.08969744 0.17531426 -0.43408927 0.42990005 0.27666855
0.39753333 -0.25075752 0.32829586 0.21926923 -0.06451631 0.48721337 -0.37835968 -0.45237717
0.013982183 0.08871714 0.1164645 0.047282286 0.1570445 0.069895305 0.17311499 -0.014436153
0.14241795 -0.09813349 -0.35067162 -0.36835194 0.09807717 -0.24977824 0.13227332 0.08068788
-0.40823647 -0.33197516 0.1782031 -0.2757297 -0.22638611 -0.08085579 -0.0693021 -0.013737598
0.14504568 -0.13172801 0.03359777 -0.38293424 -0.24035378 0.12378097 0.1925239 0.26647234
0.35579228 0.19153759 -0.046904553 -0.028998349 0.19267568 0.01660783 0.10810558 -0.13651992

lstm.bias_ih_l0 f4 [392]
00000000: 7ac3 89be 0a19 10bf eb82 32be 3bfd 663d
00000010: e24a 70be 7286 d4be be65 79be 919f 26bd
00000020: 332f e3be 4bc7 843d 8451 25be 6774 2abe
00000030: 05c8 ecbd 0c07 fdbd cc38 653e 33db 8dbd
00000040: d204 293d d0ce 60be 709b 47be 2e77 e9be
00000050: 6a82 2abe 73d5 8fbe 9c8c babe f1b8 7dbe
00000060: 3976 d53d 0feb b4be be60 8d3d bdee b1be
00000070: 22fc 08be 02cc 9d3d d4fe 17be cfd1 79be
00000080: 8f00 9abe 8941 e6bd 198c f5be 909b 61be
00000090: c861 0cbd 6ae3 c3be dd66 12be d811 acbe
000000a0: 0ea1 edbd b5d2 00bf ac68 26bf 7b11 a3bc
000000b0: e399 98bd 985f 57be b31f 7abc 8636 fd3c
000000c0: 9fd4 1fbe a207 86be b468 863b 8d01 68be
000000d0: 074d ae3e cf2d 01be a8c9 6abe c03d 83bd
000000e0: d57e a1be e1b2 8abd 5196 5dbe 61be a4be
000000f0: b640 09bd 4b14 e2be 299e 92be d375 273e
00000100: cca1 e93d 27bf 09be 81ba e6bd 0d33 f43d
00000110: bec0 58be ceae 8c3e c532 b0be 2ea8 c4be
00000120: e7a3 803d ec61 773e 7cba d03d 749c ca3d
00000130: 926b 0c3e ede9 15bc ef75 1f3e 0fdc 60be
00000140: 424e 12be dba1 a0bc ba96 0cbe c5b5 e3be
00000150: b174 66be ace4 babd 9943 c1be 7ebe a5be
00000160: 199d 05be 29aa bbbe 5fca 74be 3dcd 82bd
00000170: 251e 95bd d8ff b8be ed73 7dbe d337 6fbe
00000180: c407 80bc 64f3 47be edb7 083d f120 4c3e
00000190: 01de 83be 19a4 12be 2a8e 263e 97d6 923e
000001a0: 8e69 95be 50fe 25be d77b ed3d f582 41be
000001b0: 0c65 0abe 4a2c 31bd f36c 1d3e 66c2 253e
000001c0: e4a0 bdbe 7c38 b43d 3ec9 1bbe ebf8 05be
000001d0: e92e d23e 4c01 693e cf43 c03e e452 1a3d
000001e0: 32b2 15b9 bde6 383e e799 b0be e58e bdbd
000001f0: b93b c73d a7fc 4e3e 696b 8d3e d4ae b7bd
00000200: 52fc 8a3e 193e b1bd 82e4 82be 6be1 643d
00000210: d18f 4c3e 230e 133e 10ff 5d3e 4489 3d3e
00000220: 8645 20bd 5159 5e3e 7d1e d13d 131f 9e3e
00000230: daba 8f3e c730 be3c 92c0 f93c 1a6f 0e3d
00000240: b0a8 49be fb8b 7abd 9974 bf3d 683a a03d
00000250: 8877 923e b6c2 763e 5c87 b1bd 3363 2f3c
00000260: 51d1 793e d089 883e 1900 803d a7d3 42bd
00000270: f774 053e e069 233e a026 82be d5c8 a73e
00000280: 1d7c 313d 34e5 8fbd 3c14 b43e 0c07 9f3e
00000290: 671f c3bd 534c 253f a866 69bd 4817 383e
000002a0: 88b8 823e ebb8 0b3e 5e59 c33e db23 eebd
000002b0: 0d2f 6cbd c66a d4bc 4a73 163f 35bb 5abc
000002c0: ae4c 4c3e 190c 793d c7dc 063e 6952 e73d
000002d0: 7f8d 1f3e 69ab 2e3e f9cd b33e 938b f23c
000002e0: 6eee 763e 9fbd a3be 9a67 063d 9ac9 113e
000002f0: 38f6 8a3b 6784 153d b026 aabc d9db 133e
00000300: ecf0 9f3e 2db9 86be f892 a5bd 310b 513e
00000310: 42c3 d2bd a6ee 233c f047 89be b51a 8ebc
00000320: 5524 2cbe a23f bbbd b755 083d f902 0f3e
00000330: c890 e43c b2f7 343e bb42 54be 0aaf 88bd
00000340: 2f52 21be 894e 11bc 5d3c a6be a281 983d
00000350: 66cf 8cbe 84f0 18be 4d21 83be 0e09 bcbc
00000360: d2bc 15be 3301 5bbe c5ad 513d 41d5 313d
00000370: 9af3 1e3d ba0b c0bd e0ca 1cbe 3825 b03d
00000380: cebf 48bd 54de 243e 05e9 8c3e ad3e 13be
00000390: c4b6 f9bd 8477 943d 2bf9 d43d 5e73 043e
000003a0: 983c a63d 39c5 503d 86d7 09be a2d8 4c3e
000003b0: ab6f e53d 58e2 5d3d 2c22 aebc 3c87 8c3e
000003c0: b671 8c3d b02a 8ebd 7e64 ea3d 40ec e8bd
000003d0: 9499 9b3d 1930 bebd 6a54 1d3e 7361 5d3b
000003e0: 2772 f8bd 7eb3 d8bd 6b4a 433e a327 5d3e
000003f0: 5923 7fbd f93d 923d 722a e4bd d353 2c3e
-0.2690695 -0.56288207 -0.17432754 0.056393843 -0.23466066 -0.41508824 -0.24355218 -0.040679518
-0.44371948 0.064833246 -0.16144377 -0.16645966 -0.11561588 -0.1235486 0.22384948 -0.069265746
0.041264363 -0.21953893 -0.19492888 -0.4559874 -0.16651312 -0.28092536 -0.364354 -0.24777581
0.1042294 -0.35335585 0.06903218 -0.34752455 -0.13377431 0.07704927 -0.14843303 -0.24396442
-0.3007855 -0.112429686 -0.4795845 -0.22031999 -0.03427294 -0.3825944 -0.14297052 -0.33607364
-0.11602984 -0.50321513 -0.65003467 -0.019905796 -0.074512266 -0.2103256 -0.015266347 0.030909788
-0.15608452 -0.26177698 0.004101837 -0.22656842 0.34043142 -0.12615131 -0.22928488 -0.06408262
-0.31542078 -0.067724 -0.21639372 -0.32176498 -0.03350898 -0.44156107 -0.28636292 0.1635354
0.114078134 -0.13451825 -0.112660415 0.119238 -0.21167275 0.27477115 -0.34413734 -0.3840956
0.06281262 0.24158448 0.10191819 0.09893122 0.1371291 -0.0091500105 0.15572332 -0.21958946
-0.14287665 -0.019608429 -0.13729373 -0.44474617 -0.22505452 -0.09125647 -0.37746885 -0.32371897
-0.13048209 -0.3665326 -0.23905323 -0.06386802 -0.0728114 -0.36132693 -0.24751253 -0.23361139
-0.015628703 -0.1952644 0.03337853 0.19934441 -0.25755313 -0.14320411 0.16265169 0.28679344
-0.29182094 -0.16210294 0.11595886 -0.18897612 -0.13515109 -0.043255128 0.15373592 0.16187438
-0.37036812 0.08799836 -0.15213487 -0.13083236 0.41051415 0.22754401 0.37551734 0.037676707
-0.0001427613 0.1805677 -0.34492418 -0.092557706 0.09728188 0.20213567 0.2762101 -0.08968893
0.2714563 -0.08654422 -0.25564963 0.055879038 0.19976737 0.14360861 0.2167933 0.18509394
-0.039128803 0.21713759 0.10210893 0.30883083 0.28072244 0.023216618 0.030487332 0.034773923
-0.19693255 -0.061168652 0.09348411 0.0782364 0.2860682 0.24097714 -0.08668396 0.010704803
0.24396254 0.26667643 0.062500186 -0.04756513 0.130329 0.15958357 -0.25420094 0.3277041
0.043331254 -0.07026139 0.35171688 0.31060064 -0.09527474 0.64569587 -0.056982666 0.17977631
0.2553141 0.1364476 0.3815412 -0.11627933 -0.05766206 -0.02592982 0.5876967 -0.013350298
0.19951126 0.060802553 0.13170157 0.11295015 0.1558132 0.17057575 0.35118082 0.02960757
0.24114391 -0.31980607 0.032813646 0.14237061 0.0042407773 0.03650322 -0.0207704 0.14439334
0.31238496 -0.26313153 -0.08084673 0.20414425 -0.10291149 0.010005629 -0.26812696 -0.01734672
-0.16810735 -0.09142996 0.03328487 0.13965978 0.027901068 0.17672613 -0.2072858 -0.06674011
-0.15754007 -0.008868822 -0.3246793 0.074466005 -0.27501982 -0.149355 -0.25611344 -0.022953536
-0.1462281 -0.21387176 0.05119111 0.043416265 0.038806535 -0.09377237 -0.15311766 0.08600849
-0.049011044 0.16100436 0.2752153 -0.14379378 -0.12193063 0.07249358 0.103990875 0.12934634
0.08117026 0.050969336 -0.13461122 0.20004514 0.112029396 0.054170936 -0.021256529 0.27446926
0.06857626 -0.06941736 0.114449486 -0.11373186 0.07597652 -0.09286518 0.15364233 0.0033780008
-0.12131148 -0.105811104 0.19071357 0.21597151 -0.06228957 0.071407266 -0.11140908 0.16828851

lstm.bias_hh_l0 f4 [392]
00000000: 102b 47be 204e d7be cb8f 0fbe c8d6 61bd
00000010: f47d a0be a48e bbbe b062 53be b518 6bbd
00000020: f604 15bf 5825 d3bc bd56 313c 167d eabd
00000030: 9d7f 60be e16a 8ebe 696b c93e d683 c6bd
00000040: 295c 06be 79ae abbe c5a1 44be 09ed a8be
00000050: 6c77 d2bd 69eb b0be 2fc2 42be 39d7 aebe
00000060: 4e9d a73d fd1b 9fbe 499a 933c 9d5a 8abe
00000070: d448 0abe 277c 7b3d a5a1 41bd d88f c2bd
00000080: cd04 17be bf29 86bd d8a1 d5be 45ce 98be
00000090: 61cd 073e 6f0c 06bf 77c1 04bd 55d7 91be
000000a0: 9aa3 3cbe 4a5e dcbe 617f 18bf 0c38 c6bd
000000b0: 5ebe 1abe 9694 c9be 272d d4bd e6e5 2bbd
000000c0: 02c8 3fbe f404 65be 1670 2e3e 1bac 83be
000000d0: f3bd 143e 21c2 7cbd 6910 40be b7a0 16be
000000e0: 75f0 95be 145f 81bd f5c5 31be e978 e3be
000000f0: 7b53 1dbc 5923 ddbe 52c8 90be 6480 773e
00000100: 7564 52bd a680 73be db86 03be d9d5 1abd
00000110: 6519 7dbe 4b6e 133e a223 ddbe ef30 bfbe
00000120: bebf 943b 4a18 873e 3258 5c3b 4e94 aebb
00000130: 17af e13d 6138 00be 4500 313e 6fb6 3cbe
00000140: c145 b9bd f9ec 7bbd e008 20be 12ff c2be
00000150: ed8a 90be daee 31be 2f9e 9cbe f74b 2dbe
00000160: e125 0fbe 9dba dabe 9116 a0be bf7a c9bd
00000170: fa9a 373a de9b abbe f84d 69be 38e6 7dbe
00000180: 3190 213d bbff 86bd 801c bf3d 1428 923e
00000190: ea11 4fbe 53a4 ecbd a89a 9d3d 53fb 743e
000001a0: 9d46 5cbe 4d43 22be 0533 f93d e207 efbd
000001b0: 4eb1 b9bc 1392 c13d 7275 7e3e 9c03 473e
000001c0: 2f03 c1be 1216 403d 9de8 efbd 5175 0dbe
000001d0: e3e6 763e da9d 863e b69b c03e cf8a 033d
000001e0: c85b e53c fffa ae3d 944c b8be f890 1ebe
000001f0: 6a96 b23d 265f 9c3e d486 b13e db4f 3fbb
00000200: f907 9d3e 6ff1 afbd 07dc 92be 08fe 073e
00000210: b892 933d e742 023e f535 433e 18e3 0d3e
00000220: 42c3 2b3c 0101 243e 47a9 4c3e 7c60 933e
00000230: 2972 913e 5690 b83d 3a9b 5f3d 79a0 773d
00000240: bcc0 1abc 5e20 76bc 0ebf 423e 3f6d d33d
00000250: a86f a83e 55a0 4f3e 2ef8 03bd fdac f93d
00000260: f26e 7a3e f476 2f3e 5ef1 2abd cad4 f8bc
00000270: 385d 5e3e 6085 3c3e cbbe 12be 60eb 9f3e
00000280: b2f0 883d 2810 79bd 2df3 853e 3d70 c43e
00000290: 013c 11be b821 1a3f 4691 fe3c a00e ee3d
000002a0: e9dd 783e 8c19 5c3e aff7 c93e 7ce9 0dbe
000002b0: 24c7 f2bd 2cad 943c a925 193f 467f 653d
000002c0: 56f8 c03d 6a44 e63d b831 e73d dafd 663e
000002d0: 0662 263e cb3c 803e 62b6 9e3e 4582 8a3d
000002e0: 48ad 523e d96f 56be c594 33bc e48d 993e
000002f0: 7928 e7bd fc31 563d 01ed 8f3d 6740 713e
00000300: eea7 833e 4a0d d8bd 0f20 d6bd ebbf 1b3e
00000310: f50a 303d ada7 18be c645 bcbe 69a1 81bd
00000320: 9eda 22be 5b4d 9ebb deef bf3d 3785 7b3e
00000330: 9017 6e3d 9ea2 6a3e 5157 c6bd 16be fc3c
00000340: 611f 01be 9594 ba3d 1f6e 8abe 25d4 ce3d
00000350: cdbb 91be 7e18 98bd bc4f 0cbe 9fe4 65bd
00000360: 26fe 19bd a98b 62be 2ac7 093e 0a4e bebd
00000370: 3a7d 153e aa25 c9bd 791a 91be cada 963d
00000380: 4491 b33b 8a7c 1d39 8fdc 8a3e aac7 19be
00000390: a930 82be 4475 2ebd 0936 51bd 362c 2f3e
000003a0: b427 cd3d 043e 4a3d bdb6 09be 35b4 a13d
000003b0: 6e15 d6bb 4e0a 57bd 6ba6 acbd 852a cc3d
000003c0: 08c3 f73d d5e2 cd3c c5cc 7e3d 80c0 cdbd
000003d0: fd49 9f3c 404d 10be 3d51 003e fb6e 2dbd
000003e0: 36e0 3ebd 1f6d 43bd 6647 db3d e99d 493e
000003f0: 7b3d b3bd 20bf f6bc fbdc fdbd 48a1 ed3d
-0.19450021 -0.42051792 -0.14019696 -0.055136472 -0.31346095 -0.36632264 -0.20643115 -0.05739661
-0.58210695 -0.025774643 0.010823903 -0.114496395 -0.2192368 -0.27815917 0.3933976 -0.096931145
-0.13121094 -0.3353155 -0.19202335 -0.32993343 -0.10276684 -0.34554604 -0.19019388 -0.34148577
0.081843 -0.3107604 0.018017905 -0.27022257 -0.13504344 0.061397698 -0.047273297 -0.09500092
-0.14747925 -0.06550931 -0.4172504 -0.2984487 0.1326194 -0.5236272 -0.032411065 -0.28484598
-0.18421784 -0.43040687 -0.59569365 -0.09678659 -0.15111682 -0.39371175 -0.103601746 -0.041967295
-0.1872864 -0.2236517 0.17034945 -0.25717244 0.14525585 -0.061708573 -0.1875626 -0.14709745
-0.29285017 -0.06316963 -0.17360671 -0.44428185 -0.009602423 -0.4319103 -0.28277832 0.24170071
-0.051365335 -0.23779544 -0.12844412 -0.037801597 -0.24716718 0.14397542 -0.43191248 -0.3734202
0.004539459 0.2638572 0.0033621904 -0.005327738 0.11019724 -0.12521507 0.17285259 -0.18428968
-0.090465076 -0.06150529 -0.15628386 -0.38085228 -0.28230992 -0.17376271 -0.30589435 -0.1692351
-0.13979293 -0.427205 -0.31267217 -0.09837865 0.00070039893 -0.33517355 -0.22783649 -0.24794853
0.039444152 -0.065917455 0.09331608 0.28546202 -0.20221677 -0.1155478 0.07695514 0.23923998
-0.21511312 -0.15845986 0.12167934 -0.116714254 -0.022667553 0.094516896 0.2484949 0.1943497
-0.3769774 0.046896048 -0.11714289 -0.13814284 0.24111514 0.26292306 0.37618798 0.0321148
0.027997866 0.085439675 -0.35995924 -0.15484989 0.087200955 0.30541342 0.34673178 -0.0029191885
0.30670145 -0.08590972 -0.28683493 0.13280499 0.07205719 0.12720834 0.19063552 0.1385616
0.010483565 0.16016008 0.19986449 0.2878455 0.2840741 0.09011905 0.054591395 0.060455773
-0.0094453655 -0.015022365 0.19018194 0.103235714 0.32897687 0.20276006 -0.032219104 0.12191198
0.24456385 0.17135221 -0.041734092 -0.030374903 0.21715248 0.18410254 -0.14330594 0.31234264
0.06686534 -0.060806423 0.2616209 0.3836688 -0.14183046 0.602077 0.031075131 0.11623883
0.24303402 0.2149412 0.3944678 -0.13858598 -0.11854389 0.018148981 0.5982309 0.05602958
0.09422366 0.11243518 0.1128878 0.22557774 0.1624833 0.2504638 0.30998522 0.06763128
0.20573914 -0.20941104 -0.010960762 0.29991066 -0.112870164 0.052293763 0.07027627 0.23559724
0.25714058 -0.1054941 -0.104553334 0.1520993 0.0429792 -0.14907713 -0.36771983 -0.06329615
-0.15903708 -0.004830999 0.09371923 0.24562536 0.05812794 0.22913596 -0.09684623 0.030852359
-0.12609626 0.09110371 -0.2703714 0.10099057 -0.28463593 -0.074265465 -0.13702291 -0.056126233
-0.03759589 -0.22123589 0.13454881 -0.092922285 0.14598551 -0.09821637 -0.2834051 0.073659495
0.0054799635 0.00015019081 0.27121398 -0.15017572 -0.2542775 -0.042592302 -0.051076923 0.17106709
0.100173384 0.04937555 -0.13448615 0.078957 -0.0065333163 -0.05250006 -0.08430179 0.099690475
0.12097746 0.025132576 0.062207002 -0.10046482 0.01944446 -0.14091969 0.1253099 -0.042342167
-0.046600543 -0.047711488 0.107069775 0.19689144 -0.08751961 -0.030120432 -0.12395664 0.116030276

fc1.weight f4 [9, 98]
00000000: 6f5c a93c 069f 503f 9882 913e a641 fa3b
00000010: 7bf2 9bbc 315b a53e 78c9 003f 5c71 3bbf
00000020: e157 67be cff9 3dbe 6500 aabe c4d0 d83e
00000030: 1a07 5f3e 93d4 01be a8be 49bf 5453 1d3e
00000040: b6fa 06bf 9b31 c33e b3b7 c9bc 4a07 4fbe
00000050: 19b3 8abd 74de e5bc 6eea 10bd bb34 8e3f
00000060: 9505 d3bd 1848 f9be 5fd8 5f3f 1357 a2bd
00000070: e90c 9a3e d489 6bbe dda1 3ebe 8394 21be
00000080: 589e 8f3e e602 753e 1d4a 1b3f bae0 ddbe
00000090: 2fa9 433e 02a2 a63e 4a8f 683e 1f1d 17bf
000000a0: 536d 3cbf 8c23 ac3d dde8 a5bf eb3e eb3e
000000b0: 927a dd3b 542a 4ebe 9f82 97be 0b8b a43e
000000c0: 7fe3 d33d 8373 7f3d 45ba 38be 50a2 96bd
000000d0: ede0 403e f5e7 a83e f6ad 11bf adcc 3b3e
000000e0: 5e3b 263e 99c7 fc3d d68d 4b3e 737f 163f
000000f0: db44 62bf ecdf a93e 4dd7 62bd 62e7 f8be
00000100: eedc 633f 67cd 933d bb55 5e3d 8647 8b3e
00000110: 19c7 f23d f466 823e 90a5 a7be 0a88 fbbb
00000120: c925 ee3e 61da 92be ea61 413e 351e 03bf
00000130: 7a85 acbd b9a1 b23e adfe 9e3e 7d37 f4bd
00000140: 410c c63e 567b 213d e716 ec3e a829 783e
00000150: 78d9 60bc b6be 63be bffd 0e3e b030 35bf
00000160: c301 3dbe f48f 183d d998 cb3e 5140 8f3e
00000170: 88e9 83be e767 1abf 2b22 9cbe fd9e 41be
00000180: 0289 7e3e a427 bebd 9b37 eaba 0c67 f0be
00000190: 8792 c6be 106a 063e 1085 7c3d c404 3d3e
000001a0: be63 d03d 2646 fa3b fa78 ebbc 4dc3 1f3e
000001b0: 6e37 b5be 912b cebe 8531 db3e 70e7 373e
000001c0: 8a97 1d3f 4ac6 953e 0aba bf3e d45f 223d
000001d0: 4587 d7be 7006 643e 8071 123e 387c ea3c
000001e0: ac46 263e a301 8ebc 2da0 873f b70b 0bbe
000001f0: 0b4d 473e e095 99bd 369d 993e daea 3a3e
00000200: 1899 11bf e1c9 9a3e 89f6 d5be 6ea2 e7be
00000210: d61d 813f 2c2b 1a3e f533 abbe 3906 16bf
00000220: 2e87 5c3e 686e 843e 3b38 cfbe d1ef 84bf
00000230: 838d 03bf 8640 463f 6a5e e4bd 881c 0dbf
00000240: 9443 a03e 2f00 6f3e b905 023f f037 96be
00000250: 64e9 263e 409b 03bd e841 b3be 998a 35be
00000260: 1da7 a03f 0085 2a3e f53b 60be 4c69 d4bd
00000270: 52c1 3d3f 22d9 d83e 995c 09bf 0bb5 a93e
00000280: d5b7 a4bc a34d 303f 03c7 d6be 90d3 cfbd
00000290: a5e5 d5be 9b5b a2be e368 413f 0e1f 98be
000002a0: f3e6 f63f 2824 a4be 9b71 86bd eed5 0f3e
000002b0: c005 03be ebbe 2ebe 1ba0 243d e269 12be
000002c0: 767b 67be 766d 38bd d445 6cbd 0d72 8ebe
000002d0: 4a3d 963d a347 453f 0d11 0fbc 9880 57be
000002e0: d128 2cbe dd42 c13e 5377 233d 2f2a ed3e
000002f0: c264 853e 475a 663d 053f 88bd 8d81 813e
00000300: 99b3 80ba 5a4f 6abe d165 90bf 9a0d 9a3e
00000310: de51 7fbe d180 f0bf b27c 3cbf c93a 383e
00000320: 2ade 7d3e acad 933e b44f 2b3e 5e92 01bd
00000330: a76e 943e 7a5e f6be 7ec4 fabd 06df 50bf
00000340: f783 bb3e 4e19 88be af73 f7be 8ef4 24be
00000350: e91e 9fbe fd3b ab3e 9320 c43d c9bd 25bf
00000360: 82b7 cdbc 9eb4 ce3e d284 94bd 8cf3 6a3f
00000370: 76a4 e5be 4abf dc3e 6c05 863d f24c 8a3e
00000380: f152 cf3d 26cc a23e e6f5 b93e 0436 263f
00000390: 9333 7bbe 6e2b d9be 8b34 debe fc4a 823d
000003a0: 7ea3 27bf 2de5 c4be d029 6c3e 0570 32be
000003b0: 33bc babd 89a1 8cbe 1734 663f 3339 2cbf
000003c0: da9f 0c3e 856f 2c3b 3527 df3e 4804 66bf
000003d0: 3c72 3abf 58d4 113f 4d11 0ebf 7c9e dc3d
000003e0: b9c5 32be b5d0 be3e bcfc a5be 4c5f 63bf
000003f0: 844f dd3e 2282 3cbe 5fab e3bd 42d4 d83e
0.020673959 0.8149265 0.28419948 0.0076372204 -0.019036522 0.32296136 0.50307417 -0.7321985
-0.22592117 -0.18552326 -0.33203426 0.42346776 0.21780053 -0.12678747 -0.78806543 0.15363818
-0.52726305 0.38123783 -0.024623727 -0.20217624 -0.067724414 -0.028060175 -0.03537982 1.1109842
-0.10303799 -0.48687816 0.8743953 -0.07926764 0.30087975 -0.23001796 -0.18616433 -0.15779309
0.28050494 0.23926887 0.6065996 -0.43335515 0.19107507 0.32545477 0.2271091 -0.5902881
-0.73604316 0.084052175 -1.2961689 0.4594644 0.0067589963 -0.20133334 -0.29591843 0.3213733
0.10346126 0.06236602 -0.18039806 -0.073551774 0.18835802 0.3298947 -0.5690607 0.18339796
0.16233584 0.12342758 0.19878325 0.5878822 -0.88386315 0.3317865 -0.055381108 -0.4861403
0.89008987 0.07216912 0.054280978 0.27203006 0.11854381 0.25469172 -0.32743502 -0.007676129
0.46513203 -0.28682235 0.18885008 -0.5121797 -0.08423896 0.3488901 0.31053677 -0.11924646
0.38681224 0.039424263 0.46111223 0.2423464 -0.013723724 -0.22240719 0.13963984 -0.70777416
-0.18457703 0.03724666 0.3976505 0.27978757 -0.25764108 -0.6031479 -0.30494818 -0.18908305
0.24856952 -0.092849046 -0.0017869355 -0.4695362 -0.38783666 0.13126397 0.061650336 0.18458849
0.10175274 0.007637757 -0.02874421 0.15601845 -0.35393852 -0.40267614 0.42811218 0.1795938
0.61559355 0.29252845 0.37446624 0.03964217 -0.4209539 0.2226808 0.1430111 0.028623685
0.16237897 -0.017334765 1.0595757 -0.13578688 0.19462983 -0.074992895 0.30002755 0.18253651
-0.5687423 0.30232146 -0.41789654 -0.45241112 1.008723 0.15055531 -0.33438078 -0.58603245
0.21535942 0.25865483 -0.40472588 -1.0385686 -0.51387805 0.77442205 -0.111508206 -0.5512166
0.31301558 0.23339914 0.5078998 -0.29339552 0.16299969 -0.03213048 -0.3501122 -0.17728652
1.2550999 0.16652298 -0.21897872 -0.10371646 0.7412311 0.4235316 -0.5365692 0.33145937
-0.02010719 0.68868464 -0.4194871 -0.10147774 -0.41776767 -0.31710514 0.7555067 -0.29711193
1.928923 -0.32058835 -0.06564637 0.14046451 -0.12795162 -0.17065017 0.04019175 -0.14298204
-0.2260569 -0.045026265 -0.05768378 -0.2782139 0.07335909 0.77062434 -0.008732093 -0.21045148
-0.16812445 0.37746325 0.03990872 0.46321246 0.26053435 0.05623844 -0.06652645 0.25294152
-0.0009819149 -0.22881833 -1.1281072 0.30088502 -0.24933574 -1.8789312 -0.7362777 0.17991175
0.2479178 0.2884344 0.16729623 -0.031633727 0.2899067 -0.48118955 -0.12244509 -0.81590307
0.3662412 -0.26581806 -0.48330447 -0.16108915 -0.3107827 0.33444205 0.095765255 -0.64742714
-0.025111917 0.40372175 -0.07251896 0.91777873 -0.44852036 0.43114692 0.06544003 0.2701183
0.10123242 0.31796378 0.36320418 0.6492617 -0.24531393 -0.42415947 -0.43399462 0.063619584
-0.65483844 -0.38456097 0.23062825 -0.17425545 -0.091179274 -0.27466992 0.8992323 -0.6727478
0.13732854 0.0026311588 0.435846 -0.8985028 -0.7283056 0.56964636 -0.5549515 0.10772416
-0.17458238 0.37268606 -0.32419384 -0.88817286 0.43224728 -0.18409017 -0.11116671 0.4234944

fc1.bias f4 [9]
00000000: f9f2 dc3d a28d ca3c 3d21 663c 271d 2e3d
00000010: 1808 0fbe 2ebc 4a3e 9998 0d3d 690e 3ebd
00000020: eabf 57bd
0.10788531 0.024725739 0.014046011 0.04250827 -0.13967931 0.19798347 0.034569357 -0.04640046
-0.052673258

exp_avg f4 [392, 1]
00000000: faa5 ff39 c7f4 3fbb c78d db3b 7104 973b
00000010: 3231 7a3b a37a b6bb 698e 9c3b d67c 8fb9
00000020: 9a3e 2db9 3e07 a43b 9de4 53bb f60d 973b
00000030: 39a0 04ba c837 383b cf91 ab3a a3f1 0cbc
00000040: 9769 9eb8 0047 a9bb 6c12 d7bb 8221 a63c
00000050: 1e7b a0bb 222e b33b 10ec 96bb 5bb4 86bb
00000060: 3bef aa3a 9eb1 103c 57c9 fbb9 88be cb3c
00000070: 9a2f 2e3b 8336 9839 d515 da38 c541 4eba
00000080: 254f 8db9 c76f ccb9 0537 0cbc ddc6 0ebb
00000090: b9d4 b2ba c1b3 09b9 7cf5 123a 21e9 77bb
000000a0: 2a8a c73b 25e1 053c 573a a83c 187c 553c
000000b0: dc68 67bb 6544 afba 823c c73b 52ff 04bc
000000c0: 0e67 1bba 7fe8 11bc 7c14 9c39 27ad 2cba
000000d0: 0f69 3a3c 0f9e 41bb cc50 ccba 06a0 fcb9
000000e0: 2355 da3a 8bbf 12bc a0d9 21ba 23a5 89bc
000000f0: 34af deb9 4b7d 50bc c410 a03b 6584 59bb
00000100: 8130 fc3a dcbc 343b bc76 2e3b d837 3d3a
00000110: f737 ceba fca6 f23c a167 b6bc b0c7 1abb
00000120: a01e 173b 33af 45b9 d259 4fba f3c3 923b
00000130: d53d bc38 73a4 a83b 2e88 95b9 330b 68bb
00000140: 452a 8c3b 9504 0ebb 3698 b2bb a82a 303c
00000150: 1fbc 783b 5a39 e03a e2bd e5bb 2b1d b2ba
00000160: c692 82ba e3ed eeb9 8713 943a f21f 8cbb
00000170: 0c86 bdbb d598 04bd 1fb6 80bb e051 78bc
00000180: d482 ecba 1b9e 603c 669a a636 25f8 e83b
00000190: 46ad 5a3b 3646 533a 3cf6 a43a 87af 80bb
000001a0: 3f26 a5bb 369c e9b9 c5c3 673a 4a63 b63b
000001b0: d99a 463a be64 1c3b aa48 233b faba 533a
000001c0: 13a6 713a ee46 163b ffe0 f6ba a56b 8e3a
000001d0: 3eb6 8e3c 6520 b33c ca1c 9eb8 e161 513b
000001e0: a1c1 2a3b e050 503b b391 923a 6100 bf3b
000001f0: 6774 6bba 7fbb 183b 508a 603b a991 04ba
00000200: 6c63 e73a 95d6 5b3a 79f2 33bb 2461 16ba
00000210: a2ae 8fbc 436b daba 42ad a4b8 271a 6a3b
00000220: 3ce6 4cba e36d a43a 3df5 533b 1eed c53b
00000230: 37ca d63c 6693 063c 3227 f73b a014 c5ba
00000240: 690b c1bb d82a 81bb 669c 193b 7465 3fbb
00000250: 27ce b5bb 4180 b43b 6cf7 3eba a821 873c
00000260: 45b0 b9bb f28f 96ba 4a7f 8b3a b9fa 36bb
00000270: 384f 1bba 4dd1 02bc 58e6 123b 5abe 89b8
00000280: d2b7 60ba e318 41bb e210 6a3a 93fc 9a3b
00000290: 4de5 3ebc b6ce 6a3b f5de ddba 73cd f23c
000002a0: ab57 feb8 1744 ee3a a8e0 8a3a 0dbb 8239
000002b0: 5075 cfb9 3089 d8ba 106c 203a 43b2 9a3b
000002c0: b129 75bb 3323 c73b 9770 f03a 02d0 193a
000002d0: cf85 6dba ac5b ca3b 4081 4e38 6333 0bbc
000002e0: 6333 5dbc 2946 c63b 0f3e 06bc 0ec6 afba
000002f0: 9f0a 383b 335e a5ba f3e4 1dbc ae64 75ba
00000300: 2b94 8c3c e5a5 06bb 9651 feba dbaa 1a3c
00000310: e2a2 033c 943d cdbb f05e 8f3c 75b4 013c
00000320: 6208 4d3b 2434 383c 9e23 153c 2a5f 1c3c
00000330: b904 57ba 698b cc3b 5f90 b43c 876e a4bb
00000340: 8dde 89ba 7e66 c1b8 8988 dfba eabc 7dbb
00000350: 278c 263c 78b4 e9bc 3840 15bc e4f3 c6bd
00000360: d1e4 59bc 3611 87bc d593 52bc 6a79 02bb
00000370: b174 6bbc 9741 2bbd 0286 113c 7891 67ba
00000380: 9844 cdbb 3967 1a3d 27d3 9c3b 2abc ea3b
00000390: 6683 a53c 5929 d2bc 319b 6a3b 277e 80bc
000003a0: f3d6 99bc 8431 d13a 4d6d 253c afd4 00bd
000003b0: 1fb8 343c 03cb f3bb 2197 1c3b b6cd 433c
000003c0: cf8c 8f3c 4c68 a93b 4fd1 1abd 2684 bf3b
000003d0: ebaa 6b3c 6000 90bc 5af3 babb 596b 50bb
000003e0: 988b 21bc 048f 823d 19fe 5bbd 6aa8 953b
000003f0: 55d7 c4ba be1a 20bc d241 87bc d01d 133b
0.00048761052 -0.0029290186 0.006700251 0.0046086838 0.0038176295 -0.0055688187 0.004777719 -0.00027368095
-0.00016521887 0.005005746 -0.003233231 0.0046098186 -0.00050592754 0.002810942 0.0013089719 -0.008602533
-7.553695e-05 -0.0051659346 -0.0065634754 0.02027965 -0.004897489 0.005468146 -0.0046057776 -0.0041108555
0.0013041267 0.00883141 -0.0004802446 0.024871126 0.0026578666 0.00029032314 0.000103991166 -0.0007868077
-0.00026952583 -0.00038993193 -0.00855804 -0.0021786012 -0.0013643719 -0.00013132302 0.0005606038 -0.0037828165
0.0060894685 0.008171354 0.020535631 0.013030075 -0.0035310304 -0.0013371824 0.006080211 -0.008117514
-0.0005928137 -0.008905529 0.000297699 -0.0006587081 0.011377587 -0.0029543673 -0.0015588044 -0.00048184412
0.0016657453 -0.0089568 -0.0006174091 -0.016802376 -0.00042473676 -0.012725185 0.004884811 -0.0033190486
0.001924053 0.002757839 0.0026621064 0.0007218099 -0.0015733232 0.02962064 -0.022266211 -0.0023617558
0.0023059025 -0.00018852651 -0.00079098076 0.0044789254 8.976056e-05 0.005146557 -0.00028520956 -0.0035407066
0.0042775 -0.0021670212 -0.005450274 0.010752358 0.0037953926 0.0017106936 -0.007011161 -0.0013589015
-0.0009961955 -0.00045572137 0.0011297324 -0.004276269 -0.005783802 -0.032372314 -0.0039279605 -0.015156239
-0.0018044361 0.01370957 4.96516e-06 0.0071096593 0.003336744 0.00080594735 0.0012585591 -0.0039271745
-0.0050399597 -0.0004455761 0.00088411226 0.0055660354 0.00075761747 0.0023863758 0.0024915137 0.0008076873
0.00092181674 0.002293046 -0.0018835365 0.0010865821 0.017420884 0.021866033 -7.5393895e-05 0.003194921
0.0026055353 0.0031786487 0.0011182338 0.0058289026 -0.0008981884 0.0023305116 0.0034262128 -0.00050571054
0.0017653531 0.0008386162 -0.0027457757 -0.0005736521 -0.017539326 -0.0016664047 -7.852401e-05 0.0035721154
-0.000781629 0.0012544956 0.0032342218 0.0060402295 0.02621947 0.008213853 0.0075425142 -0.0015036054
-0.005891253 -0.003941875 0.0023439168 -0.0029204758 -0.005548257 0.005508453 -0.00072847935 0.01649554
-0.005666765 -0.0011486991 0.0010642793 -0.0027920438 -0.0005924585 -0.0079844715 0.0022415128 -6.568125e-05
-0.0008572313 -0.0029464297 0.00089289073 0.004729816 -0.011651349 0.0035828776 -0.0016927408 0.029638981
-0.00012127993 0.0018178251 0.0010595517 0.00024934896 -0.0003956952 -0.0016520377 0.0006119618 0.0047209575
-0.0037408883 0.006077194 0.0018344101 0.00058674824 -0.00090607716 0.006175479 4.92346e-05 -0.008496138
-0.013501021 0.006050844 -0.008193507 -0.0013410465 0.0028082503 -0.0012616575 -0.009637105 -0.0009361011
0.017160496 -0.0020545658 -0.0019402977 0.009440149 0.00803444 -0.006263444 0.017501324 0.007916559
0.0031285514 0.0112429 0.00910273 0.009544173 -0.0008202303 0.006242205 0.022041498 -0.0050180587
-0.0010518596 -9.222048e-05 -0.001705424 -0.0038717338 0.010165251 -0.028528437 -0.009109549 -0.09714487
-0.013299183 -0.016487699 -0.012852629 -0.0019908794 -0.014371083 -0.0418106 0.008882048 -0.0008833627
-0.0062642805 0.037696097 0.0047859135 0.007163544 0.020204257 -0.025654482 0.0035798068 -0.015685154
-0.018779254 0.0015960191 0.01009686 -0.03145283 0.011030226 -0.0074399724 0.002389379 0.011950901
0.017523197 0.005169904 -0.03779727 0.0058446107 0.014384012 -0.017578304 -0.0057052793 -0.0031802265
-0.009859942 0.06374934 -0.053709123 0.0045671957 -0.0015017787 -0.009772001 -0.016510878 0.002244819

exp_avg_sq f4 [392, 1]
00000000: 7259 be38 a6f5 4b3c d943 213a f5ea 9839
00000010: 75af 793a 104c eb3a d271 1c3a 5a56 f539
00000020: 0c22 2738 8e4e 013a 1fac 9d39 fe8f 3339
00000030: e23c 8539 9225 d839 61a0 7f39 3643 323a
00000040: 9d1f 2f39 bd55 263a 24e4 873b ca07 a33c
00000050: 4da9 333a 73f8 5d3a 1fd8 4e39 7793 9c39
00000060: e89e 1e39 ee6b 9a3a c570 9738 735c 493b
00000070: 9fdd be39 233d eb38 2672 5739 5092 3e39
00000080: f619 8939 e6a4 d538 ea58 123a c0cb e039
00000090: f865 b13a 7d09 693b d683 a93a 8d1a 143a
000000a0: 1336 5a3a 53ec 1c3a 3e60 a63c 732a 733a
000000b0: e1d4 5a3a 8edc 8a38 9d56 493a ebac f039
000000c0: 7cca 1d39 e167 8c39 fad9 8139 3354 6839
000000d0: 0fbb 103a 837c 333a 643d 623b 338d 4b39
000000e0: 84e8 2538 de66 2d3a 7f62 6f39 daf2 0c3a
000000f0: bd07 7039 53c1 b43b c01e 023a 7b3d db39
00000100: b7f6 a838 cfbe 033a 4d42 fb3a 6a31 883a
00000110: 123f ea38 8451 f73a 10ad 613c e765 0a39
00000120: 8f6d 0039 07f0 2039 f9fc 6b39 737b 8c3a
00000130: a66c db3a ba6c 2839 1480 073a dec8 6c3a
00000140: 301e 6939 41c4 183a eee7 073a d5a0 cc39
00000150: 0d10 be38 3f5c 163a 9fb5 6739 95ca 0839
00000160: ba9a bb38 ded4 0139 156e 9839 4bc8 d039
00000170: ea3e 513a 9f99 553c 60fd 013b 4f06 eb39
00000180: 1526 0b3a 91ec b839 2f4d 0b38 c632 e43a
00000190: 7144 153b fdd1 fa38 55b0 de38 a0a7 f339
000001a0: ad85 333a f199 8139 132c cc37 a630 db39
000001b0: a5cc a939 94e0 3b39 8cd8 1b39 b17b e638
000001c0: 7a80 013a 916c 8039 dc26 2539 9b0d 883a
000001d0: 3030 493b 4f54 de3b de4a bd39 d3b9 ea39
000001e0: 0b67 e239 2700 993a 4c66 1c38 4035 173a
000001f0: b5fd 0f38 e054 0a39 2531 a739 81a9 2839
00000200: 8901 0b39 ea6c c638 c21e f538 37c6 b138
00000210: 0d4a ad3a 22e5 8839 02be 653a a2f0 893a
00000220: 3215 083a 809e f239 a704 8d39 6270 8339
00000230: ea7c ca3b 8edf 893a be1e a939 11d3 2738
00000240: 0942 7e3a 6c72 b139 1b6c 9d38 e5f2 dc39
00000250: 81b8 063a fc37 3d3a b429 b339 43f5 a03a
00000260: fd7d 1a3b 5320 e938 1ae8 1d37 3831 ff38
00000270: cc48 1739 b337 583a f0d2 c738 8ecc ea39
00000280: 0746 4b38 1648 4539 1dfe d037 3a20 eb39
00000290: a1e6 aa3a 757f e739 5cec 0339 88e3 f43a
000002a0: 1a59 1c3b 9639 e137 c77a 0138 5602 aa38
000002b0: eb15 ef38 6529 9f3a f871 5238 f50e 1139
000002c0: 2279 6a39 7173 5139 6798 0b39 eed6 093a
000002d0: d64b 613a 24fc 5639 c06e 8437 1a20 3d3a
000002e0: 625a 9e39 0a58 8539 f3f2 3539 e926 4c39
000002f0: 2da2 c338 88ba 8539 3f08 0c3a 4d3d 813a
00000300: 47ff cf3a d3c0 0e39 1776 b139 07d5 5f39
00000310: a61b e03a 8e61 a63b de87 a73d ae06 dc3a
00000320: 2ebc a43a 7392 7c3b 0623 093c 5997 043c
00000330: 607c 693a 4651 c33b 85f9 fc3b 9546 a33a
00000340: 4cef 653b 3681 013a 2f87 c33b a1f6 6a3a
00000350: ceb2 153b 2dbf dd3b 0b6e 4a3c 2eec 243d
00000360: 4d5c 713b fb30 053c 13ee e53a 5776 3e3c
00000370: 0020 483b 6854 dc3c 38b1 443a 1bd1 f73a
00000380: f826 593b 7fd4 9b3b 098a d83a 02fe ae3b
00000390: aeba 4e3c a040 f43b d70f af3a 25fa b93b
000003a0: bfc1 0d3b c4ca 7c3b 7d92 923b d20d 933c
000003b0: 6b17 183b f911 e73a 3529 403c c8ef b03c
000003c0: fc84 af3b ca18 883a a9d2 6b3d 78e5 fc3a
000003d0: 5af7 a63a fc4f d53b 9314 123c de8f a53a
000003e0: a464 ab3b ca7a 873c 0571 973d ed20 e33a
000003f0: b20c 5439 a9c8 2b3b 23f5 523b d693 253b
9.0765665e-05 0.012448704 0.00061517727 0.00029166756 0.00095247413 0.0017951746 0.0005967888 0.00046794378
3.984761e-05 0.0004932665 0.00030073614 0.00017124412 0.00025413098 0.00041226723 0.00024378441 0.00068001763
0.00016701077 0.00063451735 0.0041470695 0.019901175 0.0006853536 0.0008467503 0.00019726202 0.00029864509
0.00015127251 0.0011781433 7.221246e-05 0.003072527 0.00036404745 0.00011217061 0.00020546521 0.00018174318
0.0002615002 0.00010187346 0.0005582707 0.00042876415 0.0013534417 0.0035558634 0.0012932967 0.00056497083
0.0008324098 0.0005986143 0.020309564 0.000927604 0.00083477615 6.621434e-05 0.0007680448 0.000459052
0.00015048118 0.00026780277 0.00024767203 0.00022156611 0.0005521038 0.0006846862 0.0034521455 0.0001941219
3.9555613e-05 0.00066147547 0.00022829509 0.0005376764 0.00022891066 0.00551621 0.00049636886 0.00041816742
8.0568185e-05 0.0005025686 0.001916954 0.0010390703 0.00011169737 0.0018868898 0.0137741715 0.00013198667
0.00012247845 0.00015348206 0.00022505586 0.0010717943 0.0016740754 0.00016062232 0.00051689264 0.0009032617
0.00022231857 0.0005827584 0.00051844015 0.0003902974 9.062896e-05 0.00057357916 0.00022097536 0.00013045438
8.945675e-05 0.00012381698 0.00029073717 0.0003982208 0.0007982092 0.013037114 0.001983486 0.00044827393
0.0005308104 0.0003527147 3.3212065e-05 0.0017410151 0.002277639 0.00011960042 0.00010618629 0.00046473462
0.00068482273 0.00024719493 2.4339219e-05 0.0004180718 0.00032386664 0.00017917372 0.00014862622 0.00010990294
0.0004940104 0.0002449495 0.00015750102 0.0010380031 0.0030698888 0.0067849527 0.0003610467 0.00044770408
0.00043182852 0.0011673019 3.728857e-05 0.0005768128 3.433014e-05 0.00013192324 0.00031889338 0.00016084874
0.00013256645 9.4616626e-05 0.000116882395 8.476938e-05 0.0013220921 0.0002611066 0.000876397 0.0010523985
0.00051911466 0.0004627593 0.00026897082 0.0002507 0.0061794417 0.0010518895 0.00032257097 4.0012474e-05
0.0009699171 0.00033845322 7.5064796e-05 0.0004214264 0.00051391876 0.000721812 0.00034172612 0.0012280125
0.002357363 0.00011116327 9.41197e-06 0.00012168515 0.00014427601 0.0008248046 9.5283496e-05 0.00044784363
4.846419e-05 0.00018814238 2.4913863e-05 0.00044846704 0.0013038703 0.00044154716 0.00012581184 0.0018683532
0.002385682 2.6848906e-05 3.0870342e-05 8.106667e-05 0.000114004906 0.0012143074 5.0174043e-05 0.0001383385
0.00022361104 0.00019974798 0.00013312847 0.0005258162 0.0008594369 0.0002050256 1.5787198e-05 0.00072145613
0.0003020345 0.0002543333 0.00017352011 0.00019469451 9.328532e-05 0.00025506713 0.0005341805 0.0009860188
0.0015868925 0.00013614008 0.00033848055 0.00021346296 0.0017098084 0.0050775474 0.081802115 0.0016786659
0.0012568289 0.003853944 0.008370167 0.008092725 0.0008906778 0.0059606163 0.0077201747 0.0012456948
0.003508526 0.00049402134 0.005967043 0.0008963142 0.0022842172 0.0067671747 0.012355338 0.0402643
0.0036828697 0.008129354 0.0017542265 0.011624894 0.0030536652 0.026895717 0.00075032143 0.0018906923
0.00331348 0.004755556 0.001652063 0.0053403387 0.01261775 0.007453993 0.0013356161 0.0056755715
0.0021630374 0.0038573006 0.004473029 0.017950926 0.0023207318 0.0017629258 0.0117285745 0.021598712
0.005356429 0.0010383364 0.057573948 0.0019294461 0.0012738511 0.006509779 0.008916038 0.0012631377
0.005230503 0.016538043 0.07394604 0.0017328538 0.00020222625 0.0026212132 0.003218957 0.002526512
