models/cfv/1lkfcv3.pth (torch, 490360 bytes, 18 tensors)

lstm.weight_ih_l0 f4 [392, 1]
00000000: 333d 523f d7db 1bbe ba5b 0a3f 5b71 963f
00000010: 3b74 20bf 78da 663e 4f72 04c0 f41a ca3f
00000020: 2026 a2bf 6e62 f33e 629e 42be 2d67 9fbe
00000030: a526 65bf eab0 83bf 3568 e43f fef5 19bd
00000040: 4257 17be eafd 0a3f 6c3b 0d3e f156 8ebf
00000050: 502f 153f fb97 d3bf b852 ac3f 7d46 ca3e
00000060: 8841 e23e a7a4 e6bd 76a4 d83e 6bba 733f
00000070: 89a3 02be 9e48 e8be 707d 1bbf fd9a 423f
00000080: 69bc 0a3f c347 3a3f b25b 933b cf94 573e
00000090: cffd 203f c082 c53e 416c 133f b959 bebe
000000a0: 6a4f ba3e c871 c73c 6db8 263f a845 52bd
000000b0: 0d95 a9bf de48 2e3f 9bdf 9d3e e24f 7a3e
000000c0: ecbb a73e 30ff d13e a8c7 1c3f 959a d7be
000000d0: 9e47 0b3f 7398 d93f a006 e3bf cf15 4abd
000000e0: b420 bdbd da8d 22bf 9b79 b63e 5cc6 01bf
000000f0: e87a 5ebf 5f19 95bf b00b 72bf da8f 8bbe
00000100: e20c 713f e080 6a3f 3197 5fbe 7b4c 393f
00000110: aeef a3be e847 1d3d cc06 243f 2823 db3f
00000120: b679 7c3e 80c8 293f 89d2 933f e223 d03e
00000130: b4aa 7b3f 97ae 8a3f ce5b 11be 7d8d 5a3e
00000140: 3412 bebd a992 403e d4d4 8cbe 9e1b d13e
00000150: 977a 313f 2e39 2abd 1fac 883d a8d5 a2be
00000160: ba3a 7b3d 3f33 d53d ac31 743f c204 843f
00000170: 26ab c4bd b21f 2e3f d0ae c2be 0513 97bf
00000180: 2c28 5ebd 5f9b ff3e e90f 123f 7a61 dabe
00000190: af17 97bd 4737 543e b3df 3cbd 72af a53f
000001a0: 19b5 e0bf ca2a a6bd 5043 54be 5335 4b3f
000001b0: 0b22 47be 2062 e6bd 1f53 5cbe 7974 9fbe
000001c0: b44a 54be f012 3abe 35e5 f63e dab0 153e
000001d0: a848 813e 8e1b 5cbf e9ff c5be a715 1a3f
000001e0: ac35 8d3d 5ed6 5c3f 80e8 a03d 2c11 003f
000001f0: 219b 683e b61d 013e 4059 dcbe d09f 0cbe
00000200: 771d 45be 062e 0b3f 275f 3c3f d7ee d83e
00000210: aa84 c13e 1f9b 993e db99 563f 3c30 6fbf
00000220: 6a8b 703e 3468 30bc fca3 24bd d47d 90bd
00000230: 306c d5be ce0d 8d3e f5f0 95be fdad 973e
00000240: 3019 233e 7605 2c3e dc68 c43e bb06 70be
00000250: a557 593e eb8c 7bbf 7d0f 67bc 9ac8 e8bc
00000260: 48e7 45bf 348b b0bc 3cde e6be c296 003d
00000270: 95c9 ff3d 1444 9b3e cfa1 10bf 595e 8c3e
00000280: 3718 e6bd f0ed 7cbe 718a d4bd 9ae5 503c
00000290: 1c0f 99be a2cd 9e3e dd6d 533d 609a 093e
000002a0: 63c2 0f3e affb 05bf 6840 d1be 8eb1 c43e
000002b0: 74ad 823f 595a 64be 7788 4dbd 251c 073f
000002c0: 5fd7 26be be55 94bc cee5 9f3e ad68 86bd
000002d0: b18a a3be 22f6 8b3d ad4e 093f c94d 323d
000002e0: 71c7 323e 3438 4cbe 66b3 81be 239d ccbe
000002f0: 81f9 623e 2971 b53e f0ee 383e 6a4c 213e
00000300: f788 04bd 64fe 8e3e 603f 953d 3a18 b43e
00000310: 1631 993e d71d 4c3d 8cf0 8c3e 48a0 0ebf
00000320: 443a d3be fb16 4c3d 522b b73e 3139 16bf
00000330: af7c 9dbe c1a8 f7bd ca40 8a3d f924 1e3d
00000340: b46a 9c3e 47ec e4be 9cbb b53f 6971 b23e
00000350: a3f5 a4be 7f93 9abe 42e4 ffbe d7ae cbbe
00000360: 8bd0 743e 990f 933f 644f f13f a7f6 8f3c
00000370: 5910 7c3f f483 f03e 94e7 70bc cce5 39bf
00000380: d41f 17be e9f6 01be dfd7 abbe 4344 b5bc
00000390: 8b60 3f3e 95b8 0dbf 8e3e 2fbf e7b3 4c3d
000003a0: 5a49 263e 1f8e 2a3f 6a5b 04bf 5263 a73d
000003b0: b76b 26be 34a9 5ebe fab7 623f e480 98bd
000003c0: d689 1a3f 1ea4 cf3d d445 ba3e 7061 f3be
000003d0: 51d3 1abf 5989 103f aa1a 17bd ca3f 843e
000003e0: 3510 0c3f f8fb 7d3f 3def 90bf aa14 a5bc
000003f0: 26ee a6bd 0c32 453f dd22 35be 992e 123f
0.8212463 -0.15220581 0.54046214 1.1753343 -0.62677354 0.22544277 -2.0694768 1.5789475
-1.2667885 0.47536033 -0.19005731 -0.31133404 -0.8951209 -1.0288365 1.7844301 -0.037588112
-0.1477938 0.5429369 0.13792199 -1.1120282 0.5827532 -1.6530756 1.3462744 0.39506903
0.4419062 -0.11261874 0.42312974 0.95206326 -0.12757696 -0.45367903 -0.6073828 0.76017743
0.5419374 0.7276575 0.004497015 0.2105286 0.6288728 0.38576317 0.5758706 -0.37177828
0.36388713 0.024346247 0.6512516 -0.05133596 -1.3248612 0.68079937 0.3083466 0.24444535
0.3276056 0.41015005 0.6124215 -0.42110124 0.54406154 1.6999649 -1.7736397 -0.049337205
-0.09234753 -0.634977 0.35639653 -0.506933 -0.8690629 -1.1648368 -0.94549084 -0.27258188
0.9416028 0.916029 -0.21835019 0.72382325 -0.320188 0.038398653 0.6407287 1.7120104
0.24655804 0.66321564 1.1548625 0.40652376 0.9830735 1.083453 -0.14195177 0.21343036
-0.09280816 0.18805946 -0.27506125 0.40841383 0.6932768 -0.041558437 0.066734545 -0.31803632
0.061335303 0.10410165 0.95388293 1.0313952 -0.096029565 0.68017113 -0.38023996 -1.1802679
-0.05423753 0.49923226 0.57055527 -0.42652494 -0.07377564 0.20724212 -0.046111774 1.2944167
-1.7555267 -0.0811363 -0.20728803 0.7937824 -0.1944658 -0.112491846 -0.21516083 -0.3114355
-0.20731622 -0.18171287 0.48221746 0.14618245 0.25250745 -0.85979545 -0.38671806 0.6018929
0.06895003 0.862646 0.07856846 0.500262 0.22715427 0.1260899 -0.43036842 -0.13732839
-0.19249521 0.543671 0.7358269 0.4236972 0.37796527 0.3000116 0.83828515 -0.93432975
0.23490682 -0.010767031 -0.04019545 -0.0705525 -0.41684103 0.27549595 -0.29285398 0.2962493
0.15927577 0.16798958 0.3836125 -0.23440067 0.2122484 -0.982619 -0.014102814 -0.028415967
-0.7730603 -0.021550752 -0.45091426 0.031393774 0.124896206 0.30325377 -0.564969 0.27415732
-0.11235087 -0.24700141 -0.10377968 0.012750054 -0.2989434 0.3101626 0.051618446 0.13437796
0.14038996 -0.52337164 -0.4086945 0.38416713 1.0209184 -0.2230009 -0.05017897 0.5277732
-0.16293095 -0.018107291 0.31230015 -0.06562934 -0.3194175 0.068340555 0.53635675 0.043531213
0.17458893 -0.19943315 -0.25332183 -0.39963636 0.2216549 0.35437897 0.18059897 0.15751806
-0.032357182 0.2792846 0.072874784 0.35174733 0.29920262 0.049833145 0.27527273 -0.5571332
-0.4125539 0.049826603 0.35775238 -0.5868102 -0.3075919 -0.12092734 0.06750639 0.03860948
0.30550158 -0.44711515 1.4197879 0.3485215 -0.32218656 -0.30190656 -0.49978834 -0.3978183
0.23907678 1.1489135 1.8852353 0.017573668 0.98462445 0.46975672 -0.01470365 -0.7261627
-0.14758235 -0.12691845 -0.33563134 -0.022127276 0.18689172 -0.55359775 -0.68454826 0.049976256
0.16238919 0.6662311 -0.51701987 0.08173241 -0.16252027 -0.21744233 0.88561976 -0.07446459
0.6036657 0.10138725 0.363814 -0.47535276 -0.60478693 0.56459576 -0.036890663 0.25829917
0.5471223 0.992126 -1.132301 -0.020151455 -0.08150892 0.7702949 -0.1768908 0.5710235

lstm.weight_hh_l0 f4 [392, 98]
00000000: bf75 19be ee97 a63e d885 b83e b46b c73e
00000010: 39a8 4c3e 1b47 253e 727b fbbd a9f2 043f
00000020: 6517 a8be 1659 53bf 2bf1 cabd f1c6 c4bd
00000030: 5c6d 81be c0e3 683e 745d 17bd 47e5 1ebd
00000040: e5e5 22be dd23 cfbd dc87 6ebe dd33 2a3e
00000050: 4219 613d af16 8fbe 8d99 0dbf 940f da3d
00000060: aec7 2f3e c380 31be 4005 c1be e2bc 2b3f
00000070: 61fd 153f 7b83 4e3e d7bc d8bd 6ba1 913c
00000080: ec3d 40be cd53 2a3e f885 a63e c6e3 553f
00000090: eb1c 99be bade cebc 1551 d63d 0bb2 8abe
000000a0: ef64 8f3d 0b26 2d3b efa3 6abe 4c43 bebc
000000b0: e7cd 393d 65af 13bc ceef fe3d 7de2 94bd
000000c0: b085 b63e 4506 17be 107a b1be 12c2 af3d
000000d0: 6ba5 1bbe 5721 673d 82dd 2d3e 58bf 0f3e
000000e0: 6151 b9be b2c7 c2be 83c7 743e 13a1 463d
000000f0: c364 003f 3bee 95bd 0167 3abe 8f18 e63d
00000100: 24b2 f43e 2f49 bfbe 2b69 f5be 7da9 07be
00000110: 829b e3bd bbae 7d3d a069 1dbe 82d9 913e
00000120: e042 2c3c 2f41 ce3e c683 f53e f341 28bc
00000130: e20c c1be 4747 0f3f 3f85 a6be ea72 c53e
00000140: 7c7b db3e 0c7a 923e 03c5 6b3e df01 49be
00000150: b4e0 0fbf cbcc 973d 379c b2be 3f5c 823e
00000160: 02ad eb3e ca40 903d e912 89be 166c 823e
00000170: 11a7 2f3e e1a1 d73d b85d 8d3d c252 473e
00000180: 282a 1cbe 95c6 453e e5b8 7e3e 074a ab3e
00000190: c0dd 7fbe 1422 a7be 5fe8 1c3e fcf5 253f
000001a0: 1a72 30bf f85e 62bf bff0 143f 66f5 9c3d
000001b0: 7be4 0fbf c4e5 bd3e 4db3 f03d c971 8b3f
000001c0: d072 ffbd 8b22 05bf 3ea8 c2bc 6c7c a23c
000001d0: 1a50 17bf 2079 4e3e dd35 1d3d 3246 96be
000001e0: daee 1c3d 84ed 87be a228 42be 6b48 253e
000001f0: a29f 523e 228a b2be c7c0 6ebd ec10 8fbe
00000200: 3725 cfbe 1eed d33e 063e 03bc 39ca e7bc
00000210: ba3e f3be 53c0 86bf 079a 85be 1bb5 ae3d
00000220: 3c47 d33c 8b80 bf3e a381 043e 9413 e5bc
00000230: e22a 1dbe 42a0 013f 4a56 8cbd 7d34 f33d
00000240: d7ea d63e ca21 02be 89e8 89be d181 1e3e
00000250: 9bd1 07bd 85ee 983e 42c7 6e3e 4043 febd
00000260: 2730 103e 4648 183e 844c 053f d80a cebe
00000270: 4492 5c3e 7202 aabe fe88 85be 0117 22bd
00000280: a82a 533f 3b13 a43d b584 0f3e 3b1c 0fbe
00000290: ac58 b4bd ce8e d5bd 5642 90be 058a 533e
000002a0: 0af8 113e f09c 003f d3e1 c13e 4245 23bc
000002b0: fdba 1b3e adf7 7b3c d5ad b13e 0ef6 053f
000002c0: eb84 33bf c17b c1be 097f bd3e 9263 d03c
000002d0: be32 183f 7d97 903e 3725 54be a308 1f3e
000002e0: 908e b63d 0f84 5c3f 14a2 983e c044 de3e
000002f0: 8865 b6bd 1acc e83d eb7e 793d b932 a0be
00000300: 94b2 7d3e 40f9 463f 2c2f ccbc 06fa 8cbe
00000310: 374a 083f fc43 d6be c570 23bc a86f be3e
00000320: ee4a 1b3e 39d5 703e ab71 803e 2252 5abe
00000330: 20da 5ebd fbc7 00bf 9ca2 1e3c b4b0 d6be
00000340: 66a9 8f3e 13d3 9dbe e44f b7be c34c 57be
00000350: 1d88 3f3c 8ab3 ab3c 27c7 11bd 886a 1d3d
00000360: f525 febe 1216 e4bc a121 bdbe 7222 9f3c
00000370: 5c34 9c3d 3355 9fbe 6ccd c2be c9e0 123d
00000380: 954b 15bf 04d6 783e e372 16be e350 bd3e
00000390: 902e 35bf e40f 773d c3eb 5c3e efd0 55bd
000003a0: d1e7 3ebe da4e c9be 880c ad3e 8c49 71be
000003b0: 1b08 0b3e 8ac3 b7be 7f9b f3be 2604 fdbd
000003c0: 3ed6 8f3c b4b2 95be a571 b3be 4caf d13d
000003d0: defe 7fbc e3cd a5be 4089 4ebe 0b19 c43e
000003e0: 4e30 f8be 4145 8cbe 91fc c6be 6eb7 ffba
000003f0: 8342 9c3c dcdc 37be c12b 843e 6f50 013e
-0.14986323 0.32537788 0.36039615 0.38949358 0.19986047 0.16140406 -0.12279405 0.5193277
-0.3283035 -0.8255781 -0.099092804 -0.096082576 -0.25278747 0.2274313 -0.03695436 -0.038792875
-0.1590801 -0.10114262 -0.23294014 0.16621347 0.05495573 -0.27946994 -0.55312425 0.106475025
0.17166016 -0.17334275 -0.37699318 0.6708509 0.5858975 0.20167343 -0.10582893 0.017777165
-0.18773621 0.1663353 0.32524085 0.8355068 -0.29904875 -0.025252689 0.10464684 -0.2708896
0.070016734 0.002642038 -0.22914098 -0.023225449 0.04536238 -0.009013985 0.12448083 -0.07269762
0.3564887 -0.14748485 -0.3466344 0.08581938 -0.1519982 0.05642828 0.1697903 0.14037836
-0.361949 -0.3804298 0.23904233 0.048493456 0.5015375 -0.073208295 -0.18203355 0.11235153
0.4779216 -0.37360522 -0.479318 -0.13248248 -0.11113645 0.061934214 -0.15372324 0.28486258
0.010513991 0.40284106 0.47952098 -0.01026963 -0.3770514 0.55968136 -0.32523534 0.38564235
0.4286765 0.2860874 0.23024373 -0.1962962 -0.56202245 0.07412108 -0.34884807 0.25461003
0.46030432 0.070436075 -0.2677224 0.25473088 0.17153575 0.10528923 0.06902641 0.19465163
-0.15250456 0.19314034 0.24875219 0.33454916 -0.24986935 -0.32643187 0.15323018 0.6482847
-0.68924105 -0.8842616 0.5817985 0.076639935 -0.5620801 0.3708936 0.11752949 1.08941
-0.124730706 -0.52005833 -0.023761865 0.01983472 -0.591066 0.20163393 0.038381446 -0.2935043
0.038313724 -0.26548398 -0.18960813 0.16140907 0.20568708 -0.34871012 -0.058289316 -0.27942598
-0.4045808 0.41391844 -0.008010393 -0.02829467 -0.47508794 -1.0527443 -0.26094076 0.08530637
0.025790803 0.37402758 0.12940077 -0.027963437 -0.1534839 0.5063516 -0.06852396 0.11875246
0.41976044 -0.12708202 -0.26935223 0.15479209 -0.03315888 0.29869476 0.23318198 -0.12415171
0.14080869 0.1487132 0.5206988 -0.40242648 0.21540171 -0.3320499 -0.2608108 -0.03957272
0.82486963 0.080114804 0.14015467 -0.13975613 -0.08805975 -0.104276285 -0.2817561 0.20658119
0.14254776 0.5023947 0.37867603 -0.009965243 0.15208049 0.015378875 0.34702936 0.52328575
-0.7012469 -0.3778973 0.37010983 0.025438104 0.59452426 0.28240576 -0.20717321 0.15530638
0.089139104 0.86139005 0.29811156 0.43411827 -0.08906084 0.11367054 0.060912054 -0.31288698
0.24775153 0.77724075 -0.024924837 -0.27534503 0.5323824 -0.41848743 -0.009975617 0.37194562
0.15165302 0.23518838 0.25086722 -0.21320394 -0.05440724 -0.50305146 0.009682324 -0.4193169
0.28058928 -0.308251 -0.3580314 -0.21025376 0.011690167 0.020959634 -0.035590317 0.038431674
-0.49638334 -0.027842555 -0.3693972 0.019425604 0.07627174 -0.3111969 -0.3804735 0.035858903
-0.58318454 0.2430039 -0.14692263 0.36975774 -0.70774174 0.06031789 0.21574311 -0.052201208
-0.18643118 -0.3931797 0.33798623 -0.23563212 0.1357731 -0.35891372 -0.47579572 -0.12354307
0.017558213 -0.29237902 -0.3504764 0.10238513 -0.01562473 -0.32383642 -0.20169544 0.38300356
-0.48474354 -0.27396587 -0.38864568 -0.0019509622 0.019074684 -0.17955345 0.25814632 0.12628339

lstm.bias_ih_l0 f4 [392]
00000000: c15c 0ebe 5f12 c8be 72bd a9be 0509 b7bd
00000010: 4aa7 f7bd b2bc 6bbe ad7f 9bbe f693 b0be
00000020: 57ca 4fbe 484c 823d 3255 a4be 94ee eabe
00000030: 092f b9bc c5db 01be 3b52 5d3d c7b3 a0be
00000040: feec 77be b2db 0f3d 3b92 3039 0391 6cbe
00000050: cf4b 7ebe fc54 95be 7ed9 2d3e 658a b8be
00000060: b331 143e 8a6f c9be 4163 82be 5f06 e6be
00000070: 3086 a93d 9eef 9bbe 0652 9ebe 926b a1be
00000080: 7605 f3be 8592 b2be a734 05bf 1e28 e7be
00000090: 90d7 9ebe 3129 5f3d 76bb 1a3e 1ef7 87be
000000a0: 69f6 dabe a9d0 83be b6cf 7e3d fb71 cfbe
000000b0: 549e b1be 3f3c d7bd 5a8c d6bd e197 99be
000000c0: dbad 25bd 8c98 babe 0630 d3be 6948 9dbe
000000d0: 1b87 9abe c72b 11bd bddf 90be ca02 cebe
000000e0: a9d4 31bd ac62 fbbd 86d8 c4be 38d7 8fbd
000000f0: 88b0 99bd a685 3abe b641 d7be 02f2 a0bd
00000100: 4b64 4ebe 3500 cdbe ffae 6dbe eef7 89bc
00000110: 9b3e 56be f25d c8be 604c 80be 6fd2 abbe
00000120: bb5e 9ebe 9854 ed3d d6d2 5ebe 33af b8be
00000130: 9837 603d 3da1 b0be 5837 afbd bdd4 84be
00000140: 60fa 89bc 9f99 51be 2b87 13be a047 97be
00000150: 89bc b2bd 4b85 15bd 19bd 55be b16c 88be
00000160: b0e5 cabe b655 6cbe 126c 9abd bfb8 8c3e
00000170: 7174 b6be b349 09bf 8b05 c3bd 9c70 54be
00000180: 5383 b6be 0d02 8fbe f947 51bd 129c bebd
00000190: b78d 19bd e74f 863e 6198 0abe c03f ec3d
000001a0: 4df4 8cbd 5472 933d 2579 133e 6ec3 d43e
000001b0: c5c5 e73d 9e50 e03b 524a b5bd a024 813e
000001c0: 2a08 233c e352 ffbc e44b 02be 0c86 9c3e
000001d0: 6ae5 e13e 4fd6 8d3d 1cd6 8a3d c7aa f83c
000001e0: 5fc6 873c 000a c73c 6b41 ccbe a38f 6fbd
000001f0: 17b8 2abe 8de0 993e 808a e5bd 63d7 f2bb
00000200: cf10 9d3a eb58 40bd 613f cabd 8d40 88be
00000210: 1fad 323e 572a 443e bf68 1b3d 4f4b 3e3c
00000220: 670b 0fbe 6e81 b43d e30b ab3e 80ba 023f
00000230: 7cdc c43e dbf5 24bd 072a 283d 457b c83d
00000240: f4ef c5bd 7914 96bc 5dee 033e 80bb 52bd
00000250: 3864 b1bd a51e cc3d f097 42be 2ea1 aabc
00000260: f73e c53e bf30 83bd 73c4 a63e 1261 02be
00000270: e9be 1a3e 34ec ce3d 612f 3ebe d7bc 0cbd
00000280: 3bb8 003d 9dea 20bc 62fd d23d 1fd2 9a3e
00000290: ed1e cc3d 4719 4c3e 2fd8 76bd 2e7e 803d
000002a0: 4f5f 793b b843 473e 0c04 0fbe e116 a6bd
000002b0: 4da0 2c3e 6e4b 8dbd b1b6 9e3e 9df3 1ebe
000002c0: 101a ce3d fe90 ac3d fe65 93bc dc09 9f3c
000002d0: 00fe d43d a80f 933d 42f1 ca3d 6000 1abe
000002e0: 81c2 0abd 134a 71bd 7346 4a3d 6b8a 153e
000002f0: b43c 623d 5434 17be 0f2f b43d a5b5 4abe
00000300: 9ef9 5a3e 8177 73bc 1cfd 023d 850d bdbd
00000310: 6a95 bebd 67cb 0dbe 6b8e 663e 1166 563e
00000320: 8db1 cdbd ffc5 c4bd bc88 db3d 16d2 3d3e
00000330: 8613 61be 73e1 afbb 4bef 80bd 9c90 9d3d
00000340: c7b2 0b3e c997 3cbe 3f56 84bd 2685 81bc
00000350: d055 97bd aed9 4c3d 5ff4 ce3c 9c24 ab3c
00000360: 5505 a1bb 38bc 1a3c 8935 36bd 30ca 193e
00000370: 3346 623c e38b c8bc 2bb0 9ebd d425 7a3d
00000380: 41f0 d03d d93f 1f3e d41d c13d ba02 9ebd
00000390: 3c2e de3c 5742 d93c 5e7c 903e d9e4 bdbc
000003a0: d7bc 1d3d 2303 febd 77ee 853d fe8c 0abe
000003b0: fde3 4cbc 0175 763d 4395 92bc 2f89 efbc
000003c0: 1e93 073e df98 55bd a735 823c 3afa dfbc
000003d0: 545e 623e 1393 e0bc 6825 17be eb67 0b3c
000003e0: 75b5 2cbd d6e4 9abd d168 acbd 6bb9 7a3d
000003f0: 6f9f 97be 66af 9e3d d2a6 0f3d 85b0 d3bb
-0.1390257 -0.39076516 -0.33152348 -0.08937267 -0.12092455 -0.230212 -0.30370846 -0.34487885
-0.2029203 0.06362206 -0.3209625 -0.45885146 -0.022605436 -0.12681492 0.0540335 -0.3138716
-0.24211499 0.035121627 0.00016839143 -0.23102193 -0.24833606 -0.291664 0.16977498 -0.36043087
0.14472084 -0.3934291 -0.2546635 -0.44926736 0.08277547 -0.3045625 -0.30921954 -0.31527382
-0.47465104 -0.3487741 -0.52033466 -0.45147794 -0.31023836 0.054482643 0.15110573 -0.26555723
-0.4276612 -0.25745133 0.062209807 -0.40516648 -0.34691107 -0.10509538 -0.10475989 -0.29998687
-0.040449005 -0.3644451 -0.41247576 -0.30719307 -0.30181202 -0.03544214 -0.282957 -0.40236503
-0.0434157 -0.122746795 -0.38446444 -0.070234716 -0.07504374 -0.18215045 -0.4204232 -0.07858659
-0.20155446 -0.4003922 -0.23211287 -0.016841855 -0.2092232 -0.39134175 -0.2505827 -0.33558986
-0.3093165 0.115884006 -0.21760115 -0.36071166 0.05474052 -0.34498015 -0.08555478 -0.25943556
-0.01684302 -0.20468758 -0.14407031 -0.29546833 -0.087273665 -0.03650407 -0.20872916 -0.26645425
-0.39628363 -0.23079571 -0.07540144 0.274847 -0.35635713 -0.5362808 -0.095225416 -0.20746082
-0.35647067 -0.27931252 -0.05109403 -0.09307112 -0.037488665 0.26232836 -0.1353469 0.11535597
-0.06882534 0.07199541 0.14401682 0.4155535 0.113170184 0.006845548 -0.08852066 0.25223255
0.009950677 -0.031167453 -0.12724262 0.3057102 0.44120342 0.06925642 0.06779119 0.03035487
0.016574083 0.02429676 -0.3989366 -0.058486592 -0.16671787 0.3005413 -0.112080574 -0.00741093
0.0011983159 -0.0469598 -0.0987537 -0.26611748 0.17448853 0.19156776 0.03794169 0.011614635
-0.13969193 0.08813749 0.33407506 0.51065826 0.38449466 -0.04027353 0.041055705 0.09789137
-0.09664908 -0.018320309 0.12883897 -0.051448345 -0.08661693 0.099667825 -0.19003272 -0.02082881
0.385246 -0.06405782 0.32571754 -0.12732342 0.15111889 0.10103646 -0.18572761 -0.03435978
0.031425696 -0.009821561 0.10302235 0.30238435 0.09966836 0.19931518 -0.060264762 0.06274067
0.0038051193 0.19459426 -0.13966388 -0.081098326 0.16858025 -0.06899153 0.30998757 -0.15522619
0.10063565 0.084260926 -0.01799297 0.019413881 0.10400009 0.071807206 0.099092975 -0.15039206
-0.0338769 -0.058908533 0.04938359 0.14603584 0.055233672 -0.14766055 0.08798038 -0.19795854
0.21384284 -0.014860035 0.031979665 -0.09231094 -0.09305842 -0.13847123 0.22515266 0.20937373
-0.10043631 -0.09608077 0.107194394 0.18537173 -0.21980104 -0.005367452 -0.062956415 0.07693598
0.13642417 -0.18417276 -0.06461763 -0.01581056 -0.07389414 0.050012283 0.02526301 0.02089148
-0.0049139657 0.009444289 -0.04448465 0.15018535 0.013810682 -0.024480766 -0.07748445 0.061071232
0.10202075 0.155517 0.094295174 -0.07715364 0.027121656 0.026520891 0.28219885 -0.023180412
0.03851017 -0.12402942 0.06539624 -0.13530347 -0.0125055285 0.060170177 -0.01789344 -0.029240219
0.13239715 -0.052147742 0.015894724 -0.027340997 0.22106296 -0.02741388 -0.14760363 0.008508663
-0.04216524 -0.07563178 -0.0841843 0.061211985 -0.29613826 0.07748298 0.0350712 -0.0064602518

lstm.bias_hh_l0 f4 [392]
00000000: ef00 84bd cb5d 7ebe ac43 98be 88b9 4dbe
00000010: f183 4cbe 0bcd 39be 247e 88be 1723 b9be
00000020: 03c0 aebe 400f ddbc a643 18be e053 d0be
00000030: 2c41 01be 4016 90be 48f3 643e cedd aebe
00000040: f644 d4be 412e a5bd 0a77 493b abf8 d6bd
00000050: 7105 3dbe cd6a b6be 0518 b03e 7485 e8be
00000060: 1e8a fa3d 60a0 b3be f381 9cbe 3b72 bebe
00000070: b6ec a63d 2ef3 a3be c80d 55be 954d 2abe
00000080: 6987 a4be 588c 9abe c67f eabe 6894 07bf
00000090: 7cc9 12be 0740 b1bd d4f8 853e 0f79 5bbe
000000a0: 9adf fdbe ca13 3dbe b5b3 ee3d d8ce f6be
000000b0: 53d7 d8be 86b3 93be 09bb 45be ffe7 bebe
000000c0: c1bd 92bd f312 a7be 9723 7cbe f9f3 acbe
000000d0: 6775 febe ed92 ed3c 6f05 77be 8483 f8be
000000e0: c2c2 aabc ce0e f2bd 82f0 aebe 3761 45be
000000f0: ac75 51bd 70a3 30be f66b d5be 3c2f ddb9
00000100: dbe6 bbbe 87f0 00bf afd8 7dbe 390e 32be
00000110: d996 7abe f8aa 05bf 213d adbe 3f5b a6be
00000120: cc34 bcbe bb78 0d3e d0df a1be b210 eebe
00000130: 41cd e33c 570e ecbe b621 8cbd c083 65be
00000140: 21b1 113d 7580 7cbe acf9 26be 3522 6dbe
00000150: 47ff 13be 8bbb f3bd b572 0cbe 3351 e5bd
00000160: 13aa cfbe fe3a 95be 7d98 18be 461b 763e
00000170: 8fd0 90be c397 02bf 3cba 9abd f11e 63be
00000180: 0651 9abe 1a90 19be f2d9 103c f6cb e3bb
00000190: de36 923c b978 943e e358 62be 4fdb 8a3d
000001a0: 6d17 013c 1ae8 9a3d d254 193e c8c2 f93e
000001b0: aa11 673e ee16 143e 3f64 cc3b 46c5 913e
000001c0: cff8 5a3b 4f02 94bd 7fed bcbd e6c7 983e
000001d0: 942a 8b3e 8b4b d63d 9b35 8c3d 601a cb3c
000001e0: 9e26 373d 650f 91bd 05f4 d3be 255a f7bd
000001f0: ab0a 35be 8bc1 ce3e 6a38 2abd 6486 a23d
00000200: b845 153d 6cbf 3dbd 150f 05be 83bb 41be
00000210: 039d 3f3d c95e 333e 0e16 413c 3d06 0fbd
00000220: bc7b b8bd c940 ff3c d218 dd3e 98b6 fa3e
00000230: d293 c63e 4b23 da3c 9b72 853d f714 fd3d
00000240: 6008 ba3d e7f2 e33c fdf2 663e 22ae d8bc
00000250: bd07 33bd 75b4 7b3d 3bd2 0abe be18 b93d
00000260: c58d c53e f035 23be f4cc 623e 558d e1bd
00000270: 31a7 733e b591 003e 9040 99bd e3a7 4bbd
00000280: c31d 613d a43d c0b9 f7b6 533c 723b c03e
00000290: 0d8c 593d 426e 1f3e 2dad e33c 781b 51ba
000002a0: 8cd9 0abc e9d1 8b3e 99c7 01be 88c5 d3bd
000002b0: 5d90 dc3d da14 ccbc 621b a43e 40d0 afbd
000002c0: 9a6f 98bb af27 0b3e cbc2 16bd 5835 073e
000002d0: 3aa7 e23d 5256 1b3e 6d26 6d3d 2a21 e6bd
000002e0: 71e3 8dbd 02e3 523d b8c7 b73b 9e6e 9b3e
000002f0: fa73 7dbd db08 07be f952 373e f9a1 dabd
00000300: 6c67 223e 3f34 123e 5485 073c 12d2 13be
00000310: 8966 583d 3b59 98be c292 003e 8e58 273e
00000320: 0e1e bbbd 8061 1bbc 58a6 2b3e 2e2a 953e
00000330: 891f 42be 2faf 403d 3a7e 423d b7b7 323e
00000340: f7e5 2b3e 4a71 acbd 6ce5 28bc b48a 2f3c
00000350: 1507 abbd 351a 003e 5dd2 133e cf38 49bc
00000360: bf69 d43d fa4d 083b 8238 1f3d 6ed5 623c
00000370: c1c8 f73d 40f4 ecbc 19c2 54be 9590 473d
00000380: b744 203e 11f1 aebb fdeb b83d eb14 abbd
00000390: 5780 d7bd f261 b5bd 862e 023e 7ce3 973c
000003a0: ec92 6b3d 60a3 00be 1130 863d c545 83be
000003b0: 1537 06be a777 3ebd cac2 a5bd 36ea 50be
000003c0: 593c 3d3e c2ae 2d3d 8be1 14bd 7599 66bc
000003d0: a77a 283e 838f 9abd d428 34be fc6b 18bd
000003e0: 344e 053d be9e 8fbc 6bdb 2bbe 9892 2c3d
000003f0: 4a8a a4be 7ffa c4bc 4f83 b83c 9282 70bd
-0.064454906 -0.24840467 -0.2973913 -0.20090306 -0.19972207 -0.18144624 -0.26658738 -0.36159584
-0.34130868 -0.02698481 -0.14869556 -0.40688992 -0.12622517 -0.28141975 0.2235843 -0.341536
-0.41458863 -0.08065463 0.0030741119 -0.104966484 -0.18459107 -0.35628358 0.34393325 -0.45414317
0.12233375 -0.35083294 -0.30567893 -0.37196526 0.08150618 -0.3202147 -0.20806038 -0.16631158
-0.3213456 -0.301852 -0.45800608 -0.52960825 -0.14334673 -0.0865479 0.26166403 -0.21432899
-0.49584657 -0.1846458 0.1165537 -0.48204684 -0.4235178 -0.28847903 -0.1930963 -0.37286374
-0.07165099 -0.32631645 -0.24622951 -0.33779886 -0.49698946 0.029000724 -0.24123167 -0.48537838
-0.02084482 -0.1181923 -0.34167868 -0.19275366 -0.05113761 -0.17249846 -0.4168393 -0.00042187597
-0.36699566 -0.50367016 -0.2478969 -0.17388238 -0.24471606 -0.52214 -0.338357 -0.3249149
-0.3675903 0.13815586 -0.31616068 -0.46497113 0.027807834 -0.4610469 -0.06842367 -0.2241354
0.035569314 -0.24658377 -0.1630618 -0.2315758 -0.1445285 -0.11901005 -0.13715632 -0.11197128
-0.40559444 -0.2914657 -0.1490192 0.24033841 -0.28284118 -0.5101282 -0.07555053 -0.22179772
-0.3013994 -0.14996377 0.008841025 -0.0069518043 0.017848428 0.28998354 -0.2210422 0.06780111
0.00787912 0.07563801 0.14973763 0.4878142 0.22565332 0.14461872 0.006237536 0.2847082
0.0033412462 -0.07227003 -0.09224986 0.2984001 0.27180922 0.104636274 0.06846162 0.02479285
0.044714563 -0.070830144 -0.4139711 -0.120777406 -0.17679851 0.40382037 -0.041557707 0.07935789
0.036443442 -0.046325132 -0.12994035 -0.18919186 0.046780597 0.17516626 0.011785043 -0.03491806
-0.090079755 0.031158822 0.43183 0.48967433 0.38784653 0.026628157 0.06516 0.12357514
0.09083629 0.027825786 0.2255363 -0.02645022 -0.04370855 0.061451394 -0.13556759 0.09037922
0.38584724 -0.15938544 0.22148496 -0.11013285 0.23794247 0.12555583 -0.074830174 -0.049720656
0.054960024 -0.0003666702 0.01292204 0.37545353 0.05311208 0.15569404 0.027792538 -0.00079768104
-0.008474719 0.27308586 -0.12673797 -0.103404105 0.107697226 -0.024912287 0.3205214 -0.085846424
-0.004651976 0.13589357 -0.036806863 0.13203943 0.11067052 0.15169647 0.057897974 -0.11236794
-0.06928147 0.051486023 0.005608525 0.30357832 -0.061878182 -0.13186972 0.17902745 -0.10675425
0.15859765 0.14277743 0.008271534 -0.14435604 0.05283216 -0.29755577 0.12555984 0.16342375
-0.09136592 -0.009483695 0.16762674 0.29133743 -0.18957342 0.047042068 0.04748366 0.17452894
0.16786943 -0.08420046 -0.010308605 0.010714222 -0.0835096 0.12509997 0.14435716 -0.012281611
0.10371732 0.002079843 0.03887225 0.013844831 0.12098838 -0.028925061 -0.20777167 0.04872187
0.15651213 -0.005338796 0.09029386 -0.08353599 -0.10522526 -0.08856572 0.1271306 0.01854109
0.057513162 -0.12562323 0.06552137 -0.25639167 -0.1310695 -0.046500828 -0.08093794 -0.20401844
0.18480052 0.04240299 -0.036347907 -0.014074673 0.16453038 -0.07546904 -0.175937 -0.037212357
0.032545283 -0.017531749 -0.1678292 0.04213199 -0.32136756 -0.024045227 0.02252355 -0.05871827

fc1.weight f4 [9, 98]
00000000: 75bd 7f3f 822f 233e ef4f 193f 03b7 753f
00000010: 6268 013e c8b5 473f 927c 023e c22e 8f3f
00000020: 3a01 81be 95ec 843e ca25 d2be f8bb 323f
00000030: cd62 bbbe a69b 923e 5cbd bc3d 7c1c 9ebe
00000040: 6245 103f 82eb f03d 053f 81be dbe6 1fbe
00000050: 471c 96bd b31f 80bf feaa c9be bbca acbe
00000060: 82d7 73be dcc3 7ebf 6273 173e 7589 323f
00000070: 3a12 63bc 4466 1bbe c431 ff3e 426b f6bd
00000080: 3c65 01bf 1dd2 fcbe ccce fb3e f09c 553d
00000090: 9391 fc3d c1a7 283e 7e68 333d 4317 a23d
000000a0: 557d 1ebf 843a a0be b5b3 e23e 8254 3ebf
000000b0: 34c8 013b 1eb5 db3d 97b0 64be 1b39 733e
000000c0: 5a11 893e b2f3 21bf ad38 993d 63a6 163e
000000d0: a3f2 863e 07b6 723d 8a11 7dbf 76f6 303e
000000e0: 88e2 e13e 2e89 203e 7d0e 09bc e2b3 e5bd
000000f0: 9f5f 423f 68d2 3ebe ea4d bdbc d5c1 bdbe
00000100: 3390 e13d 53eb 933f 95b6 66bf 61e0 d5bd
00000110: 075b 33be bee9 3fbe 357f 583d f430 15bf
00000120: 2e28 50be d660 22bf 3b60 9e3e f924 e03c
00000130: 0767 06bd bf28 1fbe fe52 823d fcb2 8c3e
00000140: 6f56 86be e059 debe be3c a3bd e838 923b
00000150: 10c4 fa3e b482 c2bd c125 a9be 390c 413e
00000160: eb37 9dbe 7836 e33d 1b8b 0f3e 3b1a f9be
00000170: 54a2 113f 86a9 063e 5ec4 043f 1f69 563c
00000180: fafa 8bbd 4879 7ebe 48c1 16bf 53ed 9b3d
00000190: 4d9b f9bd 2105 093e c35e 213e 6969 6c3d
000001a0: fca0 9cbe 15f2 103f f810 29bf 862b 053b
000001b0: 97c3 9ebe efb7 b6be fac1 a83f b791 673e
000001c0: e078 15be ad49 033f c9be be3e b6e4 d2be
000001d0: e823 e53c 340a 86be 092b 413d 1b75 b8bd
000001e0: 868b 60be 0b89 22bd e5c0 8e3e 0868 e7be
000001f0: a54b a03e 719c 82bf 57f4 93be e47e 63bf
00000200: d985 7c3f bb73 723e e488 b53d d6e6 773d
00000210: e663 b63f 1c8f 563f a0af cdbb 906e a93e
00000220: 6e36 25bd 1054 09bf e9e9 14bf 29f4 b2bf
00000230: 3c54 8b3d e249 15bf 8a4e 57be ffe6 4abe
00000240: 01b5 c8be aa3b f63e 78ae 22be 25ae 713d
00000250: 4af7 96bd 716e 0c3f fbdd 093f 4523 3fbf
00000260: 3d57 8cbd 625b c23d 9cc1 b1bf ae11 51be
00000270: 665f 343d caf1 a5bd 827d 13bf 7b9b 7e3e
00000280: 0fc5 febb e4c6 a93e 53be 8d3c 9648 b63e
00000290: da40 b13e 5fe7 babd d0f4 873e 2a76 b33e
000002a0: fc5e f73e 8604 26bf 7044 b63e 2561 b43e
000002b0: cfc0 f4be b538 08bf 561b ed3e 9b7d 79be
000002c0: 70cd bb3e 124c e5bd 7793 19bc a745 283f
000002d0: 1c0b 81bd cee8 133e 8475 02bf 0bd1 2a3e
000002e0: 1ae2 c03d 1407 a9be e4eb 2abe 4858 ae3e
000002f0: 8735 93bc 8b6b 27bf 003b 2cbf f355 113e
00000300: 8399 013f 4ec5 43bd c694 a5be 8f1a b33e
00000310: bc1e 4ebe 3590 f93d a0cc 1ebf e724 3bbe
00000320: e676 0e3f b66c 1ebe 9a91 903e 49fc 8dbf
00000330: 02f8 843e 3f65 41bf 53de 16bf 146f 74bf
00000340: 761e debd 2d8c 53be 8603 0d3e 7377 1abe
00000350: 5665 073f f029 913f 8caf 19bd 24ee ce3c
00000360: 7d16 513d 9a41 b03e 1879 d7be 46a8 d6be
00000370: 443c 12bf 0110 0e3f 52c3 ec3e a8ed a03f
00000380: 929f 1fbd 1e60 02bf 27e9 223f 9c9a 403e
00000390: 7992 a83e ae85 273f 8eaa cc3e 3d70 2c3f
000003a0: 8e45 55bd e56c 1a3f 5da0 04be 7813 f93d
000003b0: d29d 27bf a589 053f 276e 013f 882f 36bf
000003c0: ef51 b73e 85bb 1e3f a740 a03e b79e 15be
000003d0: ec45 93bd be01 943c 4fcc 3a3e c434 a9bd
000003e0: 3244 50bd e361 12bf 7c9b 0ebf f832 013f
000003f0: 2c68 3fbf 21bb 4f3e 1014 e6be dc63 a53d
0.99898463 0.15936092 0.59887594 0.9598238 0.12637475 0.7801175 0.12742832 1.1186144
-0.25196248 0.25961748 -0.41044456 0.6981807 -0.36598817 0.28634375 0.09215805 -0.30881107
0.5635587 0.117636696 -0.25243393 -0.15615408 -0.07329612 -1.0009674 -0.3938827 -0.3374842
-0.23812678 -0.9951761 0.14790109 0.6974099 -0.013859326 -0.1517573 0.49842656 -0.120321766
-0.50545096 -0.49379054 0.4918121 0.05215162 0.123324536 0.16470243 0.043800823 0.07914593
-0.6190999 -0.31294644 0.4427773 -0.743477 0.0019803168 0.10727905 -0.22332989 0.23752253
0.2677105 -0.63262475 0.07481513 0.14711909 0.26356992 0.059255626 -0.9885489 0.17281517
0.44118142 0.1567733 -0.008365271 -0.112159505 0.75927156 -0.18634951 -0.023108441 -0.37061945
0.11013832 1.155619 -0.9012235 -0.104431875 -0.17515193 -0.1874151 0.05285569 -0.5827782
-0.20327827 -0.6342901 0.30932793 0.02736138 -0.0328131 -0.15542887 0.06363486 0.27480304
-0.2623782 -0.43427944 -0.0797057 0.00446235 0.4897771 -0.09497586 -0.33036616 0.18852319
-0.30706725 0.110943735 0.14017908 -0.48652825 0.5688832 0.13150606 0.5186213 0.013086586
-0.06834979 -0.24850953 -0.58888674 0.076136254 -0.121878244 0.13380863 0.15758805 0.057717714
-0.3059157 0.5661939 -0.6604152 0.0020320131 -0.31008598 -0.35687205 1.3184197 0.2261418
-0.14596891 0.51284295 0.37254933 -0.41190118 0.027971223 -0.2617966 0.047160182 -0.09006711
-0.21928224 -0.039681476 0.27881542 -0.45196557 0.31307712 -1.0203992 -0.28897354 -0.88865495
0.98641735 0.2367696 0.088640004 0.060522877 1.4249237 0.8381212 -0.0062770396 0.33092165
-0.04033511 -0.53643894 -0.5816942 -1.3980762 0.06803176 -0.5831586 -0.21026054 -0.1981468
-0.39200595 0.48092395 -0.15886867 0.059003968 -0.073713854 0.5485602 0.5385434 -0.7466319
-0.06852577 0.09490086 -1.388721 -0.204169 0.04403629 -0.08102758 -0.57613385 0.24863999
-0.007774956 0.33159554 0.017302668 0.35602254 0.3461979 -0.09126162 0.26553965 0.3505109
0.48314655 -0.6485065 0.3559909 0.35230365 -0.4780335 -0.5321153 0.46309918 -0.24364321
0.36680174 -0.1119615 -0.009373537 0.6573128 -0.06300947 0.14444277 -0.50960565 0.16681306
0.094181255 -0.33013213 -0.16691548 0.34051728 -0.01796986 -0.6539847 -0.67277527 0.14192943
0.50624865 -0.047795586 -0.32340068 0.349812 -0.20128912 0.121857084 -0.6203098 -0.18275796
0.55650175 -0.15471157 0.28236085 -1.1092616 0.25970465 -0.75545114 -0.5893299 -0.9548199
-0.10845654 -0.20658942 0.13770875 -0.15084629 0.52889 1.1340923 -0.03752093 0.025260039
0.051046837 0.3442505 -0.42084575 -0.41925257 -0.5712321 0.5549317 0.46242768 1.2572527
-0.038970537 -0.50927913 0.6363701 0.18808979 0.3292425 0.65438354 0.39973873 0.6735876
-0.052068286 0.6032241 -0.12951799 0.121619165 -0.6547519 0.52163154 0.50558704 -0.71166277
0.35804698 0.6200488 0.31299326 -0.14611326 -0.07191071 0.018067237 0.18242 -0.08262017
-0.050846286 -0.57180613 -0.55706 0.504684 -0.7476833 0.20286228 -0.4493718 0.08075687

fc1.bias f4 [9]
00000000: fa27 cd3c fa79 cbbd 1aef 7a3e 92fb 0fbe
00000010: 3a0f 7abd 6ce0 ee3c ac5a 1c3b 77f4 703c
00000020: e2b0 473e
0.025043476 -0.099353746 0.24505273 -0.1406081 -0.061049677 0.029159747 0.0023857756 0.014706722
0.19501069

exp_avg f4 [392, 1]
00000000: 40e6 ac39 200e 87ba 4e30 613a df7d fc3b
00000010: 388c 47bb 2477 6bbb 4b22 973b 963e 0dbd
00000020: 570f 70ba 4734 8fbb 5873 9539 6435 47ba
00000030: 5fa1 2a3a 51e4 103b 2f44 37bc 56b3 933b
00000040: a718 7b3b 7d70 0a3b d990 1c3b 5e4f d4ba
00000050: 4fd4 16bb 6a73 973c f90f 03bc 7240 863b
00000060: ed57 3436 e0ca a6bb bada 51bb 7e10 f53b
00000070: ba5f a4ba a42a a8ba ce3b 16bb 3749 6ab9
00000080: b8be 563a e24f 8339 232c d93b 0cc6 9abb
00000090: 7bfe 96ba 4063 00ba e94b 19ba e870 23bb
000000a0: 19fe 8abc b88a c83b b95e 2fbc f4a2 babb
000000b0: d4c4 8ebb df3d e93a 0d77 663a 7d6c c5bb
000000c0: 6137 98bb 8300 a2ba 8396 ddba 51d8 5b3c
000000d0: 1715 4c3a f43d 83bb 480b 583c b08b e8ba
000000e0: 0a7f fc3c fb05 8dba 2548 53ba c8c1 7b3b
000000f0: a157 7c3a 209c 723b 7a50 303b 5baf 173b
00000100: 55d7 d5bb 394b 493c 7f1c 3ebb 2abb 8cbb
00000110: f673 3a3a 4289 c7bb 774c 6fbb cf03 67ba
00000120: 787f 97ba 7227 ed3b d4b8 493d c8a4 32bb
00000130: a0d2 6b3a 91b2 eeba 4441 253b 6a60 823a
00000140: 5bc9 f4ba 761f 453b 9277 9cb8 2e93 05bc
00000150: 67ab 81bb 6285 bdb9 bef5 9abb b275 b1ba
00000160: 410b 89ba de1e c1bb 6fb4 4abb 490a 2a38
00000170: ce6a 8bbb adc2 d8b9 c1b0 0fbc aeba cb3a
00000180: db10 383a 6e4e 78bb 5cbd 313b aa7c 18b8
00000190: b4bd f9ba 1774 34bc 4101 74bb 494d 6d39
000001a0: d194 4bbb 300f 0fbc d486 003b 63af bfbb
000001b0: 7d90 85ba 67a3 71bb f3f1 1f38 7148 28bb
000001c0: 7ba7 22bc eb89 8c3b 6081 603a 3aa4 04bb
000001d0: 5fe4 9739 f7e4 94bb fb73 573a 55a0 323c
000001e0: 2811 493c 5978 823b 050c b9b9 88f9 2dbb
000001f0: e46d 33b9 041a 1cbc 6f30 c439 ba9a 58ba
00000200: 9fd3 feba 5d4d 12bb 43bf 6f3b 5839 c7ba
00000210: 0316 073c f63b 7ebb ee62 2dbb 987e 203b
00000220: a09e 423b e38d 083a 4dad 80ba 2bf3 8fbb
00000230: 1bb2 0d3b db6e 83bb aee0 07bb 49ff db3b
00000240: 7fa9 043a 0abb fe39 67f9 633b 6ca2 b4b9
00000250: 5911 113b 660e 6d3a 2b10 91ba 5840 9139
00000260: 0bfb ee3b 2180 25bb c998 c13b b9a8 9e39
00000270: f149 b539 ee7b a9b9 3d7d 163a 51f4 8e3b
00000280: 6a83 ad3b 98cf a63a 75b7 d13a 5102 6f3b
00000290: dd9f 0cbb ef0f 65bb e1db 1e3b b9e2 6cbb
000002a0: 2746 1e3a a2dd e03b 6a6d 8b39 01cf 46bb
000002b0: 1180 a53b 7915 eab8 5307 71ba 44ec acbb
000002c0: 7119 b0ba 6369 6b3a 67ce e4bb af9f 373b
000002d0: 4c20 083b 6a61 77bb 0673 0eba 7b7f 36bb
000002e0: 54ce 1bbb e910 88b9 8dd2 a7ba afb1 04bb
000002f0: 32c7 86b9 6f2d 8738 be83 adbb 77aa b539
00000300: 8931 31bc 4b4c bf3b 62a8 e1ba 1c1c 86b9
00000310: 5269 bb3c 2972 0b3b aee0 fa3b 49d4 3a3d
00000320: 0bd1 a5bc c6ea 26bb f1c1 b3bc ee41 853d
00000330: b3e6 133c 17eb 393c d676 ca3a b0bc 853a
00000340: b1b6 21bc be79 923b 71f9 a3bc 6ca2 ba3b
00000350: 8f67 42bc 7598 3fbc 8b7a d4bb 2f21 a2bb
00000360: ad3a bfbb 4ff0 94ba 341e 763b 192a 623b
00000370: cd74 a13b 52dc 153c 673e d53b 9137 79bd
00000380: d7cb 053c b98d 73bb a662 6f3c 7897 e63b
00000390: e19e b13c 236a 1f3c 1b33 90bb d81c 7ebb
000003a0: d58c 04bc 2e49 a8bc d8ca 5dbc 68bf 883b
000003b0: ad3c 19bd c50f 083c 5233 033d 1ec4 793c
000003c0: 1de1 82bc 81ab 49ba d485 1abc 8668 76b8
000003d0: befc 5fba ed61 07bb 7992 6c3c a1e5 643c
000003e0: d4e5 5ebb d85b 1f3d 0afd 253d 3218 3f3b
000003f0: edeb b0bb 3b23 003c 0620 11bb 6379 6d3a
0.00032977946 -0.0010303892 0.0008590267 0.0077054347 -0.0030448567 -0.0035929168 0.0046122423 -0.034483515
-0.0009157559 -0.0043702456 0.00028505432 -0.00075992034 0.00065090315 0.0022108743 -0.01118569 0.0045074625
0.0038314254 0.0021124177 0.0023890047 -0.001619797 -0.002301473 0.01848765 -0.007999414 0.004097038
2.687327e-06 -0.0050901026 -0.003202124 0.0074787727 -0.0012540736 -0.0012830091 -0.002292383 -0.00022343254
0.00081918715 0.00025045784 0.006627576 -0.004723316 -0.0011519933 -0.0004897602 -0.00058477983 -0.0024939124
-0.016966866 0.006120052 -0.010703736 -0.005695695 -0.00435696 0.0017794928 0.00087915437 -0.0060248957
-0.0046452736 -0.0012359772 -0.0016905818 0.013418273 0.0007785125 -0.004005188 0.013186283 -0.0017741825
0.030822296 -0.0010759229 -0.00080597616 0.0038415063 0.0009626095 0.0037019327 0.0026903437 0.0023145291
-0.0065259137 0.012286001 -0.0029008684 -0.0042947726 0.00071126164 -0.0060893605 -0.0036514082 -0.0008812518
-0.0011558374 0.0072373683 0.04924853 -0.0027258862 0.0008995924 -0.0018211176 0.0025215903 0.0009946947
-0.0018675731 0.0030078567 -7.4609314e-05 -0.008152766 -0.0039572003 -0.00036148267 -0.004729002 -0.0013539104
-0.0010455624 -0.0058935722 -0.00309303 4.0540737e-05 -0.0042546755 -0.00041343775 -0.008770169 0.0015543306
0.00070215546 -0.0037888545 0.0027120924 -3.6355726e-05 -0.0019053728 -0.011014006 -0.0037232193 0.00022630872
-0.0031064043 -0.008731648 0.0019611614 -0.005849765 -0.0010190156 -0.0036871077 3.8133887e-05 -0.0025677944
-0.009927626 0.004288902 0.00085642 -0.0020239488 0.00028971114 -0.0045438963 0.00082188816 0.010902484
0.012272157 0.0039816317 -0.00035294905 -0.0026546437 -0.00017111708 -0.009527687 0.0003742012 -0.0008262802
-0.001944173 -0.0022323944 0.0036582507 -0.0015199585 0.008244994 -0.0038793064 -0.0026456672 0.0024489518
0.0029696599 0.0005209131 -0.0009817273 -0.0043930016 0.0021621052 -0.0040110177 -0.0020733285 0.006713782
0.0005060657 0.0004858601 0.0034786107 -0.0003445329 0.0022135584 0.0009042978 -0.001106744 0.00027704495
0.0072931102 -0.0025253373 0.005908106 0.00030261817 0.000345781 -0.00032326527 0.0005740708 0.004362621
0.005295207 0.0012726663 0.0016000109 0.0036469887 -0.002145759 -0.0034952124 0.0024239945 -0.003614588
0.0006037675 0.006862358 0.00026593666 -0.0030335786 0.005050667 -0.00011161989 -0.0009194512 -0.0052771885
-0.0013435317 0.00089802424 -0.006982613 0.0028018763 0.0020771204 -0.0037747272 -0.000543401 -0.002784698
-0.0023774104 -0.0002595254 -0.0012803838 -0.002024751 -0.00025706884 6.445764e-05 -0.005295246 0.00034650016
-0.010815033 0.0058379523 -0.001721632 -0.00025579415 0.02287737 0.0021277762 0.0076561784 0.045612607
-0.020241281 -0.0025469526 -0.021943064 0.06506716 0.009027171 0.011347554 0.0015446793 0.0010203328
-0.009870217 0.004470079 -0.020016404 0.0056956317 -0.011865511 -0.011694063 -0.006484335 -0.0049478034
-0.005835852 -0.0011363121 0.0037554624 0.0034509955 0.004927254 0.009146767 0.006507683 -0.060844008
0.008166275 -0.003716333 0.014610922 0.0070370995 0.021682205 0.009729895 -0.0044006235 -0.0038774516
-0.008090218 -0.020542707 -0.013537131 0.004173208 -0.03741138 0.008304541 0.032031365 0.015244512
-0.015976483 -0.00076930976 -0.009431321 -5.8748315e-05 -0.00085444364 -0.0020657734 0.014439219 0.013970763
-0.00340115 0.03890595 0.04052452 0.0029158709 -0.0053992183 0.0078209 -0.0022144332 0.00090589206

exp_avg_sq f4 [392, 1]
00000000: 7475 5a3a 9bce 1038 d1a7 9938 8097 473b
00000010: 5726 8439 70e7 5e3a bde5 1d39 df8c 8d3b
00000020: 7744 053a a049 d53a 77d7 0a38 071b 783a
00000030: 053c 1838 b33c 8b39 a003 9f3a 40d9 e739
00000040: a7c3 783a 5209 d339 5aca d338 11ce c638
00000050: 70b3 1138 f70e 4d3c 94be da3a 661e 063a
00000060: 3c96 003a 17fd 553b 1232 9938 d723 a83b
00000070: c464 f338 1a7c 8438 5e66 9238 d788 9d39
00000080: 8e1b 5639 6878 813a 28ba 3f3b 2cf8 ab39
00000090: 6ce1 5b39 00b8 3239 fab6 0e3a 4f0d 6d39
000000a0: f33b 843b 8b79 953b 4f54 bc39 6678 0f3b
000000b0: 6990 ea39 8eeb e939 58b8 c738 a959 193a
000000c0: 5e2a ad39 0258 4e38 3262 2c39 b9cd dc3a
000000d0: 222b bc38 e744 8c39 d16a a23a 2902 2639
000000e0: 3907 a73b 9242 de38 5d8f b438 05f2 bd3a
000000f0: 3421 4c38 47ff f739 ff8d 053a bdc5 743a
00000100: a428 e938 a026 c73b 35b7 ff38 4c17 dc39
00000110: a5bb dd39 636e 8c39 af86 cf38 8304 2f3b
00000120: 2d36 4838 4e39 073b ce32 b03c 9d64 9538
00000130: 5195 023a 36e3 e639 a65f f737 d1af 2139
00000140: f24c 0939 d176 ab39 1fae 5039 8f4d 763a
00000150: bc62 e03a 82da 0c39 9d23 9d39 15ab 8739
00000160: 93f1 c339 20d8 fa3a 7b53 9138 d5a6 ec3a
00000170: 7189 963b 1ced 9138 be2b 013a 950f 4739
00000180: 33a4 1239 9f37 533a 0d54 9239 1401 ad36
00000190: 9e59 d937 2dbb 3e3a 5106 6439 5445 a238
000001a0: 4a73 0f39 cf51 2f3b 1f14 6e39 6046 353a
000001b0: 1f7e 9236 f01c 373a 7ef2 a438 baae 4139
000001c0: 8f77 ea3a 0876 a539 8b39 a039 f958 0639
000001d0: 3050 dd37 dacf d138 a8ec c138 a40e 7d3a
000001e0: 8380 993a 05cf 2339 2488 4339 87e2 c039
000001f0: a915 b038 e550 8839 3fca 5538 7e61 3337
00000200: c10c a438 5f9a 7d39 2bf1 5d39 6595 073a
00000210: 9b27 803a a8a8 6d39 dfc6 ab39 3928 4839
00000220: a133 e639 a98a d238 59a6 7739 8e13 ba39
00000230: 2f0b 0e39 cb68 9939 9361 ab38 ae76 cf39
00000240: e980 9338 940e e638 43a0 c939 976a a836
00000250: 39b8 9e39 7b0c 5e39 9ff7 7338 3b51 9c39
00000260: db97 f439 209e ca38 a4d0 ef3b 8f68 a638
00000270: 76f7 1638 4c12 9639 9315 3f38 f63b c539
00000280: 880c 5a39 213d 333a f6d8 df38 77b5 0c39
00000290: 7586 fe37 9178 5839 dea3 cf39 b786 1f39
000002a0: 912b 4837 b66b 203b d284 1736 93ac 9439
000002b0: 0477 fa39 7983 1f37 076e 0b3a a14f ac39
000002c0: f9fb 8739 a0eb 8137 35fc 8c39 8551 8239
000002d0: f6a6 a139 8184 5538 cdff 453a ae8b 6a38
000002e0: 74d3 e038 9848 ea38 d0c6 b139 e190 0239
000002f0: e5fc 6b37 86b2 5e3a 9fa6 4939 211e 2336
00000300: fb47 213a c807 ad39 b26b 1339 2830 8e39
00000310: 6c0f 323c d519 c838 de85 103a d043 2c3d
00000320: 7e02 a23b dd0b f839 0ea6 943b 6ccb f43d
00000330: cd80 303a d370 3c3d ebc3 a439 9f7e 3e3b
00000340: 7b6e f43a 2bd4 cb3b b1b1 2b3c bdbe ba3a
00000350: 3324 603b e1e9 0a3b 1215 aa3a 5534 913b
00000360: 973e 043b 8262 bd3c 7c0b b43b 8713 d23b
00000370: d9b5 833a 68ab 0c3b b0fc 273c 3ea8 0f3d
00000380: 1099 f33a 2084 313a c37b 943a 4410 263b
00000390: cfad 343c 69f6 133b f9d2 893a 22ac 393a
000003a0: 4092 9e3c 097c b93b 8aa6 2e3c 9c36 4e3a
000003b0: 02fc 2d3c 38a1 ce3c 709c 2a3b ecb3 a53b
000003c0: 1970 4b3c bfd9 c93a 40ac 943a 65ee 133a
000003d0: 3ed8 6b3a 7eb5 2e39 3a5a 483c 7d99 9e3b
000003e0: 52fa 663a 41ae 063c 5c87 713c 8825 373a
000003f0: 1b5f 383d a531 493b 9a51 cb39 be01 163c
0.0008333542 3.452469e-05 7.326867e-05 0.0030455291 0.00025205567 0.0008503115 0.00015058271 0.0043197717
0.00050837494 0.0016272552 3.310243e-05 0.00094644766 3.629552e-05 0.0002655737 0.0012131818 0.00044221617
0.00094896037 0.00040252 0.00010098955 9.4797586e-05 3.4737808e-05 0.012515775 0.0016688877 0.0005116224
0.0004905199 0.0032652074 7.304935e-05 0.0051312256 0.00011605912 6.317366e-05 6.98089e-05 0.00030047327
0.00020418895 0.0009877803 0.0029255245 0.00032800564 0.00020969444 0.00017043948 0.0005444136 0.00022607039
0.004035467 0.004561608 0.0003592097 0.0021891831 0.00044739552 0.00044616725 9.523396e-05 0.0005849847
0.00033028697 4.919619e-05 0.00016439779 0.0016845978 8.972573e-05 0.00026754217 0.0012391453 0.00015831798
0.0050972966 0.000105981846 8.609772e-05 0.0014491683 4.8668313e-05 0.00047301708 0.00050947064 0.00093373266
0.00011117876 0.0060776025 0.000121934725 0.00041979027 0.0004229221 0.00026785125 9.895616e-05 0.002670557
4.773417e-05 0.0020633521 0.0215086 7.123614e-05 0.00049813563 0.00044038304 2.9489234e-05 0.00015419653
0.00013094002 0.00032704187 0.00019901291 0.00093957124 0.0017119269 0.00013432841 0.00029971907 0.00025876673
0.00037373285 0.0019137897 6.929688e-05 0.0018055091 0.004594021 6.958304e-05 0.00049274776 0.00018983924
0.00013984814 0.00080572994 0.00027909913 5.1559273e-06 2.5910147e-05 0.0007275816 0.00021746127 7.737675e-05
0.00013680491 0.0026751643 0.00022704944 0.0006915089 4.3658215e-06 0.0006985208 7.865297e-05 0.00018471005
0.0017888414 0.00031559193 0.0003056045 0.00012812381 2.6382593e-05 0.00010004612 9.247038e-05 0.00096533657
0.0011711273 0.00015622012 0.00018647366 0.0003678987 8.3963685e-05 0.00026000213 5.0971514e-05 1.0691931e-05
7.822505e-05 0.00024185468 0.00021166044 0.0005172103 0.0009777428 0.0002266491 0.00032763832 0.0001908847
0.00043907485 0.00010039408 0.00023617725 0.00035491254 0.00013546342 0.0002926051 8.17209e-05 0.0003957054
7.0335176e-05 0.0001096997 0.00038457112 5.019199e-06 0.00030273365 0.00021176219 5.816633e-05 0.0002981516
0.00046652448 9.661564e-05 0.007318573 7.9349724e-05 3.5993253e-05 0.00028623862 4.555804e-05 0.00037619442
0.00020794768 0.0006837417 0.00010673881 0.00013419041 3.0341771e-05 0.0002064428 0.00039604207 0.00015213607
1.1931073e-05 0.0024478263 2.2578065e-06 0.00028357338 0.0004777239 9.507749e-06 0.00053188246 0.00032865725
0.0002593694 1.548772e-05 0.0002689079 0.0002485627 0.0003083271 5.090656e-05 0.0007553071 5.5920034e-05
0.000107205386 0.00011171511 0.00033908198 0.00012451738 1.4065973e-05 0.000849523 0.00019230925 2.430643e-06
0.00061523885 0.0003300293 0.00014059132 0.0002712023 0.010867935 9.541555e-05 0.0005513112 0.04205686
0.0049441447 0.00047311085 0.004536397 0.11952862 0.000673306 0.046006035 0.00031426488 0.0029067171
0.0018648648 0.0062203608 0.010479377 0.0014247518 0.0034201264 0.0021196532 0.001297625 0.0044312873
0.0020178908 0.023118261 0.005494533 0.0064110192 0.0010048702 0.002146447 0.0102531165 0.035072558
0.0018585045 0.00067717023 0.0011328388 0.0025339285 0.011027767 0.0022577292 0.0010515145 0.000708284
0.019356847 0.005660538 0.010659823 0.0007866414 0.010619165 0.02522336 0.0026033185 0.0050568487
0.012416863 0.0015399976 0.0011342838 0.00056431285 0.0008996761 0.00016661544 0.012228543 0.0048400746
0.00088111043 0.008220256 0.014741745 0.00069864886 0.045012575 0.0030699756 0.00038779975 0.009155689
