models/cfv/1lkfcv5.pth (torch, 490360 bytes, 18 tensors)

lstm.weight_ih_l0 f4 [392, 1]
000000 e7 27 4a 3f 5d 77 3c 3f a3 31 93 bf 3a 5e 3c 3f
       0.78967136 0.73619634 -1.1499523 0.7358128
000010 ca e6 4a be 62 20 c5 bf b1 be 42 3f 23 df 2e 3e
       -0.19814602 -1.5400507 0.7607222 0.17077307
000020 39 95 a3 3e 26 29 d9 3f aa 4a 7a be cc 9e bb 3d
       0.31949785 1.6965683 -0.24442545 0.091611475
000030 83 5b 07 3f 00 98 d3 be 83 1b 53 3f 52 fb 8a 3e
       0.5287401 -0.41326904 0.82463855 0.27144867
000040 d1 27 5c bd 34 ef 0e 3f e1 18 78 3e 5d 3d 3a bf
       -0.05374891 0.55833745 0.2422824 -0.7274988
000050 39 34 8a 3e 6f 6f e4 3e 8a b1 c5 be 52 b6 2f 3d
       0.26992968 0.44616267 -0.38612014 0.042898484
000060 89 fb c1 3f 2a 20 31 3f f9 16 f6 3e 22 b5 69 3d
       1.5154887 0.69189703 0.48064402 0.057057507
000070 14 9e 51 bf 32 ed b7 be d1 03 8b 3e 99 5d 5d 3f
       -0.81881833 -0.35923153 0.2715135 0.86470944
000080 f2 73 1a 3f ae a8 d1 3e 5c 68 ae bf ce e2 0f be
       0.6033317 0.40949005 -1.3625598 -0.14051363
000090 62 1e 2a be 7d 26 09 3f ef 49 ad 3e 16 2c 32 be
       -0.16613153 0.53574353 0.3384547 -0.1739963
0000a0 f3 4d ee be cb 17 41 be 2c fa 24 bf 26 a9 45 3f
       -0.46543846 -0.18856733 -0.6444423 0.77211225
0000b0 0d a7 3c 3f fa d3 e1 3e 22 1d c3 3d ba b2 db 3e
       0.736924 0.44107038 0.09527041 0.42909795
0000c0 29 96 c6 3e 7d d7 56 3f a2 41 59 3f 49 b6 f5 be
       0.38786438 0.8392256 0.8486577 -0.47990635
0000d0 57 14 23 3f c2 35 c7 3e eb 23 ff 3d de ae d6 3e
       0.6370291 0.389082 0.12458023 0.41930288
0000e0 71 15 64 3d b8 43 95 be 2c de 06 bd 51 3c 83 bf
       0.05568451 -0.29153228 -0.032926723 -1.0252782
0000f0 16 47 de be 8f c6 0b 3f 2d d3 9b bd af ef 86 be
       -0.4341361 0.5459985 -0.07608638 -0.2635474
000100 b7 3b 83 3e 19 c1 8b 3f bd e7 ba be b3 4a b5 3f
       0.25631496 1.0918304 -0.36504927 1.4163421
000110 e6 11 17 3f 46 24 e2 3e 2e 29 54 3e 38 5c 51 3f
       0.59011686 0.441683 0.20718834 0.8178134
000120 22 4b 13 3f 93 b4 af bd f0 5d 4a 3e f3 22 84 bf
       0.5753652 -0.08579364 0.19762397 -1.0323166
000130 fe 94 d4 3e 34 d3 02 3f f0 e1 19 3f c5 eb 34 be
       0.41519922 0.5110352 0.6011038 -0.17668064
000140 45 76 c7 be 29 9e a7 bd 1d ce 48 3f eb 94 e5 3e
       -0.3895742 -0.081844635 0.78439504 0.44840178
000150 c5 f8 00 bf 7e 75 e2 3e 39 37 bf bf f2 e5 0a 3f
       -0.5037959 0.44230264 -1.4938728 0.5425712
000160 30 c3 7a be a4 db 95 bf 4c 65 47 3d a3 fe 90 bf
       -0.2448852 -1.1707654 0.04868059 -1.1327709
000170 92 55 15 40 a7 c4 4a 3f 74 63 5c 3c 22 6b 49 bf
       2.3333478 0.7920632 0.013451446 -0.78679097
000180 6b d1 b9 be 1d bb bd 3e 83 87 87 be a7 6e 4f be
       -0.36292586 0.3705682 -0.26470575 -0.20257054
000190 06 e7 2c bd 56 54 43 bd 96 d5 e2 bc 74 6b 9c bd
       -0.04221251 -0.04768785 -0.027689736 -0.076376826
0001a0 98 da 50 3f de 54 cc 3e 97 ec bd bd 79 a9 ba 3e
       0.8158355 0.399085 -0.092736416 0.36457422
0001b0 3c dd 10 3f 03 04 a5 3e a1 74 e0 3e fe ba ef be
       0.56587577 0.32229623 0.4383898 -0.4682235
0001c0 bf 97 d1 3e 96 3a 6d 3c 50 03 19 3e 52 0d 18 3f
       0.40936086 0.0144793 0.1494267 0.59395325
0001d0 4e 1f 7d bd c1 87 db bf d1 e8 6c 3e ea e4 3f 3e
       -0.061797433 -1.7150804 0.23135687 0.18739668
0001e0 a2 a4 2e bf d7 c5 fb be f0 d6 65 3f 68 33 b1 3e
       -0.6821996 -0.49174377 0.89781094 0.34609532
0001f0 7e 3f 5f 3f b4 76 7a 3e 80 48 50 be 9d a6 02 be
       0.87206256 0.24459344 -0.20340157 -0.1275887
000200 4d db d6 3e 76 5a a2 3e c6 13 1c be d7 21 bb 3d
       0.41964188 0.3170964 -0.15241918 0.09137314
000210 25 e6 f4 be cc 85 b6 3e 6b 12 98 bd ff df cd bd
       -0.47831836 0.35648954 -0.07425388 -0.100524895
000220 01 5f 26 3f 57 98 e0 bc 9c 81 77 3d b7 e7 ac be
       0.64988714 -0.027416391 0.06042634 -0.33770534
000230 b2 fa d8 be 71 f7 2c be e9 37 8b be 9b b6 fb bd
       -0.42378765 -0.16891266 -0.27191094 -0.122906886
000240 5a 52 a1 3c ce 97 67 3d 35 cd 73 3e 9f 59 96 3e
       0.019692589 0.056541257 0.23808749 0.2936525
000250 79 1e 28 3e bb 08 22 bf 9b 09 61 be 88 ce 55 be
       0.16417874 -0.6329457 -0.2197632 -0.20879567
000260 97 82 3f bd 67 3e 82 3f 27 f3 23 3f 99 f0 e0 be
       -0.0467554 1.0175294 0.64042896 -0.4393356
000270 ee 82 de 3e cc af bb 3e fc 01 f2 be a6 dd 94 3e
       0.43459266 0.3665756 -0.4726714 0.29075354
000280 1d 9d 1b 3f 5a 65 87 bd c4 43 d8 3e 8d 91 4d 3f
       0.6078661 -0.06611128 0.422392 0.8030022
000290 7e e2 3c 3e 3c 4e 7a bb d4 24 e2 3e fd 59 65 be
       0.18445775 -0.0038193604 0.44168723 -0.22397609
0002a0 64 93 4d 3e 2f 69 3b 3f 21 b1 02 3f 28 56 06 be
       0.20075756 0.7320737 0.5105153 -0.13118804
0002b0 a8 9f ac 3d 8b 03 b4 be 65 bc 4f 3d 4b 9b 40 3e
       0.084288895 -0.35158953 0.050716776 0.1880924
0002c0 33 2e c8 be 11 07 3f 3d 12 14 15 3e 50 23 2d 3e
       -0.39097747 0.0466376 0.14558437 0.16908002
0002d0 5d 6f fb 3e 77 ec fe bd 19 16 7e be a9 1c 55 be
       0.491084 -0.12447446 -0.24813117 -0.20811714
0002e0 ec 9c d2 3e 91 10 7a 3a 74 fb e8 be 87 b8 47 bf
       0.41135347 0.0009539212 -0.45504344 -0.7801594
0002f0 e5 9b 21 bd 48 2e bf bf a9 38 ad be 05 04 77 3f
       -0.039455313 -1.4935999 -0.3383229 0.9649051
000300 b0 ec 95 3d ee 57 05 bf 3d 07 2e be 51 e9 c4 be
       0.07320535 -0.52087295 -0.16994949 -0.38459256
000310 9e 71 b8 be 26 4e 0c bf 58 e1 a4 3e 48 e4 81 bf
       -0.36024183 -0.54806745 0.32203174 -1.0147791
000320 1e 45 a7 bb c2 d5 a1 3f 4f 0a 67 3e b4 ef 36 3d
       -0.005104675 1.2643359 0.22562526 0.044662192
000330 4f f0 b3 3d 6b 6c 2d bf 63 4a 97 3d bc ec 05 3e
       0.087860696 -0.6774356 0.07387235 0.13078588
000340 9b d3 73 3f d8 91 66 bf e8 78 e3 3e 78 68 c3 3e
       0.9524476 -0.9006629 0.44428182 0.3816564
000350 0d 3a 9d bd d8 35 b5 be 42 77 d2 be 0a e9 87 be
       -0.07677088 -0.35392642 -0.41106611 -0.26544982
000360 2b f1 91 3d ee 66 0c 3f 3d 6a 09 3f f0 b0 e1 3e
       0.07126077 0.5484456 0.5367773 0.44080305
000370 b2 93 b1 3e bd f8 04 3f a9 7a b4 be f2 4b 6e 3e
       0.34682995 0.51942044 -0.35249832 0.23271158
000380 2a 26 23 3e c4 82 88 3d 9d 49 17 bf 85 c5 04 bc
       0.15932527 0.066655666 -0.590967 -0.008103733
000390 5f 75 5e be d3 10 05 bf f9 0a 46 3f b1 93 90 3d
       -0.21724461 -0.51978797 0.7736049 0.0705942
0003a0 61 75 25 3e 60 f1 e2 be ed 30 0b bd d0 9d a7 be
       0.16158058 -0.4432478 -0.033982206 -0.3273759
0003b0 89 2b 1f bd fa 33 0e 3e b0 de 1e 3e b1 2b 2b bd
       -0.038859878 0.13887015 0.15514636 -0.041789714
0003c0 9b 74 04 3f 90 ae 4b be cd 1e 68 be ba 54 eb bd
       0.51740426 -0.19890809 -0.22668 -0.1149077
0003d0 5a f1 9f bd 7a 6e 06 3f 2b ed c6 3c 9a 5c 22 3f
       -0.07809706 0.52512324 0.024283012 0.6342255
0003e0 1d a2 2e 3e 84 19 af 3e bf 89 9a be f3 1a c8 be
       0.17054029 0.34199154 -0.30183217 -0.3908306
0003f0 c8 f0 a9 3e 14 11 a5 3e dc 8b 44 3d a4 a8 b9 3f
       0.33191514 0.32239592 0.047984943 1.450459

lstm.weight_hh_l0 f4 [392, 98]
000000 e0 9d 33 be 59 ce f5 bd 40 9b 7b be c0 fb ca bd
       -0.17540693 -0.12002248 -0.24570942 -0.09911299
000010 8f e0 66 3e 93 d3 4f be 47 69 a0 bd be 51 a7 bd
       0.225466 -0.20295553 -0.0783258 -0.08169888
000020 6b e0 5c be 58 0a c7 be 0e 97 8b 3e f3 37 cf 3d
       -0.21569984 -0.3887508 0.27263683 0.10118093
000030 1a 81 81 3e 67 fe 13 3e 8d 95 00 3e ca a1 e7 3e
       0.2529381 0.14452516 0.12557049 0.45240623
000040 b2 cf b4 bd 92 17 55 bf d1 63 15 bf f0 b9 1b 3c
       -0.08828677 -0.8323909 -0.5835543 0.00950478
000050 39 96 14 3e 9f dc 62 3d 44 69 e7 3d 00 8d a7 3e
       0.1451043 0.055386182 0.11299375 0.32724762
000060 a7 2d 50 bf 4f 7b 44 be 4a 51 2a be d9 6d 2c 3e
       -0.8131966 -0.19187663 -0.16632572 0.16838779
000070 5d c9 fd bc 14 ed 3c 3e a0 0f 40 3d a7 02 98 bd
       -0.030979807 0.18449813 0.0468899 -0.07422381
000080 5c 1d 13 bd dc d0 be bb 83 50 0a bf 3a 2c 88 bd
       -0.03591667 -0.005823238 -0.540291 -0.066490605
000090 4d ce 99 3e 0f ec 78 3d 29 b3 8e bd 81 29 86 3d
       0.30040208 0.060771998 -0.06967766 0.06550885
0000a0 2d b2 5c 3e 55 8f 22 3f cc 25 a7 be 98 80 c4 be
       0.21552344 0.6349996 -0.32646024 -0.3837936
0000b0 f3 f5 65 be 3c d4 c1 bd ac 4b bc 3e d8 01 95 3e
       -0.22457103 -0.094643086 0.36776483 0.2910297
0000c0 12 a7 9f bc 61 5f 03 3e ac d6 44 bd 51 a3 a1 bd
       -0.019488845 0.12829353 -0.04805629 -0.07892478
0000d0 c7 f3 2a be c3 c4 17 3e f1 fb 0e 3e 60 ff c2 be
       -0.16694556 0.14821152 0.13963296 -0.3808546
0000e0 25 04 60 bb 0f 1c 9b 3e d1 85 06 be 25 39 c7 be
       -0.0034182158 0.30294845 -0.13136984 -0.38910785
0000f0 74 d3 af be 82 f5 10 bd 10 01 68 bd ec 9c 03 bf
       -0.34341013 -0.035390384 -0.05664164 -0.5141132
000100 a7 90 bb bd ab dc 28 3e 54 68 4b 3e a9 fa e6 3d
       -0.091584496 0.16490428 0.19864017 0.112782784
000110 9d b5 f3 be 3e 1e 74 3d af 1e 6a bc 1d 57 b2 3d
       -0.47599497 0.059599154 -0.014289542 0.08708022
000120 b2 13 63 3c a4 34 29 be fe c2 7d 3e 4f ad 96 3e
       0.013859676 -0.16523987 0.24781415 0.294291
000130 de 9f 59 3e 29 83 e6 be d5 1f 6d be 98 50 83 3e
       0.2125239 -0.45021942 -0.23156674 0.25647426
000140 60 a3 49 3e 48 63 89 bc c1 16 42 be 4b 51 1a be
       0.19691229 -0.016770974 -0.18953992 -0.15070073
000150 ce 41 5b be 3d ad 47 3e 36 96 8a be 32 1c bc be
       -0.21411821 0.19499679 -0.27067727 -0.3674026
000160 c7 60 a6 be 01 3c bd 3d b4 99 be be c5 24 82 3e
       -0.3249571 0.092399605 -0.3722664 0.25418678
000170 63 cd a1 be 25 5d 61 bd 04 99 84 be d3 a0 b7 3e
       -0.3160201 -0.05502047 -0.25897992 0.35864887
000180 fb 31 72 be 02 a0 bb 3d 22 7d 87 be a2 a8 38 3d
       -0.23651879 0.091613784 -0.26462656 0.045082696
000190 20 8a 62 3d 48 28 a7 be 68 ce 4d 3e 53 0f ad bd
       0.055307508 -0.3264792 0.20098269 -0.084501885
0001a0 64 87 69 3e bf 05 4e ba 85 1c 8f be e4 df 9d be
       0.22805554 -0.00078591326 -0.27951446 -0.30834877
0001b0 67 55 d2 bd e6 53 a2 be e9 36 b8 bd 35 9b 1b 3e
       -0.102701955 -0.31704634 -0.08994848 0.15195926
0001c0 d3 cd f6 3e 14 26 40 3e 72 c5 fa be cd bc 65 be
       0.48203906 0.18764526 -0.48978764 -0.22435303
0001d0 02 48 61 3c 43 3b 32 3d bc 6a d3 3b 36 a6 1b 3f
       0.013750078 0.043513548 0.0064519327 0.6080049
0001e0 42 a5 46 3d 34 bb ee 39 59 04 20 3e d2 67 61 be
       0.048497446 0.00045534375 0.15626658 -0.2201226
0001f0 a4 27 d1 be ab 72 6b 3e c7 69 23 bd dd 0e 79 be
       -0.40850556 0.22992961 -0.0398958 -0.24322076
000200 df 3a 30 bd ac f1 e7 3e 5a 1c 5f be 89 bc 11 3e
       -0.043024894 0.45301569 -0.21788159 0.14232077
000210 15 6a 01 be ce c1 58 be 1c 7e 4d 3e e9 a5 ca bd
       -0.12638123 -0.2116768 0.20067638 -0.09894926
000220 16 f0 f8 bd db f6 98 be 58 4a 51 be 2b 0f 05 3f
       -0.12155168 -0.29875836 -0.20438516 0.5197627
000230 73 04 64 3e 0a f2 5b bc 2a 9f 31 3d e4 dc d7 3d
       0.22267322 -0.013424406 0.04336468 0.105401784
000240 5f 8e 82 bd 35 29 16 bc 46 15 09 be e0 7f c8 bd
       -0.063748114 -0.009165098 -0.13387021 -0.09790015
000250 8f 14 24 3e 85 4d 51 3e 05 d5 93 3e d9 a5 64 3d
       0.16023467 0.20439728 0.28873459 0.055822227
000260 e0 66 f1 3d b9 91 64 bd 58 bb ab 3c 2c 5a 2a 3d
       0.117872 -0.055803034 0.020963356 0.0415899
000270 7c 40 01 3e 81 ee 20 be a3 5c e5 3d a3 e2 1e bd
       0.12622255 -0.15715982 0.1119931 -0.038790356
000280 8b 54 ca bd cb f0 46 be 0b 11 b8 bc 40 6a b0 3e
       -0.098794065 -0.19427793 -0.022469064 0.34456062
000290 ba ea 6c 3e e4 1b 1e be 6c d2 99 be 07 d3 11 bf
       0.23136416 -0.15440327 -0.30043352 -0.5696263
0002a0 4f b6 e7 3e 8d 09 ff bc 73 35 c0 3d 09 c9 64 3c
       0.45256278 -0.031132484 0.09385195 0.013963946
0002b0 1c 88 cc be 03 d0 06 3e ec ff 98 be 78 5c bd be
       -0.39947593 0.13165288 -0.29882753 -0.3698461
0002c0 9f dc 84 3e 45 c6 b7 be 7b cc 1a bd d9 71 50 be
       0.2594957 -0.35893455 -0.037792664 -0.2035593
0002d0 5d e6 22 bd aa 39 60 3e 6e 4a 5c bd 9e 91 0a 3f
       -0.039770473 0.21896997 -0.05378192 0.54128444
0002e0 e2 11 03 bf 30 e2 19 bd 08 e0 69 3d c0 22 f7 bd
       -0.5119916 -0.037569225 0.05709842 -0.12067175
0002f0 9d 71 00 bd 3c 72 36 3e 8a 5a 4b 3f b0 f8 d1 bb
       -0.03135835 0.17817014 0.79435027 -0.0064078197
000300 a6 ce e1 bd a7 42 0a 3e 31 0c 2d 3c e5 3f b8 3e
       -0.11025743 0.13501988 0.010561989 0.35986248
000310 b7 bc 54 3e 1c 74 a8 3e 81 7d 4b bd fa 0e a5 3d
       0.20775114 0.32901084 -0.049680237 0.08059497
000320 23 23 ae bc 6c ac a9 3d a2 d9 cb be f7 77 dd 3c
       -0.021256989 0.0828484 -0.39814478 0.027034743
000330 b9 9e c4 3e d0 49 c3 be 61 0b e5 be c8 b5 1a bf
       0.38402346 -0.38142252 -0.44735244 -0.60433626
000340 13 55 93 3e 19 40 26 be 16 f1 13 be 91 24 19 be
       0.28775844 -0.16235389 -0.14447436 -0.14955355
000350 e4 c9 51 bc d0 4a 58 bb d6 a3 d0 bd e3 e0 10 bf
       -0.012804482 -0.0033003576 -0.10187499 -0.5659315
000360 bf 34 0d 3e 90 80 bc bd 38 79 6f be 6a ad b8 3d
       0.13789652 -0.09204209 -0.23386085 0.09017451
000370 32 f8 38 3d f1 ac 80 3e 1b c5 20 3e 0c b5 21 3e
       0.045158572 0.25131944 0.1570019 0.1579172
000380 ef 30 aa be 2b 1f 3f bd ee c2 4b be 5b 25 00 3e
       -0.33240458 -0.046660583 -0.19898579 0.1251425
000390 7a 0b 30 be ad 7c fc bd 9e d5 aa 3e 57 4a 31 bf
       -0.17191878 -0.123284675 0.33366102 -0.6925406
0003a0 23 b8 d6 bc e9 ab dd bd 4d b4 c0 bd 34 32 96 3e
       -0.02621085 -0.10823805 -0.0940939 0.29335177
0003b0 60 9c 49 be 67 a8 64 3e d1 e3 39 bc 0c 1e 12 3e
       -0.19688559 0.22329865 -0.01134582 0.14269274
0003c0 2b 52 cf 3a c8 0e 01 be 4c 09 2e 3e 6b 1b 00 bf
       0.0015817335 -0.12603295 0.16995734 -0.50041837
0003d0 94 9e 5b be f8 7d a3 bd e1 bb 9d be 49 41 0e 3f
       -0.21447212 -0.07983011 -0.30807403 0.5556837
0003e0 76 47 bd be 91 c6 b3 be 5e b4 82 bd 67 c2 3f 3e
       -0.36968583 -0.35112432 -0.063820586 0.18726502
0003f0 a7 1c 34 3c 07 ff bd 3e 02 8c 27 be 28 1f c4 3e
       0.010993159 0.37108633 -0.16362002 0.3830502

lstm.bias_ih_l0 f4 [392]
000000 5a 2d 48 bc b6 89 cc bd c5 17 a3 be cd 91 4f 3e
       -0.012217844 -0.09987204 -0.31854072 0.20270462
000010 80 ef ce be b9 10 aa bd 76 75 cb bd c1 e7 01 bf
       -0.404171 -0.08303971 -0.09934513 -0.50744253
000020 0b 0e 04 be de 46 08 3f 0f 18 85 be fd bb 28 be
       -0.12895982 0.53233135 -0.25994918 -0.16477962
000030 e0 e1 86 3c 19 3d 3d bd 14 16 f9 be e3 72 e6 bd
       0.016465127 -0.046200845 -0.48649657 -0.11252382
000040 9d ba 94 be c4 d2 37 be a0 0d 21 be 42 20 19 bf
       -0.29048625 -0.17951494 -0.15727854 -0.59814847
000050 f7 30 ab be 78 2e 18 be f0 ea cd be 0a eb 82 be
       -0.33435795 -0.14861476 -0.40218306 -0.25569946
000060 8e 2b cf bd c3 3e fc 3b 35 fc 56 be 8b 96 92 be
       -0.10115729 0.0076979115 -0.20994647 -0.2863048
000070 0a 2b 51 be 21 5d b1 be 05 8f 20 be 4d de dc bd
       -0.20426574 -0.34641364 -0.15679558 -0.10784588
000080 58 90 99 3e 85 c4 6c bd 95 52 1f bf 37 98 56 be
       0.29992938 -0.057804603 -0.62235385 -0.20956503
000090 82 10 5e be a6 6a 3a 3e aa 93 23 be 7e 51 4d be
       -0.21685985 0.18204746 -0.15974298 -0.20050618
0000a0 c3 9d 4d bd ea cd 13 bf dc f3 b0 be b5 64 0d 3e
       -0.05019928 -0.57736075 -0.3456105 0.13807948
0000b0 8e 75 11 be c5 c2 1d 3e ee 29 33 be b1 36 c1 be
       -0.14205 0.1540633 -0.17496464 -0.3773704
0000c0 e0 0c 7b be 25 20 a9 bd 34 8b 42 be fb eb 37 be
       -0.2451663 -0.08258084 -0.18998414 -0.17961113
0000d0 63 74 5a be 18 b2 34 be 85 68 d7 bd 4f 01 8a be
       -0.2133346 -0.17646062 -0.105179824 -0.26954123
0000e0 cb 4d 94 be 99 c8 83 be 41 52 a8 be 99 af 84 bd
       -0.289656 -0.2573898 -0.32875255 -0.06478805
0000f0 9c b8 a3 3c 2c 3f 96 be 4c 4a 90 bd 94 e0 e8 be
       0.01998549 -0.2934507 -0.07045421 -0.4548384
000100 01 4f 93 bd ea 3d 12 bf 23 0b 7a be 17 99 f7 3d
       -0.07192803 -0.57125723 -0.24418311 0.120897464
000110 d2 8d e0 bd 5e 21 3c 3e 8d bd 77 bd ad e8 72 be
       -0.1096455 0.18372104 -0.060483504 -0.23721571
000120 6e ee c7 bd c4 09 14 bd 65 d0 b0 3d 19 a7 09 3d
       -0.09762274 -0.036142126 0.08633498 0.033606622
000130 9e 5b a6 3e 33 54 1d be 22 16 8d bd 58 ac e7 be
       0.32491773 -0.1536415 -0.06888987 -0.45248675
000140 dc 9a af be 6d 2d a8 bd 6f 29 18 be 50 7c e2 be
       -0.34297836 -0.08211789 -0.14859556 -0.44235468
000150 2f 85 31 bd b2 4c 48 3d 9a 18 a1 bc 6c 3a c4 be
       -0.043339904 0.048901267 -0.019665051 -0.38325822
000160 5f db d5 be 8d 29 de 3c 2d 68 98 be ba 10 31 bd
       -0.4176893 0.027119422 -0.2976698 -0.043228842
000170 0f 97 91 3d e8 3d b4 be e5 35 8e be 7e 85 f2 bd
       0.0710889 -0.3520348 -0.27775493 -0.11841868
000180 b4 50 3a be 0b a7 8e be ab 4a 9a 3e 3a 19 9c 3d
       -0.18194848 -0.2786182 0.30135092 0.07621999
000190 52 bb 21 3c 44 76 b9 3e 57 b5 b8 3e 86 1c a3 3d
       0.009871321 0.36223042 0.3607585 0.07964425
0001a0 6f 89 84 3d 6d d8 3d be 74 af ac 3c 5a 5c f1 be
       0.06471526 -0.18539591 0.021079756 -0.4714077
0001b0 ff 8e ef 3d 56 3c 10 3e ab 45 37 be ff b8 ca 3d
       0.11697196 0.14085516 -0.1789767 0.098985665
0001c0 d9 88 69 bc e7 45 f3 3d 79 1c eb 3d e8 22 9b be
       -0.014253818 0.11878567 0.1148004 -0.3030007
0001d0 c4 25 5c 3d d9 37 0a bd 31 06 1b 3e bc 4c bb bd
       0.053746954 -0.033744667 0.1513908 -0.09145495
0001e0 4d 31 93 bc 47 d9 24 3e 33 7f e7 bd 29 6f a0 bd
       -0.017967844 0.1609851 -0.11303558 -0.07833702
0001f0 d7 63 81 3d 13 e8 c5 3e 74 a3 43 3c 85 ee cd 3d
       0.06317871 0.3865362 0.011940826 0.100552596
000200 8d 96 a0 bd 59 d6 40 3c 0d 5e 42 3e 24 42 7b 3d
       -0.07841215 0.011769854 0.1898119 0.061342373
000210 9b c1 2f 3e f9 24 30 3e 1b 15 f2 3d 2a 0a 1b 3e
       0.17163698 0.17201604 0.11820432 0.15140596
000220 7b 32 43 3d 93 01 44 3e 24 ad 51 3d c9 02 a8 3e
       0.047655564 0.19141226 0.05119051 0.32814625
000230 6e 37 a5 3e 94 6a 15 be 7f b7 22 be 0a 11 37 3e
       0.32268852 -0.14591438 -0.1589031 0.17877594
000240 8e 10 1e bd 65 a8 50 3e 33 7c 35 3e 0c 06 9b 3e
       -0.038590007 0.20376737 0.1772316 0.3027805
000250 05 a5 26 3e d2 4e 74 3e 62 f6 bd bd 42 68 d3 3e
       0.16273887 0.23858193 -0.092755094 0.4129048
000260 a0 b7 c6 bd 88 53 40 3d dc d2 af ba ff ed 36 be
       -0.097029924 0.04695466 -0.0013414281 -0.17864226
000270 21 5d 1c 3e 0f 96 fb 3e cf cd 53 3d ff 48 23 3e
       0.15269901 0.49137923 0.051709946 0.15945815
000280 9c 62 1a 3f a4 a3 80 3d 3c 4b 5c 3e ed 27 14 3e
       0.60306716 0.06281212 0.21513075 0.14468355
000290 07 da 1a 3d 1d 7d ae 3e 2d 18 c3 3d 2c 2a b4 3d
       0.037805583 0.3407983 0.095260955 0.08797106
0002a0 f4 3f d1 bc 86 49 00 3d 29 58 8b ba 0b c0 54 3e
       -0.02554319 0.031320117 -0.0010631132 0.20776384
0002b0 9a 80 f5 bd 0e 66 64 3e d5 26 20 3f db 87 08 3d
       -0.119874194 0.22304556 0.6255925 0.033332687
0002c0 fc 07 d1 bd c4 9c e0 bd 21 ef bd 3c e4 44 83 3d
       -0.10206601 -0.10967401 0.023185315 0.06409624
0002d0 18 e3 b1 3e e5 7b 0c 3e a8 a5 63 bd ae 8f 45 3e
       0.3474357 0.13719137 -0.055577904 0.1929309
0002e0 da 65 5b 3d 7e a2 51 3e 00 8d 53 3d fb 0f 80 3e
       0.05356393 0.20472142 0.05164814 0.25012192
0002f0 d3 1b c7 3e dc 5a 09 3e cf 11 e1 bd e8 ad 69 be
       0.38888416 0.13413566 -0.10989725 -0.22820246
000300 59 2b f3 3d ef df d3 bd ba 4b 00 3e bc 3f 0d 3e
       0.11873502 -0.10345446 0.12528887 0.13793844
000310 95 91 b1 3d 4a e8 64 3e 50 7c c3 bc ee e5 30 3e
       0.08670346 0.22354236 -0.023862988 0.17275211
000320 d4 86 3e be 17 c5 8c bc 18 ff 20 bd 79 29 d7 bd
       -0.1860612 -0.017183824 -0.039305776 -0.10505957
000330 25 1c b8 3d bf d9 86 3e 8e 8e 9d bd 84 a8 dd 3c
       0.08989743 0.26338002 -0.07693206 0.027057894
000340 b0 f1 a2 bd 21 a3 f9 bd f2 29 9f bd 81 04 3b be
       -0.079562545 -0.121893175 -0.07771672 -0.18263437
000350 8b 29 20 3e 04 4f 50 3e f9 32 9a 3d e2 af 11 bd
       0.15640847 0.20342642 0.075292535 -0.035568126
000360 9d db c7 bd cd 6f 9a bd b7 c9 ad bd 95 51 0c be
       -0.09758685 -0.075408556 -0.0848574 -0.13702996
000370 67 39 57 be 4a 99 2b be bb ef 18 3e f5 57 74 bd
       -0.21017991 -0.16757694 0.149352 -0.059654195
000380 de 6f 99 3d 5a 70 37 3e 1b 37 f4 3d fb 08 ca bc
       0.0749204 0.17913952 0.11924573 -0.024662485
000390 c0 95 92 3e 93 b6 c7 3d 10 84 56 3e 50 c3 7a 3d
       0.28629875 0.0975162 0.20948815 0.06122142
0003a0 4e ce 80 bb a2 7a 8b 3e ec 7d 78 3c be 41 15 3e
       -0.0039308434 0.27242 0.015166741 0.1457586
0003b0 71 9c 03 be 20 dc 9e bd 38 6f a1 bd af e7 90 3c
       -0.12852646 -0.07756829 -0.078825414 0.0176886
0003c0 25 ac a1 bd be 9e 70 3e 90 c9 14 3e 34 96 e1 3d
       -0.07894162 0.23498055 0.14530015 0.11014977
0003d0 ae 61 d5 3c 6e 32 bf bd 0c 55 1c bd aa ec 2e 3e
       0.026047554 -0.093357906 -0.038167045 0.17082468
0003e0 cd 81 6c bc 61 70 60 be 79 73 b3 bd b1 74 f5 3d
       -0.014435244 -0.21917869 -0.08762259 0.11985148
0003f0 b9 91 ee bd 4b 1d ca bc 8b 7b 5a be bd c9 b6 3d
       -0.11648888 -0.024672171 -0.2133619 0.08925197

lstm.bias_hh_l0 f4 [392]
000000 57 64 7f 3d d3 07 2e 3d 0e 9e 91 be 63 bb ba 3d
       0.06235155 0.04248793 -0.284409 0.091177724
000010 10 48 f7 be ed 60 0c bd 51 df 7e bd 5a 2f 06 bf
       -0.48297167 -0.034272123 -0.06222469 -0.52416
000020 c6 e1 88 be be 29 e2 3e b7 91 b3 bd 89 0c e7 bd
       -0.2673475 0.44172472 -0.08768027 -0.11281688
000030 7c 7d b2 bd f3 9f 4d be 05 47 a2 be d8 8d 0f be
       -0.087153405 -0.20080547 -0.3169481 -0.14018953
000040 6d 09 ed be e9 2f 97 be d6 13 1e be 9a b6 f1 be
       -0.46296254 -0.2952874 -0.15437254 -0.47209626
000050 b8 8d 8a be 24 5a 5a be a5 7e 69 be 31 e6 b2 be
       -0.27061248 -0.21323448 -0.22802217 -0.34941247
000060 d8 04 fd bd ce 01 4e 3d 04 9d 85 be 5a 05 56 be
       -0.123544395 0.05029469 -0.26096356 -0.20900479
000070 ba 77 52 be b0 60 b9 be 84 e2 63 bd ba 6b 28 3d
       -0.20553485 -0.3620658 -0.055635944 0.04111836
000080 c7 0e e8 3e dc 53 32 bc 91 5d 0f bf d9 4c 93 be
       0.45323774 -0.010884251 -0.56002146 -0.28769568
000090 ac ac 4c bd e2 01 28 3d 48 75 49 bd 4d dc 18 be
       -0.04996936 0.04101742 -0.049184114 -0.14927788
0000a0 f3 74 f2 bd 66 2a 01 bf df 20 95 be 1e aa 7a 3d
       -0.118387125 -0.5045532 -0.2912664 0.061197393
0000b0 82 e7 5f be 30 2f f0 bc 71 cf 86 be 01 87 e6 be
       -0.21865657 -0.029319376 -0.2633014 -0.45024875
0000c0 34 80 8d be ee 15 36 bd de 74 c2 bc 1c 43 57 be
       -0.27636874 -0.044454508 -0.023737367 -0.21021694
0000d0 91 28 d1 be 20 6a e5 bd c6 f5 81 bd 1c 82 b4 be
       -0.40851262 -0.11201882 -0.06345706 -0.35255516
0000e0 8d bf 88 be a9 73 81 be 00 6a 92 be c2 cc 3f be
       -0.26708642 -0.25283554 -0.28596497 -0.18730453
0000f0 d1 c7 33 3d 28 4e 91 be 0b f3 88 bd 44 db c0 be
       0.04389173 -0.2837994 -0.06686982 -0.37667286
000100 0e 11 73 be 42 ae 2c bf 50 1a 85 be bb 08 14 bd
       -0.23736975 -0.67453396 -0.25996637 -0.03614114
000110 4b 9f 14 be ef c7 58 3d e0 d0 17 be 17 fa 67 be
       -0.1451389 0.052925047 -0.14825773 -0.22653995
000120 1f a3 1f be 20 3d 63 bc b1 39 48 bc b8 b1 90 bd
       -0.1558957 -0.013869554 -0.012220786 -0.07065147
000130 66 91 98 3e f7 16 8a be 9a 01 54 bd 86 99 d5 be
       0.2979843 -0.26970646 -0.05175934 -0.41718692
000140 2d c5 94 be be fb fd bd a0 9b 2b be b1 c5 c1 be
       -0.29056683 -0.12401532 -0.16758585 -0.3784614
000150 e1 04 ce bd b2 a4 09 bd fc 9c 54 3d 42 44 6a be
       -0.10059524 -0.03360433 0.051907524 -0.22877601
000160 b6 9f da be da 6f 09 bd 07 19 be be d3 35 9f bd
       -0.42699975 -0.033553936 -0.3712847 -0.07773938
000170 b8 11 14 3e f5 d9 a6 be 17 23 84 be 09 f1 07 be
       0.14459884 -0.32588163 -0.2580802 -0.13275541
000180 fe eb 01 be 5f da 18 be 87 fa b8 3e f9 3b 26 3e
       -0.1268768 -0.14927052 0.36128637 0.16233815
000190 84 8c 85 3d 4c 9f c7 3e 33 d5 8c 3e 89 6d 03 3d
       0.06520942 0.3898872 0.27506408 0.032086883
0001a0 ae d0 10 3e 64 1d 3a be 0a 8c db 3c f5 5c cc be
       0.14142105 -0.18175274 0.026800174 -0.3991467
0001b0 f9 f5 6a 3e 14 a8 8e 3e 26 7b ac bd 72 9d 06 3e
       0.22945394 0.27862608 -0.08421926 0.13145998
0001c0 5e e8 aa bc 6d 18 9f 3d 6a 63 19 3e 15 e1 9e be
       -0.020862754 0.07768331 0.1497933 -0.310311
0001d0 fc da ec bd d7 6a d6 3a ea b5 1b 3e fe b0 c6 bd
       -0.115652055 0.0016358745 0.15206113 -0.09701727
0001e0 fd a8 26 3c ff df 86 3d eb 24 03 be e7 00 10 be
       0.010172126 0.065856926 -0.12807052 -0.14062844
0001f0 4c 7d 59 3d 58 c9 fa 3e 1e e3 a8 3d ef d0 3f 3e
       0.053098008 0.48981738 0.08246444 0.18732046
000200 8d cf 30 bd d6 3b 4b 3c 07 6f 22 3e da 95 0d 3e
       -0.043166686 0.012404403 0.15862666 0.13826695
000210 58 ed 33 3d 7b 59 1f 3e a9 83 bc 3d 69 c6 d6 3d
       0.04392752 0.15561478 0.092048 0.104870625
000220 f4 34 c7 3d 9b a9 09 3e 71 85 18 3e 11 44 9d 3e
       0.09726897 0.13443606 0.14894654 0.30715993
000230 cb ee a6 3e 75 d1 a1 bd c7 08 0a be dd 5d 51 3e
       0.3260406 -0.07901279 -0.13479911 0.20445962
000240 b3 77 18 3e 48 e9 7f 3e f7 40 8c 3e bd d2 a7 3e
       0.14889412 0.24991333 0.27393314 0.32777968
000250 1f 95 52 3e 99 2c 4d 3e 3f d6 1c bd e7 2b 06 3f
       0.20564698 0.20036544 -0.03829026 0.5241074
000260 5c 7c c5 bd dc 22 46 bd e9 37 d8 bd a9 53 25 be
       -0.0964286 -0.04837309 -0.10557539 -0.16145195
000270 cb 44 75 3e c3 11 04 3f 73 82 26 3e 3d 8e 13 3e
       0.23952024 0.515896 0.162607 0.14409728
000280 f9 68 20 3f d4 00 94 3d e3 07 00 3e d5 f9 5e 3e
       0.62660176 0.072267205 0.12503009 0.21774991
000290 59 5f 0f bc b8 27 98 3e 63 b7 3b 3e 61 2b c8 3c
       -0.00875076 0.29717803 0.18331675 0.024434747
0002a0 14 ec 1a bd d5 e6 e0 3d 09 5a 42 3c c1 e8 3d 3e
       -0.037822798 0.10981528 0.011862286 0.1854582
0002b0 22 18 39 be 67 c4 88 3e 2f d9 22 3f 89 5a d2 3d
       -0.18075612 0.26712343 0.63612646 0.102711745
0002c0 6d 54 54 be 92 bc 6d bd 72 41 8f 3b b0 f6 34 3e
       -0.20735331 -0.058041163 0.0043718154 0.17672229
0002d0 5c 4d b5 3e f5 49 5e 3e be 30 c6 bd 7c 7f 6c 3e
       0.35410583 0.217079 -0.096772656 0.23095506
0002e0 36 c1 94 3c 66 57 a1 3e 23 fd 00 3c f8 b8 d0 3e
       0.018158536 0.31511992 0.0078728525 0.4076612
0002f0 d0 25 8b 3e 5a 86 19 3e 60 6d 9a bc 28 49 0c be
       0.27177286 0.14992657 -0.018850982 -0.13699782
000300 39 07 82 3d e2 ed 5d 3d 79 09 d0 3d d3 e7 af 3d
       0.06349034 0.05418194 0.10158057 0.08589139
000310 b8 2d 6e 3e a7 02 84 3d 3b d7 fc bd 0d d8 01 3e
       0.23259628 0.064458184 -0.123457395 0.12680073
000320 ed 3c 35 be c8 28 8e 3d 4f 17 ad 3c 4f 67 6d 3a
       -0.17699023 0.06941372 0.021129278 0.00090562267
000330 8f 03 f6 3d 1d af a1 3e 4b 40 09 3d ee 49 ff 3d
       0.120123975 0.31578913 0.03350858 0.12465273
000340 05 17 45 bd 77 91 b3 bc 9d c2 bf bc 24 db 1f be
       -0.048117656 -0.021919949 -0.023408229 -0.1561094
000350 de 50 16 3e 6c 99 8e 3e 73 0d 47 3e e8 c7 8c bd
       0.14679286 0.27851427 0.19438724 -0.068740666
000360 83 f3 34 3c cf 84 a9 bd cd 81 c4 ba 0a f7 8b be
       0.011044386 -0.08277284 -0.0014992297 -0.27336913
000370 a3 f2 d2 bd 52 26 30 be ad 2d 9c 3c be 76 93 bd
       -0.103001855 -0.17202118 0.019064749 -0.07200383
000380 99 84 04 3e ef c8 95 3c 9b 05 ec 3d 16 50 fe bc
       0.12941207 0.01828429 0.11524507 -0.031044047
000390 d2 a5 1d 3e 1d f2 8f bc 9f e7 5e 3d 6e d3 d2 3d
       0.15395287 -0.017571503 0.05442011 0.10294233
0003a0 20 f1 76 3c c0 a9 8a 3e 63 8a 7a 3c 0d 14 ca 3c
       0.015072137 0.27082634 0.015291783 0.024667764
0003b0 f4 04 7d be 47 a9 3c be 56 46 11 be 58 dc 20 be
       -0.2470892 -0.18423949 -0.14186987 -0.15709054
0003c0 92 6a d9 bc 76 b8 a8 3e 6a 94 be 3d e2 c1 fc 3d
       -0.026540074 0.32953233 0.093056515 0.12341668
0003d0 fa bb f9 bc 73 ce 10 be 9a 30 88 bd 01 1b 00 3e
       -0.030485142 -0.14141254 -0.06649895 0.12510301
0003e0 11 e4 76 3d 5e f2 24 be 67 60 2f be 23 61 ce 3d
       0.060276095 -0.1610808 -0.17126618 0.10077121
0003f0 6f 1e 11 be 8e 3a 01 be af 54 67 be 4e 87 17 3d
       -0.14171766 -0.12619993 -0.22590898 0.03699427

fc1.weight f4 [9, 98]
000000 02 45 da 3e 33 e7 47 3d 77 5d 64 3f 7a 85 ca 3d
       0.42630774 0.048804473 0.89205116 0.0988874
000010 8a 62 89 bc 05 62 c2 bd 1c e8 cb bd dc 80 ba bf
       -0.01677062 -0.09491352 -0.09956381 -1.4570575
000020 9c f2 fa 3c 66 7d e1 be b2 51 0e be 43 a0 51 3e
       0.030633263 -0.44040984 -0.13898352 0.20471291
000030 0b 5b 0c ba ad a7 4b bd 6c 97 48 be e5 d9 8a bf
       -0.00053541426 -0.049720455 -0.19589013 -1.0847746
000040 88 14 49 3f a9 63 27 3f f3 d4 af be 8b bf 56 be
       0.78546953 0.65386444 -0.34342155 -0.20971505
000050 92 ff a1 3d 0b 5a f3 bd f9 91 9c be c5 32 f8 3e
       0.07910074 -0.11882409 -0.30580118 0.48476234
000060 fe ea bf bd 47 ca 14 bf a8 37 5f 3e 35 5c 16 3e
       -0.09370993 -0.5812115 0.21798575 0.14683612
000070 98 67 d5 bd 73 59 c2 3e b8 af 55 bf dd 51 cb 3d
       -0.104201496 0.3795887 -0.8347125 0.099277236
000080 19 da a9 be de b5 ce be 1c d8 50 3e a9 72 41 3e
       -0.33174208 -0.4037313 0.20394939 0.18891396
000090 0b 65 a8 3e 0a 18 0f 3f b5 44 1d 3c b3 fe 5a 3d
       0.3288959 0.55896056 0.009598901 0.053465556
0000a0 50 51 98 3d 83 ce f2 bd f9 9c d7 be 8e 2d 2b 3d
       0.07437384 -0.11855795 -0.42111948 0.04179149
0000b0 d6 99 e8 3e 05 cd ae 3e 6d b5 01 bf e3 23 4e 3f
       0.45429868 0.34140792 -0.5066746 0.8052351
0000c0 f5 11 3d be 9d 02 ab 3d 10 3a 4d bf 84 f9 f6 bd
       -0.18463881 0.08350108 -0.8016672 -0.1205931
0000d0 2f dd 05 be 67 53 8b 3c 18 3d 37 be 23 dd 56 be
       -0.13072656 0.017007543 -0.17894399 -0.20982794
0000e0 7a 2e 01 3d b0 19 90 3d b3 c3 3a bf 01 b5 0d 3e
       0.031538464 0.070361495 -0.72954863 0.13838579
0000f0 51 7c 33 be 6a 20 1c 3f 31 7b a4 bc 1e 9f 86 be
       -0.17527892 0.6098696 -0.020078273 -0.26293272
000100 ee 00 58 3e 14 c9 92 be b5 b1 47 bd 9f eb 66 be
       0.21094105 -0.28669035 -0.04875346 -0.2255082
000110 c8 d5 04 bf 41 5d ce be 96 8c 0e 3e d8 b8 72 bf
       -0.51888704 -0.40305522 0.13920817 -0.948133
000120 0c 18 c0 3f 86 83 7c 3d aa 54 01 3f 59 23 2c be
       1.5007339 0.061648868 0.5051981 -0.16810359
000130 a7 63 29 be 1e fc 13 3f ec 1d 57 be 21 51 5a be
       -0.1654192 0.57806575 -0.21007508 -0.2132001
000140 55 37 19 3f f7 99 44 3e 9f 13 bf 3d 5c 69 18 bd
       0.59850055 0.19199358 0.09329914 -0.037209854
000150 22 f9 e6 be e3 c9 36 3e ec 6b eb be 20 a6 92 be
       -0.45111948 0.17850451 -0.45980775 -0.28642368
000160 dc 74 62 3f 0b 86 ef be 02 c8 81 bf 26 04 25 bc
       0.88459563 -0.46781954 -1.0139163 -0.01007179
000170 88 24 dd bd 04 e3 ea 3d fc 20 d2 be 2f 70 b8 3e
       -0.107979834 0.11469081 -0.4104079 0.3602309
000180 f8 4a 9f be 28 c8 2e bf e0 af 13 3e 08 e8 5b bd
       -0.31111884 -0.68274164 0.1442256 -0.05368808
000190 7e a7 42 be 5c bc 1d 3e e2 1a d7 be d9 17 e5 3e
       -0.19009206 0.15403885 -0.42012697 0.44744757
0001a0 b2 ba 9a 3e ec 0b c4 3d 2d cc 16 be 6d de 11 be
       0.30220562 0.095725864 -0.14726324 -0.14245005
0001b0 69 1b 5e bf 5b 39 92 be 4f 46 73 be 0e b1 04 3e
       -0.86760575 -0.28559384 -0.2375729 0.12958166
0001c0 86 c0 83 3e 59 4c c6 3e 9e 3c 85 3d 1e ea ba 3e
       0.2573282 0.38730124 0.065057024 0.36506742
0001d0 ec e0 aa be 41 ce 2a 3f b4 bc 01 3f fd 0c 1b 3f
       -0.33374727 0.6672097 0.50678563 0.60566694
0001e0 0b 5c 0d 3f 01 bd d3 be 6b ba e1 3c 48 26 84 3e
       0.5521857 -0.41355136 0.027554711 0.25810456
0001f0 dc a0 a2 3c 2b 84 01 3f ec 4f f5 3e d6 f4 43 be
       0.019852094 0.505923 0.47912538 -0.19136366
000200 11 3c 0c bf f9 02 c9 3e e6 f4 79 3e f0 70 b7 be
       -0.54779154 0.3926008 0.24409828 -0.35828352
000210 71 81 96 3d 66 77 37 3f 61 f9 ca bc 26 06 96 be
       0.07348908 0.7166656 -0.024777116 -0.29301566
000220 c6 78 82 3e 7d 74 c7 3e 77 3a a8 bd 0f c8 28 bc
       0.25482768 0.3895606 -0.08214276 -0.010301604
000230 2d 82 7d 3e 69 41 83 be d2 61 ea be b6 4d 5e 3f
       0.2475669 -0.2563584 -0.45777756 0.8683733
000240 8b bd c6 bd 24 ce 7b 3f 21 32 89 be 3c 35 ce 3e
       -0.09704121 0.9836142 -0.26796058 0.4027499
000250 c0 57 77 bd 1e 72 e3 be 76 ce 38 be cc d1 24 3f
       -0.06038642 -0.44423002 -0.18047509 0.64382625
000260 4f e9 03 3e 9d 4e 93 bd d3 b6 ee bd f8 38 18 3f
       0.12881969 -0.07192729 -0.11655965 0.5946193
000270 90 96 06 bf e8 41 e1 be c0 14 78 be 43 2e a8 bf
       -0.5257349 -0.43995595 -0.24226665 -1.3139118
000280 eb 7d 87 be 7b 14 0d bf 15 6c 75 3d b7 61 ad 3e
       -0.26463255 -0.55109376 0.05991753 0.33863613
000290 5c 13 06 be 56 96 a9 be f9 02 a9 3d 74 70 ca 3d
       -0.13093323 -0.3312251 0.0825252 0.0988473
0002a0 ed 3c 0c 3f 1d b4 43 3f 40 a0 b1 3e 51 11 63 bf
       0.54780465 0.76446706 0.34692574 -0.886983
0002b0 f1 9c 50 3f a8 b9 dc bd fb 89 2b 3e b6 b4 c7 3d
       0.81489474 -0.107775986 0.16751854 0.09751265
0002c0 52 55 ae 3d 36 86 43 3f 62 d5 86 bf f2 be 42 be
       0.08512367 0.76376665 -1.0533869 -0.19018152
0002d0 00 2d c2 be c1 7f ff be 97 41 5f bf c6 fb 27 be
       -0.37924957 -0.49902156 -0.8720946 -0.16404638
0002e0 1c 86 bb 3e c9 cf cd 3d 8f 3b 3e 3f ec 43 1a 3c
       0.36625755 0.100493975 0.7430963 0.009415608
0002f0 0a 31 1b bf d9 0c 81 be 34 46 dd bd ce fe c8 3e
       -0.606217 -0.25205114 -0.10804406 0.392569
000300 61 07 73 bf 1d d7 a8 3d f0 a6 d0 bd 49 1c e3 be
       -0.94933134 0.082441546 -0.10188091 -0.44357517
000310 ab b6 4e 3d c1 6a ae 3e 27 24 1b bf 56 a4 15 3e
       0.050467175 0.34065822 -0.6060204 0.1461347
000320 3a 10 d2 3e c8 74 d5 bc 8e 71 da bd bb 27 55 bf
       0.41028005 -0.026056662 -0.1066619 -0.8326375
000330 7e 52 72 3e 51 b3 bf be c8 ef 4b 3f 9f 2d 02 be
       0.23664281 -0.37441495 0.7966275 -0.12712716
000340 fa bd ac 3e 6d 59 eb bd 1f 82 e1 be 20 e6 c1 3d
       0.3373869 -0.11491666 -0.44044587 0.09467721
000350 e5 7b 17 be 8c 90 df bd 71 ad 34 be 04 03 03 bf
       -0.14793356 -0.10916242 -0.17644288 -0.51176476
000360 49 c5 0a be 17 94 42 3f 6d c9 06 bf 94 6f 34 3f
       -0.13551821 0.7600722 -0.526511 0.70482755
000370 6d 6e 63 3e fb 03 b7 3f 45 ba e1 be d4 25 d9 3d
       0.22210093 1.429809 -0.44087425 0.10602918
000380 a7 ec 50 bf 05 64 57 bf ec be a3 be d8 ae d0 3e
       -0.816111 -0.8413699 -0.319816 0.40758395
000390 b1 db 4e 3c 28 f8 16 be 95 a8 cc 3e 4c f6 24 be
       0.012625621 -0.14743102 0.39972368 -0.1610958
0003a0 0f a4 20 bf e9 a1 8e 3e a7 47 0a bd 27 92 20 3d
       -0.62750334 0.27857903 -0.03375974 0.03920188
0003b0 77 90 9e bd 27 fc b5 bf 82 4b b4 3d fb e2 20 3f
       -0.07742398 -1.4217576 0.088034645 0.62846345
0003c0 f1 7d 2a bf ee d6 60 3e c4 de 01 3f de b8 7a bf
       -0.6659842 0.21956989 0.5073054 -0.97938335
0003d0 6b e2 73 3f 47 18 28 be 36 50 b1 3e c7 9d 21 3d
       0.9526736 -0.16415511 0.3463151 0.03945711
0003e0 b7 e2 fc 3e b8 40 e3 3d 75 ab c9 be 1c 7a 82 be
       0.4939172 0.110963285 -0.39388624 -0.25483787
0003f0 68 6c ae be 0c d1 24 be f6 1d 72 bb c4 ff 09 bf
       -0.34067082 -0.1609537 -0.0036944128 -0.5390589

fc1.bias f4 [9]
000000 e4 56 3d bd e3 5b b2 bc bd ef 58 3d 1f a5 54 3d
       -0.046225443 -0.02177233 0.052963007 0.051915284
000010 5f c8 30 bd 1e a7 74 3e 3e 0e 95 bd 12 97 a5 bd
       -0.04315984 0.23891875 -0.07278107 -0.08085455
000020 95 9a 9d 3d
       0.076955

exp_avg f4 [392, 1]
000000 6f a1 7d bb 07 7a 97 ba 80 00 35 bb 06 67 67 bc
       -0.0038700958 -0.0011556753 -0.0027618706 -0.014123684
000010 dc 3e a8 bb 99 92 8a bc 94 cc 64 3b 7b c9 0a 3b
       -0.0051344465 -0.016915606 0.0034911977 0.002117722
000020 18 c4 ea ba 1e b9 b2 bb 9d 68 8e bb 8d 10 a5 ba
       -0.0017911224 -0.0054541966 -0.004345967 -0.0012593433
000030 b8 65 34 3c 39 a1 1d bc 37 35 ae 3a 9d 66 77 bc
       0.01101058 -0.009620958 0.0013291006 -0.0151001485
000040 0b 52 a7 3c 87 f6 b4 bc 07 00 ce 3b 4d c6 9f 3a
       0.020424863 -0.02209021 0.0062866244 0.0012189836
000050 2c 68 d9 3b 50 27 b9 3b bd 34 9f 39 bf 85 8e 3c
       0.0066347327 0.0056504384 0.00030366136 0.01739776
000060 e4 ad 84 bb 8a 29 b6 bb 6d e9 05 bb 19 37 1e 3c
       -0.0040490497 -0.005559151 -0.0020433322 0.009656691
000070 68 cd 9d 3b 74 95 2c 3b 7b 06 25 bb 64 f8 a7 bb
       0.004815746 0.0026334198 -0.0025180865 -0.005126046
000080 7d 82 d9 b9 31 4d 94 3b d5 65 d9 3b 09 95 58 3a
       -0.00041486687 0.0045258035 0.006634454 0.0008261954
000090 f3 de 0a 3a e9 e1 84 3c cd 02 4c 3c 90 e8 f2 ba
       0.0005297504 0.016221004 0.01245184 -0.0018532444
0000a0 c3 a5 b1 b9 7f d1 6e bb e5 fa 10 3c 9b 38 12 bc
       -0.00033883573 -0.0036440787 0.00884888 -0.008924629
0000b0 84 8d 0b 3b 74 eb 0e bc da 06 80 3a ce b6 bf bd
       0.0021294067 -0.008723129 0.0009767667 -0.09361039
0000c0 11 70 a4 ba 62 a0 f0 3b 55 1b 39 3b ad f8 47 bc
       -0.0012545605 0.007343338 0.002824505 -0.012205285
0000d0 34 72 e2 ba 02 d2 27 bc 4f 38 78 3a 8f 34 b1 3b
       -0.0017276467 -0.010242941 0.000946884 0.005407877
0000e0 61 d7 db 3c c5 44 ca ba 6e 28 ff bc 76 c7 84 3d
       0.0268361 -0.0015431872 -0.031147208 0.06483357
0000f0 b9 b2 ca ba 7f e2 7b 3a 3e 93 31 bb ff c3 89 b9
       -0.001546464 0.00096086407 -0.002709582 -0.00026276705
000100 3b 0b 33 b8 c5 87 29 3c 90 49 fa ba 4e f7 f0 bc
       -4.2687385e-05 0.010347311 -0.001909541 -0.029414799
000110 72 7c 90 bb 99 95 97 bb fe be 8e 3a 6c 88 ca 3b
       -0.0044093663 -0.0046259877 0.001089066 0.0061808135
000120 25 3f f4 3a e7 ad 21 bb 89 d4 c7 b9 b5 b4 00 3a
       0.0018634541 -0.0024670304 -0.0003811459 0.000490974
000130 83 d1 03 bb c5 bc 92 39 c5 46 b4 3b 2e 41 b2 ba
       -0.0020113892 0.00027987934 0.0055016004 -0.0013599747
000140 5d b0 64 ba c9 61 78 bb 8b b2 33 bb 7e 81 0c 3b
       -0.000872379 -0.0037900081 -0.0027419652 0.0021439488
000150 d3 bc 43 3c 54 01 73 b9 6f 0b ce 3b f6 80 e2 3c
       0.011946875 -0.0002317478 0.006287984 0.027649384
000160 5b 8b 80 3b 87 41 48 3c 4b 9c e7 3c d2 a1 ce 3a
       0.0039228625 0.012222654 0.028272768 0.0015764779
000170 cb 4f e8 3a 35 4d 80 bb 4d 3f 8f 3b 8b b8 46 3c
       0.0017723975 -0.003915454 0.0043715597 0.012128959
000180 80 f7 ae 3b 55 5a b4 bc dd 88 85 bb 40 1b 95 39
       0.005339563 -0.02201573 -0.0040751533 0.00028439797
000190 42 4d a7 b9 ad 00 4d ba d3 03 a6 b9 5f f0 68 3b
       -0.00031910284 -0.000782023 -0.00031664837 0.0035543663
0001a0 31 e4 06 3b c6 a8 b3 ba a3 99 62 bb 67 21 3d bb
       0.002058279 -0.0013706915 -0.0034576438 -0.002885902
0001b0 db 0a be 3a 9d d1 3c 3b 40 8d f1 38 d7 de 6f b9
       0.0014499085 0.0028811463 0.000115180854 -0.0002287583
0001c0 95 82 db 3b 89 71 29 bc 72 20 01 3c 41 c0 ce bb
       0.006698916 -0.01034201 0.007881271 -0.0063095395
0001d0 90 0b 6d 3a d0 0e 39 b9 16 8e 96 3b 6a ba e3 3a
       0.00090425555 -0.00017648493 0.0045945747 0.0017374281
0001e0 31 29 19 ba 9d cb dd ba ea af a2 ba 15 79 88 ba
       -0.0005842625 -0.0016921643 -0.0012412046 -0.0010412062
0001f0 02 8b 66 3b bf 2b 4c 3c f6 e7 99 ba ec 12 86 3b
       0.003517807 0.012461602 -0.0011742103 0.004091611
000200 ef 0a 0e 3c 47 e8 0d bb 2e 7e ad ba 4d 71 81 3a
       0.008669599 -0.002165334 -0.0013236457 0.0009875685
000210 d6 22 7b 3b b3 40 21 3a 75 4c 2f 3b 0e 6b 94 3b
       0.0038320324 0.00061513035 0.0026748453 0.0045293635
000220 6d c2 eb 3b 1d dd 77 bb 7d 5f 51 b7 b1 7a 64 3b
       0.007194808 -0.0037821003 -1.2479603e-05 0.003486317
000230 3e c1 11 3b e2 c8 4d ba f7 06 dc 3b b4 7d 18 bc
       0.0022240425 -0.0007850063 0.0067146975 -0.009307314
000240 b4 47 22 3a af 5a 1f 3d 81 f8 ca b9 11 87 0a 3c
       0.0006190494 0.038904842 -0.00038713592 0.008455054
000250 8b 7d 19 3c c7 5a 31 ba bd 0d 36 bb bc ed 4f bb
       0.009368311 -0.0006765541 -0.0027779185 -0.0031727394
000260 3d e7 13 3a b9 63 91 ba 4d b0 b3 39 aa c3 f9 b7
       0.0005642062 -0.0011092342 0.00034272895 -2.9774226e-05
000270 6f 86 8d bb d2 db 7c 3c 04 e4 57 ba 7c c1 9b 3b
       -0.0043190042 0.015433269 -0.0008235576 0.0047532897
000280 4d cc 98 39 5b 3c 02 b8 88 3c 82 3a 15 6b 13 3c
       0.00029143915 -3.1050626e-05 0.0009936253 0.008997698
000290 ad 49 01 ba 73 fb 82 bc 30 c4 6b ba cd 8d 99 bb
       -0.0004931938 -0.015989041 -0.0008993773 -0.0046860934
0002a0 48 b2 68 bb 31 89 0c 3c 15 22 e7 38 91 6a 87 3a
       -0.0035506655 0.008577631 0.000110212866 0.0010331442
0002b0 ab b7 95 3b 01 94 7f bb 4d fe 3f 3a 4b fd 13 39
       0.004569014 -0.003899813 0.00073239655 0.00014113371
0002c0 b4 20 a5 3b 14 32 78 bb f1 62 0f bc e2 a4 05 3c
       0.005039299 -0.0037871646 -0.008751617 0.008156987
0002d0 e8 7c f1 3a 63 5b 2a bc c1 e0 cc 3a f3 29 8f 3a
       0.0018424066 -0.010397765 0.0015630947 0.0010922536
0002e0 d1 39 f9 ba 2c be 42 bc 2a 92 91 3a 8a 5e 95 bb
       -0.0019014423 -0.011886161 0.0011106182 -0.004558389
0002f0 f3 ca f7 bc d4 96 51 3a ac d6 1c 3b 04 f7 08 bb
       -0.03024814 0.00079951924 0.0023931665 -0.0020899186
000300 92 0e d7 b7 09 17 f5 3b ec 29 99 ba 9f a6 3c bc
       -2.5636782e-05 0.0074795526 -0.0011685467 -0.011514335
000310 4b 0b 9f bb e2 a3 11 bc 6a 49 24 3c 74 1d 5f bd
       -0.004853641 -0.00888917 0.010027269 -0.054471448
000320 71 28 f4 3c e3 50 46 bd d4 41 7a 3c 32 2d c2 3b
       0.02980444 -0.048416983 0.015274484 0.005925798
000330 0a 1e 23 bc 09 c8 9c 3a 2a a6 ae bb 18 37 63 3b
       -0.009955892 0.0011961471 -0.005329867 0.003467029
000340 01 c9 89 bc 09 5a 15 3d 07 0c 89 3d 80 50 e9 3b
       -0.016819479 0.036462817 0.06691747 0.007120192
000350 97 97 2a bd f8 f6 9f bd 3b 11 d9 bc 3e ee 59 3d
       -0.041648474 -0.078107774 -0.026497474 0.05320572
000360 f4 20 4d 3c 23 49 e8 3c 17 90 1c bc 36 b7 e2 3c
       0.012520064 0.028355187 -0.009555838 0.027675252
000370 49 9f aa 3c 70 0c c5 3c d4 94 46 bc 3d 8e a5 bc
       0.020827906 0.024053782 -0.012120444 -0.020209426
000380 89 47 17 3c a0 85 c5 bc 27 fa b0 bc db d4 19 3b
       0.009233364 -0.024111569 -0.021603657 0.002347282
000390 8a f5 89 bc a5 23 24 bc be 26 47 bd 96 a6 cd 3b
       -0.016840715 -0.010018264 -0.04862093 0.006275962
0003a0 fb 89 9d bb cc 15 91 3d 39 f0 a3 ba 72 07 36 bb
       -0.0048077083 0.070842355 -0.0012507505 -0.0027775434
0003b0 e2 61 04 3c c5 fb 83 bc e5 62 14 3c 56 c6 ec bc
       0.008079978 -0.016111264 0.009056781 -0.028903168
0003c0 60 37 7b 3d 33 b1 f6 ba 35 5d 63 3c 67 86 1f be
       0.061332107 -0.001882112 0.013877203 -0.15578614
0003d0 45 6d 39 bb 9d fb de 3b df 3a 24 3d ba 98 82 39
       -0.002829389 0.006804897 0.040095206 0.00024909322
0003e0 30 43 9d bb 16 f4 0d 3c 18 75 71 b9 2f 02 2f bc
       -0.004799269 0.008664152 -0.00023027172 -0.010681673
0003f0 1c 73 ef 3c eb ac bb 3a db 2b 10 bc f3 0f 04 bc
       0.029229693 0.0014318501 -0.008799518 -0.008060443

exp_avg_sq f4 [392, 1]
000000 cf 67 dd 38 05 98 67 39 c5 35 58 39 43 e2 c8 3a
       0.00010557437 0.00022086508 0.00020619396 0.001532622
000010 95 ee bb 3b c6 d1 10 3b 1f 0c ac 39 cf 58 63 3a
       0.0057352283 0.002209769 0.00032815427 0.00086725963
000020 1c 61 15 39 aa df c4 39 11 76 eb 39 da 8d ea 39
       0.00014245923 0.00037550676 0.0004491066 0.00044737646
000030 75 34 df 3a 53 a6 51 3a 39 a7 2e 3b d9 43 a7 3a
       0.0017029183 0.00079975015 0.0026649965 0.0012761309
000040 cb 8f ca 3b 65 2b 73 3b 3d f1 84 39 23 ba 02 39
       0.0061816922 0.0037104723 0.00025356738 0.00012467107
000050 45 0a e5 39 cb 9c 88 3a 5b 25 bc 39 9c 9d 00 3b
       0.00043685935 0.0010422705 0.00035885986 0.0019625193
000060 c9 29 cd 39 50 3c 53 3a 10 df 1a 3a 4e fa 7c 3b
       0.0003913178 0.00080579985 0.00059078727 0.0038601342
000070 bc 9d 16 3a ef 99 27 3a d8 72 06 3a 84 d6 40 3a
       0.000574555 0.00063934823 0.00051288074 0.0007356184
000080 c3 22 cd 38 66 c7 86 39 3f fe 8d 3a bf aa 92 3a
       9.7816366e-05 0.00025707035 0.0010833218 0.0011189802
000090 4f ef ff 38 17 f0 85 3a 54 1b 30 3a 89 56 4e 3a
       0.00012203922 0.0010218647 0.00067179394 0.0007871171
0000a0 e0 4d 5f 39 41 3b 3f 3d 13 2b 47 3a f5 17 83 39
       0.00021295948 0.04668737 0.0007597666 0.00025004116
0000b0 df bb 44 39 77 5b 86 3a 98 bf 25 39 ad 07 fa 3c
       0.00018762004 0.0010250647 0.00015807 0.030521238
0000c0 84 17 06 39 b6 df c7 3a 9f 5b 53 39 f5 44 80 3a
       0.00012787996 0.0015249166 0.0002015666 0.0009786176
0000d0 7d 5c 7d 39 b9 f1 9d 3a 09 96 87 38 6f ae 92 3a
       0.00024162415 0.0012050188 6.465248e-05 0.0011190901
0000e0 8e 89 d9 39 dd e6 a5 38 59 54 fc 3b 33 35 b4 3d
       0.00041491952 7.910815e-05 0.0077004847 0.087992094
0000f0 67 9a 17 38 63 55 aa 3a 1f b6 85 39 3f e2 8d 38
       3.6145004e-05 0.0012995418 0.00025503428 6.7655455e-05
000100 57 19 1f 3a 89 34 ea 3b 60 95 23 3a 29 17 28 3c
       0.00060691446 0.007147376 0.0006240215 0.010259428
000110 fa 00 10 3a 15 59 77 3a e9 52 40 3a b2 b0 c4 38
       0.00054933096 0.00094355765 0.00073365733 9.3789204e-05
000120 68 0a d3 39 e5 13 74 3b d1 7c cb 3a 8a 65 37 3b
       0.0004025281 0.0037243303 0.0015524869 0.0027984106
000130 2f 3e 21 3a 76 25 8d 39 06 8c 7f 3b 49 c6 01 39
       0.00061509287 0.00026921526 0.0038993373 0.00012376266
000140 aa 5e 35 3b 19 50 1d 39 d2 96 c1 3a 07 ed 2a 3b
       0.0027674832 0.00015002525 0.0014769679 0.002608122
000150 ce 1f 71 3a b8 39 90 38 fd e8 2c 3b 89 36 1f 3a
       0.00091981597 6.877206e-05 0.002638399 0.0006073495
000160 4d f7 b9 38 7e fc 77 3a 93 c4 1d 3c 7d fe 82 3a
       8.867551e-05 0.00094599265 0.0096293865 0.0009994056
000170 03 32 4d 3b 0e c0 26 39 4f b8 b9 39 dc f9 ba 39
       0.0031310327 0.0001590254 0.0003542327 0.00035662844
000180 61 9e fd 3a c3 61 10 3b 3e 80 57 38 19 29 4f 37
       0.0019349569 0.0022030927 5.137943e-05 1.234773e-05
000190 65 cb 41 39 db 7b 02 3a 51 1b cd 39 c4 ae 5a 39
       0.00018481685 0.00049775623 0.00039121 0.00020855205
0001a0 c5 90 55 39 49 5a 1c 3a 16 08 9d 39 12 7e 52 3a
       0.00020367194 0.0005964381 0.00029951398 0.000802965
0001b0 a9 a6 5a 39 a6 0b eb 3a 04 fc aa 3a 5b 14 cc 39
       0.00020852186 0.0017932549 0.0013045077 0.00038925078
0001c0 c3 45 bc 39 48 b7 f2 39 ff 23 73 3a 97 c8 52 3a
       0.0003591013 0.00046294392 0.0009275078 0.00080407545
0001d0 9d 26 4c 39 c5 b1 f9 37 a8 d8 e5 39 8a 6b e7 38
       0.0001946934 2.9765893e-05 0.00043839705 0.00011034969
0001e0 de 81 84 39 36 42 28 3b 66 33 cc 3a 9d 25 b9 39
       0.0002527376 0.002567423 0.0015579283 0.00035313974
0001f0 30 84 ce 39 d2 7e 52 3a 8b bc 89 39 09 85 59 39
       0.0003938987 0.0008029762 0.00026271152 0.00020744292
000200 3d bc d2 39 e8 3a 1c 39 3a 39 4f 38 47 c4 0f 39
       0.0004019457 0.00014899264 4.9405942e-05 0.00013710662
000210 1c 0d b9 3a 61 cc 0d 39 50 d5 94 38 46 8e 9e 3a
       0.0014118287 0.00013522945 7.0969225e-05 0.0012096844
000220 e9 6c c8 39 35 12 88 3a 40 1f 0f 39 02 61 09 3b
       0.00038228117 0.0010381403 0.00013649184 0.0020962362
000230 71 5e 80 39 b1 36 a3 39 d3 08 13 3a 62 fe 25 3a
       0.00024484427 0.0003113053 0.000560892 0.00063321565
000240 c1 62 d2 39 2d e9 cd 3b b6 13 27 37 56 b1 88 3a
       0.000401279 0.0062839002 9.958565e-06 0.0010428827
000250 6e 18 f7 39 96 03 c1 38 96 63 4e 39 88 a2 88 39
       0.00047129713 9.203625e-05 0.0001968279 0.00026061037
000260 8d 5f d6 38 d7 0e 35 3a 45 63 71 38 60 3c 89 37
       0.00010222113 0.00069068134 5.755133e-05 1.6359787e-05
000270 25 85 a0 3a be 61 09 3b 23 dd 0c 37 b4 d9 da 3a
       0.0012246711 0.00209628 8.396138e-06 0.0016696961
000280 14 60 cf 37 b0 4f 17 38 1d c5 40 37 06 98 80 3b
       2.4721063e-05 3.607542e-05 1.1489986e-05 0.0039243726
000290 f9 6d 53 37 5a 11 a4 3b 39 06 3c 39 52 d2 06 3a
       1.2602185e-05 0.0050069513 0.00017931395 0.00051430345
0002a0 b0 37 da 3a 9f 6d c5 38 22 41 b9 39 f6 38 93 3b
       0.0016648676 9.4141105e-05 0.00035334477 0.0044928743
0002b0 79 41 75 3a 15 1f cd 39 53 38 13 38 e5 5a 08 38
       0.00093557645 0.00039123805 3.5099987e-05 3.250958e-05
0002c0 14 c6 f7 39 07 d1 15 38 71 b3 c1 3a 0e 0a 6a 39
       0.0004725909 3.571904e-05 0.0014778209 0.00022319725
0002d0 7f ac 47 3b 1f f6 4e 3a 30 3a c1 39 94 a4 64 38
       0.0030467806 0.0007894951 0.00036855182 5.451271e-05
0002e0 2a 24 3f 3a a4 40 94 38 b2 44 67 38 1a af 47 3b
       0.00072914606 7.06923e-05 5.513867e-05 0.003046936
0002f0 4c 18 9a 3b 86 71 08 3a 9e b7 67 3b 69 25 fe 37
       0.0047026034 0.00052049046 0.0035357247 3.029658e-05
000300 3e d1 de 38 59 17 52 39 d1 6d 50 39 a5 3f 30 3a
       0.00010624759 0.00020035858 0.00019877336 0.0006723351
000310 be 7e df 3b c9 5c e5 3c 09 bb f9 3a ee da 94 3c
       0.006820529 0.027998345 0.0019052933 0.0181708
000320 9a e8 23 3c 0c 07 66 3c c4 8e 40 3c d4 d6 88 3c
       0.010004187 0.014039766 0.011752788 0.016704
000330 82 a8 84 3b 74 11 66 3e 92 1e 78 3b 96 d3 4a 3b
       0.004048408 0.22467595 0.0037860018 0.003094887
000340 ea a1 f1 3b a1 ab a8 3b 7f a7 34 3d 79 99 01 3d
       0.007374038 0.005147413 0.04410505 0.031640504
000350 09 44 ee 3b 9e 96 08 3c d4 23 fc 3b cd ba 80 3b
       0.007271294 0.008336691 0.0076947007 0.0039285184
000360 2a 43 70 3b 78 ab a9 3c cb 83 d9 3b f0 25 eb 3b
       0.0036661127 0.020711645 0.0066380254 0.0071761534
000370 a5 c7 c8 3c f0 69 a3 3d 39 52 52 3b 7e c2 1c 3c
       0.02450926 0.0797919 0.0032092466 0.009567855
000380 b1 97 be 3b ad 90 8e 3b 62 64 5f 3c a9 fc 4b 3b
       0.005816423 0.004350743 0.013634773 0.003112594
000390 db 49 01 3d ad f9 b3 3b 42 28 76 3d b1 24 1c 3b
       0.031564575 0.00549241 0.060096987 0.002382558
0003a0 c3 8e 28 3b 1a 2a 16 3d 85 6f 03 3a 32 8b 26 3b
       0.0025719858 0.036661245 0.0005013871 0.0025412557
0003b0 a6 4c ee 3a 03 02 44 3d 0e 31 88 3b 26 4b c2 3b
       0.0018180802 0.04785348 0.0041562384 0.0059293685
0003c0 13 01 e5 3c 3d 84 00 3c 21 29 05 3d a3 ea 01 3e
       0.027954614 0.007844028 0.032509927 0.12687163
0003d0 d2 3c 49 3a c6 61 88 3c c6 1c 8f 3c b3 fb 50 3b
       0.00076766044 0.016648185 0.017469775 0.0031888306
0003e0 e9 71 97 3a be ab ec 3c 30 a9 06 3b 4d 0d 55 3c
       0.0011554334 0.028890487 0.002054762 0.013003659
0003f0 08 18 c8 3d 1f e0 a3 39 86 ed f4 3c 75 bf d2 3c
       0.097702086 0.00031256766 0.029898416 0.02572606
