models/cfv/1lkfcv2.pth (torch, 490360 bytes, 18 tensors)

lstm.weight_ih_l0 f4 [392, 1]
1.0796088 0.7336494 0.18660086 0.4603325 -0.2959148 0.6201855 1.7357411 1.1833932
2.359373 1.0925422 -0.41493785 -0.7746726 0.84635353 -0.15941556 -0.04148794 0.57688826
0.58142823 0.2468233 0.114464484 -0.9406002 1.0347593 0.20387375 -0.24746817 0.32390028
-0.2475925 0.084977336 -0.15746485 -0.52509683 0.13946357 0.20875628 -0.7600953 0.2606265
0.7566875 -0.07403791 0.5133637 -0.42020336 0.40087435 -0.35077384 0.08652653 -0.27211395
-0.07563245 0.14121248 1.1199335 -0.5214612 0.22917439 -0.44702825 0.4710784 1.336679
0.20178196 0.07823803 -0.44541797 0.063183576 0.53908235 0.685902 0.436517 0.2593489
0.26512095 0.15130474 0.56292856 0.1433272 -0.10441863 0.832239 -2.8738291 -0.38886213
0.22640018 0.8792336 -0.11891278 0.5122876 0.078371234 -0.24726419 0.7651363 -0.1345101
0.33221674 0.016718233 0.67838216 -0.044751182 2.6224468 1.1554252 -1.8936201 0.15915024
-0.5085126 -0.36753535 -0.6321867 1.1640396 1.0450641 0.3131751 -0.71469176 0.005883293
1.1398987 -0.29578033 0.09714389 0.09958865 1.460732 -1.5268298 0.046289388 0.32006317
-0.0052262475 0.5094418 -0.1153344 0.1275562 -0.47597706 -0.17621589 -0.017996375 0.57091075
-0.2266866 0.69615155 0.13948421 0.3045328 -0.33245426 -0.0073593603 0.60599643 0.32153255
-0.4440264 0.28308564 0.29751986 0.29885727 0.1481704 -1.0476128 0.40964514 -0.30204883
-0.20148388 0.3771337 0.24361067 0.4672061 0.7335661 -0.386526 0.13343664 0.18123728
-0.8246665 0.2025194 0.6519615 0.726086 -0.15024841 0.05672948 -0.3307525 -0.1601952
-0.11305254 0.006839227 0.0064444314 0.03257628 -0.4931981 0.10035639 -0.19598094 0.1826075
0.39978608 0.7529033 0.29760683 0.15679245 -0.46834868 -0.18502231 -0.4615745 0.20644872
0.040284935 0.38969246 -0.004248686 -0.23420751 0.3611806 0.2460492 -0.4500593 0.8136954
-0.53800625 0.16915524 -0.24240065 0.33133152 0.123571284 0.5143418 -0.2821392 0.12413652
0.12917587 -0.2702832 0.16665512 0.21136415 0.41864923 -0.5109938 0.018494759 0.289818
0.9145801 0.5574477 0.7318931 0.3673036 -0.364583 0.3621315 0.6912995 -0.2133144
-0.19012178 -0.19867589 0.7794847 -0.033364154 -0.20158173 0.2968262 0.44203496 0.22508235
0.4018886 0.5366144 0.18009561 -0.08278632 -0.88899624 -0.22125438 1.0170248 -0.2718142
-0.2882167 0.0935828 0.86192745 -0.5557998 -0.91551834 -0.29129896 0.42233962 -0.1970291
0.07183578 -0.5107918 -0.041231103 -0.17745538 -0.12977757 -0.11946344 -0.21580468 -0.8371671
0.0007674861 -0.033073265 0.24224328 0.23834953 0.08041846 -0.19646925 -0.099601746 0.21755682
0.24920769 -0.13327186 -0.03959684 0.045437537 0.1393112 -1.6294149 0.15839882 -0.07504049
-0.15784399 -0.15376362 -0.47945735 0.20347658 -0.12626956 -0.26979443 0.9062666 -0.7964832
0.22744732 -0.2583557 -0.42536467 -0.3471583 -0.36327538 0.28625822 -0.34883267 0.009231848
1.9660176 0.75858897 -0.10944418 -0.22596744 -0.40319124 0.8683252 -0.25879645 0.13346262
00000000: 9f30 8a3f 72d0 3b3f 4c14 3f3e b4b0 eb3e
00000010: 2582 97be 7ac4 1e3f c42c de3f 6e79 973f
00000020: f8ff 1640 6cd8 8b3f bc72 d4be f250 46bf
00000030: a0aa 583f d53d 23be 42ef 29bd f3ae 133f
00000040: 7bd8 143f 3fbf 7c3e 5b6c ea3d 2dcb 70bf
00000050: fe72 843f 48c4 503e 4c68 7dbe 42d6 a53e
00000060: e388 7dbe 9908 ae3d 773e 21be bf6c 06bf
00000070: 8acf 0e3e 35c4 553e 9b95 42bf d670 853e
00000080: 46b6 413f 30a1 97bd ce6b 033f e524 d7be
00000090: 673f cd3e a198 b3be d234 b13d 8552 8bbe
000000a0: 30e5 9abd 019a 103e fb59 8f3f 7b7e 05bf
000000b0: b1ac 6a3e e3e0 e4be 3031 f13e 4c18 ab3f
000000c0: ee9f 4e3e 433b a03d d30d e4be 6466 813d
000000d0: 4d01 0a3f 4697 2f3f 287f df3e 61c9 843e
000000e0: efbd 873e a1ef 1a3e 161c 103f 5ec4 123e
000000f0: 6fd9 d5bd 9d0d 553f d1ec 37c0 f018 c7be
00000100: 73d5 673e 7415 613f 8b88 f3bd 4825 033f
00000110: 1981 a03d d332 7dbe f9df 433f 04bd 09be
00000120: 5018 aa3e adf4 883c 74aa 2d3f 044d 37bd
00000130: 2bd6 2740 f9e4 933f 2562 f2bf 48f8 223e
00000140: e22d 02bf 982d bcbe fdd6 21bf 40ff 943f
00000150: a9c4 853f 7d58 a03e 0af6 36bf a4c8 c03b
00000160: 33e8 913f 8570 97be 60f3 c63d 22f5 cb3d
00000170: 44f9 ba3f 296f c3bf f199 3d3d 52df a33e
00000180: f140 abbb c76a 023f 7134 ecbd 189e 023e
00000190: 44b3 f3be f071 34be 226d 93bc 3527 123f
000001a0: 8820 68be fd36 323f f3d4 0e3e b9eb 9b3e
000001b0: 7237 aabe ca26 f1bb 9522 1b3f ea9f a43e
000001c0: 6e57 e3be 9af0 903e 8654 983e d203 993e
000001d0: fbb9 173e 2d18 86bf 02bd d13e 25a6 9abe
000001e0: ca51 4ebe ab17 c13e 1375 793e a335 ef3e
000001f0: fdca 3b3f bce6 c5be 9da3 083e 4496 393e
00000200: 581d 53bf 3f61 4f3e f3e6 263f c6e0 393f
00000210: b8da 19be 2c5d 683d 6458 a9be 360a 24be
00000220: 1788 e7bd 981b e03b cf2b d33b b56e 053d
00000230: 7684 fcbe a787 cd3d 3aaf 48be 76fd 3a3e
00000240: c3b0 cc3e 45be 403f ec5f 983e 338e 203e
00000250: 66cb efbe 7d76 3dbe 7e53 ecbe 4b67 533e
00000260: d101 253d c585 c73e 9038 8bbb 18d4 6fbe
00000270: aaec b83e 52f4 7b3e 2c6e e6be 574e 503f
00000280: c7ba 09bf 0837 2d3e e037 78be 49a4 a93e
00000290: f112 fd3d e7ab 033f 8d74 90be 4a3b fe3d
000002a0: ae46 043e 8f62 8abe a4a7 2a3e d86f 583e
000002b0: 3159 d63e 7dd0 02bf 5282 973c 0663 943e
000002c0: ec21 6a3f e4b4 0e3f 595d 3b3f 380f bc3e
000002d0: 9faa babe 4d69 b93e 01f9 303f 176f 5abe
000002e0: 49af 42be b171 4bbe 4f8c 473f daa8 08bd
000002f0: 716b 4ebe 9bf9 973e 6852 e23e fd7b 663e
00000300: 58c4 cd3e 905f 093f fc6a 383e e08b a9bd
00000310: 4295 63bf 8290 62be de2d 823f 3b2b 8bbe
00000320: 2491 93be 57a8 bf3d 47a7 5c3f e548 0ebf
00000330: 695f 6abf 2325 95be e63c d83e ffc1 49be
00000340: a31e 933d 40c3 02bf f2e1 28bd ddb6 35be
00000350: 69e4 04be 3fa9 f4bd e7fb 5cbe 9550 56bf
00000360: 1f31 493a d577 07bd 9f0e 783e e611 743e
00000370: 6fb2 a43d 3c2f 49be 00fc cbbd 37c7 5e3e
00000380: 4d30 7f3e 6b78 08be 4c30 22bd b61c 3a3d
00000390: 98a7 0e3e ab90 d0bf 4d33 223e d4ae 99bd
000003a0: dba1 21be 3674 1dbe 6f7b f5be 2a5c 503e
000003b0: cf4c 01be 7f22 8abe 1701 683f 53e6 4bbf
000003c0: f3e7 683e 3347 84be 66c9 d9be bcbe b1be
000003d0: 3bff b9be 7090 923e 329a b2be 2d41 173c
000003e0: 77a6 fb3f e332 423f 4524 e0bd 0264 67be
000003f0: 156f cebe 8f4a 5e3f f880 84be 6daa 083e

lstm.weight_hh_l0 f4 [392, 98]
0.48664826 -0.20302066 0.35668463 0.1907481 0.56087977 0.4394795 0.08114268 -0.1373966
0.5280959 -0.23543444 -0.13793036 -0.15961954 0.645801 0.2754028 -0.20760225 0.12648833
0.103846475 -0.09727405 -0.44106007 -0.13563378 -0.21367425 -0.33879164 -0.062026642 0.340564
0.069489606 -0.31768185 0.02123676 -0.042611856 -0.66816145 -0.3405028 0.19057553 0.30008593
-0.08463639 -0.33362573 -0.21213898 -0.10761725 -0.026134705 0.10465757 -0.11694959 -0.09417886
0.0018507234 0.12497922 -0.03388736 -0.15738547 0.39616722 -0.1688915 -0.69905025 -0.1492638
0.14101669 0.30828226 0.06088804 0.38903368 0.11493222 -0.2602292 -0.40551558 0.02039128
0.5643027 -0.55242133 0.41447031 0.06658197 0.1301569 0.09798618 -0.0801917 0.035549514
0.22314766 -0.032520596 0.18647568 -0.062867485 -0.10976705 -0.22507592 -0.40215513 0.13851133
-0.12575151 0.30078915 0.5318317 -0.19953243 0.054868143 -0.51062256 -0.46903485 0.06475365
0.14022358 -0.29853195 -0.248816 0.15449795 -0.5308937 0.15685867 0.36023617 0.055439927
-0.37814322 -0.13830125 0.00024929846 0.24518858 0.07059643 -0.24835935 -0.33096218 -0.5512818
-0.2480987 -0.14098877 0.1515132 0.1290441 0.1980869 -0.19747855 0.037682932 0.00048375284
-0.30465093 0.24251425 -0.07048944 -0.047635246 -0.3007108 -0.3973522 -0.22527896 0.4341584
-0.2744485 0.04018349 -0.09702853 -0.07550922 -0.15557222 -0.53517497 0.09948298 0.37520036
0.21805309 0.113741055 0.21459775 0.05757851 0.19618529 0.034317873 -0.57788646 -0.22167535
-0.4443075 0.2588056 -0.0370259 -0.0282799 -0.30660078 -0.29948175 0.016018093 0.35165536
-0.25675017 -0.21931247 0.31520107 0.16751142 -0.081619754 -0.159465 -0.0037457861 -0.1265852
-0.29861465 0.1112562 -0.4480569 0.55648285 0.09465838 0.45517033 0.23474939 0.20776705
-0.4006154 0.070779495 0.17915796 -0.59105176 0.08137516 0.14475207 0.10333041 0.966246
-0.4475126 0.26604065 0.33815813 0.3202576 -0.6217609 0.41686618 -0.9287542 -0.25236547
-0.29588395 0.25732118 -0.07862318 0.57372934 0.08061235 0.07046339 0.24651377 -0.5239494
0.10985943 0.053236563 -0.10183311 -0.97156805 -0.2146608 -0.32927006 0.25020438 0.41324195
0.20678394 0.16716112 0.03394058 -0.31309122 0.21904047 -0.7813843 -0.3602793 -0.7392883
-0.5132144 -0.42162982 -0.71242636 0.22370084 0.14575736 0.041421395 -0.22364967 0.13721928
0.25025254 -0.6367696 -0.31502506 -0.26703024 0.21932387 0.53198725 0.25074422 -0.103091456
-0.54582745 -1.2707152 0.45753992 -0.3365144 0.026457801 0.29010585 0.27692404 0.118469395
0.15819626 0.47855607 -0.20221002 -0.49390945 -0.37242457 -0.25651324 -0.2750681 -0.07436246
-0.17879124 0.27128017 0.058372937 -0.38425595 0.3016926 0.6629986 0.089753084 0.27065882
0.2169402 -0.08624166 0.15585445 -0.30686262 -0.27268803 -0.17257993 0.04612362 -0.24751028
0.21263668 0.18901232 0.19678542 0.32962462 0.058238212 -0.3441677 0.15627526 0.4777703
-0.4991902 -0.34368238 -0.47714776 0.28510618 -0.40592635 0.30302307 -0.15226997 0.033259377
00000000: f629 f93e a6e4 4fbe 5e9f b63e 7853 433e
00000010: d195 0f3f 7503 e13e 222e a63d b2b1 0cbe
00000020: 4b31 073f ba15 71be 9e3d 0dbe 4e73 23be
00000030: 3753 253f 9901 8d3e af95 54be 2886 013e
00000040: 76ad d43d 9e37 c7bd a0d2 e1be 95e3 0abe
00000050: 6ccd 5abe 1976 adbe a60f 7ebd 685e ae3e
00000060: 9150 8e3d 32a7 a2be b7f8 ad3c c589 2ebd
00000070: a10c 2bbf 6256 aebe 3b26 433e dda4 993e
00000080: d855 adbd fed0 aabe f63a 59be 6f66 dcbd
00000090: 7318 d6bc b556 d63d 4483 efbd d9e0 c0bd
000000a0: f993 f23a 1bf5 ff3d 79cd 0abd a829 21be
000000b0: 6ed6 ca3e e5f1 2cbe f5f4 32bf 9cd8 18be
000000c0: ae66 103e 2cd7 9d3e bd65 793d 6c2f c73e
000000d0: 9561 eb3d c33c 85be bd9f cfbe 9d0b a73c
000000e0: 2476 103f 7c6b 0dbf 7435 d43e 215c 883d
000000f0: da47 053e faac c83d 8c3b a4bd 5e9c 113d
00000100: d280 643e 5134 05bd 7bf3 3e3e abc0 80bd
00000110: 8ccd e0bd 4d7a 66be 47e7 cdbe ead5 0d3e
00000120: 01c5 00be 0901 9a3e 1f26 083f 3b52 4cbe
00000130: 6bbd 603d 29b8 02bf 5625 f0be 909d 843d
00000140: c596 0f3e 2ed9 98be 9fc9 7ebe b634 1e3e
00000150: a6e8 07bf 8f9f 203e e070 b83e fa14 633d
00000160: fd9b c1be d89e 0dbe 46b4 8239 b712 7b3e
00000170: dc94 903d ea51 7ebe e073 a9be ce20 0dbf
00000180: 960d 7ebe 5c5f 10be 4726 1b3e 2324 043e
00000190: 4bd7 4a3e d137 4abe 6b59 1a3d 35a0 fd39
000001a0: 35fb 9bbe a855 783e c45c 90bd 2d1d 43bd
000001b0: c4f6 99be bf71 cbbe 87af 66be 034a de3e
000001c0: 8484 8cbe 7197 243d e5b6 c6bd 94a4 9abd
000001d0: 534e 1fbe 3a01 09bf bcbd cb3d 431a c03e
000001e0: 4f49 5f3e 12f1 e83d 83bf 5b3e 72d7 6b3d
000001f0: cce4 483e e690 0c3d 5ef0 13bf ddfe 62be
00000200: 467c e3be 2b82 843e 78a8 17bd 40ab e7bc
00000210: c7fa 9cbe ac55 99be 6038 833c 2c0c b43e
00000220: c274 83be 7393 60be 0962 a13e 1d88 2b3e
00000230: 4228 a7bd cb4a 23be dd7b 75bb 8d9f 01be
00000240: 05e4 98be 4ada e33d b767 e5be a975 0e3f
00000250: 41dc c13d 160c e93e 2562 703e e3c0 543e
00000260: 761d cdbe d7f4 903d 2f75 373e 2b4f 17bf
00000270: 05a8 a63d e339 143e e59e d33d e65b 773f
00000280: 5f20 e5be 7b36 883e 1023 ad3e cef8 a33e
00000290: b92b 1fbf 7c6f d53e d6c2 6dbf 0c36 81be
000002a0: 1a7e 97be 9abf 833e 3105 a1bd eddf 123f
000002b0: 1618 a53d 1c4f 903d 1b6e 7c3e 8c21 06bf
000002c0: fbfd e03d 950e 5a3d e18d d0bd afb8 78bf
000002d0: 0ad0 5bbe 1696 a8be ca1a 803e 7394 d33e
000002e0: 2bbf 533e 492c 2b3e 4705 0b3d 7e4d a0be
000002f0: 254c 603e cd08 48bf 8776 b8be ff41 3dbf
00000300: 0562 03bf dddf d7be 9361 36bf d511 653e
00000310: 6b41 153e 7ba9 293d 6b04 65be 3683 0c3e
00000320: 1a21 803e 5503 23bf f74a a1be 30b8 88be
00000330: 7096 603e 5130 083f 8c61 803e 9d21 d3bd
00000340: 59bb 0bbf cca6 a2bf ac42 ea3e 9e4b acbe
00000350: 08be d83c c188 943e fdc8 8d3e 15a0 f23d
00000360: 33fe 213e 4d05 f53e 2510 4fbe b3e1 fcbe
00000370: 6fae bebe b455 83be bad5 8cbe 584b 98bd
00000380: 0d15 37be 3ce5 8a3e 7618 6f3d 32bd c4be
00000390: 7477 9a3e 47ba 293f 77d0 b73d cb93 8a3e
000003a0: 9225 5e3e 789f b0bd 4f98 1f3e 191d 9dbe
000003b0: c49d 8bbe cbb8 30be 1fec 3c3d 5673 7dbe
000003c0: 6ebd 593e 728c 413e 1e82 493e 8fc4 a83e
000003d0: 318b 6e3d c036 b0be 9f06 203e 4f9e f43e
000003e0: dc95 ffbe 23f7 afbe b64c f4be 70f9 913e
000003f0: 94d5 cfbe d725 9b3e a9ec 1bbe fc3a 083d

lstm.bias_ih_l0 f4 [392]
0.13794439 -0.38265806 -0.05503241 -0.032770086 -0.042568695 -0.408665 -0.4106822 0.027659878
-0.18089615 0.020619953 -0.33894083 -0.055019133 -0.01273991 -0.26665252 -0.037765216 0.17610382
0.30715203 0.20023522 -0.022878077 0.031309765 -0.22670124 -0.16318086 -0.034723703 0.037866168
-0.0037907942 -0.087188475 -0.07005848 0.08086765 0.15375921 -0.0443972 -0.21676518 -0.3184411
-0.19967794 0.070951924 -0.31411496 -0.12607674 -0.074227184 0.063131064 0.019743333 0.037692044
0.15102907 -0.017372018 -0.005212704 -0.049332835 0.05166007 0.06410421 -0.06790634 -0.075266264
-0.0375829 -0.28333494 -0.26960036 -0.014117593 0.16725872 -0.12696749 -0.111104324 -0.0709729
-0.18996498 0.48494524 -0.022395516 -0.36006868 -0.12774737 0.017334666 -0.3550286 -0.107497714
0.021894854 0.19542389 -0.09791686 0.3660444 0.03746092 -0.028420104 0.3140894 -0.10671577
-0.09677664 -0.07561981 -0.040786322 -0.086727336 -0.06881336 0.07287559 -0.075018115 0.05064364
-0.11391161 -0.24177556 -0.23593386 -0.08235306 -0.19797325 -0.24929807 -0.1583655 -0.25620386
-0.22919032 -0.16434257 0.26330575 -0.1283486 -0.34332597 -0.001248062 -0.007671817 -0.09896232
-0.086536944 -0.40390012 0.18784404 0.19099179 -0.15197977 0.23039263 0.16127557 0.261234
0.17253731 0.3376943 0.08191068 -0.009780496 0.016677883 0.08786023 -0.08330403 0.17178056
0.07862954 0.14217976 -0.07238992 0.20892066 0.13420188 0.021802843 0.21999449 0.03922728
0.036580797 0.15082188 0.040556874 0.04902075 0.2275912 -0.0022656922 -0.03525464 0.02918209
0.14314564 -0.09752484 0.24809797 0.0503325 0.029654432 0.1531063 0.22560081 0.24307625
0.020002553 0.20204115 0.1386503 0.25475258 0.012080115 0.14300573 0.1301248 0.23299211
-0.13419016 0.10718292 0.024660388 0.21004604 -0.04266566 0.38535917 -0.08045347 -0.10463044
0.015479408 0.6450416 0.19986339 0.009293902 0.29404244 -0.027523732 0.114324376 -0.07541845
-0.17414314 0.3138339 0.22755736 0.0009681394 0.088046074 0.1491556 -0.122913964 0.31802318
-0.11547944 0.1917462 0.33812279 0.07743398 -0.05071514 0.19909771 0.3645496 0.15281478
0.49851763 0.24291484 0.39970392 -0.031406276 0.23623781 -0.11643025 -0.19470116 0.24947292
-0.11155014 0.28491804 0.2838936 0.046348143 0.28990853 0.027147066 0.28636053 0.2730501
0.07315785 0.005859065 0.03814507 0.3238655 0.007626536 0.16407298 0.12632768 -0.021443384
-0.13551752 0.0050246455 -0.07547305 -0.10798356 0.16428956 0.07536931 -0.08350184 -0.22695342
0.15446515 -0.005690618 -0.34734392 -0.20210415 -0.20352061 -0.13431695 -0.23434885 -0.15652467
-0.13598624 -0.11206923 -0.16007076 0.12978624 -0.1724185 0.006470212 0.20834811 0.101455465
0.10364649 0.079759255 -2.7926431e-05 -0.17415373 0.018762104 -0.042377822 0.11268415 -0.03239947
-0.16146769 -0.2616208 -0.14483966 -0.19225276 0.29471165 0.046394665 -0.12747741 0.13359024
-0.098455936 -0.08154969 -0.05045199 -0.007182082 -0.07207921 0.19316503 -0.021162473 0.22232343
0.035861567 0.0413303 0.11054302 -0.10978169 0.17012699 0.006589113 0.08385712 -0.016085071
00000000: 4b41 0d3e c2eb c3be aa69 61bd ed39 06bd
00000010: 835c 2ebd 8a3c d1be f044 d2be f896 e23c
00000020: d73c 39be 2deb a83c a789 adbe be5b 61bd
00000030: 0ebb 50bc ae86 88be b3af 1abd 8f54 343e
00000040: 0843 9d3e 760a 4d3e ce6a bbbc ab3e 003d
00000050: 5f24 68be e218 27be 713a 0ebd 8e19 1b3d
00000060: f96e 78bb df8f b2bd d27a 8fbd f09d a53d
00000070: 0e73 1d3e d7d9 35bd b1f7 5dbe b60a a3be
00000080: 6078 4cbe 3e4f 913d add3 a0be 431a 01be
00000090: 6c04 98bd dc4a 813d c5bc a13c f962 1a3d
000000a0: 5da7 1a3e c34f 8ebc 55cf aabb 3a11 4abd
000000b0: 8299 533d 1149 833d 7b12 8bbd 3325 9abd
000000c0: 87f0 19bd 4711 91be 0f09 8abe 7a4d 67bc
000000d0: df45 2b3e c403 02be aa8a e3bd 3d5a 91bd
000000e0: 2e86 42be be4a f83e cd76 b7bc ec5a b8be
000000f0: 35d0 02be 6e01 8e3c 4fc6 b5be c327 dcbd
00000100: d65c b33c 331d 483e a288 c8bd 2c6a bb3e
00000110: 9f70 193d 47d1 e8bc 53d0 a03e cc8d dabd
00000120: d532 c6bd 8fde 9abd 8f0f 27bd 1a9e b1bd
00000130: 05ee 8cbd cc3f 953d 19a3 99bd b56f 4f3d
00000140: 7d4a e9bd 0394 77be a598 71be b9a8 a8bd
00000150: 80b9 4abe fe47 7fbe 912a 22be 272d 83be
00000160: deb0 6abe 6b49 28be 03d0 863e d16d 03be
00000170: 6cc8 afbe 0396 a3ba de63 fbbb c2ac cabd
00000180: 483a b1bd ffcb cebe 305a 403e 5a93 433e
00000190: 96a0 1bbe 0cec 6b3e 6c25 253e 76c0 853e
000001a0: 9fad 303e 44e6 ac3e c9c0 a73d 603e 20bc
000001b0: 0ea0 883c 10f0 b33d 4e9b aabd 3ee7 2f3e
000001c0: 8608 a13d 9297 113e 2b41 94bd 4cef 553e
000001d0: 386c 093e e09b b23c 3c46 613e c9ac 203d
000001e0: bfd5 153d 0d71 1a3e f71e 263d fbc9 483d
000001f0: ab0d 693e 027c 14bb 2b67 10bd 470f ef3c
00000200: c594 123e 1abb c7bd 650d 7e3e 7429 4e3d
00000210: daed f23c e6c7 1c3e e603 673e fbe8 783e
00000220: 65dc a33c e0e3 4e3e 58fa 0d3e ee6e 823e
00000230: adeb 453c 1870 123e 703f 053e 7c95 6e3e
00000240: 2569 09be b882 db3d 9504 ca3c 4f16 573e
00000250: 30c2 2ebd cc4d c53e cac4 a4bd 7c48 d6bd
00000260: 589d 7d3c 7221 253f fda8 4c3e 7345 183c
00000270: bb8c 963e 7379 e1bc e622 ea3d fd74 9abd
00000280: 9452 32be d6ae a03e cc04 693e bcca 7d3a
00000290: 8051 b43d 3fbc 183e 51ba fbbd efd3 a23e
000002a0: 7c80 ecbd 1e59 443e 6e1e ad3e b595 9e3d
000002b0: aeba 4fbd 45e0 4b3e 3fa6 ba3e 7a7b 1c3e
000002c0: b43d ff3e abbe 783e fea5 cc3e dea3 00bd
000002d0: 53e8 713e fc72 eebd be5f 47be d475 7f3e
000002e0: 6674 e4bd c7e0 913e 805a 913e 8dd7 3d3d
000002f0: e46e 943e 8663 de3c d99d 923e 39cd 8b3e
00000300: c8d3 953d 66fd bf3b 013e 1c3d b3d1 a53e
00000310: 05e8 f93b bf02 283e 0b5c 013e 09aa afbc
00000320: 1bc5 0abe c8a5 a43b 9d91 9abd 7c26 ddbd
00000330: 863b 283e 3a5b 9a3d 0303 abbd 7a66 68be
00000340: 1d2c 1e3e 5d78 babb 10d7 b1be 64f4 4ebe
00000350: b567 50be 628a 09be 25f9 6fbe 0148 20be
00000360: fa3f 0bbe 8d84 e5bd 97e9 23be afe6 043e
00000370: 7a8e 30be 1204 d43b 3559 553e e2c7 cf3d
00000380: 9c44 d43d d258 a33d 8e43 eab7 5b55 32be
00000390: fcb2 993c 5e94 2dbd f3c6 e63d 4fb5 04bd
000003a0: c957 25be 29f3 85be d950 14be e8dd 44be
000003b0: 72e4 963e 5508 3e3d 7089 02be e1cb 083e
000003c0: 44a3 c9bd 8603 a7bd bfa6 4ebd ac57 ebbb
000003d0: 449e 93bd 0ecd 453e ec5c adbc c1a8 633e
000003e0: 94e3 123d f649 293d 6164 e23d 39d5 e0bd
000003f0: c535 2e3e 7ce9 d73b 48bd ab3d d7c4 83bc

lstm.bias_hh_l0 f4 [392]
0.2125135 -0.24030015 -0.02090001 -0.14430021 -0.12136609 -0.35989657 -0.3735614 0.01094286
-0.31928438 -0.06998816 -0.16667025 -0.0030580075 -0.116359204 -0.42125994 0.13178357 0.1484383
0.13467725 0.08445746 -0.019972347 0.15736364 -0.16295734 -0.22780031 0.13943683 -0.0558424
-0.026178066 -0.044591818 -0.12107259 0.15816857 0.15249002 -0.060049094 -0.11560592 -0.16947766
-0.046370443 0.11787315 -0.2517853 -0.20420541 0.092663124 -0.07789703 0.13030206 0.08891978
0.082841925 0.055435527 0.049131624 -0.12621291 -0.024945075 -0.1192774 -0.15624224 -0.14814387
-0.06878445 -0.24520516 -0.103352636 -0.04472294 -0.027919035 -0.06252533 -0.069382936 -0.15398493
-0.16739443 0.4894993 0.02039104 -0.48258632 -0.10384113 0.026985781 -0.35144404 -0.02933119
-0.14354765 0.09214612 -0.113700934 0.20900272 0.0019677768 -0.15921615 0.22631486 -0.096040234
-0.15504873 -0.05334695 -0.13934298 -0.19098699 -0.095745966 -0.043190178 -0.05788721 0.08594291
-0.06149907 -0.28367284 -0.25492343 -0.018459558 -0.25522885 -0.33180103 -0.08679265 -0.101719216
-0.23850028 -0.22501507 0.18969129 -0.16285858 -0.26981652 0.024905799 0.012003232 -0.11329967
-0.03146509 -0.27455688 0.24777955 0.2771108 -0.096641496 0.25804943 0.07558327 0.2136783
0.24924335 0.3413368 0.08763097 0.062480353 0.12915888 0.22563139 0.011452967 0.20425653
0.07202046 0.10107796 -0.037398104 0.2016107 -0.035197236 0.05718281 0.22066507 0.03366533
0.064720996 0.05569403 0.02552177 -0.013270194 0.21751021 0.10101513 0.035268374 0.115951255
0.17839022 -0.096890315 0.21691227 0.12725842 -0.09805568 0.13670531 0.19944344 0.19654286
0.06961494 0.14506331 0.23640771 0.23376717 0.015432189 0.20990822 0.15422876 0.25867438
0.0532943 0.15332904 0.12135693 0.23504445 0.000242369 0.3471423 -0.02598821 0.0065763732
0.01608059 0.5497175 0.0956293 0.026484065 0.3808676 -0.0030043593 0.22522153 -0.090779684
-0.15061219 0.32328904 0.13745542 0.07403576 0.04148887 0.10553565 -0.034855973 0.25448972
-0.12775947 0.27024207 0.35104853 0.055128276 -0.111597404 0.24317703 0.37508297 0.22219443
0.3932309 0.29454875 0.3808897 0.0812198 0.24290821 -0.036542416 -0.23589626 0.28749976
-0.14695469 0.39531645 0.24011758 0.20388821 0.17279631 0.042937808 0.37740764 0.36425292
0.01791295 0.16349731 0.014437665 0.27182052 0.1535179 0.0049889414 0.026731895 -0.067393586
-0.12644693 0.09162338 -0.015038893 -0.002016941 0.19451615 0.12777835 0.026938941 -0.12935929
0.18590918 0.094281316 -0.2930352 -0.17557925 -0.21313642 -0.059227433 -0.115256 -0.18969736
-0.027354252 -0.11943347 -0.07671503 -0.006552391 -0.06524095 0.0020258846 0.07806344 0.089105725
0.15813835 -0.08109595 -0.004029071 -0.18053547 -0.11358474 -0.15746377 -0.04238344 0.009321859
-0.14246486 -0.2632139 -0.14471455 -0.3133406 0.17614602 -0.060275596 -0.19052234 -0.041188445
-0.04605387 0.013000385 -0.10269454 0.0060845413 -0.12861176 0.14511138 -0.049495216 0.17660195
0.11057348 0.09943106 0.02689775 -0.12886173 0.14489718 -0.09493991 0.07130878 -0.068343595
00000000: 249d 593e 3e11 76be 7f36 abbc 6fc3 13be
00000010: c98e f8bd 5d44 b8be 7143 bfbe ae49 333c
00000020: 3e79 a3be f455 8fbd 9bab 2abe da68 48bb
00000030: bc4d eebd 62af d7be 46f2 063e 3600 183e
00000040: d5e8 093e 08f8 ac3d 0c9d a3bc ef23 213e
00000050: 4ade 26be 7c44 69be 87c8 0e3e 00bb 64bd
00000060: 6273 d6bc e9a5 36bd e8f4 f7bd f1f6 213e
00000070: 5826 1c3e 0af6 75bd ccc2 ecbd 8d8b 2dbe
00000080: efee 3dbd 7a67 f13d 01ea 80be 391b 51be
00000090: 2ac6 bd3d 7a88 9fbd e76d 053e 931b b63d
000000a0: 07a9 a93d 5d10 633d 3e3e 493d f53d 01be
000000b0: 9d59 ccbc b647 f4bd f7fd 1fbe 07b3 17be
000000c0: ddde 8cbd 1017 7bbe 8caa d3bd 672f 37bd
000000d0: 76b6 e4bc 480d 80bd a418 8ebd 3aae 1dbe
000000e0: 7269 2bbe a79f fa3e 1c0b a73c 8e15 f7be
000000f0: a9aa d4bd 4911 dd3c 79f0 b3be f747 f0bc
00000100: 28fe 12be 1bb7 bc3d 09dc e8bd cf04 563e
00000110: d1f5 003b 8f09 23be 15bf 673e beb0 c4bd
00000120: 18c5 1ebe 5582 5abd edaf 0ebe 1892 43be
00000130: 7616 c4bd 2fe8 30bd 241b 6dbd d602 b03d
00000140: 73e6 7bbd 913d 91be 5385 82be 8038 97bc
00000150: 5bad 82be d3e1 a9be 58c0 b1bd 2a52 d0bd
00000160: 6b39 74be 5a6a 66be 6f3e 423e 66c4 26be
00000170: 6425 8abe 3f07 cc3c 34a9 443c a809 e8bd
00000180: 8ae1 00bd b892 8cbe ecb9 7d3e 77e1 8d3e
00000190: faeb c5bd 0e1f 843e 67cb 9a3d 7cce 5a3e
000001a0: a639 7f3e b2c3 ae3e de77 b33d 66eb 7f3d
000001b0: 3a42 043e ea0b 673e 3aa5 3b3c a028 513e
000001c0: 777f 933d f601 cf3d c12e 19bd 0973 4e3e
000001d0: fa2a 10bd 8638 6a3d 06f6 613e a8e4 093d
000001e0: 718c 843d 6c1f 643d 0813 d13c 3a6b 59bc
000001f0: ffba 5e3e 05e1 ce3d 9275 103d da77 ed3d
00000200: edab 363e 6e6e c6bd 401e 5e3e 0850 023e
00000210: 6bd1 c8bd 7afc 0b3e e73a 4c3e 8842 493e
00000220: 4792 8e3d 7a8b 143e dd14 723e a960 6f3e
00000230: 4bd7 7c3c 2ef2 563e 25ee 1d3e f870 843e
00000240: 204b 5a3d 4a02 1d3e fb89 f83d 7eaf 703e
00000250: 6f24 7e39 a3bc b13e 3ae5 d4bc 9e7e d73b
00000260: 71bb 833c 49ba 0c3f 4bd9 c33d 1cf5 d83c
00000270: 1401 c33e c9e4 44bb 79a0 663e b3ea b9bd
00000280: 153a 1abe 2486 a53e 1dc1 0c3e 0fa0 973d
00000290: 3cf0 293d 1323 d83d 23c5 0ebd 7a4c 823e
000002a0: 61d3 02be 2b5d 8a3e a2bc b33e 30ce 613d
000002b0: 2e8d e4bd 6603 793e e00a c03e f086 633e
000002c0: 8f55 c93e 18cf 963e fa03 c33e 9156 a63d
000002d0: eebc 783e 80ad 15bd ca8e 71be 2b33 933e
000002e0: 4a7b 16be eb66 ca3e 62e1 753e 12c8 503e
000002f0: 84f1 303e 8edf 2f3d 933b c13e 5c7f ba3e
00000300: 2ebe 923c d76b 273e f58b 6c3c 0f2c 8b3e
00000310: cc33 1d3e 467a a33b d9fc da3c a605 8abd
00000320: 4e7b 01be 0aa5 bb3d b065 76bc a82e 04bb
00000330: 3e2f 473e 54d8 023e 0eaf dc3c c376 04be
00000340: fa5e 3e3e 9016 c13d b608 96be 0ccb 33be
00000350: 6f40 5abe 7798 72bd 560b ecbd 0640 42be
00000360: 0616 e0bc 8999 f4bd c51c 9dbd 71b5 d6bb
00000370: 0c9d 85bd b4c4 043b badf 9f3d 107d b63d
00000380: 05ef 213e a215 a6bd 4c06 84bb 4ade 38be
00000390: 1e9f e8bd 2f3e 21be 429a 2dbd b6ba 183c
000003a0: 4fe2 11be f9c3 86be 0d30 14be 2e6e a0be
000003b0: 9f5f 343e 8be3 76bd 4a18 43be 37b5 28bd
000003c0: fca2 3cbd 91ff 543c 8451 d2bd d560 c73b
000003d0: cdb2 03be 1498 143e 7fbb 4abd 24d7 343e
000003e0: 5974 e23d 83a2 cb3d ac58 dc3c 54f4 03be
000003f0: ed5f 143e db6f c2bd 560a 923d baf7 8bbd

fc1.weight f4 [9, 98]
0.05311149 -0.23709221 -0.024541166 0.17558277 0.38785312 -0.4144089 -0.25105068 0.32205895
-0.6102334 0.1772704 1.0453708 -0.05037927 0.476285 0.32034695 0.4896926 0.6572192
-0.03832663 -0.9598811 -0.21053186 -0.09628204 0.5930418 -0.3132293 -0.22893831 1.0159413
1.1017197 -0.83721256 0.0016283137 0.8582107 -0.9483973 -0.9205831 0.56994826 1.0867003
0.4093157 0.109687366 -0.012065553 -0.40500832 -0.09868212 -0.17599614 -0.24436581 -1.0618439
0.026582947 -0.60898197 0.11805135 0.62722266 0.43533236 -0.27730468 -0.009835963 -0.048593346
-0.7695751 -0.16124366 -1.7378966 0.025036598 -0.6741512 0.27977386 0.5416258 0.252019
-0.2324496 0.36230403 0.63984007 -0.5491208 -0.23565075 0.50273955 0.22863014 -0.29506975
0.144239 0.32323685 0.4971037 -0.680704 0.91548955 0.048924476 0.507788 0.094357096
0.09496785 -0.762006 1.4862378 0.90912014 0.046328917 -0.030521628 -0.33728445 -0.29463488
-0.43004084 -0.57395643 0.27758133 0.07928137 0.5002932 0.42002562 0.28658718 0.011464442
-1.2874284 -0.017822579 -0.5103035 0.08688093 0.13897346 -0.05104689 -0.3724862 -0.03105328
-0.21965328 -0.20149246 -0.37672552 -0.55916935 0.362897 0.06546412 -0.020537531 0.23111384
0.20127703 0.13928245 0.21625453 -0.04052669 1.0979416 0.06326058 0.17160891 0.4005157
-0.0019953419 0.76829726 0.2086779 -0.3126056 -0.042435214 0.3860449 0.13720019 -0.16707401
-1.3315572 0.24114707 0.029469052 0.38522473 0.007932089 -0.46556556 0.6675985 0.14641564
-0.21390054 0.07217419 -0.77756596 -0.13079429 -0.24527338 0.3701942 0.18586251 -0.2419265
-0.4288663 0.3813491 0.23533867 0.0667166 -0.39159852 0.10133895 -0.32242042 0.43377373
-0.31005773 0.31622165 -0.5738866 0.39024705 0.24484636 -0.23922306 0.2966212 -1.0396705
1.1619794 -0.85273254 -0.2243799 0.5994283 0.25588986 -0.35079816 -0.048550814 0.022813337
0.11093252 -0.03731498 0.5468568 0.18643261 -0.26843086 0.7820716 0.2592217 0.04653869
0.4207573 0.23715064 0.46080792 1.0094734 0.21812421 -1.783812 0.23907515 0.6206057
0.15877067 0.32899168 0.0509698 -1.5537939 0.13309872 -1.0065616 0.10349969 1.3078
0.3169403 0.05227099 -0.25895977 0.12539709 0.25761938 0.111205965 0.23064113 -0.17097001
-0.09220841 0.31262323 0.27532366 -0.058386244 0.111816116 -0.49207214 0.5407184 -0.14529271
0.16864525 1.1460838 -0.2728065 0.02438549 0.23387726 -0.60516006 -0.29221195 -0.24699743
0.018644894 -0.28765824 -0.17318013 -0.3121582 0.18493971 -0.22783928 -0.41148654 -0.3329846
-0.14418401 0.44358307 -0.020663176 -0.0119948005 0.3146832 -0.070888825 0.3151761 0.4127998
0.023626763 0.278331 -0.30214465 0.19915551 -0.11959979 0.22293754 0.21381696 -0.44677028
-0.27136362 -0.32049468 0.05719351 0.40727594 0.07720173 -0.3097634 0.22464934 0.26201785
-0.50744647 -0.33396143 0.01130225 -0.24960375 0.38597256 0.2669448 -0.8104839 0.2654465
0.28667328 0.06376311 -0.16871087 0.07250189 0.13026524 -0.9221816 -0.6079144 0.72925293
00000000: 6f8b 593d 4dc8 72be 8e0a c9bc f8cb 333e
00000010: af94 c63e 672d d4be b789 80be e9e4 a43e
00000020: 4238 1cbf 5f86 353e b6ce 853f 7e5a 4ebd
00000030: a1db f33e 8404 a43e fdb8 fa3e 843f 283f
00000040: 62fc 1cbd c5ba 75bf aa95 57be 852f c5bd
00000050: 96d1 173f 975f a0be ce6e 6abe 5d0a 823f
00000060: 2705 8d3f 9053 56bf 246d d53a b2b3 5b3f
00000070: 2aca 72bf 56ab 6bbf 21e8 113f ff18 8b3f
00000080: d491 d13e c5a3 e03d 99ae 45bc 405d cfbe
00000090: da19 cabd 5538 34be 083b 7abe 80ea 87bf
000000a0: 7bc4 d93c 3ee6 1bbf e8c4 f13d aa91 203f
000000b0: e2e3 de3e e1fa 8dbe 0527 21bc d109 47bd
000000c0: e002 45bf 0f1d 25be 6573 debf 8d19 cd3c
000000d0: 2c95 2cbf 853e 8f3e fda7 0a3f a208 813e
000000e0: 4507 6ebe ea7f b93e 8fcc 233f 2e93 0cbf
000000f0: 6e4e 71be 8ab3 003f 051e 6a3e 6213 97be
00000100: 63b3 133e 4d7f a53e 6084 fe3e 9e42 2ebf
00000110: 865d 6a3f 0865 483d 65fe 013f 4b3e c13d
00000120: 817e c23d d312 43bf 0a3d be3f 19bc 683f
00000130: 64c3 3d3d 7e08 fabc 8cb0 acbe 62da 96be
00000140: 502e dcbe cfee 12bf 241f 8e3e 455e a23d
00000150: 3713 003f 990d d73e 8ebb 923e 5bd5 3b3c
00000160: 74ca a4bf a800 92bc 40a3 02bf a1ee b13d
00000170: 0f4f 0e3e 8b16 51bd 83b6 bebe 7363 febc
00000180: caec 60be 0a54 4ebe 2be2 c0be b925 0fbf
00000190: a3cd b93e 0d12 863d 533e a8bc 1ba9 6c3e
000001a0: 911b 4e3e 0fa0 0e3e d471 5d3e 51ff 25bd
000001b0: 5a89 8c3f c38e 813d 3fba 2f3e 6510 cd3e
000001c0: 48c4 02bb 21af 443f a9af 553e d70d a0be
000001d0: 8cd0 2dbd ada7 c53e 357e 0c3e 7315 2bbe
000001e0: 7770 aabf 42ef 763e 1569 f13c 2d3c c53e
000001f0: 98f5 013c 9c5e eebe bce7 2a3f fbed 153e
00000200: be08 5bbe 10d0 933d 900e 47bf f0ee 05be
00000210: f228 7bbe 188a bd3e be52 3e3e 95bb 77be
00000220: 5d94 dbbe 3040 c33e 9ffc 703e b6a2 883d
00000230: 9a7f c8be cc8a cf3d 4a14 a5be 9717 de3e
00000240: e3bf 9ebe cee7 a13e 3bea 12bf 76ce c73e
00000250: 01b9 7a3e e4f6 74be bcde 973e ec13 85bf
00000260: bebb 943f ae4c 5abf d8c3 65be 2274 193f
00000270: ff03 833e d19b b3be 38dd 46bd 09e3 ba3c
00000280: 9730 e33d 98d7 18bd cffe 0b3f 31e8 3e3e
00000290: c56f 89be d835 483f b5b8 843e 5a9f 3e3d
000002a0: 806d d73e 9ed7 723e 04ef eb3e 6d36 813f
000002b0: f45b 5f3e f453 e4bf 1ed0 743e 04e0 1e3f
000002c0: c794 223e 9971 a83e b6c5 503d b8e2 c6bf
000002d0: 084b 083e 03d7 80bf a5f7 d33d fe65 a73f
000002e0: 0046 a23e 1b1a 563d 6096 84be 1868 003e
000002f0: b0e6 833e f4bf e33d 302d 6c3e c312 2fbe
00000300: c3d7 bcbd 2710 a03e 39f7 8c3e 6a26 6fbd
00000310: d9ff e43d e1f0 fbbe 856c 0a3f 9dc7 14be
00000320: 57b1 2c3e e0b2 923f 4bad 8bbe 14c4 c73c
00000330: 857d 6f3e c5eb 1abf ce9c 95be e5ec 7cbe
00000340: 2dbd 983c f147 93be 2256 31be 33d3 9fbe
00000350: d660 3d3e b34e 69be 5dae d2be f57c aabe
00000360: f9a4 13be 521d e33e d245 a9bc d785 44bc
00000370: 281e a13e 292e 91bd c35e a13e 7f5a d33e
00000380: ea8c c13c 6781 8e3e b4b2 9abe 6cef 4b3e
00000390: bcf0 f4bd bd49 643e d5f2 5a3e 13bf e4be
000003a0: 2cf0 8abe e117 a4be be43 6a3d 7986 d03e
000003b0: f11b 9e3d 4f99 9ebe 7a0a 663e 3427 863e
000003c0: 03e8 01bf fefc aabe 132d 393c 2098 7fbe
000003d0: 329e c53e fdac 883e df7b 4fbf 9be8 873e
000003e0: d7c6 923e 3c96 823d 8bc2 2cbe df7b 943d
000003f0: 4064 053e 1814 6cbf 47a0 1bbf 52b0 3a3f

fc1.bias f4 [9]
0.08234079 -0.028446596 0.10632732 0.091886096 -0.0072833863 0.18231331 0.034505736 0.0144254165
-0.2168628
00000000: 4aa2 a83d d608 e9bc 23c2 d93d c72e bc3d
00000010: 79a9 eebb 57b0 3a3e e355 0d3d 9558 6c3c
00000020: 4811 5ebe

exp_avg f4 [392, 1]
-0.012054338 0.016898029 0.001680607 -0.0035857197 -0.0007034832 0.02310829 0.0057305503 0.0027025314
-0.010622869 0.00010517928 -0.026710188 0.0026645407 0.0041445936 -0.006161733 -0.0030992238 -0.001811421
-0.00015869075 0.0011626636 0.0018932275 -0.004062369 -0.00038519624 0.0056192675 -0.0010346478 0.00061438646
0.0003467376 0.00026836796 -0.00046863183 -0.0016397211 -0.0037444597 0.001956329 0.00053004967 0.00022001365
-0.0061106845 -0.00074263045 -0.00045606314 0.0014700915 0.0014341142 -0.001574847 -0.002210393 -0.008914264
-0.0006944679 0.0061924392 0.0034030033 0.0043150475 0.00016907233 0.002932562 -0.004424803 0.0014902529
-0.0024327172 0.0023224154 -0.0037330498 -0.00010443572 -0.00392869 0.019370487 -0.007546033 -0.000117603064
-0.0006881945 -0.004335762 -0.0014051007 -0.0071473485 0.0032615324 0.0021776094 0.0044689733 -0.000494013
-0.0069143693 -0.0036969 -0.00044103828 0.001812706 -0.0019465367 0.0006081277 -0.00019271251 -0.0027164777
0.00022611964 0.0015718674 -0.0015579012 -0.022290835 0.020775205 -0.0010193312 -0.011593198 0.00043728837
0.0011589113 0.02090786 0.0019933353 0.004663082 0.006452454 0.0006734515 0.0052294317 0.0006158442
0.022560203 0.0020923058 0.00021450364 0.0013082908 0.0027271556 9.957278e-05 0.0027641275 -0.0012439124
-0.008456716 -0.030641101 0.00013214398 -0.0036637683 0.0022524756 0.0017984535 -0.000956335 -0.007921541
-0.00082365406 -0.004303528 0.017750934 -0.001592595 -0.013365971 0.0007768432 0.002593056 0.0033088713
-0.0052520703 0.00019237274 5.4870456e-05 -6.301662e-05 0.00039952426 -0.00071338227 -0.00023650721 -0.00682646
-0.0047199046 0.00051711046 0.00018525324 0.0003311522 0.0035743604 0.001109265 -0.0027584818 0.0011985099
-0.0006970923 0.00029166613 0.00047687805 0.0005400523 -3.3978104e-05 0.00026838848 0.00012660553 -0.0029494301
-0.00013280517 -0.008596079 0.004411797 0.0004201344 0.008737558 -0.00082252687 -0.0020209153 0.0021363916
-0.0051777475 0.00092082575 -0.0033963595 0.0004400968 -0.00783716 0.00014549051 -0.0024982123 -0.00085849606
-0.005407888 -0.004141426 0.0003232173 -0.0014286849 0.0010106122 0.005848254 0.013850287 0.006131351
-0.0010498697 -0.00013444883 -0.003737469 -0.0035847228 0.0004301492 0.0026936173 -0.0012272558 0.00062797876
0.0023967768 -0.004519332 -1.4675698e-05 0.0025197892 -0.00033604915 0.025889184 -0.00073721894 0.0016162798
-0.009086145 0.0071954825 -0.0011205529 0.0008680642 -0.0010918693 0.0005194968 -0.0016188506 -0.0017073478
0.0024285452 -0.00010915719 -0.0022129517 -0.00032330252 0.002115851 -0.0005700122 -0.006951639 -0.0013048197
0.0023201744 0.00011962886 -0.0015280665 0.003473771 -0.017443355 0.028012764 0.0025810995 -0.012196826
-0.0033251913 -0.0011953609 -0.01742975 -0.00022906472 -0.077249445 -0.0025672233 0.0035688886 0.01142521
0.008564124 0.016167285 -0.0033674776 -0.013715807 -0.00057173637 0.0058277575 0.010905845 0.0027091044
-0.00091816427 0.004742388 -0.00019069714 -0.00040736867 0.0013828872 -0.0126654105 -0.0043557133 -0.011235401
0.008526807 0.0017082081 0.009727803 -0.0016750396 0.005938297 0.006182498 0.0020021226 0.012235607
-6.782543e-05 0.011460524 0.007458187 0.0040473915 -0.0029275508 0.00056981214 -0.00583189 0.012442009
-0.015659183 0.040849335 -0.01869764 0.00039358417 -0.015882362 -0.0013515815 0.00701634 -0.002192925
-0.0025331902 -0.03978157 -0.016399214 0.0047681583 -0.0016578631 0.008742252 -0.0029106943 0.0015562759
00000000: 8f7f 45bc bc6d 8a3c d047 dc3a 65fe 6abb
00000010: f569 38ba 994d bd3c 57c7 bb3b f41c 313b
00000020: 8b0b 2ebc b293 dc38 53cf dabc 939f 2e3b
00000030: 5fcf 873b 5de8 c9bb 591c 4bbb 346d edba
00000040: 3966 26b9 8464 983a 2c26 f83a 9f1d 85bb
00000050: 2af4 c9b9 d521 b83b 059d 87ba c70e 213a
00000060: 55ca b539 bdb3 8c39 b3b2 f5b9 e9eb d6ba
00000070: 9c65 75bb c135 003b 08f3 0a3a 77b3 6639
00000080: 233c c8bb 16ad 42ba c21b efb9 16b0 c03a
00000090: e3f8 bb3a 196b ceba 3edc 10bb 220d 12bc
000000a0: f40c 36ba f2e9 ca3b ec04 5f3b 3e65 8d3b
000000b0: 0249 3139 3a30 403b f0fd 90bb 9754 c33a
000000c0: 396e 1fbb aa33 183b 2fa6 74bb 8004 dbb8
000000d0: 3ebc 80bb dbae 9e3c b644 f7bb aaa1 f6b8
000000e0: f367 34ba 0213 8ebb 5b2b b8ba 4e34 eabb
000000f0: 6fbf 553b 39b6 0e3b 7770 923b a780 01ba
00000100: ef91 e2bb b147 72bb 283b e7b9 5298 ed3a
00000110: ef22 ffba c26a 1f3a df12 4ab9 ef06 32bb
00000120: 871a 6d39 1e07 ce3a 7d32 ccba 459b b6bc
00000130: c330 aa3c 149b 85ba 66f1 3dbc da43 e539
00000140: 9ce6 973a f646 ab3c 9ea2 023b c4cc 983b
00000150: 1b6f d33b 918a 303a a75b ab3b 9b70 213a
00000160: 2dd0 b83c 111f 093b 62ec 6039 f47a ab3a
00000170: 14ba 323b bbd1 d038 5d26 353b c60a a3ba
00000180: 0a8e 0abc 0c03 fbbc 2190 0a39 d51b 70bb
00000190: 459e 133b 16ba eb3a 8eb2 7aba 5ac9 01bc
000001a0: 7dea 57ba 9c04 8dbb 686a 913c 9fbe d0ba
000001b0: f2fc 5abc 11a5 4b3a 43f0 293b a6d9 583b
000001c0: 8f19 acbb aab7 4939 b424 6638 ca27 84b8
000001d0: 3d77 d139 4602 3bba ecfe 77b9 7fb0 dfbb
000001e0: 6ea9 9abb b28e 073a 8a40 4239 7f9e ad39
000001f0: d13f 6a3b c264 913a a5c7 34bb 5217 9d3a
00000200: 13bd 36ba c4ea 9839 7d05 fa39 4c92 0d3a
00000210: b683 0eb8 7eb6 8c39 6ac1 0439 3a4b 41bb
00000220: 9e41 0bb9 92d6 0cbc d690 903b 7c45 dc39
00000230: f927 0f3c d89e 57ba 5571 04bb b402 0c3b
00000240: 18aa a9bb 9263 713a 7595 5ebb cbbc e639
00000250: 6e67 00bc d08e 1839 0cb9 23bb b20c 61ba
00000260: a734 b1bb cdb4 87bb 7e75 a939 b642 bbba
00000270: 8576 843a b6a2 bf3b 50ec 623c 80e9 c83b
00000280: c89b 89ba d5fa 0cb9 53f0 74bb abed 6abb
00000290: a685 e139 6687 303b dfdb a0ba f19e 243a
000002a0: 3e13 1d3b e816 94bb a537 76b7 0c23 253b
000002b0: c12f b0b9 8e15 d43c ed41 41ba 5ad9 d33a
000002c0: 0ede 14bc 15c8 eb3b 84df 92ba cd8e 633a
000002d0: 0e1d 8fba d72e 083a 9d2f d4ba 16c9 dfba
000002e0: 3a28 1f3b 52eb e4b8 2b07 11bb ee80 a9b9
000002f0: 17aa 0a3b df6c 15ba 93ca e3bb 7c06 abba
00000300: 110e 183b 41e1 fa38 6749 c8ba 35a8 633b
00000310: 5ee5 8ebc 067b e53c aa27 293b 32d5 47bc
00000320: 74eb 59bb a8ad 9cba d6c8 8ebc 1831 70b9
00000330: f534 9ebd dc3e 28bb 04e4 693b ce30 3b3c
00000340: 8a50 0c3c 4171 843c e6b0 5cbb 44b8 60bc
00000350: 94e0 15ba c6f6 be3b 6eae 323c 3b8b 313b
00000360: f6b0 70ba 0966 9b3b e0f5 47b9 1994 d5b9
00000370: ff41 b53a 9582 4fbc 5fba 8ebb b014 38bc
00000380: 05b4 0b3c f4e5 df3a 5d61 1f3c 018d dbba
00000390: 0c96 c23b 8d96 ca3b 0b36 033b db77 483c
000003a0: 803d 8eb8 ecc4 3b3c cf63 f43b fb9f 843b
000003b0: 27dc 3fbb 725f 153a 7019 bfbb 91d9 4b3c
000003c0: b047 80bc a251 273d cb2b 99bc f959 ce39
000003d0: ba1b 82bc 8d27 b1ba 53e9 e53b 2db7 0fbb
000003e0: e103 26bb 00f2 22bd a557 86bc 363e 9c3b
000003f0: a84c d9ba aa3b 0f3c 59c1 3ebb f4fb cb3a

exp_avg_sq f4 [392, 1]
0.0013920328 0.0011395358 6.6486675e-05 0.0017076822 5.8380674e-06 0.012946556 0.0014467716 0.000947967
0.0020111476 8.6079286e-05 0.0045347693 0.00011542492 0.00096566067 0.0015335593 9.758138e-05 2.6746548e-05
6.528792e-06 9.709014e-06 2.7336857e-05 0.00016575602 5.140667e-06 0.0010357763 0.00017501996 2.0466996e-05
4.8490388e-06 0.000109531415 0.00024269668 0.00019097881 0.000115927454 3.3679218e-05 0.00015154596 1.3267712e-05
0.0001356956 0.00044428415 5.012996e-06 1.545022e-05 2.99186e-06 0.0016747923 0.00018962989 0.0006771147
0.0002435799 0.000331976 0.000119381686 0.00049392745 6.155995e-05 3.0074956e-05 0.0002253096 0.00014585603
0.00035732018 0.00026747497 9.005991e-05 1.1194318e-05 0.00071070116 0.004102288 0.0003425526 0.00014858664
1.1770437e-05 7.841628e-05 0.00011129681 0.00027451856 0.00020167352 0.00077279116 0.00057313766 2.221808e-05
0.000509624 0.00024043 0.0003772829 3.1125637e-05 3.62259e-05 3.437687e-05 5.677229e-05 0.00017880226
1.6633778e-05 5.8989135e-05 0.00031271213 0.006036216 0.0013615255 0.0038016923 0.0021370198 0.00017666405
2.9057226e-05 0.0065539614 8.0255995e-05 0.001468098 0.0019976276 0.0005241663 2.2378657e-05 1.3238599e-06
0.01535868 3.056342e-05 3.845374e-06 0.0004899606 0.00037312196 0.0006504688 0.00020300603 0.0002766289
0.000297808 0.031733636 0.00086697354 0.00010759387 4.9035327e-05 0.00012527381 5.0674464e-07 0.0029756457
0.000103195816 0.00036517624 0.0017731072 4.178659e-05 0.00142441 5.1884923e-05 0.00042268913 0.00066260574
0.0012527978 2.1867929e-05 2.3429366e-06 6.5439704e-06 5.9234794e-06 0.00015566363 1.0431551e-06 0.0016702035
0.00027320004 1.4752949e-05 1.1861664e-06 0.00012238958 0.00037346166 0.00018075334 6.974478e-05 1.4710022e-05
0.00010578986 1.0490053e-05 8.669778e-05 0.0001321391 4.3764285e-07 3.7950122e-07 3.887333e-07 0.00031180165
9.7265736e-05 0.0005629485 0.00053415925 3.597407e-05 0.000118882606 0.00021814748 8.72087e-05 3.3321758e-05
0.00014569999 0.0002797488 0.00020442445 0.000264713 0.00025781256 3.4790955e-06 0.00046041107 0.0010270337
0.00029347214 0.00010485183 2.9718326e-06 7.66666e-05 6.2249776e-05 0.00032021737 0.00096680754 0.0021243724
0.0002612014 6.836065e-05 0.0004014387 0.00015158417 0.00039127455 6.921921e-05 1.301479e-05 6.0026046e-06
6.5901506e-05 0.0009332838 2.9692221e-06 6.188462e-05 8.793965e-05 0.0025051432 0.0011766398 0.0013902248
9.405238e-05 0.00027087415 0.00012960397 0.0027339817 4.750458e-06 0.00049722526 0.0008437434 0.00018009884
4.392062e-06 1.3682585e-06 0.00030644005 1.0609873e-05 4.610469e-06 0.00033579677 0.00021777546 0.0004189679
9.976905e-05 0.000101656944 0.00039167164 0.0005330604 0.0114911245 0.003965303 0.0025056049 0.002603464
8.020241e-05 0.0023036902 0.019492611 0.0005775423 0.04187997 0.0007986747 0.0009841777 0.0004580238
0.001127201 0.0034095014 0.00023056302 0.004851805 0.0007152694 0.000108567605 0.00012825086 0.004965446
0.0013457747 0.013010578 0.00020223646 0.00016366073 7.3795345e-05 0.0016778429 0.0009437296 0.0005369766
0.0014383163 1.799907e-05 0.00068558863 0.00040841298 0.00027171962 0.00074974535 9.210935e-05 0.00030055124
9.955825e-05 0.0017172963 0.0008859117 0.0010350682 0.0010856513 0.0003511818 0.003043569 0.022852914
0.0016566919 0.0007022105 0.001001524 3.4486293e-05 0.0025303424 0.00064440223 0.00020586839 2.8260345e-05
0.0010602382 0.010333133 0.0043274593 0.002462335 0.0002078097 0.0005001575 0.00032567783 8.3918305e-05
00000000: df74 b63a 7a5c 953a c36e 8b38 4ed4 df3a
00000010: 9ee4 c336 cb1d 543c 99a1 bd3a fd80 783a
00000020: 75cd 033b 7785 b438 6798 943b 4810 f238
00000030: 6424 7d3a b601 c93a 9ba4 cc38 c65d e037
00000040: e511 db36 e6e3 2237 7451 e537 cbce 2d39
00000050: fe7d ac36 e3c2 873a 9085 3739 8ab0 ab37
00000060: edb4 a236 3bb4 e538 657c 7e39 7c41 4839
00000070: 141e f338 c942 0d38 4fe8 1e39 6498 5e37
00000080: 8349 0e39 cfee e839 4f35 a836 189b 8137
00000090: c3c7 4836 b484 db3a 63d7 4639 6680 313a
000000a0: 7b69 7f39 110d ae39 8e5c fa38 e97a 013a
000000b0: bf19 8138 7a49 fc37 1641 6c39 eef0 1839
000000c0: b456 bb39 e23b 8c39 8cde bc38 3bcf 3b37
000000d0: 594e 3a3a 7c6c 863b a298 b339 eccd 1b39
000000e0: a479 4537 6b73 a438 0568 e938 42ed 8f39
000000f0: 5378 5339 2395 4a3a 9e3e 163a f760 ba37
00000100: 4a98 053a f01b 7c39 0ece c539 e68c 0238
00000110: 44f1 1738 e22f 1038 c81e 6e38 de7c 3b39
00000120: c488 8b37 1a6b 7738 83f3 a339 73cb c53b
00000130: 3775 b23a d025 793b 3e0d 0c3b e53e 3939
00000140: ebbf f337 9dc2 d63b 1c4f a838 326d c03a
00000150: a1ea 023b 3468 093a cdb9 bb37 7baf b135
00000160: f9a2 7b3c 3931 0038 8307 8136 b370 003a
00000170: 959f c339 3984 2a3a 04de 5439 8108 9139
00000180: 1d23 9c39 21fb 013d 9c45 633a 05a4 e138
00000190: 48ab 4d38 ef5b 0339 3a07 0835 0d03 433b
000001a0: d56a d838 2075 bf39 9b67 e83a 0244 2f38
000001b0: 45b3 ba3a 039f 5938 609c dd39 b8b2 2d3a
000001c0: eb34 a43a 0571 b737 583b 1d36 4794 db36
000001d0: 4dc2 c636 a339 2339 8902 8c35 bbea da3a
000001e0: 4a3c 8f39 6f83 7737 5e34 9f35 b455 0039
000001f0: 2dcd c339 9b88 3d39 f243 9238 10cb 7637
00000200: 80db dd38 6ffe 2f37 84d1 b538 d28e 0a39
00000210: 2df5 ea34 40be cb34 19b3 d034 4f79 a339
00000220: 25fb cb38 d692 133a d206 0c3a dde2 1638
00000230: 9d50 f938 85be 6439 d0e3 b638 f7c2 0b38
00000240: 0bc7 1839 40ab 9239 c55a 5639 2dc9 8a39
00000250: 042b 8739 687a 6936 5463 f139 889d 863a
00000260: 2add 9939 e6e3 db38 b26f 4736 11c8 a038
00000270: 188c 8238 d9e2 a739 5b71 7d3a 0e39 0b3b
00000280: dcf1 8839 d85c 8f38 3178 d239 91f2 1e39
00000290: fb23 cd39 c829 9138 195a 5a37 fb69 c936
000002a0: 9a34 8a38 9ea7 743a d942 4736 0dc8 8138
000002b0: 3d6c b838 542d 243b 7b39 9a3a 3438 b63a
000002c0: fd3d c538 1d04 8e39 4de6 0739 9a2c 333b
000002d0: 2066 9f36 3958 023a a92e 5d3a ead8 3c39
000002e0: 865f 9336 01a5 b735 b0a9 a039 0f01 3237
000002f0: a1b3 9a36 e10d b039 a85a 6439 eba8 db39
00000300: 1a3b d138 a830 d538 4759 cd39 14bd 0b3a
00000310: 4545 3c3c 5fef 813b 1335 243b e19e 2a3b
00000320: 5732 a838 82f9 163b f8ae 9f3c 3566 173a
00000330: 558a 2b3d 275e 513a 86ff 803a ea22 f039
00000340: 97be 933a f171 5f3b 4ac3 7139 e4fb 9e3b
00000350: eb80 3b3a caae e338 147b 0639 2eb5 a23b
00000360: b564 b03a 522a 553c 700f 5439 589c 2b39
00000370: 93c2 9a38 11eb db3a 9f64 773a e4c3 0c3a
00000380: e385 bc3a b5fc 9637 13b9 333a 4320 d639
00000390: 9775 8e39 8f8a 443a d52a c138 4e93 9d39
000003a0: eec9 d038 e716 e13a 873c 683a 20ab 873a
000003b0: 6a4c 8e3a d31e b839 9d76 473b 0936 bb3c
000003c0: 5b25 d93a 8d14 383a 9245 833a 60a5 1038
000003d0: 1ad4 253b 1aed 283a 60de 5739 a110 ed37
000003e0: b1f7 8a3a 4d4c 293c 5ccd 8d3b 205f 213b
000003f0: 7ee7 5939 001d 033a bdbf aa39 4cfd af38
