models/cfv/1lkfcv1.pth (torch, 490360 bytes, 18 tensors)

lstm.weight_ih_l0 f4 [392, 1]
000000 7d 1b e5 3e b2 7b 5a 3f af 51 a9 3d d6 a6 b0 3f
       0.44747534 0.85344994 0.08267533 1.3800914
000010 4b b5 01 3e 43 d3 24 3c 37 40 d1 be 15 9a 90 3f
       0.12666814 0.010060134 -0.40869305 1.1297022
000020 c8 0c 11 3e 6a 65 ac 3e b7 5f c8 be ba 96 29 3f
       0.14165032 0.33671123 -0.39135525 0.66245615
000030 d3 5f 08 3f 97 5b 2a be 6d 22 13 3f 45 b3 17 3f
       0.53271216 -0.16636501 0.57474405 0.5925792
000040 5b b8 1e c0 39 a6 aa 3d 8f cd 14 3f ae bb 60 bf
       -2.4800022 0.08332486 0.5812616 -0.87786376
000050 5e 5a 92 3f bc 15 05 3e eb 6b c0 be 2f 92 02 3f
       1.1433828 0.12996572 -0.37582335 0.5100431
000060 5e af c6 3e 53 08 ff 3e e3 27 10 3f 58 05 45 bf
       0.3880567 0.49811038 0.5631086 -0.7696128
000070 c4 e8 83 3e 8e d6 35 3f ce f4 99 bf b7 48 69 3f
       0.25763524 0.7103051 -1.2027833 0.9112658
000080 b5 05 a6 3d 34 17 2a be 3d 7b a6 be 80 40 00 bf
       0.08106557 -0.16610414 -0.32515898 -0.5009842
000090 78 75 1c 3f 7a 80 c3 bf 1b 60 bd bc 07 e8 fa be
       0.61116743 -1.5273583 -0.023117116 -0.49005148
0000a0 3a 2d 77 3e 18 48 99 3e 9d 0b 2b 3e c2 6b 2e be
       0.24138346 0.29937816 0.16703649 -0.17033294
0000b0 5a e7 db be fb c5 74 bf 42 94 40 bf b3 e7 d3 3e
       -0.42949945 -0.95614594 -0.75226223 0.4138771
0000c0 70 79 5b 3f 09 f0 37 bf 65 58 94 3e d1 08 7d 3e
       0.85732174 -0.7185064 0.2897369 0.24710394
0000d0 11 76 02 bf e0 b5 63 3e e1 c0 85 3e ee fd 7d 3e
       -0.50961405 0.22237349 0.26123717 0.24803898
0000e0 dc ee a3 be c5 76 b1 3d 5e fd b4 be c8 b7 71 bf
       -0.32018173 0.086652316 -0.35349554 -0.9442105
0000f0 31 56 96 3b 55 62 0f bf f0 26 66 be b3 c5 66 3f
       0.0045879115 -0.5600942 -0.22475791 0.90145415
000100 12 a6 1d 3f e8 31 94 3f fd 18 d9 be be af b0 3f
       0.6158153 1.157773 -0.42401877 1.3803632
000110 b9 77 15 3f b3 01 19 3f ec 87 e9 3f ec f0 da 3f
       0.5838581 0.5976822 1.8244605 1.7104774
000120 be ac 71 bd 9a d6 2b bf da 19 24 bf 21 46 9b 3e
       -0.05900263 -0.6712433 -0.64101946 0.30326942
000130 6b d5 11 3f b7 2a bd be 1e 2a e1 3e 41 45 33 3f
       0.56966275 -0.3694665 0.43977445 0.7002755
000140 18 0d 85 3f cd b9 dc bd f2 9b b0 3f 9e e4 2b 3f
       1.0394621 -0.10777626 1.3797591 0.6714572
000150 10 31 26 3e 36 ff 32 3e 76 0c 9a 3f 45 27 09 bf
       0.16229653 0.17480168 1.2035053 -0.53575546
000160 99 16 bb 3f fd fe 93 3e f7 cf c3 bd 2c d4 de 3e
       1.4616271 0.28905478 -0.095611505 0.4352125
000170 06 dd 40 bd da d8 a7 be cf 89 82 3f 0c a7 51 3f
       -0.047085784 -0.32782632 1.0198306 0.8189552
000180 59 34 21 3f 77 69 51 3e e1 2e d7 3c ce 68 18 3f
       0.629705 0.20450388 0.02626747 0.5953492
000190 48 28 05 3d cf 39 b9 be bd 9c e4 3d 45 1f c7 3e
       0.03250912 -0.36176917 0.11162708 0.38891044
0001a0 ca 74 46 bf 20 a8 16 3f d4 98 d1 3e ed d4 04 3f
       -0.77521956 0.5885029 0.4093691 0.518874
0001b0 59 72 a6 bc 78 0d 97 3f 90 9b d1 3d 55 38 01 bf
       -0.020318197 1.1800985 0.10234749 -0.5047658
0001c0 57 99 34 bf 0e 98 a5 3e 04 1c 35 be 87 1e 01 3f
       -0.7054648 0.3234257 -0.17686468 0.50437206
0001d0 5e a5 39 3f c6 f0 a1 be 7d 66 dd 3e ed 42 40 3f
       0.72517955 -0.31629008 0.43242255 0.7510212
0001e0 1f 05 98 bf 53 ae ef 3e 49 e9 58 3d 56 06 46 3f
       -1.1876563 0.46812686 0.052956853 0.7735342
0001f0 b7 39 de 3e df 87 30 bf bd 7a 01 3f c6 5d 83 bc
       0.43403408 -0.6895732 0.5057791 -0.016035926
000200 9f 39 27 bf ef 2e 7d 3f 3f 32 0f 3d b1 8c db 3e
       -0.653223 0.9889974 0.034960028 0.42880777
000210 40 ac a4 be 10 73 18 be 4c ce 94 3e 1f 74 46 3e
       -0.32162666 -0.14887643 0.29063642 0.19380234
000220 76 bd fa be 05 0b d7 be f0 63 08 3f eb a9 0f 3f
       -0.48972672 -0.42000595 0.5327749 0.5611865
000230 43 20 1b bf 9d 53 71 be 8f 64 0a bf 66 f0 e9 be
       -0.605961 -0.23567052 -0.5405969 -0.45691222
000240 fb 25 d9 be c8 90 9b 3e 02 4a 7e 3f dd 29 11 bf
       -0.4241179 0.30383897 0.99331677 -0.56704503
000250 25 e5 af 3c 96 0e 09 3e d7 b9 6e be 47 9b 55 3f
       0.02147157 0.1338447 -0.2331308 0.8344006
000260 e5 13 48 3e d4 d9 c2 3e dc 50 27 bf 87 b4 f1 3d
       0.19538839 0.38056815 -0.65357757 0.11802011
000270 9f 03 19 bd 80 e1 1f bf ac 8c e2 3c bc 4d 5b 3c
       -0.03735697 -0.6245346 0.027654968 0.013385233
000280 37 4d 35 3f 48 69 20 3f 29 d1 80 be 1a 91 65 3f
       0.70820946 0.62660646 -0.25159577 0.8967453
000290 1d d2 05 3f f4 93 9d 3f 7f b2 b1 3f 65 9e 3c 3e
       0.5227373 1.2310777 1.3882598 0.18419798
0002a0 99 d4 13 bf 3f 82 22 3f 23 fc b1 be 27 72 15 bf
       -0.57746273 0.6347999 -0.34762678 -0.5837731
0002b0 3f 3b e2 bd 50 64 cf 3e 4c 8b dd 3e e4 55 94 be
       -0.110464565 0.4050622 0.43270338 -0.2897178
0002c0 27 11 ad 3e d7 35 b5 be d2 9c aa 3e 4e ca 7b be
       0.3380215 -0.3539264 0.3332277 -0.24588892
0002d0 e7 f3 b5 3f 2b 3b 5e 3f 7d 5a bd 3e aa 95 37 be
       1.4215058 0.86809033 0.369831 -0.17928186
0002e0 e0 7c 4e 3f 2f 77 d2 3d da f7 9d bd f2 04 8a bf
       0.80659294 0.10276639 -0.077132896 -1.0782759
0002f0 7e 14 6d bf e3 14 cd 3f 61 1a 42 3f f1 ce 1b be
       -0.92609394 1.6021999 0.758215 -0.1521566
000300 2c 49 de 3e 75 ab 55 3f 89 9a 2d 3f b7 0e 26 3e
       0.434152 0.8346475 0.67813927 0.16216551
000310 21 0b a1 be 37 b1 ca 3e 92 d8 07 3e 79 8b ad bf
       -0.31453803 0.3958833 0.13266209 -1.3558189
000320 1a eb 0c 3e 36 8a 88 3e a0 5d d7 be a6 6a 59 bc
       0.13761559 0.26667947 -0.42063618 -0.013270056
000330 40 13 25 be 87 d6 12 be 2c ad ad bd fa 29 24 be
       -0.16120625 -0.14339648 -0.084802955 -0.16031638
000340 e7 73 c8 bd 6f d8 b2 bf 98 2c 5d 3f 41 e2 25 be
       -0.097877316 -1.39723 0.8639617 -0.1619959
000350 0b e1 a7 3f f1 eb 7e be d1 44 5d be 85 0a 53 3e
       1.3115553 -0.24894692 -0.21608283 0.20609482
000360 b0 63 fd 3e 64 56 86 3e cd 53 d2 3f 48 09 19 3e
       0.49490118 0.26237786 1.6431824 0.14944947
000370 de 3b dd 3e bc c6 90 3d 67 19 cd be 03 56 b0 be
       0.43209738 0.070691556 -0.40058443 -0.34440622
000380 74 04 91 3d 2c fb 92 be c6 ae 2c bf ad 19 45 3e
       0.070809275 -0.28707254 -0.67454183 0.19248076
000390 1f 1c 8e bd 04 34 d5 bd 98 16 d6 3d 3a 0e 03 be
       -0.069389574 -0.10410312 0.10453528 -0.12798396
0003a0 28 0f d5 3e 05 9a 8c 3f 9a 5b 71 be 30 bb cb be
       0.41613126 1.0984503 -0.235701 -0.3979125
0003b0 1c 61 fb bd 7d 6b b1 3d e8 5a c0 3f b1 c5 ba be
       -0.122743815 0.0866308 1.5027742 -0.36478952
0003c0 0f 68 98 3e 9b 93 35 be 4c eb 63 be 93 fc 05 bf
       0.2976689 -0.17732088 -0.22257727 -0.5233852
0003d0 1c 73 01 bf 9a 6e 1f 3d 1f 4b 86 3e 08 bd 5e 3d
       -0.5056627 0.038923837 0.26229188 0.054379493
0003e0 11 28 aa 3e 52 c9 39 3c 81 0e b7 3e 41 fc af be
       0.33233693 0.011339502 0.35753253 -0.34372142
0003f0 f1 f7 c9 bd 93 ed 67 3e d1 b3 88 bd 8c 5f 62 be
       -0.09861744 0.22649221 -0.06674922 -0.2210676

lstm.weight_hh_l0 f4 [392, 98]
000000 98 e2 5b 3e 31 c7 01 3f af 58 80 3e 99 f8 8c bd
       0.21473157 0.50694567 0.2506766 -0.06883354
000010 8b d0 77 3e 75 a1 12 3d 85 bc 1b 3f 41 d1 e0 bd
       0.24200647 0.03579851 0.6083453 -0.10977412
000020 7d b2 f5 3d 90 2e c7 be 79 05 9b 3c 2f 93 88 3e
       0.119969346 -0.38902712 0.018923508 0.26674792
000030 8e 61 86 3d 11 28 76 be 16 3e a2 bd 4c e5 96 3d
       0.06561576 -0.24038722 -0.07921998 0.07367954
000040 f8 0a 5b 3d f6 30 68 be f5 e6 85 bf 80 7f 31 be
       0.053477257 -0.22674927 -1.0461107 -0.17333794
000050 e1 f5 12 3f 7c c7 b1 be 7a 1e 06 3e b0 b0 5d 3e
       0.5740643 -0.34722507 0.13097563 0.21649432
000060 b8 44 be bd 8c 55 45 3e 94 94 87 be 49 3f 99 bc
       -0.09290451 0.19270915 -0.26480544 -0.018706935
000070 1a b9 71 bf e6 a9 94 be ee 7f 52 3e 8c ce 2e bf
       -0.9442307 -0.29035872 0.20556614 -0.68283916
000080 12 21 9a 3d a8 f9 f8 be 3c 09 e4 be 0c 34 59 3e
       0.07525839 -0.48627973 -0.44538295 0.2121126
000090 3c 2f 6c bc 43 80 89 bd 2e 53 04 bf a8 3b 24 be
       -0.014415558 -0.06713917 -0.5168942 -0.16038382
0000a0 42 7c b7 be 26 92 af bd 5d 2f f5 bd e6 51 85 3c
       -0.3583699 -0.085727975 -0.119719245 0.016274404
0000b0 f7 8e 27 3e 86 e9 04 bc a2 6a 54 3e d3 8f 22 3d
       0.1636313 -0.008112317 0.20743802 0.039687943
0000c0 0d eb 8d 3d 13 95 e6 3d 19 c7 df bb e9 0f 3b 3e
       0.06929598 0.112589024 -0.006829154 0.18267788
0000d0 d1 b6 62 bd 26 73 34 3d fc 62 a2 be c7 fb 0c 3d
       -0.05535013 0.044055127 -0.31716144 0.0344198
0000e0 25 80 ef 3c 5f 50 d8 3c f9 8c 5f 3e 79 ff 6c bd
       0.029235909 0.026405511 0.2183112 -0.057860825
0000f0 2f cc 76 3e c8 bf a2 3e 6d 68 03 be b3 9a 36 be
       0.24101327 0.31786942 -0.12832804 -0.1783245
000100 f5 2a db 3e e3 d4 0a 3f 6a 0e 9d 3e 31 01 b5 3d
       0.4280621 0.5423109 0.3067506 0.08838118
000110 73 50 0b bf 74 8a 28 3d 54 ef 62 be 6e 49 95 3d
       -0.5441963 0.041147664 -0.22161609 0.07289396
000120 42 16 0d bd 23 d1 c3 3d e9 54 6e 3d ca 9f da 3e
       -0.034445055 0.09561374 0.058186445 0.42700034
000130 df f9 5c bf b5 8f 05 be fc 9e 82 be 28 cb c2 bc
       -0.86318773 -0.13043101 -0.2551192 -0.023778513
000140 82 9c 7a bc 7b d0 69 be 6c 56 06 3d e5 ad f1 3e
       -0.015296103 -0.22833435 0.032797262 0.47202983
000150 f4 d9 7e be 8c d5 f2 3c 88 0e f9 3d 59 99 28 bf
       -0.2488783 0.029642843 0.12160975 -0.6585899
000160 06 b2 2b 3e 13 b2 7a be 43 32 c6 3e cc 28 44 3f
       0.1676713 -0.24481992 0.38710222 0.7662475
000170 5a ef c5 be e6 95 6e bf 17 61 3a bf bd df 78 3e
       -0.38659173 -0.93197477 -0.728044 0.243041
000180 f9 ed 7e 3e 2c e4 b2 3e e3 3c 8b 3d 4b 3a db 3e
       0.24895467 0.34939706 0.067987226 0.42817912
000190 03 c3 27 3d f4 7a fb be 16 2e 65 be de 8d 4a be
       0.040957462 -0.49117243 -0.22380862 -0.1978068
0001a0 e9 d5 11 3f f8 53 1f 3c a4 f8 86 3e 70 31 4b 3e
       0.56967026 0.00972461 0.26361573 0.19843078
0001b0 af b7 99 be ae 48 95 3c af 96 9b 3e 8a 02 52 bd
       -0.30022952 0.018223133 0.303884 -0.051271953
0001c0 e6 81 9a be 28 37 dd bd 4c f3 a7 3c 68 1c de bb
       -0.3017723 -0.10801536 0.020501755 -0.0067782886
0001d0 15 c5 61 be 69 d2 e6 be 84 5a c6 3e d2 d3 47 bd
       -0.22047837 -0.45082405 0.38740933 -0.048785992
0001e0 1b 37 e2 bc 27 30 b6 bd 86 72 fa 3e 0d 2d 08 be
       -0.027614167 -0.08895903 0.489155 -0.13298436
0001f0 b4 c8 ae bc 5d 4d 8c 3d 2c ee b8 3d 30 7a e2 3d
       -0.021335937 0.068506934 0.09029803 0.11058462
000200 68 80 ce be 0b 20 b0 bd 3e 20 91 3e 81 e5 26 bd
       -0.4033234 -0.08599862 0.2834491 -0.040746216
000210 e0 13 cf bd 73 0a da bd 70 99 a3 be 3b 21 2d bf
       -0.10111213 -0.10646524 -0.31953 -0.6762883
000220 ec b6 34 bd 38 82 54 3e 26 5f a6 3d f5 5d 4c be
       -0.04411976 0.207528 0.08123617 -0.19957717
000230 a1 d2 0f 3f 65 db 76 be ce ff 64 3e 0d a2 b0 3e
       0.5618077 -0.2410713 0.22363207 0.34498635
000240 62 76 8f bd 09 9f a7 3d dc 01 46 be ca 5d ae 3e
       -0.070050016 0.081846304 -0.19336647 0.3405593
000250 31 3d f2 3c a0 bf b9 3e 65 8f 6a 3e 69 86 c2 be
       0.029570194 0.3627901 0.22906263 -0.37993172
000260 cc ad 95 be 48 42 23 be 0e 3d f2 3e e5 a5 71 be
       -0.2923416 -0.15943253 0.47312206 -0.2359844
000270 18 a5 85 be 6f 76 d1 3e b1 95 c1 3e f2 6e 8e 3e
       -0.2610252 0.4091067 0.37809518 0.2781902
000280 62 1b 90 3f c8 3e 8a 3e 38 53 8e 3c 0e 1d 86 bd
       1.1258357 0.27001023 0.017373666 -0.065485105
000290 a2 1c 28 bf 1a d8 23 be ed dd 4e be fb b1 dc be
       -0.6566869 -0.16000405 -0.20201845 -0.43104538
0002a0 17 0b de 3e 4c ae 01 3f 61 21 08 3f ab c2 9c 3d
       0.43367836 0.5065658 0.5317593 0.076543175
0002b0 57 fd eb bc c8 a9 28 3e c2 e7 15 bf 7c d1 8a 3e
       -0.028807325 0.16471016 -0.5855676 0.2711295
0002c0 13 ab e1 be f6 62 86 be 2c be 8b be cb 26 81 be
       -0.44075832 -0.26247376 -0.27293527 -0.2522491
0002d0 83 49 72 bd 14 41 78 3e c2 d2 9f 3d 26 e6 91 3e
       -0.059152137 0.24243575 0.07803871 0.28495902
0002e0 a0 77 c4 3e 26 40 91 3b 12 da 18 3f e6 56 d8 be
       0.38372517 0.004432696 0.5970775 -0.42253798
0002f0 18 33 fc 3d f9 aa 3b 3f b7 ca 1d 3e ed 70 82 be
       0.12314433 0.7330776 0.15409361 -0.2547678
000300 be a3 bf bd 46 80 0e 3f ed 27 cd 3e 82 34 34 be
       -0.09357403 0.5566448 0.40069523 -0.17598155
000310 cd b9 b1 3c 07 ce cb 3e 3e 80 cc 3d d5 9a 0b bf
       0.021695042 0.39805624 0.09985398 -0.5453313
000320 f2 fe 1f be 6f 40 27 be 90 67 a1 bc dd 79 ac 3d
       -0.15624598 -0.16333173 -0.019702703 0.08421681
000330 58 18 02 be e2 f2 8d 3d df 95 7c 3d 94 14 4d be
       -0.12704599 0.06931092 0.061666366 -0.20027381
000340 d5 5e b4 bc f2 05 01 3e af 6c c9 be 0f ec fa be
       -0.022017876 0.12599924 -0.39340732 -0.49008223
000350 29 b3 e7 be 02 79 39 3e 4e fe 02 3f 4c 0a 3e 3d
       -0.45253876 0.18112567 0.5116929 0.04639654
000360 7b 04 79 3d 7e ab 17 3d eb a3 d5 be f9 85 fb bc
       0.06079529 0.037028782 -0.41726622 -0.030703532
000370 ba 88 a2 3c 1a 00 d4 3e f3 fa ba bd 17 27 48 3e
       0.019840587 0.41406327 -0.09129896 0.19546162
000380 45 10 54 3c 73 2a 22 3e c0 f5 4e 3e 83 dd d9 3e
       0.012943332 0.15836506 0.20210934 0.42551813
000390 47 bd 32 3d c7 d5 06 3f 47 ef 7d 3c c5 32 41 3e
       0.04363754 0.5266995 0.015498943 0.18867023
0003a0 47 dc 6a be d6 9e 92 be d4 ab 15 bd 8f 10 fb 3e
       -0.22935592 -0.28636807 -0.03654082 0.4903607
0003b0 77 3b e3 3d 75 b9 4a 3e eb d6 33 bd 59 a6 e2 3d
       0.110953264 0.19797309 -0.043906134 0.110668845
0003c0 81 88 07 bf 93 4b 4e 3d b7 0e e0 3d 0f 8a 1d be
       -0.52942663 0.050365042 0.10940307 -0.15384696
0003d0 85 2f 46 be 03 8c 6e 3c 67 f8 d7 3e c8 7d 97 bc
       -0.19354065 0.014559749 0.42181703 -0.018492594
0003e0 13 65 8c bd f8 e9 92 3d 28 54 c9 3c 78 fb 90 bd
       -0.06855216 0.07173532 0.024576262 -0.07079214
0003f0 c3 34 bd 3d 43 e8 de 3d 51 e8 3a bb 4b 4a 79 3d
       0.09238579 0.10884144 -0.002851982 0.060861867

lstm.bias_ih_l0 f4 [392]
000000 5e 06 17 3d 2a 6d d9 be c5 6f c8 be e3 bf b3 bd
       0.036871307 -0.42466098 -0.39147773 -0.08776834
000010 03 af 39 be ee 6d ad bc a0 be 98 be 7c 95 91 be
       -0.18133168 -0.021170583 -0.29832935 -0.2843436
000020 47 d0 03 be 92 45 36 be 48 c3 f1 be e1 d6 9d be
       -0.1287242 -0.17799976 -0.472193 -0.30828002
000030 f4 d0 cb be 25 4e e3 3d cf 0f 96 3d 6a 62 ce be
       -0.39807856 0.11098889 0.07327234 -0.4030946
000040 ee e0 75 bd a1 dc bb 3d 11 1f 18 bd c0 d0 47 be
       -0.060028963 0.09172941 -0.037139002 -0.19513226
000050 16 ea 10 be 9c 01 64 bd ac c5 58 be 8e 76 21 be
       -0.14151797 -0.055665597 -0.21169156 -0.15767881
000060 71 aa e1 3d b4 c8 9e be 6f b0 3c be 96 fd 71 be
       0.11018837 -0.310125 -0.18426679 -0.23631892
000070 0e 29 f8 bd e7 ad 54 bd 95 29 c7 be ef 92 82 be
       -0.121172056 -0.05192366 -0.38898912 -0.25502726
000080 0b 37 2f bd c7 92 6f bd 13 6c 9b be f4 51 df bd
       -0.042777102 -0.058489587 -0.30355892 -0.10904303
000090 12 c6 62 be 44 c8 a8 be af 0e 85 be 54 bb 62 be
       -0.2214587 -0.3296529 -0.25987765 -0.22141773
0000a0 ab 01 a9 be 01 0c 88 be 28 7a 50 3e 9f 6c 98 bd
       -0.33009085 -0.26571658 0.20359099 -0.07442593
0000b0 7c 74 f7 bc e2 cc e0 bd 02 e5 e7 bd d2 50 94 be
       -0.030206911 -0.10976578 -0.11322977 -0.2896791
0000c0 ed 0c 86 be f3 30 97 be cb 98 bc be c1 b6 8a be
       -0.26181737 -0.29529533 -0.36835322 -0.27092555
0000d0 05 0f 32 be 21 31 0d be 0f a0 0a be 75 93 0b be
       -0.17388542 -0.13788272 -0.1353762 -0.13630469
0000e0 f9 06 9e be ef 92 bc bc 78 5e 8e be f6 a6 86 bc
       -0.30864695 -0.023019282 -0.2780645 -0.016437035
0000f0 8d b6 56 bc 49 97 d5 3e 0c 92 9c be ae a3 7a be
       -0.013105047 0.41716984 -0.30580175 -0.24476501
000100 d6 31 34 be 43 e1 69 3d ae 8d 50 be b4 29 0b 3d
       -0.17597136 0.057099592 -0.20366547 0.033975318
000110 38 5d 9d be ca 8f 67 bc f1 91 cd 3a cf 34 80 be
       -0.30735183 -0.014133403 0.0015683753 -0.2504029
000120 0d c5 26 3e c2 47 0b 3c 34 7b 87 bd 1f b9 82 bd
       0.16286106 0.008500995 -0.06615296 -0.06382965
000130 3d 4d 66 be 7b 1b a6 3d 2a d0 b4 be 79 ec a7 bb
       -0.22490402 0.0811071 -0.35315067 -0.0051246253
000140 36 c0 20 3e d9 40 73 be cc c3 3a be 02 74 91 be
       0.15698323 -0.23755206 -0.18238753 -0.2840882
000150 dd 85 94 be 80 14 3a be 09 21 03 be c4 95 7e be
       -0.2900838 -0.18171883 -0.1280557 -0.24861819
000160 60 fb 37 3d 8d c7 60 be 54 52 03 be de 2d 8a 3d
       0.044917464 -0.21951123 -0.12824374 0.0674703
000170 95 26 95 be e8 b8 c2 be 37 3f 3e 3c 97 2e 9f be
       -0.29130998 -0.38031697 0.011611751 -0.31090233
000180 0f a1 1a bc 1f 31 7c be ad 44 cc 3e ed 8d 46 be
       -0.009437813 -0.24628113 0.39896145 -0.19390078
000190 b0 00 fe 3d 7c e2 e0 3c c5 8e 11 3d a1 f3 9b 3e
       0.12402475 0.027451746 0.035536546 0.30459312
0001a0 3e 62 d9 3d 66 ed 9c be 68 3f b3 3d 03 f6 07 3d
       0.10614441 -0.3064987 0.08752328 0.0331936
0001b0 f6 77 5c 3d 1f f9 23 3e 39 ec a1 3d 34 9c 33 be
       0.05382534 0.16013001 0.07906384 -0.17540056
0001c0 5f e7 ee bd c1 54 67 bd fb b6 3b 3e 72 3e 02 be
       -0.11665224 -0.056477312 0.1833152 -0.12719133
0001d0 3e bd 63 bc 14 a9 ae 3e 43 5d 60 3e d9 6a 9a 3e
       -0.013900099 0.3411337 0.21910577 0.30159643
0001e0 fa 4b c2 bc 2f 6a bf 3d de 6b f2 bd 4c e5 9a bd
       -0.02371787 0.09346425 -0.1183698 -0.07563266
0001f0 6c ee ee bb a3 b4 1e bd a1 27 15 bd 28 cb be bd
       -0.0072916057 -0.038746487 -0.036414746 -0.09316093
000200 d1 de f2 3d 8a 61 89 3c 4f 90 12 3e cf 60 78 3e
       0.11858905 0.016770143 0.14312862 0.2425568
000210 8e 03 83 3e db e8 86 3e ff 07 fa 3d 27 b6 b0 3e
       0.2558865 0.2634953 0.122085564 0.3451397
000220 a8 33 18 3d 55 ed 83 3c b2 5e 13 3e 90 1d 1f 3d
       0.03715864 0.01610438 0.14391592 0.038846552
000230 63 f0 07 3e 14 2a 83 bc 72 39 22 3e 43 5b ee 3d
       0.13275294 -0.016011275 0.15842226 0.116385005
000240 ee 85 c1 bd ac 2f a9 3d 51 b4 17 3e 94 40 09 3d
       -0.09449373 0.08261046 0.14814879 0.033508852
000250 3f 58 82 3e db bb a2 3e 63 c3 6c 3c 5a 82 67 bd
       0.2545795 0.31783947 0.014450881 -0.056520797
000260 9f 76 6a 3e 38 4e c2 3e 47 22 86 3d 48 c4 76 3e
       0.22896813 0.379503 0.06549507 0.24098313
000270 ba 72 99 bd 5c 63 c9 bd 4d f0 e4 be fb df 4a be
       -0.074925855 -0.098334044 -0.44714585 -0.19812004
000280 00 0b 93 b9 90 47 0a 3e 1d 83 14 be 3d 16 0c be
       -0.0002804622 0.13503861 -0.14503141 -0.13680358
000290 a4 4e e9 3c 59 a5 0c 3e d5 e7 83 3d 5f 3d ae 3e
       0.028479882 0.1373495 0.06440703 0.34031197
0002a0 b8 d5 76 3e d9 25 9b bd 9a 55 bb bd f8 6e f2 bd
       0.24104965 -0.07575578 -0.091471866 -0.11837572
0002b0 63 69 8a 3e 1f 62 33 3e d1 64 e8 3e 78 d9 49 3e
       0.2703353 0.17517899 0.45389417 0.19711864
0002c0 73 f9 07 3f 1d 3e 02 3e ae 14 15 be 8f d2 42 be
       0.53115004 0.12719007 -0.1455867 -0.19025634
0002d0 c7 fb 9c 3d 5c 18 bf 3e 73 ee 13 3e 14 95 36 3e
       0.0766521 0.37323272 0.1444643 0.17830306
0002e0 d9 68 9a 3d 5f b4 fb 3d 50 e1 53 3e ab 8d 35 3e
       0.07539529 0.122902624 0.20691419 0.17729823
0002f0 64 34 41 3e f2 1e 6a be b4 fa 87 3e 47 71 0a 3f
       0.18867642 -0.22863367 0.2655846 0.540791
000300 e0 4a d2 be 82 69 4c 3e 3f c2 09 3d 95 f8 03 3e
       -0.4107275 0.19962123 0.033632513 0.12887795
000310 4a 42 15 3d 94 92 34 bc a8 60 ba 3d c7 fa 8e 3e
       0.03644017 -0.011021275 0.09100467 0.27925703
000320 c3 e6 91 bd a3 20 c1 bb e7 95 e0 3c fc 20 a6 bd
       -0.071240924 -0.005893783 0.027415229 -0.0811176
000330 b4 a8 09 3e f5 95 c2 bc 85 4a 50 bd 67 6b 0c 3e
       0.13443261 -0.023753146 -0.050852317 0.13712846
000340 8a bb bd 3c ae 13 14 bd cc 20 61 bd 31 c3 e9 3d
       0.023160715 -0.03615158 -0.05496292 0.11414183
000350 4b 0f ce 3c 8a 90 c2 bd f0 a7 38 be 02 c7 f1 bc
       0.025153777 -0.09500225 -0.18032813 -0.02951384
000360 f2 28 fe bb 70 b4 ab 3c c7 8d 73 3d 7d 29 0d 3e
       -0.007756346 0.020960063 0.05946138 0.13785358
000370 74 71 8c bd 29 2d 87 bd f1 6b 72 3e 6e f5 14 bc
       -0.06857577 -0.066004105 0.23673989 -0.009091718
000380 a3 b7 f7 3c 0e 6d 97 3b 0f 3f cd 3b 7a f2 e8 bd
       0.030238932 0.0046211546 0.0062636207 -0.11374374
000390 e0 b9 a0 3d eb 30 0c be eb 8f 1f 3d c4 2f 91 bc
       0.07847953 -0.13690536 0.03895561 -0.017722972
0003a0 37 12 e4 3d 2f 3f e4 3c db a8 33 3d f4 4d 66 bd
       0.11136287 0.02786216 0.043862205 -0.056226686
0003b0 4b 70 f9 3a c0 09 88 3d 44 a0 cc bc 8f d9 09 3e
       0.0019030658 0.06642485 -0.024978764 0.13461898
0003c0 49 02 91 3d a5 6a 1c bd ba 73 d2 3d 26 01 6a 3b
       0.07080514 -0.03818764 0.10275979 0.003570625
0003d0 fa da 1e 3d cf 7d 12 bc 7a 64 e4 3b 09 ca 47 3d
       0.03878305 -0.008941128 0.0069699856 0.04877666
0003e0 9b 08 aa bb ad 15 44 3c 7e 1c 6f 3d 57 50 3b 3e
       -0.005189014 0.0119680585 0.05837678 0.18292366
0003f0 9a 91 32 be df d3 a6 3d 51 0a 43 bd f9 1b f7 3d
       -0.17438355 0.0814588 -0.04761726 0.12065882

lstm.bias_hh_l0 f4 [392]
000000 0c 3b e4 3d d6 89 90 be f1 f5 b6 be a5 14 4c be
       0.11144075 -0.2823016 -0.35734513 -0.1992975
000010 b4 2f 85 be 37 11 e2 3c 12 bd 85 be 9c 24 9a be
       -0.26012957 0.0275961 -0.26120812 -0.30106056
000020 ee c2 88 be 12 87 89 be 67 8f 99 be 3b 3c 83 be
       -0.2671122 -0.26860863 -0.2999222 -0.2563189
000030 2d 6f 00 bf 05 a6 32 bd c6 a5 78 3e 83 8c dc be
       -0.5016964 -0.04361536 0.24281988 -0.43075952
000040 41 15 6e be dc fb c4 bc 4f 38 0c bd 05 79 8d bd
       -0.23250295 -0.024045877 -0.034233388 -0.06907848
000050 fb 46 9f bd 65 58 f6 bd d8 b9 19 bd e7 b5 80 be
       -0.0777721 -0.12028579 -0.03753075 -0.2513878
000060 80 d1 b3 3d 7e f9 88 be 45 ee 70 be a6 d5 22 be
       0.08780193 -0.26752847 -0.23528393 -0.15901813
000070 66 c2 fa bd 3a 65 8a bd 33 5e 93 be 49 38 d9 bd
       -0.1224411 -0.06757589 -0.28782806 -0.10606439
000080 1d 5e e2 3d 3c 89 3d bc 85 04 77 be b4 a9 3f be
       0.11053107 -0.011568364 -0.24122818 -0.1871708
000090 0d 84 5f bd f4 fc f0 be a2 e6 18 be 00 46 2e be
       -0.054569293 -0.47067988 -0.1493173 -0.1701889
0000a0 2d eb cb be 66 8a 45 be 1a 10 84 3e a1 ef 1a be
       -0.39827862 -0.19291076 0.25793535 -0.15130474
0000b0 50 c0 da bd c5 17 96 be 2e 67 4e be f0 a0 b9 be
       -0.10681212 -0.2931501 -0.20156547 -0.36255598
0000c0 7f 06 96 be a2 ab 83 be 0a f5 4e be 2f 62 9a be
       -0.2930183 -0.25716883 -0.20210662 -0.30153033
0000d0 76 f6 bc be 0b 68 96 bd d8 cc bf bd 1b 96 60 be
       -0.36906785 -0.07344063 -0.09365243 -0.2193226
0000e0 71 78 92 be 0d 45 97 bc 6d ec 70 be ea 49 0e be
       -0.28607515 -0.018465543 -0.2352769 -0.13895383
0000f0 b7 f6 30 3c 3c 88 da 3e 4b bc 9a be 02 99 2a be
       0.010801009 0.42682064 -0.3022178 -0.1665993
000100 f5 cd ae be eb 24 3d bd 51 b7 60 be 5b 09 fc bd
       -0.34141508 -0.046177786 -0.2194493 -0.12306472
000110 76 89 af be 88 68 14 be 78 8c b0 bd 22 7b 75 be
       -0.34284562 -0.14493 -0.08620542 -0.23972753
000120 e5 2f d6 3d 4e 1a fc 3c 8c a9 28 be 5d 1f 2c be
       0.10458354 0.030774262 -0.16470927 -0.16808839
000130 9b f0 80 be 77 30 0f bd 00 0b ac be b4 2e f7 3c
       -0.25183567 -0.03495833 -0.33602142 0.030173637
000140 dd 6b 56 3e dd 13 8f be 0d 36 4e be 47 79 61 be
       0.20939584 -0.27944842 -0.20137806 -0.2201892
000150 59 d6 b1 be 58 48 87 be 49 5a 67 bd d7 c8 c0 bd
       -0.34733847 -0.2642238 -0.056482587 -0.09413307
000160 72 d9 11 3d f7 73 8f be ea b4 4e be e5 01 07 3d
       0.035607763 -0.28018162 -0.201862 0.03296079
000170 f8 06 5f be af 54 b5 be 10 26 00 3d 01 86 a6 be
       -0.21780002 -0.3541617 0.0312863 -0.32524112
000180 60 ea 3a 3d 3f 7a ef bd ab f4 ea 3e ea bc dc bd
       0.045633674 -0.116932385 0.45889792 -0.1077822
000190 3c ab 37 3e 6f b8 61 3d ee 73 4d bd 87 9a 83 3e
       0.17936414 0.05510753 -0.050159387 0.25703833
0001a0 29 3d 3b 3e dd 0f 9b be a8 f6 be 3d 58 f8 d7 3d
       0.1828505 -0.3028554 0.0932439 0.10545415
0001b0 29 4c 2a 3e 86 86 98 3e 92 fe 31 3e ae 5a 12 be
       0.16630615 0.29790133 0.17382267 -0.14292404
0001c0 4a 70 fc bd 93 d7 c7 bd eb 8b 5f 3e b5 ba 09 be
       -0.12326105 -0.097579144 0.21830718 -0.1345013
0001d0 89 b2 3b be 62 c6 c0 3e 0a 0d 61 3e d6 91 97 3e
       -0.18329825 0.37651354 0.2197763 0.29603451
0001e0 d6 eb 90 3b ae 01 da ba 14 9b 08 be 23 3c 0d be
       0.004422645 -0.0016632581 -0.13340408 -0.13792472
0001f0 0a 51 8e bc 99 2a 84 3d 3b b5 0b 3d dc 6b d1 bb
       -0.017372627 0.06453437 0.03410838 -0.0063910317
000200 bc 86 1d 3e 2a 94 8e 3c d0 41 e5 3d 39 93 a3 3e
       0.15383428 0.017404635 0.11194193 0.3194826
000210 01 41 03 3e 18 06 7d 3e 3f 76 c4 3d d6 e2 98 3e
       0.12817766 0.24709356 0.09592866 0.29860562
000220 80 b5 b1 3d a0 6b 27 bd 82 78 77 3e 98 50 92 3c
       0.086771965 -0.040874124 0.24167064 0.017860696
000230 04 5f 0b 3e a9 72 50 3d f4 e7 3a 3e 69 7a 11 3e
       0.13610464 0.0508906 0.18252546 0.14206852
000240 e1 71 be 3d d5 d8 03 3e 46 b9 7a 3e 4c a6 6f 3d
       0.092990644 0.12875684 0.24484739 0.058508202
000250 72 50 98 3e cf 2a 8f 3e c0 23 8d 3d 9e fd 5f 3d
       0.29748875 0.27962348 0.068915844 0.054685228
000260 47 14 6b 3e 57 7f 91 3e a0 ac 1e bd 38 2f 84 3e
       0.22956954 0.28417465 -0.038738847 0.25817275
000270 2e ea 42 3c 1e 2c 97 bd cb 28 ac be c4 9a 5a be
       0.011896653 -0.073814616 -0.33624873 -0.21348101
000280 07 7e be 3c 2a f6 13 3e 82 c6 70 be a5 87 82 bd
       0.023253454 0.14449373 -0.23513225 -0.063735284
000290 54 16 94 bc 45 f4 bf 3d 85 1f 1c 3e 56 b5 8d 3e
       -0.018077053 0.093727626 0.15246399 0.2767741
0002a0 bd 42 6a 3e 8d 6e 33 3b a5 dc a0 bd b5 0e 10 be
       0.22877021 0.0027379126 -0.078545846 -0.1406811
0002b0 fb 7a 56 3e 2c 85 60 3e 84 c9 ed 3e 48 72 88 3e
       0.20945351 0.21925801 0.46442807 0.2664969
0002c0 85 0a da 3e 42 1d 37 3e a2 58 28 be 68 fc 9e bd
       0.4258615 0.17882255 -0.1644006 -0.077629864
0002d0 fa a4 aa 3d 5d ff e7 3e 8e 7e d3 3d 9a 84 5d 3e
       0.08332248 0.45312014 0.10326873 0.21632615
0002e0 0d cc 23 3d ba e5 6e 3e ec 0d 27 3e 47 70 ab 3e
       0.03998952 0.23329821 0.16313905 0.33484098
0002f0 42 90 92 3d 8d f3 59 be 1c 98 b6 3e 46 ca 21 3f
       0.07156421 -0.21284313 0.35662925 0.6319927
000300 ef 93 ee be 98 ea b6 3e 0c 9d 22 3c 85 5a 9d 3d
       -0.4659724 0.35725856 0.009925138 0.07683281
000310 04 b5 3a 3e c9 2f 2e be d3 bc 0c bc 82 e7 6e 3e
       0.18233114 -0.17010416 -0.008589941 0.233305
000320 36 a7 7e bd f8 47 a5 3d 47 ea b3 3d e7 8e cb 3c
       -0.062171184 0.080703676 0.08784919 0.024848415
000330 87 9c 28 3e 40 bf ea 3c 15 13 74 3d d8 5a 70 3e
       0.1646596 0.028655648 0.05958851 0.23472154
000340 2a aa 5f 3d dd b4 82 3d ad aa 2b ba e0 0a 10 3e
       0.05460564 0.06382153 -0.0006548565 0.14066648
000350 77 92 7e 3c c6 23 a3 bc bf d1 7a bd cc 61 80 bd
       0.01553785 -0.019914519 -0.061235186 -0.06268653
000360 9d 97 ce 3d 07 c0 5e 3c b6 3e 12 3e e1 82 c6 3a
       0.10087512 0.013595588 0.14281735 0.0015145206
000370 0a 1c 1e 3d 49 47 90 bd 03 05 da 3d 4f a5 af bc
       0.03860096 -0.070448466 0.10645487 -0.02144113
000380 0b 87 ad 3d 71 fb 1f be 11 4a 14 3b 46 04 f6 bd
       0.08473023 -0.15623261 0.0022627155 -0.12012534
000390 54 a4 5c bd bf 04 81 be 78 cc ed bd 16 95 c4 3c
       -0.053867653 -0.25198933 -0.11611265 0.023996871
0003a0 fe 7e 05 3e 8d 30 d7 3c ff 2b 34 3d 16 92 35 be
       0.13036725 0.026268268 0.04398727 -0.17731509
0003b0 10 ec ee bd dc da 24 bd 47 46 b4 bd 70 7b 24 bd
       -0.11666119 -0.040247783 -0.08802467 -0.04015678
0003c0 41 53 fc 3d 54 da 66 3d c9 e9 4e 3d 4f ee 89 3c
       0.12320567 0.056360558 0.050515924 0.016837267
0003d0 3b 67 91 bc 19 75 69 bd e9 ff ae bc 4f 49 48 3b
       -0.01774942 -0.05699644 -0.021362262 0.0030561273
0003e0 fc 61 8e 3d 1e 80 8f 3d 1e fc ce bc 9a c6 27 3e
       0.06952283 0.07006858 -0.025266703 0.16384354
0003f0 47 67 4c be 82 65 a4 bc f0 6e 76 bd 8c 14 8c 3d
       -0.19961272 -0.020067934 -0.060164392 0.068398565

fc1.weight f4 [9, 98]
000000 66 f8 09 3f 08 c9 3f be c5 3b 5f 3e 03 f0 7f be
       0.5389465 -0.18729031 0.21800144 -0.24993901
000010 64 2a ed 3e c5 05 58 bf 6d 3c 4a 3f d9 6d 3a be
       0.46321404 -0.84383804 0.7899845 -0.18205966
000020 fb 1b ba bd 20 d4 41 3f 3b 28 ec be 22 b5 a2 3e
       -0.09087368 0.757143 -0.46124443 0.31778818
000030 82 7b 6b bc c3 8a be bf 6f df 10 3d bf 7f 46 3a
       -0.014372708 -1.4886097 0.035369333 0.0007572136
000040 c3 74 11 be 3e 72 e0 3e 7d d1 00 bf ed a1 e4 b9
       -0.14204697 0.4383716 -0.50319654 -0.00043608193
000050 2a 56 b5 be fe a0 32 3f 70 45 6d bd b5 72 6b 3f
       -0.354173 0.69776905 -0.05792755 0.91971904
000060 57 3f 08 bf 9e d9 51 be 1d 4d 82 bd e0 28 ad be
       -0.5322165 -0.2049317 -0.063623644 -0.33820248
000070 91 30 03 bf 7d 43 48 bf 57 a8 3b be be d7 04 3f
       -0.5124598 -0.7822798 -0.18325935 0.51891696
000080 3d 1d 00 3e 98 9f 1b bf 8c c9 a8 3e a6 c1 27 bd
       0.12511154 -0.60790396 0.32966268 -0.040956162
000090 6c 39 2f be e9 d4 a8 3d a4 e7 11 3e 53 20 d6 bd
       -0.17111748 0.082437344 0.1424852 -0.10455384
0000a0 9b 5b 7f be 08 de 26 bf dd 58 cd 3e 8e c9 94 3e
       -0.24937288 -0.6518254 0.4010686 0.29060024
0000b0 85 28 1d 3d 9f e1 fb 3c 63 a4 06 3c 4c a4 80 3e
       0.03836872 0.030747233 0.008217904 0.2512535
0000c0 93 b1 09 3f 26 95 85 be 44 55 c3 bd 12 1e 81 3e
       0.5378658 -0.26090354 -0.095377475 0.25218254
0000d0 65 d7 3e be ca df 56 bf 6e 06 ee be 15 56 f8 3d
       -0.18636854 -0.83935225 -0.4648928 0.12125794
0000e0 6a 9f 9e 3d dd 94 e5 bd b4 b4 15 bf 46 8d 18 3e
       0.077452496 -0.11210034 -0.58478856 0.14897642
0000f0 2d 08 51 bf 00 46 61 bd 89 4a a6 be 88 be ac 3e
       -0.816531 -0.054998398 -0.3247874 0.33739114
000100 4d 26 f9 3e 84 5c 82 be d6 55 2a bf c3 08 65 be
       0.48662034 -0.2546121 -0.66537225 -0.22366624
000110 08 d4 1b 3c 20 f1 42 3f 91 df d7 bc 35 14 cf be
       0.009511001 0.7614918 -0.026351722 -0.40445104
000120 d1 30 3f 3f 49 72 09 3e 9b 72 c1 3d ff 77 45 3e
       0.7468386 0.13422503 0.094456874 0.19284056
000130 dc 8f 81 bf 5c 9e 22 3e 03 4c bf be 44 d9 d6 3c
       -1.0122027 0.15880722 -0.3736268 0.026226647
000140 76 40 1d bf 5d d1 fd 3e 16 37 19 3f a1 84 fe be
       -0.61426485 0.49573794 0.5984968 -0.49710563
000150 93 9f 61 be b2 86 36 3d 3e e8 0c bf df 71 25 3e
       -0.22033529 0.04456205 -0.55041873 0.1615672
000160 8f b9 1b be 0d fb f1 bd 3f 57 44 be 9e 92 b7 be
       -0.15207504 -0.11815462 -0.19173907 -0.35854048
000170 8a 99 10 bf 32 be 1a be d5 a5 d4 be 93 31 92 bf
       -0.5648428 -0.15111616 -0.4153277 -1.1421379
000180 65 2c 43 3d a6 e6 f4 3e b9 1e db b8 4c 03 98 3d
       0.04764976 0.4783222 -0.00010448456 0.07422504
000190 75 63 80 3e 19 fd 4b 3e 53 67 e6 3e cd 71 2b 3e
       0.2507588 0.19920768 0.45000705 0.1674263
0001a0 61 97 78 3f bf b8 05 3e be ae ae 3e 68 9e c6 be
       0.97105986 0.13058756 0.34117693 -0.3879273
0001b0 f3 e7 2a 3e c2 62 c3 bc 8a 77 a2 3d db 01 7b 3f
       0.16690044 -0.023850802 0.079329565 0.98049706
0001c0 98 48 05 3f fa e3 2c 3e b7 78 7a 3e 0c f3 dc be
       0.52063894 0.16883841 0.24460112 -0.4315418
0001d0 ba 53 a8 bd ed e4 43 be 27 71 5f 3f 4c 6b 69 be
       -0.082190946 -0.19130297 0.8728203 -0.22794837
0001e0 95 b1 80 bd be cf 2a 3f 81 cb 54 bf 39 9f 74 3e
       -0.06283871 0.6672324 -0.8312302 0.23888864
0001f0 70 2b 74 be f2 52 08 be 47 ed 73 bf 00 5b 8b be
       -0.23844695 -0.13312891 -0.9528393 -0.27217865
000200 9d 46 7b 3d cf 71 2a be 2d b3 01 c0 a4 69 da 3e
       0.06134664 -0.16644977 -2.026561 0.42658722
000210 92 60 bc 3d 2e dc b4 bd 3d 11 8e be e5 9b c7 be
       0.09198107 -0.088310584 -0.27747527 -0.38986126
000220 96 1b 9d bf fa 1a 9b bd 4f aa 33 be 41 d5 6f be
       -1.2274044 -0.07573505 -0.17545436 -0.23421194
000230 0e 25 26 be 2d 26 bc 3c 7b 0a 84 be 63 bb 7a 3f
       -0.16225073 0.022967422 -0.25789246 0.9794218
000240 b8 88 ef 3e 92 65 36 3e 8f a3 04 3f 93 26 15 be
       0.46783996 0.17812183 0.5181207 -0.14565496
000250 5d 05 cc 3d ba f5 af bd ad 88 14 3e 2b fa b5 3e
       0.099619605 -0.085917905 0.14505263 0.35542426
000260 97 52 e8 bd a0 be 07 bf 1f c2 ce 3e c3 67 0d 3f
       -0.11343878 -0.53025246 0.40382478 0.5523645
000270 b1 b6 f8 3e 16 23 1b bd eb d5 ed be c8 ae c5 3e
       0.48576882 -0.037875257 -0.4645227 0.3860991
000280 4d 98 4c 3f 68 b5 40 3f ef 5f 56 be 2c fd 4a bd
       0.7991989 0.75276804 -0.20935033 -0.04955785
000290 41 85 68 be 40 80 18 3e 84 71 33 bd 00 65 16 3f
       -0.22707082 0.14892673 -0.04380943 0.58747864
0002a0 0d 13 96 be b6 db d1 be 06 fd 91 be 38 b3 ac 3d
       -0.2931141 -0.4098794 -0.28513354 0.08432621
0002b0 a6 9f 25 3e c6 51 bf be bd e7 09 3d f7 b3 35 bc
       0.16174182 -0.37367076 0.03366827 -0.01109027
0002c0 7d 80 d2 3d f8 d4 a8 3c fd 75 54 bd 58 a8 34 bf
       0.102784134 0.020609364 -0.051870335 -0.7056937
0002d0 8c 65 8c 3e fd 8a ac 3e f4 d6 63 bb 65 31 a7 bd
       0.27421224 0.3369979 -0.0034765573 -0.08163718
0002e0 5a 8b 1a 3f 9a 28 27 bf 88 c5 19 be 56 24 81 3d
       0.60368884 -0.6529633 -0.15016758 0.06305759
0002f0 45 7d 95 bd 9a 4c b4 3e ab c6 ab be 86 2e ce bf
       -0.07299284 0.35214692 -0.3355001 -1.6107948
000300 70 d4 b4 3e ad d6 4b 3e ab d6 42 be cb 0c fd be
       0.35318327 0.19906111 -0.19027202 -0.49423823
000310 d1 dc 45 bf 82 01 03 3d ef 7f e6 bd d3 79 44 3d
       -0.77290064 0.03198386 -0.1125487 0.047967743
000320 c5 b2 c8 3d 77 0a 5c 3f e9 27 59 bd 67 b9 74 bd
       0.097997226 0.8595347 -0.053016577 -0.059747126
000330 54 42 df bd 93 fd 0b bd cd 00 21 c0 24 dc a9 be
       -0.10901323 -0.034177374 -2.5156739 -0.33175766
000340 df 91 95 be c6 26 7d bf c2 56 58 be 5e 73 90 be
       -0.29212853 -0.9888729 -0.21126845 -0.28213018
000350 f6 f4 bd 3d 48 aa d5 bd 3d 8e 8d 3f 58 84 58 3e
       0.09275238 -0.10432869 1.1059033 0.21144235
000360 c9 37 14 3f 1d 97 00 3f 6e 70 70 bd 9f d7 d2 bf
       0.5789762 0.5023058 -0.05870097 -1.6472052
000370 f3 29 04 bf 6f f0 2a bf 57 d4 df bd 85 37 63 be
       -0.5162651 -0.6677312 -0.109291725 -0.22189148
000380 41 82 75 3e 3d f6 61 bc 2b dd 1f bf 45 00 33 3e
       0.23975469 -0.013791618 -0.6244685 0.17480572
000390 e9 d9 5c bf ca d8 b2 3d ab cf ae bd 4e 28 6b 3e
       -0.86270005 0.087327555 -0.08535703 0.22964594
0003a0 11 c2 7a be d6 c4 67 be ae cd 3c bf e0 ce 0f 3d
       -0.24488093 -0.2263368 -0.7375134 0.0351094
0003b0 40 1a 98 bd 7b 21 e2 bf 53 5f 8a 3f 14 d2 25 be
       -0.07426882 -1.7666467 1.0810341 -0.1619342
0003c0 12 b2 71 be c2 b9 81 3f e9 ac 10 bf 3e 8c 50 bf
       -0.23603085 1.0134814 -0.5651384 -0.8146399
0003d0 df 11 9c 3d 5c 38 2c be 49 8b 32 3f ad af 78 bd
       0.07620596 -0.16818374 0.6974378 -0.060714412
0003e0 c6 ee 88 be 5e af 04 3f 11 1a ad 3e 5b 0a 9d 3e
       -0.2674467 0.5183009 0.3380895 0.30671963
0003f0 7c e3 ce 3d 7e bf bf be 91 8b 37 bf 8e 5e ea be
       0.10101983 -0.37450784 -0.71697336 -0.45775265

fc1.bias f4 [9]
000000 4a 8d ae 3d 36 83 a1 bd 7c f0 a4 3d bc de b7 b9
       0.085230425 -0.078863546 0.08053681 -0.0003507043
000010 ca 6f ab bd 21 36 b1 3d 40 f4 66 3c df c9 4e 3d
       -0.083709314 0.086529024 0.01409632 0.050485488
000020 27 56 8f 3d
       0.06998854

exp_avg f4 [392, 1]
000000 4b 62 58 be 5d 1d 89 bd 68 77 1b 3e 44 1a 4a 3e
       -0.21131246 -0.06695054 0.15182269 0.19736582
000010 5f 4c 01 3f 12 67 8a 3c 49 18 a5 3c c6 f0 a5 be
       0.5050716 0.01689485 0.020153182 -0.32410258
000020 14 dd c1 3f 2f 90 1e 3f 8f db 84 3d e1 91 50 bf
       1.5145593 0.61938757 0.0648719 -0.81472594
000030 cd 55 90 3e 01 e3 3c 3c a1 c9 20 3e b9 25 2c 3f
       0.2819046 0.011528731 0.15701915 0.6724506
000040 b7 ec d5 3d 67 26 29 3e dd 90 53 3f ac 72 23 3d
       0.104455404 0.16518556 0.8264292 0.03990428
000050 58 c9 12 bf a8 91 4c bf a8 46 d4 bb 56 d6 47 bf
       -0.57338476 -0.79909754 -0.0064781494 -0.78061426
000060 c0 88 8b bd 7c 32 16 3f 0e e7 46 bd de b9 89 3d
       -0.06813192 0.58670783 -0.048560195 0.067249045
000070 82 08 13 bd 98 0f 1f 3d de 43 3b 3e 48 25 6b bf
       -0.035896786 0.03883323 0.18287608 -0.9185376
000080 43 e2 2c bf d9 97 d5 be 88 cb db 3d 7f 94 fe bc
       -0.6753275 -0.41717413 0.1073218 -0.031076668
000090 d3 a6 b6 3d 4b cc a3 bd d8 d1 26 be 9b 72 93 bd
       0.08918538 -0.0799795 -0.16290987 -0.07199594
0000a0 09 9c b3 be de ed de 3e 20 20 17 3f da f0 2c be
       -0.35079983 0.43540853 0.59033394 -0.16888753
0000b0 03 c5 e8 3d 69 01 f1 bc e1 44 8e bc 8a d4 41 3e
       0.11365702 -0.029419618 -0.017366828 0.18928733
0000c0 21 ea 0d bf ff 04 9a bd 02 4f 99 3e ef eb 85 3d
       -0.5543538 -0.07520484 0.2994309 0.065391414
0000d0 e3 6d 2c 3e e2 e7 b6 3e db 3f 71 3e 2d da ff 3b
       0.16838793 0.35723788 0.23559515 0.007807991
0000e0 43 ba 05 3d 9c 89 af 3e 05 a4 d1 3d 97 0e 89 bd
       0.032648336 0.34284675 0.10236362 -0.06692236
0000f0 1b 54 58 bd e6 bd b5 3d 56 ff 06 bf d0 44 a4 bc
       -0.052814584 0.08874111 -0.5273336 -0.020052344
000100 f8 b3 d4 3e a3 38 01 3c e7 ed aa 3e 15 38 e9 3d
       0.41543555 0.007887038 0.3338463 0.1138765
000110 da 58 40 3e 5f c2 6d 3e ad ca 2c 3c 28 5e 0a 3c
       0.18783894 0.23218678 0.010546369 0.0084453
000120 ea 84 42 3d 05 5b fb bd 3d 70 1a 3f 08 ee 0a bf
       0.047490038 -0.1227322 0.6032751 -0.54269457
000130 b2 56 2c bf 34 d3 56 bd d6 f3 19 3f 99 0a 5b 3f
       -0.67319787 -0.052447513 0.6013769 0.85563046
000140 b5 f9 08 be dc 99 97 3d bb a2 1b 3e 11 64 53 bf
       -0.13376506 0.07402393 0.15198795 -0.82574564
000150 97 52 58 3f 64 0e fb 3d c9 5c c2 bd 73 81 9b 3d
       0.8450102 0.12258604 -0.094903536 0.0759305
000160 87 ad eb 3e 75 e2 b4 be 46 ea c9 3c 1d 44 3a 3e
       0.46030828 -0.35329023 0.024647843 0.18190046
000170 64 0a 03 3f 6c bb 5c be de 0b c1 3e bd 72 ab 3d
       0.5118773 -0.21555871 0.37704366 0.08371494
000180 25 17 90 3e c9 3f c2 3e dc 85 40 3d 54 02 a1 be
       0.28142658 0.3793929 0.04700266 -0.3144709
000190 45 61 06 3d b5 88 c2 3e 4d 2f b9 3d 8c d4 fe bc
       0.032807607 0.37994924 0.09042225 -0.03110721
0001a0 68 a0 88 bd b8 7c 58 bd 50 1d 1d 3f 77 5e 00 3e
       -0.0667122 -0.052853316 0.6137285 0.12536035
0001b0 de 9a a0 3c 25 1f bd bd 0f 61 2b be e3 0a c6 ba
       0.019605096 -0.09234456 -0.16736244 -0.0015109446
0001c0 7d 0e 6c bd aa e4 ba be 42 d3 ff bc 4d df 2d bb
       -0.057631005 -0.36502582 -0.031228665 -0.0026530803
0001d0 54 8d 12 3d 54 36 1d 3c e6 bd 58 be 7b 84 99 bc
       0.035779312 0.009595472 -0.2116619 -0.01873993
0001e0 42 f7 00 bc c8 6c 27 be 93 39 89 bd dd 10 b6 3c
       -0.007871451 -0.1635009 -0.067004345 0.022224838
0001f0 5e 99 ee bc 1b e5 ac 3c d4 5b 00 be c9 88 5e bd
       -0.029125866 0.02110534 -0.1253503 -0.054329667
000200 81 ec d6 bd ac 88 1d be b9 7a 47 bf 7c f8 ce be
       -0.10494328 -0.15384167 -0.77921635 -0.40423954
000210 b7 e1 12 3c 9a c5 e4 bd 46 cd 36 bd 36 66 83 bd
       0.008964947 -0.11170502 -0.044629358 -0.064159796
000220 06 73 07 3d 95 5e 17 be e1 5f 01 be 30 9a 97 3d
       0.03306868 -0.14782174 -0.12634231 0.07402456
000230 30 0e 0d 3e 32 9a 38 be cb 69 3d bd 21 94 28 bc
       0.13774943 -0.18027571 -0.04624347 -0.010289223
000240 f8 80 6f 3a 49 65 01 bd e7 41 63 be 04 ea 1f bc
       0.00091363443 -0.031590734 -0.22193108 -0.0097603835
000250 bf 52 1d 3e ff 14 bb bb 38 65 be 3c ac 09 98 3d
       0.15363596 -0.00570929 0.023241624 0.0742372
000260 7b 1f 3e 3e c2 36 0e 3d 46 23 46 bd 5b 85 75 3d
       0.18566696 0.03472019 -0.048373483 0.05994163
000270 3d ec 82 3a 25 5a 31 bd cc 3f 17 be 60 1d ed bc
       0.0009988617 -0.04329886 -0.1477043 -0.028944671
000280 fe 23 28 be 74 01 25 be 9a ff 71 3e c6 5a 7f bf
       -0.1641998 -0.16113836 0.2363266 -0.99747884
000290 e4 af 22 3d 4d 0e 1e be b6 ed 0c bd 64 fc aa 3e
       0.039718524 -0.15435143 -0.034406386 0.33395684
0002a0 b4 98 6d be 56 e6 7b be 22 35 26 be 01 c5 e2 bd
       -0.23202783 -0.24599585 -0.16231206 -0.11072732
0002b0 a9 57 6f 3e 98 02 88 3e 82 cf e0 bb 13 48 69 bc
       0.23373283 0.2656448 -0.0068606744 -0.014238375
0002c0 f1 a8 08 3d e5 c4 69 3f c1 ca cc bc 02 10 d6 3b
       0.03336424 0.9131606 -0.024999024 0.00653267
0002d0 ad 7e e3 3c 9e 3b d3 be 0e 8f 08 3a b6 e3 6b 3c
       0.027770365 -0.41256422 0.0005209305 0.014397552
0002e0 c4 47 77 be b8 ef 40 bc 92 45 24 3e 17 0d 44 3e
       -0.2414847 -0.011775903 0.16042164 0.19145618
0002f0 1b f2 6b bd 53 9a 9a ba 5e ae 56 3d 5e a8 bc 3c
       -0.057603937 -0.001179526 0.052412383 0.023029502
000300 ee 15 8d bd da 3d 95 be dd 2f 61 3e 13 62 f7 3d
       -0.068889484 -0.29148751 0.21990915 0.12079253
000310 3c 90 b3 40 28 59 09 3f 61 99 3b bf 12 b7 93 3e
       5.6113567 0.53651667 -0.7328091 0.2885061
000320 46 59 d7 bf d4 4a 62 c0 39 a4 cb 3e 6f e0 9e 40
       -1.6824119 -3.5358171 0.3977373 4.9648967
000330 f0 c0 23 bf f7 77 8e 40 81 56 4b 3f 2b 16 a8 3c
       -0.63966274 4.452144 0.7942887 0.020518383
000340 e9 7c d0 bf ae 9a 32 be 51 d6 40 3e 6a 18 31 c0
       -1.628812 -0.17441818 0.18831755 -2.767115
000350 1a d4 8d 3e c7 6f d1 40 73 4d 8c 40 82 83 28 3d
       0.27700883 6.5448947 4.3844543 0.04114104
000360 e5 61 2e bf 28 f0 06 c0 79 f5 47 3e b4 e4 a9 c0
       -0.68118125 -2.108408 0.19527234 -5.309168
000370 6d 1a 23 c0 b2 a6 0f 40 6a 97 85 be 67 b6 aa be
       -2.548488 2.2445493 -0.26092082 -0.33342287
000380 05 74 09 3f 00 92 af 3f e4 a1 21 3f b8 41 81 40
       0.53692657 1.3716431 0.6313765 4.0392723
000390 d1 bb 33 3f c8 9c 56 3f 13 b5 e7 3e d1 98 52 bf
       0.7020846 0.8383298 0.45255336 -0.8226443
0003a0 ec 5a 06 3f 95 e9 fa be af eb ef bd 8e 35 ec 3f
       0.52482486 -0.49006334 -0.11714875 1.8453844
0003b0 ff 59 04 3e 21 df 59 3f 8a 65 87 be 6c 29 4c bd
       0.12924956 0.8510609 -0.26444656 -0.04984419
0003c0 91 47 57 3d c3 12 cc 3e d4 e3 80 3e e0 8b 23 3e
       0.052558485 0.39858064 0.2517382 0.15971327
0003d0 11 f3 a3 3e 52 79 9f 3d 99 79 b7 3f b0 32 f0 bf
       0.32021382 0.07786812 1.4333984 -1.8765469
0003e0 0d c5 8a 3e ef 0a 3a 40 8e 25 c7 3e 93 b5 fd 3f
       0.27103463 2.9069173 0.3889584 1.9821037
0003f0 51 6a 50 be be f4 87 3f fb a6 7c bf d4 c8 d0 bd
       -0.20353056 1.0621564 -0.9869229 -0.10194555

exp_avg_sq f4 [392, 1]
000000 3f bb 6a 3d fb f0 03 3b 0d 79 1c 3d 4e 96 7d 3d
       0.057307478 0.002013265 0.03820138 0.06191092
000010 0d f9 c0 3e db 4a c3 3b fc d3 b1 3a ae 38 2b 3e
       0.3769001 0.005959851 0.0013567205 0.1672084
000020 de f5 69 40 f6 fb 7b 3f 86 6a 36 3b 33 56 63 3f
       3.6556315 0.98431337 0.002783449 0.88803405
000030 e1 08 ec 3d 03 5a c0 39 90 26 19 3d c2 a1 31 3f
       0.11525131 0.00036688158 0.03739029 0.6938745
000040 db 64 c0 3c fa 96 a9 3d 3a 07 83 3f f4 87 44 3b
       0.023485592 0.082807496 1.023658 0.002998826
000050 5a b2 e6 3e cc cf 89 3f f6 9b 2e 3c 49 61 6e 3f
       0.45057946 1.076654 0.010657301 0.93117195
000060 89 e4 c9 3b f2 53 fa 3e 79 c2 98 3b 02 17 d5 3b
       0.0061612767 0.4889217 0.004661855 0.006502987
000070 0b 9e 39 3c b0 20 4e 3b ec 4b 53 3d a3 9e a5 3f
       0.011329184 0.0031452589 0.051586077 1.2939037
000080 9f 73 48 3f ce 3c 0b 3e e9 3d 8b 3c a1 06 9b 3a
       0.78301424 0.13597414 0.016997295 0.0011827537
000090 e9 7c 53 3c 69 9b 66 3d 51 34 24 3d d0 4d c3 3b
       0.012908199 0.056300554 0.040088955 0.0059602037
0000a0 21 ca 57 3e 1e 8e 93 3e 52 d2 fd 3e 81 0e 24 3d
       0.210732 0.28819364 0.49574524 0.040052895
0000b0 f9 ff e2 3c d0 5a 9b 39 2c 69 bf 39 db 7a f9 3c
       0.027709948 0.00029631564 0.00036508718 0.03045409
0000c0 07 4d e8 3e cf 5c 79 3b 9f 09 98 3d 31 a6 98 3b
       0.45371267 0.0038049703 0.0742371 0.0046584834
0000d0 9c 54 4c 3d fe a6 48 3e 76 fa b1 3d 62 ec 0c 3c
       0.049885377 0.19594952 0.0869035 0.00860128
0000e0 b0 2e 0e 3a 0f cd 41 3e 38 bc 8f 3c 5e 20 d5 3b
       0.0005423827 0.1892588 0.017545804 0.0065041026
0000f0 cb ba f9 3b 4c 44 bb 3b 2f ee 5a 3f 48 92 4f 3c
       0.0076211444 0.0057149287 0.8551969 0.0126691535
000100 f5 1e 95 3e f6 af c6 3a 4b d5 19 3e 81 af 9d 3c
       0.2912518 0.0015158642 0.15022771 0.019248726
000110 23 57 8d 3d b1 a8 96 3d 14 8b f5 3b 4f 6d 9a 39
       0.06901386 0.07356394 0.007493386 0.0002945461
000120 c1 ad af 3b f5 a7 9b 3c 53 18 0c 3f da 35 d8 3e
       0.0053612893 0.019000987 0.54724616 0.42228585
000130 50 44 42 3f cd d5 d6 3b 44 6e 03 3f f0 5d 9a 3f
       0.75885487 0.0065562488 0.51340127 1.2059917
000140 21 6a f4 3c a5 2b 02 3c 09 c8 56 3d ab d6 a8 3f
       0.029835762 0.007944976 0.052436862 1.3190511
000150 14 82 8c 3f 7f 00 d5 3c a9 bd a6 3c 6a 0a 74 3b
       1.0977197 0.026001213 0.020354109 0.0037237653
000160 6b 40 aa 3e 6b e4 3e 3e a1 c6 44 3b fb 3a 8b 3d
       0.33252272 0.18641822 0.0030025619 0.06798359
000170 2d 12 be 3e e8 bd 08 3e aa 82 69 3e 9a c6 0d 3d
       0.37123242 0.13353693 0.2280375 0.03461323
000180 da 6b fd 3d 6b 23 8a 3e bb 8a bf 3b 41 51 02 3e
       0.12374087 0.26980147 0.0058453954 0.12726308
000190 f3 53 8e 3a 0a c7 7d 3e c5 af da 3b b8 e7 43 3b
       0.0010858759 0.24782959 0.0066737854 0.0029892754
0001a0 d4 09 1b 3c 1e 30 a8 3a dd 4e 10 3f 6f a6 5d 3d
       0.009462792 0.0012831723 0.56370336 0.0541138
0001b0 16 d3 42 3a 99 50 60 3c ea cc 3f 3d d4 7d 2b 39
       0.0007431967 0.013691091 0.04682628 0.00016354705
0001c0 f4 65 ad 3b ad 90 58 3e 01 e9 db 3a bf 5d 74 3b
       0.005291695 0.2114894 0.0016777815 0.0037287322
0001d0 48 bd b5 39 26 49 d0 39 4f 56 e0 3c a8 68 8a 3a
       0.00034664036 0.0003972735 0.027384905 0.0010559754
0001e0 a2 c3 4e 3a 20 8e 2f 3d c1 aa 98 3b 24 10 92 3a
       0.0007887428 0.04286015 0.0046590273 0.0011143726
0001f0 20 0c ab 3a 32 07 15 3a af 04 d8 3c 00 de 06 3c
       0.0013049878 0.0005684971 0.02636942 0.00823164
000200 8e 2c 92 3c e3 28 57 3d 7f 92 7f 3f 7d 49 5e 3e
       0.017843511 0.052529227 0.9983291 0.21707721
000210 e3 2e 0b 39 f5 33 81 3c 45 61 88 39 f6 ba 68 3c
       0.0001327354 0.015771845 0.00026012413 0.014204731
000220 29 b6 46 3b 10 6e 04 3d 44 6c 3d 3c c8 37 11 3c
       0.0030320978 0.032331526 0.011561457 0.008863397
000230 88 5d 02 3d 2c ac 38 3d c5 d1 f1 3a b7 8a 13 39
       0.03182748 0.04508607 0.0018449357 0.00014070688
000240 e1 c6 90 3a e5 68 42 3a 10 4f 37 3d 4e 82 88 39
       0.0011045599 0.0007416143 0.044753134 0.00026037026
000250 97 fc fb 3c eb b4 96 38 68 4c dd 3a 46 87 5a 3c
       0.030760093 7.186256e-05 0.0016883733 0.013337916
000260 e1 14 44 3d 24 92 0c 3a ef f3 e3 3b a3 83 bf 3b
       0.047871474 0.0005362353 0.0069565694 0.0058445497
000270 16 ff 8d 39 83 2a 30 3b ef 71 07 3d ed 92 a2 3a
       0.0002708367 0.0026880808 0.03306764 0.0012403406
000280 4f 67 02 3e dc f1 ce 3c 97 cc 0a 3e fe 61 d2 3f
       0.12734722 0.025261812 0.13554607 1.6436155
000290 5c 31 14 3b 23 c1 12 3d ff 5a ba 3a 5f 17 22 3e
       0.0022612428 0.03582872 0.0014217793 0.15829228
0002a0 5d 13 aa 3d 5b 59 da 3d bc ee 16 3d a2 60 85 3c
       0.083044745 0.106615745 0.03684877 0.01628143
0002b0 03 10 b2 3d 0e af 00 3e b3 c5 fe 3a 15 e6 0e 3b
       0.0869446 0.12566778 0.0019437581 0.002180462
0002c0 ef ab 2f 3b 9c d4 be 3f 68 13 b8 3a f5 c6 24 38
       0.0026805361 1.4908633 0.001404387 3.928594e-05
0002d0 71 93 9e 3a 2d 8d 96 3e d0 a4 9a 37 f9 22 d8 39
       0.0012098384 0.29404584 1.8434977e-05 0.00041224787
0002e0 75 02 95 3d 07 11 98 3a fe 7a 46 3d 58 79 6f 3d
       0.07275859 0.0011601754 0.04845714 0.05846533
0002f0 69 ce 7c 3b 88 0c 79 3a ab 11 a0 3a e1 2b c2 3b
       0.0038575178 0.00095004635 0.0012212297 0.005925641
000300 d5 85 05 3d 47 6e e7 3d 61 a3 40 3d 6c cf 14 3d
       0.032598335 0.113003306 0.04703081 0.036330625
000310 12 12 4e 42 05 04 a1 3e 94 63 6b 3f 02 b0 bc 3d
       51.517647 0.3144838 0.9194882 0.09213258
000320 02 0a 96 40 81 d7 9c 41 0e b5 a0 3e 0f 5e 27 42
       4.6887217 19.605227 0.31388134 41.841854
000330 14 6f 06 3f 62 82 f4 41 63 a8 85 3f e7 24 01 3e
       0.5251324 30.563663 1.0442013 0.12611733
000340 eb 96 80 40 e8 e7 49 3d 31 58 ec 3d fc 8b 3b 41
       4.0184226 0.04929343 0.11540259 11.721676
000350 fa 1a d1 3d 20 70 81 42 d5 82 ed 41 63 2a 3b 3c
       0.102102235 64.718994 29.688883 0.01142368
000360 89 08 54 3f ef 36 00 41 27 45 7c 3d 02 ab 44 42
       0.82825524 8.0134115 0.061589386 49.167
000370 79 20 22 41 27 a9 05 41 58 a9 b1 3d bc fe 77 3e
       10.132928 8.353797 0.08674878 0.24218267
000380 80 0f 72 3e c2 a8 69 40 ae 79 5f 3f 9e 08 d8 41
       0.23638725 3.6509252 0.87295043 27.004208
000390 a5 78 40 3f 13 03 8b 3f 4c 8d bc 3e aa 30 64 3f
       0.7518409 1.0860313 0.3682655 0.89136755
0003a0 e0 43 ae 3d a7 97 ba 3e dd 69 7a 3d a1 ae 88 40
       0.0850904 0.36443827 0.061136115 4.271317
0003b0 53 57 6f 3c 62 20 9c 3f 3c 40 1f 3e 23 5d f5 3d
       0.014608222 1.2197382 0.15551847 0.11980655
0003c0 f2 9a be 3b 14 f0 93 3e 8b 7c 18 3e ef 72 57 3d
       0.0058168108 0.28894103 0.1489126 0.052599844
0003d0 26 66 7e 3e f2 36 75 3c b2 81 45 40 f6 0b ab 40
       0.24843654 0.014966713 3.086041 5.34521
0003e0 b0 74 09 3e 87 9b 5f 41 4e 87 82 3e 15 1c c0 40
       0.13423419 13.975471 0.25493854 6.003428
0003f0 6a fc a6 3d c2 7b f7 3f ee c8 cd 3f 13 90 bd 3c
       0.08153613 1.9334643 1.6076944 0.023139989
