models/cfv/mmkfcv2.pth (torch, 490360 bytes, 18 tensors)

lstm.weight_ih_l0 f4 [392, 1]
0	0x3f198c84	0.59980035
1	0x3de45d97	0.11150663
2	0x3eaa0252	0.33204895
3	0x3ea655cd	0.32487336
4	0xbd190165	-0.037354846
5	0xb9427cc7	-0.00018547765
6	0x3f1ef966	0.620993
7	0x3eb21d00	0.3478775
8	0x3f0abff6	0.5419916
9	0x3f864771	1.0490552
10	0x3e9feebc	0.31236827
11	0x3d80b236	0.06283991
12	0x3ebbf534	0.36710513
13	0x3f45c8d1	0.77259547
14	0xbf46968c	-0.77573466
15	0x3e610a38	0.21976554
16	0xbe5c2db6	-0.21501812
17	0xbe635125	-0.22198923
18	0x3f4e24c7	0.8052487
19	0xbe3a34cd	-0.18184204
20	0x3e839318	0.2569816
21	0x3e21a1a7	0.15784322
22	0x3d0a6da7	0.03379598
23	0x3f5024d6	0.8130621
24	0x3f2634ce	0.64924324
25	0xbedbd002	-0.42932135
26	0xbf1bb9fb	-0.6083066
27	0x3f882bdb	1.0638384
28	0x3f0ba30d	0.5454567
29	0xbf7f0390	-0.9961481
30	0x3f5d8d8c	0.8654411
31	0xbf1f95a6	-0.6233772
32	0x3efe70ac	0.49695337
33	0xbdca77f0	-0.098861575
34	0x3e4c5822	0.19955495
35	0x3f202699	0.62558895
36	0x3f7c6538	0.9859195
37	0x3f9dd3fd	1.2330319
38	0x3eab3d0c	0.33445013
39	0x3fdf1b46	1.7430198
40	0xbf0ae009	-0.542481
41	0x3c2f675a	0.010705793
42	0xbf296dea	-0.6618334
43	0xbe2d9153	-0.16949968
44	0x3e05dae4	0.13071781
45	0xbddd78c2	-0.10814048
46	0x3f01e572	0.5074073
47	0x3f9a28ad	1.2043663
48	0xbf34af31	-0.7057982
49	0xbdc048d8	-0.09388894
50	0xbf8b9271	-1.0904065
51	0xbe963619	-0.29338148
52	0x3e5e6753	0.21719103
53	0xbe871572	-0.2638355
54	0x3d97b13a	0.0740685
55	0x3f8adc4d	1.084848
56	0x3f3b5c32	0.73187554
57	0x3f14a6bb	0.5806691
58	0x3f9f126c	1.2427497
59	0xbdaceaf9	-0.08443255
60	0x3f823be5	1.0174528
61	0x400d5900	2.2085571
62	0x3e0e3d79	0.13890637
63	0xbeaae4c9	-0.33377674
64	0x3ede8b9b	0.43465886
65	0xbf3c1aeb	-0.73478574
66	0x3f0fa845	0.56116134
67	0x3fa2ddb7	1.2723912
68	0x3f9227b8	1.1418371
69	0xbe2c85a8	-0.16847861
70	0xbf8e47e8	-1.1115694
71	0x3f8210cd	1.0161377
72	0x3edd97b1	0.43279794
73	0x3f0e3934	0.55556035
74	0xbffc446e	-1.9708383
75	0x3f069966	0.5257782
76	0x3e6deab8	0.2323407
77	0x3ea839f9	0.3285673
78	0x3ed4f2b3	0.41591415
79	0x3c9772e1	0.018487396
80	0x3e852d08	0.2601092
81	0x3f16891e	0.58802974
82	0xbe66998c	-0.22519511
83	0xbeca561a	-0.39518815
84	0xbfa4e336	-1.2881839
85	0x3ff7fd73	1.9374222
86	0xbfeb9f02	-1.84079
87	0x3fed21a6	1.8525894
88	0xbf254bca	-0.6456877
89	0x3f0f0702	0.5587007
90	0x3f843386	1.0328224
91	0xbdb734d3	-0.08945622
92	0x3ed7bec6	0.42137736
93	0x3f8980ac	1.0742393
94	0xbe5049ee	-0.20340702
95	0xbdff750c	-0.12473497
96	0x3d4ed046	0.050491594
97	0xbe341fa9	-0.17590202
98	0x3eb1e1fc	0.34742725
99	0x3db6cd28	0.08925849
100	0x3f15dafc	0.5853727
101	0xbe25b395	-0.16181786
102	0xbc17ae58	-0.009257875
103	0x3e878595	0.26469103
104	0xbe0e6e48	-0.13909256
105	0x3edca57a	0.43095
106	0x3bba0f2d	0.0056780786
107	0x3e884384	0.2661401
108	0xbf128aa1	-0.5724278
109	0x3d4f80db	0.050659996
110	0x3f41aa1d	0.756502
111	0xbcda083c	-0.026615255
112	0xbfa5a11d	-1.2939793
113	0xbcce3967	-0.025173856
114	0x3dd244a4	0.102669984
115	0x3d860e4b	0.06545695
116	0x3f19818c	0.599633
117	0xbe11a9ff	-0.14225005
118	0xbeb1c7d6	-0.34722775
119	0x3c8ae6de	0.01695579
120	0x3cec566f	0.028849808
121	0xbc02ae34	-0.007976104
122	0x3fa26a87	1.268876
123	0x3c9f2fa1	0.01943189
124	0xbf13face	-0.5780457
125	0x3ead754e	0.3387856
126	0xbda55c65	-0.080742635
127	0xbf0856cf	-0.5325746
128	0x3e26b04d	0.16278191
129	0xbe8e4541	-0.27787212
130	0x3f1024fb	0.5630643
131	0x3de35194	0.11099544
132	0x3f15fbfc	0.5858762
133	0x3f5b5443	0.8567545
134	0x3efa3398	0.48867488
135	0xbdad18ab	-0.08451971
136	0x3d121a73	0.035669755
137	0x3eca9165	0.39564052
138	0xbea4dbbb	-0.3219889
139	0x3d8cb8b1	0.068711646
140	0xbd5b7986	-0.05358269
141	0xbed18a5c	-0.40925872
142	0xbea56a85	-0.3230783
143	0x3f5f5bec	0.87249637
144	0x3f03c2a7	0.5146889
145	0x3c189390	0.009312525
146	0xbeb62728	-0.3557675
147	0xbdbabd5c	-0.09118149
148	0xbe62284f	-0.22085689
149	0xbf24d349	-0.64384896
150	0x3e4df763	0.20113902
151	0x3eaa9bb8	0.3332193
152	0x3d9caa17	0.076496296
153	0x3f439ad9	0.76408154
154	0xbe973e3c	-0.2953967
155	0x3e9f0dd1	0.3106523
156	0x3fa6d2ea	1.3033116
157	0xbe89e87b	-0.2693518
158	0xbeb6e632	-0.357225
159	0x3f981436	1.1881168
160	0x3ecd95bc	0.401533
161	0x3d2066b0	0.03916043
162	0x3ee4fa3c	0.44722164
163	0xbea2a470	-0.3176608
164	0xbe962d02	-0.29331213
165	0x3f30e956	0.6910604
166	0x3f8f14ad	1.1178185
167	0x3e0490d6	0.12945876
168	0xbfbfcf95	-1.4985224
169	0xbed5fa0e	-0.4179234
170	0xbc12ba44	-0.008955542
171	0x3bcf6073	0.0063286363
172	0xbe9d5347	-0.30727598
173	0xbea88c1a	-0.3291939
174	0x3f44e670	0.7691412
175	0x3cf96d2d	0.030447567
176	0x4027d672	2.6224637
177	0xbe6d0648	-0.23146927
178	0xbddc8da2	-0.10769202
179	0x3f082c6a	0.5319277
180	0x3ca7a785	0.020465622
181	0xbccd5e5d	-0.02506941
182	0xbfc6fec4	-1.5546498
183	0x3f206ddb	0.62667626
184	0x3e89fda7	0.26951334
185	0x3fc811c8	1.5630426
186	0xbe0eadeb	-0.13933532
187	0x3ee2453a	0.4419344
188	0x3f2280a7	0.6347756
189	0x3ea27f45	0.31737724
190	0x3abdbb44	0.0014475365
191	0x3e5bebeb	0.21476714
192	0xbcb8080c	-0.022464775
193	0xbe1630ba	-0.14667025
194	0x3d9c5081	0.076325424
195	0xbf467fcb	-0.77538747
196	0xbe59cf9c	-0.21270603
197	0xbf28e42a	-0.6597315
198	0x3e4a5dcc	0.19762343
199	0x3cfeace6	0.031088304
200	0x3e85ca74	0.26131022
201	0xbef6f185	-0.4823114
202	0xbf5de8ce	-0.86683357
203	0xbe991f65	-0.29906765
204	0x3eca236b	0.39480147
205	0xbf6ede2a	-0.93307745
206	0x3ec0586b	0.37567458
207	0xbce62997	-0.028096003
208	0x3ee53aba	0.44771367
209	0xbf8e68e0	-1.1125755
210	0xbede6791	-0.4343839
211	0x3df42875	0.11921779
212	0xbe5b8779	-0.21438397
213	0xbf83a993	-1.0286125
214	0xbbce2980	-0.0062915683
215	0x3e53b9fa	0.20676413
216	0x3f2decd3	0.6793949
217	0xbe4a5202	-0.19757846
218	0x3e9e20fe	0.30884546
219	0x3f41d0c0	0.7570915
220	0x3db41181	0.08792401
221	0x3e5d1513	0.2159007
222	0xbd33fd7f	-0.043942925
223	0x3f54a9c7	0.8307156
224	0x3ecd1ecd	0.40062562
225	0x3f5de187	0.8667225
226	0xbda570bd	-0.08078144
227	0x3f0d2a4d	0.5514267
228	0x3e88ff5a	0.26757318
229	0x3da54749	0.08070237
230	0x3b287c38	0.0025708806
231	0xbe5a4213	-0.21314268
232	0xbdbe1a26	-0.09282331
233	0xbeaefc9a	-0.34177095
234	0xbf97c5f1	-1.1857282
235	0x3f88d44b	1.0689787
236	0x3eddb9a2	0.4330569
237	0xbd5421d7	-0.051790085
238	0xbe388520	-0.18019533
239	0xbe18843f	-0.14894198
240	0x3f0e1a72	0.555091
241	0xbf0f387e	-0.55945575
242	0x3e883d00	0.2660904
243	0x3fb43a2e	1.4080255
244	0xbea5131c	-0.32241142
245	0xbde679a6	-0.11253671
246	0xbf5cc468	-0.8623719
247	0xbe488e00	-0.19585419
248	0xbeed573a	-0.4635561
249	0xbf07f0c4	-0.53101754
250	0xbd604159	-0.05474982
251	0xbeab8c94	-0.3350569
252	0xbd19baf0	-0.037531793
253	0xbea1d699	-0.31609038
254	0x3dc27cd9	0.09496469
255	0x3d959de2	0.073055044

lstm.weight_hh_l0 f4 [392, 98]
0	0xbeb276e8	-0.34856343
1	0x3e60ad93	0.21941213
2	0xbed95688	-0.4244883
3	0xbda4062f	-0.08008992
4	0xbd7d49f7	-0.061838116
5	0xbd6f4694	-0.058416918
6	0xbf1fae8b	-0.62375706
7	0x3e4dede7	0.20110284
8	0x3f1f17e0	0.62145805
9	0xbe0dd760	-0.1385169
10	0x3e3af0e6	0.18255958
11	0xbe2043a3	-0.15650801
12	0xbed0b4cd	-0.4076294
13	0xbe0ca7ca	-0.13735881
14	0x3eee9c64	0.46603692
15	0x3eeabe0e	0.45848125
16	0x3da71dc1	0.08159972
17	0xbe8ad373	-0.27114448
18	0x3f706ec6	0.93919027
19	0xbe65cd7e	-0.2244167
20	0x3dd3d63d	0.10343597
21	0x3e290185	0.16504486
22	0x3eb4aaaf	0.3528647
23	0x3d500965	0.05079021
24	0xbe93f8d3	-0.28900775
25	0x3e6a2e65	0.2286926
26	0xbeed2822	-0.4631968
27	0x3ea27d1d	0.3173608
28	0x3f240d2c	0.640826
29	0x3e7dbf68	0.24780047
30	0x3dc02fb5	0.093840994
31	0xbf3ea577	-0.7447123
32	0xbf21732a	-0.6306635
33	0xbe502072	-0.20324877
34	0x3e8decbf	0.27719685
35	0x3e0c70e7	0.13714944
36	0x3f2f74bc	0.685375
37	0xbd85036b	-0.064947926
38	0xbe8546f1	-0.26030686
39	0x3dc69e64	0.09698179
40	0xbe8176b2	-0.2528587
41	0xbf1a486c	-0.60266757
42	0x3f4bf35f	0.7966823
43	0xbf2a988e	-0.6663903
44	0x3efcb59a	0.493573
45	0x3e807bce	0.25094455
46	0x3dc689d7	0.096942596
47	0x3e37a64d	0.17934532
48	0xbe654b20	-0.22391939
49	0xbe4369cd	-0.19083329
50	0xbee68441	-0.45022777
51	0xbea39ffa	-0.3195799
52	0x3ed9b8d5	0.42523828
53	0xbe82d16a	-0.25550395
54	0xbe1a8d9e	-0.15093085
55	0x3ef2e872	0.47442967
56	0x3f158d13	0.5841839
57	0xbdb137c5	-0.08653215
58	0xbdbc26b8	-0.091870725
59	0xbf636552	-0.8882648
60	0x3ebaa43b	0.36453423
61	0xbcb37289	-0.0219052
62	0x3d7380c0	0.059448957
63	0xbea21f7e	-0.31664652
64	0xbebd2e32	-0.36949307
65	0xbcd71b46	-0.026258122
66	0x3f155d3f	0.5834541
67	0xbf0b0663	-0.5430662
68	0xbea16ef7	-0.31529972
69	0xbe48b1ff	-0.1959915
70	0x3ea2c490	0.3179059
71	0xbe1e34b7	-0.15449797
72	0x3e84be91	0.2592664
73	0xbebc7140	-0.36805153
74	0x3e69aa34	0.22818834
75	0x3e08b4ca	0.13350216
76	0x3ea9f6fa	0.3319624
77	0xbd733585	-0.059377212
78	0xbe2d9d13	-0.1695445
79	0x3c06b24d	0.008221221
80	0x3e2ea4ba	0.17055026
81	0x3e2058b6	0.1565884
82	0x3eca5fd5	0.3952624
83	0xbf185b9b	-0.5951478
84	0x3f4ab42e	0.7918118
85	0x3c7b0271	0.015320406
86	0xbf1c51b9	-0.610622
87	0x3f50aa49	0.81509835
88	0x3f1a7daf	0.6034803
89	0xbe508dd8	-0.20366609
90	0x3ea39abd	0.31953993
91	0xbe7d7eab	-0.24755351
92	0xbf3d0d54	-0.7384846
93	0x3e870ac5	0.26375404
94	0x3d02c530	0.031926334
95	0xbd5a26ea	-0.053259768
96	0x3ebb50b3	0.36585006
97	0x3f621cca	0.8832518
98	0xbf32167d	-0.69565564
99	0x3d44500f	0.047927912
100	0x3f726f1d	0.94700795
101	0x3ea6942a	0.32534915
102	0xbefc4a38	-0.49275374
103	0x3ead83b7	0.33889553
104	0xbed8a4ff	-0.42313382
105	0x3eaf31a3	0.34217557
106	0xbec325e6	-0.38114852
107	0xbf4ac2f0	-0.792037
108	0x3c172e73	0.009227383
109	0xbe10173d	-0.14071365
110	0xbd9ba865	-0.07600478
111	0xbe53b079	-0.20672788
112	0xbe36e478	-0.17860591
113	0x3f170e43	0.59006137
114	0xbf016f76	-0.505607
115	0xbe913e7f	-0.28367993
116	0xbe9c499d	-0.30524912
117	0xbe1d02f1	-0.15333153
118	0x3e089d5e	0.13341281
119	0xbe2fb8cd	-0.1716034
120	0x3e593d42	0.21214774
121	0xbe2cc2c7	-0.16871177
122	0xbf439166	-0.76393735
123	0x3e9b0f7b	0.30285248
124	0x3db30922	0.08741976
125	0x3e04914d	0.12946053
126	0xbf27a842	-0.65491116
127	0xbe6c23d5	-0.23060544
128	0x3e828b23	0.25496778
129	0xbe2f2ca4	-0.17106873
130	0x3f3d2e9e	0.7389926
131	0xbe0ac0e7	-0.13550149
132	0x3ef9584f	0.48700187
133	0x3ed13230	0.40858603
134	0x3e168ef5	0.14702971
135	0x3e3fc4a9	0.18727364
136	0xbf26c5fb	-0.65145844
137	0xbed887d4	-0.4229113
138	0x3dd03819	0.1016695
139	0xbe071f17	-0.13195454
140	0x3e39bdd4	0.1813882
141	0xbe567979	-0.20944776
142	0x3e7c28ad	0.24624892
143	0xbd8bcf31	-0.06826628
144	0x3f2c0004	0.67187524
145	0x3d0aebc5	0.033916254
146	0xbe60a09b	-0.21936266
147	0xbdfa2ae0	-0.12215209
148	0xbeee280b	-0.46514925
149	0x3d963f6e	0.07336317
150	0x3ea5a54c	0.32352674
151	0x3da69643	0.08134129
152	0xbd30f5ce	-0.043203168
153	0x3e78650a	0.24257293
154	0x3f5ee722	0.8707143
155	0xbe386279	-0.18006314
156	0x3e82442e	0.25442642
157	0xbd8c11f9	-0.068393655
158	0xbea2c5c8	-0.3179152
159	0x3eadc3a7	0.33938333
160	0xbe6e9332	-0.23298338
161	0xbf2b4e91	-0.6691676
162	0xbdd3a0f0	-0.10333431
163	0x3f35e002	0.71044934
164	0x3d0de0cb	0.034638207
165	0x3f9d5194	1.2290521
166	0xbc67e6ab	-0.014154117
167	0xbf02096f	-0.50795645
168	0xbf320a2f	-0.6954679
169	0xbe700115	-0.23437913
170	0x3d3d69b5	0.04624339
171	0x3d9ac822	0.075577036
172	0x3ef9868a	0.48735458
173	0xbf0810ff	-0.53150934
174	0x3e6c070e	0.23049566
175	0xbe62c323	-0.22144751
176	0xbeac5e35	-0.33665624
177	0xbebead25	-0.37241474
178	0x3db8df75	0.09026996
179	0x3da8aa65	0.08235625
180	0x3eec31c6	0.46131724
181	0x3da76e97	0.0817539
182	0x3e57ea02	0.2108536
183	0xbf5a0d9f	-0.85177034
184	0xbd455d07	-0.04818442
185	0xbf3552cb	-0.7082946
186	0xbe9638e5	-0.29340282
187	0x3d00348a	0.031300105
188	0xbfa8b152	-1.3179114
189	0xbed028d9	-0.40656164
190	0xbdb6cbb5	-0.08925573
191	0xbe84f24d	-0.2596611
192	0x3de32e33	0.11092796
193	0x3ee93b39	0.45552996
194	0xbf941b91	-1.1570913
195	0xbe6b3445	-0.22969158
196	0xbec244ac	-0.37943017
197	0xbe601602	-0.21883395
198	0xbdf86edb	-0.12130519
199	0xbeaf90b5	-0.3429009
200	0xbe960039	-0.29297045
201	0x3e7c852c	0.24660176
202	0xbef5bb0b	-0.47994265
203	0x3f1cadc6	0.6120266
204	0x3efa43ef	0.48879954
205	0x3dd6e1f4	0.10492316
206	0x3e8d2fa5	0.27575412
207	0xbf04ffa1	-0.5195256
208	0xbe5fc067	-0.2185074
209	0xbdcf2e9a	-0.101163104
210	0x3ecbe496	0.39822835
211	0xbeddd68f	-0.43327758
212	0xbf07f9b8	-0.53115416
213	0x3e3273a1	0.17426921
214	0x3ded481f	0.11586022
215	0xbe8a62a1	-0.27028373
216	0x3ecfd0a1	0.4058886
217	0x3dc8b562	0.09800221
218	0xbc961599	-0.018320845
219	0xbe3c7120	-0.18402529
220	0xbdfbc761	-0.12293888
221	0x3dfdb909	0.12388808
222	0xbe2e92d7	-0.17048202
223	0xbd59cdb0	-0.053174675
224	0x3e7b59c6	0.24545965
225	0xbe12bdb1	-0.14330174
226	0xbf284edd	-0.65745336
227	0xbe910c91	-0.283299
228	0x3eccd210	0.40004015
229	0xbed44f69	-0.41466835
230	0x3dc01e59	0.09380788
231	0xbe909c8a	-0.2824443
232	0x3d984db7	0.07436698
233	0xbdc9f51b	-0.09861203
234	0xbeb4f454	-0.35342658
235	0xbefec327	-0.49758264
236	0x3e7cfb9b	0.24705355
237	0xbf185426	-0.595034
238	0x3e4bd95c	0.19907135
239	0xbe562673	-0.20913105
240	0x3eaedf62	0.34154803
241	0x3eb4d050	0.3531518
242	0x3e3dccf6	0.18535218
243	0xbdc52d98	-0.09627837
244	0xbda12872	-0.078690425
245	0xbdf0e5f9	-0.11762614
246	0x3eba8c4c	0.36435163
247	0xbf537cf4	-0.8261254
248	0x3e6f3eb3	0.23363762
249	0xbe11b249	-0.14228167
250	0xbdf97d3c	-0.1218209
251	0x3ec060b6	0.37573785
252	0xbe9701ed	-0.29493657
253	0xbf3fa69b	-0.74863595
254	0xbdf69c6b	-0.12041553
255	0xbe6aea0c	-0.22940844

lstm.bias_ih_l0 f4 [392]
0	0xbe537da9	-0.20653404
1	0xbd3c1f85	-0.045928497
2	0xbe86063c	-0.2617663
3	0xbd9e22a8	-0.07721454
4	0xbee727c7	-0.45147535
5	0xbe4f932c	-0.20270985
6	0xbe0a88b3	-0.13528709
7	0x3e4d9f13	0.20080213
8	0xbe8269a7	-0.2547123
9	0xbe17367a	-0.14766875
10	0xbd8e39a0	-0.06944585
11	0x3dccf7a8	0.10008174
12	0xbe24f549	-0.16109194
13	0x3de0a1a7	0.10968333
14	0xbd9b3f19	-0.07580394
15	0xbefc8c1d	-0.49325648
16	0xbe67a3d2	-0.22621086
17	0xbea78c49	-0.32724217
18	0x3dd56c00	0.1042099
19	0xbe1c80ee	-0.15283558
20	0xbea966d0	-0.33086252
21	0xbeaa1d69	-0.33225563
22	0x3e2979ae	0.16550323
23	0xbe48fa7d	-0.19626804
24	0xbed2d6ad	-0.4117941
25	0xbe900636	-0.2812974
26	0xbebf1d3b	-0.3732699
27	0xbec7f641	-0.39055064
28	0xbed62c2b	-0.41830572
29	0xbe352a51	-0.17691924
30	0x3e1a4648	0.15065873
31	0x3de7484f	0.11293089
32	0x3da761dc	0.08172962
33	0xbda39e4e	-0.079891786
34	0xbebadf06	-0.36498278
35	0xbe7329a0	-0.23746347
36	0x3e2981f1	0.16553475
37	0x3d563662	0.052297957
38	0x3e8ee703	0.27910623
39	0xbe3b2e5e	-0.18279406
40	0xbe832099	-0.25610808
41	0xbde1f59d	-0.11033175
42	0x3da43e96	0.0801975
43	0xbd32e09a	-0.043671228
44	0xbe5d76c7	-0.21627341
45	0xbea835b2	-0.32853466
46	0xbe0ffac0	-0.14060497
47	0x3e2ad6f1	0.16683556
48	0xbdeca263	-0.1155441
49	0xbe9635f2	-0.29338032
50	0x3dea53e4	0.11441782
51	0xbe465d31	-0.19371487
52	0xbee14230	-0.4399581
53	0xbe493ca9	-0.19652046
54	0xbeda416a	-0.42628032
55	0xbd9a9fb1	-0.0754999
56	0xbe5ec6bc	-0.21755499
57	0xbe981dd8	-0.2971027
58	0xbe81f8bc	-0.25385082
59	0xbed995d0	-0.4249711
60	0xbd444f39	-0.047927115
61	0xbe9caac3	-0.3059903
62	0xbedaad52	-0.42710358
63	0xbdb9739e	-0.09055255
64	0xbe90fe97	-0.28319237
65	0xbd1f283e	-0.038856737
66	0xbd34e415	-0.04416283
67	0x3e2b9f82	0.16760066
68	0xbd5f0555	-0.054448444
69	0xbe0cc6c5	-0.137477
70	0xbd8a43e9	-0.06751234
71	0xbe3bd5b8	-0.18343246
72	0x3e43a415	0.19105561
73	0xbeafba91	-0.34322026
74	0xbe44f631	-0.1923454
75	0xbd4fb03c	-0.05070518
76	0xbd8ea09e	-0.06964229
77	0xbe17affa	-0.14813223
78	0xbf01fb68	-0.5077424
79	0xbeac0e7c	-0.336048
80	0xbbb9e76d	-0.00567334
81	0x3cd8e8ed	0.026478255
82	0xbcc2eb63	-0.023793882
83	0xbe1eb5b8	-0.15499008
84	0x3cb1dfcf	0.021713166
85	0xbda2bd42	-0.07946254
86	0xbe35f613	-0.17769651
87	0x3d0aeb0f	0.033915576
88	0xbd996c12	-0.07491316
89	0xbe9a109a	-0.3009079
90	0xbdf59826	-0.11991911
91	0xbe8d35e8	-0.2758019
92	0x3d41b661	0.04729307
93	0xbc3c36ed	-0.011487705
94	0xbe92db9d	-0.28683177
95	0xbe1cd24b	-0.15314595
96	0x3e358375	0.17725928
97	0xbef8c807	-0.4859011
98	0xbd3195f2	-0.04335589
99	0xbc86316e	-0.016380992
100	0xbd704ea6	-0.058668755
101	0x3e24cb20	0.16093111
102	0x3e6ca64e	0.23110315
103	0x3d304d78	0.04304263
104	0xbe1513ff	-0.14558409
105	0xbf2098da	-0.6273323
106	0xbb906921	-0.0044070636
107	0xbe2c4b60	-0.16825628
108	0x3de2373e	0.11045693
109	0xbd190e3b	-0.037367087
110	0x3e5e66c1	0.21718885
111	0x3d0ede8b	0.034880202
112	0x3e2c4598	0.16823423
113	0x3ee07f59	0.4384716
114	0xbd14966e	-0.036276273
115	0x3e248b21	0.16068698
116	0xbd65d049	-0.05610684
117	0x3dd9c42b	0.10633119
118	0x3ca82820	0.020526946
119	0x3d3b28e9	0.04569331
120	0x3ead986e	0.33905357
121	0x3ef2f436	0.47451943
122	0x3cda9a7d	0.026684994
123	0x3e38c857	0.18045174
124	0x3dc1d1c7	0.0946384
125	0x3f39cdb7	0.7257952
126	0x3ec0b58e	0.37638515
127	0x3d9e153d	0.07718895
128	0x3db57008	0.08859259
129	0xbcbc16e7	-0.02296014
130	0xbe2f5951	-0.17123915
131	0x3e908751	0.28228238
132	0x3e119132	0.14215544
133	0xbe1b3bc7	-0.15159522
134	0xbde187b4	-0.110122114
135	0x3e09fce7	0.13475381
136	0xbd101f00	-0.035185814
137	0x3e3f8294	0.18702155
138	0x3e17530d	0.14777775
139	0xbbddc070	-0.006767325
140	0x3e8b0c6a	0.2715791
141	0x3e602193	0.21887808
142	0x3e4f9370	0.20271087
143	0x3f0332f7	0.5124964
144	0x3dca3e05	0.098751105
145	0xbe1d8aa7	-0.15384923
146	0x3eaa2877	0.33233997
147	0x3e969897	0.29413292
148	0x3d6e6049	0.058197293
149	0x3d89dffe	0.06732176
150	0x3d999d6a	0.075007275
151	0x3df97751	0.12180961
152	0x3e502681	0.20327188
153	0x3d9bd971	0.07609833
154	0x3e86654c	0.26249158
155	0x3e440c87	0.19145404
156	0xbcd66a4a	-0.02617373
157	0x3da0adcf	0.07845651
158	0x3ed4da92	0.41573006
159	0xbe20b7f4	-0.15695173
160	0x3c889822	0.016674105
161	0xbd4df2fe	-0.050280564
162	0xbcdb8d02	-0.026800636
163	0x3dc60a88	0.096699774
164	0x3f0ec34d	0.55766755
165	0xbd8c2f37	-0.06844943
166	0x3d80b05f	0.0628364
167	0xbd20dc51	-0.03927261
168	0x3d4f9549	0.05067948
169	0x3e3d626f	0.1849458
170	0x3e9932ca	0.2992156
171	0x3e4a75f9	0.19771565
172	0xbe8ffd79	-0.28123072
173	0xbcae9238	-0.021309957
174	0x3ed01c26	0.40646476
175	0x3e190a47	0.14945327
176	0xbd8c9382	-0.068640724
177	0x3e9d1ec9	0.3068755
178	0x3da2111f	0.07913422
179	0xbcb8121d	-0.022469575
180	0xbe0e9fa0	-0.1392808
181	0xbc36ac66	-0.011149501
182	0xbde01973	-0.10942354
183	0x3cd58e8a	0.026068944
184	0x3e8ad70b	0.2711719
185	0xbde286ac	-0.11060843
186	0x3e89ad12	0.26889855
187	0x3e34f9ce	0.17673418
188	0xbdc0f3ab	-0.09421476
189	0xbe417250	-0.18891263
190	0x3e60ee06	0.21965799
191	0xbd652071	-0.05593914
192	0xbde4781f	-0.11155724
193	0xbc9b6176	-0.018967371
194	0xbe4f9a0b	-0.20273606
195	0xbc122dfb	-0.008922095
196	0x3e12f5ce	0.1435158
197	0x3e67c103	0.22632222
198	0xbe4e30b4	-0.20135766
199	0xbdc3326c	-0.095311016
200	0x3d77876a	0.060431875
201	0xbd570191	-0.05249173
202	0xbe709ecb	-0.23498075
203	0xbe5ebd5a	-0.2175192
204	0xbd9fd568	-0.07804376
205	0x3de15fa4	0.1100457
206	0xbc4f2c0a	-0.012644777
207	0xbd917b9d	-0.071036555
208	0x3e136468	0.1439377
209	0x3dac6dd4	0.084193856
210	0xbd37aa7a	-0.044840313
211	0x3bc7c386	0.0060963063
212	0x3d931945	0.07182554
213	0xbd8c439e	-0.068488345
214	0x3e434ee3	0.19073062
215	0x3ce7d0bd	0.028297776
216	0xbe26cb31	-0.16288449
217	0x3c5158bb	0.012777503
218	0x3c8cb2fe	0.017175194
219	0xbdc77fa7	-0.097411446
220	0x3dcb22ec	0.0991877
221	0xbd39e79d	-0.0453869
222	0x3ddd7085	0.10812477
223	0x3a8218de	0.0009925624
224	0xbbcfa46f	-0.0063367407
225	0x3e2fde8c	0.17174739
226	0x3e531222	0.20612386
227	0xbce5b28a	-0.028039236
228	0xbeb6b07b	-0.3568152
229	0x3c8b49d1	0.017002972
230	0xbcd4f9d1	-0.025998028
231	0x3dda65a7	0.1066392
232	0x3e749f21	0.23888828
233	0x3bc926c0	0.0061386526
234	0xbcd819b7	-0.02637945
235	0x3c11f954	0.008909542
236	0x3daff55e	0.08591722
237	0x3e5541d8	0.20825899
238	0x3b749151	0.003731806
239	0xbd8b452b	-0.06800302
240	0xbdab0ef9	-0.08352465
241	0xbd179c36	-0.03701421
242	0xbe2ad0af	-0.16681169
243	0x3db4546b	0.08805164
244	0xbd9d1ce7	-0.07671528
245	0x3e12ddac	0.14342374
246	0xbe201663	-0.1563354
247	0xbdf39733	-0.11894073
248	0xbd87f6dc	-0.066388816
249	0xbc38bd4c	-0.011275601
250	0xbbd8ec4f	-0.006619967
251	0xbde9ed3c	-0.11422202
252	0x3e5116ec	0.204189
253	0x3dc4df40	0.09612894
254	0xbdde69d1	-0.10860027
255	0x3d7a04bb	0.061039668

lstm.bias_hh_l0 f4 [392]
0	0xbe133d4d	-0.14378853
1	0xbe771fc4	-0.24133211
2	0xbeccbb8a	-0.3998683
3	0xbdb2f9d5	-0.08739058
4	0xbee6d277	-0.45082447
5	0xbeaa012d	-0.33204022
6	0x3d2c0616	0.04199799
7	0x3e84c385	0.2593042
8	0xbe688ebf	-0.22710703
9	0xbe5a21ed	-0.21302004
10	0xbe11bd14	-0.14232284
11	0x3dd89fd2	0.10577358
12	0xbd6701a9	-0.056398068
13	0x3d5e38ca	0.054253377
14	0xbda481aa	-0.08032544
15	0xbef9c402	-0.48782355
16	0xbd989fe6	-0.07452373
17	0xbe58fc35	-0.2118996
18	0x3dd5c35b	0.10437652
19	0xbe67404b	-0.2258312
20	0xbeadb8b2	-0.33929974
21	0xbe9d3daf	-0.30711123
22	0x3e1a90a5	0.1509424
23	0xbea1e20c	-0.31617773
24	0xbef2f011	-0.4744878
25	0xbe924ff8	-0.28576636
26	0xbe69d696	-0.22835764
27	0xbec9d9ec	-0.39424074
28	0xbede0eda	-0.43370706
29	0xbe33bb81	-0.17551996
30	0x3da34eac	0.0797399
31	0x3dad4c41	0.0846181
32	0x3c687207	0.0141873425
33	0xbe269674	-0.16268331
34	0xbeb4f85f	-0.35345742
35	0xbecc262c	-0.39872873
36	0x3da7144a	0.08158167
37	0x3c11fb15	0.00890996
38	0x3ea83ef4	0.3286053
39	0xbe818624	-0.25297654
40	0xbeaab2aa	-0.33339435
41	0xbd8ad4d4	-0.06778875
42	0xbc9162e6	-0.017747354
43	0xbdf5e8b9	-0.12007279
44	0xbe40fb68	-0.18845904
45	0xbe863aad	-0.2621664
46	0xbe381085	-0.17975052
47	0x3e86d674	0.2633549
48	0xbe2010bf	-0.15631388
49	0xbe558fec	-0.20855683
50	0x3e2b8c6d	0.16752787
51	0xbeadc5e4	-0.3394004
52	0xbec13649	-0.3773673
53	0xbe000524	-0.12501961
54	0xbec00196	-0.3750121
55	0xbdaf1044	-0.08548024
56	0xbe786873	-0.24258594
57	0xbe905157	-0.28187057
58	0xbe743d1d	-0.23851438
59	0xbecfe649	-0.4060538
60	0xbe5c1f01	-0.21496202
61	0xbe7bbd77	-0.24583994
62	0xbefadbbe	-0.48995775
63	0xbe54e1f4	-0.2078932
64	0xbe830c5f	-0.25595376
65	0xbc6396f1	-0.013890968
66	0x3ce72786	0.028217088
67	0x3e571da7	0.21007405
68	0xbddd9720	-0.108198404
69	0xbdc1cd18	-0.09462947
70	0xbe1bf6eb	-0.1523091
71	0xbe854e2a	-0.26036197
72	0x3d8a0126	0.067385
73	0xbe650668	-0.22365725
74	0xbe7d7701	-0.24752428
75	0xbbe2d99b	-0.0069229132
76	0x3da16364	0.078802854
77	0xbdf09fdf	-0.11749243
78	0xbf00f677	-0.50376076
79	0xbecb1135	-0.39661565
80	0xbc9356f7	-0.017985804
81	0x3d6e71f5	0.058214147
82	0xbe1b289d	-0.15152211
83	0xbdd3e956	-0.1034724
84	0x3d08b913	0.033379626
85	0x3cabe78c	0.020984434
86	0xbe07f000	-0.13275146
87	0x3e5c3218	0.21503484
88	0xbe062f3f	-0.1310396
89	0xbe73e5d0	-0.23818135
90	0xbd23b85d	-0.039970744
91	0xbe48828c	-0.1958105
92	0x3ceb6a41	0.02873719
93	0xbde941ae	-0.113894805
94	0xbe6dfb72	-0.2324045
95	0xbe060887	-0.1308919
96	0x3ea0cc7e	0.31406015
97	0xbe9cb639	-0.30607775
98	0xbe4d4b7f	-0.2004833
99	0xbc4c946c	-0.012486558
100	0x3c964cc7	0.018347157
101	0x3e59e99a	0.21280518
102	0x3e7a1e04	0.24425513
103	0x3d616078	0.05502364
104	0xbe273aed	-0.16331072
105	0xbf060ac2	-0.52360165
106	0x3dc83600	0.09775925
107	0xbe03f52b	-0.12886493
108	0x3c687db8	0.01419013
109	0x3d33e94a	0.043923654
110	0x3e6b1d60	0.22960424
111	0x3ddf8acd	0.10915146
112	0x3e8cae14	0.2747656
113	0x3f075e6b	0.52878445
114	0xbd544f01	-0.051833156
115	0x3e4d8c24	0.2007299
116	0xbc1597e4	-0.009130452
117	0x3e3926c5	0.18081196
118	0x3dd79f5b	0.105284415
119	0xbd95f7f0	-0.07322681
120	0x3eb293de	0.3487844
121	0x3ecf428f	0.40480468
122	0x3d1f5f45	0.038909215
123	0x3dd59767	0.10429268
124	0x3d59896d	0.053109575
125	0x3f483312	0.7820293
126	0x3eb02de1	0.34410003
127	0x3d2add2c	0.041714832
128	0x3d3823f9	0.04495618
129	0xbdbffc8a	-0.0937434
130	0xbe0068f3	-0.12540035
131	0x3ee0c1c1	0.43897822
132	0x3e3ee6fc	0.18642801
133	0xbe12e7c9	-0.14346232
134	0xbe163515	-0.14668687
135	0x3e5f2e8c	0.217951
136	0xbd86e297	-0.06586187
137	0x3df43ca7	0.11925631
138	0x3e509dff	0.2037277
139	0xbd110b45	-0.035411138
140	0x3e2b5237	0.16730581
141	0x3e8bb8cc	0.27289426
142	0x3e77cd55	0.24199422
143	0x3ee67061	0.45007613
144	0xbcb5ac7a	-0.02217697
145	0xbe81e536	-0.25370187
146	0x3ea7e7dd	0.32794085
147	0x3e6db303	0.23212819
148	0x3e55f311	0.20893504
149	0x3e4a6f08	0.19768918
150	0x3cba7fb0	0.022765964
151	0x3e090f78	0.13384807
152	0x3e029982	0.12753871
153	0xbb99c80a	-0.004693036
154	0x3eaf6337	0.34255382
155	0x3e8e8bf5	0.27841154
156	0xbe1466c0	-0.14492321
157	0x3e13bd4c	0.1442768
158	0x3f0d606f	0.5522527
159	0xbe096ebd	-0.1342115
160	0x3d8b04aa	0.06787999
161	0xbdb2e9cd	-0.08736
162	0x3cea36e6	0.02859063
163	0xbb25bbcd	-0.002528894
164	0x3eee1fb1	0.46508554
165	0xbd474485	-0.04864933
166	0x3d1bbe54	0.038023308
167	0xbd3d99c9	-0.04628924
168	0x3e4fd182	0.20294765
169	0x3e6ba193	0.23010854
170	0x3e8722c2	0.26393706
171	0x3dc96b5c	0.0983493
172	0xbe4951d2	-0.19660118
173	0x3db7a7c3	0.08967545
174	0x3e8c6f9e	0.27428907
175	0x3c97004d	0.01843276
176	0xbdd8de33	-0.10589256
177	0x3e9799f1	0.29609635
178	0x3e1d1eed	0.15343828
179	0xbd898afe	-0.06715964
180	0xbde4b7cd	-0.1116787
181	0xbcf07c55	-0.029356161
182	0xbde534af	-0.11191689
183	0xbcc3649b	-0.023851683
184	0x3e55c94b	0.20877568
185	0xbe5cad3e	-0.21550462
186	0x3e4ae84b	0.19815175
187	0x3e8bb917	0.2728965
188	0x3cb10e01	0.021613123
189	0xbe88aee3	-0.26695928
190	0x3d878c90	0.06618607
191	0xbd9253ce	-0.07144891
192	0xbdeb3e28	-0.11486465
193	0x3e07fea8	0.13280737
194	0xbe30315a	-0.17206326
195	0x3e248005	0.1606446
196	0x3dc1dd2f	0.094660155
197	0x3e3255a0	0.17415476
198	0xbe0a2ac8	-0.13492882
199	0xbdc187e6	-0.09449749
200	0x3d3f5234	0.046709254
201	0x3c78fb94	0.0151967
202	0xbe2ff768	-0.17184222
203	0xbe7f4459	-0.24928416
204	0xbe1d7acf	-0.15378879
205	0x3e51437a	0.20435897
206	0x3d20667b	0.039160233
207	0xbe09e587	-0.13466464
208	0xbbc4cb40	-0.0060056746
209	0x3e0f0c56	0.1396955
210	0x3c8fab71	0.017537804
211	0xbc02a494	-0.007973809
212	0x3e419c5b	0.18907301
213	0x3cb1d549	0.021708148
214	0x3e37eafb	0.17960732
215	0xba85a618	-0.0010196595
216	0x3d0b3cf7	0.033993687
217	0xbd861b22	-0.06548144
218	0x3d8d52c3	0.06900551
219	0xbe26fad6	-0.16306624
220	0x3e1ca983	0.15299039
221	0xbc96d7e8	-0.018413499
222	0x3d7bc1d7	0.061464157
223	0xbc4e459e	-0.01258984
224	0xbde3542c	-0.11100039
225	0x3d4a9efd	0.04946803
226	0x3e49f29b	0.19721453
227	0xbb98ffae	-0.0046691513
228	0xbe778873	-0.24173145
229	0xbcfc2c06	-0.03078271
230	0xbdb354e0	-0.08756423
231	0x3e1d2807	0.153473
232	0x3e0fcbc9	0.14042582
233	0x3db259a0	0.08708501
234	0x3d19c8d3	0.037545037
235	0xbc7fc6dc	-0.015611377
236	0x3c0544bd	0.008134064
237	0x3d9a4543	0.07532742
238	0xbdf2a5c5	-0.11848024
239	0xbbb938e1	-0.0056525324
240	0x3d062bc2	0.032756574
241	0x3d8e8f3f	0.06960916
242	0xbe8ba722	-0.2727595
243	0x3dab201f	0.08355736
244	0x3de38212	0.11108793
245	0x3db188ca	0.086686686
246	0xbe4c350c	-0.19942111
247	0xbd770d73	-0.06031556
248	0xbd21a970	-0.03946823
249	0xbd6a8dc6	-0.057264112
250	0xbb084776	-0.0020794547
251	0xbdebb130	-0.11508405
252	0x3e005e12	0.12535885
253	0x3d920fc2	0.07131912
254	0xbcb8e0ce	-0.022568133
255	0x3dec6fc3	0.11544754

fc1.weight f4 [9, 98]
0	0xbe940c75	-0.28915754
1	0x3f071c88	0.5277791
2	0x3f66816a	0.9004122
3	0xbea9d844	-0.3317281
4	0xbdd24761	-0.10267521
5	0x3d0b4826	0.034004353
6	0x3f4e1b97	0.8051085
7	0xbe34ee6f	-0.1766908
8	0x3de216b0	0.110394835
9	0x3e908455	0.2822596
10	0x3e2731bb	0.16327564
11	0xbd9b0938	-0.07570118
12	0xbe175c1a	-0.14781228
13	0x3eeec347	0.4663336
14	0x3f0de193	0.55422324
15	0x3f83392e	1.0251825
16	0xbef1c8fb	-0.47223648
17	0x3ed93c7f	0.42428967
18	0xbe98f12e	-0.29871505
19	0x3ef84ace	0.4849457
20	0x3e2d09d1	0.16898276
21	0xbe2fce34	-0.17168504
22	0xbf0c8074	-0.54883504
23	0xbde758be	-0.11296223
24	0xbf0234dc	-0.50861907
25	0xbee2379c	-0.44183052
26	0xbe88a54c	-0.26688612
27	0xbe1dfecf	-0.15429233
28	0xbf124bde	-0.57147014
29	0x3b951117	0.0045491564
30	0xbea42732	-0.32061154
31	0xbf34963f	-0.7054176
32	0xbf2724b6	-0.6529039
33	0xbe05920c	-0.13043994
34	0xbbe7b7ab	-0.0070714555
35	0xbe7ee6a4	-0.2489267
36	0x3f19a4f6	0.60017335
37	0x3e2c294c	0.16812629
38	0xbf0715ea	-0.52767813
39	0x3ea12523	0.31473646
40	0xbcb5dd89	-0.022200363
41	0x3eae9888	0.34100747
42	0x3eceabb8	0.40365386
43	0xbeadff98	-0.33984065
44	0xbec34176	-0.3813588
45	0x3e0cce29	0.13750519
46	0x3f24c6b2	0.64365685
47	0xbd9bbdba	-0.07604547
48	0xbe810385	-0.25197998
49	0x3e0c7fd9	0.13720645
50	0x3d98aade	0.07454465
51	0xbf4a6ea3	-0.7907507
52	0x3e5ab40b	0.21357743
53	0x3e639937	0.22226416
54	0x3beec8d6	0.007287125
55	0x3f2d5485	0.6770709
56	0xbedc19fc	-0.42988575
57	0x3bd9d53f	0.0066477354
58	0xbec6330d	-0.38710824
59	0xbebae139	-0.36499956
60	0xbe289933	-0.16464691
61	0x3bfd8dfd	0.0077378736
62	0xbd984acb	-0.074361406
63	0xbf577178	-0.84157515
64	0xbcf2ebce	-0.029653456
65	0xbec97f3b	-0.39354882
66	0xbe0ae174	-0.13562566
67	0xbe46acbf	-0.19401835
68	0x3e94ca12	0.29060417
69	0xbe2b1ec2	-0.16710952
70	0xbe79750c	-0.24361056
71	0xbecae221	-0.39625648
72	0x3bbfc6a5	0.0058525377
73	0x3f58201c	0.84423995
74	0x3e4ebc96	0.20189127
75	0x3e912e3d	0.2835559
76	0x3e1f6613	0.15566282
77	0xbed4e381	-0.41579822
78	0xbdc2bec3	-0.09509041
79	0xbe0b6d17	-0.13615833
80	0x3e1970c9	0.1498443
81	0x3ebf4a5c	0.3736142
82	0xbf13fe63	-0.5781004
83	0xbe5585c8	-0.20851815
84	0xbe858fb8	-0.2608621
85	0xbf183f10	-0.59471226
86	0xbe59216a	-0.21204153
87	0x3f2c53fc	0.6731565
88	0x3f164907	0.5870518
89	0x3f1dea8e	0.6168603
90	0x3f071031	0.5275908
91	0xbd448c95	-0.047985632
92	0x3f086fde	0.53295696
93	0x3f0640d3	0.52442664
94	0x3e10c332	0.14136961
95	0x3f89179d	1.0710331
96	0x3e838fae	0.25695556
97	0xbdbac188	-0.091189444
98	0x3f545258	0.82938147
99	0x3f931dd9	1.1493484
100	0x3e77f43c	0.24214262
101	0xbe4c6cef	-0.1996343
102	0xbf779c57	-0.9672293
103	0x3ea28611	0.3174291
104	0xbedff376	-0.43740433
105	0x3f35d5e4	0.71029496
106	0xbe2b2583	-0.16713528
107	0x3eb50412	0.35354668
108	0x3d6a2aad	0.057169605
109	0x3d4efdc3	0.050534975
110	0xbe0ba3ac	-0.13636655
111	0x3e260246	0.16211805
112	0x3dde84bf	0.10865163
113	0x3f9de5ba	1.2335732
114	0xbf346c52	-0.70477784
115	0xbd687d33	-0.056760024
116	0xbf0e8965	-0.556784
117	0xbd53914b	-0.051652234
118	0xbf47e8bf	-0.7808952
119	0x3f80a6c1	1.0050889
120	0x3ccaa16f	0.02473518
121	0x3e34526e	0.1760957
122	0xbf1d6c9f	-0.6149387
123	0xbdd15739	-0.102217145
124	0x3db75c48	0.08953148
125	0x3f80827b	1.003982
126	0xbe5b5906	-0.21420678
127	0x3e879466	0.26480407
128	0xbee3c335	-0.4448487
129	0xbe98b9d7	-0.29829285
130	0x3e64f0e0	0.22357512
131	0xbee16f76	-0.4403035
132	0xbd33d69c	-0.04390584
133	0xbed3e1ae	-0.41383117
134	0x3f669c73	0.9008247
135	0x3e960138	0.29297805
136	0x3ee5bf6b	0.44872603
137	0x3e30f027	0.17279111
138	0x3d2c0aa4	0.042002335
139	0xbf5215b2	-0.82064354
140	0x3ecc9949	0.39960697
141	0x3db06076	0.086121485
142	0xbed6845b	-0.41897854
143	0xbf403802	-0.7508546
144	0xbdbee85c	-0.09321663
145	0x3dd8a3d6	0.10578124
146	0x3eba360c	0.3636936
147	0x3e5e6f10	0.21722054
148	0xbdc782a5	-0.09741715
149	0x3e2c9e1c	0.16857189
150	0xbf4ec5b5	-0.80770427
151	0xbdf0523d	-0.11734436
152	0x3d4fe416	0.05075463
153	0x3f4c3d60	0.7978115
154	0x3f8532b6	1.0406101
155	0xbe000df1	-0.12505318
156	0x3c0369a0	0.008020788
157	0xbf52910f	-0.8225259
158	0xbe3927e6	-0.18081626
159	0x3eb79f61	0.35863784
160	0xbf859b18	-1.0437956
161	0x3ec66607	0.38749716
162	0xbe912cef	-0.28354594
163	0x3e784bea	0.24247709
164	0x3f0a7964	0.5409148
165	0x3f2f2132	0.6841003
166	0x3d33189f	0.043724652
167	0x3c2758e8	0.010214068
168	0xbd9da6cb	-0.07697829
169	0xbdf96dac	-0.121791214
170	0xbe92feca	-0.28710014
171	0xbf819a94	-1.0125299
172	0x3e8f65e5	0.28007427
173	0x3f0760ba	0.5288197
174	0xbe8fa963	-0.2805892
175	0x3ec2139a	0.3790558
176	0x3f281942	0.6566354
177	0xbe232084	-0.15930372
178	0x3e4c4beb	0.19950835
179	0x3e6f7966	0.23386154
180	0x3c198d8d	0.009372127
181	0x3e85a926	0.26105613
182	0x3ecdbb4c	0.4018196
183	0xbcce5131	-0.0251852
184	0x3dfb880f	0.122818105
185	0x3d558dcb	0.052137177
186	0xbecddb5c	-0.4020642
187	0xbedbf661	-0.4296141
188	0x3ee0eb24	0.43929398
189	0x3f45cd4d	0.7726639
190	0xbfd32cdc	-1.6498065
191	0xbef23c47	-0.47311613
192	0x3f3e8929	0.7442804
193	0xbec1f875	-0.3788487
194	0x3dd4f373	0.10397997
195	0xbf13b803	-0.57702655
196	0xbf8bf9fb	-1.0935663
197	0xbf219a46	-0.6312603
198	0x3e32fd23	0.17479376
199	0x3f05ecb4	0.52314305
200	0x3def0d33	0.116724394
201	0xbf96ff22	-1.179661
202	0x3e9eb7fb	0.3099974
203	0x3f963c65	1.1737181
204	0xbe3a90b2	-0.1821926
205	0x3e4a25e1	0.19741012
206	0x3e3e739e	0.18598792
207	0xbefa5c67	-0.48898622
208	0x3e719ea3	0.23595671
209	0xbfe43b61	-1.7830621
210	0x3f77ab38	0.96745634
211	0xbded3a0b	-0.115833364
212	0x3f9750c2	1.182152
213	0x3e273046	0.16327009
214	0xbd49f2f1	-0.049303953
215	0x3df3b5f7	0.118999414
216	0xbd80ab91	-0.06282724
217	0xbf1024f6	-0.563064
218	0x3d88c6cc	0.066785425
219	0xbc827dec	-0.015929185
220	0xbf1a69a3	-0.6031744
221	0x3f21da05	0.63223296
222	0x3be1cb36	0.0068906797
223	0xbfa39699	-1.2780334
224	0x3f2ed6d8	0.68296576
225	0xbdf7f0fe	-0.121065125
226	0xbf549492	-0.830392
227	0xbfa9d3ea	-1.3267796
228	0xbf6c2e86	-0.9225849
229	0x3e6a0167	0.22852097
230	0x3f94cb83	1.1624607
231	0x3d87f29e	0.066380724
232	0xbe822461	-0.2541838
233	0xbf54f762	-0.83189976
234	0x3f3680fe	0.71290576
235	0xbe69f151	-0.22845961
236	0x3f1fe5e7	0.6246018
237	0xbf34a283	-0.70560473
238	0xbef8f363	-0.4862319
239	0xbe46c566	-0.19411239
240	0xbe6d62a5	-0.23182161
241	0xbdc1d610	-0.09464657
242	0xbf41fa04	-0.7577212
243	0xbecf1f4e	-0.4045357
244	0x3ec314a6	0.3810169
245	0xbe19c0b5	-0.15014918
246	0x3e392961	0.18082191
247	0x3ebf8084	0.37402737
248	0xbeb39345	-0.35073295
249	0x3d22c264	0.039736167
250	0xbe4251ce	-0.18976519
251	0x3db0f5a4	0.08640602
252	0xbe565606	-0.20931253
253	0x3e96cfac	0.29455316
254	0xbecbb485	-0.39786163
255	0x3de8dfee	0.11370836

fc1.bias f4 [9]
0	0xbd92f58a	-0.07175739
1	0x3dd35aad	0.103200294
2	0xbc58dde5	-0.0132364975
3	0xbe6c0e6b	-0.23052375
4	0x3c0f36bb	0.008741076
5	0x3d04b6c3	0.032400858
6	0x3cd3639e	0.025804337
7	0xbc4ca1b5	-0.012489726
8	0xbe472941	-0.19449331

exp_avg f4 [392, 1]
0	0x3be88d07	0.00709689
1	0xba4b1925	-0.0007747582
2	0x3c8f8de3	0.017523712
3	0x39c909bf	0.0003834497
4	0x3c036b9a	0.00802126
5	0xbc00ab6e	-0.007853372
6	0xb9d38321	-0.00040342755
7	0x3bc4fd26	0.006011623
8	0x3b22d8b2	0.0024848399
9	0x3b30e23a	0.002699031
10	0xbc172351	-0.009224729
11	0xbb8ab652	-0.00423316
12	0x3b9c1cb3	0.0047641634
13	0x3b76d2be	0.0037662233
14	0x3b9c7b5e	0.0047754487
15	0xbcd3489c	-0.025791459
16	0xbb4b8ef3	-0.0031060546
17	0xbd2b2f5b	-0.04179321
18	0x3b6799c3	0.0035339452
19	0xbc4a48be	-0.012346445
20	0x3b642534	0.0034812214
21	0x395f86d7	0.00021317169
22	0xbb3a686c	-0.0028443588
23	0xbb0619ec	-0.0020462228
24	0xbb694613	-0.0035594746
25	0x3be037ba	0.0068425806
26	0xbb29468b	-0.00258294
27	0xbb8795d7	-0.0041377353
28	0x3d391065	0.04518165
29	0x3ac68e28	0.0015148567
30	0x3bf375f0	0.0074298307
31	0xbaad89ac	-0.0013239882
32	0xbc30334e	-0.0107544195
33	0xbb730c58	-0.0037086215
34	0xbcc1d6e4	-0.023662038
35	0x3c389153	0.011265117
36	0xbc0426e4	-0.008065913
37	0xbb7fe40f	-0.0039045846
38	0xbc03f0c5	-0.008053009
39	0xbbd99328	-0.006639857
40	0xbcda0281	-0.026612522
41	0x3bbfc064	0.005851792
42	0xb967217d	-0.00022042352
43	0xbb4f05fe	-0.0031589265
44	0xbc609ef1	-0.01370977
45	0x3c3d5562	0.011556001
46	0xbb8ac4e5	-0.0042348974
47	0xbbf4bea4	-0.007469015
48	0xbb98c8e0	-0.004662618
49	0x3c209fbc	0.009803709
50	0xbbc8989a	-0.006121707
51	0xbbd9a245	-0.0066416585
52	0xbc94cd29	-0.018164234
53	0xbae56bb9	-0.0017503417
54	0x3bd21345	0.0064109885
55	0xbba12135	-0.0049172887
56	0xbc92775a	-0.017879177
57	0x3a3e28a3	0.000725398
58	0x3ac960ab	0.0015363892
59	0xbb82cc79	-0.00399166
60	0xba870ec5	-0.0010304084
61	0x3bf3b199	0.007436943
62	0x3a2bcf94	0.0006554064
63	0xbc08a8b0	-0.0083409995
64	0xba35b5d3	-0.0006931696
65	0x3ca4b0fc	0.020103924
66	0xb9b32f27	-0.00034176672
67	0xbab4da42	-0.0013797956
68	0xbb6643de	-0.0035135667
69	0x3bdd84f7	0.0067602354
70	0xbb09fcb3	-0.0021055161
71	0xbb8323f1	-0.0040020873
72	0xbaa4c8e9	-0.0012572083
73	0xbaf14888	-0.0018408457
74	0x3afe7af1	0.0019415302
75	0x3ae1c412	0.0017224571
76	0x3b20d276	0.0024539507
77	0x3941af51	0.00018471225
78	0x3be9e958	0.0071384124
79	0x3a899f85	0.0010499811
80	0xbc637911	-0.013883845
81	0xbba08c97	-0.004899572
82	0xbb9a05e9	-0.0047004116
83	0x399434aa	0.00028267998
84	0xbb80aafb	-0.0039266325
85	0xbb805288	-0.0039160885
86	0xbd7e370f	-0.062064227
87	0x3b7c5e39	0.003850831
88	0xbb85fce4	-0.004088985
89	0x3a14c854	0.0005675603
90	0x399d86ea	0.00030045892
91	0xbc2852d1	-0.010273651
92	0x3b3ba31f	0.0028631163
93	0x3b6a2ee4	0.0035733515
94	0xbb8d264a	-0.004307543
95	0xbb6bd997	-0.0035987848
96	0x3a2c9674	0.00065836986
97	0x3b2fe856	0.0026841364
98	0x3aa6859c	0.0012704614
99	0x3a57fadf	0.0008238982
100	0x3b39da54	0.0028358893
101	0xb8e7fbbb	-0.00011061827
102	0x3bb2d0bd	0.0054570124
103	0xb98bc089	-0.00026655596
104	0x3b04e2ec	0.0020276858
105	0xb8de39b8	-0.00010596536
106	0x3c013ab5	0.007887532
107	0x3b131f86	0.002244921
108	0xbbe13763	-0.0068730577
109	0xbbfd9a30	-0.007739328
110	0xbb1e1ffe	-0.0024127956
111	0xbc022e04	-0.007945541
112	0x3b8ea7f8	0.0043535195
113	0x3ba4c94c	0.0050288793
114	0xbb20eff4	-0.0024557086
115	0xbb52bff4	-0.003215787
116	0x3aaa1c96	0.001297849
117	0xbc82331e	-0.015893515
118	0xbabbe60b	-0.0014335526
119	0x3b297583	0.0025857396
120	0x3ab82276	0.0014048356
121	0xb9fbb988	-0.00048012682
122	0x3a5f97d6	0.00085294
123	0x3a273baf	0.0006379438
124	0x390c4a05	0.00013379015
125	0xbbb389b1	-0.0054790606
126	0xbb4bf065	-0.0031118628
127	0x3b24af32	0.0025128839
128	0x3a0cf467	0.0005376995
129	0xbbe01b2f	-0.006839178
130	0xbbb0bdb4	-0.005393708
131	0xbb91dfde	-0.004451736
132	0xbc0a1b1e	-0.008429317
133	0x3b79f297	0.003813898
134	0x3c171524	0.009221349
135	0xbab5222d	-0.0013819389
136	0xba43e887	-0.0007473309
137	0xba719705	-0.0009215924
138	0xbba2df24	-0.004970448
139	0x3bab4a0f	0.0052273343
140	0xbb45abb2	-0.0030162153
141	0x3a828f07	0.0009960838
142	0x39a40e22	0.00031291047
143	0xbbdc5225	-0.0067236596
144	0xbbd0b2e2	-0.0063689807
145	0xbc9d8404	-0.019227989
146	0xbb3a876f	-0.0028462072
147	0x3b445f8d	0.002996418
148	0xbbc003e3	-0.0058598383
149	0xbb79bf04	-0.003810824
150	0xbc1125ab	-0.008859078
151	0xbaa33eec	-0.0012454665
152	0x3bbc2e9d	0.0057428614
153	0xbb8152d1	-0.00394664
154	0xbbe3a424	-0.0069470573
155	0x389e4161	7.546205e-05
156	0x3aaf3ff1	0.0013370496
157	0xba326110	-0.00068046246
158	0xbb886866	-0.004162836
159	0x3ba9f013	0.00518609
160	0xba0084eb	-0.0004902619
161	0xbb5c39ac	-0.003360371
162	0xbac856d2	-0.0015284664
163	0xbc13491e	-0.0089896
164	0x3b4ea25f	0.0031529886
165	0xbb3d9ef8	-0.0028933864
166	0x3c5d3405	0.013501172
167	0xb9968bed	-0.00028714482
168	0xba805019	-0.0009789496
169	0x3ccffa09	0.02538778
170	0xbb926273	-0.0044673025
171	0xb9821983	-0.0002481454
172	0x3b8f6409	0.004375939
173	0xbcdf14e5	-0.027231643
174	0x3acc316a	0.0015578691
175	0x3b348ca1	0.0027549642
176	0x3950434a	0.00019861493
177	0xba330ea7	-0.00068304915
178	0xbbee3065	-0.0072689527
179	0xbbc0ea85	-0.005887332
180	0xbaad9eff	-0.0013246237
181	0xb9a3c185	-0.00031233966
182	0x3abf25cc	0.0014583408
183	0xbb920372	-0.004455977
184	0x392b8f6b	0.00016361258
185	0x3acc308b	0.0015578432
186	0x3a18f8ff	0.0005835443
187	0xbb8ea392	-0.004352995
188	0xbad2ac03	-0.0016072992
189	0xbb1c8e96	-0.0023888699
190	0x3ae56f8b	0.0017504556
191	0xbb3beb4f	-0.002867419
192	0xbb55ff7e	-0.0032653506
193	0xbb130c5a	-0.0022437782
194	0x3973d46d	0.0002325342
195	0xba2f89bc	-0.0006696244
196	0xbc583aba	-0.013197595
197	0xbcb47c9f	-0.02203208
198	0xbb179673	-0.0023130446
199	0x3c3156d6	0.010823926
200	0x3c066db4	0.008204866
201	0xbc650497	-0.013978145
202	0x3b4e4b2a	0.0031477907
203	0x3b8a651d	0.0042234794
204	0x3c366bc5	0.011134093
205	0xbd048224	-0.032350674
206	0x3b1556e0	0.0022787377
207	0x3a39cfb0	0.0007088138
208	0x3bcd84a2	0.0062719146
209	0xbc084b08	-0.00831867
210	0x3be5b1cf	0.007009722
211	0xbd99a20f	-0.07501613
212	0xbc897583	-0.016779667
213	0xbc725bab	-0.014792363
214	0xbd567533	-0.052357864
215	0xbcf133b5	-0.029443601
216	0xbbb6a623	-0.0055740043
217	0xbb4dd738	-0.0031408798
218	0xbd2d6030	-0.04232806
219	0x3c83b65c	0.016078167
220	0xbc06e46e	-0.008233173
221	0x3d088698	0.033331484
222	0x38d87b20	0.000103226164
223	0xbd3737e8	-0.04473105
224	0x3d4e5db1	0.05038232
225	0xbcc0d1ab	-0.023537477
226	0xbca01824	-0.019542761
227	0xbd24e2c3	-0.04025532
228	0xbd36c972	-0.044625707
229	0x3c1d54dd	0.0096027525
230	0x3b9b3a69	0.0047371876
231	0x39e1ecc8	0.0004309176
232	0xbc098bb0	-0.0083951205
233	0xbc8fc5e3	-0.017550414
234	0x3ba0cd6b	0.0049073
235	0x3d538cf1	0.051648084
236	0xbd632aa4	-0.055460587
237	0xbcd103a2	-0.025514428
238	0xbc1c0697	-0.0095230555
239	0xbcce704b	-0.02520003
240	0x3b58696f	0.0033021828
241	0x3b798247	0.0038072036
242	0x3c96863b	0.018374553
243	0x3c8e6da5	0.017386267
244	0x3c35dc1e	0.011099843
245	0x3cdc3f64	0.026885696
246	0x3c9c6d2e	0.01909503
247	0x3d84ebf4	0.06490317
248	0xbc0e52d0	-0.008686736
249	0x3c8616d8	0.016368315
250	0x3c1cf480	0.009579778
251	0x3c13f654	0.009030897
252	0xbd524eb6	-0.051344596
253	0xbbf1147c	-0.0073571783
254	0xb7a888c3	-2.0090845e-05
255	0x3abf98fa	0.0014617734

exp_avg_sq f4 [392, 1]
0	0x3a2e5c99	0.00066513714
1	0x3a9fffa6	0.0012206926
2	0x3b0ffa30	0.0021969192
3	0x38d45579	0.00010124868
4	0x3b025143	0.0019884862
5	0x3a3dd90e	0.00072421215
6	0x3a5ce81a	0.000842692
7	0x3a122ae2	0.0005575848
8	0x39943088	0.00028264918
9	0x3b1ef282	0.0024253433
10	0x3a85a651	0.0010196661
11	0x3a38dba6	0.0007051773
12	0x3aa636c0	0.0012681112
13	0x3a3318f0	0.0006832024
14	0x3a030cdb	0.0004999169
15	0x3cc7362b	0.024317821
16	0x39f2e001	0.00046324733
17	0x3d25a62a	0.04044167
18	0x3ac18f2c	0.00147674
19	0x3b9a6b7e	0.004712521
20	0x392556c4	0.00015767949
21	0x39d19b4d	0.00039979295
22	0x390f7579	0.00013681305
23	0x3af1f2e6	0.001845923
24	0x39e46eef	0.000435702
25	0x3a3cfacd	0.0007209003
26	0x38acbc9d	8.236731e-05
27	0x3d0c09c6	0.03418901
28	0x3d24e183	0.040254127
29	0x3ab452c6	0.0013757579
30	0x3a052981	0.0005079732
31	0x3a54d863	0.00081194023
32	0x39fdf6d8	0.00048439833
33	0x39358994	0.00017312757
34	0x3ba2b6cc	0.0049656387
35	0x3ad42821	0.0016186276
36	0x3af1a682	0.0018436464
37	0x3aa12af2	0.0012296124
38	0x3ab9f750	0.0014188085
39	0x3be21d16	0.00690044
40	0x3b5d58bf	0.003377482
41	0x3a6ef44a	0.00091153814
42	0x3a3926f9	0.00070629973
43	0x3a39f3db	0.0007093527
44	0x3bf4e480	0.0074735284
45	0x3c1b8caa	0.009493986
46	0x3b156715	0.0022797037
47	0x3ad2cde1	0.0016083085
48	0x3a6cc1b9	0.00090315525
49	0x3a3ad946	0.0007127713
50	0x3a4acd57	0.00077362865
51	0x3ae2342f	0.0017257984
52	0x3c07889f	0.008272319
53	0x3ababf1d	0.001424763
54	0x3a8eb2ac	0.0010886989
55	0x39f6d51a	0.0004707955
56	0x3c82a676	0.015948515
57	0x3805e476	3.1922442e-05
58	0x3998faa3	0.00029178438
59	0x3a4b9c23	0.00077671016
60	0x3a0c0f40	0.00053428486
61	0x3a346b17	0.00068824127
62	0x39b4e1a2	0.00034500385
63	0x3a44b71c	0.0007504092
64	0x3a43ea37	0.00074735604
65	0x3aec0f9a	0.0018010021
66	0x38c7765d	9.511106e-05
67	0x3a6d0dcd	0.0009042889
68	0x3add7780	0.0016896576
69	0x3a6fa1d2	0.00091412396
70	0x3a16c9b5	0.00057521026
71	0x3aa9f697	0.0012967166
72	0x3afdd8f3	0.0019367024
73	0x3810901a	3.446648e-05
74	0x3a15e028	0.0005717301
75	0x3b7e35cf	0.0038789397
76	0x3a158e77	0.0005705128
77	0x39fe9f5a	0.0004856538
78	0x3aeca399	0.0018054127
79	0x398fc513	0.00027421917
80	0x3a9b2ddf	0.0011839232
81	0x397837ef	0.0002367196
82	0x39e24bad	0.00043162462
83	0x381580e0	3.5644392e-05
84	0x3abfe90d	0.0014641598
85	0x39df77e4	0.000426232
86	0x3d0615cc	0.03273563
87	0x3944c7e4	0.00018766482
88	0x3986d50a	0.00025717198
89	0x3a27245e	0.00063759636
90	0x3ab65356	0.0013910334
91	0x3ac28be2	0.0014842714
92	0x3a2d646b	0.000661439
93	0x3a8330f3	0.0010009095
94	0x3a149e9e	0.0005669388
95	0x39c27390	0.00037088664
96	0x3975b421	0.00023432124
97	0x3902df57	0.00012480967
98	0x39e109b4	0.00042922574
99	0x3a1f94c1	0.0006087535
100	0x39930d39	0.00028047877
101	0x38208b9f	3.8277005e-05
102	0x39c73b06	0.00038000214
103	0x39c30ea3	0.00037204204
104	0x398c32c1	0.00026740695
105	0x391af5f8	0.00014778215
106	0x3a1fe4ad	0.0006099444
107	0x3a345cfa	0.00068803097
108	0x3a8a2bea	0.0010541652
109	0x3a1e789d	0.00060451945
110	0x3a40acaf	0.00073499506
111	0x3a3729d8	0.0006987131
112	0x3961bb0d	0.00021527354
113	0x3a41e5f3	0.0007396631
114	0x3a262d6f	0.00063391676
115	0x3aabc96f	0.0013106297
116	0x3a19a38a	0.0005860856
117	0x3a85ef98	0.0010218499
118	0x38b0469b	8.405485e-05
119	0x39402ba3	0.00018326803
120	0x387f8ace	6.092601e-05
121	0x3a0d3193	0.000538611
122	0x3a27ef20	0.0006406177
123	0x387d206e	6.0350103e-05
124	0x3755fb7e	1.2754344e-05
125	0x3a6bef64	0.00090002106
126	0x3ac583b0	0.0015069153
127	0x3a459b89	0.000753813
128	0x391b9ca2	0.00014840302
129	0x39c1e44e	0.0003698193
130	0x39406614	0.00018348574
131	0x3941dea2	0.00018488851
132	0x3ad5ec24	0.0016320986
133	0x3985fd2f	0.00025556373
134	0x3a9535b7	0.0011383806
135	0x39c64146	0.00037814135
136	0x39bab7c7	0.0003561361
137	0x3ae7d62b	0.0017687728
138	0x3a576696	0.00082168856
139	0x39e04f21	0.00042783565
140	0x3a96d943	0.0011508841
141	0x3a3597e3	0.0006927235
142	0x3b2c3bb5	0.0026280705
143	0x3b84b3f8	0.0040497743
144	0x3ab1970f	0.0013549047
145	0x3ad10af5	0.00159487
146	0x3afab99f	0.0019128806
147	0x3a394d19	0.00070686784
148	0x3a908ca8	0.0011028247
149	0x3a40c356	0.0007353326
150	0x3ad50847	0.0016253077
151	0x37ab9c82	2.0457668e-05
152	0x3a0f2f76	0.00054620893
153	0x39f2220c	0.00046183204
154	0x3ad7bb19	0.0016458958
155	0x36b40812	5.3653575e-06
156	0x38f31752	0.00011591487
157	0x3a0dfcbd	0.0005416384
158	0x3a2695af	0.0006354702
159	0x399a9442	0.0002948363
160	0x39646fc4	0.0002178541
161	0x3a24a437	0.00062805734
162	0x3a67f78e	0.0008848839
163	0x3b14a7b7	0.0022682974
164	0x38e28da4	0.000108029024
165	0x39c7cdec	0.00038109662
166	0x3a94e99b	0.0011361124
167	0x3a1ec8ad	0.00060571247
168	0x3987ac33	0.00025877505
169	0x3af2614a	0.0018492129
170	0x3aa8d1d5	0.0012879918
171	0x368e105c	4.2338343e-06
172	0x39d80902	0.00041205442
173	0x3b1a651c	0.00235588
174	0x39e0b791	0.00042861377
175	0x3988e085	0.00026107221
176	0x384a32b3	4.820777e-05
177	0x391ae59b	0.00014772119
178	0x3a5dc571	0.0008459902
179	0x3a08cdd9	0.0005218662
180	0x39a4ec11	0.000314564
181	0x380c3465	3.3427397e-05
182	0x3a2209fc	0.00061812974
183	0x3a5ad21f	0.00083473505
184	0x3bbfb3f3	0.005850309
185	0x38b0c702	8.429402e-05
186	0x38d27047	0.000100344936
187	0x3a22b6ed	0.00062070676
188	0x3a016cef	0.0004937192
189	0x397d830e	0.00024176782
190	0x39aa41c9	0.0003247394
191	0x39688aba	0.00022176924
192	0x3a3681e2	0.0006962103
193	0x3a182545	0.00058038934
194	0x3880283b	6.111009e-05
195	0x37e0ed51	2.681339e-05
196	0x3b9dbf8b	0.0048140935
197	0x3ce1f3c5	0.027582059
198	0x3c6f04c1	0.014588536
199	0x3afdd017	0.0019364384
200	0x3bb6f1ca	0.0055830227
201	0x3bc48c1a	0.0059981467
202	0x3b91e9d9	0.0044529256
203	0x3b31e4b9	0.0027144386
204	0x3c7a4d47	0.015277213
205	0x3c57e5fa	0.013177389
206	0x3c776b90	0.0151013285
207	0x3bcd5d39	0.0062672165
208	0x3b4aed34	0.0030964138
209	0x3c5f5504	0.013631109
210	0x3adaec4b	0.0016702501
211	0x3d9d9628	0.07694656
212	0x3bcab2de	0.0061858734
213	0x3d179704	0.037009254
214	0x3d25b0df	0.04045188
215	0x3c1b9445	0.009495799
216	0x3b0c0902	0.0021367674
217	0x3a11f35d	0.0005567575
218	0x3c73f69a	0.014890337
219	0x3c7599d4	0.014990289
220	0x3b7169e5	0.00368368
221	0x3b94c825	0.0045404606
222	0x3a5ad6f1	0.0008348069
223	0x3e09f377	0.1347178
224	0x3cf3bd6d	0.029753411
225	0x3ce2b003	0.02767182
226	0x3bee35dd	0.0072696046
227	0x3bbfe311	0.005855926
228	0x3b507911	0.0031810442
229	0x3a38b765	0.0007046371
230	0x3c7345e2	0.014848204
231	0x3b42769f	0.0029672754
232	0x3c9a6d12	0.018850837
233	0x3cab4c8f	0.02091053
234	0x3a32a6c0	0.0006815009
235	0x3ca6dba0	0.020368397
236	0x3bdcc5e3	0.006737457
237	0x3befbb0e	0.007316
238	0x3bba7a02	0.005690814
239	0x3bf90e4d	0.0076005817
240	0x3be2ed3a	0.0069252523
241	0x3caf8cae	0.021429386
242	0x3ca065ee	0.019579854
243	0x3d048db2	0.032361694
244	0x3da2fa14	0.07957855
245	0x3c1f5d45	0.009726827
246	0x3d22d4be	0.039753668
247	0x3c8ea91b	0.01741462
248	0x3bc63ddb	0.006049854
249	0x3be413a1	0.0069603478
250	0x3bb2c546	0.0054556457
251	0x3c2e4a5e	0.010637848
252	0x3dcfa632	0.10139121
253	0x3b5ffc86	0.0034177615
254	0x3b27be1d	0.0025595494
255	0x39eae2d6	0.00044800964
