models/cfv/mmkfcv1.pth (torch, 490360 bytes, 18 tensors)

lstm.weight_ih_l0 f4 [392, 1]
0	0x3e9dd6cb	0.30827937
1	0x3e615c41	0.22007848
2	0xbe1812f9	-0.14850987
3	0x3ea0cad5	0.3140475
4	0x3f4ae940	0.7926216
5	0xbe88d979	-0.26728418
6	0x3f1747a7	0.5909371
7	0x3d86a857	0.06575077
8	0xbea704c8	-0.32620835
9	0x3fd8d8ea	1.6941197
10	0x3f4c3d23	0.7978079
11	0xbe160e40	-0.14653873
12	0x3da406af	0.08009087
13	0x3e995cbd	0.29953566
14	0xbdc4f370	-0.096167445
15	0x3fc70a05	1.5549933
16	0xbd57882f	-0.05262011
17	0x3f867709	1.0505077
18	0xbfb094c2	-1.3795397
19	0xbf1f4e65	-0.62228996
20	0xbfb42674	-1.4074235
21	0x3f87d2ef	1.0611247
22	0xbff3b26e	-1.9038827
23	0xbefaa5f6	-0.48954743
24	0x3eed211f	0.46314332
25	0xbe8b9efa	-0.27269727
26	0x3e7fab4d	0.2496769
27	0xbe144aa0	-0.14481592
28	0x3ea54550	0.32279444
29	0xbdd1cb3f	-0.10243844
30	0x3d9c7990	0.07640374
31	0xbeb5f9db	-0.35542187
32	0xbe902fd4	-0.2816149
33	0xbf124bf5	-0.5714715
34	0xbdb1fdf0	-0.08691013
35	0x3f13ca90	0.5773096
36	0xbe6fdc85	-0.23423965
37	0x3ebfaa78	0.37434745
38	0x3fb6573f	1.4245375
39	0x3e8e9102	0.27845007
40	0x3ea22834	0.31671298
41	0x3e68079d	0.22659154
42	0x3f226446	0.63434255
43	0x3e5a0ff4	0.21295148
44	0xbe937701	-0.2880173
45	0x3eb606ca	0.35552055
46	0x3edd6326	0.43239707
47	0x3f356ec1	0.7087212
48	0xbef50864	-0.47857964
49	0xbb786ce4	-0.00379067
50	0xbe2838c7	-0.16427909
51	0x3e1e8037	0.15478598
52	0x3f5508ae	0.8321637
53	0x3f1f6c53	0.62274665
54	0xbde73e51	-0.11291183
55	0xbe2ce5c2	-0.1688452
56	0x3f379da1	0.717249
57	0xbf142ab8	-0.57877684
58	0xbe57e9cd	-0.21085282
59	0xbe1b7679	-0.15181912
60	0xbe9f7aa0	-0.31148243
61	0x3f033d18	0.51265097
62	0x3f98e3ad	1.1944481
63	0xbde0681b	-0.109573565
64	0xbf1487d6	-0.5801977
65	0x3e079f93	0.13244466
66	0x3de2914a	0.11062868
67	0xbceff887	-0.029293312
68	0x3db93a8e	0.090443715
69	0xbedd9ff8	-0.4328611
70	0xbee44048	-0.44580293
71	0xc02e94e5	-2.7278378
72	0x3dcbffa2	0.099608675
73	0xbdfb4bbf	-0.12270307
74	0xbf455d69	-0.7709566
75	0x3f5bb963	0.8582975
76	0x3f81dfec	1.014646
77	0x3f142488	0.5786824
78	0x3f033c41	0.51263815
79	0xbe8b9b62	-0.27266985
80	0xbf3c0e7f	-0.7345962
81	0xbd781d96	-0.06057509
82	0x3f21e99f	0.632471
83	0xbf6e1e02	-0.9301454
84	0x3cfc9a7d	0.030835385
85	0xbf51faaa	-0.8202311
86	0x3ea352b0	0.31899023
87	0xbe0d9485	-0.13826187
88	0x3ea590cf	0.32337043
89	0xbe92a28a	-0.28639632
90	0xbf0157dd	-0.50524694
91	0xbe87dfaf	-0.26537845
92	0x3e14dea9	0.14538063
93	0x3e275cd7	0.1634401
94	0xbc8800d2	-0.016601954
95	0xbf046111	-0.5171061
96	0x3f20b881	0.6278153
97	0xbc602d43	-0.013682666
98	0x374a9d29	1.207673e-05
99	0x3e946abb	0.2898768
100	0x3f3852bd	0.7200125
101	0x3f28c8c5	0.6593135
102	0x3ec0780f	0.37591597
103	0xbeb48194	-0.3525511
104	0x3e0b0fc6	0.13580236
105	0x3ea0127f	0.3126411
106	0xbd7a4d80	-0.061109066
107	0xbe8527a4	-0.26006806
108	0x3f30981b	0.68982095
109	0xbe55d42d	-0.2088172
110	0x3e6f60a5	0.2337671
111	0x3c6fc976	0.014635434
112	0xbe465388	-0.19367802
113	0x3dbe54df	0.092935316
114	0x3d194a26	0.03742423
115	0xbec1d63f	-0.3785877
116	0xbe3f7ada	-0.18699208
117	0xbe8916cc	-0.26775205
118	0xbe351ad5	-0.17686017
119	0x3ed4d11d	0.4156579
120	0x3e013aa9	0.12620033
121	0xbe4cb2c9	-0.19990076
122	0x3e8311d6	0.25599545
123	0x3e13b5e2	0.14424852
124	0x3e690c41	0.2275858
125	0x3e073aca	0.1320602
126	0x3f3406dc	0.70322967
127	0x3d7ffe48	0.06249836
128	0xbe554da2	-0.20830396
129	0xbefce687	-0.49394628
130	0x3de5ee33	0.112270735
131	0xbe8a406a	-0.2700227
132	0xbe9a3fac	-0.30126703
133	0x3ea79ea1	0.32738212
134	0xbfa3fb62	-1.2811091
135	0x3de376d7	0.11106651
136	0x3d95988f	0.07304489
137	0xbe78f877	-0.24313532
138	0xbe031628	-0.1280142
139	0x3f06d2e0	0.5266552
140	0xbe2d59a8	-0.16928732
141	0x3e884414	0.2661444
142	0xbef0e83e	-0.47052187
143	0x3f1bee68	0.60910654
144	0x3e5bcb44	0.21464258
145	0x3f10e8ae	0.5660504
146	0xbf19128c	-0.59793925
147	0xbdc78cb6	-0.09743635
148	0x3ce54aa6	0.027989697
149	0x3f242826	0.6412376
150	0x3cfcfde6	0.030882787
151	0xbe3ea5cd	-0.18617935
152	0x3dab4884	0.08363441
153	0xbe449a28	-0.19199431
154	0x3f027665	0.50961906
155	0x3c41e1ff	0.011833667
156	0x3e5afdc2	0.21385863
157	0xbe1f217f	-0.15540121
158	0xbf0b6251	-0.54446894
159	0x3e9dd82b	0.30828986
160	0x3f690f0a	0.9103857
161	0xbd7db15c	-0.06193672
162	0xbf1cd63d	-0.612644
163	0x3ece1f27	0.40258142
164	0xbee950e4	-0.45569527
165	0x3e4fe5af	0.20302461
166	0xbde83ebf	-0.11340093
167	0x3ea7dc3c	0.32785213
168	0xbf52ff05	-0.8242038
169	0x3eae74a2	0.3407336
170	0x3f0733fd	0.528137
171	0x3ea364fe	0.31912988
172	0xbedf7481	-0.43643573
173	0x3db21e46	0.086971804
174	0x3e0b9992	0.13632801
175	0x3f478cb0	0.7794905
176	0x3f240fa0	0.6408634
177	0x3c5b6aa1	0.0133921215
178	0xbf811a6f	-1.0086192
179	0x3d22c802	0.039741524
180	0xbc3bf0e3	-0.011471006
181	0xbe7c2fc0	-0.2462759
182	0x3ebdfeb9	0.371084
183	0x3f1000aa	0.56251013
184	0x3b2caa2f	0.0026346555
185	0x3e97c738	0.2964418
186	0x3d4827e3	0.048866164
187	0x3ea037bf	0.3129253
188	0x3f0bd54f	0.5462236
189	0xbeec27a0	-0.4612398
190	0x3c412170	0.011787757
191	0x3f2a59dd	0.6654337
192	0xbee763d7	-0.4519336
193	0xbde191a2	-0.110141054
194	0xbddd5571	-0.10807312
195	0x3dd185fe	0.10230635
196	0xbefac723	-0.48980054
197	0xbf2a1f41	-0.6645394
198	0xba133e8e	-0.00056169264
199	0x3e0a94d0	0.1353333
200	0x3e9fad25	0.31186786
201	0xbe12c510	-0.14332986
202	0xbe97b81d	-0.29632655
203	0x3c2106bd	0.009828267
204	0x3fc1037d	1.507919
205	0xbf8b7b92	-1.0897086
206	0x3ec92233	0.39283904
207	0xbe31bec1	-0.17357923
208	0xbe80a8a8	-0.25128675
209	0xbebb75c3	-0.36613283
210	0xbd4b3b97	-0.049617376
211	0xbefd5b1f	-0.49483582
212	0x3c5bee71	0.013423548
213	0xbf5be9ce	-0.8590363
214	0xbf99d28f	-1.2017382
215	0x3e8aaeb0	0.270864
216	0x3f9056d2	1.1276495
217	0x3f195db8	0.5990863
218	0x3f6f970b	0.9358985
219	0x3f5239a0	0.8211918
220	0xbdbe0ef8	-0.09280199
221	0x3f7baa59	0.98306805
222	0xbe246df4	-0.16057569
223	0x3e39e865	0.18155058
224	0xbe103075	-0.14080985
225	0x3d98f797	0.07469099
226	0x3d09eb6d	0.033671785
227	0xbc6db721	-0.014508993
228	0x3dc944fd	0.098276116
229	0x3e94486b	0.289615
230	0x3e424e8a	0.18975273
231	0xbeb85151	-0.3599954
232	0xbf1fbec8	-0.62400484
233	0xbeabe5df	-0.33573815
234	0xbfaf8ae1	-1.3714257
235	0x3f06d675	0.52670985
236	0x3eef0225	0.46681324
237	0xbddccc25	-0.10781125
238	0xbf0c7769	-0.54869705
239	0xbebac995	-0.3648192
240	0x3e1b2571	0.15151002
241	0xbe4dec77	-0.20109735
242	0x3e9c936f	0.30581233
243	0xbf069278	-0.52567244
244	0xbf4f779a	-0.8104187
245	0xbe6822e5	-0.22669561
246	0x3dde316a	0.10849269
247	0xbf061f5c	-0.523916
248	0x3e859201	0.26087955
249	0xbec4e911	-0.38459066
250	0xbc343118	-0.010998033
251	0x3f3a40ca	0.7275511
252	0xbe72e3f4	-0.2371977
253	0xbef3327f	-0.47499463
254	0x3db452bb	0.08804842
255	0x3d6ef7ed	0.05834191

lstm.weight_hh_l0 f4 [392, 98]
0	0x3e178d26	0.14799938
1	0xbc86154d	-0.016367579
2	0x3f06087b	0.5235669
3	0xbe1b8999	-0.15189208
4	0xbccb49d0	-0.02481547
5	0xbd932284	-0.07184318
6	0xbf044fab	-0.51684064
7	0x3e96b6ea	0.29436427
8	0xbed2c379	-0.4116476
9	0xbe97757a	-0.29581815
10	0x3e8ec87e	0.27887338
11	0xbea7c9ac	-0.3277105
12	0xbdb05e14	-0.08611694
13	0xbe242002	-0.16027835
14	0xbeed71cb	-0.4637588
15	0xbf389e1f	-0.72116274
16	0x3e3b9816	0.18319735
17	0xbedea233	-0.43483123
18	0x3f2d6444	0.6773112
19	0x3e9b7e40	0.3036976
20	0x3c09dc40	0.008414328
21	0x3ea18db2	0.31553417
22	0xbe719df7	-0.23595415
23	0xbe501b13	-0.20322828
24	0xbe8edd9c	-0.2790345
25	0x3c81d86b	0.015850266
26	0xbe5c5da0	-0.2152009
27	0xbdfb3740	-0.122663975
28	0x3daf2f9c	0.08554003
29	0x3e270fd9	0.16314639
30	0x3ee37a2c	0.44429147
31	0x3ddadd04	0.10686687
32	0xbe13abf0	-0.14421058
33	0x3d613a5e	0.054987304
34	0xbde64668	-0.11243898
35	0xbf09e78b	-0.5386893
36	0x3d7f6bff	0.062358852
37	0x3c94a443	0.018144732
38	0x3ecd98f5	0.4015576
39	0xbeb55970	-0.35419798
40	0xbeaa8d32	-0.33310848
41	0xbe04c65f	-0.12966298
42	0x3e8b4f11	0.2720876
43	0x3d9eba05	0.07750324
44	0xbccdec94	-0.025137223
45	0xbe457610	-0.19283319
46	0x3eaba5a4	0.3352481
47	0x3e626521	0.2210889
48	0x3d19d22c	0.03755395
49	0x3d29f858	0.041496605
50	0xbc611947	-0.013738937
51	0xbe628946	-0.22122678
52	0x3df38434	0.1189045
53	0xbf36ac4d	-0.7135666
54	0x3df5c1c9	0.11999852
55	0xbe7393fd	-0.23786922
56	0xbf17a74a	-0.5923964
57	0xbe8e89ab	-0.27839407
58	0x3d9d8122	0.07690646
59	0x3dad6ffd	0.08468626
60	0x3f846ce6	1.0345733
61	0x3ef41bc4	0.47677433
62	0xbdc4c5aa	-0.09608014
63	0x3f298684	0.6622088
64	0xbf281001	-0.6564942
65	0x3ef6fa98	0.48238063
66	0xbd1fe171	-0.039033357
67	0x3e8de32c	0.2771238
68	0xbd350625	-0.044195313
69	0x3ef45c24	0.47726548
70	0xbefd6ee6	-0.4949867
71	0xbd7bbf9b	-0.061462026
72	0xbea20527	-0.31644556
73	0x3e0d53ce	0.138015
74	0xbf2a6eca	-0.665753
75	0xbb78134e	-0.0037853303
76	0x3e9a40d6	0.3012759
77	0xbde65771	-0.11247147
78	0x3e37730f	0.17914985
79	0x3d9fc361	0.078009374
80	0xbe7b0cbb	-0.24516575
81	0xbde7ed7d	-0.11324594
82	0x3f401fc9	0.750485
83	0xbf2535fa	-0.64535487
84	0x3cbe9dbc	0.023268573
85	0xbf2bffb4	-0.67187047
86	0x3e93728a	0.28798324
87	0x3edb06d7	0.42778656
88	0x3e610d87	0.21977817
89	0x3e994807	0.29937765
90	0x3f1d85a2	0.6153203
91	0xbe7f553a	-0.24934855
92	0x3de58ed1	0.11208881
93	0x3e4a60b4	0.19763452
94	0x3f0613bc	0.5237386
95	0x3edd4ba7	0.4322178
96	0x3f16cfbe	0.5891074
97	0x3eae36db	0.34026226
98	0xbd9dad8d	-0.07699118
99	0x3e5c181b	0.2149357
100	0x3e4050c6	0.18780813
101	0xbda5d35b	-0.080969535
102	0xbe005713	-0.12533216
103	0xbdddc8d9	-0.10829324
104	0x3e93f3fd	0.28897086
105	0x3ec05926	0.37568015
106	0xbe1069dc	-0.14102882
107	0xbefd88fd	-0.49518576
108	0x3ea2b4b3	0.31778488
109	0xbe87d206	-0.26527423
110	0xbd961074	-0.07327357
111	0xbe21ff65	-0.15820082
112	0x3f07c9f9	0.5304256
113	0x3ec576e9	0.38567284
114	0x3ecd4368	0.4009049
115	0xbf175474	-0.5911324
116	0x3f0d4539	0.5518375
117	0x3e357664	0.17720944
118	0x3e940697	0.28911278
119	0x3f527b3e	0.822193
120	0x3e6d62dc	0.23182243
121	0xbe0fef97	-0.1405624
122	0x3f0718f9	0.5277248
123	0xbe815367	-0.25258943
124	0xbc832534	-0.01600895
125	0x3eb44801	0.35211185
126	0x3f23c100	0.6396637
127	0x3e4f317f	0.20233725
128	0xbe69c7a3	-0.22830062
129	0x3dba1b03	0.09087183
130	0xbe0d43c1	-0.13795377
131	0x3eaf5a73	0.34248695
132	0x3f83b779	1.0290366
133	0xbf662754	-0.8990376
134	0xbd5cb451	-0.0538829
135	0xbccb8d64	-0.024847694
136	0xbeae1f31	-0.34008172
137	0x3e2dcf04	0.16973501
138	0x3f378e19	0.717012
139	0x3ecd1981	0.4005852
140	0x3d06709b	0.032822233
141	0xbe08c80a	-0.13357559
142	0xbd9fdddb	-0.078059874
143	0xbf0aaa9e	-0.5416659
144	0xbf576e6a	-0.84152853
145	0x3bb1492c	0.005410334
146	0xbd22709e	-0.03965818
147	0xbd702902	-0.058632858
148	0x3df03788	0.11729342
149	0x3e0d1241	0.13776495
150	0x3dc11eef	0.09429728
151	0xbec583a9	-0.3857701
152	0x3e6ff557	0.23433433
153	0xbe9b30e3	-0.30310735
154	0x3e830d3e	0.2559604
155	0xbf8d734f	-1.1050814
156	0x3c615337	0.01375275
157	0x3e9fe2d4	0.31227744
158	0xbe4ed0b3	-0.201968
159	0x3ec9a368	0.39382482
160	0xbecee771	-0.4041095
161	0x3ee20108	0.44141412
162	0xbec0e373	-0.3767353
163	0xbe5f0567	-0.21779405
164	0xbe22245e	-0.15834185
165	0x3e36fdbe	0.17870232
166	0x3ed1bc36	0.40963906
167	0x3e06b4f1	0.13154961
168	0xbf31fa81	-0.69522864
169	0xbf392319	-0.7231918
170	0xbdb62e62	-0.088955656
171	0x3e784afa	0.24247351
172	0xbe74f72b	-0.23922412
173	0x3ea90630	0.33012533
174	0x3f1db21a	0.61599886
175	0xbedbdc5f	-0.42941567
176	0x3e6fd260	0.23420095
177	0x3deb7be9	0.11498243
178	0x3e431219	0.19049872
179	0xbe0c5935	-0.13705905
180	0x3f2b7fae	0.669917
181	0xbf41d7bd	-0.75719815
182	0x3dd26339	0.102728315
183	0xbe4df25a	-0.20111981
184	0x3f0af020	0.5427265
185	0x3ed7a829	0.42120484
186	0xbf00040b	-0.5000617
187	0x3c8610f5	0.016365508
188	0x3d982a3a	0.07429929
189	0x3eefe0d1	0.4685121
190	0xbe7c47e2	-0.24636796
191	0x3ca70b64	0.020391174
192	0xbe303003	-0.17205815
193	0xbf806a81	-1.0032502
194	0x3d921fb3	0.071349524
195	0x3e5c4607	0.21511088
196	0x3e4e0209	0.20117964
197	0xbd944d92	-0.07241358
198	0xbec77b4c	-0.38961256
199	0xbe46d7ea	-0.19418302
200	0xbe786178	-0.24255931
201	0x3ec90033	0.39257964
202	0xbee8340a	-0.45352203
203	0xbea23405	-0.31680313
204	0x3e8ce192	0.27515846
205	0x3eb198c2	0.34686857
206	0x3e959822	0.2921763
207	0x3d9b9095	0.07595936
208	0xbe8199d9	-0.2531269
209	0x3cb9cf70	0.022681922
210	0xbe81552e	-0.252603
211	0x3f608acc	0.8771179
212	0x3f014303	0.50492877
213	0x3dc904cd	0.09815369
214	0xbf03a678	-0.51425886
215	0xbe8fd6e5	-0.2809364
216	0x3fdb833d	1.7149426
217	0xbc74068f	-0.014894142
218	0x3f012237	0.5044283
219	0x3baf5825	0.005351084
220	0x3ec9bff1	0.39404252
221	0xbe1692fc	-0.14704508
222	0x3e125909	0.14291777
223	0x3e49552a	0.19661394
224	0xbe1b2a3a	-0.15152827
225	0xbecff68b	-0.40617785
226	0xbf0644ca	-0.52448714
227	0x3dd3846f	0.10327994
228	0x3f2d4fb2	0.6769973
229	0xbee705f5	-0.45121732
230	0x3e4d7be3	0.2006679
231	0xbd64b72b	-0.055838745
232	0xbd333147	-0.043748166
233	0x3de73dfb	0.11291119
234	0x3e982bcd	0.29720917
235	0x3e55d808	0.2088319
236	0x3eb1e758	0.34746814
237	0xbefccc15	-0.49374452
238	0xbc682e7c	-0.014171239
239	0xbe3976dd	-0.18111749
240	0x3e01bccf	0.12669681
241	0x3e128603	0.14308934
242	0x3e601049	0.21881212
243	0xbdf546ee	-0.119764194
244	0xbeed26cb	-0.4631866
245	0x3c935a2b	0.017987331
246	0x3ea683c1	0.32522395
247	0x3f3663d6	0.7124609
248	0xbc649279	-0.013950937
249	0x3f7c05fc	0.9844663
250	0xbf36d961	-0.71425444
251	0x3d8eff48	0.06982285
252	0xbe2862da	-0.16443959
253	0xbe067707	-0.13131343
254	0x3d7f9d48	0.062405854
255	0xbd892bd0	-0.0669781

lstm.bias_ih_l0 f4 [392]
0	0xbe8ffdaf	-0.28123233
1	0xbc8713d6	-0.01648895
2	0x3e035ee0	0.1282916
3	0xbeba6413	-0.36404476
4	0xbf0c6cf0	-0.54853725
5	0xbec61d9e	-0.3869447
6	0xbf06631a	-0.52494967
7	0xbeece19c	-0.46265876
8	0xbd7cf030	-0.0617525
9	0xbe8bfcf9	-0.2734144
10	0xbd3f24bf	-0.046665903
11	0xbe89b6af	-0.2689719
12	0xbec99109	-0.39368466
13	0xbe9fa246	-0.31178492
14	0xbefed2e5	-0.49770275
15	0xbe8480df	-0.2587957
16	0xbe53cb4f	-0.20683025
17	0xbd8888a0	-0.06666684
18	0xbeb36235	-0.35035864
19	0xbe901c89	-0.2814677
20	0xbea13a23	-0.31489667
21	0xbc35d84d	-0.011098933
22	0xbefaea49	-0.4900687
23	0x3c77b40e	0.015118612
24	0x3dd914f1	0.105996974
25	0xbeddf2b8	-0.43349242
26	0xbed88ea2	-0.4229632
27	0xbe6be958	-0.23038232
28	0xbf18a4a1	-0.59626204
29	0xbee64564	-0.44974816
30	0xbeb791eb	-0.35853514
31	0xbd1e422f	-0.038637336
32	0xbe97ad49	-0.29624394
33	0xbe75bc37	-0.2399758
34	0xbe9d9124	-0.30774796
35	0xbe65142a	-0.22370973
36	0xbe3df4d9	-0.18550433
37	0xbe87a675	-0.26494184
38	0xb99f6ab3	-0.0003040634
39	0xbdf53fa2	-0.119750276
40	0x3d47017d	0.048585404
41	0xbf001f07	-0.50047344
42	0xbe4ed67b	-0.20199005
43	0xbf017ebd	-0.5058401
44	0xbe08d080	-0.13360786
45	0xbed68c7b	-0.41904053
46	0xbd92b46f	-0.07163321
47	0xbe9edcee	-0.3102793
48	0xbeaea0d5	-0.3410708
49	0xbf270801	-0.6524659
50	0xbeadeb9a	-0.33968812
51	0xbe859fc0	-0.26098442
52	0xbf05bc4c	-0.52240443
53	0xbb9ebe0c	-0.0048444327
54	0xbf085c2a	-0.5326563
55	0xbe3bdbf0	-0.18345618
56	0xbe8c9811	-0.27459767
57	0xbeaeb776	-0.34124345
58	0xbe88a354	-0.2668711
59	0xbee5ddd3	-0.448958
60	0xbe5cf936	-0.21579441
61	0xbeb14056	-0.34619397
62	0xbecf0b8b	-0.40438494
63	0x3d00b3c9	0.031421456
64	0x3cf72a9f	0.03017169
65	0xbda53020	-0.0806582
66	0xbe66d72e	-0.22543022
67	0xbde55ed1	-0.111997254
68	0xbe93b260	-0.28847027
69	0xbe811eb6	-0.25218743
70	0x3e1650f6	0.14679322
71	0xbe1aaba7	-0.15104543
72	0x3e6d8f1b	0.23199122
73	0xbdeed203	-0.1166115
74	0x3d357635	0.044302184
75	0xbe156c0d	-0.14592
76	0xbec1cc04	-0.37850964
77	0xbe856342	-0.2605229
78	0xbe6ce94d	-0.23135872
79	0xbedd5fd9	-0.43237188
80	0xbe65c7da	-0.22439519
81	0xbe313e6a	-0.17308965
82	0xbe93434d	-0.28762284
83	0xbda3100f	-0.07962047
84	0xbc365f32	-0.011131095
85	0x3d9151ac	0.07095656
86	0xbea98ead	-0.33116665
87	0xbefab66c	-0.48967302
88	0xbec32df8	-0.3812101
89	0xbcd5ff44	-0.026122697
90	0xbe4169d5	-0.18888028
91	0xbccdfca4	-0.025144883
92	0xbe9465a9	-0.2898381
93	0xbeb50988	-0.35358834
94	0xbec08b86	-0.37606448
95	0x3eb434b1	0.3519645
96	0xbedb16d4	-0.42790854
97	0xbee333ec	-0.4437555
98	0xbdebc633	-0.11512413
99	0xbe0449f0	-0.1291883
100	0x3d439dc0	0.047757864
101	0x3db0e3ef	0.08637225
102	0xbcde1bb7	-0.027112825
103	0xbbfa5c72	-0.007640415
104	0xbe0be144	-0.13660151
105	0xbe07260e	-0.1319811
106	0x3d305863	0.043053042
107	0x3d258c6f	0.04041713
108	0x3eb568d3	0.35431537
109	0xbe7240d8	-0.23657548
110	0x3cbe6a29	0.02324398
111	0xbe8154c5	-0.25259987
112	0xbc9a293e	-0.018818494
113	0xbe1ade6c	-0.1512391
114	0x3e572f3b	0.2101411
115	0x3d95222c	0.072819084
116	0x3ef11346	0.47085017
117	0xbda70715	-0.08155648
118	0xbdac7c7c	-0.08422181
119	0x3d48b9ec	0.049005434
120	0x3e08d30c	0.13361758
121	0x3ed60802	0.41802984
122	0xbe4b908d	-0.1987936
123	0x3e1d4f9b	0.15362398
124	0x3e754cd0	0.23955083
125	0x3ea9a436	0.33133096
126	0xbdd1e1d6	-0.10248153
127	0x3e89accc	0.26889646
128	0x3ed8b298	0.42323756
129	0x3c858495	0.016298572
130	0xbdbf8d87	-0.09353166
131	0xbd9b83ac	-0.07593474
132	0xbdf9e371	-0.12201584
133	0x3e05cc8e	0.13066313
134	0xbd2994d3	-0.041401695
135	0x3e5d3cdf	0.21605252
136	0x3e7f89c7	0.24954902
137	0x3f075439	0.5286289
138	0xbe8ced95	-0.2752501
139	0xbd8f990d	-0.07011614
140	0x3eddbc3b	0.4330767
141	0xbbf8a48d	-0.0075879754
142	0xbdf2b32d	-0.11850581
143	0x3dcb805e	0.099365935
144	0x3e959678	0.2921636
145	0x3e93f6b0	0.28899145
146	0xbd54e70b	-0.051978152
147	0x3d611f08	0.054961234
148	0x3e13f26a	0.14447942
149	0xbe5f0d21	-0.21782352
150	0xbd4e86b7	-0.050421443
151	0xbea28c4f	-0.31747672
152	0x3d8d562e	0.06901203
153	0x3ddb2b79	0.10701651
154	0x3e8b0a45	0.27156273
155	0xbda7a15e	-0.08185075
156	0xbcf69d8f	-0.030104427
157	0x3d8e83d3	0.06958737
158	0xbdc35ddc	-0.09539387
159	0x3eac4aff	0.33650967
160	0xbddb2889	-0.10701091
161	0xbea28ac8	-0.31746507
162	0x3dd2e9db	0.10298511
163	0x3f24a66b	0.64316434
164	0x3e97be9b	0.29637608
165	0x3ebe39e7	0.3715355
166	0xbc0df1b6	-0.008663585
167	0x3e73f930	0.23825526
168	0xbdb631fd	-0.08896253
169	0xbe4fc953	-0.20291643
170	0xbe71eb05	-0.23624809
171	0x3ef65c18	0.48117137
172	0xbae3e10e	-0.0017385797
173	0xbe72594f	-0.23666881
174	0xbd0a41c8	-0.03375414
175	0xbd0e0043	-0.03466822
176	0x3e4ced6e	0.20012447
177	0x3e84fd06	0.25974292
178	0x3cd3915f	0.025826154
179	0x3e55c10e	0.20874426
180	0xbdfe4ff3	-0.12417593
181	0xbe67a1f0	-0.22620368
182	0x3ebaed9f	0.36509416
183	0xbd54fcca	-0.05199889
184	0x3da61d99	0.08111114
185	0x3dcb0064	0.09912184
186	0x3e85b16e	0.2611193
187	0xbe21db36	-0.15806279
188	0xbe64d8e6	-0.22348365
189	0x3d726a6c	0.059183523
190	0x3ed3ac46	0.41342372
191	0xbddcdede	-0.10784696
192	0xbd5cfe56	-0.05395349
193	0xbf0a9b6b	-0.541434
194	0x3eca8ea0	0.3956194
195	0xbdedfc0a	-0.11620338
196	0x3d80bc17	0.06285875
197	0x3e10382c	0.14083928
198	0xbe0eaf90	-0.1393416
199	0xbe7914a3	-0.24324279
200	0xbcbdd4db	-0.023172786
201	0x3cd5bbdc	0.026090555
202	0xbc9273d9	-0.017877506
203	0xbb183671	-0.002322581
204	0x3d6afdc6	0.057370923
205	0x3e50c82c	0.2038886
206	0xbad2cf50	-0.0016083512
207	0x3c4c60d3	0.012474257
208	0x3d8415f5	0.064495005
209	0x3e23ee40	0.16008854
210	0xbe195507	-0.14973842
211	0x3e58092e	0.21097252
212	0x3e1459b3	0.14487343
213	0x3d81eaba	0.06343599
214	0xbd50fe4f	-0.051023778
215	0x3e0a2e96	0.13494334
216	0xbd415e21	-0.04720891
217	0xbd44521f	-0.04792988
218	0x3d9b4201	0.075809486
219	0x3dd5c4f4	0.104379565
220	0x3e8a533d	0.2701663
221	0xbdbd8268	-0.09253389
222	0x3de6e424	0.11273983
223	0xbe1d804e	-0.15380976
224	0x3d95c527	0.073129945
225	0xbcea67e1	-0.028613986
226	0xbca31c49	-0.019910948
227	0xbda11c98	-0.07866782
228	0xbb1b2da4	-0.0023678327
229	0x3cf7b22d	0.030236328
230	0x3d0937bc	0.033500418
231	0xbd1e44f1	-0.038639966
232	0x3dbf52d9	0.09341974
233	0x3bade150	0.0053064004
234	0xbdc0711f	-0.09396576
235	0x3df67ba5	0.12035302
236	0x3e21cd55	0.15800984
237	0x3d91debc	0.07122561
238	0x3d051f57	0.03250059
239	0xbd11f834	-0.035637096
240	0xbe4cf709	-0.20016111
241	0xbd2188f9	-0.039437268
242	0x3bab21a2	0.005222515
243	0xbcae2967	-0.021259977
244	0xbe0fb0ab	-0.14032237
245	0x3cbeaa4c	0.023274563
246	0xbdbbe26c	-0.09174046
247	0xbd917fd9	-0.07104463
248	0xbdcb5a3b	-0.099293195
249	0x3e8b0ae0	0.27156734
250	0xbe350dfe	-0.17681119
251	0xbc6770f4	-0.014126051
252	0x3d8f0349	0.069830485
253	0xbc34e5ca	-0.011041114
254	0xbda4e552	-0.08051552
255	0xbd6684b4	-0.0562789

lstm.bias_hh_l0 f4 [392]
0	0xbe5fba5c	-0.21848434
1	0xbe58f945	-0.21188839
2	0xbc20c002	-0.009811403
3	0xbebf99b9	-0.3742197
4	0xbf0c424a	-0.5478865
5	0xbf042a7a	-0.51627314
6	0xbeb2018a	-0.347668
7	0xbeceedbf	-0.4041576
8	0xbd0bdd30	-0.034146488
9	0xbead7280	-0.3387642
10	0xbdf4d44e	-0.119545564
11	0xbe86cc81	-0.263279
12	0xbe93f678	-0.28898978
13	0xbebc03ae	-0.36721557
14	0xbf0091bd	-0.5022238
15	0xbe81b8b7	-0.2533624
16	0xbd61ddd4	-0.055143192
17	0x3d476103	0.048676502
18	0xbeb34c5e	-0.350192
19	0xbeb57c15	-0.3544623
20	0xbea58c29	-0.32333496
21	0x3c661cce	0.0140449535
22	0xbf012f6d	-0.5046299
23	0xbdd69c8d	-0.104790784
24	0x3d315cc3	0.043301355
25	0xbee03c71	-0.43796113
26	0xbe8e5cb0	-0.2780509
27	0xbe6fb083	-0.23407178
28	0xbf1c95da	-0.61166155
29	0xbee58dfc	-0.44834888
30	0xbedbe152	-0.42945343
31	0xbd891c93	-0.06694903
32	0xbeba4243	-0.3637868
33	0xbea541d1	-0.32276776
34	0xbe97aa8a	-0.29622298
35	0xbec51c1f	-0.38498017
36	0xbe89f639	-0.26945665
37	0xbe9ddd4f	-0.30832908
38	0x3d497fbc	0.049194083
39	0xbe427d3f	-0.1899309
40	0xbceb2532	-0.02870426
41	0xbeea75ac	-0.45792902
42	0xbe99910e	-0.2999348
43	0xbf150e1e	-0.58224666
44	0xbdd8a99c	-0.105792254
45	0xbeb4916d	-0.352672
46	0xbde2e075	-0.11077968
47	0xbe5ae488	-0.2137624
48	0xbec3809b	-0.38184056
49	0xbf1150d8	-0.5676398
50	0xbe92ba64	-0.2865783
51	0xbed0372d	-0.40667096
52	0xbeeb6cf8	-0.45981574
53	0x3d888346	0.066656634
54	0xbef677c4	-0.4813825
55	0xbe461438	-0.1934365
56	0xbe9968fc	-0.2996291
57	0xbea6eb32	-0.32601315
58	0xbe80c969	-0.25153664
59	0xbedc2e43	-0.43004045
60	0xbec402bf	-0.38283345
61	0xbe9273cf	-0.2860398
62	0xbeef3a06	-0.46723956
63	0xbdaff619	-0.08591861
64	0x3d6b2812	0.05741126
65	0xbd641dd9	-0.055692527
66	0xbe1cb939	-0.15305032
67	0xbd8e63ce	-0.0695263
68	0xbeaf3778	-0.34222007
69	0xbe565cc1	-0.2093382
70	0x3d7df117	0.0619975
71	0xbe697227	-0.22797452
72	0x3dddd7a3	0.10832145
73	0x3b4180e0	0.0029526278
74	0xbc323a69	-0.010878184
75	0xbdd12d57	-0.10213726
76	0xbe6b95c9	-0.23006357
77	0xbe6b6599	-0.22987975
78	0xbe68d5d3	-0.22737817
79	0xbefc6291	-0.4929395
80	0xbe72636a	-0.23670736
81	0xbe10bf24	-0.14135414
82	0xbed4a881	-0.41534808
83	0xbce63883	-0.028103119
84	0x3a0c3378	0.00053482456
85	0x3e2f8409	0.17140211
86	0xbe928bdd	-0.28622332
87	0xbe9dfa80	-0.3085518
88	0xbedfea3e	-0.437334
89	0x3d15ec10	0.03660208
90	0xbddf18a7	-0.10893374
91	0x3d60a717	0.05484685
92	0xbe9de5d2	-0.308394
93	0xbee97826	-0.45599478
94	0xbea4ad76	-0.3216359
95	0x3ebf999a	0.37421876
96	0xbe950bdf	-0.2911062
97	0xbe872202	-0.26393133
98	0xbe8b6444	-0.27224934
99	0xbe004d08	-0.12529385
100	0x3dff89ad	0.124774314
101	0x3e0d907a	0.13824645
102	0xbc64bd62	-0.013961168
103	0x3b8e3ce3	0.0043407544
104	0xbe1e0836	-0.1543282
105	0xbce7669f	-0.028247176
106	0x3e14b43a	0.14521876
107	0x3da372db	0.07980891
108	0x3e841f4e	0.25805134
109	0xbe1f02fa	-0.15528479
110	0x3d120f77	0.03565928
111	0xbe369bf8	-0.17832935
112	0x3db3a4bb	0.08771654
113	0xbd79914e	-0.06092959
114	0x3e474128	0.19458449
115	0x3de7237d	0.11286066
116	0x3f049000	0.51782227
117	0xbbe7c8d2	-0.0070735
118	0x3a0c3bf1	0.0005349508
119	0xbd8f300c	-0.06991586
120	0x3e12c9ce	0.14334795
121	0x3eb2567e	0.34831613
122	0xbe3f0c01	-0.18656923
123	0x3d9ea5f3	0.07746496
124	0x3e4ac60c	0.19802111
125	0x3ec66f20	0.38756657
126	0xbe0a002c	-0.13476628
127	0x3e6f060b	0.23342149
128	0x3ec25b02	0.37960058
129	0xbd5f2908	-0.05448249
130	0xbd4358d5	-0.04769214
131	0x3da566e9	0.08076269
132	0xbd9f37e6	-0.07774334
133	0x3e0e2051	0.13879515
134	0xbd9fabca	-0.07796438
135	0x3e993742	0.2992497
136	0x3e60200f	0.2188723
137	0x3eebf61f	0.46086213
138	0xbe608f8c	-0.21929759
139	0xbdca42c6	-0.09876017
140	0x3ea858ee	0.32880348
141	0x3d3e2c26	0.046428822
142	0xbda23f12	-0.07922186
143	0x3d175400	0.036945343
144	0x3e2f58b4	0.17123681
145	0x3e41ad22	0.18913701
146	0xbd66ebe4	-0.056377307
147	0xbbe6c468	-0.0070424564
148	0x3e97273f	0.2952213
149	0xbdb31b0a	-0.08745392
150	0xbdd240df	-0.102662794
151	0xbe9c6266	-0.30543822
152	0xbbdc4801	-0.0067224507
153	0x3cd6d297	0.026223464
154	0x3eb4081f	0.35162446
155	0x3ba74d5c	0.0051056575
156	0xbe186e38	-0.14885795
157	0x3e0aa87f	0.13540839
158	0x3d287762	0.041129477
159	0x3eb7ef58	0.35924792
160	0xbd64945e	-0.055805556
161	0xbeb5871c	-0.35454643
162	0x3e222d64	0.15837628
163	0x3f0b3f00	0.54393005
164	0x3e50b00b	0.20379655
165	0x3ec85d28	0.39133573
166	0xbd092017	-0.03347787
167	0x3e6cc9a7	0.231238
168	0x3d81a5b0	0.063304305
169	0xbe218a6f	-0.15775464
170	0xbe8b0562	-0.27152544
171	0x3ec37bd1	0.38180402
172	0x3da9c462	0.0828941
173	0xbe00b2fe	-0.1256828
174	0xbe29e8c1	-0.16592695
175	0xbe29aab7	-0.16569029
176	0x3e26c7e8	0.16287196
177	0x3e7ef01a	0.24896279
178	0x3dcd1114	0.10013023
179	0x3e27fde6	0.16405448
180	0xbdc5c873	-0.09657373
181	0xbe7a4650	-0.24440885
182	0x3eb9a6e6	0.36260146
183	0xbdd0bafe	-0.10191916
184	0x3c995177	0.018715603
185	0xbbbd23b9	-0.0057720807
186	0x3e42f109	0.1903726
187	0xbd7d8cee	-0.06190198
188	0xbddc7a82	-0.10765554
189	0xbc9a822e	-0.018860903
190	0x3e851899	0.2599533
191	0xbdfca238	-0.12335628
192	0xbd6a8ab3	-0.05726118
193	0xbec78144	-0.3896581
194	0x3eda42fe	0.42629236
195	0x3d5a96f7	0.053366628
196	0x3c65620b	0.014000426
197	0x3db59a26	0.08867292
198	0xbd9553f2	-0.07291402
199	0xbe783f63	-0.2424293
200	0xbd171fc5	-0.036895532
201	0x3dc00e7d	0.093777634
202	0x3d3962b8	0.04526016
203	0xbd0b9f51	-0.034087483
204	0xbc968260	-0.018372715
205	0x3e98ae24	0.2982036
206	0x3d4d9bb0	0.050197303
207	0xbd518781	-0.051154617
208	0xbdaeffab	-0.085448585
209	0x3e5cc3c6	0.21559057
210	0xbdb2e9d5	-0.08736006
211	0x3e49a0c7	0.19690238
212	0x3e8634de	0.2621221
213	0x3e1d51e3	0.15363269
214	0xbd7e8e29	-0.062147293
215	0x3dd85205	0.10562519
216	0x3e194308	0.14966977
217	0xbe013782	-0.12618831
218	0x3e02b3f6	0.12763962
219	0x3d1e9eec	0.03872578
220	0x3ea5df60	0.32396984
221	0xbd86455f	-0.065562
222	0x3d875383	0.066077255
223	0xbe2b68e6	-0.16739234
224	0xbd0128ed	-0.03153317
225	0xbe1a83c2	-0.15089324
226	0xbcec1832	-0.028820131
227	0xbd627ed1	-0.055296723
228	0x3de6d583	0.11271193
229	0xbc8fc4b8	-0.017549857
230	0xbce5e922	-0.028065268
231	0x3c0646b4	0.008195568
232	0xbba53cc8	-0.005042646
233	0x3db0a4da	0.08625193
234	0xbcf61959	-0.030041384
235	0x3dc443ee	0.09583269
236	0x3da44d5b	0.08022567
237	0xbd7cbde0	-0.061704516
238	0xbdb7ba45	-0.08971075
239	0x3cdad8f4	0.02671478
240	0xbdabc846	-0.083878085
241	0x3d8999ad	0.067187645
242	0xbdce4821	-0.10072351
243	0xbcd2fa4a	-0.025754113
244	0x3d427bee	0.04748147
245	0xbd090f79	-0.03346202
246	0xbe0a0fa6	-0.13482532
247	0xbc4b7825	-0.012418781
248	0xbd9437ed	-0.072372295
249	0x3e66fe1d	0.22557874
250	0xbe3067cf	-0.172271
251	0xbc758f86	-0.014987832
252	0xbc13755e	-0.0090001505
253	0xbd12d7a2	-0.035850175
254	0x3bb4c3e3	0.0055165156
255	0xbaf52309	-0.0018702458

fc1.weight f4 [9, 98]
0	0xbf48730e	-0.7830056
1	0xbe91a3b7	-0.28445217
2	0x3eee737f	0.46572492
3	0xbf96cb3a	-1.178077
4	0x3ed5236f	0.41628596
5	0xbe222859	-0.15835704
6	0xbdcc5ced	-0.09978662
7	0x3e88b18d	0.2669796
8	0xbf325255	-0.6965688
9	0xbdfeee89	-0.12447841
10	0x3e271209	0.16315474
11	0x3e3c1541	0.18367483
12	0xbe8fa3ae	-0.28054565
13	0x3ee5770d	0.4481739
14	0x3e4cd8ac	0.20004529
15	0x3f6615f0	0.89877224
16	0xbf12eb86	-0.5739063
17	0xbe8d11e7	-0.2755272
18	0xbd61b436	-0.055103503
19	0xbf152148	-0.5825391
20	0x3e6a611f	0.22888611
21	0x3ed77b74	0.42086375
22	0xbe8054a1	-0.25064567
23	0xbf062457	-0.523992
24	0xbed6f096	-0.41980428
25	0x3e9552dc	0.2916478
26	0xbdf11f07	-0.11773496
27	0x3eb765a4	0.35819733
28	0xbe5ad44f	-0.21370052
29	0xbe46e7b8	-0.19424331
30	0xbf22e8c6	-0.63636434
31	0x3e93e009	0.28881863
32	0x3e73fe9b	0.23827593
33	0xbf12cac8	-0.5734067
34	0x3da06f94	0.07833782
35	0x3e0d78ba	0.13815585
36	0x3e9db1cd	0.30799714
37	0x3ed96eea	0.42467433
38	0xbd7b10c5	-0.06129529
39	0x3d491c18	0.049099058
40	0xbde3846d	-0.111092426
41	0x3e841e1f	0.2580423
42	0x3d585f3c	0.052825198
43	0x3ebffed5	0.3749911
44	0x3e765388	0.24055302
45	0xbc9a3677	-0.018824799
46	0xbf24c616	-0.64364755
47	0x3e632f83	0.22186093
48	0xbe1abe9a	-0.15111771
49	0x3c9ad0f4	0.018898465
50	0x3dc310c1	0.0952468
51	0x3eaee6fd	0.34160605
52	0x3cc6cf0d	0.024268651
53	0x3f3a36b4	0.7273972
54	0xbe16b3e2	-0.14717057
55	0xbeb0d6a2	-0.34538752
56	0x3cacd8ea	0.021099526
57	0x3e452321	0.19251682
58	0xbfaae1d1	-1.3350164
59	0x3efaecef	0.4900889
60	0x3f94f7f1	1.1638166
61	0xbf641c32	-0.8910552
62	0xbeb8a197	-0.36060783
63	0xbf145712	-0.5794536
64	0x3ec45bcc	0.38351285
65	0x3ed64378	0.4184835
66	0xbee39a25	-0.4445354
67	0x3e151b7d	0.14561267
68	0x3e3912fe	0.18073651
69	0x3e4b8db2	0.19878271
70	0x3ea051d2	0.31312424
71	0x3d481553	0.04884846
72	0xbf1b51ff	-0.6067199
73	0x3e1cd6bc	0.1531629
74	0x3ed596f8	0.41716743
75	0x3e291916	0.16513476
76	0x3db2deb4	0.087338835
77	0xbedc3910	-0.43012285
78	0xbf295aa6	-0.66153944
79	0xbd02a2ad	-0.03189342
80	0x3daa3203	0.0831032
81	0x3df05761	0.11735416
82	0xbe906667	-0.28203127
83	0xbede49fd	-0.43415824
84	0x3e802a19	0.25032118
85	0xbe42424f	-0.18970607
86	0xbeeb4bad	-0.45956174
87	0x3e829c8d	0.25510064
88	0xbee6745f	-0.4501066
89	0x3e544d37	0.2073258
90	0x3e217543	0.15767388
91	0x3d96736e	0.07346235
92	0xbe671ce0	-0.22569609
93	0x3f6c7227	0.9236168
94	0x3da26966	0.079302594
95	0x3e305964	0.172216
96	0xbe7168f6	-0.23575196
97	0x3e61aa8d	0.22037716
98	0x3f34394d	0.70399934
99	0x3e9a1be4	0.30099404
100	0x3ee87f99	0.4540985
101	0xbf5a621f	-0.8530597
102	0x3eee5eaf	0.46556613
103	0xbcbf57c9	-0.023357289
104	0x3e15f73d	0.14645095
105	0x3e08a634	0.13344651
106	0xbeb2b7c9	-0.34905842
107	0xba5115e8	-0.00079759816
108	0xbd8a9c35	-0.067680754
109	0xbeb11d9f	-0.34592912
110	0xbeab7c0f	-0.33493087
111	0x3ba0963f	0.004900723
112	0x3db6d46d	0.08927236
113	0xbe8ff657	-0.2811763
114	0x3ee415b3	0.44547805
115	0x3f5c1f72	0.8598548
116	0x3ed51945	0.41620842
117	0x3ea502c7	0.3222868
118	0xbe0e6b20	-0.13908052
119	0x3f00e4e4	0.5034926
120	0x3e6be39f	0.2303605
121	0xbe8130ed	-0.2523264
122	0xbe1227a2	-0.14272931
123	0x3df2de74	0.11858836
124	0xbd2c3320	-0.042040944
125	0xbe1f61ab	-0.15564601
126	0xbf4a133e	-0.7893561
127	0x3ea7a9c7	0.32746717
128	0xbf166aea	-0.5875689
129	0xbf120622	-0.5704061
130	0x3d37bf35	0.044860084
131	0x3f1b022e	0.605502
132	0x3ea1f564	0.3163253
133	0xbe5c3165	-0.21503218
134	0x3e406c47	0.18791305
135	0xbf72b586	-0.9480823
136	0xbd3bc1ea	-0.045839228
137	0x3f60db5a	0.87834704
138	0xbe7adcc5	-0.2449828
139	0x3d093035	0.03349324
140	0x3ce44403	0.027864462
141	0xbe5fbdc5	-0.21849735
142	0x3e709e6f	0.23497938
143	0x3e2ddfbc	0.16979879
144	0xbe9a1525	-0.30094257
145	0xbe5948b2	-0.21219137
146	0xbe84625f	-0.258563
147	0x3e46cebb	0.19414799
148	0xbda96d54	-0.08272806
149	0x3f69bf4e	0.9130753
150	0xbd981d70	-0.0742749
151	0x3e9fbb3a	0.3119753
152	0xbd1a36b6	-0.037649833
153	0x3e1e58f5	0.15463622
154	0x3e9d2aec	0.3069681
155	0x3cc5e440	0.02415669
156	0x3f691d3e	0.91060245
157	0xbf14902e	-0.580325
158	0x3f0d5867	0.55213016
159	0x3f8b214e	1.0869539
160	0x3bd0c2ad	0.0063708634
161	0x3dcd9a43	0.10039189
162	0xbf7a6f80	-0.97826385
163	0xbe6f4fd9	-0.23370303
164	0x3e744a2a	0.23856416
165	0xbd00c64a	-0.031439103
166	0x3f08d720	0.53453255
167	0xbbc54ee5	-0.006021368
168	0x3f06d13a	0.52663004
169	0x3d9c9f9d	0.07647631
170	0x3e06b87b	0.13156311
171	0x3d6d12b1	0.057879154
172	0x3c301ada	0.010748589
173	0x3e655c9f	0.22398613
174	0x3ec6621e	0.38746732
175	0x3d99997a	0.074999765
176	0x3f2a25ba	0.66463816
177	0x3b872074	0.0041237418
178	0xbd120741	-0.03565145
179	0x3f90832c	1.129003
180	0x3eae1179	0.33997706
181	0x3f3bbbf1	0.7333365
182	0xbe922857	-0.28546402
183	0x3d5f0182	0.054444797
184	0xbe5b8edf	-0.2144122
185	0xbd25bae7	-0.040461447
186	0xbe82965e	-0.25505346
187	0xbe5ac0df	-0.21362637
188	0xbee4aea2	-0.44664484
189	0x3e18ecd5	0.14934094
190	0xbd9ce084	-0.076600105
191	0x3e1178cf	0.14206241
192	0xbf7854d5	-0.97004443
193	0xbe95637d	-0.29177466
194	0x3de715fa	0.112834886
195	0xbedd8c7b	-0.4327124
196	0x3ea93d71	0.3305469
197	0xbe433629	-0.19063629
198	0xbf48140f	-0.78155607
199	0x3f02c282	0.51078045
200	0x3e22bcc8	0.15892327
201	0x3e46a813	0.19400053
202	0x3e6c4eef	0.23076986
203	0xbf9783f6	-1.1837146
204	0x3b86aa2b	0.004109641
205	0xbe108e49	-0.14116777
206	0xbe1a36a3	-0.15059905
207	0xbf9309ae	-1.1487329
208	0x3ead4885	0.3384439
209	0x3ebbd77a	0.36687833
210	0x3e771cc7	0.24132071
211	0xbf216a95	-0.63053256
212	0xbeaf60f4	-0.34253657
213	0xbc0fb859	-0.008771979
214	0xbd01a377	-0.031650033
215	0x3e41a42d	0.18910284
216	0xbd857367	-0.06516152
217	0xbf594753	-0.8487446
218	0x3e4123f7	0.18861376
219	0xbe9a2bbb	-0.3011149
220	0x3ebeccce	0.3726563
221	0xbf7813c0	-0.96905136
222	0x3f4f51d3	0.8098423
223	0xbf05b1fd	-0.52224714
224	0xbe7c4a79	-0.24637784
225	0xbe549212	-0.20758846
226	0x3d2ae3f6	0.041721307
227	0xbe1768ab	-0.14786021
228	0xbe87edf9	-0.26548746
229	0x3d4a1db3	0.04934473
230	0xbe7aa517	-0.2447704
231	0x3eec8c61	0.4620085
232	0x3f485e74	0.78269124
233	0xbe1f64b8	-0.15565765
234	0x3ebc667e	0.36796945
235	0xbf09569a	-0.5364777
236	0x3e48dfb7	0.1961659
237	0xbdcace1d	-0.09902594
238	0xbd5211eb	-0.05128662
239	0x3e6d35a1	0.23164989
240	0x3e86d7ed	0.26336613
241	0x3f105ffc	0.5639646
242	0xbf2eb1b1	-0.68239886
243	0x3edfbf95	0.43700853
244	0xbf37272d	-0.7154415
245	0x3de53a00	0.11192703
246	0xbeee3ba0	-0.46529865
247	0x3f48938a	0.78350127
248	0xbf009d96	-0.5024046
249	0x3ec61d29	0.38694122
250	0x3e90bb55	0.28267923
251	0xbe8c0e51	-0.27354673
252	0x3ebd0ec0	0.36925316
253	0x3e5b65c7	0.21425544
254	0xbf6f4969	-0.9347139
255	0x3f098f05	0.53733855

fc1.bias f4 [9]
0	0xbe78601e	-0.24255416
1	0x3db7fe3e	0.0898404
2	0x3e03908f	0.12848113
3	0x3be2a0e9	0.0069161546
4	0xbe2261e3	-0.15857653
5	0x3cdfc6aa	0.02731641
6	0x3d87b0c2	0.06625511
7	0xbc9111f3	-0.017708754
8	0xbeafa708	-0.34307122

exp_avg f4 [392, 1]
0	0x3af8bc64	0.0018977043
1	0x3b998221	0.004684702
2	0x3c5d51be	0.013508258
3	0x3d1cc5a1	0.03827441
4	0xbc285d30	-0.010276124
5	0xbaf925a0	-0.0019008406
6	0xb8c8d1a5	-9.5757925e-05
7	0xbb8693ab	-0.004106959
8	0x3c84c139	0.016205417
9	0x3c5069a6	0.012720501
10	0xbb6ca97b	-0.003611176
11	0xbb891c2c	-0.0041842666
12	0x3ab6d4fc	0.0013948972
13	0xbb4b07f3	-0.003098008
14	0x3ba554bc	0.0050455015
15	0xbb247f93	-0.0025100454
16	0xb9ff8d58	-0.000487427
17	0xba9fb5ab	-0.0012184879
18	0xbc91055c	-0.01770275
19	0xbaa660d5	-0.0012693653
20	0x3c1a18b7	0.009405307
21	0xbbf1b07b	-0.0073757744
22	0xbc4ade0b	-0.012382041
23	0xbb8f9ec6	-0.004382941
24	0x3a15d79d	0.0005716028
25	0xbbe7aef5	-0.007070417
26	0xba6b721a	-0.0008981541
27	0xba153ae2	-0.0005692673
28	0xbb5c955f	-0.0033658368
29	0xb8b4563c	-8.599131e-05
30	0x3b5ceafe	0.0033709402
31	0xba21a0e1	-0.00061656354
32	0xba4fa668	-0.000792122
33	0xbbb2c780	-0.005455911
34	0x3b872f5b	0.0041255183
35	0x3c1564d1	0.009118275
36	0xbae71859	-0.0017631158
37	0x3bc16260	0.00590162
38	0xbc1dde80	-0.009635568
39	0xbd25bad5	-0.04046138
40	0x3ad64eeb	0.0016350424
41	0x3b68fa11	0.0035549442
42	0xbbe66fe2	-0.0070323804
43	0x39c27d06	0.00037095713
44	0x3ae29f34	0.0017289878
45	0xbc413dc3	-0.01179451
46	0x3bf36132	0.007427358
47	0x3ae4e80a	0.0017464173
48	0x3b839643	0.0040157153
49	0xb6bdcd9a	-5.656574e-06
50	0x3a7f8724	0.00097476155
51	0x3b444cd0	0.002995301
52	0x3c072bb1	0.008250163
53	0x3b1d9eaf	0.0024050882
54	0x3c3bfe55	0.011474212
55	0xb95aeabb	-0.00020877544
56	0x3b644efb	0.0034837115
57	0xbb86c9ab	-0.004113396
58	0xb923e7c9	-0.00015631238
59	0x3aeab318	0.0017906157
60	0x3c076566	0.008263921
61	0x3b4edf45	0.0031566184
62	0x3aa495fd	0.0012556907
63	0x3b98f679	0.0046680537
64	0xbab8ca68	-0.0014098408
65	0xbc820111	-0.01586965
66	0xbb6f30c5	-0.0036497575
67	0x3bb9b669	0.005667497
68	0xbb2b2c72	-0.002611902
69	0x3b1853e2	0.0023243357
70	0xbb770fe9	-0.0037698692
71	0x394434fb	0.00018711753
72	0x396d5c3c	0.00022636441
73	0xbb0b6dd6	-0.0021275184
74	0xbbff6628	-0.0077941604
75	0xba2804bb	-0.00064093963
76	0xbb61d469	-0.0034458882
77	0x3a84581a	0.0010097057
78	0x3bdd2407	0.0067486796
79	0x3c7ded4b	0.01549847
80	0xbb23c4e7	-0.002498919
81	0x3ca7cf30	0.020484537
82	0x3b939ee4	0.004505025
83	0xbac13dc3	-0.0014743138
84	0x3ad986d3	0.0016595967
85	0x3c09f626	0.008420503
86	0x3bf0a1b8	0.007343497
87	0x3b91da1a	0.0044510486
88	0xbc5e254f	-0.0135587
89	0xbbd765f1	-0.0065734317
90	0xbae944c1	-0.001779698
91	0xbc203bed	-0.009779912
92	0x3c6c1bdd	0.01441094
93	0x392bcacb	0.00016383377
94	0xba44e05f	-0.00075102405
95	0x3a160a00	0.0005723536
96	0xbc5e8f80	-0.013584018
97	0x3ab1f793	0.0013577811
98	0x3c0cd233	0.008595037
99	0xbc26da14	-0.01018383
100	0x3b8066b8	0.003918495
101	0xba3973fb	-0.00070744724
102	0xbb8d859f	-0.0043189074
103	0xba295d9d	-0.0006460788
104	0xbb89a7ba	-0.004200903
105	0xbaae8418	-0.0013314513
106	0x3ad80521	0.0016481021
107	0x3d3c0ef4	0.045912698
108	0x3aba6bc3	0.0014222789
109	0xbac36fa6	-0.0014910593
110	0x3a15c2f8	0.00057129515
111	0xbab0eb03	-0.0013497773
112	0x3b059baf	0.0020386984
113	0xbbe7c3eb	-0.007072916
114	0x38ae7539	8.318801e-05
115	0xbb009b64	-0.001962387
116	0xb9e2a5e6	-0.00043229683
117	0xba4032ba	-0.00073317776
118	0xbbba965c	-0.0056941938
119	0x3c3320eb	0.010933141
120	0xbb8e0361	-0.004333899
121	0xba0725a8	-0.00051554525
122	0x3a8a63cc	0.0010558306
123	0xbb79ec49	-0.0038135222
124	0xba15c412	-0.00057131157
125	0xb822bb9d	-3.879854e-05
126	0xbb85a567	-0.0040785554
127	0xb987df44	-0.00025915552
128	0xbb148e05	-0.0022667658
129	0x39956e80	0.00028501824
130	0xba332cb3	-0.0006834969
131	0xbbc3608c	-0.005962437
132	0x3b22e5be	0.0024856175
133	0x3b0e8d9e	0.002175189
134	0xbb0f2a4e	-0.0021845284
135	0xbbfb49fe	-0.0076687327
136	0xbb09348c	-0.0020935861
137	0xbc99a343	-0.018754607
138	0xbb9b245f	-0.0047345604
139	0x3a8606fc	0.001022547
140	0xbb5160d6	-0.0031948588
141	0xba2a4b11	-0.0006496171
142	0xbc0778d8	-0.0082685575
143	0xb9e96ea1	-0.00044523648
144	0xb987abb5	-0.00025877138
145	0xbaca8a7b	-0.0015452647
146	0xbb4bc777	-0.0031094232
147	0xb8df5ddb	-0.000106509506
148	0x3b2a8b68	0.0026023034
149	0x3bd2780b	0.0064230016
150	0xb91f34a4	-0.00015183032
151	0x3ba04d21	0.004892007
152	0x37ffb76a	3.0483778e-05
153	0xb74869e2	-1.1945582e-05
154	0xb9870d8b	-0.00025759297
155	0x3979b107	0.00023812438
156	0x3a8d33ce	0.0010772885
157	0x3a87f2d6	0.0010372053
158	0x3c2634ea	0.010144452
159	0xbb662c4b	-0.0035121616
160	0x3a03c534	0.0005026639
161	0x3aa3ebc6	0.0012506179
162	0x39c4faa4	0.00037570775
163	0x3b76882b	0.0037617784
164	0xba356e6f	-0.0006921058
165	0x3a93a4cd	0.0011264324
166	0xbad1b631	-0.0015999732
167	0x3ab3578d	0.0013682708
168	0xbb90bfbb	-0.0044173873
169	0x396b63fc	0.00022448594
170	0x3a3f1dd4	0.00072905165
171	0xba524fd3	-0.0008022759
172	0xb9151867	-0.00014218838
173	0x3a1db081	0.0006015376
174	0xbbc5a9e5	-0.006032216
175	0x3a94af73	0.0011343792
176	0x3b4349bc	0.0029798588
177	0x3a0a1df2	0.00052687444
178	0xbad8f1a7	-0.001655151
179	0x3c440d27	0.011966026
180	0x3a8d4b4a	0.0010779884
181	0x3a96f467	0.0011516929
182	0xb9a898f4	-0.00032157416
183	0x3b795802	0.0038046842
184	0x3bda66cf	0.006665088
185	0x39992793	0.0002921192
186	0xbc391f0f	-0.011298909
187	0xbbbb2cb2	-0.005712115
188	0x3b221cba	0.002473636
189	0xbbb1a952	-0.005421796
190	0x3bcecb69	0.0063108695
191	0xbc1cf771	-0.009580479
192	0xbb151c76	-0.002275256
193	0x3a7fb856	0.0009754946
194	0xbbad6bdd	-0.0052923993
195	0xba74ea11	-0.000934274
196	0x3b83d60e	0.00402332
197	0x3d298ae0	0.041392207
198	0xbd68ca58	-0.056833595
199	0x3d891366	0.06693153
200	0xbd84937f	-0.06473445
201	0x3ba22823	0.0049486323
202	0x3ce377a0	0.027767003
203	0xbb9aeaa1	-0.004727677
204	0x3995e899	0.00028592793
205	0xbe3854e2	-0.1800113
206	0xbc55888d	-0.0130330445
207	0x3aa4bb1a	0.0012567968
208	0x3b173d9c	0.0023077494
209	0x3d09fbef	0.03368753
210	0xbbc48377	-0.005997117
211	0xbcf68b37	-0.03009568
212	0xba8b3f6b	-0.0010623758
213	0x3cf4b39f	0.029870806
214	0x3c6de9f7	0.014521114
215	0xbb4bfbd7	-0.003112545
216	0xbcaa25c3	-0.02076996
217	0x3ceb49f3	0.028721785
218	0xbcfde288	-0.030991808
219	0x3b3c19de	0.0028701941
220	0x3d4d6ed3	0.05015452
221	0xbb1ef91c	-0.0024257367
222	0x3c4232e1	0.011852951
223	0x3c3909ea	0.011293868
224	0x3aaaf7ae	0.0013043785
225	0xbc31241c	-0.010811832
226	0xba484ba6	-0.0007640667
227	0xb93abbd5	-0.00017808315
228	0x3b95ab8f	0.0045675705
229	0x3bb4278b	0.005497878
230	0x3b22db0e	0.0024849805
231	0x3bf2045a	0.0073857727
232	0xbc059f1a	-0.008155609
233	0x3c8abaac	0.016934715
234	0xbbb6a0cb	-0.0055733672
235	0xbc180418	-0.00927832
236	0xbd06fbf8	-0.03295514
237	0xbc8cf18f	-0.017205028
238	0xbc84ac32	-0.01619539
239	0xba9b2bde	-0.0011838635
240	0xbbbff2a0	-0.0058577806
241	0x3cbe5132	0.023232076
242	0x3c8ac889	0.016941326
243	0xb9d7d8f5	-0.0004116964
244	0x3ca0b66d	0.019618237
245	0x3b145fed	0.0022640184
246	0x3c560273	0.013062107
247	0xbb27b6a9	-0.0025591052
248	0x3dcae460	0.0990684
249	0xbdc1fd84	-0.094721824
250	0x3b81b372	0.003958159
251	0x3bc0a853	0.005879441
252	0x3d5d208a	0.05398611
253	0x3c077c58	0.008269392
254	0xbc89256c	-0.016741477
255	0xbb89f574	-0.0042101685

exp_avg_sq f4 [392, 1]
0	0x3a49cd31	0.00076981174
1	0x3ad6095d	0.0016329695
2	0x3b2df302	0.002654255
3	0x3c590a04	0.013247017
4	0x3abab483	0.001424447
5	0x38a6829f	7.939827e-05
6	0x3999f3ce	0.00029364083
7	0x3971548b	0.00023015046
8	0x3b181d8c	0.002321097
9	0x3c6e05bd	0.014527735
10	0x39f0f875	0.00045961482
11	0x3a03719b	0.0005014182
12	0x38a2f35d	7.770092e-05
13	0x3905ca26	0.00012759175
14	0x38d943d1	0.00010359998
15	0x3a566e04	0.0008179846
16	0x38bacc60	8.907239e-05
17	0x3ae04a8a	0.0017112058
18	0x3ca521d7	0.020157738
19	0x3878f3a8	5.935473e-05
20	0x3babfd08	0.0052486695
21	0x39e28301	0.00043203685
22	0x3acd3245	0.001565524
23	0x39e37bc8	0.00043389038
24	0x3a73322f	0.00092771923
25	0x3bbb3db8	0.0057141446
26	0x395b2d79	0.00020902407
27	0x3a4a4986	0.00077166443
28	0x3b0d3c0e	0.0021550688
29	0x38cc21c8	9.73377e-05
30	0x3bd1827d	0.0063937292
31	0x383901e0	4.4109183e-05
32	0x37e7fc47	2.7654822e-05
33	0x39dd85ea	0.00042252179
34	0x3a15e0a0	0.00057173707
35	0x3af96617	0.0019027618
36	0x3ae2fbcc	0.0017317473
37	0x3bdddffb	0.0067710853
38	0x3a17e162	0.00057937775
39	0x3cf85f04	0.030318744
40	0x39c96791	0.0003841487
41	0x39ea152f	0.0004464774
42	0x39519823	0.00019988469
43	0x3931cc78	0.00016956206
44	0x39bb17fb	0.00035685286
45	0x3a1ab6bd	0.0005901864
46	0x3b1a4f6f	0.0023545881
47	0x397ea216	0.0002428371
48	0x3bed825c	0.007248206
49	0x373efb9f	1.1383468e-05
50	0x3bc2b1c3	0.005941601
51	0x3a8c6ee9	0.0010714206
52	0x39cb03ac	0.00038721913
53	0x3a913a99	0.0011080086
54	0x3ab80e51	0.0014042353
55	0x3a0125ce	0.0004926593
56	0x3c3ad1f6	0.011402598
57	0x39a3066c	0.00031094567
58	0x39f655e2	0.00046984764
59	0x38ed09a6	0.00011302838
60	0x3b3fe546	0.0029280945
61	0x3b94a2d8	0.004536014
62	0x3ab8fb09	0.00141129
63	0x3aa25c31	0.0012387094
64	0x399c3c41	0.0002979953
65	0x3bce1446	0.006289038
66	0x3a2ae1a9	0.00065186113
67	0x39631db6	0.00021659475
68	0x392be1f4	0.00016392005
69	0x3c0b484a	0.008501122
70	0x3a81172f	0.0009848828
71	0x395e0b02	0.0002117567
72	0x391e7ad2	0.00015113808
73	0x3941c368	0.00018478709
74	0x3a2a3db3	0.0006494179
75	0x3936530e	0.00017387813
76	0x3a33acfd	0.00068540854
77	0x39ad9b2f	0.00033112752
78	0x3a50218d	0.000793957
79	0x3acc3efb	0.0015582734
80	0x3995ff11	0.00028609534
81	0x3b59f865	0.0033259627
82	0x3a4feb9f	0.00079315336
83	0x39dd8557	0.0004225175
84	0x39445352	0.00018723056
85	0x3aa60f1b	0.0012669297
86	0x3b167a22	0.002296098
87	0x39a8906a	0.00032151054
88	0x3b5f1a0b	0.0034042622
89	0x3a4f9d87	0.0007919897
90	0x3a144291	0.0005655671
91	0x3a6a3547	0.00089343305
92	0x3afe0ac4	0.001938187
93	0x3a72f0fa	0.00092674757
94	0x39749224	0.00023324095
95	0x39cc936a	0.00039019744
96	0x3ae008ec	0.0017092503
97	0x38be9d5d	9.089217e-05
98	0x39920fc6	0.00027859042
99	0x3a85d5a3	0.0010210763
100	0x3a156ba0	0.00056999363
101	0x3aa9665f	0.0012924186
102	0x3a1b5a55	0.0005926241
103	0x36e4b634	6.8161407e-06
104	0x3a0c496c	0.0005351517
105	0x391fbdc2	0.00015234112
106	0x3a380b21	0.00070207013
107	0x3ca71b56	0.020398777
108	0x39ca6bb7	0.00038608696
109	0x39b64279	0.0003476327
110	0x388fdf99	6.86042e-05
111	0x38d06f60	9.938958e-05
112	0x3963fa0d	0.00021741558
113	0x3a30e01b	0.00067472615
114	0x37cddd7d	2.4541043e-05
115	0x3a235a63	0.0006231425
116	0x3aaf4609	0.0013372313
117	0x37d1c312	2.5005578e-05
118	0x3b0a5afd	0.0021111362
119	0x3a38aca7	0.000704477
120	0x3a8e2d04	0.0010847156
121	0x3935eb2b	0.00017349112
122	0x3a819876	0.0009887356
123	0x3a0ae14f	0.0005297856
124	0x39baf613	0.00035660024
125	0x39b2cc08	0.0003410282
126	0x3a0626f5	0.00051174994
127	0x378a9a94	1.6522863e-05
128	0x396946ba	0.00022246959
129	0x380b1b15	3.3165405e-05
130	0x37a076c4	1.912879e-05
131	0x3923f32a	0.00015635477
132	0x3993d576	0.00028197066
133	0x3aa37749	0.0012471463
134	0x394fa571	0.0001980269
135	0x3a22f73e	0.00062166515
136	0x39684d91	0.0002215414
137	0x3abbaed7	0.0014319074
138	0x39c1d659	0.0003697153
139	0x390056d8	0.00012239383
140	0x38a9dc29	8.099556e-05
141	0x36df18a1	6.648785e-06
142	0x39d056c5	0.000397375
143	0x3881f398	6.196572e-05
144	0x3a49f769	0.00077044085
145	0x39909fb4	0.00027584808
146	0x3ac1b38a	0.0014778238
147	0x356c17de	8.795158e-07
148	0x3b317c5e	0.0027082185
149	0x3aae87bc	0.0013315598
150	0x39b8cac9	0.00035246302
151	0x3a55721e	0.000814231
152	0x3858963f	5.163834e-05
153	0x394bd420	0.00019438611
154	0x3a63b7e2	0.00086867635
155	0x39a51166	0.00031484215
156	0x3995b00d	0.00028550663
157	0x389b0f90	7.393875e-05
158	0x3ab76b15	0.0013993705
159	0x3b45539d	0.0030109652
160	0x39899444	0.00026241143
161	0x3a1d89e7	0.0006009624
162	0x3903901d	0.0001254682
163	0x3a153df5	0.0005693131
164	0x38df593a	0.000106500884
165	0x37d839c0	2.5776098e-05
166	0x38a97ae2	8.081437e-05
167	0x3ad9e148	0.0016622925
168	0x39b972a4	0.00035371364
169	0x3a314edd	0.00067637657
170	0x374aa9a7	1.20796385e-05
171	0x38d86767	0.00010318943
172	0x39cd5b40	0.00039168634
173	0x39788a2e	0.00023702599
174	0x3a505ad1	0.0007948103
175	0x38a4fd77	7.867341e-05
176	0x3923c979	0.00015619946
177	0x378fbe0a	1.7135422e-05
178	0x39390257	0.00017643847
179	0x3a373c3f	0.00069898734
180	0x3923d3e6	0.0001562383
181	0x3937185d	0.00017461316
182	0x37758ca6	1.4635885e-05
183	0x3a505681	0.00079474604
184	0x399b719f	0.00029648558
185	0x38fc8925	0.000120418415
186	0x3ae6637c	0.0017577256
187	0x3a159194	0.0005705592
188	0x3930beb9	0.00016855718
189	0x3a127083	0.00055862236
190	0x39170949	0.00014403941
191	0x3a276953	0.0006386239
192	0x393670b0	0.00017398852
193	0x394fdf99	0.00019824355
194	0x39c462a8	0.00037457538
195	0x3827f9d1	4.0048562e-05
196	0x3b6eccaf	0.003643792
197	0x3d08dc55	0.03341325
198	0x3c9794b2	0.01850352
199	0x3e8524fb	0.26004776
200	0x3cfcfb33	0.0308815
201	0x3a34a491	0.00068909774
202	0x3bf78cea	0.00755464
203	0x3ab14994	0.0013525956
204	0x3ac200ad	0.0014801227
205	0x3e1ef2a6	0.1552225
206	0x3bea4512	0.007149347
207	0x3bd19792	0.0063962424
208	0x3b34c1fe	0.0027581449
209	0x3bd2bd03	0.0064312234
210	0x398ecdb8	0.00027237623
211	0x3d39e839	0.04538748
212	0x39fc10fc	0.0004807784
213	0x3c02bf76	0.007980218
214	0x3ca6edb3	0.020377016
215	0x3beb445e	0.007179781
216	0x3d5ac229	0.05340782
217	0x3c9f41bc	0.019440524
218	0x3cb72ca7	0.02236016
219	0x3abf0fff	0.0014576911
220	0x3cf4b3af	0.029870836
221	0x3ad4dd68	0.0016240301
222	0x3beac2f0	0.0071643516
223	0x3a896f9a	0.001048553
224	0x3bc7f886	0.0061026243
225	0x3a8536bb	0.0010163406
226	0x3d01bdc3	0.03167511
227	0x3aa6c2b6	0.0012722823
228	0x3a53de0f	0.00080821005
229	0x3aaf6fb5	0.0013384732
230	0x3cb36c4e	0.02190223
231	0x3cb1f286	0.02172209
232	0x3ad7ac32	0.0016454516
233	0x3d483bc9	0.04888514
234	0x3b9dec47	0.004819426
235	0x3db28b3f	0.08717965
236	0x3c16ac1b	0.009196307
237	0x3af2806a	0.0018501405
238	0x3a8a4eee	0.0010552087
239	0x39184d55	0.00014524658
240	0x3c2bf25f	0.0104947975
241	0x3b9803fb	0.0046391464
242	0x3bef2148	0.0072976686
243	0x3a92d53d	0.0011202466
244	0x3bca4fef	0.0061740796
245	0x38ef75f8	0.000114183815
246	0x3bda58ce	0.0066634184
247	0x3d1a1f7b	0.03762768
248	0x3ca8c373	0.02060101
249	0x3d70de58	0.058805794
250	0x3b9ebb31	0.0048440923
251	0x3b85855d	0.004074736
252	0x3e07cfa5	0.13262804
253	0x3b6b4a69	0.0035902506
254	0x3b75eef3	0.0037526458
255	0x3b23b0b1	0.0024977142
