models/cfv/mmkfcv5.pth (torch, 490360 bytes, 18 tensors)

lstm.weight_ih_l0 f4 [392, 1]
00000000: 456d 813e 3423 223f 9876 0d3f 85ab 553f
00000010: dfeb 033f 599e 133f 07a9 0f3f a7c7 f23e
00000020: f861 043e 5e82 7cbf c1c0 d63e a8ef 6ebe
00000030: d95c 93bd 2530 c03d ab69 483f 909f 483f
00000040: 6a89 c63e 697c d53e 74e7 0abd 6ef1 1cbf
00000050: 98e7 0fbc 46d4 a23f d816 02bf 5852 e4be
00000060: b7bd de3e 919f acbe d3b6 b03e 24e5 c0be
00000070: 01e2 5a3f 0544 30be 1a06 003e 211f 213f
00000080: 77af c13e b8db f3bf d3d9 493f 7037 863e
00000090: 32e6 c8be b352 9f3f 4e45 6c3d 8f9a 873f
000000a0: 8f23 603f 05f8 913d 4998 9c3e 38b8 b2bd
000000b0: 1068 8bbf 2077 a43f 1c13 6dbe f86c d4bd
000000c0: 24d1 04bf bf1c 0f3f 6de8 7dbd 64a5 b8bc
000000d0: 0b15 803e 9143 51be ccc5 d53f b294 cc3e
000000e0: 97bf 0e3f 82cd 263f 9df3 b33e 2e6a a53f
000000f0: ec73 62be bb1a 6b3f 30b0 633f b3a9 1d3f
00000100: f215 43be f017 59bf 0a90 1fbd 51bf afbe
00000110: 92ba ae3e 42b1 b3bd 2e01 9b3e cd76 603c
00000120: 528d 5cbf bcb1 f13e 53df 023f d449 01bf
00000130: cd28 80bf 1627 523f 659f ef3e 5dac 1c3f
00000140: 16b1 17be 3f3c fb3e 8173 583e 9d7e a43e
00000150: a36b a03e 9acc 5cbe 250d 2ebf e559 aabe
00000160: 211f 1d3d 4890 16be ff33 293f 6a9a 0f3f
00000170: 6d78 0e3f c361 80bf 28af c1bf 7622 dd3e
00000180: 79cc 97bd 3ed1 4e3d 3f08 5c3f aa22 133f
00000190: 8ab8 f83e 6444 28be c396 363f ba13 a23e
000001a0: 9ea8 ff3e a843 1f3f e7cf cb3e 3c16 903c
000001b0: 2316 3c3f ea92 4ebe ac10 25bd a086 283f
000001c0: 78be c03e 2f5b 463e 2b3f 3b3f d809 db3e
000001d0: 3a89 c7bf 59e1 a4bd 2f2a 9a3e 2c59 323f
000001e0: e936 f83d 66b7 1dbf 0e51 983f 4b06 dcbe
000001f0: 5c53 a43e 594a 863e c9ca 4b3f a6fc df3d
00000200: 5003 243f 71ce b1bd 48ff d53e 93d9 c8bf
00000210: 4d00 9e3e 47b7 1e3f cd14 35bf 6597 78be
00000220: 02ee 443e 57ae 983e 0c87 193f b5d2 a5bd
00000230: e45c 6b3f 9780 bd3e 893e 3dbf 7595 0b3f
00000240: b8ce bf3d f823 073f 54ac a4be 364a 06bd
00000250: 7112 1e3d 7ee5 f73d 00de ba3e aef8 033f
00000260: 1d21 bdbf d8aa 923e c3fe 7c3f 1d6f 043f
00000270: 411d 303e f285 803f 8b66 c23e dae8 113f
00000280: a9b9 473f f186 cc3d a840 763d 4c14 5fbf
00000290: 5dea b63d 7216 97be be32 fc3d 3e24 86be
000002a0: 864d acba b92d 073e 1f4c 8ebe 0fc6 023f
000002b0: 0aeb 6d3f d589 c43e 46e2 07be 7aae 133f
000002c0: 8910 113d c053 5c3f e9a6 5bbf f882 903e
000002d0: cbdd 1b3f 344d 173e 063e d13e d08a 103f
000002e0: e8fe 7ebf 8517 cdbd 4a5a 213f 65bf 023e
000002f0: 2218 4a3f f2b3 b83d 4d00 df3e f4d9 c4bf
00000300: fd4c 0dbf 4d0f de3d e69f d43e 0724 dd3e
00000310: 2d95 e63d 2423 e4be 43b0 ea3c f2be 17bf
00000320: 6789 893d 750f bdbd 2464 ecbe a067 193e
00000330: 30ee afbd 439f 01bf 5722 b63e 6e06 80be
00000340: eaee 18be 8a7a 7bbf 92b8 e5be 2a9e d1be
00000350: a7de 0fbe 63b2 fabe 3a20 c4bf e7da 5a3f
00000360: 7cb0 893e 4e5c 563d b091 c73e 6a0f 983f
00000370: 6308 113f 3868 5e3e 173f c6be 6926 0d3e
00000380: fc57 16bd 8f24 9e3e 17dd b73d 0efc 383f
00000390: 27e6 813f 9e1d 81bf bed7 a13e 1be9 83bd
000003a0: 1da2 e2bc 6f81 9dbf db4f 89be 02f1 de3e
000003b0: e7a7 963e c017 493e b185 b7be 6ea3 223e
000003c0: 0806 52be 0cf2 40bf bf8f fe3e a1ed 20be
000003d0: d767 79bf 4ec5 11bf 0657 c93e 777b 59be
000003e0: 62d9 db3e bbc3 c4be 0410 cfbf 2d76 5cbe
000003f0: 7378 f93c 58e7 943d 46b7 f63d dd6a 9c3e
0.2527868 0.63334966 0.55259085 0.83464843 0.51531786 0.57663494 0.5611729 0.47417948
0.12927997 -0.98636425 0.41943935 -0.23333609 -0.07195444 0.09384183 0.78286237 0.78368473
0.38776714 0.4169648 -0.033912137 -0.6130589 -0.008783244 1.2721031 -0.50816107 -0.44594073
0.43504116 -0.3371549 0.34514484 -0.3767482 0.85501105 -0.17213447 0.12502328 0.62938124
0.37829182 -1.9051428 0.78848 0.2621417 -0.39238125 1.2447113 0.05768328 1.0594043
0.8755426 0.07127384 0.30584934 -0.08726543 -1.0891132 1.2848854 -0.23151821 -0.10372347
-0.51881623 0.5590324 -0.061989237 -0.022539802 0.25016055 -0.20435931 1.6700988 0.39957196
0.5576109 0.6515733 0.351468 1.2923028 -0.22114533 0.9183766 0.88940716 0.61587065
-0.1905134 -0.8480215 -0.038955726 -0.3432565 0.34126717 -0.087740436 0.30274338 0.013700199
-0.8615314 0.47205913 0.51122016 -0.5050328 -1.0012451 0.8209089 0.46801296 0.61200505
-0.14813647 0.49069402 0.21137811 0.32127848 0.3133212 -0.21562424 -0.67988807 -0.3327171
0.038359765 -0.14703476 0.66094965 0.5609499 0.55652505 -1.0029835 -1.5131578 0.43190354
-0.07412047 0.050492518 0.8595008 0.5747477 0.48578292 -0.16432339 0.71323794 0.31655675
0.49933332 0.6221261 0.39807054 0.017588727 0.7347128 -0.20173231 -0.040299103 0.6583042
0.37645316 0.19370721 0.7314326 0.42780948 -1.5588753 -0.08050794 0.3011031 0.69667315
0.12119848 -0.6160797 1.1899736 -0.4297355 0.32094848 0.26228598 0.796063 0.10936861
0.64067554 -0.08681954 0.41796327 -1.5691398 0.30859604 0.6199841 -0.70734864 -0.24276502
0.19231418 0.2982051 0.5997169 -0.0809683 0.91938615 0.3701217 -0.73923546 0.5452493
0.093656 0.5278926 -0.32162726 -0.032785617 0.038591806 0.12104319 0.36497498 0.5155133
-1.477573 0.28645968 0.98826236 0.51732045 0.1719866 1.0040877 0.3796886 0.5699593
0.7801767 0.099866755 0.060120255 -0.87140346 0.0893142 -0.29509312 0.12314366 -0.26199526
-0.0013145662 0.13201036 -0.2779245 0.51083463 0.92936766 0.38386407 -0.1326991 0.57688105
0.03541616 0.8606529 -0.8580156 0.2822492 0.60885304 0.14775544 0.40867633 0.5646181
-0.99607706 -0.100142516 0.63028395 0.12768324 0.78943074 0.09018697 0.43554917 -1.5379014
-0.551956 0.10842762 0.41528243 0.4319155 0.11258922 -0.4455806 0.028648501 -0.59275734
0.067156605 -0.09231464 -0.4617015 0.14980936 -0.085903525 -0.5063364 0.35573074 -0.25004905
-0.14934888 -0.98233855 -0.44867378 -0.40940982 -0.14049779 -0.48964223 -1.5322335 0.8549027
0.2689246 0.052334122 0.38978338 1.1879704 0.5665342 0.21719444 -0.3872001 0.13784184
-0.036705002 0.30887267 0.089777164 0.72259605 1.0148362 -1.0087163 0.3160991 -0.06440946
-0.027665192 -1.2305125 -0.26818737 0.4354325 0.29424974 0.19637966 -0.35844186 0.15882656
-0.20510113 -0.75369334 0.49719045 -0.15715648 -0.9742407 -0.5694169 0.39324206 -0.21238504
0.42939287 -0.3843058 -1.6176763 -0.21529455 0.030452942 0.07270688 0.120466754 0.3055028

lstm.weight_hh_l0 f4 [392, 98]
00000000: e49d f4be cd88 473e 8270 b93e 26f6 0b3c
00000010: f77f bebc b1f4 aebe 3bd1 22be 4e94 86be
00000020: 3305 7a3d 48af dcbe 025f 103e 6537 d1be
00000030: fd6c ecbe e893 a0bd 4cee 883e 95ce 0d3e
00000040: e2a3 aabd e293 54be c4d2 e63e 9a4b 853c
00000050: 3a7b babd d1ea 1abf 7c51 5b3e c8ae 753e
00000060: 823e 3d3e bf10 a03e bcb4 853d 1827 a93e
00000070: e04f 00bd 5375 ee3e b712 d4bd 5420 b73e
00000080: 6a26 95be f049 0dbf d3d4 343e 0745 113f
00000090: 15db 65be 3333 433e 1387 1ebd d6c7 98be
000000a0: a58b 563e e0c1 77be 92ba f2bc bc0b d6bd
000000b0: 8a65 b63d 7dda 583e 3261 853e 94ac b5bc
000000c0: a558 23be 1d21 873c dc77 2f3e eb8d 8f3d
000000d0: fecf 5a3d b681 c2be a54d a53e 0a88 df3e
000000e0: 824c 24be 0d29 f93d 53cd 223f 3eb5 9f3d
000000f0: 6c46 13be a055 a13e 2de9 39bd cf28 b03c
00000100: 0cba e33d 0ce8 733d 6ead 823e 696b a0be
00000110: fd0a 03be 1133 42be 56f3 45be 90f4 4f3d
00000120: cb5b b0be 77b0 e43d 449e 613e cd11 13be
00000130: 159f f2be 9856 00bd 0e07 4dbd a75e a83e
00000140: f88b c8bd bd00 9fbe 7446 82be b168 d43e
00000150: 4afc 923d 6747 e6bd f691 68be f900 9cbd
00000160: b54b 333e d6b3 9ebe 0cc7 3e3e 2c85 5dbe
00000170: a30e ba3e 9568 3abe 393e 11bd 6bd8 03bf
00000180: 7ea6 51be e168 863d 15fd 2cbf d7ef b9be
00000190: 4952 01bd b723 17bd e4c6 9c3f 52b7 62be
000001a0: cbe1 c4be e034 783e 79b8 673b 36c4 663e
000001b0: 7ef0 fa3d 5890 0fbf f680 7fbf 8812 24bf
000001c0: fdbe 7e3e d852 09be d402 f33e 002f b43e
000001d0: 42c8 45bd 9390 653d dcd6 113f e096 88bd
000001e0: 02c6 a43e 84a7 183f e57d efbd 8316 233d
000001f0: 2860 f33e 6422 9dbd aeb7 c23e 2e6f 593d
00000200: 1914 96be f06b 593f 2eac 88be 7209 d13d
00000210: 7f82 063f 49c3 073e 622c 34be d198 403e
00000220: ab40 9fbe f9ed 35be 25dc 93be f352 b73e
00000230: d18d 1ebe ec93 d23e 44f4 7bbe c1ac ef3c
00000240: 8440 a4be 4084 2abe 1ac9 eabe 094d b8be
00000250: 90f0 66bd da25 a7bd 6c95 63be e8fd e7be
00000260: 51a7 cd3d ca94 b2bc 6b68 d63d 47ab da3d
00000270: 9ded 52be 992a a93e 6675 4ebd 2d33 4abe
00000280: aa94 73be e3bf e13d 2977 5fbd 3bef a03e
00000290: 68fc 54bd c785 5a3e d6d4 e7be 6050 1abf
000002a0: 8a6e 55be aa05 693e 3772 b4bc 2368 273e
000002b0: 4bcd 403d 753e 053e 3dc5 a43e 3c68 d33e
000002c0: 2241 303d d47f 97bd e28f 62be 868b b8be
000002d0: ab7e 273c 28ed ac3e 558d 793f 5f31 8e3e
000002e0: 0c5e a4be 3ec5 d33d 2d78 e9be f026 18bf
000002f0: 27fa bebe 9ed8 103f 2e24 eebd fd8d 22bb
00000300: 9c2e 1cbf b74b a8bd 4cba f6bd 5b76 c0be
00000310: 73b8 3ebf 0608 83be a57a 1e3f 328f 303d
00000320: b5b9 093f 1676 e3bd f06e 82bb 269b 01bf
00000330: 334d 0e3f f55d cfbe 03ca 92bd 7392 28bd
00000340: 1b5e 8bbe 9205 973e c718 893e 24b0 a4be
00000350: 2c43 293e 8e8e 41bf 6d84 f43d fd5c 13bf
00000360: 1465 a6bc 0412 f43d c81e 083e 4cf9 733d
00000370: ee3d 3abd aacc 823e 885e 9bbe 08c8 0bbf
00000380: 45fe 943e a4b7 05be bf51 c13d 7c65 ab3e
00000390: 9564 76be 0c69 1ebf 3bf0 70bf 3ab5 063f
000003a0: 5f60 7abd 2d76 13be 5bfd 6fbe 56d1 9bbe
000003b0: 15b6 d8be d010 38be 67e5 d53e ad38 29be
000003c0: 17b7 cf3e dfe9 fa3e 34a0 76be 715f 4bbe
000003d0: 3734 5b3d b163 933e d76a 333d b392 b5bd
000003e0: d4f5 133e 962e 35be 39cc b0bd 2e02 7c3e
000003f0: b148 cd3e 7c83 f73e 02ae 543e 29ec 54bd
-0.4777671 0.19485779 0.3621865 0.008542573 -0.023254378 -0.3417106 -0.15900128 -0.26285022
0.061040115 -0.4310248 0.14098743 -0.40862575 -0.461769 -0.07840711 0.26744306 0.13848336
-0.083320394 -0.20759538 0.45082676 0.016271401 -0.09105535 -0.6051455 0.21417803 0.23992455
0.18480876 0.31262776 0.06528613 0.3303764 -0.031326175 0.46573886 -0.10355132 0.35766852
-0.2913087 -0.55190945 0.17659311 0.5674595 -0.22446854 0.190625 -0.038703036 -0.29839963
0.20951708 -0.24195051 -0.02962998 -0.10451457 0.08906086 0.21177097 0.26050717 -0.022177018
-0.15951784 0.016495282 0.17135566 0.070094906 0.053421013 -0.37989587 0.322858 0.43658477
-0.1604481 0.12166033 0.6359455 0.07798241 -0.14382333 0.3151064 -0.04538839 0.021503834
0.1111947 0.05954747 0.2552294 -0.31331947 -0.1279716 -0.18964793 -0.19331107 0.050770342
-0.34445032 0.111664705 0.2203303 -0.14362259 -0.47386995 -0.031332582 -0.050055556 0.32884714
-0.09792322 -0.3105525 -0.25444376 0.41486123 0.071770266 -0.11244088 -0.2271193 -0.07617373
0.17509349 -0.3099658 0.18630618 -0.21632832 0.36339292 -0.18203957 -0.03545973 -0.515021
-0.20473668 0.06562973 -0.6757367 -0.36315796 -0.031572614 -0.036899295 1.2248197 -0.22140244
-0.38453516 0.2423892 0.0035357757 0.22535786 0.122529015 -0.56079626 -0.99806154 -0.64090776
0.24877544 -0.13410509 0.47463095 0.35192108 -0.048286684 0.05604608 0.56968474 -0.06669402
0.32182318 0.5963061 -0.11693934 0.03981639 0.475343 -0.07672575 0.3803076 0.053084545
-0.29312208 0.84930325 -0.26693863 0.1020688 0.5254287 0.13258089 -0.17595056 0.18808295
-0.31104025 -0.1776656 -0.28878894 0.35805473 -0.15483786 0.4112848 -0.24604899 0.02925718
-0.32080472 -0.16652012 -0.45856553 -0.35996273 -0.056381762 -0.081615165 -0.22224969 -0.45310903
0.10041679 -0.021799464 0.10469135 0.106772 -0.20598455 0.33040312 -0.05040493 -0.19746085
-0.2378718 0.110229276 -0.054557 0.31432518 -0.051998526 0.21340095 -0.45279568 -0.6027889
-0.20842949 0.22756067 -0.022027118 0.16348319 0.047070783 0.13012107 0.3218173 0.41290462
0.043030865 -0.07397428 -0.221252 -0.36043948 0.010223071 0.33774686 0.9748128 0.27772042
-0.32103002 0.10340355 -0.455995 -0.59434414 -0.37300226 0.5658053 -0.116279945 -0.002480387
-0.6100862 -0.082175665 -0.12047252 -0.37590298 -0.745002 -0.2559206 0.6190589 0.04310531
0.5379899 -0.111065075 -0.00398051 -0.5062736 0.55586547 -0.4050137 -0.07167437 -0.04115529
-0.27220234 0.29496437 0.26776716 -0.32165635 0.1652953 -0.75608146 0.11939321 -0.57563764
-0.02031187 0.11917499 0.13292992 0.05956392 -0.045469217 0.2554677 -0.3034556 -0.546021
0.29100242 -0.13058335 0.0943942 0.33475864 -0.24061806 -0.6187904 -0.9411656 0.5262028
-0.061127063 -0.14400549 -0.23436491 -0.30433148 -0.42326418 -0.17975163 0.41776583 -0.16525526
0.40569374 0.49006554 -0.2408455 -0.19860627 0.053516593 0.28786996 0.043803062 -0.08865871
0.14449245 -0.17693552 -0.086327024 0.24610206 0.40094522 0.48342502 0.20769504 -0.051983032

lstm.bias_ih_l0 f4 [392]
00000000: 8000 08bf a84c bd3d a507 33bb cfea 733e
00000010: c3a1 cfbe f5e1 88be 7952 9fbd 2370 35be
00000020: 8c31 60be 4fe0 a2bd 1b5e 1bbe 9ec9 2d3e
00000030: 79ce 8bbe 19b7 913d 285f 84be 5b34 13be
00000040: 5972 98be ba6b 1ebe 44f8 7d3e 219e d73d
00000050: eb2b a0be 639b a7bd 9d95 58be 440d a53d
00000060: ded3 a73d a3ce 36be e925 0ebe cd37 04bf
00000070: 74c8 c5be ca22 dfbd 36d8 26be f49a c8bd
00000080: b375 c0be 40f3 74be 9869 8dbe 8f6f ad3b
00000090: 9abf 94bc 5118 193e 7c89 1abf 4a2a 87be
000000a0: cd78 9fbe fe81 7ebe b60e 053e 4f21 ea3d
000000b0: 5f4e 99be dd2f 80be 6c15 77bd 6e0c 44be
000000c0: a946 c03d 6878 9ebc bea7 9abd 40b2 d1bd
000000d0: 19f8 f7be d363 3abd edca e5bd 774f 8f3e
000000e0: 57a6 26be 11e8 c6be ad78 abbe 6ea9 81be
000000f0: 505e c23e e228 0fbf c5ca 833b 8eda 2fbe
00000100: 6ad5 6fbe a3b4 e8bb 6224 95be 2676 bfbd
00000110: db61 943e 7d82 e93d 9a3d 293e f28c a4be
00000120: dd9d 15be dd73 43be c008 56be b438 19be
00000130: c91c d2be 9718 f2be 1fac 77be 8a17 27be
00000140: 4c6c 27be e1a2 80be 50b9 2abe e9bc 78be
00000150: e1af 673d 148d 6fbe 40eb 6ebe 6cbf 6cbe
00000160: 96bf 8abe ba02 d5be bb09 8dbe e67d aabe
00000170: 8dfa 43be 4e18 a2be 1d95 33be 3d13 76bd
00000180: 8921 39be 0cff 1fbe e651 6d3e 27be a0bd
00000190: 85e7 4cbe 30dc 023e f24d ae3d 2beb 79bc
000001a0: 51cc 26bd 29d7 883d 858c f8bd 8754 6cbe
000001b0: 8cc0 f63d 5182 353e eefe 89bd 2bd3 fd3e
000001c0: 72fd dd3d f4f8 94bd 4d71 a03e 657b 013e
000001d0: 20d0 86be 1ab3 013c fbfb c5bd 5373 1ebd
000001e0: 5c7c e93e 2aa6 1cbd 2dbe 1f3e 28e1 653e
000001f0: 638a 4c3e aa46 e83e 5ab6 38be cdae 4c3e
00000200: 5ed7 6f3e 2349 b83e 6f25 2c3d c8a5 23be
00000210: 741e 26bd 89ed 09be aca8 ad3e 5dcc abbd
00000220: 7d64 813e f0fb b0be ecaf ff3e 78b6 393e
00000230: 1dfb cb3e b7a0 073e e9a4 e8bd ad81 bf3d
00000240: 716c d73c 2ae3 e93e 9ef6 99bd 88b4 623d
00000250: 0472 133d e2de ba3e 875a 81be 263f 523e
00000260: e282 7dbc 5017 e73e 0ce3 6f3e 2649 44bd
00000270: 8f40 82bd cdb4 d43d f4ee 273e c033 39be
00000280: 1b15 8d3e a871 233c 239d 513e b087 813e
00000290: 8cce 0f3e f22e 6a3e 5a17 ae3e 2d08 9f3e
000002a0: 261f 75bc 4a79 383e e8f7 073f af0c b83e
000002b0: b1d3 86bd 3121 e13d bf53 abbc e5cb 16be
000002c0: 4e55 333e b067 213e d66d 7a3d f425 30bd
000002d0: 47ac 393e a71b 173f 967e 863e f6b0 fc3d
000002e0: f5b9 173e ee93 cf3d 2e6b 393d ff1f b13e
000002f0: beac 06be a9a9 e53d 3fdd bd3e e5a9 4dbd
00000300: 152d fd3e 2962 15bd 218a 4b3e 99db 903e
00000310: 8aed 613d 6990 db3d 0041 33be fa5a 53be
00000320: ff19 cf3b f304 2fbd 4429 87bc b646 bbbc
00000330: cfb8 2bbd cbad c6bc d9ec 85bd 4096 ddbd
00000340: 7c58 693c fdaf 1b3e 9620 a2bc 6633 cb3d
00000350: ea16 293c e302 cf3d 4256 cb3d 55a9 173e
00000360: e32b c13b a244 06be c111 a6bc 19cd bb3d
00000370: 600e d8bc e3f7 5ebe 9ac0 653e 8ba5 91bd
00000380: 1405 003d 00dc 42be 9160 063d 796f 62be
00000390: 50bb 12be 736a e5bb dfac 71be 0de2 fcbc
000003a0: 3a21 193e 6d06 6b3e e9a3 b23d c4eb 13be
000003b0: e076 2bbd 5dc2 043e 66a0 c13d 4062 14be
000003c0: a18c 70be 0a54 693e 6909 f5bb 2344 50be
000003d0: 1455 3a3d 003c 893e 9f2c 8fbd 4e26 56be
000003e0: 37cf d8bd b2e0 ccbd 75e2 063e cb13 4abe
000003f0: 01f9 0b3e 74e3 483b 308b 03be dc1f 8b3d
-0.5312576 0.09243137 -0.002731779 0.23820041 -0.40553102 -0.26734892 -0.07779402 -0.17718558
-0.218939 -0.0795294 -0.15172617 0.16971442 -0.27305964 0.07115001 -0.25853848 -0.14375441
-0.2977474 -0.15470782 0.24801737 0.105282076 -0.31283507 -0.081839345 -0.21150823 0.08059171
0.08194707 -0.17852263 -0.13881649 -0.51647645 -0.38629496 -0.10895307 -0.16293415 -0.0979518
-0.37589797 -0.23920918 -0.27619624 0.00529284 -0.018157769 0.14950682 -0.60366035 -0.26399451
-0.3114685 -0.24854276 0.12993893 0.11432134 -0.29942605 -0.25036517 -0.060323164 -0.19145367
0.09388477 -0.019344524 -0.075515255 -0.102390766 -0.4843147 -0.045505356 -0.11220346 0.27990314
-0.16274391 -0.38848928 -0.33490506 -0.25324577 0.3796258 -0.5592176 0.0040219747 -0.17173216
-0.23421255 -0.0071016117 -0.2912932 -0.09348707 0.28980908 0.11401842 0.16527405 -0.32138783
-0.14611001 -0.19087167 -0.20901775 -0.14963037 -0.41037586 -0.47284386 -0.24186753 -0.16317573
-0.16349906 -0.25124267 -0.16672254 -0.24290814 0.056564216 -0.23393661 -0.23331928 -0.23119897
-0.27099293 -0.41603643 -0.27546486 -0.33299178 -0.19138546 -0.31659168 -0.17537351 -0.06007694
-0.18079199 -0.15624636 0.23175773 -0.07848769 -0.20010193 0.12779307 0.08510961 -0.015253822
-0.040722195 0.066816635 -0.12136177 -0.2307912 0.12048444 0.17725493 -0.06738077 0.4957517
0.108393565 -0.072740465 0.31336442 0.12644728 -0.26330662 0.007916236 -0.09667202 -0.0386842
0.4560269 -0.038244404 0.1559989 0.22449172 0.19974665 0.45366412 -0.18038312 0.19988556
0.23422 0.359933 0.042027887 -0.1598121 -0.040556386 -0.13469519 0.3391775 -0.083885886
0.2527198 -0.34567213 0.49938905 0.18136013 0.39840022 0.13244902 -0.11359579 0.093509056
0.026296826 0.45681125 -0.075177416 0.05534795 0.035997406 0.3649817 -0.2526438 0.20531902
-0.015473099 0.45134974 0.23426455 -0.047921322 -0.0635997 0.103860475 0.16399747 -0.18086147
0.27555165 0.009975828 0.20470099 0.25298834 0.14043635 0.2286947 0.3400219 0.31060925
-0.01496104 0.18015018 0.5311265 0.35947177 -0.06583346 0.10992659 -0.020913957 -0.14726217
0.1751301 0.1576221 0.061139904 -0.043004945 0.18132125 0.5902657 0.26268452 0.1233844
0.1481703 0.10135637 0.04526823 0.34594724 -0.13151833 0.11214001 0.3708286 -0.050210852
0.49448457 -0.036470566 0.19876911 0.2829254 0.055158176 0.107209034 -0.17505264 -0.20640174
0.0063202376 -0.04272933 -0.01649917 -0.022860866 -0.041924294 -0.024252793 -0.06539316 -0.108196735
0.014242288 0.15203853 -0.019790929 0.09921913 0.010320405 0.101079725 0.09928562 0.14810689
0.0058951243 -0.13112119 -0.020272138 0.09169979 -0.026374042 -0.21774249 0.22436753 -0.07111653
0.031254843 -0.19029236 0.032806937 -0.22112836 -0.14329267 -0.007001215 -0.23601101 -0.030869508
0.14954081 0.2295167 0.0872267 -0.14445406 -0.041861415 0.12964769 0.09454422 -0.14490604
-0.23491146 0.22785965 -0.0074779284 -0.20338492 0.045491293 0.2680359 -0.06990933 -0.2091305
-0.10586398 -0.10003795 0.13172324 -0.19734113 0.13669206 0.003065315 -0.12846065 0.06793186

lstm.bias_hh_l0 f4 [392]
00000000: dce0 efbe 86e1 d2bd ad36 10be 2b7f 693e
00000010: 6e4c cfbe a119 cbbe 2bc2 cb3d 0311 f3bd
00000020: 35ec 43be c85b 14be 73fe 65be b49d 333e
00000030: 3c68 2cbe 63c8 803c c7af 86be 36a4 0dbe
00000040: 6e91 15be 3f3b 21bd f823 7e3e 8f3f 043d
00000050: df7d a4be 113a 68bd a57e 67be 720a 21bd
00000060: 3db9 9d3c 2a62 3bbe b3b4 c73b 9329 05bf
00000070: 44ab cdbe 1f45 dcbd 5777 6fbe 464b 01be
00000080: a50a e3be 23dd a4be 0583 87be 93b8 1fbe
00000090: 1220 d1bd aa54 d93d c8dd 0dbf d418 abbe
000000a0: 380b c7be 6bf1 52be e80d 033d c451 1b3d
000000b0: 9b10 8bbe c868 3cbe f2b5 cbbd 8c6d c2bd
000000c0: b38f 593d ee1a 863d 5f8c b7bc 7608 7ebe
000000d0: 36ec d7be acf2 d43c 4a98 79bd 7f33 8a3e
000000e0: d947 40be 6d1b bfbe 929e a3be e0f3 6fbe
000000f0: afb1 593e 1585 ffbe 6cfb 70bd 7401 94be
00000100: c0f0 53be 3557 923c 7e2a 60be ccf6 50bd
00000110: 6eb9 713e 07a2 203e 25d2 a43d c1ef cbbe
00000120: 9d20 8abe 3409 92bd a644 87be c4c6 d8bd
00000130: c91b 86be 3f68 e2be ac98 73be 621c 65be
00000140: 8c07 34be ffc5 60be ffc1 96be b9fb 43be
00000150: 1fbc 8b3d dcb0 08be 62e5 40be 1f1c 4dbd
00000160: 567c a7be 78e5 b4be ba35 48be 6d89 81be
00000170: d3fa 56be d286 d6be 7eb1 f7bd d7eb 1abd
00000180: 972f 34bd ed28 c13c 0fd8 983d 80c4 98bd
00000190: b714 fcbd a3fa 373e 3c3d c93d 0e7b 56bb
000001a0: c067 6fbd fea4 2e3e ba3f 9dbc 5bfe 43be
000001b0: 6563 c63c 1d60 843e e723 61bd 77ed 113f
000001c0: 5c16 5c3e b5eb 8f3c 517a 983e a87c 2a3e
000001d0: 4b85 5dbe 5fc1 a83d 4d3a 43bc 5963 21be
000001e0: b277 ee3e 3119 ddbd cc42 2c3e 6de4 173e
000001f0: e903 223e 9c88 023f 5cc5 59be 9d5b 283e
00000200: 7028 433e b50b 943e a9f3 b33d 021d 4cbb
00000210: 957c 733b c199 01be 56f0 9a3e a0a7 34ba
00000220: af5f 633e 3cae d3be f12a 0e3f 7861 1c3e
00000230: b597 963e 02f1 3e3e a130 98bd fbab fe3c
00000240: 9dcd c1bd 13c3 b63e 17f9 a2bd 481c dabb
00000250: b137 3f3e bf9e fd3e d019 9cbe ba92 5e3e
00000260: 47cb babd bfb9 bd3e 56ef a03e eae3 1f3d
00000270: ffb9 3abe a0c0 2d3e bcdd 993e 69ea 21be
00000280: bc4c a73e c409 debc c72a 853e c072 1d3e
00000290: 1902 443d a875 7e3e 1563 a13e 7770 9b3e
000002a0: 3e9a 0c3e 2eb8 663e a1df fd3e ab2c 853e
000002b0: b5fe 993c fd36 623e fdc2 1cbe 1f7b 8ebe
000002c0: d22f 0d3e fb5d 163e d8b1 0a3e 3a99 b3bd
000002d0: e7ef 553e 7972 123f ab37 853e 3b74 963d
000002e0: 65aa af3d a2e5 67bb 5bb8 d0bc dc5b e23e
000002f0: fe87 80bc 26a8 0b3d 7691 5e3e 8198 86bd
00000300: 7e7b fb3e b423 ec3d fbf2 6a3e 6cad e73e
00000310: 5479 ce3b e771 613d 9576 debd b785 52be
00000320: 3c8c f2bb 9e75 cc3c 2a08 3f3d b7be 5fbd
00000330: 29fb f0bd cd7c 8f3d 30a1 5ebc fdf2 2fbe
00000340: 43f5 0abe 2e86 543e 0070 2e3d 2362 ae3d
00000350: 5ea1 023e fedd 433e 5e8e b43d c448 f33d
00000360: c0a3 4f3e df67 56be 4443 013d b75d d53c
00000370: f5b0 e03c fb58 43be 89f8 353e 8776 adbd
00000380: 8656 96bd 5409 a0be b3c4 c33c fe80 4abe
00000390: c31e e7bc 7668 60bd ba5b 98be ffca 823c
000003a0: 5c37 513d b8f4 9e3e 91c7 1a3e db07 2dbe
000003b0: a408 f5bd d413 57bb 98a5 e2bc c512 a9bd
000003c0: a5f3 f2bd a441 ab3e e949 e8bd 49de 54be
000003d0: 6be4 6e3e 215f 583e 6169 e7bd b21d 1abe
000003e0: 8dac a1bd c487 15be b788 0b3e bcf5 4abe
000003f0: c600 6d3d f521 b2bc 24c9 2dbd a28e fa3d
-0.46851242 -0.102969214 -0.14083357 0.22802417 -0.40488 -0.3966799 0.09949144 -0.11868479
-0.19133075 -0.14488137 -0.22460346 0.17540628 -0.16836637 0.015720552 -0.26305982 -0.13832173
-0.14606258 -0.039363142 0.24818408 0.032287177 -0.32127282 -0.056696 -0.22606905 -0.039316602
0.019253368 -0.18299165 0.006094539 -0.5201656 -0.40169728 -0.10755371 -0.23385368 -0.12626371
-0.4434406 -0.32199964 -0.26467147 -0.15597753 -0.10211195 0.106118515 -0.55416536 -0.3341738
-0.38875747 -0.20599906 0.031995684 0.037919775 -0.27161106 -0.18399346 -0.09946813 -0.09493551
0.053115558 0.06548105 -0.022405801 -0.24807915 -0.42172402 0.025994621 -0.06093625 0.26992413
-0.18777408 -0.37325612 -0.31956917 -0.23432875 0.21259187 -0.4990622 -0.058833525 -0.2890736
-0.20697308 0.01786385 -0.2189121 -0.051016614 0.23605892 0.15686809 0.080478944 -0.39831355
-0.26978007 -0.071306616 -0.26419562 -0.105847865 -0.26193073 -0.44220158 -0.23788708 -0.22374108
-0.17581004 -0.2195053 -0.29444882 -0.19138993 0.068229906 -0.13348716 -0.18837503 -0.050075646
-0.32712048 -0.3533132 -0.19551745 -0.2530016 -0.2099412 -0.41899735 -0.12094401 -0.03782257
-0.043990698 0.023579085 0.07463085 -0.074593544 -0.123086385 0.17966704 0.09826133 -0.0032727155
-0.058448553 0.17055127 -0.019195426 -0.19139998 0.024217317 0.2585458 -0.05496588 0.5700297
0.21492904 0.017568449 0.2978082 0.16649115 -0.21632878 0.082400076 -0.011915755 -0.15760554
0.46575695 -0.107958205 0.16822356 0.14833231 0.15821804 0.509897 -0.21266693 0.16441198
0.19058394 0.28915182 0.08786709 -0.003114522 0.0037153114 -0.12656309 0.30261487 -0.0006891433
0.22204469 -0.41343868 0.55534273 0.15271556 0.29412618 0.18646625 -0.0743115 0.031087866
-0.09463046 0.35695705 -0.07957666 -0.0066562034 0.18673588 0.49535176 -0.30488443 0.21735659
-0.09120803 0.37055776 0.314326 0.039035715 -0.18235014 0.16968012 0.30051982 -0.15812077
0.3267573 -0.027104266 0.260092 0.15375805 0.047853563 0.2484957 0.31520906 0.3035924
0.13730714 0.22531196 0.49584678 0.2601064 0.018798212 0.22091289 -0.15308757 -0.2782831
0.13787773 0.14684288 0.13544405 -0.0876946 0.20892297 0.5720592 0.26019034 0.07346388
0.08577422 -0.0035384675 -0.025478533 0.44210708 -0.015689846 0.034095906 0.21735176 -0.065720566
0.49117655 0.11530247 0.22944252 0.45249498 0.0063010845 0.055040266 -0.108624615 -0.2055882
-0.007401971 0.024958428 0.046638645 -0.05462524 -0.11766655 0.07006226 -0.013588235 -0.17182536
-0.13570122 0.2075431 0.04258728 0.08514812 0.12756869 0.19127652 0.08816217 0.11879113
0.2027731 -0.20938061 0.03155829 0.026045663 0.02742813 -0.19076912 0.1777059 -0.08469873
-0.07340722 -0.31257117 0.023897504 -0.19775769 -0.02821291 -0.05478712 -0.29757482 0.015965937
0.051078185 0.3104608 0.15115191 -0.16897528 -0.11964539 -0.0032818215 -0.027666852 -0.08255533
-0.11862878 0.33448517 -0.11342222 -0.2078792 0.23329322 0.21130039 -0.11299396 -0.1505039
-0.078942396 -0.14602572 0.13626371 -0.19820303 0.057862066 -0.021744708 -0.04242815 0.12234236

fc1.weight f4 [9, 98]
00000000: d1ce 933e af0f 49bf f822 c9bc 3d5f d9be
00000010: a1d6 e9be b85f 81be 9c82 13bf b8ab 7cbd
00000020: 8a1c 8c3f 2b7f c3bd 4231 d43d 6edb 86bd
00000030: 7a7a 44bf c2c7 d2bc f1e1 823e 74f6 983e
00000040: 03e8 f43e d884 2f3d d215 083f 2d9a a63e
00000050: 7c65 883e 9735 2bbf 04f1 163e 3384 a63e
00000060: 0b88 fcbe 9cc3 a73d 2778 04be be2a d5bf
00000070: d475 4fbd dd86 03be e92d 01bf 1ce7 4bbf
00000080: c78c 63bf 9779 343c 196b febd 9b57 3a3e
00000090: 98a3 693e e4af 193e 70e7 0d3f 6795 cf3e
000000a0: 99b2 833c b557 9b3e 163f babd 19cc 1ebf
000000b0: d980 15bf df44 2bbf 274a b0be 7f1c 09bd
000000c0: 5971 a33a 1d57 0e3f 72f8 ed3d f875 bdbd
000000d0: 5927 1ebf 25e4 0fbc a4c2 ddbe c442 eebe
000000e0: 008f 71be 62ba dcbc 91e9 f3be 2374 b43e
000000f0: 24b3 4ebf 36e2 bdbe f1ea d93e 5349 bbbe
00000100: 9b6e 2a3f 68ed bfbd f8b2 cb3e fe39 8c3c
00000110: cc00 233e 5d08 25be f10b 463f 06c4 4fbe
00000120: b877 59be 8083 f2be 73d5 fabe bbe4 22be
00000130: 395c 7abe f69f 67bd 32ad 063d 8c19 c93e
00000140: 7a28 853e eeec 303f 10f7 743e a41f 1b3f
00000150: 8b88 ac3d 8ba8 b33d 41fc 48bf 8079 14bf
00000160: 16e1 ba3e f7d6 553e f974 383f 437c 2f3e
00000170: 8f47 cabc 5e1c e73e 42d8 dc3c 192a afbe
00000180: 2fa2 59bd 702b 023f 6eb6 6ebe 4142 b0bd
00000190: 177f d5be c099 f03e 21c4 233e 947f 8cbd
000001a0: 40a3 98bf c679 51bf 078c 563f 058e 1fbe
000001b0: 9c92 b93e 0859 523b 5fd0 033e 4428 7d3d
000001c0: 1d4b 8bbe 919e 15bf 9c8f 923e 2614 de3e
000001d0: 54cc 123f 79a1 e43d 2ee1 97be f48f 0abf
000001e0: 9291 08be 9139 cb3d c311 83be 2648 9d3e
000001f0: f899 1a3e 7dba 73bf fd53 24bf c305 723a
00000200: 8e00 9b3e 5082 26bf 4076 0a3e 3808 b43e
00000210: 9b95 cebe 68b2 92be 1be1 0fbd 8c3f 553e
00000220: 2f3b d5be c78b e9be a91b 1bbe 943c ce3e
00000230: f10b b4be f9d5 0ebf 8d1d cb3e 691b 70be
00000240: cd4d a8bd 14d7 c73e 92a5 33be d405 393e
00000250: 02cb f0be ff0e 133d 8e0e 233f 6385 f53c
00000260: 4b51 dfbe 2986 3b3e c9e3 e63e 7acc 70be
00000270: dd49 d53e 7297 ecbe 2d43 ddbe 5e86 22bf
00000280: bee9 a1bd 79e4 e13c 6364 0abd 53af 4abe
00000290: 1cd8 01bf f57c a5bd b4f5 50be 1bd6 18be
000002a0: 61c8 3c3f a15f 93be 575e b63e 0c24 4ebf
000002b0: adec 5c3f 6397 2c3f bf2f ba3e 4105 763c
000002c0: 5e18 e43e e33f cdbc d06f 8cbe 6575 483f
000002d0: 94ac 163e 44a0 a83f fce9 28be 6d20 70bd
000002e0: f494 89bf 1618 3f3d 0f61 74bf a736 87bf
000002f0: c7c0 fabe d19e 52be 455a a03e cf7e 953e
00000300: 34d3 b4bd 2f29 93bd 597a c23e f77e e3be
00000310: 3fe2 8c3d 82fa d1bd 0654 743f 22e2 a2bf
00000320: 0403 9b3f b571 543c ac12 79be 5f0b d6bf
00000330: dc19 1d3f 7daf 0bbe e28e 47bf 6629 3abd
00000340: 2b58 27bf 78a8 44be a5ec f9bd 5a4a dc3d
00000350: 60df 5ebe 99b2 c8bd bc6a 93be 8c8f 9f3e
00000360: e1eb 5f3b 951f 343d c677 8fbb 27fe 773e
00000370: 15c8 d03c a535 95be b701 3ebd b42d aa3e
00000380: ef8f 9e3e 63c5 9f3b 24d4 fe3e 14e2 2e3e
00000390: e52a 143e 3183 a3be 5148 04bf f437 aebe
000003a0: 1c63 c4bc 6d7c 0f3e 81f4 5bbf 4e8d 88bf
000003b0: 3793 24bf 9d22 a6be d55b 873e 28cf 9dbe
000003c0: 2982 e9be 8983 69be d425 273e f29a aebe
000003d0: 7301 d23d 49b8 3d3e 639d e83e 7dca 403d
000003e0: 256d eebd 4a15 69bd a9f3 c13e ba0f 7abe
000003f0: ba2e f5be 4f3d e73e 663f 8e3f 180b c2be
0.28868726 -0.78539556 -0.024552807 -0.42455474 -0.4567156 -0.2526834 -0.5762117 -0.0616872
1.094621 -0.0954574 0.10360958 -0.06584822 -0.76749384 -0.025730018 0.25563005 0.2987553
0.4783326 0.0428513 0.53158295 0.32539502 0.26639926 -0.66878647 0.14740378 0.32522735
-0.49322543 0.081916064 -0.1293646 -1.6653669 -0.05064948 -0.12844415 -0.5046068 -0.7964952
-0.88886684 0.011015317 -0.12422771 0.18197481 0.22816312 0.15008503 0.5543127 0.40543672
0.016076373 0.30340353 -0.09094064 -0.6203018 -0.5839973 -0.66901964 -0.34431574 -0.03347444
0.0012469693 0.55601674 0.11619653 -0.092510164 -0.6177879 -0.008782421 -0.43312562 -0.46535313
-0.23589706 -0.026944343 -0.47639135 0.35244855 -0.80742097 -0.37086648 0.4256206 -0.3657938
0.6657502 -0.093714535 0.3978498 0.017117497 0.15918273 -0.16116472 0.7736197 -0.20289621
-0.21237075 -0.47365952 -0.48990974 -0.15907566 -0.24449243 -0.056549035 0.032880016 0.39277303
0.26007444 0.69111526 0.23922372 0.60595155 0.08424481 0.087723814 -0.7850991 -0.57997894
0.36499852 0.20882784 0.72053486 0.17137246 -0.024692325 0.4513883 0.026958589 -0.34211805
-0.053133186 0.5084753 -0.23311779 -0.08606387 -0.41698524 0.46992302 0.15992786 -0.06860271
-1.192482 -0.81826437 0.83807415 -0.1558152 0.36244667 0.0032096524 0.12872456 0.06180598
-0.27205744 -0.5844508 0.2862519 0.43374747 0.5734303 0.11163611 -0.29663986 -0.54125905
-0.1333678 0.09923089 -0.2559949 0.30719107 0.15097797 -0.95206434 -0.64190656 0.0009232426
0.3027386 -0.6504259 0.13521671 0.3516252 -0.40348515 -0.28651738 -0.035126787 0.20825022
-0.41646716 -0.45614454 -0.1514727 0.40280592 -0.3516536 -0.55795246 0.39670983 -0.23447956
-0.08217964 0.3903128 -0.17543629 0.1806863 -0.47029883 0.035902973 0.63694084 0.02997083
-0.4361671 0.18312897 0.4509566 -0.23515502 0.41657916 -0.46209294 -0.43215314 -0.6348628
-0.07905911 0.027574765 -0.033787142 -0.19793443 -0.5072038 -0.08080474 -0.20406228 -0.14925425
0.73743254 -0.28783897 0.3561885 -0.80523753 0.8629864 0.674185 0.36364552 0.015015901
0.4454984 -0.025054878 -0.27429056 0.7830413 0.14714271 1.3173909 -0.16495508 -0.058624674
-1.0748582 0.04665383 -0.954606 -1.0563554 -0.48975202 -0.20568396 0.3131887 0.2919831
-0.08829346 -0.071855895 0.3798397 -0.44432804 0.068790905 -0.10252859 0.9544071 -1.272526
1.2110295 0.012966563 -0.24323529 -1.672222 0.61367583 -0.13641162 -0.77952397 -0.045449637
-0.6536891 -0.1920489 -0.122033395 0.10756369 -0.21764898 -0.0979969 -0.2879237 0.31164205
0.0034167694 0.04397543 -0.004378292 0.24218045 0.025486032 -0.2914249 -0.046388354 0.33237994
0.30969188 0.0048758253 0.49771225 0.1707843 0.14469488 -0.3193603 -0.51672846 -0.34027064
-0.02397304 0.14012308 -0.8591996 -1.0668123 -0.6428713 -0.32448283 0.2643725 -0.3082211
-0.45607117 -0.22804083 0.16323024 -0.3410259 0.10254183 0.1852733 0.45432577 0.047068108
-0.116419114 -0.05690507 0.3788121 -0.24420062 -0.47887212 0.45163962 1.1113098 -0.3789909

fc1.bias f4 [9]
00000000: 53cb 20be a2f8 063e 7edb 14be a86c 263d
00000010: ca5f babc 3d63 6e3d 4e4c a63d 5252 3cbd
00000020: 3f03 b2be
-0.15702562 0.13180783 -0.14536855 0.040630966 -0.022750754 0.05820011 0.08120023 -0.045976944
-0.34768102

exp_avg f4 [392, 1]
00000000: c1c0 fc3c 84f5 80bc 1440 14ba 10ec 6cbb
00000010: c3cc a43b 47b4 b9bb ffbb 9e3b c174 8d3b
00000020: 9412 44bc 79c1 ebbb da14 fd39 fad8 b6ba
00000030: 72ed 33bb 9a13 d1ba e224 bbbb 4c62 d0bb
00000040: 86a9 a5ba d694 503b 4559 7aba 7c60 86bb
00000050: c3f9 2ebb 3057 983b f22f 9aba 4741 1dbb
00000060: 7ba5 b9b9 7370 06bc 60c2 5ebb 4010 be3b
00000070: 909a b8ba a1e8 c23b eba3 3a3a 6e2b 81bc
00000080: 93ce 2abc 072e 24bc c899 96bc 7fd9 7a3b
00000090: 431b 10bb e51f adba 7a12 36bc 14e1 96bc
000000a0: 1b9d b93c 0ee3 e53b 8f5a 333a ae71 b43b
000000b0: 8a7a b33a 5c64 85bb 658e f4b9 056c d23b
000000c0: e277 a4bb cb00 78bb 6e8d babb bdba 33ba
000000d0: 157f 683c c944 faba d045 efbb 790e e13b
000000e0: 3375 e0ba bf7c c8ba f97e 1e3a a4b3 3abb
000000f0: 4588 21bb c5a3 813c aa35 9a3b b62e 963b
00000100: 21cb 24ba b064 34bc dc16 223b 01e9 143c
00000110: 41b3 333a 1960 1fbc 4163 c7bb abb0 91bc
00000120: 28da 1bbb 720e 433a 5af8 3bbb 975d 74bb
00000130: 6499 1cba a871 a83b dd46 573c f899 633b
00000140: c7dd 2f3b 46d5 71bb c61c 61bb 6081 04bc
00000150: d39f 3bbc d476 a73a f7ad adbb 308e bc3b
00000160: 5176 763b a3d4 3fbb f707 ed3b 90fe 1abb
00000170: 0365 373c e567 afbb 8427 1d3d 695d 413c
00000180: cc64 bbba 4e8b 07bb 348f 993b 6456 d9bb
00000190: 350b 7dbb 0d33 4dba a79d 8dbb 0f26 b7bb
000001a0: 8ee6 0a3b 614a 48bc b91d cabb 626c 603b
000001b0: fd22 193c de94 473a 1c4d 07bb a8de 123b
000001c0: e175 ccba 5cd7 b83b c1c2 263b f234 3f3b
000001d0: 9967 363c cd5e 04bc 7378 70bb 51bb 023c
000001e0: 8bb9 26b9 ce1c d8ba 0034 893a 1cf6 84ba
000001f0: 9001 c2ba 8d69 3cbc 906a 403a 7ebd 83bb
00000200: d774 33b8 02fd 19bc f995 26bb 8f22 0ebb
00000210: 5b4a b13c 8ec3 26bc d36d d0bb c2f3 eebb
00000220: 2137 123b c1e9 05bb f021 4dbb 2319 6c3b
00000230: fc26 3539 2a77 1a3c 19c5 423b 28b3 5639
00000240: 2168 b43a 6497 82ba 11cd a3bc 0a95 363c
00000250: 6dd8 853c 68a4 84b9 a937 5a3c c599 843a
00000260: 2e87 91bc 9255 75bc dc7f c33a 2c5a f23a
00000270: c221 fab9 40ec 973b 0b99 b6b9 7980 303c
00000280: 749f 803b 38ed 053c 340d 103c a91c 063b
00000290: 5c88 b73b 5d87 bc3b 48fc e33a 08e0 533b
000002a0: 66a7 d33a 6f6c 5abb bb6e 45bc cd60 383b
000002b0: fb69 1d39 62a7 98b8 f0c0 26bb e6bc 223c
000002c0: cc26 643c fc99 c5ba 49f6 a4ba b03d 453a
000002d0: 4e07 45bc a2f1 60b9 d73b 2b3c 7615 283b
000002e0: 625f f23b 6583 2f3c cdf9 b93a 5859 8339
000002f0: 9aed d23a 25c9 2f3b 8e2f 323b 3bec 8d3a
00000300: 6757 673c 85ce 013a 4f06 a5ba 78a9 443b
00000310: 255b ed3c a8fd 1d3c f091 a23c 4756 0b3c
00000320: ad8e 773c cde1 70ba 62e4 53bb c8f1 69bb
00000330: 2368 163c c63e 39bd 62a4 5a3c a8ed 29bc
00000340: f7f7 30bb fc5a 543c 0dea fe3a 8555 92bb
00000350: 863d be3b b729 7ebc 2c8e 933d 513d ab3c
00000360: f695 20bc 83db 853c 7837 fd3b 1724 1ebc
00000370: 8722 3bbc 7d66 283c 2694 88bb 80fd 643d
00000380: 0c5c a53c 53f1 833c 047a d9bc 00d1 393d
00000390: 07a9 f03a 1f61 bdbc e7ab fc3c 2b97 33bc
000003a0: ac1f 053c 847c 7bbd 24ca 9fbd fcb5 bebc
000003b0: 7d56 2abe 74d9 543c e99a 3e3b 5a52 98bd
000003c0: fe61 fabb 7f9e b7bd c0f7 8c3b 16d5 98bc
000003d0: 740c c7bb 655d c2bb 0e8b 8ebb 08ed 093c
000003e0: 76bf 553d 0e89 2bbc a3b3 ddbb 9344 833c
000003f0: c5f2 1d3c fbfd 88bc 1621 fd3b b617 6e3c
0.030853631 -0.015742071 -0.00056553003 -0.0036151446 0.0050292923 -0.0056672427 0.004844188 0.0043168967
-0.01196732 -0.0071946946 0.00048271456 -0.0013950162 -0.002745476 -0.0015951276 -0.005711184 -0.006359374
-0.0012639023 0.0031826994 -0.00095500454 -0.0041008573 -0.0026699163 0.0046490654 -0.0011763556 -0.0023995207
-0.00035409242 -0.008205521 -0.0033990368 0.005800277 -0.0014084149 0.0059481417 0.00071197626 -0.01576778
-0.010425228 -0.010020739 -0.018383875 0.003827661 -0.0021988906 -0.0013208358 -0.011112804 -0.018417872
0.022657922 0.0070155924 0.00068418024 0.0055067157 0.0013693136 -0.0040708017 -0.000466454 0.0064215683
-0.005019174 -0.003784227 -0.0056931293 -0.0006856134 0.014190455 -0.0019093986 -0.0073020235 0.0068681804
-0.0017124772 -0.0015295966 0.0006046142 -0.0028488422 -0.0024647873 0.015825162 0.0047061043 0.004583205
-0.0006286372 -0.011010334 0.0024732864 0.009088756 0.0006855019 -0.009727501 -0.00608483 -0.017784437
-0.0023781154 0.0007440812 -0.0028681965 -0.003728723 -0.0005973785 0.005140502 0.013139454 0.0034729224
0.002683507 -0.0036900803 -0.0034349426 -0.008087486 -0.011451679 0.0012776502 -0.0053002792 0.0057542548
0.0037607143 -0.0029271028 0.0072336155 -0.0023650266 0.011193517 -0.0053529614 0.038367763 0.011802056
-0.0014297008 -0.0020682397 0.0046862606 -0.006632613 -0.0038611416 -0.00078277366 -0.004321772 -0.0055892537
0.002119455 -0.012224765 -0.006168094 0.0034244289 0.009346721 0.00076134305 -0.0020645326 0.0022410545
-0.0015599095 0.005640907 0.0025445672 0.0029175845 0.011133098 -0.008079243 -0.0036692887 0.00797923
-0.00015900114 -0.0016488077 0.0010467768 -0.0010144147 -0.0014801491 -0.011499775 0.0007340098 -0.004020392
-4.278574e-05 -0.009398701 -0.002541898 -0.002168808 0.0216419 -0.01017846 -0.0063607483 -0.007292242
0.0022310691 -0.0020433518 -0.0031300746 0.0036025725 0.00017276028 0.009427825 0.002971953 0.00020475371
0.0013763943 -0.0009963331 -0.019995244 0.011143932 0.016338551 -0.00025299494 0.0133189345 0.0010116628
-0.017764654 -0.014974015 0.0014915424 0.0018490008 -0.00047708867 0.0046363175 -0.0003482777 0.010772818
0.0039252583 0.008174233 0.00879221 0.002046386 0.005600972 0.0057534412 0.0017393911 0.0032329578
0.0016147911 -0.0033328792 -0.012050326 0.002813387 0.00015012168 -7.279102e-05 -0.002544459 0.009932732
0.0139252655 -0.0015075798 -0.0012585606 0.0007524146 -0.012025667 -0.0002145232 0.010451279 0.0025647557
0.0073966244 0.010712479 0.0014188826 0.00025052833 0.0016092539 0.0026822772 0.002718899 0.0010827848
0.014119959 0.0004951733 -0.0012590381 0.0030008238 0.028974125 0.009642996 0.019844979 0.008504457
0.0151097 -0.00091889204 -0.0032332172 -0.0035697091 0.009180102 -0.04522588 0.013344856 -0.010371603
-0.0027003267 0.0129611455 0.0019448415 -0.004465761 0.005805674 -0.015512875 0.072048515 0.020903261
-0.0098013785 0.016340023 0.0077275597 -0.009652159 -0.011421806 0.010278341 -0.0041680513 0.05590582
0.020185493 0.016106283 -0.02654744 0.045365334 0.0018360921 -0.0231176 0.030843688 -0.010961334
0.008125227 -0.061398044 -0.07802227 -0.023280136 -0.16634555 0.012991298 0.0029084033 -0.07437582
-0.007641076 -0.089657776 0.004301995 -0.018656295 -0.0060744826 -0.0059315437 -0.0043500727 0.008418329
0.052184545 -0.010469688 -0.006765799 0.01602391 0.0096404 -0.01672267 0.0077248914 0.01453202

exp_avg_sq f4 [392, 1]
00000000: a877 a23b 959e db3a c12d 673a 5fdf 5339
00000010: e9fe f339 a1f9 d039 8510 313a a1c3 113b
00000020: 40f4 673a e155 c83a fcb4 c73a acc7 f239
00000030: e3c7 6139 5412 b23b 0530 013a 6db1 ea3a
00000040: 9768 9339 164d 3a3a a848 8f3a 8dbc 383a
00000050: 7298 d03a fed7 423a 7099 073a b920 b739
00000060: 4ff6 193a 9156 6c39 2888 653a f5f3 2d3d
00000070: 9581 843a 3fa2 893a 9d64 493c a53f 8f3c
00000080: bd96 b43b 10ab 1f3a c054 013c 9ec6 833a
00000090: 066c 1f39 3d80 553a 301d 4a3c 6ba6 2c3b
000000a0: eac4 a33d cdba 7c3a 0297 3039 63e0 b439
000000b0: bc38 4a39 7b28 073b adc3 0b3a 25de 733b
000000c0: 0050 853a 30db 0c3a d28d 483a fbee fc3a
000000d0: aeb2 0a3b c09a 4239 f0b3 c53a 74f6 f339
000000e0: 529d b539 2e61 353b 9eae 3239 4ae1 1739
000000f0: 3850 b13a c2a6 003b c030 1939 fe5e cc39
00000100: 7ad7 8c3b 54da cd39 cd06 373a d7f7 363a
00000110: 31ba ff38 82dc 3b3a b8d4 073a ed8b d63b
00000120: fd40 fb3b 2f6f de3a 7d8d e339 e6b8 953a
00000130: 47b0 4439 1532 003a 064b bb3a 4add 2c3b
00000140: eb70 f339 cea4 3c3a 5ffb 8239 6098 9e3b
00000150: 3f86 d83a fb58 003a c040 d939 63bd 063a
00000160: ced9 8d39 082c 173b d943 593a eecb 263a
00000170: d35d e63a 71ad ba39 91d9 ed3b 23f0 9a3a
00000180: 7977 5a3b d261 8139 4147 2b3a 307e 0d3a
00000190: 0568 db39 079f b138 a959 833a 3e68 ba39
000001a0: 1047 f339 7246 813a cb6b b639 cc81 e039
000001b0: 48db 063a 01dc b938 2d32 cb38 b2b1 523a
000001c0: 60cd ff39 a99d a03a f4af a039 d2ed e239
000001d0: c26b 273a 482d 283a a3ca 043a 2d4e 5e3a
000001e0: a003 df37 59cb 9239 e2cd b43a d790 1439
000001f0: e469 b83a 2cb8 7d3b 9165 973a e772 f739
00000200: 1030 e13a a3c6 943b 7d99 f43a 1ce3 8039
00000210: 78ce 763b 2088 9d3a 7b53 b039 fc3c 833b
00000220: c451 1439 ed6e a23a 2ee1 273b 7326 0e3a
00000230: fe7a 583a b1d2 9d39 a872 6239 4327 933a
00000240: b67a 7639 e453 013a ccd1 0e3a bb23 8f3a
00000250: e2f8 d539 6e34 0f3a f8d8 7c3a 3a08 0338
00000260: e35d 973a 7c7b 543a 5e86 3b39 6fae 4a3a
00000270: 35fd 0938 6f32 e439 1a8a e739 c4d8 853a
00000280: 43b4 6839 ee62 d739 5371 403b cfb3 d639
00000290: 7bc2 1c3a f103 073a 1167 3e3a 1b1d 5d3a
000002a0: d8d6 323a 380f 2a3b a9cd 503b 1e3b 6d3a
000002b0: 9cbe 4539 a10d 0f3a 7491 0639 7811 aa39
000002c0: 03a9 203a c09b 983a 5c4b 5e39 fd9d 9739
000002d0: d045 9739 38d9 e73a 5d89 3c3b 10cc 2a39
000002e0: f214 5639 3416 bb39 1597 b839 f764 5e3a
000002f0: df8d b439 f222 313a 5c6d 5d3a 7bb5 ba39
00000300: 8073 083b 9e9d cd3a 5083 4d3b 4191 063a
00000310: 52db 993c 665e f03b 10ab 473b b716 a93a
00000320: d2b6 2f3b 6018 d43a b0d3 4c3c b2fc c73c
00000330: 68d7 973c 002d ec3b a14a de3b a940 003c
00000340: 3140 6b3a c213 c13b 09f3 b73b 2ed5 793c
00000350: 17ac 9c3a 364b 0a3c 5f5c 833c f1a5 373c
00000360: 20ca 813b 80c0 8b3d d4d9 143b 7758 523b
00000370: 051e d43b 6f3f 953a b32e 8a3b cd48 073d
00000380: 19a1 a43c cc3e b53b 65d1 b53c a865 203e
00000390: 77b5 473c abf6 093c fbd2 4d3d df15 603c
000003a0: ff71 303b de8f e03d 7252 333d 89e6 a63d
000003b0: 97f7 2d3e d80f 1d3c cfd9 3b3c 6c25 3f3c
000003c0: d691 ad3b e6fb 943d 52d4 213b dc94 243c
000003d0: 5570 413c 516f f03c bdde 0b3c 5e3e 663b
000003e0: 2a91 913d 4441 153b 0b6a 6c3c d4ae 1f3b
000003f0: 13a0 323d eb5a 553d 1650 e23b 3773 073c
0.004958112 0.0016755635 0.00088187685 0.0002020574 0.00046538495 0.0003985884 0.0006754476 0.0022241848
0.0008848347 0.0015284383 0.0015236433 0.00046306604 0.00021532136 0.005434314 0.0004928115 0.001790566
0.0002811595 0.00071068236 0.0010931687 0.0007047139 0.0015914573 0.0007432698 0.0005172705 0.0003492886
0.00058731897 0.00022538962 0.00087559456 0.042468984 0.0010109419 0.0010500624 0.0122920545 0.017486403
0.0055111335 0.0006090859 0.007893741 0.0010053699 0.00015203663 0.0008144414 0.01233606 0.002634431
0.07996543 0.00096408726 0.00016840923 0.00034499457 0.00019285356 0.0020623493 0.0005331587 0.0037211266
0.0010170937 0.00053732377 0.00076505274 0.0019297296 0.002116363 0.0001855893 0.0015083533 0.00046532194
0.00034640223 0.0027676332 0.00017040453 0.00014484409 0.0013527935 0.0019630645 0.00014609378 0.00038980687
0.0042981477 0.00039263314 0.00069819094 0.000697968 0.000121940284 0.0007166342 0.0005181539 0.006547442
0.0076676593 0.0016970391 0.0004340223 0.0011422902 0.00018757685 0.00048902753 0.0014289327 0.0026377016
0.00046432702 0.00071961887 0.00024982818 0.004839942 0.0016519501 0.00048960716 0.00041437708 0.0005139915
0.00027055893 0.0023067016 0.0008288003 0.00063627854 0.0017575569 0.00035605908 0.007258602 0.0011820834
0.0033335371 0.0002467768 0.000653375 0.00053975265 0.00041848436 8.469639e-05 0.0010021228 0.0003555435
0.00046401517 0.0009862913 0.00034794057 0.00042821316 0.000514437 8.862466e-05 9.68914e-05 0.0008037343
0.00048790406 0.0012254018 0.00030648673 0.0004328327 0.00063866016 0.0006415439 0.00050655956 0.0008480277
2.658536e-05 0.00027998796 0.0013794268 0.00014168337 0.0014069644 0.0038714511 0.0011550655 0.0004719712
0.0017180461 0.004540281 0.0018661466 0.00024583272 0.0037659686 0.0012018718 0.00033631534 0.0040050726
0.0001414484 0.0012392678 0.0025616395 0.00054225995 0.00082580734 0.0003010235 0.00021595752 0.0011226911
0.00023506102 0.000493346 0.0005448132 0.0010920683 0.00040811958 0.000546283 0.0009645368 3.1240495e-05
0.0011548366 0.0008105559 0.00017883765 0.0007731681 3.2899163e-05 0.00043525125 0.00044162647 0.0010211696
0.00022192397 0.00041081704 0.0029364421 0.0004095123 0.00059799076 0.00051504286 0.0007263283 0.0008434818
0.00068221753 0.0025949012 0.0031860864 0.00090496417 0.00018858392 0.0005457048 0.00012833421 0.00032437942
0.00061287003 0.0011643097 0.00021199643 0.00028918675 0.0002885298 0.0017688638 0.0028768398 0.00016288483
0.00020416433 0.00035683962 0.0003520778 0.0008483673 0.00034437978 0.00067572214 0.0008446777 0.00035611898
0.0020820796 0.0015687232 0.0031358786 0.0005133339 0.018781338 0.007335472 0.0030466951 0.0012900446
0.002681185 0.0016181581 0.012501642 0.024412487 0.01853533 0.007207513 0.006783799 0.007827916
0.0008974104 0.005892248 0.005613689 0.01524858 0.0011953142 0.008440783 0.016035257 0.011208997
0.0039608628 0.06823826 0.0022712843 0.0032096186 0.006473305 0.0011386703 0.0042169928 0.033028413
0.020096349 0.0055311676 0.022194574 0.15663779 0.012189261 0.008420627 0.050250035 0.0136770895
0.0026923416 0.109649405 0.043779798 0.0814944 0.1698898 0.009586297 0.011465504 0.011666637
0.005296926 0.07274608 0.0024693203 0.0100452565 0.011806567 0.029349955 0.008536992 0.0035132389
0.07107766 0.0022774497 0.0144295795 0.002436568 0.04360969 0.05208866 0.0069065196 0.008267215
