models/cfv/mmkfcv2.pth (torch, 490360 bytes, 18 tensors)

lstm.weight_ih_l0 f4 [392, 1]
1.1079634 0.58495146 0.7680542 0.10986357 -0.19024296 0.54119915 1.107425 -0.041288923
-0.033300687 -0.69965905 0.743315 -0.11473355 0.23187527 -0.5579093 0.1884171 0.30141297
0.72498524 0.30353642 0.40476677 0.10049486 0.013977172 -0.48088962 -0.5337054 -0.12954906
0.47748253 -0.21738303 -1.0161854 -0.30204275 0.81812465 -0.6114775 0.6237164 0.02038897
1.080186 -0.57160306 0.67151785 0.60269964 -0.13658533 0.32548112 -0.034221634 0.13634573
0.7101289 0.4269881 -1.384195 -0.18547939 -0.08656799 -1.042199 0.49874157 1.7244551
-1.1619586 -2.0117264 -0.47400653 0.6792944 0.9702066 0.0046190456 1.0564729 -0.09196883
0.52382493 0.1366713 -0.1785078 -0.6206654 0.36468446 0.21513721 0.32196933 0.85932136
0.62009805 0.42958525 0.4582543 0.29131392 0.3973999 -0.88282704 -0.8332127 1.1285503
0.13807069 0.67815185 0.46798727 -0.26715043 0.4583828 0.272089 0.34782657 0.666751
1.0590266 -0.10780005 0.1111974 -0.3160679 -0.102663465 0.12398621 -0.88282806 1.178195
0.83281714 -0.0726812 0.20949784 0.046986148 -0.38218302 0.27552527 -0.03714374 0.35267875
1.4830842 0.36692682 0.52190214 -0.09575055 -0.021834403 0.13351409 0.30071238 -0.24568267
0.16523135 0.2861297 0.4488858 -0.36430967 0.7167242 -0.20749365 0.34624633 -0.35846007
-0.253708 0.030031923 0.22908203 0.4762215 0.046588276 -0.0561963 -0.06480827 -0.17799228
0.20791474 0.3282126 0.23712699 -0.53321874 -0.73534375 -0.0052847764 -0.24531892 -0.46398792
1.3119043 0.21415156 0.40550107 -0.42892304 0.6093521 0.7267537 -0.54163265 0.15300004
0.5089546 0.29045838 0.44859412 -0.005043485 0.07985122 0.16016774 -0.2553935 0.36298788
0.8987658 -0.34039935 -0.47008413 0.49841008 -0.738397 0.5220654 -0.20203492 -0.08993167
0.34640136 -0.09712281 -0.09289324 -0.657841 0.15906985 -0.29118845 0.26142618 -0.0919476
0.22201014 0.82780015 0.511821 -0.088580236 0.0015335769 0.7401421 -0.07299603 0.5231248
-1.2867637 -0.29124552 -0.20014107 0.44103086 0.278637 -0.11120809 -0.4227555 0.71880615
0.5668418 0.9743045 0.38639247 -0.02624754 -0.16136962 -0.13368033 0.201842 0.06531203
-0.31497842 0.93999594 0.6498103 -0.16756687 0.21748208 0.1472448 -0.50777423 0.1808269
-0.5294952 0.3245535 0.0669726 -0.4580976 0.6309935 -0.38896176 -1.416812 -0.28604376
0.24665804 0.20475112 0.45508385 -0.15502818 0.0928063 -0.57160866 -0.6056106 -0.06451859
0.028020378 -0.76939946 -0.06153645 -0.4935956 1.1797771 -0.34433523 0.5295364 0.092461474
0.06512856 0.52616775 1.0609037 0.43649375 0.5337833 -0.19957362 -0.020079298 0.29487345
0.9176804 0.18912807 -0.2336998 0.50093406 0.5546108 -0.48475975 -0.57453746 0.039762538
-0.28995433 -0.1860391 -0.18599156 0.6758497 0.44433567 0.8034275 -0.8338611 0.030795908
0.26182324 -0.90349245 0.26171118 -0.96488774 -1.0286556 -1.1355913 -0.23899254 -0.41289428
0.4631122 -0.57662207 -0.8238976 -0.32096562 -0.07959587 -1.1037253 0.21392012 0.13533036
00000000: bfd1 8d3f 61bf 153f 339f 443f 2700 e13d
00000010: 0dcf 42be 078c 0a3f 1ac0 8d3f 931e 29bd
00000020: 4d66 08bd db1c 33bf e449 3e3f 6cf9 eabd
00000030: b670 6d3e 25d3 0ebf 6af0 403e cd52 9a3e
00000040: a298 393f 2069 9b3e 973d cf3e 40d0 cd3d
00000050: 8200 653c 2a37 f6be eba0 08bf 82a8 04be
00000060: 9778 f43e a899 5ebe 5d12 82bf 59a5 9abe
00000070: 9e70 513f ca89 1cbf e1ab 1f3f c506 a73c
00000080: 8943 8a3f 9454 12bf 98e8 2b3f 864a 1a3f
00000090: 06dd 0bbe 76a5 a63e fc2b 0cbd 379e 0b3e
000000a0: 02cb 353f 2f9e da3e 4d2d b1bf 4fee 3dbe
000000b0: 8f4a b1bd c766 85bf 0e5b ff3e f2ba dc3f
000000c0: 0fbb 94bf 20c0 00c0 fcb0 f2be 3de6 2d3f
000000d0: 765f 783f 5d5b 973b 813a 873f 275a bcbd
000000e0: 6419 063f 90f3 0b3e c0ca 36be ede3 1ebf
000000f0: ecb7 ba3e ee4c 5c3e 2ad9 a43e 7cfc 5b3f
00000100: bfbe 1e3f 99f2 db3e 4fa0 ea3e 1927 953e
00000110: 0078 cb3e f400 62bf 6d4d 55bf 5674 903f
00000120: 6762 0d3e 5c9b 2d3f 079c ef3e f1c7 88be
00000130: 26b1 ea3e 404f 8b3e 5316 b23e 32b0 2a3f
00000140: 2f8e 873f 46c6 dcbd 76bb e33d a7d3 a1be
00000150: 3941 d2bd 7bec fd3d 0501 62bf 18cf 963f
00000160: 8133 553f e2d9 94bd 9a86 563e 8c74 403d
00000170: 7ead c3be a611 8d3e 0924 18bd 4f92 b43e
00000180: b4d5 bd3f d5dd bb3e 619b 053f dd18 c4bd
00000190: 10de b2bc ebb7 083e f9f6 993e 3d94 7bbe
000001a0: 6832 293e 987f 923e 5cd4 e53e cc86 babe
000001b0: 3d7b 373f 3779 54be 3347 b13e 1488 b7be
000001c0: 04e6 81be 8205 f63c 7b94 6a3e 4ed3 f33e
000001d0: 59d3 3e3d 172e 66bd 33ba 84bd 9c43 36be
000001e0: 9ae7 543e 7b0b a83e 6bd1 723e 0681 08bf
000001f0: 7d3f 3cbf eb2b adbb e234 7bbe d38f edbe
00000200: 7bec a73f 8c4a 5b3e d69d cf3e cd9b dbbe
00000210: 80fe 1b3f 880c 3a3f 70a8 0abf 0bac 1c3e
00000220: d94a 023f f6b6 943e 21ae e53e d243 a5bb
00000230: 0989 a33d 0303 243e f0c2 82be 8cd9 b93e
00000240: 8415 663f d348 aebe deae f0be 9b2f ff3e
00000250: 9607 3dbf 14a6 053f 3ee2 4ebe 182e b8bd
00000260: 855b b13e 53e8 c6bd d03e bebd 4568 28bf
00000270: 35e3 223e a716 95be a7d9 853e 064f bcbd
00000280: a056 633e b6ea 533f b306 033f 8e69 b5bd
00000290: 4d02 c93a f479 3d3f f17e 95bd 82eb 053f
000002a0: acb4 a4bf 221e 95be c8f1 4cbe ccce e13e
000002b0: 82a9 8e3e 11c1 e3bd 6973 d8be ae03 383f
000002c0: 8b1c 113f 056c 793f 3cd5 c53e 1505 d7bc
000002d0: 143e 25be 7fe3 08be abaf 4e3e 50c2 853d
000002e0: da44 a1be 93a3 703f f859 263f a696 2bbe
000002f0: 9fb3 5e3e 57c7 163e 7efd 01bf b02a 393e
00000300: ff8c 07bf e02b a63e ee28 893d c58b eabe
00000310: ca88 213f ff25 c7be 185a b5bf 5474 92be
00000320: ed93 7c3e 47aa 513e c000 e93e b5bf 1ebe
00000330: 3b11 be3d f254 12bf 4c09 1bbf 5322 84bd
00000340: fe8a e53c 5df7 44bf a50d 7cbd 90b8 fcbe
00000350: f002 973f b54c b0be b38f 073f 715c bd3d
00000360: 1f62 853d eeb2 063f b1cb 873f 1c7c df3e
00000370: 06a6 083f 075d 4cbe 577d a4bc a7f9 963e
00000380: 1aed 6a3f caaa 413e 004f 6fbe 373d 003f
00000390: f9fa 0d3f 6e32 f8be e314 13bf 0bde 223d
000003a0: e574 94be 0981 3ebe 9274 3ebe 7c04 2d3f
000003b0: f77f e33e 6dad 4d3f ec77 55bf b347 fc3c
000003c0: b20d 863e 484b 67bf 02ff 853e e202 77bf
000003d0: fdaa 83bf 0e5b 91bf 76ba 74be e166 d3be
000003e0: 0b1d ed3e 819d 13bf f4ea 52bf 9b55 a4be
000003f0: 2903 a3bd df46 8dbf e00d 5b3e 0b94 0a3e

lstm.weight_hh_l0 f4 [392, 98]
0.48396355 0.050556056 0.5291694 0.057621088 0.0063117947 -0.19925815 -0.15548474 0.2045103
0.09866672 0.55453587 -0.53665316 -0.15969263 -0.0068428647 -1.0143102 -0.89996254 -0.16905335
0.023886526 -0.121735334 0.16710195 -0.081420675 0.24596278 0.20427068 0.18969074 0.14961718
0.15251194 0.16610003 -0.5915465 0.575821 0.5638835 -0.021782752 -0.08630037 -0.22643717
0.2968286 -0.49910182 -0.5335867 -0.061060373 0.1459184 0.35990855 0.3271377 0.003679244
-0.50658363 -0.07378758 -0.018763766 0.068683244 -0.09333629 0.2062827 -0.20318918 -0.57720894
-0.17507222 0.21539707 0.06797436 0.021835925 0.03952171 0.052767593 0.093073614 -0.29993442
-0.034688976 -0.59528303 -0.20420738 0.1727468 0.010921042 0.23945984 -0.016774869 0.04941589
0.30418327 0.1469264 0.21699427 0.032066256 0.05012782 0.05206394 -0.19487287 -0.16430272
0.31789687 0.0012804393 -0.47213683 0.21969874 0.30108246 0.15542495 -0.67449903 -0.23082341
-0.015093264 0.3196841 -0.350709 -0.40061873 -0.29751354 -0.08623447 -0.0003893508 -0.2564107
-0.863601 -0.121510416 0.058075394 -0.09959519 -0.427651 0.023546427 -0.36284673 0.38755786
-0.2939357 0.13194653 -0.22961746 0.27130607 -0.046628002 0.2578797 0.40333948 -0.3652006
-0.07494346 -0.24037097 0.21212323 -0.4886428 -0.085904874 -0.34080547 -0.17711931 -0.023424225
0.6265187 0.18412633 -0.32033464 -0.62906426 -0.25468534 0.43191978 0.09846204 0.028637579
0.009062717 0.04217672 -0.1547869 -0.09794336 -0.025180351 0.4291899 0.092340946 0.19333304
-0.060775325 0.5101254 -0.5052672 -0.8395856 0.2863556 0.23395471 0.078266285 0.22138822
-0.863966 -0.28551036 -0.37437057 0.396949 -0.3980919 -0.27173647 0.4598039 0.2989222
0.22553375 0.276202 -0.010013509 -0.54819846 0.6728592 -0.0028026202 0.033657927 -0.34441644
-0.014734105 -0.27366135 0.34233674 -0.039934494 0.56536597 -0.02753749 -0.11925047 0.17607746
-0.26589736 0.17579873 -0.12810795 -0.47759792 0.2549123 0.16732058 -0.30097324 -0.3635541
-0.6732387 -0.12113651 0.5366008 -0.266106 -0.3473764 -0.31326875 0.36537236 0.050737966
-0.1361888 0.095469676 0.03511509 0.19593103 0.04695637 0.26335064 0.3907231 0.3270565
-0.032304633 0.072169036 -0.18684705 -0.15476353 -0.16119519 0.19233494 0.097367555 -0.14817804
0.1770676 -0.13709193 -0.4088305 0.08790174 -0.07116711 -0.23314908 0.18074203 0.3814979
-0.3546492 0.024371704 0.14124258 -0.21573196 0.46402848 -0.027967557 0.46342108 -0.38959703
-0.96347344 -0.12938717 0.18793489 -0.2876053 0.13113041 -0.23439613 -0.5077887 -0.082267866
0.39708933 -0.76171434 -0.046434652 0.29238623 0.1798693 -0.15601997 -0.7767535 0.3563189
0.89018965 0.049442295 -0.15730903 -0.41546404 0.61650056 0.447466 -0.19018829 0.4014671
-0.0384804 -0.39602196 0.26027918 0.3533252 -0.10325167 -0.4363493 -0.1856072 -0.700338
-0.061498363 0.28189886 0.47590873 -0.6028781 0.30141386 0.43876252 0.45511582 -0.5170218
-0.20587172 0.05708504 -0.8577404 -0.31609067 0.35683054 0.70422345 0.4396846 -0.48643816
00000000: 12ca f73e de13 4f3d a577 073f 1704 6c3d
00000010: 2cd3 ce3b 540a 4cbe 6437 1fbe 266b 513e
00000020: c711 ca3d 10f6 0d3f 1a62 09bf 7786 23be
00000030: 1c3a e0bb ebd4 81bf f263 66bf 521c 2dbe
00000040: adad c33c 6050 f9bd c61c 2b3e e2bf a6bd
00000050: abdd 7b3e 552c 513e 4a3e 423e 3f35 193e
00000060: 172c 1c3e 2016 2a3e 976f 17bf 0169 133f
00000070: ab5a 103f be71 b2bc 40be b0bd 25df 67be
00000080: ebf9 973e 468a ffbe 2399 08bf 711a 7abd
00000090: a26b 153e ef45 b83e 987e a73e 791f 713b
000000a0: 77af 01bf f11d 97bd 78b6 99bc cda9 8c3d
000000b0: 1927 bfbd c63b 533e d310 50be f7c3 13bf
000000c0: 2246 33be 0d91 5c3e 2436 8b3d 41e1 b23c
000000d0: 84e1 213d d522 583d 619d be3d 0191 99be
000000e0: 0716 0ebd 7864 18bf bd1b 51be 8ae4 303e
000000f0: 2cee 323c f634 753e 736b 89bc 5168 4a3d
00000100: e9bd 9b3e e073 163e bf33 5e3e e857 033d
00000110: d452 4d3d ff40 553d c18c 47be f93e 28be
00000120: 61c3 a23e 6ad4 a73a ebbb f1be b5f8 603e
00000130: 7b27 9a3e b827 1f3e f8ab 2cbf f95c 6cbe
00000140: bd49 77bc a2ad a33e 2190 b3be e61d cdbe
00000150: b253 98be b39b b0bd c821 ccb9 4348 83be
00000160: f514 5dbf 74da f8bd 77e0 6d3d 90f8 cbbd
00000170: 12f5 dabe 70e4 c03c 0cc7 b9be fc6d c63e
00000180: bd7e 96be fe1c 073e d720 6bbe a1e8 8a3e
00000190: 01fd 3ebd cf08 843e 8382 ce3e 93fb babe
000001a0: f57b 99bd cf23 76be d536 593e 642f fabe
000001b0: e5ee afbd 0e7e aebe c45e 35be 29e4 bfbc
000001c0: 8863 203f 9d8b 3c3e e702 a4be 5b0a 21bf
000001d0: 1e66 82be 9724 dd3e 77a6 c93d 5b99 ea3c
000001e0: ca7b 143c 7fc1 2c3d 7580 1ebe 8796 c8bd
000001f0: 0647 cebc c7be db3e 401d bd3d 19f9 453e
00000200: 8cef 78bd 9497 023f 3159 01bf 15ef 56bf
00000210: 349d 923e d391 6f3e 134a a03d 98b3 623e
00000220: e02c 5dbf 6a2e 92be 80ad bfbe e63c cb3e
00000230: b4d2 cbbe 0b21 8bbe 6b6b eb3e 550c 993e
00000240: 52f2 663e 596a 8d3e b30f 24bc bc56 0cbf
00000250: 8040 2c3f 2aac 37bb e5dc 093d 5a57 b0be
00000260: 5167 71bc 571d 8cbe c346 af3e 5a92 23bd
00000270: d3bb 103f 4d96 e1bc 9739 f4bd a64d 343e
00000280: b323 88be 9504 343e bb2e 03be b787 f4be
00000290: dd83 823e 1656 2b3e 2a19 9abe c323 babe
000002a0: 5f59 2cbf 6b16 f8bd ac5e 093f 0c3f 88be
000002b0: 52db b1be c364 a0be 1612 bb3e 9dd2 4f3d
000002c0: 1475 0bbe 9b85 c33d d7d4 0f3d 25a2 483e
000002d0: 5355 403d e5d5 863e dc0c c83e f373 a73e
000002e0: dd51 04bd 5ccd 933d d554 3fbe 557a 1ebe
000002f0: 5a10 25be 73f3 443e a468 c73d fcbb 17be
00000300: 3551 353e d461 0cbe 3b52 d1be d405 b43d
00000310: 10c0 91bd a2be 6ebe 7014 393e b153 c33e
00000320: 9494 b5be 2ba7 c73c e5a1 103e d7e8 5cbe
00000330: 2495 ed3e 381c e5bc 8745 ed3e 4379 c7be
00000340: 32a6 76bf 127e 04be 0172 403e 0041 93be
00000350: 0d47 063e 8a05 70be 71fe 01bf 0e7c a8bd
00000360: 4b4f cb3e b6ff 42bf 4332 3ebd a6b3 953e
00000370: a82f 383e b3c3 1fbe 51d9 46bf 6e6f b63e
00000380: 78e3 633f 0184 4a3d 9e15 21be b4b7 d4be
00000390: fbd2 1d3f 431a e53e b8c0 42be 198d cd3e
000003a0: a09d 1dbd 64c3 cabe 5043 853e 0ae7 b43e
000003b0: 9d75 d3bd 2d69 dfbe d00f 3ebe 5a49 33bf
000003c0: b5e5 7bbd 0c55 903e 4faa f33e 3856 1abf
000003d0: eb52 9a3e 7ba5 e03e f104 e93e 8a5b 04bf
000003e0: 09d0 52be 01d2 693d e094 5bbf a3d6 a1be
000003f0: 7eb2 b63e fd47 343f 571e e13e 6c0e f9be

lstm.bias_ih_l0 f4 [392]
-0.17765875 -0.265511 -0.11694986 -0.3121547 0.026123738 0.08618092 -0.3171621 -0.57876116
-0.0456707 0.005115634 -0.06268728 -0.11430862 -0.22541748 -0.1284231 -0.29975873 -0.15612803
0.035487182 -0.2414068 -0.16294059 0.0006834979 -0.27180234 0.0020722745 -0.19977596 0.0422666
-0.13140099 -0.42624015 -0.3450968 -0.44178241 -0.13457137 -0.15640591 -0.40990716 -0.11926755
0.039741047 -0.24662274 -0.25603583 -0.37194076 -0.3297203 -0.18683249 -0.197824 -0.19020236
-0.3255905 -0.1842845 -0.062317457 -0.13361876 -0.48512447 -0.34634256 0.013408755 -0.3132101
0.1464599 -0.33714786 -0.17726272 0.00011184161 -0.19765255 -0.3117428 0.025876403 -0.20715412
-0.1425476 0.21002994 -0.3245188 -0.061728116 -0.19893432 -0.17894588 -0.07746035 -0.13622336
-0.03300945 0.025469588 -0.09396211 -0.14688131 -0.025785796 0.005280987 -0.29674017 -0.04258017
-0.16362055 -0.12301803 -0.10181552 -0.61458886 -0.2140007 -0.12090419 -0.42119512 -0.14175834
-0.18415968 -0.38247046 -0.06734387 -0.33586207 -0.075916074 -0.43427953 0.010528227 -0.11762732
0.053281758 -0.26541716 0.015913742 0.08185477 -0.15897812 -0.14449458 -0.0127637945 -0.14786763
-0.041210253 -0.07972535 0.24750628 0.20661533 0.16888142 -0.1675103 0.14977962 -0.004855755
-0.01366816 0.0448722 0.055602167 0.070523955 0.01241941 0.24307862 -0.03074019 0.15442872
-0.008961287 -0.018546775 0.16943063 -0.026105408 0.42277306 0.41386274 0.23828663 0.12073621
0.58324724 0.036556397 -0.05701055 0.21098863 0.09498696 0.39495823 -0.006001522 0.034030568
-0.031760387 0.12466282 -0.10795569 0.017784692 -0.08391874 0.2797133 0.23528473 0.15160234
0.039498013 -0.0927052 0.026000358 -0.012385767 0.13359356 -0.16063376 0.08763182 0.1613699
0.009375621 0.30322623 -0.15977323 0.19023731 0.007880847 0.4510338 0.12568703 0.07838812
-0.35680488 0.23817474 0.016079947 -0.5859438 0.06119302 -0.16961405 -0.109469414 0.31963536
0.14664747 0.09640565 -0.33845925 0.20822448 -0.040709596 0.01950722 -0.1320789 0.12612529
-0.010939425 -0.03693296 0.20853421 0.4571874 -0.05816429 0.28489175 0.10711854 0.12964785
-0.13546875 0.17924729 -0.18169312 0.11652505 -0.04404103 0.23866947 0.03655208 -0.017611789
0.096047565 -0.021661663 0.3159347 -0.079518706 0.12629867 -0.23034869 0.029276008 -0.046036992
0.08908558 -0.18442795 -0.03337036 -0.22266215 0.306126 0.19340408 -0.06419991 0.15954086
0.10689605 -0.10158984 -0.1615476 -0.071562886 0.1184755 -0.15550277 0.05938588 -0.05917395
-0.1222433 0.123701096 0.033474233 0.24254887 0.009711851 0.017432468 0.19688551 0.16674405
-0.09368881 0.041965906 -0.07832831 0.29708952 -0.13500753 -0.105657965 0.17553733 -0.037899908
-0.02919203 0.11855005 0.024334569 -0.06052117 -0.10911832 -0.06759802 0.047406137 0.105630375
0.09592947 0.076815315 -0.13013324 0.018362507 0.047843978 0.14761598 -0.025471784 -0.053225406
-0.16519517 -0.024468938 -0.07938898 0.15821417 -0.16894229 -0.044479776 0.07141644 0.042766083
-0.24293391 -0.010690585 0.2405648 0.0019217407 0.26646823 -0.0042277947 0.08779093 0.19125523
00000000: 2dec 35be 0ff1 87be 6883 efbd bed2 9fbe
00000010: 7301 d63c 9f7f b03d 1263 a2be b129 14bf
00000020: 3311 3bbd 0ca1 a73b 3062 80bd a31a eabd
00000030: d7d3 66be 5881 03be fa79 99be 07e0 1fbe
00000040: 025b 113d 5833 77be e6d9 26be c52c 333a
00000050: ad29 8bbe ffce 073b 1292 4cbe be1f 2d3d
00000060: fb8d 06be 263c dabe 87b0 b0be 4e31 e2be
00000070: 14cd 09be df28 20be 5adf d1be 8c42 f4bd
00000080: 82c7 223d ac8a 7cbe 2117 83be 056f bebe
00000090: 19d1 a8be 0451 3fbe 6092 4abe 68c4 42be
000000a0: ccb3 a6be 13b5 3cbe 9740 7fbd 5bd3 08be
000000b0: 3c62 f8be d053 b1be 65b0 5b3c 135d a0be
000000c0: 96f9 153e a59e acbe 5c84 35be 828c ea38
000000d0: 6e65 4abe c19c 9fbe c0fa d33c 3620 54be
000000e0: 00f8 11be 1712 573e 5427 a6be 9fd6 7cbd
000000f0: 70b5 4bbe 973d 37be 88a3 9ebd 237e 0bbe
00000100: eb34 07bd 99a5 d03c 356f c0bd 0e68 16be
00000110: bc3c d3bc 210c ad3b 54ee 97be 8b68 2ebd
00000120: 258c 27be e0f0 fbbd a884 d0bd b255 1dbf
00000130: 0023 5bbe 9e9c f7bd e3a6 d7be 1929 11be
00000140: 5b94 3cbe 2bd3 c3be 95eb 89bd 1df6 abbe
00000150: e379 9bbd e359 debe 967e 2c3c 98e6 f0bd
00000160: f93d 5a3d c2e4 87be 895d 823c 79a3 a73d
00000170: 29cb 22be 63f6 13be 3c1f 51bc 9d6a 17be
00000180: 15cc 28bd 0b47 a3bd 4972 7d3e f892 533e
00000190: 40ef 2c3e d287 2bbe d45f 193e 061d 9fbb
000001a0: 6bf0 5fbc e9cb 373d 19bf 633d dd6e 903d
000001b0: c87a 4b3c 9ae9 783e dad2 fbbc 9022 1e3e
000001c0: 5dd2 12bc 68ef 97bc 397f 2d3e 02db d5bc
000001d0: b675 d83e d1e5 d33e 6901 743e 8c44 f73d
000001e0: b14f 153f 29bc 153d e583 69bd 670d 583e
000001f0: 8688 c23d f737 ca3e 6aa8 c4bb a363 0b3d
00000200: 2e17 02bd 384f ff3d df17 ddbd 34b1 913c
00000210: 97dd abbd 9536 8f3e 7bee 703e a53d 1b3e
00000220: abc8 213d 39dc bdbd b4fe d43c aced 4abc
00000230: c0cc 083e 2d7d 24be 5078 b33d 273e 253e
00000240: 349c 193c 7840 9b3e 989b 23be 92cd 423e
00000250: ab1e 013c e7ed e63e 1ab4 003e f389 a03d
00000260: 21af b6be 14e4 733e 18ba 833c 6a00 16bf
00000270: 88a5 7a3d 4eaf 2dbe 8031 e0bd 3fa7 a33e
00000280: c12a 163e 5370 c53d 884a adbe cc38 553e
00000290: 1bbf 26bd 9bcd 9f3c b13f 07be fd26 013e
000002a0: 463b 33bc 0447 17bd fe89 553e 7814 ea3e
000002b0: ae3d 6ebd 55dd 913e f760 db3d 68c2 043e
000002c0: 52b8 0abe 9a8c 373e c30d 3abe afa4 ee3d
000002d0: 5e64 34bd c565 743e a2b7 153d 9946 90bc
000002e0: 96b4 c43d cd73 b1bc 31c2 a13e b4da a2bd
000002f0: 7054 013e 87e0 6bbe 3dd4 ef3c 4991 3cbd
00000300: 8072 b63d aeda 3cbe 5caf 08bd 8c01 64be
00000310: 8cbc 9c3e b80b 463e 3e7b 83bd ae5e 233e
00000320: 51ec da3d 560e d0bd bc6c 25be 908f 92bd
00000330: 48a3 f23d 1e3c 1fbe 9c3e 733d 6260 72bd
00000340: b25a fabd 0057 fd3d 471c 093d bb5e 783e
00000350: 751e 1f3c 89ce 8e3c 5b9c 493e f4be 2a3e
00000360: ebdf bfbd 71e4 2b3d 986a a0bd 1e1c 983e
00000370: 6a3f 0abe 3463 d8bd 0fc0 333e ef3c 1bbd
00000380: 2024 efbc 5eca f23d 4a59 c73c 0ce5 77bd
00000390: 6d79 dfbd d570 8abd f02c 423d bd54 d83d
000003a0: ac76 c43d 5951 9d3d a641 05be f86c 963c
000003b0: 0cf8 433d a528 173e 34aa d0bc e202 5abd
000003c0: ec28 29be 1573 c8bc b196 a2bd e502 223e
000003d0: 35ff 2cbe 6d30 36bd c842 923d 7d2b 2f3d
000003e0: abc3 78be 9027 2fbc 9e56 763e ebe2 fb3a
000003f0: 866e 883e 5089 8abb bbcb b33d 69d8 433e

lstm.bias_hh_l0 f4 [392]
-0.11491421 -0.46091214 -0.25505 -0.32233018 0.026774852 -0.04314944 -0.13988012 -0.52025926
-0.018064748 -0.060234267 -0.13556571 -0.10861703 -0.12072636 -0.18385231 -0.30428073 -0.15069452
0.1871745 -0.1260647 -0.16277388 -0.072312705 -0.28023964 0.027217062 -0.21433777 -0.077641845
-0.19409508 -0.4307092 -0.20018613 -0.4454714 -0.14997324 -0.15500645 -0.4808258 -0.14758033
-0.027801111 -0.32941484 -0.24451019 -0.5332102 -0.41367584 -0.23022047 -0.14832722 -0.26038468
-0.40288037 -0.14174141 -0.16026068 -0.2100211 -0.45730823 -0.27997297 -0.025736589 -0.21669632
0.10568909 -0.25232035 -0.12415278 -0.14557679 -0.13505937 -0.24023858 0.07714425 -0.21713401
-0.16757783 0.22526297 -0.30918327 -0.04281077 -0.3659695 -0.11879372 -0.1403143 -0.2535615
-0.005769385 0.050435636 -0.021581456 -0.104409896 -0.07953454 0.048130397 -0.38153696 -0.1195087
-0.28729182 -0.0034542463 -0.15699598 -0.570807 -0.06555639 -0.09026268 -0.41721466 -0.20232566
-0.19647208 -0.35073242 -0.19507311 -0.28433973 -0.06424997 -0.33383435 0.055470996 0.06349192
-0.0028451344 -0.20269419 0.095861115 0.16184466 -0.17753427 -0.24690081 0.041665435 -0.12561391
0.09558929 0.100100756 0.09037967 0.2105099 0.24589723 -0.115635864 0.16293117 0.0071255052
-0.031394865 0.14860624 0.1577689 0.109915555 -0.08384739 0.32437074 -0.018325275 0.22870074
0.097573265 0.07176139 0.15387408 0.013938695 0.4697497 0.48834577 0.32304177 0.0018139902
0.5929766 -0.033158142 -0.044786118 0.13483076 0.053458918 0.45119366 -0.038285643 -0.0014435035
-0.07539775 0.053880066 -0.062117353 0.17448117 -0.039646395 0.28784493 0.19872224 0.23479931
0.008821698 -0.16047144 0.08195058 -0.04103008 0.029318528 -0.106616125 0.12691593 0.09895083
-0.11155196 0.20337597 -0.16417201 0.12823263 0.1586186 0.581406 0.07344643 0.09042619
-0.43254066 0.15738338 0.096143335 -0.49898338 -0.05755734 -0.10379393 0.027054925 0.34237722
0.19785276 0.059325654 -0.2830677 0.10899692 -0.13329108 0.039307233 -0.1568927 0.119108476
0.14132772 0.008229203 0.17325841 0.3578188 0.02646743 0.395875 -0.025054438 -0.0013707282
-0.17272133 0.16846779 -0.10738905 0.07183522 -0.016438693 0.22046325 0.034058616 -0.067531765
0.0336518 -0.1265558 0.24518304 0.016640801 0.242126 -0.30839145 -0.1241973 -0.061545987
0.085777715 -0.032654352 -0.0026975046 -0.05309411 0.2572687 0.1412367 0.0022272572 0.16035432
0.09317369 -0.033902913 -0.09840867 -0.1033274 0.04273246 -0.061189033 0.11119045 -0.12280179
-0.2721883 0.17920293 0.09585239 0.22847867 0.12695913 0.10762944 0.18576197 0.13742678
0.1031894 -0.036293164 -0.026497286 0.23143576 -0.08120462 -0.07868544 0.12887396 -0.051482122
-0.13385399 -0.003729777 0.015424657 -0.037150785 0.0059628347 -0.11538362 -0.014160709 0.15246448
-0.0025326144 0.15776165 -0.06620867 -0.006158171 -0.029938696 0.014686481 -0.14768386 0.009126497
-0.048914593 0.08215545 -0.1853349 0.15371992 0.018860202 -0.10121604 0.028332256 0.1013912
-0.21601276 -0.056678 0.24510504 0.0010597833 0.187639 -0.029037327 0.17382352 0.24566291
00000000: 2458 ebbd adfc ebbe ea95 82be 7608 a5be
00000010: ef56 db3c 78bd 30bd bc3c 0fbe b62f 05bf
00000020: 86fc 93bc 35b8 76bd bdd1 0abe 9b72 debd
00000030: 623f f7bd c843 3cbe afca 9bbe aa4f 1abe
00000040: acaa 3f3e 1b17 01be 32ae 26be af18 94bd
00000050: 927b 8fbe 51f6 de3c 5c7b 5bbe b002 9fbd
00000060: dcc0 46be eb85 dcbe 98fd 4cbe d414 e4be
00000070: 9692 19be 03ba 1ebe cd2e f6be 4c1f 17be
00000080: 28bf e3bc 10a9 a8be e160 7abe 7780 08bf
00000090: 52cd d3be eabe 6bbe 17e3 17be 2451 85be
000000a0: 5646 cebe a924 11be 601b 24be c50f 57be
000000b0: 4e24 eabe 9e58 8fbe 8ad5 d2bc a4e5 5dbe
000000c0: 8673 d83d 2230 81be d043 febd 1512 15be
000000d0: 014d 0abe 1a01 76be cefd 9d3d 6158 5ebe
000000e0: 8699 2bbe 56ab 663e 454d 9ebe 595a 2fbd
000000f0: 5b60 bbbe 1f4a f3bd 8dae 0fbe d0d2 81be
00000100: 1c0d bdbb 9995 4e3d 98cb b0bc dbd4 d5bd
00000110: 01e3 a2bd 6124 453d d058 c3be fac0 f4bd
00000120: ea17 93be a360 62bb 8ec3 20be 6820 12bf
00000130: 6e42 86bd a4db b8bd 299d d5be 752e 4fbe
00000140: fa2f 49be 3393 b3be 3fc1 47be fa94 91be
00000150: 7d95 83bd 56ec aabe 8e35 633d 0d08 823d
00000160: 6f75 3abb 118f 4fbe d552 c43d 9bba 253e
00000170: 8bcb 35be 91d3 7cbe 60a9 2a3d efa0 00be
00000180: 51c4 c33d a001 cd3d fa18 b93d e88f 573e
00000190: 7ccc 7b3e 7fd2 ecbd 6ed7 263e 127d e93b
000001a0: e797 00bd 3c2c 183e 2c8e 213e 681b e13d
000001b0: 2eb8 abbd ec13 a63e e31e 96bc 8730 6a3e
000001c0: 7ed4 c73d a3f7 923d 2b91 1d3e 205f 643c
000001d0: 0883 f03e 7508 fa3e bb65 a53e 69c3 ed3a
000001e0: 51cd 173f d5d0 07bd a671 37bd 1311 0a3e
000001f0: bdf7 5a3d db02 e73e 68d1 1cbd f133 bdba
00000200: 236a 9abd 58b1 5c3d c46e 7ebd 31ab 323e
00000210: 4264 22bd 6960 933e d87d 4b3e 3b6f 703e
00000220: e288 103c a052 24be b5d5 a73d 280f 28bd
00000230: 692d f03c 8e59 dabd 40f6 013e bca6 ca3d
00000240: 5b75 e4bd ca41 503e b51c 28be 6a4f 033e
00000250: ea6c 223e 06d7 143f 156b 963d 5e31 b93d
00000260: f875 ddbe 1c29 213e cce6 c43d c07a ffbe
00000270: 3fc1 6bbd e991 d4bd 4aa2 dd3c 114c af3e
00000280: ea99 4a3e 75ff 723d 40ee 90be c739 df3d
00000290: 757d 08be 9f00 213d 7ba8 20be 25ef f33d
000002a0: 37b8 103e c7d3 063c a76a 313e 0734 b73e
000002b0: 39d2 d83c 21b0 ca3e f73e cdbc 02aa b3ba
000002c0: dcdd 30be d282 2c3e caee dbbd 581e 933d
000002d0: 70aa 86bc 1ec1 613e 0c81 0b3d 184e 8abd
000002e0: 78d6 093d d897 01be 4311 7b3e 4a52 883c
000002f0: e1ef 773e 7ce5 9dbe 275b febd a517 7cbd
00000300: 3aac af3d 92c0 05bd 9ec8 30bb 3679 59bd
00000310: b9b8 833e 5aa0 103e 2df7 113b ec33 243e
00000320: d9d1 be3d c8dd 0abd 7c8a c9bd 519d d3bd
00000330: 3b08 2f3d 5aa1 7abd d2b7 e33d 817f fbbd
00000340: 445c 8bbe f980 373e 424e c43d 50f6 693e
00000350: 9301 023e d36c dc3d 6338 3e3e 9bb9 0c3e
00000360: f754 d33d 24a8 14bd d610 d9bc 7ffd 6c3e
00000370: 9c4e a6bd d525 a1bd 89f7 033e ebde 52bd
00000380: 0511 09be 466f 74bb b3b7 7c3c 6c2b 18bd
00000390: e263 c33b 3f4e ecbd 5202 68bc a61f 1c3e
000003a0: 38fa 25bb 458c 213e 6998 87bd 7cca c9bb
000003b0: ff41 f5bc 919f 703c 703a 17be 4e87 153c
000003c0: ab5a 48bd 1e41 a83d 6fc8 3dbe c168 1d3e
000003d0: b680 9a3c 5b4a cfbd 0c19 e83c 31a6 cf3d
000003e0: 7332 5dbe 3127 68bd d1fc 7a3e 6de8 8a3a
000003f0: 7024 403e b0df edbc cbfe 313e 0f8f 7b3e

fc1.weight f4 [9, 98]
-0.0062608863 0.52150905 -0.0549333 -0.028819162 -0.77581817 0.8158208 -0.008418831 -0.8424762
0.06435014 -0.06451138 -0.0147266425 -0.12956458 0.54765165 -0.968903 -0.5228836 -0.1704543
0.075043924 0.11698819 0.04332123 0.121194966 0.22368181 -0.17658585 -0.03149986 -0.14662762
0.22903962 -0.5140842 -0.2003427 0.27664816 0.15212427 1.3809415 0.4917763 0.23496577
-0.70276225 -0.29510882 -0.18223931 -0.5085533 0.07131668 0.184404 0.6076958 -0.99862385
-0.42231044 1.0029305 -0.19208778 0.8900994 -0.03554275 -0.42947692 -0.7464602 -0.14249285
0.29663548 0.13654609 -1.1945124 0.2224885 -0.23369424 -0.010906885 -0.32122275 -0.21225356
0.053212557 -0.21264073 -0.03152488 -0.08287374 -0.09213718 -0.05799447 0.13198893 -0.4141035
-0.7736597 -0.095941365 -0.6640837 -0.20728086 -0.27866817 -0.04337245 -0.37015158 -0.39942518
-0.16708557 -0.06475993 0.36074543 -1.1174629 -0.030739514 1.4898268 -0.32419416 0.56263584
0.9582969 -0.44879863 0.021858426 -0.48080736 -0.05545434 1.3187193 -0.6857371 -0.19082473
0.14586067 0.39995116 0.4640176 0.47053492 0.19474716 -0.12091622 0.38259515 -0.3057951
-0.22215824 -0.20897932 0.44039825 0.14350724 0.41174978 -0.016187187 -0.21106112 0.0843448
0.02007788 0.036423378 0.98017997 0.15994452 1.1234391 -0.045375966 0.1082032 -0.3668512
0.55736667 -0.70491976 -0.22524056 -0.2157437 0.07029569 -0.30164522 0.30032957 -0.19344316
0.042816784 -0.23570251 0.52845365 -0.6378716 0.23396122 0.820607 -0.87019914 -1.6466002
0.12809856 0.22220011 0.29134887 -0.042460475 0.03637487 -0.8688044 -0.016465692 0.4010847
0.29276964 -0.21923378 0.6121586 -1.1107928 -0.29113033 0.5961634 -0.25426504 0.4647051
-0.28144985 -0.3060351 -0.2548696 0.16503015 -0.4066883 0.02672634 -0.83690685 0.31353933
-1.268535 -0.6829381 0.28960338 0.67565525 0.08179051 -0.84831244 -0.36489636 -0.21543936
0.06692578 0.85097235 0.027804226 0.13369544 -0.42080057 -0.24562845 -0.31003487 -0.14644246
-0.10489232 -0.36964917 -0.47536007 -0.330929 0.8789714 0.04340335 -0.56040967 0.093993604
0.6030193 -0.053672712 -1.1948205 1.346151 -0.25070804 1.0769628 -0.12334268 0.78103524
-0.0684726 -0.8984389 0.57969654 -0.15396778 0.12611967 -1.3516845 0.517507 -0.7384115
-0.41873607 1.0579553 0.21446332 -0.74936664 -0.32127762 -0.48844296 -0.2974109 -0.29289186
-0.3955444 0.107052535 -0.23997289 0.25744697 -0.26551983 -0.55286723 0.016520223 -0.27169323
-0.29766005 -0.11486993 -0.4669528 -0.23560417 -0.18468344 -0.29042587 0.15040685 0.64473426
-0.38834357 0.4215656 0.14998981 -1.095977 -0.35970914 1.4222045 -0.15254329 -0.685784
-0.42038685 -0.23268728 -0.20652737 0.10741009 -0.6236981 0.22492208 -1.1148762 -0.56632525
-0.032335877 -1.2251565 0.46628964 -0.8019578 -0.5536881 0.7073075 0.33944356 0.76839876
-0.6611447 0.013708688 -0.12882325 -0.04885815 0.007338964 -0.59185135 -0.8869928 -0.16378154
0.15346637 0.09794289 -0.2977764 1.203076 -0.33379155 0.5396244 -0.40098128 -0.27566528
00000000: 1f28 cdbb 9e81 053f bd01 61bd 2a16 ecbc
00000010: 059c 46bf a2d9 503f 23ef 09bc 85ac 57bf
00000020: 02ca 833d 8b1e 84bd 0448 71bc 94ac 04be
00000030: e632 0c3f 070a 78bf b3db 05bf 928b 2ebe
00000040: a1b0 993d 8197 ef3d 9a71 313d 1135 f83d
00000050: d80c 653e ecd2 34be ff05 01bd 8d25 16be
00000060: 5d89 6a3e 069b 03bf a326 4dbe d4a4 8d3e
00000070: 77c6 1b3e b1c2 b03f 1aca fb3e de9a 703e
00000080: 3ae8 33bf 8118 97be f19c 3abe 8d30 02bf
00000090: 7b0e 923d 67d4 3c3e f491 1b3f d0a5 7fbf
000000a0: 1339 d8be 0760 803f a9b2 44be 8edd 633f
000000b0: 4695 11bd 66e4 dbbe 0418 3fbf a5e9 11be
000000c0: 9be0 973e bdd2 0b3e c8e5 98bf 06d4 633e
000000d0: 8b4d 6fbe cbb2 32bc 4f77 a4be ff58 59be
000000e0: 69f5 593d 7ebe 59be 3c20 01bd b5b9 a9bd
000000f0: 6bb2 bcbd 9c8b 6dbd 1b28 073e 6005 d4be
00000100: 900e 46bf e87c c4bd 6401 2abf 6f41 54be
00000110: 98ad 8ebe 4fa7 31bd 8284 bdbe 7581 ccbe
00000120: 7b18 2bbe dba0 84bd a0b3 b83e 0609 8fbf
00000130: 6fd1 fbbc a5b2 be3f c7fc a5be e708 103f
00000140: f252 753f efc8 e5be 7110 b33c 622c f6be
00000150: 1724 63bd cbcb a83f 778c 2fbf 8f67 43be
00000160: 805c 153e 66c6 cc3e b793 ed3e f4e9 f03e
00000170: cd6b 473e eca2 f7bd 83e3 c33e 2d91 9cbe
00000180: 737d 63be adfe 55be e17b e13e 90f3 123e
00000190: ded0 d23e fe9a 84bc 6820 58be f7bc ac3d
000001a0: 5e7a a43c ae30 153d 13ed 7a3f 7fc8 233e
000001b0: dacc 8f3f 26dc 39bd a499 dd3d ecd3 bbbe
000001c0: 95af 0e3f 9f75 34bf 76a5 66be ebeb 5cbe
000001d0: 30f7 8f3d 3e71 9abe ccc4 993e f715 46be
000001e0: a760 2f3d 005c 71be bd48 073f 8e4b 23bf
000001f0: 8893 6f3e 4d13 523f 5fc5 5ebf ccc3 d2bf
00000200: 452c 033e 6d88 633e ae2b 953e 09eb 2dbd
00000210: d1fd 143d f769 5ebf 0fe3 86bc f95a cd3e
00000220: e7e5 953e d27e 60be 6db6 1c3f 752e 8ebf
00000230: 090f 95be 2a9e 183f 072f 82be d4ed ed3e
00000240: 321a 90be a2b0 9cbe 457e 82be aafd 283e
00000250: 7339 d0be 33f1 da3c 873f 56bf 3a88 a03e
00000260: 5b5f a2bf 08d5 2ebf e546 943e bef7 2c3f
00000270: c881 a73d 012b 59bf b2d3 babe 239c 5cbe
00000280: 6210 893d 53d9 593f b0c5 e33c 75e7 083e
00000290: 2c73 d7be 0686 7bbe e4bc 9ebe 03f5 15be
000002a0: c9d1 d6bd a842 bdbe 6562 f3be 876f a9be
000002b0: 4504 613f b6c7 313d 0277 0fbf b87f c03d
000002c0: 795f 1a3f ebd7 5bbd e1ef 98bf ad4e ac3f
000002d0: ce5c 80be ebd9 893f 169b fcbd edf1 473f
000002e0: 5d3b 8cbd 1700 66bf fe66 143f bba9 1dbe
000002f0: 8425 013e ff03 adbf 577b 043f 8908 3dbf
00000300: 9364 d6be 146b 873f 469c 5b3e 7ed6 3fbf
00000310: 807e a4be 3215 fabe 3e46 98be ecf5 95be
00000320: cc84 cabe 5c3e db3d 74bb 75be 17d0 833e
00000330: 37f2 87be b588 0dbf 6b55 873c 601b 8bbe
00000340: e666 98be ed40 ebbd 7014 efbe 3842 71be
00000350: a81d 3dbe b3b2 94be 4104 1a3e 4e0d 253f
00000360: f8d4 c6be 72d7 d73e ee96 193e f948 8cbf
00000370: cc2b b8be cc0a b63f 4f34 1cbe 8a8f 2fbf
00000380: f23c d7be 9345 6ebe e97b 53be d2f9 db3d
00000390: aeaa 1fbf f951 663e 43b4 8ebf b1fa 10bf
000003a0: a072 04bd eed1 9cbf 84bd ee3e 1b4d 4dbf
000003b0: 81be 0dbf 1b12 353f 8ccb ad3e c8b5 443f
000003c0: c740 29bf 689a 603c 3eea 03be 7c1f 48bd
000003d0: b17b f03b 9283 17bf f611 63bf 59b6 27be
000003e0: 4a26 1d3e 4896 c83d 2676 98be 65fe 993f
000003f0: bae6 aabe d324 0a3f 6b4d cdbe 0024 8dbe

fc1.bias f4 [9]
-0.19175988 0.058888286 -0.06961045 -0.042064454 0.019455604 0.075291656 0.04365009 -0.075716145
-0.13615786
00000000: b45c 44be d834 713d ec8f 8ebd c74b 2cbd
00000010: 5c61 9f3c 8332 9a3d 70ca 323d 1111 9bbd
00000020: f76c 0bbe

exp_avg f4 [392, 1]
-0.00014592147 0.010208844 0.004546348 0.0018947489 0.0013053686 0.0025316004 0.004980215 -0.022671614
-0.006994942 -0.0058159837 -0.0049306066 0.0012282714 0.0010647948 0.0028430629 0.011632712 0.0014681044
-0.0016828682 -0.0023731943 0.0029253692 0.0032037252 -0.0029476166 0.002032392 -0.018809956 -0.0011159651
-0.007828056 -0.008549141 0.0072550094 -0.06683488 -0.012397089 0.0030432069 0.00067778805 -0.00025963594
-0.00023403426 -0.0068904036 0.00023681678 -0.01454308 -0.0017244816 -0.0059238733 -0.0001792028 0.00048443713
0.00088960904 -0.0010593174 -0.003536342 0.0012670612 -0.003119131 -0.0013046708 0.0015402565 -0.02181965
-0.0051953276 0.0049031903 0.009034843 -0.001618292 -0.010889505 -0.0039224476 -0.00014725045 -0.0041904715
0.0011886556 0.0023739885 -0.0035081569 -0.0020531402 -0.0042005344 0.0029053988 -0.007799291 0.0025756774
-0.0025813098 -0.0022335537 -0.001181255 0.00892332 0.004668656 0.00633673 0.0014246828 -0.004901541
0.00027295927 0.005200929 0.0017289765 -0.007067335 -0.0008094911 0.009253333 0.008875468 0.01681461
0.0017561122 0.0004726321 0.0026113894 -0.021198764 -0.0003318995 0.002477095 -0.0014360824 -0.000114562135
0.0014896354 -0.0023942455 0.00021441317 -0.0019846696 0.0017685965 0.00042882602 0.00040197876 -0.0011260097
0.0010839814 4.6643036e-05 -0.0029768727 -0.014499763 -0.0034907716 0.0008547377 0.002061414 0.0030621188
0.001997552 -0.0065522166 -0.0023154395 0.0031516685 0.006538899 0.0014459696 -0.0026190958 -0.00028715996
0.00980153 0.0042326096 -0.013402434 -0.006939617 0.0014022884 0.0013979835 -0.0038293868 -0.0012087334
0.0018982916 0.0004805037 -0.0019537327 -0.022723323 -0.004723422 -0.00015181796 0.0012063525 0.00094916474
-0.004222086 -0.00018598272 0.009804334 -0.0032916963 0.0012975634 -0.0055726524 2.2392842e-05 -0.0014445235
0.0005960807 0.00029483336 -0.00027017106 -0.0011878783 -0.0021088952 0.0019124497 -0.0028926572 -0.0034651044
-0.0023777282 -0.010617767 -0.0029934968 -0.0019310185 -0.0006687109 -0.0037512523 -0.00073843537 -0.003178759
-0.0039266176 -0.00030730737 0.0010649912 0.0004723348 -0.0026889495 0.00071872247 -0.0049865292 -0.001813018
-0.010388905 -0.00028905147 -0.0021732305 0.0026477152 0.005013626 0.0013336078 0.0010860325 -0.00095539814
-0.0009594794 0.007876535 0.00029729411 0.00828573 0.0011817535 0.007633864 0.00060955615 0.0022428508
0.00070865575 -0.005239554 0.0009468083 0.0017130733 0.0044689686 0.0037630827 -0.0040918924 -0.0010028774
0.00023871758 0.00079361576 0.0018196132 0.0007739475 -0.00045964727 -0.0024344525 4.340766e-05 -6.148684e-05
0.0045703882 -0.0004879036 0.0012671169 0.00016191325 0.0018907352 0.012389965 0.017446874 -0.0014011553
0.009520491 0.004331365 0.032602288 0.026081173 -0.025729552 -0.020644333 -0.027535297 0.001821614
0.00962451 -0.0059897606 -0.020882798 -0.017672032 -0.0052483655 -0.0071239513 -0.0039602136 -0.0013073573
0.0038559493 -0.001931712 0.013722078 0.0025334377 -0.020765098 -0.00044973494 0.0050883023 0.039859176
0.02362403 0.005513993 -0.0019328861 0.00956377 -0.013388426 0.009171709 0.0047600865 -0.020098642
0.0042649233 -0.0116328765 0.03232208 -0.015063078 -0.02155538 0.004528395 0.021162855 -0.00015153202
0.0021721919 0.005155315 -0.000996494 -0.05949741 -0.0097860815 0.0343183 0.018239254 0.006288421
-0.03599399 -0.0052405046 0.028135521 0.0007872492 -0.00097239425 0.0064665535 -0.0074028033 -0.011695391
00000000: 7f02 19b9 ff42 273c 88f9 943b 3959 f83a
00000010: e718 ab3a 35e9 253b 1231 a33b d2b9 b9bc
00000020: d435 e5bb 0294 bebb ed90 a1bb f3fd a03a
00000030: 9690 8b3a ae52 3a3b 2197 3e3c 696d c03a
00000040: b093 dcba 9887 1bbb 8db7 3f3b 97f5 513b
00000050: cd2c 41bb e131 053b 5617 9abc 9345 92ba
00000060: 3f41 00bc b211 0cbc 6ebb ed3b bae0 88bd
00000070: 291d 4bbc 8a70 473b 96ad 313a bf1f 88b9
00000080: 1867 75b9 e5c8 e1bb 0552 7839 1946 6ebc
00000090: 0008 e2ba 0d1d c2bb 63e8 3bb9 0dfc fd39
000000a0: a734 693a cbd8 8aba f9c1 67bb 8513 a63a
000000b0: 566a 4cbb 7d01 abba 6fe2 c93a 1fbf b2bc
000000c0: 913d aabb f1aa a03b e106 143c de1c d4ba
000000d0: e569 32bc e087 80bb 3e67 1ab9 3950 89bb
000000e0: aacc 9b3a eb94 1b3b 1be9 65bb fa8d 06bb
000000f0: a3a4 89bb 8168 3e3b 3291 ffbb b2cc 283b
00000100: 312b 29bb d060 12bb 57d4 9aba 1e33 123c
00000110: 86fb 983b 58a4 cf3b 6cbc ba3a 1b9d a0bb
00000120: f91b 8f39 8e6c aa3b d39e e23a 1a95 e7bb
00000130: 0734 54ba 4b9b 173c 696a 113c cbbe 893c
00000140: 592d e63a 9bcb f739 d823 2b3b 08a9 adbc
00000150: cc02 aeb9 c256 223b ee3a bcba 1441 f0b8
00000160: df3f c33a c6e8 1cbb 19d4 6039 3b11 02bb
00000170: 40d0 e73a 0ed4 e039 adc0 d239 9e96 93ba
00000180: 6114 8e3a 94a2 4338 a317 43bb 6a90 6dbc
00000190: 6ec5 64bb 7a10 603a ca18 073b d4ad 483b
000001a0: 5de9 023b fab3 d6bb a1be 17bb 398c 4e3b
000001b0: 4344 d63b b086 bd3a 23a5 2bbb f58d 96b9
000001c0: 9996 203c b4b1 8a3b e295 5bbc ba65 e3bb
000001d0: fecc b73a 8b3c b73a 73f6 7abb 5d6e 9eba
000001e0: 19d0 f83a 1dec fb39 320a 00bb 4326 babc
000001f0: f0c6 9abb 5331 1fb9 791e 9e3a 5ed1 783a
00000200: 6d59 8abb 5b04 43b9 5ba2 203c 80b9 57bb
00000210: 0113 aa3a cc9a b6bb 43d8 bb37 2a56 bdba
00000220: 4c42 1c3a dd93 9a39 bfa5 8db9 95b2 9bba
00000230: 6435 0abb 2aab fa3a bc92 3dbb ce16 63bb
00000240: a9d3 1bbb 25f6 2dbc 8b2e 44bb 3b1a fdba
00000250: 6e4c 2fba 92d7 75bb 8f93 41ba ba52 50bb
00000260: dbaa 80bb 191e a1b9 2d97 8b3a b4a3 f739
00000270: 1639 30bb a668 3c3a 0a66 a3bb caa2 edba
00000280: 3a36 2abc d58b 97b9 c26c 0ebb 4a85 2d3b
00000290: 5849 a43b 74cc ae3a 3459 8e3a af73 7aba
000002a0: 9385 7bba 950c 013c 24de 9b39 dfc0 073c
000002b0: 11e5 9a3a 7e25 fa3b 9fca 1f3a cbfc 123b
000002c0: 15c5 393a 91b0 abbb 3b33 783a 3489 e03a
000002d0: 6d70 923b 0d9e 763b 4815 86bb fb72 83ba
000002e0: 4350 7a39 a70a 503a 1680 ee3a bde2 4a3a
000002f0: d0fc f0b9 568b 1fbb 9f10 3638 7ff2 80b8
00000300: 32c3 953b 50cd ffb9 6315 a63a 42c7 2939
00000310: 8cd2 f73a 48ff 4a3c bfec 8e3c f8a6 b7ba
00000320: d5fb 1b3c 20ee 8d3b fa89 053d 2fa8 d53c
00000330: c8c6 d2bc 4e1e a9bc b491 e1bc 39c3 ee3a
00000340: 1fb0 1d3c c145 c4bb 6712 abbc f0c4 90bc
00000350: 7bfa abbb 0970 e9bb aec4 81bb a25b abba
00000360: 18b4 7c3b 8031 fdba 91d2 603c 0808 263b
00000370: 911b aabc 67ca ebb9 c6bb a63b 6043 233d
00000380: 2f87 c13c baae b43b e558 fdba 5cb1 1c3c
00000390: 215b 5bbc f044 163c 80fa 9b3b e8a5 a4bc
000003a0: c5c0 8b3b d297 3ebc 2864 043d 21cb 76bc
000003b0: e994 b0bc ee62 943b b95d ad3c 91e4 1eb9
000003c0: 555b 0e3b ebed a83b ca9c 82ba 8eb3 73bd
000003d0: cd55 20bc 5991 0c3d 7d6a 953c 190f ce3b
000003e0: 6f6e 13bd 8ab8 abbb 777c e63c 665f 4e3a
000003f0: 46e8 7eba 62e5 d33b 3793 f2bb 069e 3fbc

exp_avg_sq f4 [392, 1]
0.00015507972 0.0064444286 0.005497713 0.0010554444 0.0005513371 0.00037094628 0.0025057944 0.017456662
0.00065568625 0.002065382 0.0010501171 0.00017146103 0.0005004925 0.000643803 0.002383952 0.0005673127
0.0005559691 0.0010168976 0.002397522 0.00018039212 0.00032701038 0.0004684813 0.03206896 0.00026424977
0.00021645245 0.017915031 0.00036112868 0.04923036 0.0006868345 0.00024837116 0.0030420918 0.0036841587
0.0008396933 0.0038501709 0.00033565747 0.013648941 0.0012780862 0.0036168343 0.0012748148 0.00039195843
0.00021709273 0.0012997524 0.00057208084 0.00014246147 0.00080130965 0.01096065 0.0009291207 0.011111634
0.0020199036 0.008140391 0.00093982206 0.0003802595 0.0020934776 0.0010888447 0.0010197227 0.00043475864
0.00029120914 0.0003105831 0.00088097004 0.0011158872 0.0014469665 0.024716977 0.0018125704 0.0002940919
0.0014003149 0.00073597446 0.00036003735 0.000529795 0.0005052346 0.0030142246 0.00046312928 0.0018951624
0.0021968593 0.0021667674 0.000781555 0.025948623 8.595836e-05 0.0027922094 0.0010607596 0.0052833045
0.00052495324 0.0027540608 0.0016018795 0.017308151 0.0010144362 0.0008971367 0.00058626925 0.0029971416
0.0003339223 0.0006127759 0.00025168623 0.00016366721 0.0026748804 0.0004935748 0.0008522304 0.00016822365
0.0015660023 0.0010881579 0.00016667385 0.0029867548 0.0023259288 0.0010862034 0.0014332075 0.00053095206
0.001150953 0.00130857 0.00033495887 0.01574223 0.0005284533 0.00011932488 0.00053036946 0.00046660902
0.00093759334 0.00032921933 0.0033098897 0.0010360861 0.0028380188 8.729892e-05 0.00041353455 0.00023090493
0.00036397393 0.00016184527 0.000109597866 0.0062207575 0.00042890824 0.0009368409 0.00050297705 0.000119032346
0.00032332764 0.0036563382 0.0019855844 0.0016252024 0.00033694733 0.00055240135 7.707258e-05 0.0006660579
0.00042466633 0.00050252496 4.915427e-05 0.00041069623 0.00057259115 8.249108e-05 0.0005758403 0.02615622
0.00043276756 0.009071476 0.0026373889 0.004026059 0.0010120971 0.00021595218 0.0026333919 0.0001559431
0.0005851653 0.00024546962 0.00019236509 0.00015514695 7.024138e-05 0.00085173256 0.0004744927 0.0024396349
0.0015328893 0.00028943896 0.00037340925 0.00057686784 0.00039356473 0.00015432133 0.00071294 0.0008229474
0.00017792349 0.0011974872 0.00080395263 0.00094356784 0.0004921419 0.002659817 8.199287e-05 0.0009917761
0.0006772495 0.0011643328 0.0005533879 0.0006455227 0.010494738 0.0023604648 0.0007088757 0.0008205124
0.00034426377 0.0008360794 0.00037523007 0.00022975363 8.8141605e-05 9.847693e-05 0.0016179249 0.00023723564
0.01717724 5.8365888e-05 0.002481588 0.000818909 0.00091652933 0.036302555 0.01754436 0.0010163697
0.01216321 0.008155304 0.06477854 0.02595388 0.004141731 0.07132151 0.02274873 0.0016804152
0.007997343 0.004333011 0.0086820265 0.0035241637 0.037795033 0.020617796 0.0038803604 0.00093914516
0.0011159508 0.005576645 0.02215056 0.047786836 0.0036270753 0.078684375 0.008504461 0.055554483
0.0074224384 0.0009867022 0.021350462 0.0068937563 0.052948687 0.0034076648 0.007564903 0.0155035425
0.0026988375 0.004661994 0.017310424 0.010346681 0.022070058 0.0005484552 0.010138453 0.0014932828
0.0006084096 0.06760838 0.002104055 0.13694507 0.028485775 0.04814335 0.019684462 0.009139088
0.032921445 0.0069469106 0.01243606 0.00041310376 0.0014968546 0.006510344 0.0012367885 0.009893449
00000000: e59c 2239 c92b d33b 2926 b43b d656 8a3a
00000010: 9b87 103a 917b c239 4138 243b 4601 8f3c
00000020: 5ce2 2b3a 5c5b 073b 15a4 893a 38ca 3339
00000030: 7c33 033a e3c4 283a 143c 1c3b b6b7 143a
00000040: 74be 113a 6c49 853a bf1f 1d3b a427 3d39
00000050: 9772 ab39 7f9e f539 be5a 033d 018b 8a39
00000060: 83f7 6239 8bc2 923c df55 bd39 c6a5 493d
00000070: af0c 343a d037 8239 d55d 473b ed71 713b
00000080: dd1e 5c3a 2653 7c3b 2ffb af39 cf9f 5f3c
00000090: 7585 a73a 6908 6d3b b017 a73a c57f cd39
000000a0: 63a3 6339 745c aa3a b2f7 153a b661 1539
000000b0: fb0e 523a 4c94 333c 3c90 733a 920d 363c
000000c0: 5c60 043b 465f 053c 645e 763a 915d c739
000000d0: ba32 093b 91b7 8e3a 37a8 853a 51f0 e339
000000e0: 6ead 9839 c2d5 a239 e6f0 663a f642 923a
000000f0: 24a8 bd3a 427b ca3c c593 ed3a 5930 9a39
00000100: c58a b73a 69ee 403a 65c3 bc39 f1e1 0a3a
00000110: b871 043a 4c8a 453b 29d0 f239 1967 f83a
00000120: 2ff9 0f3b 5300 0e3b 45e1 4c3a 3592 d43c
00000130: 8b44 b438 80fd 363b 3009 8b3a 921f ad3b
00000140: 049d 093a 797d 343b 28f6 d13a d3c9 8d3c
00000150: d5f6 843a d32d 6b3a ddaf 193a b16b 443b
00000160: 4b12 af39 b2a2 203a c1f4 8339 159e 2b39
00000170: 0c4d 2f3b 3e63 013a 3768 5f3a 3165 3039
00000180: 5142 cd3a 85a0 8e3a 2cc5 2e39 6ebd 433b
00000190: 9c6e 183b f05e 8e3a 77da bb3a 972f 0b3a
000001a0: 93db 963a 5384 ab3a 6b9d af39 d9f5 803c
000001b0: e787 0a3a 0f3e fa38 7e08 0b3a 34a3 f439
000001c0: d3c8 753a 129b ac39 bcea 583b 48cd 873a
000001d0: 0efe 393b 4014 b738 abcf d839 121f 7239
000001e0: c1d3 be39 02b5 2939 e8d7 e538 7fd7 cb3b
000001f0: 17df e039 5496 753a 38da 033a 01a1 f938
00000200: 4d84 a939 2d9f 6f3b 9420 023b be04 d53a
00000210: 4ea8 b039 07cf 103a 07a2 a138 649a 2e3a
00000220: c0a5 de39 e1bb 033a ff2a 4e38 b752 d739
00000230: f119 163a 10ff ac38 fdf3 163a 9245 d63c
00000240: 14e5 e239 87a0 143c 0bd8 2c3b 08ed 833b
00000250: 58a8 843a 3971 6239 fc94 2c3b a884 2339
00000260: c765 193a 60b2 8039 9cb5 4939 f1ae 2239
00000270: 8e4e 9338 ce46 5f3a 55c5 f839 48e2 1f3b
00000280: 3beb c83a d7bf 9739 24c6 c339 f238 173a
00000290: 5d57 ce39 51d1 2139 98e4 3a3a 11bb 573a
000002a0: f990 3a39 01f5 9c3a 59c0 523a c459 773a
000002b0: 1503 013a 5350 2e3b 96f3 ab38 7cfe 813a
000002c0: 7289 313a 879c 983a 3c11 113a 4c38 293a
000002d0: 1ff2 2b3c 07b2 1a3b d8d3 393a a817 573a
000002e0: 4d7e b439 572c 5b3a 87ba c439 05ea 7039
000002f0: aad8 b838 6685 ce38 8d10 d43a 75c2 7839
00000300: 49b7 8c3c e5cd 7438 23a2 223b 0dac 563a
00000310: 3e43 703a fdb1 143d 31b9 8f3c b537 853a
00000320: 3348 473c d39d 053c 9caa 843d 3b9d d43c
00000330: 5cb7 873b 0311 923d 8b5b ba3c 6141 dc3a
00000340: 4a07 033c eefb 8d3b 0f3f 0e3c a8f5 663b
00000350: f7ce 1a3d a7e6 a83c a54d 7e3b f730 763a
00000360: 1845 923a 4abc b63b 1775 b53c 21bc 433d
00000370: 3ab4 6d3b 4625 a13d 4b56 0b3c 198d 633d
00000380: ed37 f33b 3b54 813a 2ae7 ae3c 05e5 e13b
00000390: b9e0 583d 2153 5f3b 01e3 f73b 9202 7e3c
000003a0: fbde 303b a4c3 983b 97ce 8d3c 2085 293c
000003b0: 44cc b43c 35c6 0f3a c11b 263c 42ba c33a
000003c0: ad7d 1f3a 4376 8a3d 2fe4 093b 543b 0c3e
000003d0: 005b e93c f631 453d 4f41 a13c 1dbc 153c
000003e0: a3d8 063d e9a2 e33b 9ec0 4b3c d995 d839
000003f0: 1b32 c43a b954 d53b bc1b a23a 2218 223c
