models/cfv/mmkfcv5.pth (torch, 490360 bytes, 18 tensors)

lstm.weight_ih_l0 f4 [392, 1]
00000000: 028b 403f 0d27 0dbf 8fe5 c2bc dd95 453f
00000010: 6f43 9dbd 7a89 6d3f f2c1 3bbf 6df5 ebbb
00000020: 4a51 b93e 7654 25bf 022c 58be 24a8 af3e
00000030: 81ac afbe ad29 a7bf d221 86bf 8bfc fd3e
00000040: 68e2 533f 8f17 66be 5421 203b d962 31bf
00000050: 1d6e 173f 636f 9d3e 3a9f f5be e827 51be
00000060: 6aa6 1e3f 1e07 0bbf 39cd 133e d884 5a3e
00000070: 5388 513f 36ae 24bf 657d 493d 87d3 c7bf
00000080: 22c3 1c3e 9d36 efbd 8399 b83e f329 543e
00000090: 328f 98be 81c6 6c3f c77c 393f b151 883f
000000a0: 97a5 c13f e3e4 723e 943e 4e3e a2ff b53e
000000b0: 6deb 1b3f 306d ce3d 3221 a23e 320f 073d
000000c0: a48c 19bf 9f19 aabe 3fb9 773e aac1 81bf
000000d0: ea59 fd3e 844c 6a3b 9c11 62be ebb4 d6be
000000e0: f999 0640 7a2a a23e 2f7a 5a3f f33d 3dbe
000000f0: 581f 753f a166 413f 9d44 4c3f 5aa1 e43d
00000100: 8b64 423e 2f88 c33b 061d e7bd ebec 923f
00000110: b2ce 0d3d 3e53 1dc0 e7c3 9d3f 30db 24bf
00000120: 1d2c 21be f1df c43f abd5 1bbe 15ed 41bf
00000130: fb1c 583e 9a2b 273e f6ce a5be 6e5c b83b
00000140: 7cc4 dbbe 81b0 d33e 0ca6 a1be 4f3c 5abd
00000150: a065 703f 4469 523d bb1f c4be 4b2c 0e3f
00000160: f736 d9be 4f3b d5be 9c2f 7dbf 65bb fe3e
00000170: 1fc3 52be fd2c 813e 00aa 39be 39b0 31be
00000180: 5e15 823e 6c58 513e 54a0 6d3f 9f45 a9be
00000190: 5b45 763e 8b7a 883e d5ff febe 320c 8c3f
000001a0: d7a4 4ebf 6265 c43f ed29 a1bd 9314 94bf
000001b0: a7c4 453f 9a8e 973d f005 34bc 21f9 b8bf
000001c0: f7f6 eb3e 63b0 ee3e 53a3 31be 601c 89bf
000001d0: a88c ab3e 4160 f03e b24f 703e 464c ac3e
000001e0: bb04 5dbd bf25 4e3f 930e 65be 636b 2f3e
000001f0: 9dde f23e 92b2 6c3f 1329 fa3e 62ef 91bd
00000200: 73af ed3d 3372 71bf 48c2 153f 2a33 803d
00000210: 6839 cc3e 182f 923e 07b8 e6be b778 ab3e
00000220: 973d 4cbe dad0 623e 6659 acbd 3076 e03d
00000230: 717d ca3e 574f 063f 0bc9 4bbe fe27 0c3e
00000240: 01f4 943e 8b07 9d3e 84fb c0be e859 6d3d
00000250: 52a4 913e 0c4f c6be b8b5 273f 0f2d c5bd
00000260: eab8 563e 5f2a 843e f2e1 d83f 5900 003e
00000270: e91b 893e 64a7 763e 5153 0b3f c961 233f
00000280: 1ab1 3a3f afbe 833f d5da eb3e 3193 9c3e
00000290: d865 53bc 1ccb 9abe 8519 e63e 2561 34bc
000002a0: 4a89 1d3f aa7f bfbe 0cfb 14be 2cfe e63c
000002b0: a865 fabe c7d9 e3bc bd84 7b3e 41e2 ce3c
000002c0: ee13 743e 495a c0be 7d5c 563d c7c6 123e
000002d0: ea3c 35bf 063e d53e 9d74 a23e 524f 52be
000002e0: 6b27 c33d 8483 093f adf2 2a3f 7bdd 063e
000002f0: 6702 a83d 62cc 9dbe 6049 97bf 8a5f 3e3f
00000300: d746 a0be ce17 803e 316d 17bf 37d7 98bf
00000310: 79cd 2cbe 832e 7dbe 231f 3cbf dd4a 383f
00000320: 5789 803f 29a9 b6be 2132 3fbf ce5d 273d
00000330: 6311 833f 267c 4bbe f42c 8b3f 6abc 12bf
00000340: a43e 383e e544 2dbf e35d 1c3c cb59 3bbe
00000350: b495 293f 00bf 3abf 8b82 c63e 5cd1 3e3f
00000360: 46dd 813f 78a9 153f 4ef1 293f 9158 a43e
00000370: 9d18 1abf eef8 bb3e 4336 0cbf d22b 133e
00000380: a203 8d3e ed18 3d3e b21a b73d 5571 4fbf
00000390: d3c8 c2bd b4f4 d8bd c1c7 b83d 95a4 aabd
000003a0: 6954 bbbf ec1f 63bf f3f1 8abe 4041 183f
000003b0: 3d84 eb3f dbfb 03be d359 b9be acf6 81bc
000003c0: 0ad6 f4be 6b74 b4be bd4c 4f3e a53a e8be
000003d0: 4447 49be 8df2 94bf a7a1 a93e e63f b0bf
000003e0: 7a25 b93d 2de6 91bf 474d 02bf f611 b1be
000003f0: e7b3 acbf e669 7dbe 3a8f 18bf 45a8 bfbe
0.7521211 -0.5513771 -0.023791103 0.771818 -0.076788776 0.927879 -0.7334281 -0.007200888
0.3619483 -0.64582 -0.21110538 0.3430797 -0.34311298 -1.3059593 -1.0479071 0.49606737
0.82767344 -0.22469924 0.0024433928 -0.69291455 0.59152395 0.30749044 -0.47973043 -0.2042538
0.6197268 -0.54307735 0.14433755 0.21339738 0.8184864 -0.64328325 0.04919185 -1.5611428
0.15308812 -0.116803385 0.3605462 0.20719127 -0.2979675 0.9249039 0.7245602 1.064993
1.5128659 0.23720126 0.20141059 0.35546595 0.60906106 0.100794196 0.3166595 0.032973476
-0.59980226 -0.33222672 0.2419176 -1.0137227 0.4948266 0.0035751173 -0.2207703 -0.41934904
2.1031477 0.31673032 0.8534269 -0.18480663 0.9575095 0.75547224 0.79792196 0.11163588
0.18983667 0.005967162 -0.11284833 1.1478552 0.034620948 -2.4582057 1.232541 -0.64396954
-0.15739484 1.5380841 -0.15218227 -0.75752383 0.21104805 0.16325226 -0.3238446 0.005626253
-0.42923343 0.413456 -0.31571996 -0.05328017 0.9390507 0.05136992 -0.38305458 0.55536336
-0.42424747 -0.4164681 -0.9890077 0.49752346 -0.20582245 0.25229636 -0.18131256 -0.1735238
0.25406927 0.20443887 0.92822766 -0.3306093 0.24049895 0.26655993 -0.4980456 1.0941222
-0.80720276 1.534344 -0.07869325 -1.1568779 0.7725319 0.07400246 -0.010987744 -1.4451028
0.46086857 0.46618947 -0.1734746 -1.0711784 0.3350575 0.46948436 0.23467901 0.33651942
-0.05395959 0.80526346 -0.22368841 0.17130809 0.47435465 0.92459977 0.48859462 -0.07125737
0.1160573 -0.9431488 0.58499575 0.06259759 0.39887547 0.28551555 -0.45062277 0.33490536
-0.1994537 0.22149983 -0.08415489 0.109600425 0.3954883 0.52464813 -0.1990091 0.13687131
0.2909241 0.30669817 -0.3769189 0.05794707 0.2844568 -0.38732183 0.65511656 -0.09627735
0.20968977 0.25813577 1.6943953 0.12500133 0.26779106 0.24087292 0.54424006 0.63821083
0.72926486 1.0292567 0.46065393 0.30581048 -0.012902699 -0.30233085 0.44941345 -0.011009489
0.6153761 -0.37402087 -0.14548892 0.02819737 -0.48905683 -0.027813805 0.24562354 0.02525437
0.23835728 -0.37568882 0.052334297 0.1433364 -0.7079607 0.41648883 0.31729594 -0.20538071
0.09529003 0.537163 0.66776544 0.13170426 0.08203583 -0.30819994 -1.1819267 0.7436453
-0.31304047 0.25018162 -0.5915099 -1.1940678 -0.16875257 -0.24724774 -0.7348501 0.7198923
1.0041913 -0.35675934 -0.74685866 0.040860943 1.0239681 -0.19871578 1.0873094 -0.5731875
0.17992646 -0.6768325 0.009543869 -0.18295972 0.66244054 -0.7294769 0.3877147 0.7453821
1.0145652 0.58461714 0.66383827 0.3209882 -0.60193807 0.36713356 -0.54770297 0.14372185
0.27541834 0.1846654 0.089406386 -0.81032306 -0.095109604 -0.105935484 0.09022475 -0.08332173
-1.4635135 -0.88720584 -0.27137718 0.59474564 1.8399731 -0.12889044 -0.36201343 -0.015864693
-0.4781955 -0.3524507 0.20244117 -0.45357242 -0.19656092 -1.1636521 0.33131143 -1.37695
0.09040351 -1.1398369 -0.50899166 -0.34584016 -1.3492402 -0.24747428 -0.59593546 -0.37433067

lstm.weight_hh_l0 f4 [392, 98]
00000000: c0e0 5cbe 2016 383d a4e1 073f dda4 b43e
00000010: 8a47 26bd ccd0 fd3d 547e c7be 11d7 1cbe
00000020: 6701 02bf 9edb 2dbf b473 adbe 3573 30bf
00000030: 4433 6dbe 8242 98be 8a33 223e 866a f13e
00000040: 9f45 b03d 6a7e f0be 8662 853e d3aa ecbe
00000050: 15ca b33d e7a8 85be 95cb 57bd 407b f2bd
00000060: 6829 51be d571 14bd 6770 e7be c8fd 87be
00000070: eed7 7c3f 0fc7 da3e b448 07bd 7303 3a3f
00000080: e065 64bf 1eff c03e 698a 1ebe 75ed f1be
00000090: 66bb 473d 376d c83e 400e 92be a4df 5abe
000000a0: eaba 7d3e 7c0c 803f fe19 0b3d f3a7 2ebf
000000b0: 70c5 d53d b3a9 593e 35ee 3abf f126 74be
000000c0: a98e bcbd 403d 2a3f de3f 56bf c4f3 81be
000000d0: ef5a aa3d 9036 a33d e218 a43d cc4d 553e
000000e0: 7c9d c4bd bad1 1f3e 332a e1bd 2895 b83e
000000f0: d50a b23e a8a6 03be 470f 97bd 2e0d 173f
00000100: 22d8 b9be 4079 cbbd 2c93 9b3e b52a b8bd
00000110: 8404 d13d 2748 e13e 21ad 7abe 9540 46be
00000120: bffa 0b3f f5e8 56bf 40cf 38bd fdbb 9d3e
00000130: 7ab5 bbbe 9deb f63c 558c 8cbe 3e3f 3dbd
00000140: bcf3 c13d 5714 5bbd c7d8 a7bd a245 d4be
00000150: 1ace a6be 2a38 00bf 2b34 453d 5139 94be
00000160: ec5f 0e3e 6a5f e53e 3465 1fbd d662 9c3c
00000170: f9e3 cd3e 71e9 61be 14ca 09bd e5fc 1cbd
00000180: b39b 74bd 2dd7 63bd 78c8 3c3b 5067 a03e
00000190: 8fbd b93d bd96 313f b213 933f 01c7 06be
000001a0: 15b3 f3be 5edd 56be a21c 7d3e 18c2 17bf
000001b0: e815 9a3e 4c93 8dbe c4b2 b43e 9668 abbe
000001c0: 1083 013f c4ca 58bf 54a3 d63e a96c 24bf
000001d0: a92f 7d3e 810b 65bd 2e7c 633e 06d9 85be
000001e0: 56af 103e cc5a e6bb a78e c1bd 2548 573d
000001f0: b265 babe 2c51 2b3e c386 39be 2f06 f13e
00000200: 7a43 603e ed6f 2f3e 2c12 27bb e445 ccbe
00000210: eec8 893d 8dcb 3ebe bec3 be3e 0f34 09be
00000220: e974 8e3d 5552 bd3d 054a 793e 0e0c 4f3d
00000230: f2a4 e7be 9b9a 923b aefa 883c 6ed4 fc3d
00000240: fdad 22bd 5001 9f3e 5cc1 fbbd 97ef 2fbf
00000250: df86 543e 1f33 32be 39c3 913e 0992 32bf
00000260: 3c95 5a3e 633b 923d 2b7f 07bf 199c 873e
00000270: dc59 883e 0b9d 91be 71b7 0cbd 0d2b 4e3f
00000280: 6ff6 6ebe f15f 123e 2650 603c 5ecb 3e3e
00000290: 94b2 823f 30c5 cb3e 6abd 37be 29c1 09bf
000002a0: b194 d9bd effb 993d dcf2 933b 9849 943f
000002b0: 9a4e f0be 00f2 183f 5d23 f73e 1d94 a8be
000002c0: f1b2 ed3e 5984 8ebd a469 9abd 75d3 0f3e
000002d0: 3933 b93d a5e5 c9be 9d36 3bbd 3752 e2be
000002e0: 01ea aabe 40ef d8bd 7e03 53be de89 693c
000002f0: fb62 bcbe 74fa 96bc 9f09 9abe 9c37 63be
00000300: 310a 6e3e b29d cdbd bec5 72bf 0ff6 8c3f
00000310: 062b 5f3e 4816 3dbe ee56 3abe 4aba 603f
00000320: e420 b23e 3a41 b23e 5bfb f23d 6ab7 6ebe
00000330: 638d 42bf 5680 2e3e 7dc0 1d3e c6cb 203f
00000340: 9a92 55be b1f9 6dbf de58 833d 5c53 bc3e
00000350: 9fb2 71bd 3eed 26bf 5b22 613e 64ff ad3d
00000360: e60b af3e 1346 043f 2437 50be c055 6bbe
00000370: a55f 98be d39d 35be 4b02 833d c7d0 a8be
00000380: b0d9 c63e 1061 d63c 0835 2ebe 26ea 963f
00000390: 8c4a 9b3e 2861 4dbf 024b b53e f228 083f
000003a0: 3121 2b3f f2ba ce3d 6070 8bbe c340 463f
000003b0: c571 0abe 8fe4 42be 3e2c 1c3e 81a5 343f
000003c0: 1ef8 0b3e 752d 4ebe a945 e63e d55a e43e
000003d0: 0916 0bbe 3237 26bf 362d e33e 339b 453f
000003e0: 85e6 1b3d a03b a8bd 3aeb e4be 5056 75bd
000003f0: e5c0 40be 962b c7bd 8932 8fbe 7b96 4fbf
-0.2157011 0.044942975 0.53078675 0.3528203 -0.04059557 0.123933405 -0.38963568 -0.15316416
-0.5078339 -0.67913234 -0.33877337 -0.6892579 -0.23164088 -0.2973824 0.15839973 0.47151583
0.08607029 -0.46971446 0.2605173 -0.4622408 0.087787785 -0.26105425 -0.052684385 -0.11839914
-0.20425951 -0.03624137 -0.45202944 -0.26560807 0.9876698 0.42729995 -0.03302832 0.72661513
-0.8921795 0.3769464 -0.15482487 -0.47251478 0.0487627 0.39145824 -0.28526497 -0.21374375
0.24778333 1.000381 0.033960335 -0.6822502 0.10438049 0.21256141 -0.73019725 -0.2384298
-0.09206898 0.6649971 -0.83691204 -0.2538129 0.083181255 0.07969391 0.080125585 0.20830458
-0.0960035 0.15607348 -0.10994377 0.36051297 0.3477389 -0.12856543 -0.07375961 0.59004486
-0.3629771 -0.09935236 0.3038572 -0.08992521 0.102059394 0.4400036 -0.24480106 -0.19360574
0.54679483 -0.83949214 -0.045119524 0.30807486 -0.36661893 0.030141646 -0.27450815 -0.04620289
0.09470317 -0.053486194 -0.08195644 -0.41459376 -0.32579118 -0.500857 0.048145454 -0.2894998
0.13903779 0.44799358 -0.038914874 0.019090097 0.40212992 -0.22061707 -0.033639982 -0.038327117
-0.0597188 -0.05562513 0.0028806012 0.3132882 0.090693586 0.69370633 1.1490386 -0.13161851
-0.47597566 -0.20982882 0.24717954 -0.5928054 0.30094838 -0.2765144 0.35292637 -0.3347823
0.5059061 -0.84684396 0.41921484 -0.642283 0.24725212 -0.055919174 0.2221534 -0.26142138
0.14129385 -0.007029867 -0.09451037 0.052559037 -0.36405712 0.16730183 -0.18117814 0.4707503
0.2190074 0.1713254 -0.002549301 -0.39897072 0.067277774 -0.18632336 0.37258714 -0.13398765
0.069558926 0.09244219 0.24344642 0.050548606 -0.4524303 0.004473997 0.016721096 0.12345205
-0.03971671 0.3105569 -0.1229274 -0.6872496 0.20754574 -0.17402314 0.28469256 -0.6975408
0.21345991 0.07140233 -0.5292842 0.2648628 0.26631057 -0.28440127 -0.03435463 0.8053444
-0.23336194 0.14294411 0.013690984 0.18632266 1.0210748 0.3979888 -0.1794335 -0.53810364
-0.10624064 0.07518756 0.004515035 1.1584959 -0.46934968 0.5974426 0.48269168 -0.329255
0.46425584 -0.06958837 -0.075396806 0.14045508 0.09042973 -0.39433017 -0.04570638 -0.4420335
-0.33381656 -0.10592508 -0.20606801 0.0142540615 -0.36794266 -0.018429972 -0.30085465 -0.22189182
0.23246075 -0.100398436 -0.9483298 1.1012591 0.21793756 -0.18465531 -0.18197224 0.87784255
0.3479072 0.3481539 0.118643485 -0.23312154 -0.7599699 0.17041144 0.1540546 0.62810934
-0.20856705 -0.92959124 0.064134344 0.36782348 -0.059008237 -0.6520575 0.21985762 0.084959775
0.34188765 0.51669425 -0.20333534 -0.2298193 -0.2976047 -0.17735986 0.06396922 -0.32971784
0.38837957 0.02616933 -0.17012417 1.1790206 0.30330312 -0.80226374 0.3540879 0.5318748
0.6684752 0.10094251 -0.27234173 0.7744257 -0.13519962 -0.190325 0.15251252 0.7056504
0.13668868 -0.20134528 0.4497502 0.4460055 -0.13582624 -0.6492797 0.4437043 0.7718994
0.038061637 -0.082144976 -0.44710714 -0.059896767 -0.18823583 -0.0972511 -0.27968243 -0.8108899

lstm.bias_ih_l0 f4 [392]
00000000: 5003 27be b38f a2be 0111 bdbd 8030 773e
00000010: d803 1f3c 9d6b 87bc 419b fbbe d3fb d4be
00000020: 9bdb 77bd 7495 b1be 856a 11bd 3c00 68be
00000030: aef0 a7be f380 59bd 5814 92be 750f 9fbe
00000040: 8430 e4be 25bf 4abe b722 9dbe 7163 45bd
00000050: 1d79 aabd 94ac 65be 51eb debe 585c 0abe
00000060: 14e9 d63c 8c86 92be 9231 83be c1cb a3be
00000070: 44f1 0ebf 9e8d 90be 5743 4ebe b55e 8dbe
00000080: 8028 5fbe 4722 4e3e 3457 37be ba62 a4be
00000090: b8dd f9bc e737 49be d68c 96bd 49ce 0ebf
000000a0: 7414 03bd a62e 793d 9644 12be 0436 423e
000000b0: 98d1 a2be 9fbe 86be 8207 fcbe 9853 83be
000000c0: 77f0 8bbe 2e8f f13d 6ed0 66bd dc1e 55be
000000d0: 9a6a 83be b247 a5be e3e9 9fbe dd24 5cbe
000000e0: e9a0 78be 42eb b4be 26fd 13bd 6c46 ebbe
000000f0: 3b89 5ebe 8a55 5bbf 461d adbe a984 a9be
00000100: cb45 79be 3f01 373e 87e4 58be e63e d7bd
00000110: 69b1 433e 7db2 44be 8652 5ebe 9cec 2d3e
00000120: 4b26 1bbe a19d edbd a5af 013d f58e 1bbe
00000130: 6f45 91be 8204 95be ae4e 51be b3fe aa3d
00000140: a317 87be b8d0 e9be 00ad a5be f1d7 63be
00000150: 6f01 383c 32c9 84be b103 70be 3506 31be
00000160: 38e2 77bd 3011 3ebe e103 1bbe a131 38be
00000170: 7bdc 45be 76e6 003e f3ee afbe 0aa9 8dbe
00000180: f747 7dbd 9f42 4fbe 811d 573d e885 9d3d
00000190: d532 0fbf dc8c aabe 81de 56be 1275 64bd
000001a0: 3df4 e83d 148a 923e 0df4 ff3c 7bba 213e
000001b0: 2f4f 7f3e b347 42bc 1b42 ba3d 4494 4ebe
000001c0: 9be2 83bd c68e 2cbe 5c94 723d c7de 233e
000001d0: 8ea6 883e c7c6 8e3e c142 ebbe 8a5c c83d
000001e0: 7c62 103f a88c cc3e c5c9 f4bc 8c49 5e3e
000001f0: b2a2 a83e 771d ff3d 641b 043d 3663 943e
00000200: 79ab d03e fece 003e 4a75 a93d af69 cc3c
00000210: e54a 3c3d cfac d23e 6fa1 903d 9263 a73e
00000220: 97ce 613c a187 4f3e 15cf 9f3e f725 4fbe
00000230: 5825 0d3e aeb6 903e ce1f 0c3f c464 f5bd
00000240: f109 f33e 4008 373e 4f54 c63d 07ba 2abe
00000250: 2282 703d 5ab0 ebbb 387e a13e 45d6 4abd
00000260: 4fcd 413e 8852 b03e 1fa5 4d3e 5b22 3c3e
00000270: 564c bc3e 49af 9d3d b3a9 77bc c272 eb3e
00000280: 0102 b93e 2c7a d9bd 60ed 933e 52af ce3e
00000290: 15eb 043d 76c0 01bd 1421 283f 61a5 363e
000002a0: 4cb8 dc3d b614 3abd a61b 043e 8926 3cbd
000002b0: 5f77 c2be e2db 153e c829 5b3e bafc 523e
000002c0: 891e de3d 0a7a b2bd e8a5 cc3d 2cff 203e
000002d0: 5d73 0abe bfb6 3b3e f062 62be 7f43 5a3e
000002e0: 4ae4 a83e 7b3d 5c3e 316d 183e 7a41 953e
000002f0: 0cb0 00bd 6899 40bd 673a c53e 8ec6 8f3e
00000300: f05e 803e 9f62 293e 7dc2 683e 6aba 6ebe
00000310: 6115 243e a141 29be c4bc ed3d ea90 433b
00000320: 370d 0cbe e0d1 0abe 040c 72be e67d 883d
00000330: 127b 1a3e ebf5 583d 58d8 fc3d ace4 93bc
00000340: d855 fcbc 8499 8a3d 8f3e c4bd b7c6 01bd
00000350: fe28 07be e1e7 c93d e085 b1bd 21b9 ef3d
00000360: d50c 1abe 09d3 f1bd a184 183c 228e 343e
00000370: 0808 1cbc 7f26 8cbd b990 233e f04c 593b
00000380: 248c 37bd 6c27 093e fccd 75bc 3c6f afbd
00000390: 0228 ca3d 74bf 0ebe f921 883d 5eb5 8c3a
000003a0: 5003 d93c 9d87 e73b 3154 5b3e fcd2 66bd
000003b0: aaeb 0b3e 5bb0 433d 99e2 a83d ac30 86be
000003c0: cda1 0bbe f78e 563e 3e62 16be 8692 193e
000003d0: b8ce 1dbe 9c82 e3bc 6931 51be 710c 52be
000003e0: d155 ffbc 8e6a 84bd 9100 7a3d e3fa acbd
000003f0: ca29 d53d cbd6 133d 4e71 5d3e b374 51be
-0.16309857 -0.3175026 -0.09231759 0.24139595 0.009705506 -0.016530806 -0.49141887 -0.41598377
-0.060512166 -0.34684336 -0.035501976 -0.2265634 -0.32800812 -0.05310149 -0.28531146 -0.3106648
-0.44568264 -0.19799478 -0.30690548 -0.048190538 -0.08323882 -0.22429115 -0.43538907 -0.13511789
0.026234187 -0.28618276 -0.25623757 -0.3199139 -0.5583689 -0.28233045 -0.20142876 -0.27611318
-0.21792793 0.20130263 -0.17904359 -0.32106572 -0.030501232 -0.19650231 -0.07351081 -0.55783516
-0.032001927 0.060835503 -0.14283976 0.18965918 -0.31800532 -0.26317307 -0.49224478 -0.25649714
-0.27331898 0.117948875 -0.056351118 -0.20812553 -0.25667268 -0.32281262 -0.3123313 -0.21498437
-0.24280132 -0.35335737 -0.036130093 -0.45952165 -0.21732037 -0.856774 -0.33811396 -0.33109024
-0.2434303 0.17871569 -0.21180926 -0.10510044 0.19110645 -0.19208713 -0.21711168 0.1698479
-0.15151326 -0.11602331 0.03166165 -0.15191253 -0.28373286 -0.29105002 -0.2044017 0.08349361
-0.2638522 -0.45667052 -0.3235855 -0.22250344 0.011230811 -0.2593475 -0.23438908 -0.17287524
-0.060518473 -0.18561244 -0.15138198 -0.17987682 -0.19322388 0.12587914 -0.3436199 -0.2766803
-0.06183621 -0.20240258 0.05251837 0.07691556 -0.5593694 -0.33310592 -0.20983316 -0.05577571
0.1137471 0.2862097 0.031244302 0.15793793 0.2493255 -0.011857915 0.0909464 -0.20173746
-0.06439706 -0.16851339 0.059223518 0.16002952 0.2668957 0.2788603 -0.45949367 0.097832754
0.56400275 0.39951062 -0.029881367 0.21707743 0.32936627 0.12456792 0.032252684 0.28981942
0.40755823 0.12578961 0.08274324 0.024952738 0.045969862 0.41147467 0.07062041 0.32693154
0.013782165 0.20266582 0.3121268 -0.20229326 0.13783777 0.28264374 0.5473603 -0.1198211
0.47468522 0.17874241 0.09684049 -0.16672526 0.058717854 -0.0071926536 0.3154161 -0.04952075
0.18925975 0.34437966 0.2008252 0.1837248 0.3677699 0.076994486 -0.015116143 0.4598599
0.3613434 -0.106190056 0.2889204 0.40368134 0.032450754 -0.031677686 0.65675473 0.17836525
0.10777339 -0.045429908 0.12901172 -0.045935187 -0.37981698 0.1463466 0.21402657 0.2060422
0.10845668 -0.08714683 0.099925816 0.1572234 -0.1352057 0.18331431 -0.22108054 0.2131481
0.3298667 0.21507828 0.14885403 0.29151517 -0.03141789 -0.0470213 0.3852112 0.28081173
0.25072432 0.16541527 0.22730441 -0.23313299 0.1602378 -0.16528942 0.1160827 0.0029841014
-0.13676916 -0.13556623 -0.23637396 0.06664638 0.1508601 0.0529689 0.12345952 -0.018053375
-0.030802652 0.06767562 -0.095822446 -0.03168365 -0.13199231 0.098586805 -0.08668113 0.117052324
-0.15043958 -0.1180783 0.009308965 0.17632344 -0.009523399 -0.0684328 0.15973176 0.003315743
-0.044811383 0.13393945 -0.015002724 -0.08566138 0.09870912 -0.13940221 0.06647105 0.0010735204
0.026490837 0.007065727 0.21418835 -0.056353554 0.13664117 0.047775608 0.08246345 -0.2620901
-0.13635941 0.20952974 -0.14685914 0.149973 -0.15410888 -0.02777224 -0.20429005 -0.20512559
-0.03116885 -0.06465636 0.061035696 -0.0844629 0.10408361 0.036093514 0.21625254 -0.20454673

lstm.bias_hh_l0 f4 [392]
00000000: 9a86 cdbd 974d 03bf 33f3 6bbe fcc4 6c3e
00000010: 80ae 293c 645c 15be efd5 a0be 2208 b7be
00000020: 69c8 06bd 490b d3be d9f5 ddbd 142c 62be
00000030: 77ad 64be 5d45 debd 0865 94be 4d47 9cbe
00000040: 6886 96be 2d45 a9bd e10c 9dbe 9330 f8bd
00000050: ffc0 bbbd 5aed 4bbe e45f e6be c092 82be
00000060: 2a57 15bd 4ed0 94be 88ff e3bd 41af a5be
00000070: cee2 12bf 39d6 8fbe 5571 8bbe 9add 9bbe
00000080: 3729 92be 07b6 f23d d089 2bbe aff4 f6be
00000090: b967 eabd b0a5 75be ecb7 c4bc edc5 20bf
000000a0: e8d4 dfbd 43b8 d33d 4f90 76be 09f4 e73d
000000b0: a993 94be 2186 49be 2509 08bf d8d1 23be
000000c0: 37d0 a0be d8a3 4f3e e470 54bb 2b27 b5be
000000d0: fbbc 46be 48ac 80be 08aa 85be 295d 66be
000000e0: 2f21 89be b31e adbe fb57 aabc 0397 e1be
000000f0: abca c4be 54ef 4bbf bb4b cdbe 6398 e5be
00000100: a261 5dbe b691 503e 4bc6 0ebe 3f44 80bd
00000110: 3da7 0c3e abd1 18be 9393 9abe 674c be3d
00000120: 81e4 8cbe 3613 683b 3daa c0bc 7173 ddbd
00000130: 0c89 0abe 7954 85be 343b 4dbe 13d4 bb3c
00000140: 9165 8dbe 0791 d9be ee12 e7be 0317 2fbe
00000150: bf92 bb3c 24b7 22be 07fe 41be 071a 073c
00000160: bbe2 eebd 7fad fbbd 704c 92bd ae90 ccbd
00000170: eadc 58be 9a4a c03c c810 94be fc43 82be
00000180: dc86 993d b3f4 b8bc 633d d6bd b07f a53d
00000190: 75f7 f6be 73fd 8fbe ea66 49be e861 33bd
000001a0: 32a6 c43d a1a6 c73e fd9c 083e dd10 4a3e
000001b0: 7dbb 1c3e bb32 8e3d 23af d33d 8a86 02be
000001c0: 5a98 2c3d 9c29 a0bd 33dc 323d a9df 4c3e
000001d0: 48b4 a03e dee9 b43e b5dd bfbe 25bf acbc
000001e0: 3be0 123f 04db a83e 0aa4 90bc 584d 103e
000001f0: 615f 933e a724 393e 51d3 04b8 ba39 823e
00000200: aa53 ba3e 9e4e 613d 5eaa 033e 5d02 3a3e
00000210: d0d0 b83d ccd6 d63e ad7f 0b3d 98fc d13e
00000220: a864 8abc cd23 0a3e b874 bc3e e57a 6cbe
00000230: d27a 093d d95e ac3e 1a2e 163f 889d 3abe
00000240: d81f b53e a790 a13d f051 bd3d 3338 6abe
00000250: f97b 563e 1d43 fc3d cfbe 863e 5e87 19bd
00000260: 777f e83d 37f5 863e a2d0 8f3e da96 8a3e
00000270: cefe 7e3e c63d 123e 59a4 f83d 6117 f73e
00000280: 9939 d33e 68b5 12be bd49 b03e dce0 9b3e
00000290: 104c 76bd 059a 42bc c9c6 213f f875 2f3e
000002a0: d723 853e d22d 8cb9 59f8 bf3d 0dca 14be
000002b0: 8c22 97be dcc0 833e 58a2 a73d 8aa4 993d
000002c0: fdd3 913d 6c8d c8bd 3369 323e fc77 e63d
000002d0: 195f dcbd 4912 293e 8af0 64be 6425 273e
000002e0: 07f2 883e 61a8 e13d 0cf6 9f3d 2c7d c63e
000002f0: 4ddf ac3d 4511 00be b94c 6d3e cad5 873e
00000300: b25a 7d3e 7166 a23e 6a15 843e 382e 82bd
00000310: b11b e43d 56ad 5ebe 8be3 3a3e 82e2 783b
00000320: 6e1a 1abe 6604 8bbd c664 31be 6bdf 0e3d
00000330: a0d6 993d 04d2 163e 3c78 333e b548 a7bd
00000340: 0016 39be 4e45 fc3d 5dfc 08bd b468 3bbd
00000350: 5e93 71bc d450 413e a34d c8bd cfae b33d
00000360: 2737 3e3d 330c 49be c76c 7a3d 61a7 e23d
00000370: a95d 353d 2fd2 29bd 8691 e73d 8f34 28bc
00000380: 8c0f 19be 8707 3f3c 50e3 c3bc 8925 7fbd
00000390: 09ec 5a3e 59ae 3fbe 24b9 a03b 753c 443d
000003a0: 0366 93bd 463f b43d 3a65 8e3e 41a1 a5bd
000003b0: 8016 713d ad65 aebd eacf 22bd fb87 4cbe
000003c0: 7579 a4bc 63de a13e a76f 81be 63f8 143e
000003d0: 0c01 0a3d e612 adbd 624f 7dbe 9204 16be
000003e0: 1c29 8bbb 7f99 e2bd e34c 863d c4be aebd
000003f0: cae1 ce3c 24df 383c 7ec5 9a3e 80bd 19be
-0.10035439 -0.5129027 -0.23041992 0.23122019 0.010356545 -0.14586025 -0.31413218 -0.35748392
-0.03290597 -0.41219547 -0.10837907 -0.22087127 -0.22331797 -0.10853074 -0.2898333 -0.30523148
-0.2939942 -0.08265147 -0.30673888 -0.1211864 -0.091676705 -0.19914761 -0.44995034 -0.25502586
-0.03646008 -0.29065174 -0.11132723 -0.3236027 -0.57377326 -0.28093126 -0.27234903 -0.30442506
-0.2854707 0.11851125 -0.1675179 -0.48233554 -0.11445565 -0.23988986 -0.024013482 -0.6280201
-0.109292805 0.103378795 -0.24078487 0.11325843 -0.29018906 -0.19680072 -0.53138953 -0.15998018
-0.31408855 0.20277345 -0.003241592 -0.35381445 -0.19408028 -0.2513144 -0.26106286 -0.22496475
-0.2678313 -0.33812484 -0.020793905 -0.44060525 -0.38435873 -0.7966206 -0.4009684 -0.44842824
-0.21619275 0.20368084 -0.1394283 -0.06263017 0.13735671 -0.14923732 -0.30190715 0.09291916
-0.27518085 0.0035411841 -0.023518676 -0.10813034 -0.13528842 -0.2604101 -0.20042115 0.022928273
-0.27616552 -0.4249346 -0.4513163 -0.17098622 0.022897122 -0.15890175 -0.1894456 0.0082459515
-0.11664339 -0.12288951 -0.071434855 -0.09988533 -0.21178022 0.023473073 -0.28919053 -0.25442493
0.074964255 -0.02257762 -0.10460927 0.08080995 -0.4823567 -0.28123054 -0.19668165 -0.043794543
0.09602012 0.38994315 0.13341136 0.19732995 0.15305896 0.0694327 0.10336139 -0.12746635
0.04213748 -0.07820436 0.04366703 0.20007195 0.31387544 0.35334677 -0.37473837 -0.021087239
0.573734 0.32979596 -0.017656345 0.14092004 0.28783706 0.18080388 -3.1668056e-05 0.25434667
0.36391956 0.055006616 0.12857959 0.18164964 0.09024203 0.41960752 0.034057308 0.41013026
-0.0168937 0.1349022 0.368078 -0.23093756 0.033564396 0.33666113 0.58664095 -0.18224156
0.35375857 0.07888918 0.09244144 -0.22873001 0.2094573 0.12317488 0.2631745 -0.03748261
0.11352437 0.2635896 0.28088862 0.27068216 0.24901888 0.14281377 0.12140722 0.48260024
0.4125488 -0.14327013 0.34431258 0.30444992 -0.060131133 -0.011877541 0.6319395 0.17134845
0.26003906 -0.0002673702 0.093735404 -0.14530201 -0.29518545 0.25733078 0.081852615 0.075020865
0.07120512 -0.09792599 0.17422943 0.11253354 -0.10760326 0.16510881 -0.22357383 0.16322857
0.26747152 0.11018444 0.078106016 0.38767374 0.08441029 -0.12506588 0.23173799 0.26530296
0.24741629 0.31718782 0.25797588 -0.06356472 0.11138094 -0.2174581 0.18250863 0.0037976806
-0.15049145 -0.06787948 -0.17323598 0.034881037 0.075116396 0.14728552 0.17526335 -0.08168165
-0.18074799 0.12317906 -0.033443797 -0.04575415 -0.014744608 0.1887849 -0.09780433 0.087735765
0.046439316 -0.1963356 0.061138894 0.11067081 0.044278774 -0.041460212 0.11307053 -0.010266437
-0.14947337 0.0116595095 -0.023912102 -0.062291656 0.21379103 -0.18718852 0.004904883 0.04790922
-0.071971916 0.08801131 0.27811605 -0.08087397 0.05885935 -0.08515487 -0.039749064 -0.19973747
-0.020077446 0.3161498 -0.25280496 0.14547877 0.033692405 -0.0845087 -0.24737313 -0.14650181
-0.004246844 -0.11064433 0.06557634 -0.085324794 0.025254149 0.01128367 0.302288 -0.15013695

fc1.weight f4 [9, 98]
00000000: a6b3 b6be 045b c83d 367a aa3f 27dc 8a3f
00000010: 4f3a e63e a71b 2f3c f21f ba3c 611f b53e
00000020: dd1a f5bd deb0 f1be df9d 153e faed 65bf
00000030: bd04 d0be 2269 d1be 72c4 973d 3baa 3b3e
00000040: fd6d c8bd 7cc4 fb3e 6732 22bf 2078 0cbe
00000050: f099 573f f266 c73d d291 8f3e 9174 e8be
00000060: e526 31be 4462 d3be 4fca 2b3f 32b5 a2bd
00000070: daba 523e 08b5 033f 01a3 433e a345 8f3e
00000080: 4336 bfbd d171 75bf 7433 1bbe d402 f4bc
00000090: 2963 edbd e874 293e b7e8 e0be 0eb3 60bf
000000a0: 0040 06bf 3d9c 683e 1d50 b6bf 1f3a 893f
000000b0: 5d5e a03e ce84 b53e 8ca9 2cbf 0bb5 d43d
000000c0: b797 863e 9daa 3bbe dd3a debe 4cfa 803e
000000d0: aed0 02bf db24 0ebe 9dfd 1d3d 4e2a 07bf
000000e0: d7f8 61be 4905 7a3f eee0 15be 1627 1a3d
000000f0: bdb8 243f 50ec c2be f00c 83bd b697 a4be
00000100: d19b fdbc 5f0d 04bf 12ad 583e 1035 22bd
00000110: d71b 773c 132c 693e ff76 9dbc f6eb 73be
00000120: 21d8 77bf 383b ca3d 7f77 573e 6f5b e43e
00000130: b0d0 163e 523e d6bd 2523 19bf 75b1 763e
00000140: c4ec bb3c a794 aabf 7224 213d 5db6 b6be
00000150: e259 a8be a4bb 87bd a41f 6f3e adc9 e53e
00000160: 800f 0c3f 212e a7bb bb5a 2a40 a23d f23d
00000170: 0c23 debb c657 9c3f 0e1b b03c 8cbf 833e
00000180: 144c 18bd 8917 86bd c20a f93e 7789 97bc
00000190: e0b8 093f 2df6 913c 5dc2 d83e f2b1 9b3d
000001a0: b2aa 2ebe 18b6 7e3e 48c1 e73d 7e3c 0ebf
000001b0: 1d71 df3e e815 9abe 576c 53bf 9fd7 75be
000001c0: a1eb c1be aa41 32bf ef0c 25bc ec62 c53d
000001d0: a9d8 69bf 1486 a8bd a919 013f 3177 78bf
000001e0: b115 373e fa43 acbe 9fed e0bd a6af 74be
000001f0: e547 06be 5ff2 9c3d 33dd 2fbf 13a1 0cbe
00000200: f8c3 babf d3dc d7bc 51f4 bb3e 7b5a 4d3e
00000210: 7a41 6e3e dc0b abbe 125a 6ebe 5a27 7bbe
00000220: 0e1b 063f bc4d 2f3e 25c6 153e 1f7a 7bbe
00000230: cc4e 2bbe d227 61bf 5a4f 38be 1850 453f
00000240: 62c2 2fbf 5a0f c5be 1d30 603d f75d 2d3e
00000250: afd3 9cbe 61c1 363d 19b6 0dbf 9bfb 903d
00000260: 2d2e d8be c960 66bd b1f1 a0be 90be 423f
00000270: 1791 053e 65ef eb3c e600 21be cf31 aa3e
00000280: 7fb7 243e 2ac8 71be 5cd9 f23d b8ff a6bd
00000290: 1947 a8bd cb29 3abf fa0e a63f 3e27 03be
000002a0: 06e3 18bd 9b57 9abe 9046 77bf 54a8 1abf
000002b0: 5089 a33d 3e2f f8be fcc6 1e3e 7231 fdbe
000002c0: 7b7a cb3f b681 b8be 8b8c 10bf 7065 963f
000002d0: b9a7 cbbc 8585 00bf 80f8 a03f 8dae 6bbd
000002e0: e0c4 c33d 081b c93e acf8 cebd 55f7 a8be
000002f0: 997d 00bf 4227 42bc d089 0d3c 8cf8 44bf
00000300: 990f 83bc e854 e53d 51c2 8abf 3f8c a8be
00000310: 52ac 633f a3e5 a63b 9d06 723f 8d83 fbbe
00000320: 86d7 8cbf e26c fc3e 4837 bf3d 8b89 13bf
00000330: 55d0 0b3f ded3 843e 7359 54bf 7b54 f2bf
00000340: 95a4 8abf 1f78 00bf 39a0 003e bcc8 153f
00000350: 87b3 db3e a845 b5bd 1e34 0b3f fbf8 1ebd
00000360: 239c 06bf c14c a7be 0724 d5be 06ec 773e
00000370: d96b 093e 3c32 f63e 975c 8ebd d721 003e
00000380: 0ead 783f 44c0 8ebf cbb5 3c3e d0c8 54bf
00000390: 5e93 c23e d985 523f 2146 55bf 3142 f93c
000003a0: 98e5 8ebd 030d ab3e 2511 f63e 00cd 8cbf
000003b0: d50f f93e 10f4 69bf 4850 d7be 19d4 65bf
000003c0: 8a66 ac3e 4ae1 babf d90e 1d3f a679 c63e
000003d0: bcc5 143e fd02 9a3e 40ec 9c3f d234 c93e
000003e0: 64aa e93e d09b b23e e784 c03e 4410 5dbf
000003f0: d1a5 513f dc7c 0abf c954 873d 1c8e 013f
-0.35683936 0.09782985 1.3318546 1.0848435 0.4496636 0.010687745 0.02272031 0.35375503
-0.119680144 -0.4720525 0.14611004 -0.8981625 -0.40628615 -0.40900522 0.07410516 0.18326657
-0.097866036 0.49173343 -0.6335816 -0.13717699 0.84219265 0.09736432 0.2804094 -0.45401433
-0.17299993 -0.41285908 0.67105573 -0.079447165 0.2057909 0.51448107 0.1910515 0.27982816
-0.093365215 -0.95876795 -0.15156347 -0.029786505 -0.11591179 0.16548502 -0.43927547 -0.87773216
-0.52441406 0.2271585 -1.4243199 1.0720862 0.31321993 0.35452884 -0.6744621 0.10386094
0.26287624 -0.18326803 -0.43404284 0.2519096 -0.5109967 -0.13881247 0.038571943 -0.52798927
-0.22067581 0.97664315 -0.14636585 0.03763493 0.6434439 -0.38070917 -0.06398952 -0.32146996
-0.030958088 -0.515829 0.21159771 -0.039601386 0.015082321 0.22770719 -0.01922178 -0.2382048
-0.9681416 0.09874576 0.21041678 0.44601008 0.14728045 -0.104611054 -0.5981925 0.24091132
0.022940047 -1.3326615 0.039341398 -0.35686007 -0.32881075 -0.066275865 0.23351914 0.4488043
0.5471115 -0.0051019345 2.6617877 0.11828162 -0.0067790803 1.2214286 0.021497276 0.25732076
-0.03718193 -0.06547458 0.4864102 -0.018498166 0.5379772 0.017817581 0.42335787 0.076023
-0.17057303 0.24874151 0.11316162 -0.55561054 0.43640986 -0.30094838 -0.8258719 -0.24008034
-0.37875083 -0.69631445 -0.010073884 0.096380085 -0.9134622 -0.082286984 0.5042978 -0.9705687
0.17879368 -0.33645612 -0.109828226 -0.2389513 -0.13113363 0.07663416 -0.686969 -0.1373332
-1.4591055 -0.026350414 0.36709836 0.20054047 0.23267165 -0.33407485 -0.23276547 -0.2452673
0.5238503 0.17119497 0.14626367 -0.24558304 -0.16729277 -0.87951386 -0.1799902 0.7707534
-0.6865598 -0.38488275 0.054733384 0.16930376 -0.30630252 0.044618014 -0.55355984 0.0707924
-0.4222273 -0.056244645 -0.31434396 0.76072025 0.13043629 0.028800676 -0.15722999 0.33241126
0.16085623 -0.23611513 0.11857864 -0.08154243 -0.08216686 -0.7272002 1.297332 -0.12807938
-0.03732588 -0.30144963 -0.96592045 -0.604131 0.07985175 -0.48473543 0.15505594 -0.49451786
1.5896753 -0.36036462 -0.5646445 1.1749706 -0.02486025 -0.50203735 1.2575836 -0.05753951
0.09559035 0.39278436 -0.10106024 -0.330012 -0.50191647 -0.01185018 0.008638814 -0.7694175
-0.015998648 0.11197835 -1.0840551 -0.329195 0.88934815 0.005093293 0.9454134 -0.49123803
-1.1003273 0.4930182 0.09336716 -0.5763175 0.54614764 0.25942892 -0.8294899 -1.8932031
-1.0831476 -0.5018329 0.1256112 0.5850942 0.42910406 -0.088511765 0.543764 -0.038811665
-0.52581996 -0.32675746 -0.4162905 0.2421113 0.13420047 0.480852 -0.06951254 0.12512909
0.9713906 -1.1152425 0.18428724 -0.83118916 0.38003057 0.82235485 -0.83310133 0.03042707
-0.06977385 0.33408365 0.48059955 -1.1000061 0.4864489 -0.91388035 -0.42053437 -0.8977676
0.3367198 -1.4600003 0.6135078 0.38764685 0.14528555 0.30080405 1.2259598 0.3929811
0.4563781 0.348845 0.37601396 -0.86352944 0.8189364 -0.5409677 0.06607968 0.50607467

fc1.bias f4 [9]
00000000: 6017 3abd a621 cf3d 0879 02bd 9790 ccbd
00000010: 4090 c7bd d391 d4bc c819 0f3d ded0 74bc
00000020: e5b9 32be
-0.04543245 0.1011384 -0.031853706 -0.09988516 -0.097443104 -0.02594844 0.034936696 -0.014942376
-0.17453726

exp_avg f4 [392, 1]
00000000: a428 6dba 9646 5f3a 8996 e9bb fde6 ba3b
00000010: 705b a23a 8e79 d0b9 1a1f 05bc ea02 8fbb
00000020: abad cc3a 0d5b c93b b501 013a e170 f7bb
00000030: e97f fe39 3ff1 24bb 568a b43a 97df f43b
00000040: 2760 a03b 3699 4ebb 897a a9bc eb6a c8bb
00000050: 86fd edba 80f8 7039 fde7 ff3b 7193 663b
00000060: 7789 f2bb 71d7 adba 3b67 e23a 8fd7 023b
00000070: c357 9dbb 3557 bcba 6c82 87bc 77d5 0a3b
00000080: b153 a03c 4f59 903c 5d01 02bc c10f 833b
00000090: 6dae 36b9 2d98 763b 2492 023b e5e2 d63c
000000a0: f7fd c63b 7001 2b3c 14d9 a4bb 4900 823b
000000b0: 699b bdba df68 033c 24ed 85bc b9b3 cabc
000000c0: f6df fa3a 9c38 0c3c 0968 ee3b fec8 213c
000000d0: 7d4d f13a c553 f73b 2c41 42bb aebe 013b
000000e0: 844e 143b 2db8 a63c cb55 ca39 4aa2 c1bb
000000f0: 705a bdba 6c04 263d c020 8fbb f69f a13b
00000100: d901 5b3b 2fcd 173c e4b0 96bb a75b ea3b
00000110: 6e95 51bb 33f1 4fbc 15f9 eebb 6233 f33a
00000120: 6bb0 f43b 3451 8439 c4aa 813a 2e65 043a
00000130: fe3b b3bb a1a4 0dba 61fa 15bc 76c0 a43b
00000140: 880c dcba 7fb3 d83a c6d6 c3bb 3706 56b9
00000150: 884f a0bb 9b9a 3eba fd8b b63b 6e17 82bb
00000160: fe65 3d3b 7365 d43b ca4f beba 565b 323a
00000170: ae35 efba 9fe3 25bc e872 24ba 9499 a93b
00000180: f404 a23a 2f45 0cbc b8bf b3b8 db94 b739
00000190: e776 ebb8 e84b 6b3c 6ca1 28bc 0159 973a
000001a0: 1125 193c 9f95 133c b511 c9bb 0ef4 903b
000001b0: 4e8b 803b 26de e9bb 6825 16bb 3688 5bbb
000001c0: 7847 8e39 07ef f83b 4926 9fbb b5d1 bd3c
000001d0: 8b53 593b 969c 2cbb 18b4 a2b9 e3f2 b8ba
000001e0: 07af 66bb 97e8 d5ba ac13 2abb 3b19 f3ba
000001f0: 53f2 9d39 7d6e b2b9 feaf 99ba a15a cc37
00000200: 57a6 9fbb a82c c33b 688f 7e3b 4682 4d3c
00000210: c205 5ebb feda 71bb 3c87 cdb9 33c7 adba
00000220: cba7 bbbb 164e 70bb 6889 f03b d82e 8d3c
00000230: 9b03 54ba be48 fcbb fb2a b139 d7eb 203b
00000240: 8049 9e3c ec7b da3a 7feb 123b a949 193c
00000250: bad3 fd3b a02c 33ba d47a 1b3b 65e5 aa39
00000260: 46c9 773b e05c c4ba 5dc6 52bc a9c6 a7ba
00000270: 69a0 333b c435 a73a a2c5 44bc 4db4 01bb
00000280: 6c2b 2b3b 091c a93a 07c8 6d3b 9ea6 973b
00000290: 4f3e d939 b21b 1e3b 4eaa d7b8 b3fa 94ba
000002a0: 15e6 95bb a904 ddba fbed 84bb e6fa beba
000002b0: 8bcd 7fbb a53b 26bb f9b5 a9bb 41fc 4d3b
000002c0: 5d32 03bc 13e4 963b d6a4 b139 7ae5 023c
000002d0: 7ad5 7e3b 54f7 b8ba 90b4 a4bb 44b3 0e3b
000002e0: 51c0 7939 f18e bfba 195d a73b 5f2a bfbb
000002f0: 7b3c 5eba e67f 75bb 83a9 373b 3fdc 25ba
00000300: 0984 b3ba 5d21 1f3b 991f 27bb 8fe4 89ba
00000310: 0162 463d 7578 32ba 7b86 81bc d68c c53b
00000320: 895e 7f3d 1e73 ab3b 7d80 b0bc 5fa4 ae3b
00000330: 5f29 a63b 29f6 21bc 3369 2a3c d65b 853d
00000340: 7172 06bc a66b 34bc 0a1b 283c 1a28 273c
00000350: bcc9 243c 293b 6e3c 361a 753a 0472 383b
00000360: c0a2 28ba 0e01 04bd 07dd 10bd b961 103c
00000370: c3f9 093c 0bc0 44bb 05ed 0c3c ff2d e53b
00000380: 8497 9dbb 85e5 b53c 3522 57bc 8f96 82bb
00000390: 784e 5a3d cc87 ddbc bc0b 013c 5b2d 80bb
000003a0: de63 8f3a 4694 c5bc 9af1 f53a 0e74 653c
000003b0: 98c4 513b 7701 40bd b495 2539 59b2 953c
000003c0: 84f2 80bc 14ab d5bb f009 33be 1ffe 023d
000003d0: 5cc2 a2bb 4ab6 1939 bebf d03c 1807 c43c
000003e0: 4365 76bb f998 a2bb 5c6e 933c d8d2 363c
000003f0: e6c8 f7bb 3fe9 f4ba ef80 efbb a0dd f8ba
-0.00090468884 0.0008517293 -0.007128541 0.0057038055 0.001238687 -0.00039763417 -0.008125091 -0.004364361
0.0015615722 0.0061448873 0.0004921214 -0.007551298 0.00048541956 -0.0025168208 0.0013774137 0.007472943
0.0048942748 -0.0031524426 -0.020688312 -0.0061162612 -0.0018157221 0.00022980757 0.0078096376 0.0035183097
-0.007401641 -0.0013263059 0.0017273197 0.0019964909 -0.004801722 -0.0014369251 -0.016541682 0.0021184364
0.019571157 0.01762071 -0.007934895 0.0039996807 -0.00017421851 0.0037627325 0.0019923532 0.026231239
0.0060727554 0.010437354 -0.0050307605 0.003967319 -0.0014465871 0.008020609 -0.016348429 -0.024743902
0.0019140232 0.008558419 0.0072755856 0.00987458 0.0018409934 0.007547828 -0.0029640896 0.0019797492
0.0022629807 0.020351494 0.00038592363 -0.005909239 -0.0014446508 0.04053156 -0.004367918 0.004932399
0.003341785 0.009265228 -0.0045987237 0.007152039 -0.0031979936 -0.012691784 -0.0072928765 0.0018554742
0.0074673197 0.00025237503 0.0009892811 0.00050504773 -0.005469798 -0.0005403255 -0.009153933 0.005027826
-0.0016788403 0.0016532986 -0.0059765307 -0.00020410946 -0.0048922934 -0.0007270963 0.005570887 -0.003970078
0.0028899903 0.0064818203 -0.0014519629 0.0006803771 -0.0018250251 -0.01012507 -0.0006273226 0.0051757786
0.0012361095 -0.0085614165 -8.5710955e-05 0.00035015386 -0.000112278205 0.014361359 -0.010292392 0.0011546911
0.009347216 0.00900784 -0.006136144 0.004423625 0.0039228564 -0.007137078 -0.002291048 -0.0033497936
0.000271376 0.0075968537 -0.004856859 0.023171285 0.0033161368 -0.002633845 -0.00031033228 -0.0014110472
-0.003519954 -0.0016319928 -0.0025951667 -0.0018546948 0.0003012592 -0.00034033126 -0.0011725423 2.4360897e-05
-0.004872124 0.005956251 0.00388428 0.012543267 -0.0033877944 -0.003690421 -0.00039201404 -0.0013258219
-0.0057267896 -0.0036667637 0.007340599 0.01723425 -0.00080876955 -0.007699101 0.00033792094 0.0024554634
0.019322157 0.0016669012 0.0022418199 0.009355941 0.007746187 -0.0006834958 0.0023724334 0.0003259584
0.0037809177 -0.0014981292 -0.012864676 -0.0012800294 0.0027408844 0.0012757112 -0.01201001 -0.0019791306
0.002611841 0.0012902032 0.0036282556 0.0046280166 0.0004143589 0.0024125394 -0.000102837206 -0.0011366218
-0.004574547 -0.0016862351 -0.00405669 -0.0014570623 -0.0039032425 -0.002536514 -0.0051791635 0.0031430873
-0.008007613 0.0046048253 0.00033882883 0.007989282 0.0038884566 -0.0014111795 -0.0050264075 0.002177433
0.00023818134 -0.0014614743 0.0051075337 -0.0058339084 -0.000847764 -0.0037460267 0.002802462 -0.000632707
-0.0013695966 0.002428136 -0.0025501011 -0.0010520386 0.048433308 -0.00068081106 -0.015811196 0.006028752
0.062346015 0.005232229 -0.021545643 0.005329653 0.00507085 -0.009885349 0.010401058 0.06511657
-0.008205996 -0.0110119935 0.010260353 0.010202432 0.010057863 0.014540472 0.0009349914 0.002814413
-0.0006432943 -0.03222757 -0.035367038 0.008812361 0.008421364 -0.0030021693 0.008601432 0.0069940086
-0.004809322 0.02220417 -0.013130714 -0.003985233 0.05329749 -0.027042292 0.007876333 -0.003911657
0.0010939797 -0.024118554 0.001876402 0.01400472 0.0032008048 -0.046876397 0.00015791395 0.01827352
-0.01574064 -0.0065206382 -0.1748426 0.03198063 -0.004967017 0.00014659125 0.025482055 0.023929164
-0.0037596978 -0.0049620834 0.01799696 0.0111586675 -0.0075617908 -0.0018685235 -0.0073090713 -0.0018986948

exp_avg_sq f4 [392, 1]
00000000: 1e42 583b 0088 d73a f3ac 893a 705c e03a
00000010: 11ff d039 7d67 ca39 1b43 863a 1d5f a83b
00000020: f9b6 233b 8cbb 403a 385f 353a 0b65 d33a
00000030: b875 863a b528 0c3a a0f8 da38 7e49 6c3b
00000040: 3673 403a e116 583a 4b98 293c 2207 043b
00000050: c6fd 713a ab0d 803a a710 2f3b a11c 9b3c
00000060: 53e8 9d39 b7e1 923a bf31 d239 3c87 0c3b
00000070: 9f7a 223b af24 7639 5088 803b e9cb 013a
00000080: 9f9f e43b f036 2d3b 456c 8f3a 225d 913b
00000090: 9292 c53a 9812 d43a dda2 543a 7abc 523d
000000a0: 1f65 cd3b 06ff 2f3b 7fd2 9c39 663a 153a
000000b0: 9e04 663b ce07 fd3a ef4a 7b3d 21f7 0a3b
000000c0: 9c01 0c39 1fc0 cd3a abe3 873a 44b7 3f3c
000000d0: 61ec 0139 da2a 833c c0a5 103a f933 6e3a
000000e0: 9170 1c3a 1a64 0d3b 4404 a13b d688 653b
000000f0: 6a4f e83b ba84 2d3d 2249 db3a ff22 7b3a
00000100: 0e20 cf39 8add 383b 0d19 503a 1877 613a
00000110: 0deb 823a c310 913b 9cf9 183a 3fcc 883a
00000120: 3cde db3b be92 9e3a 5c27 e139 8f11 9a38
00000130: a157 513b 48eb 4e3a e969 443a 7b79 f63a
00000140: ffda 0039 2593 553d e3c4 293a 37b9 c93b
00000150: 56d2 b03a 8890 1e3a d5fe 373a cf2b 0b3a
00000160: 840a e039 18cb 9c3b 7a70 1b3a 3e62 b339
00000170: 195a 073c f503 6e3a 5e4a 423c edc4 da39
00000180: a920 b83a 984d 743a 3e66 3b3a 701e 6339
00000190: 95cc 213a eb55 973a 5d7f c13a 61a0 9939
000001a0: 2ee4 fa3a 7640 043b 37e3 e639 d9db 3b3a
000001b0: 4dee 2a39 390d 1b3b 688b 163a 0076 6a39
000001c0: 816b 4f38 54c3 843a 5efa 1d39 f3f2 413b
000001d0: ffb2 123a 3d78 5139 9f54 0e3a ffd8 4e3a
000001e0: b855 3939 96df 8b39 9ced af39 720e 5e38
000001f0: 21fa 6a39 2d0f 8139 e6c9 7239 5899 4139
00000200: ac69 193a f90a 8e39 0d3b 263a 5d56 8c3a
00000210: 168f 733a a0ec 923a de00 f439 adeb 6837
00000220: f7f4 4e3a a527 1c3b 3f27 c03a a2de 953a
00000230: 58d5 0939 b02f 3e3a 44d2 8539 1b12 f23a
00000240: d6e7 663b 88e0 3339 e67a 4d38 c51a 213b
00000250: d379 633a 4a70 063b 35b1 c838 4b34 ea3a
00000260: 6543 9d3a e7af 8b3a 3f65 443b abe8 d73a
00000270: 6b91 f23a 0da1 3f3a d105 713a 511c c439
00000280: 13ef 8839 3868 1d3a ba08 8c3a 4736 933a
00000290: df4e 753a ed9e 073a c821 8738 ab73 bd3b
000002a0: 8bce 9e39 45d1 0f3a 514d 263b 016b b23a
000002b0: 7a7d 8339 7d77 1439 e1ed eb39 590b b939
000002c0: 5c39 5f3a 4ba8 893a cebe 9f37 7c19 6f3b
000002d0: 4ced af39 4643 203a c5eb a83a 7d6e 5539
000002e0: 5c70 3e39 88d4 4a39 2648 dc39 512a 243a
000002f0: d5e9 ad39 a2e6 bd39 24c9 fc3b 3d3a 9e39
00000300: d4d6 873a 84b6 d239 4f54 cd3a 42e5 d439
00000310: 5ed9 ec3c 6414 fb3b 2dc2 233b db45 e73b
00000320: 5abc a83d 0500 8a3b 8f4a 883c 367e 0d3b
00000330: c3d1 1b3b 4382 653c 5370 0d3b 0f0d 9e3c
00000340: a628 a03b b3fe da3b 41b9 d13b ec58 873c
00000350: 4428 673b 50fd a13c 6985 1f3c c679 8a3c
00000360: 7af6 343b 91bf 453c 2b5b ca3b 6654 c83b
00000370: 53a8 053c e126 493b 29d5 993b 8002 813c
00000380: 58fd ac3c 1843 d43b 60e6 e13b 03ca 573b
00000390: a6b9 843c 3ae7 6c3c 4a46 ef3b bd31 073c
000003a0: 4b51 263b 2274 8c3b a241 493c 2308 f63d
000003b0: f31a 3d3b acd6 c53c 447a 063b ccb7 9c3b
000003c0: 772e 453c 73a9 5a3c 0aa3 7a3e 7c2b e13b
000003d0: 9728 9c3b 8562 3e3d 6e03 bb3c f133 823c
000003e0: 007e cc3a a565 fb3b 1e07 1f3c 5383 b43b
000003f0: d840 843b c24c cb3c 7ec9 a23c 1d6b f03b
0.0032998393 0.0016443729 0.0010503813 0.0017117392 0.0003986289 0.00038605547 0.0010243388 0.0051382915
0.0024980886 0.00073521654 0.0006918791 0.0016128136 0.0010258472 0.0005346642 0.0001044136 0.0036054547
0.00073413865 0.00082431553 0.010351251 0.0020145853 0.00092312356 0.0009769698 0.0026712806 0.01893455
0.0003011847 0.0011206184 0.00040091385 0.002144291 0.0024792326 0.00023474054 0.0039224997 0.00049513445
0.006977036 0.002643045 0.0010942301 0.004436151 0.0015073589 0.0016179858 0.0008111427 0.051449277
0.006268158 0.0026854887 0.0002991147 0.0005692601 0.0035097967 0.0019304694 0.06135076 0.002120443
0.0001335204 0.0015697515 0.0010367533 0.011701409 0.00012390457 0.016011644 0.0005517863 0.0009086724
0.00059677014 0.0021574558 0.0049138386 0.0035024188 0.007089545 0.042362906 0.0016730169 0.0009580105
0.00039506 0.002820822 0.0007938303 0.0008600815 0.0009988263 0.004427047 0.00058355345 0.0010436847
0.006709842 0.0012098176 0.0004294467 7.346563e-05 0.00319431 0.0007893336 0.00074925885 0.0018804515
0.00012288614 0.05214228 0.0006476177 0.0061561125 0.0013490419 0.00060487585 0.0007018869 0.0005308957
0.00042732444 0.004784953 0.0005929541 0.00034214737 0.008261227 0.0009079569 0.011858551 0.0004172692
0.001404782 0.00093194237 0.0007148719 0.00021659746 0.00061721477 0.0011545991 0.0014762689 0.00029301926
0.0019141489 0.0020180023 0.00044038307 0.0007166244 0.00016301237 0.0023659004 0.0005742819 0.00022359937
4.9452767e-05 0.0010129013 0.00015065956 0.0029594272 0.00055961305 0.00019976585 0.00054294796 0.00078906113
0.00017674908 0.0002667873 0.00033555634 5.2942378e-05 0.0002240916 0.00024616104 0.00023154131 0.0001846304
0.0005852233 0.00027092526 0.0006341197 0.0010706891 0.0009291036 0.0011209436 0.00046539953 1.388315e-05
0.0007894779 0.002382734 0.0014660134 0.0011434148 0.00013144815 0.0007255031 0.00025524397 0.0018468531
0.00352334 0.00017154415 4.8990267e-05 0.0024582606 0.0008677516 0.0020513707 9.5697505e-05 0.0017868368
0.0011998235 0.0010657281 0.0029967574 0.0016472539 0.0018506473 0.000731007 0.0009194287 0.0003740513
0.00026118066 0.00060046045 0.0010683753 0.0011231386 0.0009357761 0.0005173523 6.443594e-05 0.005781611
0.00030289995 0.00054862007 0.0025375674 0.0013612212 0.00025079754 0.00014158893 0.00044999926 0.00035294404
0.0008515322 0.0010502426 1.9043127e-05 0.0036483696 0.000335554 0.000611354 0.0012887648 0.00020354423
0.00018161669 0.00019343395 0.00042015425 0.0006262409 0.0003317135 0.00036220724 0.0077144075 0.000301795
0.0010363706 0.00040190306 0.0015665385 0.000406066 0.028912243 0.007662343 0.0024987564 0.007057888
0.0823905 0.004211428 0.016637115 0.002159012 0.002377615 0.014008108 0.0021581843 0.019293336
0.004887658 0.0066831945 0.006400258 0.016521893 0.0035271803 0.01977411 0.009736397 0.01690377
0.0027612732 0.012069599 0.006175419 0.0061135767 0.008157807 0.003069334 0.0046946 0.015748262
0.021116897 0.0064777248 0.006893918 0.0032926805 0.016201805 0.014459426 0.0073020803 0.008251605
0.0025378044 0.004286305 0.0122837145 0.12013271 0.0028855174 0.024150215 0.0020519653 0.0047826525
0.012035004 0.013346064 0.24476257 0.006871639 0.004765581 0.046480674 0.022828784 0.015893908
0.0015601516 0.007672029 0.009706287 0.005508819 0.0040360503 0.024816874 0.01987147 0.0073369876
