models/cfv/mmkfcv3.pth (torch, 490360 bytes, 18 tensors)

lstm.weight_ih_l0 f4 [392, 1]
00000000: 8f73 853f da0b c03d f1b3 72bd 1bee e73e
00000010: 5c87 d0be 3741 b43c 669d 033f 9e2b 8f3e
00000020: 1f0a b8be 72ae 3e3f 1da3 f8bd e2dd 883e
00000030: 92ae 5d3e b91d 1d3f 6cb7 2bbf 658e d33e
00000040: d120 19bf 5fda 31bd 07bf fb3d 9a63 8abf
00000050: 9d29 203f 9181 033f 29a9 833e 5ef9 ca3e
00000060: e285 3b3f 5ecb f43e 6cd3 233f b097 bdbd
00000070: 83a1 243f ce0b ebbe 3b57 873e b447 4bbe
00000080: b041 a7be ffbd 993d 00ab cd3e 2060 883f
00000090: d0a3 d53e bcab 883d 8093 ad3d 98a0 7b3f
000000a0: 0ac4 3abe fe0c a93e 27ec 56bf 61b8 f13e
000000b0: 4a22 113e b1e0 983e 166f 373f d400 693f
000000c0: 82fa 46bf 7f6a d13e 9edc 8f3e e338 333f
000000d0: cf52 ea3f 7d73 923e 97b9 b23e 31a5 833d
000000e0: 3d96 f6bd 7fcb 043f 15c3 0d3f 2368 ec3d
000000f0: 18c1 d03e 3e7d 3b3f 7a01 a13f 24fa 613f
00000100: 2a22 debf eafd e63e a5fb 693e 49e0 953e
00000110: 0ca1 893f 01b7 6abe 5eb9 4f3d 692b 043f
00000120: 31bf 15bf a3fc de3d d26e 8c3e 02c9 b1be
00000130: 6938 c83e ecb7 13be 6fe7 163f ff65 0f3f
00000140: bf41 303d d88d 7b3d 0732 36be 3cae febe
00000150: 72ba f03e d3b2 f33e 65b4 213d b5a9 133f
00000160: 1369 0f3f 6412 74be c875 213f e3db 6e3f
00000170: a786 c53e c7c7 ae3e f264 48bf 7597 763f
00000180: eeed 313d 6b1c 493e 6961 e23e 19cd 473f
00000190: e362 8c3e 82e1 5c3d cdee c13e 2acc ea3e
000001a0: d754 24bf 89b8 fa3e ec00 04bf 6fbf 433e
000001b0: 8ba3 6fbe 66c3 c13e 7480 9abd 5f8c 493e
000001c0: a9bd 2abf c4e3 d0be cb51 cabe 85f9 be3e
000001d0: 7d40 393f cf4c 59bf e5df 8bbe 58a4 083f
000001e0: 95b4 21be 4bc1 963e 3787 be3d 3dca 503f
000001f0: de6c 163f 0977 393f 6598 5a3e a3e3 c1be
00000200: 5cb5 0b3e b9de 8bbe c00b c1be 38c9 e0be
00000210: f5ea 8a3f 2e7c dc3e 11a0 3abf 21c0 c7bd
00000220: 67ff 823f a228 143f 840d 63be 622a b53e
00000230: 25df 57bc e57a b43e 7996 0a3f 9a75 253f
00000240: c929 103f 87ee 3f3f c3a2 b9be 05a8 813f
00000250: 607c 1c3d 5029 173f 4744 723f b0ef 49bf
00000260: 6fd6 463f 7812 6abe 3771 563d c145 a33f
00000270: 1abd 4b3c 2f48 b93e ddca 383f fbc1 b63d
00000280: b8b0 103f d215 5f3f fabc f9be 8c99 8f3f
00000290: bc9b 383f 5a27 c73b eb4e bbbe 2256 5abd
000002a0: 2a06 45bc 47a0 f53e 64d1 813e 4a2a 8d3e
000002b0: 8c4a 13bf 4972 813c 6db8 ca3d aed5 063e
000002c0: eb2e d93e f844 743d 7e23 cdbd 12ce 803e
000002d0: dbd8 a93e 3aaf 60be dbc9 a1bc 626c 6bbe
000002e0: 65e3 5fbe fe19 073f 557d 093f 8d1e 00be
000002f0: 6c83 503f 3e3e c23e d399 513f 24d4 5d3e
00000300: 8210 f4be fea9 563f 7297 07bf 6d1e 29bf
00000310: 5178 f8be fbd7 64be b7b7 e2bd 366d a73e
00000320: 9741 c13c 83aa 9bbe 05b4 f2be 0872 05bf
00000330: 2fa0 423f 49c5 e3bd 2420 c4bb 177e e6bd
00000340: 4387 cebe 0f2a 27bf 07c9 9b3e 5370 f43e
00000350: dcae 5dbe 6018 753e cfc4 873e 0313 0d3e
00000360: 9b0b e93e 7cca 2ebd fe06 8f3e d57b 933f
00000370: 0dce 883f 7324 04bd f45f 5ebe 784a 873e
00000380: c58a af3c 497b c53f d3fe 623e 0513 41bd
00000390: 028b 1c3f e5ce cbbd daab c0bb b43d f83e
000003a0: 0787 12bf 5de0 15bf 16f8 ac3b 111f a63f
000003b0: 46c8 323d 14af 923c 8183 cbbe 75ba 45bd
000003c0: d8bf 3fbe 1821 52bd 37bc c6bd af79 0f3e
000003d0: 2b8a 87be e80e 083d e6c1 193e a7b2 1a3d
000003e0: f2da 6cbf f737 07bf d619 03bd 4bfd 383e
000003f0: 0e45 9dbd 1c03 193f a8b2 f3bd 44af 463d
1.0425891 0.093772605 -0.059253637 0.45298848 -0.4072827 0.022003753 0.51412046 0.27962965
-0.35945222 0.7448493 -0.121404864 0.26731783 0.21648625 0.6137348 -0.67076755 0.41319576
-0.598157 -0.043421146 0.12292295 -1.0811646 0.62563497 0.5136958 0.25714996 0.39643377
0.73251164 0.47811407 0.6399448 -0.09257448 0.6430895 -0.45907444 0.2643374 -0.19851571
-0.32667303 0.07506942 0.40169525 1.0654335 0.41726542 0.06673381 0.08475399 0.9829192
-0.18238845 0.33017725 -0.8395409 0.47210982 0.14173236 0.29858926 0.7165388 0.9101689
-0.77725995 0.40901563 0.28098005 0.7000868 1.8306521 0.28603736 0.3490722 0.06427992
-0.120403744 0.5187301 0.55375797 0.115433 0.4077232 0.7323798 1.2578576 0.8827231
-1.7354176 0.45115596 0.22849901 0.29272678 1.0752273 -0.22921373 0.05071389 0.5162874
-0.5849486 0.108880304 0.274283 -0.3472367 0.39105538 -0.1442563 0.5894689 0.5601501
0.04303145 0.06141457 -0.17792521 -0.49742305 0.47017246 0.4759737 0.03947868 0.5768083
0.56019706 -0.2383514 0.63070345 0.9330427 0.38579294 0.34136793 -0.7827903 0.96324855
0.043439798 0.19639747 0.44214943 0.7804733 0.27419195 0.053926 0.37877503 0.4585889
-0.64191955 0.48968914 -0.51563907 0.19115995 -0.2340223 0.3784439 -0.07544032 0.19682454
-0.6669565 -0.4079877 -0.39515528 0.37299743 0.72364026 -0.84882826 -0.27319255 0.5337577
-0.15791543 0.29444346 0.09303134 0.8155859 0.5875987 0.7244726 0.21347196 -0.37868986
0.13643402 -0.2731836 -0.37704277 -0.43903518 1.0852953 0.43063492 -0.7290049 -0.097534426
1.0234193 0.578745 -0.22173125 0.35383898 -0.01317576 0.3525001 0.54135853 0.6463257
0.5631376 0.7497334 -0.3625699 1.01294 0.03820455 0.5904741 0.9463543 -0.7888136
0.7767095 -0.22858608 0.052354064 1.2755662 0.012435222 0.36187884 0.72184545 0.089237176
0.5651965 0.8714267 -0.4877699 1.1218734 0.7211263 0.006077689 -0.36583647 -0.0533048
-0.012025395 0.47973844 0.25355065 0.27571326 -0.57535625 0.015801566 0.09898458 0.1316745
0.42418608 0.059636086 -0.10016535 0.2515722 0.3317326 -0.21941844 -0.019749573 -0.22990564
-0.21864088 0.52774036 0.53706867 -0.12511654 0.81450534 0.37938112 0.8187534 0.21662956
-0.47668844 0.8385314 -0.5296546 -0.6606205 -0.48529294 -0.22348015 -0.11070197 0.3270051
0.023590846 -0.30403528 -0.4740297 -0.5212712 0.7602567 -0.111216135 -0.005985277 -0.112545185
-0.40337572 -0.6529855 0.3042681 0.47741947 -0.21648735 0.2393508 0.2651734 0.13776784
0.45516667 -0.042673573 0.27935022 1.1522166 1.0687882 -0.032261323 -0.2171629 0.26424003
0.021428475 1.5428249 0.2216752 -0.04713728 0.6114961 -0.099515714 -0.0058798613 0.48484576
-0.57237285 -0.58545476 0.0052785976 1.2978231 0.043648027 0.01790575 -0.39748767 -0.048273522
-0.18725526 -0.051301092 -0.09703868 0.14011262 -0.264726 0.03321734 0.15015373 0.037768032
-0.92521584 -0.5281977 -0.03200706 0.18065374 -0.07679187 0.5977037 -0.1189931 0.04850699

lstm.weight_hh_l0 f4 [392, 98]
00000000: 57f7 853f 3109 4a3e 6591 5c3e c598 633e
00000010: bb6f 63be 91dc dc3e a622 a9be c785 ea3d
00000020: e685 843e 0c82 3a3e 0499 0dbf 0466 a2be
00000030: d0d7 9c3c 544e 0bbd 8ba4 21be 5c71 1e3f
00000040: 2fb7 513e 5bee 36be a59a 833e dfb7 85be
00000050: 24bd 9cbd 8cae ec3e 253f 973e a812 193e
00000060: 3671 533e 572c 1e3f 4aa1 96be e86d 5cbe
00000070: f511 ebbe 07b3 f83e 0272 b53e b62e 943e
00000080: 54dc 95bb 761a 2ebd ab74 f03e 8b84 28be
00000090: f409 33be e234 a0be 64fc 5abe 737d 26be
000000a0: ad2a cb3e 840a 9b3e d244 0dbe 157d 793e
000000b0: 8ab8 773e c89d 1f3e 07fc 003e e0d4 833d
000000c0: 80a7 b23e 0a7f 8dbb 02d8 a2bd 8417 09be
000000d0: 43dc 1f3d f9e4 e5be 50c8 9bbe 76f7 2f3e
000000e0: a052 38bf 9b9e 343c ac68 cebe 706b 90be
000000f0: 9e43 af3e b9c0 f5bd af86 d63d 037d c33e
00000100: 3f1c eb3e 0fa6 8cbd 8d82 873e 7998 1b3f
00000110: b8cc 23bf a41c 0ebc 93d3 cebe 202e 10be
00000120: f3c4 9dbe f59e 0a3e baa0 35bf 231f 68bc
00000130: 0494 5abe 400e 073e 2787 08bf 3ae4 84bd
00000140: 5610 403e f799 923e 4d8a 01bf 8be3 49be
00000150: ac32 433e a651 a4be e77d 6bbd bdd9 73bf
00000160: 2140 8a3e 4efe 223e bbab 483f 9c03 043f
00000170: 9800 21bf 898a eebd 7b13 163e 1107 00bc
00000180: 68ea ad3d a35a a53e 8552 70be 07e5 873e
00000190: 63f7 e6be ddff 78be 14ab adbd 4590 16be
000001a0: bd4c 14be 4e11 dd3e 03d7 0fbf b8da 0b3e
000001b0: c38a 54be 9743 82be bdd1 923d c0fb e8bd
000001c0: 0a81 a5bd ccd8 f8bd bca5 f1be cc9c b1bd
000001d0: d4ab 18bf b965 2b3f 4025 ca3e fe8b bd3e
000001e0: 04f7 1c3e 95f5 213f edbd 4d3d 26a2 593c
000001f0: fada 543c 5bdc 433e 6f56 26be c462 dc3d
00000200: 801d 07bf 3310 2b3e 667d d93e ecbd 0a3e
00000210: eb47 803e 4977 81be d753 22be 59aa abbe
00000220: 42d7 b73d bbd2 12bf 359f 24be 9b21 f43e
00000230: fc3e 983d 90b4 3abe cd9c 28be 7a40 113e
00000240: 9ada 3ebc 9a20 453d 16b2 1c3f 595c 9f3e
00000250: 2ad5 b03e de57 d3be 5649 693e f7c6 d8bd
00000260: 73e0 4b3e 2986 3dbe 65ce b7be 3f87 8dbe
00000270: 79f8 92be 5ef4 ad3d bc34 e1bd 2efb 1fbe
00000280: c1d9 a13e 1f6f 123f 881e 4ebc 35e8 8abe
00000290: bae8 993e 011e 05bf 7e4e 03be 70d6 a53e
000002a0: b268 d5be 7977 fbbc d391 1abf b636 9a3e
000002b0: 29d7 c83e 84c0 563c 8431 06bf 1c64 61be
000002c0: f893 0a3f 421b 60be ac23 2a3d 5c32 f43d
000002d0: 98f9 b5be d5b8 69be 43fc 853d 7f5f 6abe
000002e0: e339 86bd 06c3 d53d 827b 093f 7f4b 91be
000002f0: 0618 80bc e116 4d3d 11a8 80be d49d f7bc
00000300: 9e25 eabe a41e 52be ef78 fa3c 671d b53d
00000310: 4feb 16be a143 6fbf caad 0c3e ef96 c13e
00000320: fd8f 033f df77 133e fcf3 723d 8e98 423f
00000330: 090d acbd 2601 e63e de68 ddbe d11c 87bd
00000340: 6b8e 81be 588d 87be 4374 323f 9c51 ffbe
00000350: dd07 3e3e b541 21bf 771d d33b cfe7 7ebe
00000360: 3550 f43d 9d3c 85bd 1cdc 9e3e ba22 923e
00000370: b9ac 33be d587 81be 5302 d9be 2b5b babe
00000380: 5b78 62be f476 1fbe c285 3e3d 1a65 243e
00000390: 3003 6bbe 9d87 ea3d b802 713e eda2 573f
000003a0: 16d3 b93d 97d0 00be 8c00 62bf 60c7 c33e
000003b0: 3b5c b83d ab4d 693e 6f28 19be 1da5 1fbe
000003c0: 4a4c f63c 40d9 0abe 0b91 943e 52a1 b43e
000003d0: 7f0f 1b3e 0ac2 40be 6e5c 153f 82c9 e1bb
000003e0: 2b88 f8bd 9cff 97be b5ca 3ebb e62a 97be
000003f0: 544a 16bf 372e 47be 03e0 863d 091b c23c
1.0466107 0.19730069 0.21539839 0.22226246 -0.2221059 0.4313703 -0.33034247 0.11451297
0.25883406 0.18213671 -0.5531161 -0.31718457 0.019145876 -0.034010246 -0.15785424 0.6189172
0.20480035 -0.17864363 0.25703922 -0.26116845 -0.07653263 0.4622692 0.29540363 0.14948523
0.20648655 0.6178641 -0.2941993 -0.21526301 -0.45912138 0.48574087 0.35438544 0.28941888
-0.0045733843 -0.042505704 0.4696401 -0.16456811 -0.17484266 -0.31290346 -0.21385342 -0.16258793
0.39680997 0.3028146 -0.13795784 0.24364121 0.2419149 0.15587533 0.12596141 0.06437087
0.34893417 -0.0043181228 -0.079513565 -0.13387877 0.039028417 -0.44901255 -0.30426264 0.17184243
-0.72001076 0.011024143 -0.40314233 -0.28206968 0.34231275 -0.119996496 0.104749076 0.38181314
0.45919988 -0.06867611 0.2646679 0.6077953 -0.6398425 -0.008673821 -0.40395793 -0.14080095
-0.30814323 0.135372 -0.70948374 -0.01416758 -0.21345526 0.1318903 -0.53331226 -0.06488843
0.18756232 0.2863309 -0.50601655 -0.19715707 0.19062299 -0.32093543 -0.057493117 -0.9525412
0.2700205 0.15917322 0.7838704 0.5156801 -0.6289153 -0.11647517 0.14655869 -0.007814185
0.08491975 0.32295713 -0.23468979 0.26541921 -0.45110616 -0.24316354 -0.08479896 -0.14703472
-0.14482398 0.43177265 -0.56187457 0.13657653 -0.20756058 -0.25442192 0.07168911 -0.113761425
-0.08081253 -0.12150726 -0.47196758 -0.08672485 -0.5963719 0.6695209 0.39481544 0.37020868
0.15328604 0.63265353 0.050229955 0.013283288 0.012991661 0.19127028 -0.1624391 0.107610255
-0.5277939 0.16705398 0.42478484 0.13549012 0.2505487 -0.2528632 -0.15852295 -0.33528402
0.08976604 -0.573528 -0.16076358 0.4768189 0.07433888 -0.18232942 -0.16466065 0.14184752
-0.011648798 0.048126794 0.6120924 0.31125143 0.3453763 -0.41277975 0.22781882 -0.105848245
0.1990984 -0.1850821 -0.35899654 -0.27642247 -0.28705195 0.08493875 -0.109963864 -0.15623161
0.31611446 0.5720081 -0.012580521 -0.27130285 0.3006037 -0.5199891 -0.12822911 0.32390165
-0.4168144 -0.030696617 -0.6037876 0.30119866 0.39226654 0.013107423 -0.52419305 -0.22010845
0.5413203 -0.21885398 0.041537926 0.11923668 -0.35541987 -0.22824414 0.06542256 -0.22887991
-0.0655401 0.104375884 0.5370408 -0.2837791 -0.015636455 0.050070647 -0.25128224 -0.030226626
-0.45731825 -0.20519501 0.030575244 0.08843499 -0.147382 -0.9346257 0.1373817 0.37810466
0.51391584 0.14401196 0.059314713 0.7601403 -0.08400924 0.4492275 -0.4324407 -0.06597293
-0.2530397 -0.26475024 0.6970865 -0.4986695 0.18557687 -0.62990886 0.0064427215 -0.24893115
0.11929361 -0.06505702 0.31027305 0.2854212 -0.17546357 -0.25298944 -0.42384586 -0.3639768
-0.22116224 -0.15572721 0.04651428 0.16054192 -0.22950435 0.114516474 0.23536193 0.8423298
0.090734646 -0.1257957 -0.88282084 0.3823805 0.090019666 0.22783534 -0.1495683 -0.1559033
0.030065674 -0.13559437 0.2901691 0.35279328 0.1514263 -0.1882402 0.5834416 -0.0068904767
-0.12135347 -0.29687202 -0.0029112522 -0.29524916 -0.58707166 -0.19451223 0.065856956 0.023694532

lstm.bias_ih_l0 f4 [392]
00000000: fd79 c9be b989 18be af75 6dbd 9156 6cbe
00000010: 2e08 7dbd 942a c1bd 822c 04bf 0edb 3cbe
00000020: c432 f13e 7757 07bd 05e7 96be 6487 e0bc
00000030: 9a68 883d 8c19 593e a604 adbd 4079 eb3d
00000040: b38f 34bf 6241 0bbf 271e 4ebe d74a 6dbe
00000050: edd0 8fbe 0ab3 94be c1e8 cdbd f514 353d
00000060: fb01 bbbd 82f9 86be e5a5 ddbd ace1 91be
00000070: 2a4a c1bd 209f 95bd 3a22 aebe 0c39 2ebe
00000080: d12f a43d 6e41 52be e2ee 5bbe 901d a2be
00000090: 642a 1a3b 6371 8fbd 7f57 eabc 0b08 cdbd
000000a0: b636 babe 7b58 64be e98c 763c 9a41 a9bd
000000b0: 0b2f b5be ecf3 61bd b0bc 483d 397c 67be
000000c0: ccd4 6dbe 10c8 f3bd 473f 11be 5e6b bebe
000000d0: 6e7f a2bd f4c8 98be b933 39be 9f4e 25bd
000000e0: e4e2 2dbe c0ec d9be 4002 5abe 209b a5bd
000000f0: 5495 8cbe 787c 09bc a472 5abe 4506 84be
00000100: 1f09 06be 6494 ecbd 128e 64be 1213 fabe
00000110: 6e19 103e e447 8e3d 0435 8ebe 15e2 a3bd
00000120: 388b 50be 175e f6be 57aa 793c c4b5 a8be
00000130: ea45 273d 40b0 223e b2e8 d1be 6fd7 be3d
00000140: 7999 adbd 7b3a babe adf6 a5be 9b9b f1bd
00000150: 3dfe 43be 47ff 9abd 1287 bbbd 6ef6 e1be
00000160: 4812 5ebd 0156 a4be 24dd dbbe 7d0a 9ebe
00000170: f7ca ed3c 7916 8abe ebdc b0be 955a c0be
00000180: 514a debb de6f 6bbe e9d1 043e f628 3d3e
00000190: ec4e f33d b063 50bd f68c 863d a3cd 6bbe
000001a0: 619d 033e 5719 393e e77a cdbe b036 12be
000001b0: 2ff5 bb3e 4eaa 823e b82a 903c b88d 273f
000001c0: 5be0 3c3e 8fdd a03c a9c9 0a3e bc75 aa3e
000001d0: 8dd9 193e c7c7 973d 1cdb 053e 225c 8ebd
000001e0: 3b1d 403f d09b d13d a323 2abd 6009 a9bd
000001f0: e18c bd3d ed31 ba3d e5c6 893b 548d 3b3e
00000200: 4eae 8f3e 549c 413e 5428 3cbe a908 86bd
00000210: 2f58 4e3e 9140 773e 2e93 153e 3e5e 403d
00000220: 5e0b 963d 7503 49be 39cc 943e 1798 05bd
00000230: f77c 463e cd6a 6cbd a6f6 fb3d 8bbd 44be
00000240: ff2d 873e 2c50 273e 2f85 263c 310f a73d
00000250: 8792 453e a990 1f3e 710c a93d 16e1 503e
00000260: ffaf d93d e8ee a73d dcb0 8f3e 772a d43e
00000270: 2a26 073e d8a9 45bd 67b0 573d 5bcd 2ebe
00000280: e7e8 4e3e 1190 f7bd a6a4 783d 7d54 2c3e
00000290: c698 ae3e b543 1c3f bbab 61bd fb5d 22be
000002a0: 83c5 20bd baca a3bd b173 f43e 1574 263e
000002b0: 58a2 1bbd d1eb aebd 4af8 253e 4785 563d
000002c0: ec90 0f3e 879b 773e d788 323e 9bea 113e
000002d0: 480d 3cbe b50a 963e c3fc 0fbd 76f5 1f3e
000002e0: a816 bcbd 626a 16be cab2 a63d 77a7 433c
000002f0: bcc0 50be ab2f 883e 0653 463e 72a3 a73e
00000300: 3d01 2f3e aff3 823e 26ba 623e b085 403e
00000310: 3738 923d 61ca c63c b787 243d ec74 46be
00000320: bfc5 ae3c 3780 4b3d 6092 73bd 5125 a93c
00000330: bc3c a53c c04c 173e 09f9 ad3c 1ecc e93a
00000340: 0a46 7abd c766 393e 89e2 d5bd dcf2 973d
00000350: 0a0c b6bd cf54 bcbd 4543 993d 2593 093e
00000360: 93c5 a2be 1e63 b03d 07c9 1abe a42f a73d
00000370: cd04 b1bc 6942 693d 6f60 e0bd 6747 6d3c
00000380: 8a4b 5ebe a407 2c3d e854 da3c 27b3 0bbd
00000390: a6bb 4b3d a4ca f03d ab1a 19bd 405a 1abe
000003a0: d6c7 e2bd 54de d9bd 2508 c5bd 5a83 e3bb
000003b0: 464e e23d 58ee cd3c b1ea 5e3d 4c6b fa3c
000003c0: 1c20 dabd 2c2e f0bd 76eb 5abb 1503 91bd
000003d0: 584d 2b3d 2eb1 8abd 51cb 773d 8e90 cdbd
000003e0: 6211 8bbc dad7 6f3d 6d62 04be d95e 0f3e
000003f0: 50af 333d 248e 753d 1ec4 56be 4feb 02be
-0.39350882 -0.14896287 -0.05797356 -0.23079897 -0.06177538 -0.09431949 -0.51630414 -0.18442938
0.47109044 -0.033042397 -0.2947313 -0.02740831 0.06660576 0.21201152 -0.08448152 0.11497736
-0.7053177 -0.5439664 -0.2012869 -0.2317308 -0.28089085 -0.29042846 -0.1005416 0.04420944
-0.09131237 -0.26362234 -0.108226575 -0.28492486 -0.09437974 -0.07305741 -0.34010488 -0.17013949
0.08016933 -0.20532772 -0.21477845 -0.3166318 0.0023523802 -0.07004049 -0.028606175 -0.100113
-0.36369866 -0.22299378 0.015048244 -0.08264466 -0.35387453 -0.055164263 0.04900807 -0.22605981
-0.23225707 -0.11903393 -0.14184295 -0.3719129 -0.079344615 -0.29840815 -0.18086137 -0.040358182
-0.16981083 -0.42563438 -0.21289921 -0.08086228 -0.27457678 -0.008391492 -0.21332794 -0.25786033
-0.13089417 -0.11551741 -0.2231982 -0.48842674 0.140722 0.06947306 -0.27774823 -0.08002106
-0.20365608 -0.4811866 0.015238366 -0.32951176 0.04083816 0.15887547 -0.40997845 0.093184344
-0.08476538 -0.36372742 -0.3241476 -0.117972575 -0.19139953 -0.075682215 -0.09156622 -0.44133323
-0.054216653 -0.32096866 -0.42942154 -0.30867377 0.029027445 -0.2697027 -0.34543547 -0.3756911
-0.0067837615 -0.22991893 0.129707 0.18472657 0.118802875 -0.05087632 0.06569855 -0.23027663
0.12853004 0.18076073 -0.4013283 -0.14278674 0.36710498 0.25520557 0.017598495 0.6545062
0.1844496 0.019636897 0.1355349 0.3329295 0.15024395 0.074111514 0.13071865 -0.06951167
0.750446 0.10234797 -0.041537892 -0.08253741 0.09255386 0.09091554 0.0042046183 0.18315631
0.2806267 0.1890729 -0.18374759 -0.065446205 0.20150827 0.24145724 0.14606926 0.046964876
0.07326387 -0.19630225 0.2906206 -0.032615747 0.19383608 -0.05771904 0.12302904 -0.1921293
0.2640228 0.16339177 0.010163589 0.081571944 0.19294177 0.15582527 0.08254326 0.20398363
0.10629272 0.081998646 0.2806462 0.41438648 0.13198152 -0.04825768 0.052658465 -0.17070524
0.20206033 -0.12088025 0.060703896 0.16829105 0.34100932 0.6104081 -0.055095416 -0.15856163
-0.03925086 -0.079976514 0.47744516 0.1625522 -0.03799662 -0.08541072 0.16207996 0.052373197
0.14020127 0.24180423 0.17435013 0.14249651 -0.18364441 0.29305044 -0.03515316 0.1562098
-0.09184009 -0.1468902 0.0813957 0.011941782 -0.20386022 0.26598868 0.19367608 0.32741886
0.17090316 0.2557654 0.22141322 0.18800998 0.071396284 0.024266424 0.04016849 -0.1938054
0.021334527 0.049682822 -0.059465766 0.020647677 0.020170562 0.14775372 0.021236913 0.0017837321
-0.06110195 0.18105613 -0.10443599 0.074193686 -0.08889015 -0.091958635 0.07483534 0.13435037
-0.31791362 0.08612655 -0.15115748 0.081633836 -0.021608735 0.0569481 -0.10955893 0.014482356
-0.21708503 0.041999474 0.026651815 -0.0341064 0.049739502 0.11757401 -0.03737895 -0.1507349
-0.11073272 -0.10638109 -0.09620694 -0.0069431486 0.11050086 0.025138065 0.054423038 0.030568741
-0.106506556 -0.117275566 -0.0033404506 -0.07080666 0.041821808 -0.067720756 0.060496632 -0.10037337
-0.016976062 0.05855546 -0.12928171 0.14001025 0.043868363 0.05995001 -0.2097325 -0.12785076

lstm.bias_hh_l0 f4 [392]
00000000: df59 a9be 1b50 b0be 2cc8 48be 0cc2 76be
00000010: 5e5d 7abd 4304 65be 2994 adbe dff3 00be
00000020: a554 ff3e 2582 c9bd 0537 bcbe 49e5 b1bc
00000030: b268 2f3e f056 203e fe46 b6bd d499 f63d
00000040: caba 0dbf 4974 dbbe 76f2 4dbe 3505 9cbe
00000050: f422 94be 3cd3 87be 9aba ebbd 9208 9bbd
00000060: 96b3 1dbe 3943 89be aa3f 163d 39c5 93be
00000070: 40d5 e0bd 9ec1 92bd 9271 d2be d636 4bbe
00000080: c6d9 4e3c ec83 93be 9f21 50be 9daf f4be
00000090: 891e a7bd fe4c e8bd ba24 ab3c d461 2ebe
000000a0: 23c9 e1be 16c8 38be 71c5 a9bd 0cdd 22be
000000b0: 43f1 a6be 979c 373c fc96 213c caa6 04be
000000c0: 6aca 8bbe 6a1e 0cbd 92b9 b5bd 9381 04bf
000000d0: ec3f 89bc 865a 68be 5cb4 04be 1a30 4ebd
000000e0: b384 47be 2620 d2be fd4d 4abe 6fb9 7dbd
000000f0: 411a e2be 5503 543d a367 8dbe 041a c0be
00000100: 8548 d4bd 8473 b9bd c06f 1abe 2854 e4be
00000110: 031f b23d bf08 e63d 719f b9be 05b7 20be
00000120: b596 a7be d526 b9be 379a 23bd 324b 92be
00000130: 82d3 413e ff10 423e f8de cfbe a99b 053d
00000140: 63d0 c6bd c9fa a9be d65c e7be 9d19 88bd
00000150: e70b 38be bade ca3c 8df6 3ebd 933a 85be
00000160: 81fb e1bd 7138 84be 7eee b2be 662c 6abe
00000170: 0490 2b3c 3985 bebe f2fe 94be b3f5 b4be
00000180: dd22 053e b430 4dbd 189f e0bc de25 413e
00000190: b984 483e 1fd7 823a e07b a13d ca88 5fbe
000001a0: 90ec e23d 73a9 913e af2b 99be 4bc0 d3bd
000001b0: 86ab 8a3e 4949 ac3e fddf f53c 4f91 3a3f
000001c0: 03fc 943e 6b2b e13d 09b7 f53d 3cf6 be3e
000001d0: 14f4 493e 2129 183e 8ba5 5c3e bef4 40be
000001e0: f19a 423f 1dab 053d cc22 f0bc da80 22be
000001f0: 4300 513d 7eae 163e 9408 e6bc 093a 173e
00000200: bdac 723e ab42 f23d 3738 0dbe d8e2 ba3d
00000210: e6ad 7b3e 7994 7f3e 6545 e03d dd48 053e
00000220: ba6f 2e3d 1534 87be ac71 b13e e2ea 7abd
00000230: 6b6c b73d 7c9f 72bb 4e35 263e 5e54 82be
00000240: 1388 123e 6420 823d 97e2 bc3b 404c a03c
00000250: 29f7 af3e 0288 923e 2e3b f83c ea34 5d3e
00000260: 9556 fa3c c71f 9e3a 05af b83e 3058 003f
00000270: 73ca 583c 9cdd 8f3c 06b9 413e 0084 17be
00000280: 81ab 813e 6fc0 21be f2c2 ed3d e870 8d3d
00000290: 3c64 7e3e 6355 213f b4a7 a3bd 538d 29be
000002a0: 4075 e73d b499 0ebd ff63 e23e 9e67 813d
000002b0: 5204 3f3d 2e80 d13c 58fc f43c a511 a1bd
000002c0: b9d6 d23d 1692 6c3e b39f 7e3e 714f c83d
000002d0: abc9 1fbe 5eb8 8c3e f132 1abd 07ae d93d
000002e0: e6ef 1dbe fbe9 80be 2c77 2e3c d164 dd3d
000002f0: a849 b4bd 9474 403e a7ad 243d a0b2 9f3e
00000300: 069e 2b3e eea8 d03e 8311 813e 7b14 b73e
00000310: eea2 b83c fb91 e4bc 184f da3d a69f 45be
00000320: a86f f93b 755f f03d bead 703b c525 36bc
00000330: 63a0 63bd 0ae1 773e 7497 953d d951 7dbd
00000340: 3c1c 58be 713c 723e 4444 2cbd 9143 763d
00000350: 144e e83c 0fef e6ba 5b7b 823d dc1b d73d
00000360: 89e0 f7bd afe6 003c d36b cbbd 31e6 823c
00000370: 75dc 033d 08df ab3d 83f8 1fbe c2fe 6b3a
00000380: 40bc a4be 4f6a a4bd 5958 913c dbe3 2fbc
00000390: a9c6 283e 7dec 8e3d ffa3 cabd f2c8 d4bd
000003a0: 7636 56be c75f d0bc ad3a 04bd 42e0 00bd
000003b0: 9603 063d 0dc2 dcbd 0bd5 8abd 134d be3d
000003c0: 8e2c 203c 8586 2ebc c2d0 dfbd 3b37 9abd
000003d0: dc22 6b3e 3de3 febd daa2 8e3c 20ff 2abd
000003e0: b1f1 223c fee6 4d3c 7378 ffbd f07c 0e3e
000003f0: b134 0fbd 66ef 0f3d 0357 fdbd 6868 96bd
-0.3307638 -0.34436116 -0.1960761 -0.2409746 -0.0611242 -0.22364907 -0.339021 -0.1259303
0.49869266 -0.09839276 -0.36760727 -0.021715777 0.17129782 0.15658164 -0.089002594 0.12041059
-0.5536314 -0.42862156 -0.20112023 -0.30472723 -0.28932917 -0.26528347 -0.11510201 -0.07569994
-0.15400538 -0.268091 0.03668181 -0.28861406 -0.10978174 -0.07165836 -0.41102272 -0.19845137
0.012625163 -0.28811586 -0.20325325 -0.47790232 -0.08160121 -0.1134281 0.020891536 -0.17029506
-0.44098768 -0.18045077 -0.08289612 -0.15904635 -0.32605943 0.0112067675 0.009862658 -0.1295425
-0.27302867 -0.034208693 -0.08873285 -0.51760215 -0.016754113 -0.22690782 -0.12959427 -0.050338842
-0.19484214 -0.41040152 -0.19756313 -0.06194442 -0.44160655 0.05176099 -0.2761813 -0.37519848
-0.103653945 -0.09055236 -0.15081692 -0.44595456 0.08697321 0.11232137 -0.36254457 -0.15694816
-0.32732168 -0.3616244 -0.039941993 -0.28572994 0.1892834 0.18951796 -0.405998 0.032619152
-0.09707715 -0.33199146 -0.45188016 -0.0664551 -0.1797329 0.024764407 -0.046621848 -0.2602125
-0.11034299 -0.2582431 -0.3494758 -0.22868499 0.010471348 -0.37211016 -0.29100758 -0.35343704
0.1300158 -0.050095275 -0.027419612 0.18862101 0.1958188 0.0009982324 0.078849554 -0.21829525
0.11080277 0.28449592 -0.2991614 -0.10339411 0.27083987 0.33649662 0.030014032 0.72877973
0.2909852 0.109946094 0.11997802 0.37297237 0.19722015 0.1485944 0.21547525 -0.18843362
0.7601767 0.03263389 -0.029313467 -0.15869465 0.05102564 0.14715001 -0.028080262 0.14768232
0.23698707 0.11829122 -0.13790976 0.09125298 0.24578056 0.24958982 0.10950736 0.13016076
0.04258702 -0.26406923 0.34657037 -0.061259158 0.08956226 -0.003702133 0.16231272 -0.25454992
0.1430972 0.06353834 0.0057643163 0.019567609 0.34368256 0.2861939 0.030301657 0.21602216
0.030558864 0.0012063914 0.3607103 0.50134563 0.013231861 0.017561726 0.18918237 -0.14796448
0.2532616 -0.15796064 0.116094485 0.06906301 0.24842924 0.63020915 -0.07990971 -0.16557817
0.113016605 -0.03481455 0.44216916 0.063185915 0.04663498 0.025573816 0.029905483 -0.078646936
0.10294861 0.23102602 0.24865608 0.09780777 -0.15604274 0.2748441 -0.037646238 0.10628896
-0.15423545 -0.25178513 0.01064853 0.10810245 -0.08803111 0.18794471 0.04020467 0.31190968
0.167595 0.40753883 0.25208673 0.35757813 0.022538628 -0.02790164 0.10659617 -0.19299182
0.0076121874 0.11736957 0.0036724652 -0.011117403 -0.05557288 0.2420694 0.07304278 -0.061845634
-0.2110452 0.23655869 -0.04205729 0.06012303 0.028357543 -0.0017618852 0.063711844 0.10503361
-0.121033736 0.007867499 -0.09932675 0.015978904 0.032192666 0.08392149 -0.15622143 0.00090025004
-0.32174873 -0.08028089 0.017742323 -0.010735477 0.16482033 0.069787 -0.09894561 -0.1038989
-0.20919213 -0.025436295 -0.03228252 -0.03146387 0.032718264 -0.107792 -0.06778916 0.092920445
0.009776248 -0.010652189 -0.10928489 -0.075300656 0.22962517 -0.12445686 0.017411638 -0.041747212
0.009945319 0.01256728 -0.12474146 0.13914847 -0.03496236 0.035140418 -0.12370112 -0.07344133

fc1.weight f4 [9, 98]
00000000: 5215 1f3d 1ad7 323f 5822 f1bc 30dd 133e
00000010: 42f8 cbbe ea2c abbe 95a3 30bf 2cd3 8bbe
00000020: 3a6b 01bd 5ee4 ab3e e3eb 383f 75cc 303f
00000030: a901 25be c782 923d a254 563d 26bd 973e
00000040: ad94 b03e 74a2 62bb b3a6 e9be ba05 853d
00000050: d985 ea3e 2196 133f e336 3e3e 2d95 86bd
00000060: 32a5 61bf d81c 81be 60d0 5cbd b39e d4bd
00000070: 8559 56bf a335 a6be 6f20 44bf 37a2 5fbd
00000080: 5400 be3e 50ce 8abd be7c 83be 6a4f c43c
00000090: 8b28 383d 410d a93e e789 d7be df06 913e
000000a0: 59be dcbe 2a46 5bbe 895d 623e 32b0 8cbe
000000b0: 1765 003e 8031 9abf e355 23bf 21ac dabe
000000c0: c0dc 73be babc 29be a718 84bd f07c 4cbc
000000d0: 1a75 9a3c f64f 0f3f 0da3 87be e3ed 27bf
000000e0: f317 e7bd faa4 65bf 14d9 723e c5a3 d53b
000000f0: 4060 3abd 6c0d 0dbf 68ff 06bd 495c 41be
00000100: d4ea b3be 01a6 0bbf 7d4f a03e 52d9 5cbd
00000110: abcd b13d 9a8e 25bf a947 00bf c51d 98bd
00000120: 68e7 553d 8398 9bbd 0a98 a6bd 8b88 4c3e
00000130: ea2c 253f c633 3e3e 133f 8a3e dcdf 583f
00000140: ed52 db3e c73d db3e 4a04 98be 5214 d4be
00000150: 1204 cfbd 800f b53e 17ff ac3d 06d7 b9bf
00000160: 9c00 703d cf0d 43bf 22e4 a4bf 6542 84be
00000170: bd44 61bf e304 433f 585d 80be afd3 883e
00000180: de28 573e fd22 6f3e 298e 21bf 93d4 9a3c
00000190: 1a46 5abf 3f2e ef3e 4dbe 623e 4a4c c0be
000001a0: 42b3 9ebd 09c8 aa3e 524e a0bf 6ed3 0b3f
000001b0: 3424 d93c dbb2 83be 4443 983f 948b 0cbe
000001c0: bfe8 f03e 8922 1dbe 9e11 a7be 5fd1 0b3e
000001d0: e0c6 a03d 94b3 b73e fec0 373f 5664 0fbf
000001e0: 8649 ffbd 51f7 56be 331a 7dbe 3f5a e7be
000001f0: 8d5b 133e ad5b 67be dd69 ee3b ec93 093e
00000200: 6864 afbe 9722 cabe bc33 f0be 9cc5 583f
00000210: 6b37 a53e a5b0 9b3f e7b0 ff3e bcb2 54bf
00000220: 965f 2c3e e727 4c3e 0ed3 9ebe a459 6d3d
00000230: 17d9 003e f344 13bf aca2 01bf 9cf7 94be
00000240: 6b05 b0bd 61f1 37be b0ce d83d 33c1 94be
00000250: 4ac4 eebd 2e8a 433e dd67 96be 6c51 6d3e
00000260: c050 95bb 7dc2 6d3e ab39 d73d e3f4 da3d
00000270: 8478 933e e366 773d 5b18 85bd c3fa 59bf
00000280: cb07 8c3d 3f36 fbbe 8a7b 87bd 47bd ca3e
00000290: 3233 8d3e 0bb3 acbf a47a d3be f30d a23e
000002a0: 4252 8e3f 9f55 9a3f 797e 2b3f ae3c 91bd
000002b0: dfe6 a5be 637e f13d 79bd c73e 50e3 113f
000002c0: 1bde 48bf 10f2 a8be 7049 4a3f a708 7d3e
000002d0: b88c 09bf d63f 5b3e 7f2f 2cbe 5f14 003f
000002e0: 0a7f 9f3f 4efa 14be 72b3 d4be b584 98bc
000002f0: 919f 61bf c312 c03c 2051 c83e 0b40 4f3e
00000300: 1873 c33d b8fe f4bd c340 f9bd 23b5 a0bd
00000310: dfa6 f13d 6e6f cabf 2a73 103f 8b52 0fbf
00000320: c60a 58bf 9690 3f3f d17e 4b3e aa5a f3be
00000330: fd67 24be ab30 d23f 28df 263d 5d3c 84be
00000340: 54d5 a1bf e365 493e faf8 8ebe 4543 3ebf
00000350: 579c 983d e0ce 3d3e 3565 6fbe 69c6 9abb
00000360: 19f5 883d 52b2 853d 9722 2bbd 006d afbe
00000370: 9390 f53d 8e2b 6d3e 8e84 59bf 8b56 14be
00000380: e6f5 51be 7645 1abf 0a35 c13b 3dea 3e3f
00000390: f295 07bd e74f aa3e ce15 80bf 68d3 dcbf
000003a0: 950f a0be 9a10 073e 3fe2 8ebc da73 b73d
000003b0: f43b a73e b680 cdbf cff5 1c3f e28b af3f
000003c0: 166f e63e 6e48 aabe b156 603e 2868 54bf
000003d0: 063b 6d3e b3b4 a03e 148e 2bbe 8124 95bc
000003e0: c592 74be 4a8b 7ebe 3943 2cbe 8184 20bd
000003f0: 9a29 3dbf c4ab f43e 9cbf 3ebf 29d0 503f
0.038838692 0.6985947 -0.029435322 0.14439845 -0.39837843 -0.33432704 -0.68999606 -0.2730955
-0.0315964 0.33572668 0.72234935 0.69061977 -0.16113915 0.0715385 0.052326806 0.29636496
0.3448843 -0.0034581693 -0.45634994 0.06495233 0.45805243 0.57650954 0.18575625 -0.06571422
-0.88142693 -0.2521732 -0.05390966 -0.10381832 -0.83730346 -0.32462797 -0.7661199 -0.05459806
0.37109625 -0.06777632 -0.25681108 0.023963649 0.04496054 0.33017924 -0.420974 0.28325555
-0.43113974 -0.21413484 0.22105993 -0.27478176 0.12538563 -1.2046356 -0.6380293 -0.4270945
-0.23814678 -0.165759 -0.064500146 -0.012480959 0.018854667 0.55981386 -0.26491585 -0.6559736
-0.11283865 -0.8970486 0.23715621 0.006519767 -0.045501947 -0.55098605 -0.032958418 -0.1888286
-0.35140097 -0.54550177 0.31310645 -0.05391819 0.08681806 -0.6467072 -0.50109345 -0.07427553
0.05222264 -0.07597449 -0.08134468 0.19973962 0.6452166 0.18574437 0.27001247 0.8471658
0.42836705 0.4282057 -0.29690772 -0.41421753 -0.10108198 0.35363388 0.08447092 -1.4518745
0.05859433 -0.76192945 -1.2882121 -0.25831905 -0.8799551 0.7617933 -0.25071216 0.26724002
0.21011683 0.2335319 -0.63107544 0.018900191 -0.85263216 0.4671497 0.22142906 -0.37558204
-0.077490345 0.3335574 -1.2523901 0.5461949 0.02650652 -0.25722393 1.1895528 -0.1372512
0.4705257 -0.15345205 -0.32630628 0.13654087 0.078504324 0.35879195 0.7177886 -0.56012475
-0.12465195 -0.20992781 -0.24717025 -0.4518604 0.14390393 -0.22593565 0.0072758035 0.13435334
-0.3425629 -0.39479515 -0.4691447 0.8467653 0.32268843 1.2163283 0.49939653 -0.83085227
0.16833338 0.19937097 -0.31020397 0.057946816 0.12582813 -0.57527083 -0.5063884 -0.2909516
-0.085947834 -0.17963172 0.105862975 -0.2905365 -0.11658533 0.1909568 -0.29376116 0.23175591
-0.0045567453 0.23218723 0.10509046 0.1069124 0.28802884 0.060400855 -0.06498786 -0.85148257
0.06837424 -0.49064824 -0.0661536 0.39597532 0.2757812 -1.349214 -0.41304505 0.31651267
1.1118853 1.205738 0.66989857 -0.07091652 -0.32402703 0.117916845 0.39011744 0.56987476
-0.78463906 -0.3299718 0.79018307 0.24710332 -0.53730345 0.2141107 -0.16814993 0.50031084
1.2460644 -0.14548609 -0.41543156 -0.018617967 -0.88134104 0.023446446 0.39124393 0.20239274
0.09543437 -0.11962646 -0.121705554 -0.07847049 0.11799406 -1.5815256 0.56425726 -0.55985326
-0.8439144 0.74829996 0.19872595 -0.4753011 -0.16055293 1.6421102 0.040740162 -0.25827304
-1.2643228 0.19667773 -0.2792433 -0.74321395 0.074516945 0.18535948 -0.23378451 -0.0047233594
0.06687374 0.065281525 -0.041781034 -0.34262848 0.11990466 0.23161146 -0.8496789 -0.14486139
-0.20503959 -0.6026224 0.0058962153 0.7457617 -0.033101983 0.33264086 -1.0006654 -1.7252016
-0.31261888 0.13189927 -0.017441867 0.08957644 0.32662928 -1.6054904 0.61312574 1.3714564
0.45006627 -0.33258384 0.2190807 -0.8297143 0.23167047 0.31387863 -0.16753417 -0.018205883
-0.23884113 -0.24857822 -0.16822518 -0.039188866 -0.73891604 0.47787297 -0.7451112 0.8156763

fc1.bias f4 [9]
00000000: 4f4c 7cbd 8c5e d53d fd59 e3bd 54a4 c1bd
00000010: 0c99 bfbd 1432 c03b 42ba e73d 36d8 24bb
00000020: b4d2 3abe
-0.06159621 0.10418424 -0.11101148 -0.09455171 -0.09355363 0.005865345 0.11314823 -0.0025153286
-0.1824444

exp_avg f4 [392, 1]
00000000: 4519 073b 1f9d f4bb e733 48bb a5e6 db39
00000010: f439 1abb 3d32 f8ba b00c 8bba b689 5d3a
00000020: c704 b5ba 9f69 ccba f09c c6bc 39bb 293a
00000030: 5ae1 643b 8084 033b 6e61 293a fb79 6c3a
00000040: 8f6d 4dbb 583c 20b9 f217 2fb9 634b debb
00000050: e081 15bc d62d 86ba 93e8 453b 4e33 6a3b
00000060: 4b33 483a 961c bf3b ae91 3e3b bdeb 94bb
00000070: 829b 7a3a 77e9 15bc 0ec4 f8ba 74ea 6c3c
00000080: 930d aa3b 2037 273c d8ea 29ba 952a 24bc
00000090: 7322 2ebb 01e3 a1bb 28d7 acbb 7a8d d03b
000000a0: 7dce b23c 11fa a0bb b127 9439 1cb3 ecbb
000000b0: a499 cf3a a181 783b 9865 903b 91df f1bb
000000c0: 1416 d5ba 74c7 1a3b eb5d 0bbb 6fc8 3eb9
000000d0: a8fd be3a 2243 1438 58cb 453c 255b 9b3b
000000e0: 84e9 e8ba 4230 033c cd25 1cbc 5947 b03b
000000f0: 0ae4 923c 604f 6f3b 09e1 b5bb baf5 00bc
00000100: e0ce 8ebc e13a b93b a5d1 b5bb 79f7 a5bc
00000110: 18c0 82bc 108c 25bc af33 063a feb7 973b
00000120: 7a0f ebbc 7639 8cbc b11d bb3c e771 bdbb
00000130: 65eb 1f3b 3229 053b 3d79 1dbc 0dee 303a
00000140: 6783 9e3b 1aa8 8bbc afa1 7d3c a567 7cb9
00000150: 54d5 193c afef 4e3c 80ab 583b ed92 843a
00000160: 347c aebb e870 a0bb a408 d33b b5e0 943c
00000170: 102b cdba aee1 173c 1f9b d9bb 4092 0dbc
00000180: 4f24 23bb 5586 4fba 495a 193b 97ae 1ebc
00000190: 196b e337 2d11 2cbc 8b79 a8ba cddf 7bba
000001a0: 5ebb abb8 1a0d 74b9 791c 6538 1d42 0f3b
000001b0: f308 f03a fd62 5539 bf8e 4c3a d338 85bb
000001c0: 242b 9839 18bf 88bb 1024 be3a 4352 963b
000001d0: b2d6 a9bb 4972 d53b 6865 393c d44d 3cb9
000001e0: 6f65 cfb9 1795 a33b caf3 273b 9946 ef3b
000001f0: d4d8 4eba f6a6 03bb 6d56 a8ba 3b12 39bb
00000200: 4616 bc3b 0fb6 613c 860b 23bb 58ea 853b
00000210: a4d1 493a f208 9dba 282d 33bc 06be 53bb
00000220: be8f 5e3a c4df 4dbc 5e34 0ebb 2c41 00bc
00000230: abca 54ba 0d7a 3f3a 7a25 ab3b 66c7 b23a
00000240: c4f9 fc3b de24 c23a 19fa 1a3c 2ac1 b9bb
00000250: 3c71 14bb 2dc2 9dba ae30 a7ba dcf6 93b9
00000260: e05b 9c3b 5143 df3a c83f 4b3b 139a c83a
00000270: fba0 6cbb 3e13 f839 f47d 693b 9013 0c3b
00000280: c790 c0bb c733 203a 28ad 37bb 74fe 21bb
00000290: 83ee 073b 7d14 c7b9 4d6f 1fbc a31a 76bb
000002a0: dcae e939 e5dc 9d3b a164 40ba 70ff cbbb
000002b0: 496b 6d3c 0478 70bc b2e5 483b 9178 813a
000002c0: 1842 c8bb 5d29 2b3b 0e07 8d3b e049 563b
000002d0: 49a5 0b3b 7c2b 0a3b 5d5e 613b 47e8 6b3a
000002e0: 62c9 b93b cdc2 59bb 1154 d63b aebe e2bb
000002f0: 8b44 8fb9 1897 913b 122c 3638 5830 d4ba
00000300: d2f4 03bb 6803 2abb c5c0 05bb fd9e 38b8
00000310: e7b9 4c3c 1333 52bb 5e36 933c ad0a 653c
00000320: b14f e83a d7ef 4abc ecd7 6b3b b778 b33b
00000330: 09f4 9d3b 8347 463c 07d5 b13c 50e2 4739
00000340: 1cf8 f9ba 9d21 723c 5ea4 5cbb c623 df3a
00000350: d415 1cbd 5447 8dba d681 6fbc 5e40 383d
00000360: 5d2c 12bd 8a70 da3b f42c 7c3b dde1 d13c
00000370: b007 c63a 34d2 15bc db38 80b7 c10a 45bb
00000380: e3a2 dd3c 1b8d 97bc 4689 76bd f9df a03b
00000390: 5039 d439 10fd 903b 0a11 db3a 5244 563c
000003a0: 8b96 873b 087b 24bc 09b6 bb3b eac1 7abc
000003b0: 7058 e9bc 8ba8 1abb 2a8f 93bd 3e23 62bb
000003c0: 15cb 8abc 38d4 1fbd c558 54bd 0dc7 e83c
000003d0: e6b1 babc 1a7a 4e3d 2e54 b33b 13bc 553a
000003e0: 5fbc 063d 4563 a3ba 3cfa 4f39 0978 913b
000003f0: 19dd 163d e376 dd3c 5e42 983c 887d 403a
0.0020614427 -0.0074650194 -0.0030548514 0.0004194278 -0.0023533078 -0.0018935871 -0.001060864 0.00084510015
-0.0013810628 -0.0015595442 -0.024244756 0.0006474737 0.003492436 0.002006799 0.00064613565 0.0009020862
-0.003134582 -0.00015281269 -0.00016698221 -0.006783889 -0.009125203 -0.0010237049 0.003019844 0.0035736146
0.0007637038 0.005832265 0.002907853 -0.0045447038 0.00095599156 -0.009149901 -0.0018979327 0.014460195
0.0051896065 0.010206014 -0.0006481833 -0.010019918 -0.0026570826 -0.004940391 -0.005274672 0.0063645216
0.021826977 -0.0049126227 0.00028258332 -0.0072235 0.0015838635 0.0037919062 0.004406642 -0.0073813875
-0.001625719 0.0023617418 -0.0021265696 -0.0001819448 0.0014571445 3.5348472e-05 0.012072407 0.00474109
-0.0017769788 0.008007111 -0.009530497 0.005379599 0.017931003 0.0036515817 -0.005550508 -0.007871086
-0.01743263 0.005652771 -0.005548673 -0.020259606 -0.015960738 -0.010104194 0.0005119396 0.004630088
-0.028693903 -0.017117243 0.022841306 -0.0057814005 0.002440178 0.0020318744 -0.009611425 0.00067493395
0.0048374417 -0.01704793 0.015480443 -0.00024071203 0.00938924 0.012630387 0.0033061206 0.0010114588
-0.0053248648 -0.004896272 0.006440239 0.018173555 -0.0015653092 0.009270115 -0.0066408063 -0.008640826
-0.0024893468 -0.00079164404 0.0023399761 -0.00968518 2.711038e-05 -0.010502142 -0.0012853605 -0.0009608239
-8.188815e-05 -0.00023274534 5.4624372e-05 0.0021859475 0.0018313214 0.00020350139 0.0007803253 -0.004065612
0.00029023841 -0.004173171 0.0014506597 0.004587443 -0.0051830644 0.006513868 0.011315681 -0.0001795807
-0.0003955769 0.004992138 0.0025627487 0.007302117 -0.0007890586 -0.002008853 -0.001284314 -0.0028239626
0.00573996 0.013776316 -0.0024878695 0.004086774 0.00076987804 -0.0011980815 -0.010936059 -0.0032309308
0.0008490047 -0.012565557 -0.0021698694 -0.007828038 -0.0008117358 0.0007304259 0.0052229734 0.0013639748
0.007720204 0.0014812013 0.009459042 -0.005668779 -0.00226505 -0.0012036018 -0.0012755597 -0.0002822195
0.0047716945 0.0017033612 0.0031013358 0.0015304707 -0.0036106694 0.00047316583 0.0035628052 0.0021373965
-0.005876634 0.0006111231 -0.0028026793 -0.0024718316 0.002074153 -0.00037971503 -0.009731126 -0.0037552498
0.00044571504 0.0048175924 -0.00073392136 -0.006225519 0.014490911 -0.014677051 0.0030654487 0.000987785
-0.0061113946 0.0026117184 0.0043038195 0.0032697842 0.0021308234 0.0021083048 0.003438852 0.00089991506
0.0056697587 -0.0033227683 0.006540783 -0.0069197034 -0.00027326154 0.0044430606 4.3433225e-05 -0.0016188724
-0.0020134938 -0.0025941972 -0.002040909 -4.4017088e-05 0.012495494 -0.00320739 0.01797026 0.013979596
0.0017723945 -0.012386284 0.0035986854 0.005477037 0.004820351 0.012102011 0.021708025 0.00019062427
-0.0019071135 0.014778522 -0.0033667306 0.0017024211 -0.038106754 -0.0010778704 -0.014618358 0.04498326
-0.03568684 0.0066662477 0.0038478943 0.025620395 0.0015108492 -0.009144355 -1.5285264e-05 -0.0030066224
0.02705521 -0.018499902 -0.060189508 0.004909512 0.00040478492 0.0044246987 0.0016713452 0.013077812
0.004137819 -0.010039099 0.0057284874 -0.015305022 -0.028484553 -0.0023598995 -0.07205041 -0.003450587
-0.01694254 -0.039020747 -0.05184247 0.028415227 -0.022789907 0.050409414 0.0054726815 0.00081533304
0.03289449 -0.0012465498 0.00019834278 0.004439358 0.03683195 0.027034229 0.018586334 0.00073429244

exp_avg_sq f4 [392, 1]
00000000: 2744 433b 67e1 0e3b 772f 083a cca6 a13a
00000010: d2fa 813a 76aa 0a39 24ed 5538 8d7e 5739
00000020: 3998 133b 671c 593a 8a0c 9c3c 2945 2438
00000030: 5610 6639 9088 e43a 1e98 9039 df93 b139
00000040: edb7 653b 9fb8 5b3b a34e 0e3b d360 b83a
00000050: 4424 fa3b 8af1 9639 757a bc39 8927 7e3b
00000060: 1976 943a c2d0 7f3a a455 ba39 5641 863a
00000070: 685a 4f3a ea3d cd3b 7453 c83b e761 4e3a
00000080: 6423 453a fb2f 983a 785b c83a 2028 9a3a
00000090: f7b0 373a 1ca4 e139 ad6a d33a 4c9c 633a
000000a0: 542a 773c 8b27 903a f241 073a 4bae 233a
000000b0: c752 423b 603f 983a 579a c039 de4a 463a
000000c0: 0eab 7639 6359 573a 221d 383a fe04 a23a
000000d0: 004e 2c3a 4439 0339 9a26 263a bec1 883a
000000e0: 2346 bb3a 3d0a 373c c563 473a 84ca 623a
000000f0: 4658 9b3a 20ba 0239 1c9b 773a 6a40 1f3a
00000100: 31bd f03c 6b22 d43a 608c ea3a 61d0 843d
00000110: 0bc4 353b 4e33 3f3a afce 823a d15e 7639
00000120: 0e11 a53c e20b 853a 7878 f23b 62a8 383a
00000130: 98f1 c439 fb41 3b3a 7ca8 c53b e382 733a
00000140: 4852 443a b56c 2d3b 95f4 4c3a 52bb fb38
00000150: 6fc7 cf3b 3723 2b3a 13eb 343a c3bc a33a
00000160: 299f af3a 0537 243a 3d4e 0e3b 05c1 c33b
00000170: 1640 fe39 66e9 343b 07ad f63a beea 1b3b
00000180: 31b4 553a 22b2 2b39 0546 4b3a c8d1 843a
00000190: 6c7e 5839 ac03 7f3a 26e2 5239 dd5b 8038
000001a0: f42f d337 46bf 1139 e880 943a 2d3b 513a
000001b0: b0c4 173a 4fd1 1f38 e463 8f38 a6f2 7c3a
000001c0: 4d5b 0939 0966 8339 0ef2 5239 3808 6a3a
000001d0: 5d9d b739 b33d 703a 0898 483b 849b 9038
000001e0: 7a03 1a37 9194 3c3b 5c05 113a 74b4 c939
000001f0: 160f 8f38 195f 2339 b930 f939 17f0 873a
00000200: e274 a23a 92e2 a439 79d1 7f39 e5d1 cc39
00000210: 1ede ca39 0ffd 553a 4ceb 663a 532e 9939
00000220: 6328 5f39 fabe d33a 47ea 0f3b 6fdc 1b3a
00000230: ffbb 5a3a c853 263a 73a2 d139 01fc ca39
00000240: 9bcd 9c39 4794 b739 2569 4139 e349 813a
00000250: 1396 293a 6165 0a3a cfa4 373b d63e f937
00000260: 1ba2 f439 0b3f 333a 794b 373a a91e b13a
00000270: 9f9d ac39 7af7 c139 b98b ab39 da33 8238
00000280: a0ea 183a ec91 a839 d94f a13b 49fa 3c39
00000290: f04c 2239 6d47 303a 746b 1d3b 8d8a 3039
000002a0: f1cc cd39 7430 de38 c251 b43a 55fc 8339
000002b0: 294d cd3a b530 0b3a b039 9939 43ec 1f39
000002c0: 2e15 0e3b e6f9 253a a38e 053a 501c bd39
000002d0: 2677 3239 2081 cd38 f639 ad3a 67dc e739
000002e0: 2a1b 473a bbae 9139 07c3 143a a75b 0a3a
000002f0: eff3 d139 8a21 603b f0b5 2b39 6431 043a
00000300: 311c 683a 5110 133a 9e8f 0139 7883 cb38
00000310: 1fb9 993d 77cf 713b 276e 163b 6f0c bf3c
00000320: 52fb 2e3b aad1 623d 57ac 773a 1264 8f3a
00000330: fe2b 993b f3dd 553c 6497 1c3d 31d3 1e3c
00000340: b208 4b3b ffe7 b13d 09da a83c 2088 183b
00000350: a747 b43c 3e1c 733b 3ecc 4a3c 084b 583d
00000360: a08f 113e d471 033b aa06 433b ee25 113d
00000370: 4006 f23a 9a3e 343c d0ac a03b cf0c 7e3b
00000380: cb58 503c 07a9 153c ee41 cc3c 4fa7 1a3c
00000390: f72f 473c b4e2 d93b 29fc 093c c62f 2c3d
000003a0: 0573 2b3c c3a1 023c 18b1 fe3c 6df8 ba3c
000003b0: 91fb b43c f771 3a3c ad98 d63c f5a6 853c
000003c0: b2b6 553d 7712 cf3c 54b4 1b3d cad5 533c
000003d0: d0ce b13b 3694 733c 2298 2e3c 621e 8c3b
000003e0: 7c19 773c 11f6 f03a bdda 183c 73cc aa3b
000003f0: c0f1 3c3c 92c3 e13b c6e6 323c bd26 253c
0.002979526 0.002180183 0.0005195061 0.0012333035 0.0009916669 0.00013224207 5.100401e-05 0.00020551142
0.0022521152 0.00082821253 0.019048948 3.9165057e-05 0.00021940595 0.0017435718 0.00027579156 0.00033870243
0.0035052255 0.003352679 0.0021714352 0.0014066942 0.0076337177 0.0002879019 0.00035949392 0.003878089
0.00113267 0.00097585854 0.00035540492 0.001024286 0.0007909895 0.0062634842 0.006113464 0.0007872865
0.0007520227 0.0011610979 0.0015286049 0.0011761226 0.0007007266 0.00043037615 0.0016129814 0.0008682653
0.015085775 0.0010998113 0.0005159668 0.0006243928 0.002965139 0.0011615567 0.00036736086 0.00075642567
0.00023524111 0.0008214919 0.0007023384 0.0012361107 0.0006572902 0.00012514467 0.00063381495 0.0010433716
0.001428787 0.011171875 0.00076061144 0.0008651393 0.0011851869 0.00012467103 0.00094454153 0.0006074967
0.029387088 0.0016184574 0.0017894618 0.064850576 0.002773526 0.0007293717 0.0009979809 0.0002349571
0.020149734 0.0010150636 0.007399615 0.0007044134 0.00037564035 0.0007143316 0.006032048 0.0009289218
0.00074890675 0.00264625 0.0007818428 0.00012003504 0.006340913 0.000652838 0.0006901484 0.0012492168
0.0013398874 0.0006264302 0.0021714114 0.0059739375 0.00048494403 0.0027604937 0.0018819877 0.002379104
0.0008152156 0.0001637419 0.0007754269 0.001013332 0.00020646461 0.0009728025 0.00020111408 6.1206265e-05
2.517549e-05 0.00013899532 0.0011329921 0.0007981535 0.00057895016 3.8103488e-05 6.8373774e-05 0.00096491945
0.0001309935 0.0002506229 0.00020117333 0.0008927616 0.00035021725 0.00091644673 0.0030608196 6.895422e-05
9.179925e-06 0.0028775076 0.00055321096 0.00038472156 6.821581e-05 0.00015580318 0.00047529282 0.0010371235
0.0012394453 0.00031449326 0.0002439673 0.00039066296 0.00038693933 0.0008163014 0.00088088657 0.00029216948
0.00021281982 0.0016154938 0.0021959709 0.0005945628 0.00083440536 0.0006344882 0.0003998462 0.000387162
0.00029907827 0.00035014955 0.00018445084 0.0009863939 0.0006469201 0.0005279389 0.0028021818 2.9712373e-05
0.00046660085 0.0006837702 0.00069921423 0.0013513166 0.00032923833 0.00036996213 0.00032719763 6.208541e-05
0.00058333017 0.00032152177 0.0049228487 0.00018022316 0.00015478185 0.00067245105 0.0024020346 0.00016836282
0.0003925334 0.0001059481 0.0013757276 0.0002517427 0.0015663254 0.0005309687 0.00029225415 0.00015251436
0.0021680105 0.0006331488 0.0005094802 0.00036069984 0.00017019789 9.799213e-05 0.0013216126 0.00044223966
0.00075952953 0.0002778674 0.00056748133 0.00052779395 0.0004004533 0.0034199678 0.00016375608 0.000504276
0.00088542985 0.00056100363 0.000123559 9.704282e-05 0.07506012 0.003689734 0.002295384 0.023321358
0.0026700092 0.055375732 0.0009447983 0.0010939857 0.0046744337 0.013053405 0.038230315 0.009693907
0.0030980525 0.08686828 0.02061178 0.0023274496 0.022006823 0.003709569 0.012377797 0.05280593
0.14214945 0.002005686 0.002975861 0.035436563 0.0018464997 0.0110012535 0.0049034134 0.0038764959
0.012716482 0.009134538 0.024933781 0.009439304 0.012157432 0.0066493396 0.008421936 0.042037748
0.0104644345 0.007973137 0.031090304 0.022823537 0.022092612 0.01137971 0.026195848 0.016314963
0.052176185 0.02527736 0.03801377 0.012929389 0.0054262653 0.014866879 0.0106563885 0.004276083
0.01508176 0.001838388 0.009329495 0.0052123605 0.011532247 0.006889769 0.0109192785 0.010080037
