models/cfv/mmkfcv4.pth (torch, 490360 bytes, 18 tensors)

lstm.weight_ih_l0 f4 [392, 1]
0	0x3bac67fe	0.0052614203
1	0x3da17d7d	0.07885263
2	0x3ee67d84	0.45017636
3	0x3e0347ac	0.1282031
4	0xbe780513	-0.24220686
5	0x3f475b61	0.7787381
6	0x3c2a2cb2	0.010386633
7	0x3f453a95	0.77042514
8	0xbdb7a0ef	-0.089662425
9	0x3f1319e4	0.5746138
10	0x4003b9c9	2.0582144
11	0xbf131487	-0.574532
12	0x3db527be	0.08845471
13	0xbecf49c2	-0.4048596
14	0x3f4f8967	0.81069034
15	0x3e8e811f	0.27832887
16	0x3ea47c95	0.321263
17	0x3f3b93fd	0.7327269
18	0xbe5c52b8	-0.2151593
19	0xbcf8d50e	-0.03037503
20	0xbf27f657	-0.6561026
21	0x3edc8f72	0.4307819
22	0xbe45d5dc	-0.19319862
23	0x3d699a22	0.057031758
24	0x3edffef5	0.43749204
25	0x3d753bf7	0.05987164
26	0x3e2c9705	0.16854484
27	0xbfbfbfa8	-1.4980364
28	0x3e04288b	0.12906091
29	0x3e6d6585	0.23183258
30	0x3f0c36c6	0.5477108
31	0x3ec12e22	0.3773051
32	0xbe9f1eee	-0.31078285
33	0xbefb2843	-0.49054155
34	0x3e9ef98f	0.31049773
35	0x3d36f4f0	0.044667184
36	0xbf70bbf4	-0.94036794
37	0xbe9f7bc1	-0.31149104
38	0x3f29e2e8	0.66361856
39	0x3e76a261	0.2408538
40	0x3f1c904b	0.61157674
41	0x3de4f6f4	0.11179915
42	0xbfad6b84	-1.3548436
43	0x3ec9a6f7	0.39385197
44	0x3eca37c7	0.3949568
45	0xbf48c57d	-0.78426343
46	0x3ef6c1c7	0.48194715
47	0xbf9b8cc9	-1.2152339
48	0x3c8ae581	0.01695514
49	0xbd369bba	-0.044582106
50	0x3e9629e2	0.2932883
51	0xbe7d9f26	-0.24767742
52	0xbe3bc2bb	-0.18336003
53	0xbf1b9ed0	-0.60789204
54	0xbda8fb40	-0.08251047
55	0x3d4102fa	0.04712198
56	0x3fa11f46	1.2587669
57	0x3d5f2d4d	0.05448656
58	0x3e3aed83	0.18254666
59	0x3e9012e3	0.2813941
60	0xbf106af5	-0.56413203
61	0x3f7755bd	0.966152
62	0xbe3d2b36	-0.18473515
63	0x3f95fed4	1.1718392
64	0xbfdfa5d9	-1.7472488
65	0x3efb02f1	0.49025682
66	0xbd519f1d	-0.051177133
67	0x3f64bb65	0.8934844
68	0xbf46bf31	-0.77635485
69	0xbd8f7895	-0.07005421
70	0x3e1874ab	0.14888255
71	0xbd40e04b	-0.047088902
72	0xbe41e77e	-0.18935964
73	0xbeb4cd2c	-0.35312784
74	0x3e2e9151	0.17047621
75	0x3e78f118	0.2431072
76	0x3f03f809	0.51550347
77	0x3e7fab8c	0.24967784
78	0xbd87562b	-0.06608232
79	0x3f3a7119	0.72828823
80	0x3eff08aa	0.49811298
81	0x3e264a1d	0.1623921
82	0x3daa1471	0.0830468
83	0xbe7429df	-0.23844098
84	0xbfb1a4d8	-1.3878431
85	0x3d38df4c	0.045134827
86	0x3ea426ba	0.32060796
87	0x3df468ab	0.11934026
88	0xbbfcedbb	-0.0077187694
89	0x3d25d90f	0.040490206
90	0x3e659f46	0.22424039
91	0x3f156966	0.5836395
92	0x3ed744cb	0.42044672
93	0x3f8c36ac	1.0954185
94	0xbea58813	-0.3233038
95	0xbea17c56	-0.31540173
96	0x3e517f7d	0.20458789
97	0xbf041b81	-0.5160447
98	0xbe83a9c7	-0.25715467
99	0x3e6d3520	0.23164797
100	0x3f202809	0.6256109
101	0xbdafdbe9	-0.085868664
102	0x3e9c4be0	0.30526638
103	0x3efe6e50	0.49693537
104	0x3e0d60e4	0.13806492
105	0x3e4eb78a	0.20187202
106	0x3ed41a65	0.41426387
107	0xbf26e126	-0.651873
108	0xbf034ea3	-0.51291865
109	0x3d4d6ef6	0.05015465
110	0xbc984f4f	-0.018592505
111	0x3d34b073	0.044113588
112	0x3ea8dead	0.32982388
113	0xbe3b97a1	-0.1831956
114	0x3e87436e	0.26418632
115	0x3efd0faa	0.49426013
116	0x3e039efa	0.12853613
117	0x3e9d1c60	0.3068571
118	0x3ecb89e5	0.39753643
119	0x3e89ff53	0.2695261
120	0xbe043546	-0.12910947
121	0x3df4ef44	0.11959699
122	0x3d69eb8d	0.057109404
123	0x3dcdbb83	0.10045531
124	0x3e1e016f	0.15430234
125	0xbe889cbe	-0.26682085
126	0xbe76bae0	-0.24094725
127	0x3d79fab3	0.0610301
128	0x3e87bfd4	0.2651354
129	0xbdad1374	-0.08450976
130	0xbeaf2692	-0.34209114
131	0xbf5a3627	-0.8523888
132	0x3ef1e45b	0.47244534
133	0x400fd7d5	2.2475483
134	0xbf28533a	-0.65751994
135	0xbe8136a9	-0.25237015
136	0xbeae4686	-0.3403818
137	0xbe10721f	-0.14106034
138	0x3f17129a	0.5901276
139	0x3f5e76e3	0.86900157
140	0xbea2267b	-0.31669983
141	0x3e856d84	0.26060116
142	0xbe8ff405	-0.2811586
143	0xbe94edc0	-0.2908764
144	0x3ef3d6d3	0.47624835
145	0xbf1f825d	-0.62308294
146	0x3ee5dffd	0.44897452
147	0x3f282334	0.65678716
148	0x3f0660c1	0.52491385
149	0x3d5f677e	0.054542057
150	0x3f364473	0.71198195
151	0xbd8b56df	-0.06803679
152	0xbe210abf	-0.15726756
153	0x3e40ac13	0.18815641
154	0x3f1a150c	0.60188365
155	0x3e5a29c3	0.21304993
156	0x3f13aab0	0.57682323
157	0x3d19c52f	0.037541565
158	0xbf067da2	-0.5253545
159	0xbe8dd1cb	-0.27699122
160	0xbc78c8c4	-0.015184585
161	0x3e0de31e	0.1385617
162	0xbee9c095	-0.4565474
163	0x3f672e7f	0.9030532
164	0x3d9258ee	0.07145868
165	0x4026241f	2.5959547
166	0x3f1e0ec6	0.6174129
167	0x3ede0f6a	0.43371135
168	0xbdf91538	-0.1216225
169	0x3ef54e78	0.4791143
170	0xbe3cf10d	-0.18451329
171	0xbf823c30	-1.0174618
172	0xbd9ae5ad	-0.075633384
173	0x3f033b0a	0.5126196
174	0x3ec807aa	0.39068347
175	0x3eecc2d7	0.462424
176	0x3d0496c9	0.032370362
177	0x3f132834	0.5748322
178	0x3ec5b722	0.38616282
179	0xbd9729d4	-0.07381025
180	0x3d3018c4	0.04299237
181	0xbaf3cb6f	-0.0018600057
182	0xbf1354fb	-0.57551545
183	0x3ebd28d0	0.369452
184	0xbad3c421	-0.0016156473
185	0xbe4d3a99	-0.20041884
186	0xbe728edb	-0.23687308
187	0x3e3d62a3	0.18494658
188	0x3ed6ddf5	0.41966215
189	0x3edaba47	0.42720243
190	0x3efa09e3	0.48835668
191	0x3ec19d0a	0.37815124
192	0xbc430cb8	-0.011904888
193	0x3ee9b899	0.4564865
194	0xbc1ee797	-0.00969877
195	0xbe8a3aca	-0.26997977
196	0xbe2800d0	-0.1640656
197	0xbe006ca5	-0.12541445
198	0x3de52c9a	0.11190148
199	0x3d8e279d	0.069411494
200	0x3e0c9ef3	0.1373251
201	0xbef14d1e	-0.47129148
202	0xbeb8ed26	-0.3611843
203	0xbf803352	-1.0015662
204	0x3e7d00c7	0.24707328
205	0xbf06784e	-0.5252732
206	0x3f8dbcb7	1.1073216
207	0xbf88b100	-1.0679016
208	0xbdded1b3	-0.10879841
209	0xbf1a4a0b	-0.6026923
210	0xbd6070ad	-0.054794956
211	0xbe161a8e	-0.14658567
212	0x3d48ac1a	0.048992254
213	0xbed69f33	-0.41918334
214	0xbe04c509	-0.12965788
215	0x3e2aa3a4	0.16663986
216	0x3f2ef44f	0.68341535
217	0xbddda130	-0.1082176
218	0x3e8f1bf9	0.2795103
219	0x3f219a61	0.6312619
220	0x3c23e0d9	0.010002338
221	0x3d2d0168	0.04223767
222	0x3d00ac9b	0.03141461
223	0xbf6f8a3d	-0.9357031
224	0x3c9ea024	0.01936347
225	0x3f83a059	1.0283309
226	0x3d55988e	0.05214744
227	0x3e197ee3	0.1498981
228	0xbe7fa471	-0.24965073
229	0x3f3108d7	0.69154114
230	0xbd85261e	-0.06501411
231	0x3e825dac	0.2546209
232	0xbef8fc74	-0.48630106
233	0xbf268bf7	-0.6505732
234	0xbedafa40	-0.4276905
235	0x3dbd5919	0.0924551
236	0x3e8faed6	0.28063077
237	0x3d086bfd	0.03330611
238	0xbf8f41e8	-1.1191988
239	0xbec10381	-0.37697986
240	0x3fccddce	1.600519
241	0xbe9ba6a6	-0.3040058
242	0x3ed51b12	0.41622216
243	0x3f372433	0.7153961
244	0xbd7f9ef8	-0.062407464
245	0xbebb9dfa	-0.36643964
246	0x3d931bbe	0.07183026
247	0xbf025d56	-0.5092367
248	0x3ea26641	0.3171864
249	0xbee95486	-0.455723
250	0xbe41d990	-0.1893065
251	0xbcac71e0	-0.021050394
252	0xbec599f8	-0.3859403
253	0x3d63765b	0.055532794
254	0x3c913d4f	0.01772943
255	0xbedf113f	-0.43567845

lstm.weight_hh_l0 f4 [392, 98]
0	0xbeac930f	-0.33705947
1	0xbe74aa1b	-0.23893015
2	0x3e624235	0.22095568
3	0x3ebbec1d	0.36703578
4	0xbeafb432	-0.34317166
5	0xbec0964e	-0.37614673
6	0xbe073efd	-0.13207622
7	0xbe3b0d34	-0.18266755
8	0x3d8dd7f8	0.069259584
9	0x3d039fd2	0.03213484
10	0xbe2fd8a0	-0.1717248
11	0x3e297e12	0.16551998
12	0xbe1cc481	-0.15309335
13	0x3f41983b	0.7562291
14	0xbf0533db	-0.5203225
15	0x3ee494b0	0.4464469
16	0xbec9a2f6	-0.39382142
17	0xbe758b8f	-0.23979019
18	0xbf189188	-0.59597063
19	0xbe37b3ab	-0.17939632
20	0x3e282926	0.16421947
21	0xbdc13bb4	-0.094352156
22	0xbd8f52d5	-0.06998221
23	0xbf23484c	-0.6378219
24	0x3ee40ba7	0.4454014
25	0xbe811585	-0.2521173
26	0x3e9e6c09	0.309418
27	0xbef69d83	-0.48167047
28	0xbe04b250	-0.12958646
29	0xbeb4d54d	-0.35318986
30	0x3bdd3c4e	0.0067515736
31	0x3ed7b5ab	0.4213079
32	0xbf11c5cc	-0.5694244
33	0xbdc0853d	-0.09400413
34	0x3ef4feda	0.47850686
35	0xbd02c1f4	-0.03192325
36	0x3e15d553	0.14632158
37	0x3e4e37cf	0.20138477
38	0x3c4bb3b3	0.01243298
39	0xbdfac41a	-0.12244435
40	0x3cb56a44	0.022145398
41	0x3e862c7b	0.2620581
42	0xbeabb3ea	-0.335357
43	0x3d9fa762	0.077955976
44	0xbf141035	-0.5783723
45	0xbf7e3c14	-0.9931042
46	0xbe70ea37	-0.23526846
47	0x3da15c1c	0.078788966
48	0xbcfb0f87	-0.030647052
49	0xbe7b47fe	-0.24539182
50	0xbdf695df	-0.120403044
51	0x3f0a0a4b	0.53921956
52	0xbf27b511	-0.6551066
53	0x3e08578e	0.1331465
54	0x3f206438	0.6265292
55	0x3e8bbd9a	0.27293092
56	0xbedf9682	-0.43669516
57	0x3ea66906	0.32502002
58	0xbf121c0a	-0.57074034
59	0xbec344d6	-0.38138455
60	0x3ec9fe8a	0.3945201
61	0x3d6b920c	0.057512328
62	0xbef3ea24	-0.47639573
63	0xbe6c3ed9	-0.2307085
64	0xbf85017d	-1.0391079
65	0xbf0e1635	-0.55502635
66	0x3ce67b53	0.028134977
67	0xbe17e32a	-0.1483275
68	0xbf05704c	-0.52124476
69	0xbea7f867	-0.32806703
70	0x3ef96e70	0.4871707
71	0xbe702048	-0.23449814
72	0x3ee2173d	0.44158354
73	0xbf191d88	-0.59810686
74	0x3eaafa8c	0.33394277
75	0xbf21d503	-0.63215655
76	0x3dd0c35d	0.101935126
77	0x3f216502	0.6304475
78	0xbe50afc8	-0.20379555
79	0x3e3630e6	0.17792091
80	0xbebd15d9	-0.3693073
81	0x3eb7b94f	0.35883567
82	0xbe889669	-0.26677254
83	0xbf0deba2	-0.5543767
84	0xbec158a2	-0.37762934
85	0xbee9f2aa	-0.4569295
86	0xbf393334	-0.72343755
87	0xbe65084f	-0.2236645
88	0x3e853403	0.26016244
89	0xbece0bf6	-0.402435
90	0xbded62b6	-0.11591093
91	0xbe70089d	-0.23440786
92	0xbe9f58bb	-0.31122383
93	0xbf400ca0	-0.75019264
94	0xbe8f35f6	-0.27970856
95	0xbe3cb000	-0.18426514
96	0xbe433f31	-0.19067074
97	0xbe8a7401	-0.2704163
98	0x3f1a6a0b	0.6031806
99	0x3ecdac90	0.40170717
100	0xbe153a6c	-0.14573067
101	0xbe94d6ac	-0.29070032
102	0x3e409020	0.1880498
103	0x3de8a76a	0.11360057
104	0xbdd2e7fb	-0.10298153
105	0x3ea67a05	0.3251497
106	0xbe116b48	-0.14201081
107	0xbe93991a	-0.28827745
108	0xbcac475f	-0.021030126
109	0x3d8ce3ec	0.0687941
110	0x3deb5f7f	0.11492824
111	0x3ebeb364	0.3724624
112	0x3e3cc81e	0.18435714
113	0xbee1a62a	-0.44072086
114	0x3e2a9b30	0.16660762
115	0x3cbec417	0.023286862
116	0x3d4f7758	0.050650924
117	0xbdcae584	-0.09907058
118	0x3b6ef666	0.0036462783
119	0xbd96e8aa	-0.07368596
120	0x3e606ba9	0.21916069
121	0x3ef6d47e	0.48208994
122	0xbdfceda7	-0.12350016
123	0xbd789bd4	-0.060695484
124	0x3eb00bd8	0.34384036
125	0x3ec67580	0.3876152
126	0xbb9d7c27	-0.00480606
127	0x3d79ddaa	0.06100241
128	0x3e173eb5	0.14770015
129	0x3e8b6177	0.27222797
130	0xbd12ad3e	-0.035809748
131	0x3e4bb996	0.19895014
132	0xbe347504	-0.17622763
133	0x3e2a55ee	0.16634342
134	0xbdf72f21	-0.12069536
135	0xbd76810f	-0.060181674
136	0x3d05818a	0.03259424
137	0xbec7b34a	-0.39003974
138	0xbf0c8861	-0.548956
139	0x3e325a4c	0.17417258
140	0x3d3de4b6	0.046360694
141	0xbf03561d	-0.51303273
142	0xbf10726e	-0.56424606
143	0xbe0c2a47	-0.13688003
144	0x3e772db5	0.2413853
145	0xbe32a87f	-0.17447089
146	0x3db7a2c9	0.08966596
147	0x3d1508db	0.0363854
148	0xbdd5e28d	-0.10443602
149	0x3e6cc828	0.23123229
150	0xbe7ee407	-0.24891673
151	0x3e3cf1a8	0.1845156
152	0x3e5b249e	0.21400687
153	0x3e28e60f	0.1649401
154	0x3e8b74bc	0.272375
155	0x3ed2ef67	0.41198274
156	0x3eca60b2	0.39526898
157	0x3e1953b5	0.14973338
158	0xbda82a2f	-0.08211171
159	0x3e5b39d4	0.21408778
160	0xbd114035	-0.035461623
161	0xbec2505e	-0.3795194
162	0xbdf310fa	-0.118684724
163	0x3deb6846	0.11494498
164	0xbed5c618	-0.41752696
165	0xbe9219d6	-0.28535336
166	0xbe9dbeaa	-0.30809528
167	0xbd213ab3	-0.03936262
168	0xbea493fe	-0.3214416
169	0x3d2c2fe1	0.04203785
170	0xbeee90d2	-0.46594864
171	0xbe08d7c2	-0.13363555
172	0x3ec799fb	0.38984665
173	0xbe34b6b1	-0.17647816
174	0x3ca03c3b	0.01955997
175	0x3e217970	0.15768981
176	0x3d961de5	0.07329921
177	0xbdcf79ed	-0.10130677
178	0xbecf2345	-0.40456596
179	0xbe25d304	-0.16193777
180	0x3dab20e0	0.0835588
181	0x3e970f8b	0.29504046
182	0xbbc3d58b	-0.005976384
183	0x3e2680b0	0.16260028
184	0x3ede7385	0.4344751
185	0xbf3e6111	-0.7436686
186	0x3eba2063	0.36352834
187	0x3d88b639	0.06675381
188	0xbea42d84	-0.32065976
189	0xbdcf820f	-0.101322286
190	0xbe362f8a	-0.17791572
191	0x3e2a7d19	0.16649283
192	0x3e439049	0.19098009
193	0x3efa844d	0.48929062
194	0xbea54b14	-0.32283843
195	0xbe1741d5	-0.14771207
196	0xbe8e1f87	-0.27758428
197	0xbea15dd0	-0.31516886
198	0xbf0a753a	-0.54085124
199	0x3ea5c7ac	0.323789
200	0xbd29e589	-0.041478667
201	0x3dffda87	0.12492853
202	0x3e08a456	0.13343939
203	0x3e416b10	0.18888497
204	0x3e4d7a06	0.2006608
205	0x3e3031b7	0.17206465
206	0xbe73cbfe	-0.23808286
207	0xbe4fcc0c	-0.20292681
208	0xbe589427	-0.21150266
209	0x3c173ac2	0.009230318
210	0x3efdbf31	0.4955993
211	0x3cfca26c	0.030839168
212	0xbe85b86c	-0.26117265
213	0x3da80d92	0.08205713
214	0xbeb8858b	-0.36039385
215	0xbdb85613	-0.09000792
216	0x3ee0598a	0.43818313
217	0x3e2e080c	0.16995257
218	0xbe1a76c7	-0.15084372
219	0xbe9edb0b	-0.31026492
220	0x3e87a0ba	0.26489812
221	0x3ea35f26	0.3190853
222	0xbf0d9b22	-0.5531484
223	0xbe84010c	-0.2578205
224	0x3dd55793	0.10417094
225	0x3eb7e06b	0.35913405
226	0xbdbcb1c6	-0.09213595
227	0x3e0129ca	0.12613598
228	0x3dbf994f	0.09355413
229	0xbefe3d17	-0.49655983
230	0x3d991707	0.07475095
231	0x3e1b1e64	0.15148312
232	0xbf082a50	-0.53189564
233	0xbd3e2e25	-0.046430726
234	0x3f027611	0.50961405
235	0xbf35f075	-0.71070033
236	0xbd9d1dcc	-0.07671699
237	0xbdb9435f	-0.09046053
238	0xbdb09981	-0.086230285
239	0x3e3016f4	0.17196256
240	0xbf06ee31	-0.527072
241	0xbd1ee0b3	-0.03878851
242	0xbf22baa2	-0.6356603
243	0x3bd8161b	0.006594432
244	0xbf2e264e	-0.680272
245	0xbe915291	-0.28383306
246	0x3e269626	0.16268215
247	0x3e532c95	0.20622475
248	0x3eb6969f	0.3566179
249	0xbcad2c42	-0.021139268
250	0xbd520db9	-0.05128262
251	0x3e3e7e69	0.18602909
252	0xbed645e3	-0.41850194
253	0xbe3f5668	-0.18685305
254	0xbd33b5ea	-0.04387466
255	0x3e810972	0.2520252

lstm.bias_ih_l0 f4 [392]
0	0xbeeabebf	-0.45848653
1	0xbe876bc2	-0.264494
2	0xbc9412e8	-0.018075421
3	0xbe9f80b2	-0.31152874
4	0xbe273406	-0.16328439
5	0xbd97848b	-0.073983274
6	0xbeef7711	-0.46770528
7	0xbe00210d	-0.12512608
8	0x3d5c62ac	0.05380504
9	0xbd92ad09	-0.0716191
10	0xbe835a8b	-0.25655016
11	0xbddfa83e	-0.109207615
12	0xbe5afd78	-0.21385753
13	0x3ec70c47	0.38876554
14	0xbe9746ae	-0.29546112
15	0xbd8c91a9	-0.0686372
16	0xbee01261	-0.43764022
17	0xbea933e1	-0.33047393
18	0xbec5bb90	-0.3861966
19	0xbe0cf70d	-0.13766117
20	0xbe2ae9f5	-0.1669081
21	0xbe455b7e	-0.19273183
22	0xbe9a35d1	-0.30119184
23	0xbe575553	-0.21028642
24	0xbe171568	-0.1475426
25	0xbe8df3f0	-0.27725172
26	0xbc28d44d	-0.010304523
27	0x3e15264e	0.14565393
28	0xbeb3c43f	-0.3511066
29	0xbd9d41aa	-0.0767854
30	0xbe1db11e	-0.15399596
31	0xbe5cd917	-0.21567188
32	0xbe66086e	-0.22464153
33	0xbd8488d2	-0.06471409
34	0xbe334dab	-0.17510097
35	0xbdc45217	-0.0958597
36	0x3db0aead	0.08627067
37	0xbe13da3f	-0.14438723
38	0xbe9e25f6	-0.30888337
39	0xbe871394	-0.26382124
40	0xbe278b01	-0.1636162
41	0xbe59dedf	-0.21276425
42	0x3e9565b2	0.2917915
43	0x3dd7cd37	0.105371885
44	0x3eea7245	0.45790306
45	0x3ba2b67a	0.0049656006
46	0x3d870e16	0.065944836
47	0xbece40de	-0.40283865
48	0xbe6559f6	-0.22397599
49	0xbd907ccc	-0.07055053
50	0xbe2aed41	-0.16692068
51	0xbaa7df7d	-0.0012807694
52	0xbe56fdac	-0.20995206
53	0xbe353d42	-0.17699149
54	0xbe34c9dc	-0.17655128
55	0xbeba5660	-0.36394024
56	0xbe88b91b	-0.26703724
57	0xbe13111a	-0.14361992
58	0x3e89f2e8	0.26943135
59	0xbe9c9cdd	-0.30588427
60	0xbd74352e	-0.05962103
61	0xbe889bd9	-0.26681402
62	0xbebe7d5e	-0.37205023
63	0xbe4be9e3	-0.1991344
64	0xbe74a14e	-0.23889658
65	0x3e855995	0.26044908
66	0x3f254de0	0.6457195
67	0xbe9cd7f0	-0.30633497
68	0xbc4b0e48	-0.012393542
69	0xbe8e70c7	-0.27820417
70	0x3d8072e0	0.06271911
71	0xbde3e9b8	-0.11128563
72	0xbeac9253	-0.33705387
73	0xbed834f9	-0.42227915
74	0xbeb76e22	-0.35826212
75	0xbe310e0e	-0.17290518
76	0xbe0e5279	-0.13898648
77	0xbea522db	-0.32253155
78	0xbeb73b5d	-0.35787478
79	0x3e58cbbf	0.21171473
80	0xbdf1218b	-0.11773976
81	0xbe9847b7	-0.29742214
82	0xbe680fd8	-0.22662294
83	0xbe81bef4	-0.25340998
84	0x3c970968	0.018437102
85	0xbeb274af	-0.34854648
86	0xbd5d2c74	-0.053997472
87	0xbdc14266	-0.094364926
88	0xbc348ad7	-0.01101943
89	0x3d9af6d9	0.07566614
90	0xbe7d94e2	-0.24763826
91	0xbd749344	-0.059710756
92	0x3e3454b5	0.17610438
93	0xbe4d31b8	-0.20038497
94	0xbeca95a0	-0.3956728
95	0xbe951d93	-0.29124126
96	0x3e013776	0.12618813
97	0xbd98d8c3	-0.07463219
98	0x3ea32021	0.3186045
99	0x3ba30e5d	0.0049760775
100	0x3e5d56d0	0.21615148
101	0x3dbf595d	0.093432166
102	0x3e61857e	0.2202358
103	0xbe526def	-0.20549749
104	0xbd815a2c	-0.06316027
105	0xbd94907a	-0.07254119
106	0x3eb5e8e8	0.35529256
107	0x3e74d67e	0.23909947
108	0x3e9861e3	0.29762182
109	0x3e0153a9	0.1262957
110	0x3e09db51	0.13462569
111	0xbb23adea	-0.0024975487
112	0x3cde1b62	0.027112667
113	0x3e318b93	0.173384
114	0xbcad4a47	-0.021153582
115	0x3e535d1d	0.20640989
116	0xbcaa5306	-0.020791542
117	0xbbf57824	-0.0074911285
118	0xbbda00d2	-0.00665293
119	0x3ec0aa79	0.3763006
120	0x3e70266a	0.23452154
121	0x3e9b03cc	0.30276334
122	0xbe61cc98	-0.22050703
123	0x3e62a66d	0.22133799
124	0x3ed99b56	0.42501324
125	0xbdde9853	-0.10868897
126	0x3d3f3c37	0.046688285
127	0x3d0fce4e	0.035108857
128	0x3e9a1f00	0.30101776
129	0x3ed8a6fc	0.423149
130	0xbe838c1f	-0.2569284
131	0x3e1c7722	0.1527982
132	0x3e8e4f43	0.27794847
133	0x3dcf46e0	0.1012094
134	0xbb22c694	-0.00248376
135	0x3e69de8e	0.22838804
136	0x3c0ddc1b	0.008658434
137	0x3e623879	0.22091855
138	0x3db5a495	0.08869282
139	0x3e39e0ae	0.18152115
140	0xbd492ad8	-0.049113125
141	0xbdcf12b0	-0.10110986
142	0xbe0233de	-0.12715098
143	0xbd65988e	-0.05605369
144	0xbe5ccca2	-0.21562436
145	0x3e0f8456	0.14015326
146	0x3eb6987c	0.3566321
147	0x3ddc3719	0.107526965
148	0xbd4520b4	-0.04812689
149	0xbd892887	-0.06697183
150	0x3d3f9655	0.046774227
151	0xbd4d6867	-0.050148394
152	0x3cfeab47	0.03108753
153	0x3e5a906c	0.21344155
154	0x3ddc2d99	0.107508846
155	0x3eaf6ada	0.3426121
156	0x3e47d71a	0.19515648
157	0x3e8e05aa	0.27738696
158	0xbc41cc89	-0.01182855
159	0x3e19c066	0.150148
160	0x3deaa3c4	0.11457017
161	0x3eb862ba	0.36012822
162	0xbd20605f	-0.039154407
163	0x3ebf90a7	0.37415048
164	0xbe6fece0	-0.23430204
165	0x3daa3a1d	0.083118655
166	0xbd3b000a	-0.045654334
167	0x3d44c65a	0.048040725
168	0x3e25bae2	0.16184571
169	0x3d9e4c9d	0.077294566
170	0xbde984be	-0.11402272
171	0x3db26fbd	0.08712719
172	0xbda57bd4	-0.08080259
173	0x3cfd5db4	0.03092847
174	0x3ea04fdd	0.3131093
175	0x3d14e4a2	0.036350854
176	0x3eb9018f	0.36134002
177	0x3e4e8f5c	0.20171875
178	0x3b788ef2	0.0037927
179	0x3e2bd47f	0.1678028
180	0x3e4d9c1a	0.2007908
181	0x3d65fd2d	0.05614965
182	0xbd484567	-0.048894312
183	0x3edab488	0.4271586
184	0x3dfe77d9	0.12425203
185	0x3d68f3fc	0.056873307
186	0x3d16d96c	0.036828443
187	0xbd8a6743	-0.06757977
188	0xbb9ed306	-0.0048469333
189	0xbdc3b4b8	-0.09555954
190	0x3f0328e9	0.512343
191	0xbccdcf96	-0.025123399
192	0x3e23063f	0.15920351
193	0x3c6159d4	0.013754327
194	0xbe02bdf7	-0.12767778
195	0x3d48c45d	0.04901539
196	0xb7d5f378	-2.5504953e-05
197	0x3ca87d9c	0.020567708
198	0x3dbc623a	0.09198423
199	0xbda3ae0c	-0.07992181
200	0xbd899707	-0.06718259
201	0x3e2af44c	0.16694754
202	0xbd2ad672	-0.041708417
203	0xbdb5a086	-0.08868508
204	0x3d94b1ed	0.07260499
205	0x3d9e8d78	0.07741827
206	0xbe109694	-0.14119941
207	0xbe1f2daa	-0.15544763
208	0xbd29c632	-0.04144878
209	0x3b9f220d	0.004856354
210	0x3d884c15	0.066551365
211	0x3d44cdc1	0.048047785
212	0xbe0a3701	-0.13497545
213	0xbcc91434	-0.024545766
214	0xbd1c38ca	-0.038140096
215	0x3e794801	0.24343874
216	0xbe419b61	-0.18906929
217	0x3d951b5d	0.0728061
218	0xbd147fa6	-0.036254548
219	0x3d19bf06	0.03753569
220	0xbaf4ad64	-0.0018667397
221	0xbb2e4681	-0.0026592317
222	0x3dde80bf	0.108644
223	0x3df64890	0.12025559
224	0xbdb580b9	-0.088624425
225	0x3dc95111	0.09829915
226	0xbbf465c7	-0.007458422
227	0xbe953ed2	-0.2914949
228	0xbe12d3d7	-0.14338623
229	0x3e51479b	0.20437472
230	0x3cec294a	0.028828282
231	0x3cdbd22b	0.026833614
232	0x3d289270	0.04115528
233	0xbe5dfc77	-0.21678339
234	0x3c86687c	0.016407244
235	0x3d34ec07	0.044170406
236	0x3d7e41f5	0.06207462
237	0x3d1a45df	0.03766429
238	0xbc24ede4	-0.010066483
239	0xbda44209	-0.08020408
240	0xbdf0367e	-0.117291436
241	0x3d9dc4af	0.0770353
242	0x3d1535c2	0.03642822
243	0x3e373933	0.17892914
244	0xbddcb16b	-0.10776027
245	0x3d48dda3	0.049039494
246	0xbc819594	-0.015818395
247	0xbd28e08c	-0.04122977
248	0xbda87905	-0.08226208
249	0xbd02f5d7	-0.031972732
250	0xbe5c730f	-0.21528266
251	0xbd55bd01	-0.0521822
252	0x3dc3214f	0.095278375
253	0xbdb08c11	-0.086204655
254	0x3e77829b	0.24170916
255	0xba8af823	-0.0010602515

lstm.bias_hh_l0 f4 [392]
0	0xbeca9e8a	-0.3957408
1	0xbeeb7728	-0.45989347
2	0xbe1fecee	-0.15617725
3	0xbea4b673	-0.32170448
4	0xbe268956	-0.16263327
5	0xbe5030e8	-0.20331156
6	0xbe94b201	-0.29042056
7	0xbd8872c7	-0.06662517
8	0x3da6bafb	0.081411324
9	0xbe0c41bb	-0.13696949
10	0xbea8aaf1	-0.32942918
11	0xbdd40026	-0.10351591
12	0xbddf9270	-0.109166026
13	0x3eaaab06	0.33333606
14	0xbe99973b	-0.29998192
15	0xbd8170da	-0.06320353
16	0xbe9268b6	-0.28595513
17	0xbe5c4b33	-0.21513061
18	0xbec5a5ba	-0.38603002
19	0xbe57b6fd	-0.21065898
20	0xbe338d97	-0.17534481
21	0xbe2b9c44	-0.1675883
22	0xbea1aa4c	-0.3157524
23	0xbea90f73	-0.330196
24	0xbe574806	-0.21023569
25	0xbe903da6	-0.28172034
26	0x3e09d6d2	0.13460854
27	0x3e115f3a	0.14196482
28	0xbebba727	-0.36650965
29	0xbd9a6405	-0.075386085
30	0xbe66502e	-0.22491524
31	0xbe79d6cb	-0.24398343
32	0xbe9598fe	-0.29218286
33	0xbe170b7f	-0.14750479
34	0xbe278040	-0.16357517
35	0xbe83a6bd	-0.2571315
36	0x3b17db38	0.0023171436
37	0xbe4047fc	-0.1877746
38	0xbe84ce41	-0.2593861
39	0xbeab02b9	-0.33400515
40	0xbe76af9c	-0.24090427
41	0xbe2e4e94	-0.17022163
42	0x3e467f6b	0.19384544
43	0x3ced5357	0.028970404
44	0x3ef8b01d	0.48571864
45	0x3d9218e6	0.07133655
46	0x3cdb8aa0	0.0267995
47	0xbe9cd67e	-0.30632395
48	0xbe878cc2	-0.26474577
49	0x3c69db6d	0.014273507
50	0xbde9166e	-0.11381231
51	0xbe167eec	-0.14696854
52	0xbe16e611	-0.14736201
53	0xbdd80b3b	-0.10549017
54	0xbe004a89	-0.12528433
55	0xbebf728f	-0.3739209
56	0xbe9589c9	-0.29206684
57	0xbe03781c	-0.12838787
58	0x3e91ccfb	0.284767
59	0xbe92ed79	-0.28696802
60	0xbe681883	-0.226656
61	0xbe539f37	-0.20666204
62	0xbedeab92	-0.43490273
63	0xbea208d7	-0.3164737
64	0xbe58bc8e	-0.21165678
65	0x3e9221a9	0.28541306
66	0x3f37d554	0.7180989
67	0xbe871942	-0.26386458
68	0xbd87760f	-0.06614315
69	0xbe7100eb	-0.23535506
70	0xbcb4da3c	-0.022076719
71	0xbe40bb4b	-0.18821447
72	0xbeebe40b	-0.4607242
73	0xbe9afda3	-0.30271634
74	0xbed3aeb3	-0.41344222
75	0xbe04389e	-0.12912223
76	0x3c1b003e	0.009460507
77	0xbe95727d	-0.2918891
78	0xbeb53194	-0.35389388
79	0x3e1ac70e	0.15114996
80	0xbe052c61	-0.1300521
81	0xbe8807a8	-0.2656834
82	0xbeb56d8a	-0.35435134
83	0xbe4ebc76	-0.2018908
84	0x3cf69be6	0.030103635
85	0xbe7e0e2a	-0.2481009
86	0xbc145a30	-0.0090547055
87	0x3db1adb6	0.08675711
88	0xbd89843e	-0.06714676
89	0x3e0db6bc	0.13839239
90	0xbe2bb731	-0.167691
91	0x3ca62303	0.020280367
92	0x3e21544a	0.1575481
93	0xbe9b072f	-0.30278918
94	0xbeaeb76d	-0.34124318
95	0xbe89b8b5	-0.26898733
96	0x3e86a707	0.26299307
97	0x3dd76f1d	0.1051924
98	0x3e255ad3	0.16147928
99	0x3c11562f	0.008870645
100	0x3e9619f1	0.29316667
101	0x3e14cb4f	0.14530681
102	0x3e6efd2c	0.23338765
103	0xbe462910	-0.19351602
104	0xbda5a836	-0.08088724
105	0x3cff8758	0.031192467
106	0x3eea3829	0.45745972
107	0x3e8e9644	0.2784902
108	0x3e4e2f51	0.20135237
109	0x3e5490df	0.20758389
110	0x3e169215	0.14704163
111	0x3d92fe35	0.071773924
112	0x3e08db3b	0.1336488
113	0x3e8702eb	0.26369414
114	0xbd165d2b	-0.036709946
115	0x3e7c5e23	0.24645285
116	0x3cd68163	0.026184743
117	0x3d89321f	0.06699013
118	0x3d9ff525	0.078104295
119	0x3e83c6cf	0.25737616
120	0x3e7a1cec	0.24425095
121	0x3e6ea435	0.23304828
122	0xbe554832	-0.20828322
123	0x3e14aa29	0.14518036
124	0x3ec457df	0.3834829
125	0xbd56da45	-0.05245425
126	0x3c6bfd1d	0.014403609
127	0xb9bf4213	-0.00036479588
128	0x3e83c77f	0.2573814
129	0x3eb46999	0.35236815
130	0xbe5827db	-0.21108954
131	0x3e9e76b4	0.30949938
132	0x3ea4fa35	0.32222143
133	0x3ddfeed3	0.10934224
134	0xbd1fee5c	-0.039045677
135	0x3e9f876f	0.31158015
136	0xbcb45e39	-0.022017585
137	0x3e1cd420	0.15315294
138	0x3e141db0	0.1446445
139	0x3e1c8bf1	0.15287758
140	0xbe1d10d5	-0.15338452
141	0xbd40e4ff	-0.047093388
142	0xbdb3f367	-0.0878666
143	0xbdf2a25d	-0.118473746
144	0xbeac5094	-0.33655226
145	0x3d251241	0.04030061
146	0x3eb457e8	0.35223317
147	0x3d3a75dc	0.045522556
148	0x3dd225cd	0.10261116
149	0x3d81d5c0	0.06339598
150	0xbbb32104	-0.0054665823
151	0xbd1c19ce	-0.038110547
152	0xbd36dfd9	-0.04464707
153	0x3e07d55f	0.13264988
154	0x3e401347	0.18757354
155	0x3edbf066	0.42956847
156	0x3d9c7a27	0.07640486
157	0x3eafb8cb	0.34320673
158	0x3dff5fd9	0.12469453
159	0x3e31098f	0.17288803
160	0x3e29c11a	0.16577569
161	0x3ea56687	0.32304785
162	0x3c8503ba	0.016237129
163	0x3e8cc2b8	0.2749231
164	0xbea75d57	-0.326884
165	0x3dd2c6f5	0.10291854
166	0xbd905140	-0.07046747
167	0x3d2808c5	0.04102399
168	0x3ea0d369	0.31411293
169	0x3dfacb16	0.12245767
170	0xbe18e1d5	-0.14929898
171	0xbc48846f	-0.012238606
172	0x3b7af76a	0.0038294443
173	0x3e1151b7	0.14191328
174	0x3e3946db	0.18093435
175	0xbdc1e188	-0.09466845
176	0x3ea5eeaa	0.3240865
177	0x3e438598	0.1909393
178	0x3d9ff104	0.07809642
179	0x3dfc21bc	0.12311122
180	0x3e69dfea	0.22839323
181	0x3d1b6a22	0.037943013
182	0xbd527bb2	-0.051387496
183	0x3ec12584	0.37723935
184	0x3d7d5ba7	0.061854985
185	0xbd44b312	-0.048022337
186	0xbd0aedb8	-0.033918113
187	0x3cea1fd6	0.028579634
188	0x3de34a11	0.110981114
189	0xbe31c546	-0.1736041
190	0x3eb7bdda	0.35887033
191	0xbd266ef0	-0.040633142
192	0x3e1fa328	0.15589583
193	0x3e297ff8	0.16552722
194	0xbdc6aa85	-0.09700493
195	0x3e5fd44f	0.21858333
196	0xbd48398c	-0.048883006
197	0xbd016f48	-0.031600267
198	0x3e22366c	0.15841073
199	0xbda20380	-0.07910824
200	0xbda5b18b	-0.08090504
201	0x3e704402	0.23463443
202	0x3caf8e18	0.02143006
203	0xbdf6ae8c	-0.12045011
204	0xbb4d9f77	-0.0031375566
205	0x3e2fda4a	0.17173114
206	0xbdb71452	-0.08939423
207	0xbe60555a	-0.21907559
208	0xbe43fc16	-0.19139132
209	0x3d773a93	0.060358595
210	0x3e040639	0.12892999
211	0x3d0b2b56	0.033976875
212	0xbc9137f7	-0.017726881
213	0x3d86741f	0.06565117
214	0xbd49c82b	-0.04926316
215	0x3e5b424b	0.21412008
216	0x3bffd133	0.007806921
217	0xbbb2acad	-0.0054527135
218	0x3c7f3413	0.01557638
219	0xbce6596c	-0.028118812
220	0x3d54baaf	0.051935848
221	0x3cc72c79	0.024313198
222	0x3d7de09b	0.06198178
223	0x3dda7770	0.10667312
224	0xbe45ecc4	-0.193286
225	0xbcc47627	-0.02398212
226	0xbc86167e	-0.016368147
227	0xbe8947d4	-0.26812613
228	0xbce7defa	-0.028304566
229	0x3e2058c2	0.15658858
230	0xbd061849	-0.032738004
231	0x3d96dfc6	0.073669
232	0xbd6aba55	-0.057306606
233	0xbe0b18c2	-0.13583663
234	0x3da484ed	0.08033166
235	0x3ca0f868	0.0196497
236	0xbc80adb2	-0.015707824
237	0xbdc31b6f	-0.09526717
238	0xbe0773f0	-0.1322782
239	0xbc923d67	-0.017851545
240	0xba843e9b	-0.0010089459
241	0x3e3c1122	0.1836591
242	0xbd8e5f7d	-0.06951807
243	0x3e329f08	0.17443478
244	0x3da3ed37	0.080042295
245	0xbbfc39a7	-0.0076973024
246	0xbd7143f0	-0.05890268
247	0x3c8e8342	0.017396573
248	0xbd62ac32	-0.05534
249	0xbd9fa9f2	-0.07796086
250	0xbe57ccd9	-0.21074237
251	0xbd5944e8	-0.05304423
252	0x3c86bea9	0.016448336
253	0xbde35b80	-0.111014366
254	0x3ea7cd34	0.32773745
255	0x3d5a8339	0.0533478

fc1.weight f4 [9, 98]
0	0xbe388fd3	-0.18023615
1	0x3ccec202	0.025238995
2	0xbdc96a08	-0.09834677
3	0xbf47bddd	-0.78024083
4	0xbef802ac	-0.48439538
5	0xbe816d05	-0.25278488
6	0x3f038823	0.51379603
7	0xbea361d3	-0.3191057
8	0x3e868593	0.26273784
9	0xbe2cbb0b	-0.16868226
10	0xbf0418ff	-0.5160064
11	0xbf0e308a	-0.55542815
12	0xbea0f2b4	-0.31435168
13	0xbde7f2ae	-0.11325584
14	0xbf00b811	-0.50280863
15	0x3d310469	0.043217096
16	0x3e478b9f	0.19486855
17	0x3e005705	0.12533195
18	0xbe451dbc	-0.19249624
19	0x3efa7264	0.48915398
20	0xbdb8d5b5	-0.090251364
21	0x3e94ebe8	0.29086232
22	0xbe082edc	-0.13299125
23	0x3c8e2cba	0.017355312
24	0x3e0074b4	0.12544519
25	0x3eed5379	0.46352747
26	0xba6e393c	-0.0009087508
27	0xbe887854	-0.26654303
28	0xbebbe023	-0.3669444
29	0x3ecffd2a	0.40622836
30	0xbe89a3cc	-0.2688278
31	0xbccaf220	-0.024773657
32	0xbf9177fe	-1.1364744
33	0xbe2f84e9	-0.17140545
34	0x3cec7dc4	0.028868563
35	0xbfb13b58	-1.3846235
36	0x3ddaa56a	0.106760815
37	0xbf5fca18	-0.87417746
38	0xbdf446d7	-0.11927574
39	0xbe3cea8f	-0.18448852
40	0xbe622830	-0.22085643
41	0x3f16c19c	0.58889174
42	0xbf298c10	-0.66229343
43	0x3f2153c6	0.63018453
44	0xbde4f0ff	-0.11178779
45	0x3ef06f9c	0.4696015
46	0x3e92467e	0.28569406
47	0xbf02ae7d	-0.510475
48	0xbed20f35	-0.41027227
49	0x3e17e524	0.14833504
50	0x3ee5d381	0.44887927
51	0x3e2e7bea	0.17039457
52	0x3cb250aa	0.02176698
53	0xbdb9eeb3	-0.090787314
54	0x3e47b4f5	0.19502623
55	0xb97abe5c	-0.00023912772
56	0xbec03f07	-0.37548086
57	0xbda15295	-0.078770794
58	0xbf63044d	-0.8867844
59	0x3ddaf0ce	0.10690461
60	0xbee536aa	-0.44768268
61	0xbf12e7aa	-0.5738474
62	0xbdccbab7	-0.099965505
63	0x3ef216e1	0.4728308
64	0x3e82beeb	0.25536284
65	0x3edac566	0.42728728
66	0x3e6a8985	0.22904022
67	0x3f8c4af2	1.0960371
68	0xbe8ed3e3	-0.27896032
69	0xbdaffa42	-0.08592655
70	0xbf1c9319	-0.61161953
71	0xbe1da274	-0.15394002
72	0x3e245116	0.16046557
73	0x3dd46241	0.10370303
74	0xbf366ebd	-0.71262723
75	0xbe407da7	-0.18797933
76	0xbc1921b9	-0.009346419
77	0xbdb2e842	-0.08735706
78	0x3f5e2268	0.8677125
79	0x3e53abe2	0.20671037
80	0xbe41efb7	-0.189391
81	0x3e1428db	0.1446871
82	0xbdc43153	-0.0957972
83	0x3d827789	0.06370456
84	0xbed4ceea	-0.41564113
85	0xbf034521	-0.5127736
86	0xbd55cdf8	-0.05219838
87	0xbdfa682e	-0.12226902
88	0xbefcf1d1	-0.4940324
89	0x3d9e263b	0.07722136
90	0x3f29fa32	0.6639739
91	0xbf78a3d5	-0.9712499
92	0x3df67bf1	0.12035359
93	0xbf161204	-0.5862124
94	0x3eafc20d	0.34327736
95	0x3ed379f3	0.41303977
96	0xbe650722	-0.22366002
97	0x3dae3539	0.08506245
98	0xbe36987f	-0.1783161
99	0x3dbe6a57	0.092976265
100	0xbe227e5b	-0.15868513
101	0x3e8ecd75	0.27891126
102	0xbeb415bf	-0.3517284
103	0xbe5c7a2a	-0.21530977
104	0xbeff1e8b	-0.4982799
105	0x3e10ca99	0.14139785
106	0x3e7b7904	0.24557883
107	0xbe0bc7e2	-0.13650468
108	0x3f1407cb	0.5782439
109	0xbf33de2d	-0.7026089
110	0xbf412a05	-0.7545474
111	0x3f0eefbd	0.5583456
112	0x3e4132e9	0.18867077
113	0x3c1b00c6	0.009460634
114	0xbf315591	-0.6927119
115	0xbec7a563	-0.38993368
116	0xbe39b0c4	-0.18133837
117	0x3e90e8dd	0.2830266
118	0xbd73bb48	-0.059504777
119	0xbc96ca1d	-0.018406922
120	0xbe192fb7	-0.14959608
121	0xbeb20840	-0.3477192
122	0xbf13d8bb	-0.5775258
123	0xbf2b3799	-0.6688171
124	0x3d3f17a5	0.04665341
125	0x3eedfa8b	0.46480212
126	0xbd6789ea	-0.05652801
127	0xbee96b67	-0.45589754
128	0xbefc2d33	-0.49253234
129	0xbfa3e421	-1.2803994
130	0x3f4994ed	0.7874287
131	0xbb59d65b	-0.0033239338
132	0x3e63192c	0.22177571
133	0xbf15fc72	-0.58588326
134	0x38890dfa	6.5352724e-05
135	0x3cb216af	0.021739332
136	0xbe2292ff	-0.15876387
137	0xbc83ad56	-0.016073864
138	0xbe058174	-0.13037664
139	0x3efb6097	0.4909713
140	0x3e89870a	0.2686084
141	0xbdab4842	-0.083633915
142	0xbe68661d	-0.22695203
143	0x3d8e9f3e	0.06963967
144	0x3da208e0	0.07911849
145	0x3d8c5645	0.06852392
146	0xbf8e20c4	-1.1103749
147	0x3e1c557c	0.15266985
148	0xbe8d4cbd	-0.2759761
149	0xbf289f9a	-0.6586853
150	0xbeacc2bc	-0.3374232
151	0x3d566bfc	0.052349076
152	0x3f79a395	0.9751523
153	0xbec79254	-0.38978827
154	0x3de93d76	0.11388676
155	0x3e39e92b	0.18155353
156	0x3eb2f2e1	0.34950927
157	0xbeb1cdf3	-0.3472744
158	0x3ded9778	0.11601156
159	0xbf14630c	-0.57963634
160	0xbf257d6f	-0.6464452
161	0xbf4ae422	-0.79254353
162	0xbda0505e	-0.07827829
163	0x3e788ff9	0.24273671
164	0xbdc1e111	-0.09466756
165	0x3ebfbb94	0.37447798
166	0x3e2ad572	0.16682985
167	0xbecd72b7	-0.40126583
168	0x3ef402ca	0.47658378
169	0xbe2b7854	-0.1674512
170	0x3e29f04c	0.16595572
171	0x3debef8d	0.115203
172	0x3decddec	0.11565766
173	0xbe9aa172	-0.30201298
174	0x3f290e32	0.66037285
175	0x3f36135a	0.7112328
176	0xbf196fe7	-0.59936374
177	0xbe83b4e9	-0.2572396
178	0x3ee16faa	0.44030505
179	0x3e68b60d	0.22725697
180	0x3ed6b944	0.4193822
181	0x3e8f3c5f	0.27975747
182	0xbec148b9	-0.37750795
183	0x3f4376ef	0.76353353
184	0xbd35a598	-0.044347376
185	0x3e8a9d43	0.27073106
186	0xbf1fa333	-0.623584
187	0xbedf689b	-0.43634495
188	0xbe96c6a8	-0.29448438
189	0xbf1cd0c5	-0.6125606
190	0x3e3ceea1	0.18450405
191	0xbe8df3a6	-0.27724952
192	0x3d60a7ac	0.054847404
193	0xbde93158	-0.11386365
194	0x3f3f7a50	0.7479601
195	0xbe2492a0	-0.16071558
196	0xbf040801	-0.51574713
197	0xbe8b5601	-0.27214053
198	0xbe07b362	-0.13252023
199	0x3ea93f4a	0.33056098
200	0x3f6058c8	0.8763547
201	0xbd1f5597	-0.038899984
202	0xbeb6f842	-0.3573628
203	0x3d543d50	0.051816285
204	0xbddeb909	-0.108751364
205	0x3ea426ef	0.32060954
206	0x3ee83426	0.45352286
207	0x3e13e980	0.14444542
208	0xbec2d223	-0.38050947
209	0xbe542264	-0.20716244
210	0xbf0810a5	-0.531504
211	0xbf31fb5d	-0.69524175
212	0x3f0201a4	0.50783753
213	0xbdb4cf55	-0.08828608
214	0x3e326240	0.17420292
215	0xbe510689	-0.20412649
216	0xbe141c66	-0.14463958
217	0xbb4b344e	-0.0031006518
218	0xbd1d5fc6	-0.038421415
219	0x3e530528	0.20607436
220	0x3f88a9d7	1.0676831
221	0xbeabd227	-0.3355877
222	0xbeaef121	-0.34168342
223	0x3f11b2dc	0.5691354
224	0x3ebc946a	0.3683198
225	0x3f2583cd	0.6465424
226	0xbf05b7b5	-0.5223344
227	0x3edf20c9	0.435797
228	0xbeaf6356	-0.34255475
229	0xbd791068	-0.06080666
230	0xbe84ee44	-0.25963032
231	0x3ef23afe	0.47310632
232	0xbf70064c	-0.9375961
233	0xbe1e038e	-0.15431044
234	0x3f24732b	0.6423823
235	0xbe94d051	-0.29065183
236	0x3e926fe5	0.28600994
237	0x3f15ec35	0.5856355
238	0xbf624e0f	-0.8840036
239	0x3e870126	0.26368064
240	0x3ecb187f	0.39667127
241	0xbeef1a8d	-0.46699944
242	0xbea622ff	-0.32448575
243	0xbe212f7c	-0.1574077
244	0x3e309a59	0.17246379
245	0x3e1eab77	0.15495096
246	0xbeab6443	-0.3347493
247	0xbf8ac9fd	-1.0842892
248	0xbebae10a	-0.36499816
249	0x3e142d25	0.14470346
250	0xbc2adc21	-0.010428459
251	0xbe41d7fc	-0.18930048
252	0xbce19b83	-0.027539974
253	0x3d496e32	0.049177356
254	0xbf4fc525	-0.81160194
255	0x3ea3223a	0.3186205

fc1.bias f4 [9]
0	0xbd75f5cd	-0.060048867
1	0x3dcdb068	0.100434124
2	0x3c1dae81	0.0096241245
3	0x3c51313b	0.012768085
4	0xbb0ab398	-0.0021164175
5	0x3c9e8675	0.019351223
6	0x3db35db5	0.087581076
7	0xbe29ef0b	-0.16595094
8	0xbee56677	-0.44804737

exp_avg f4 [392, 1]
0	0x385c60f5	5.2542386e-05
1	0xba592fed	-0.00082850346
2	0x3c561b9c	0.013068106
3	0xbc8352a4	-0.016030617
4	0x3c42e388	0.011895068
5	0x3a983a0e	0.0011613981
6	0xbbdff00a	-0.006834035
7	0x388678b9	6.412104e-05
8	0xba0313aa	-0.00050001836
9	0x3a9645cd	0.0011464894
10	0xbc749846	-0.014928883
11	0x3c15a064	0.009132478
12	0xb9cdbf43	-0.00039243148
13	0xbb891e61	-0.0041845297
14	0xbab0021a	-0.0013428361
15	0x3b90635a	0.004406375
16	0x3a83ad45	0.0010046145
17	0x3c966365	0.018357942
18	0xbb1ab0bd	-0.002360388
19	0x3b0b677c	0.0021271398
20	0x3b906f5d	0.004407807
21	0x3acb2fbd	0.0015501898
22	0xbc97257b	-0.01845049
23	0x3bd43c52	0.0064769173
24	0x390f846e	0.00013686877
25	0x3b2928ee	0.002581175
26	0x3b470e72	0.00303736
27	0x3ab84be0	0.0014060698
28	0x3c077974	0.008268703
29	0x3b36a58a	0.0027869665
30	0x3b25316d	0.0025206462
31	0x3ce5b51e	0.028040465
32	0x3b7621d9	0.0037556796
33	0x3b92b2dc	0.004476888
34	0xba070f31	-0.0005152105
35	0x39e7fb2e	0.00044246897
36	0x3bc6e62b	0.0060699186
37	0x3b32e67d	0.0027298026
38	0xbbe18964	-0.0068828333
39	0x3bd69a97	0.0065491903
40	0x3be94639	0.007118967
41	0xbbaa4f7a	-0.0051974626
42	0xbb53ef57	-0.0032338703
43	0x3b51d563	0.0032018058
44	0xbc2f0d6b	-0.010684351
45	0x3b079430	0.0020687692
46	0x39b8b501	0.00035230073
47	0x3c05c451	0.008164481
48	0x3bd494a3	0.0064874454
49	0xbc352f99	-0.011058711
50	0xbb5cb01a	-0.00336743
51	0xbb03a16b	-0.0020085226
52	0x3c356c9a	0.011073256
53	0x3b2c4cea	0.0026290962
54	0x3bd07926	0.0063620983
55	0xbbcd821a	-0.006271613
56	0x3b89cfc0	0.004205674
57	0x3b9591a1	0.0045644795
58	0xbbec03bc	-0.0072025936
59	0xbb829223	-0.003984706
60	0x3b3f0351	0.0029146264
61	0xbc9a0f00	-0.01880598
62	0xbc33fbe2	-0.0109853465
63	0xbd24badf	-0.040217277
64	0xbbca6eda	-0.0061777653
65	0x3b4606af	0.0030216386
66	0x3b9de3e2	0.0048184255
67	0x3c0404dd	0.0080578
68	0x3b61c220	0.0034447983
69	0x3bac7333	0.0052627563
70	0xbbe81917	-0.007083069
71	0x3bb9a3e8	0.005665291
72	0x3b8a7786	0.004225674
73	0xbb30b9db	-0.0026966247
74	0xbc05a80a	-0.008157739
75	0x3b2c814e	0.0026322189
76	0x3c386f7f	0.0112570515
77	0xbca6d57e	-0.020365473
78	0xbb74662a	-0.003729234
79	0x3a011d8f	0.0004925364
80	0xb9d1746b	-0.00039950325
81	0x3ad065f0	0.001589952
82	0x3af66fb3	0.00188016
83	0x3bb71369	0.0055870307
84	0x3acb5030	0.0015511569
85	0xb9f81d2e	-0.00047323987
86	0x3bbc503e	0.0057468703
87	0x3b27984c	0.0025572954
88	0xbaf9b07d	-0.001904979
89	0xbb585991	-0.003301237
90	0x3afabcdb	0.001912977
91	0x3b3bc337	0.0028650293
92	0xb9b12bee	-0.000337928
93	0x3c74fe2e	0.014953179
94	0x3c67677e	0.014123796
95	0xba974ba1	-0.0011542925
96	0xbb2dcf07	-0.0026521103
97	0xbbbe68da	-0.005810839
98	0xb90cb9ac	-0.00013420609
99	0xb91c62a0	-0.0001491406
100	0xbb944be5	-0.004525649
101	0xbb52d0eb	-0.0032167982
102	0xbbb9fb8b	-0.005675738
103	0xbc042b3b	-0.008066948
104	0xbaa1beee	-0.0012340227
105	0x3ad7f809	0.0016477118
106	0xbacd591b	-0.0015666814
107	0xba91550b	-0.0011087967
108	0xbc0ad659	-0.008473956
109	0xbb166e09	-0.002295377
110	0xb8236d87	-3.8964234e-05
111	0xbbb24f0f	-0.0054415534
112	0xbb492ab0	-0.003069561
113	0x3ae1b53b	0.0017220149
114	0xbaf04b88	-0.0018333057
115	0xb91cc8c0	-0.00014952105
116	0xb9c76c29	-0.00038036823
117	0xbb0c9e10	-0.0021456517
118	0xb9d968fc	-0.00041467685
119	0x3ab01d9a	0.0013436556
120	0x3bc5d07e	0.006036817
121	0xbacb2531	-0.0015498755
122	0x3a933a65	0.0011232613
123	0x3a465ae8	0.00075666467
124	0xbbcd2427	-0.006260413
125	0xba871e18	-0.0010308651
126	0x3b648384	0.0034868428
127	0x3b9439c9	0.00452349
128	0x3adda86c	0.0016911156
129	0xbc0a7c8e	-0.008452548
130	0xbac192be	-0.0014768464
131	0xbb4551f0	-0.0030108653
132	0x3ae6054a	0.0017549184
133	0xbb4e90c3	-0.003151939
134	0xba10d9e1	-0.00055256305
135	0xbbf2a1cd	-0.007404542
136	0xba65a59e	-0.00087603356
137	0xbbbfc800	-0.0058526993
138	0x3ae7960d	0.001766862
139	0x395137b2	0.00019952541
140	0xba3fee02	-0.00073215377
141	0xba96d99d	-0.0011508946
142	0xbc999313	-0.018746888
143	0xba1d7dd5	-0.0006007825
144	0x3b24b047	0.0025129484
145	0x3c009f8d	0.00785054
146	0x3b5ff3af	0.0034172346
147	0x3af49149	0.0018659021
148	0xbaa378d8	-0.0012471927
149	0xbb01daac	-0.0019814176
150	0x3b9067e7	0.0044069174
151	0x39980fe6	0.00029003544
152	0xbb1ee56d	-0.0024245635
153	0xbb6742f3	-0.0035287708
154	0x3ba3139a	0.004976702
155	0x3afde4dc	0.0019370574
156	0xbbd80613	-0.006592521
157	0x3b924ffb	0.004465101
158	0xba864683	-0.0010244403
159	0xba0a903d	-0.00052857754
160	0xbb82da27	-0.003993291
161	0xbc08f3bf	-0.008358895
162	0x3932edd0	0.00017063995
163	0xbae4aaeb	-0.0017445957
164	0xbb896987	-0.004193488
165	0xba2ed4cf	-0.0006669284
166	0xbbc182c3	-0.0059054806
167	0x3b4a225b	0.0030843231
168	0x3b6813cd	0.0035412193
169	0x3af592a1	0.0018735715
170	0x3bdd7cd4	0.0067592654
171	0x3b6b127b	0.003586917
172	0xbc38888d	-0.011263025
173	0xbb6131b2	-0.0034361896
174	0x3b6af4cf	0.0035851484
175	0xbc50c2ea	-0.012741784
176	0xbb36f8cd	-0.0027919293
177	0x3b98f272	0.0046675736
178	0x3b33384d	0.002734679
179	0x39f48091	0.00046635096
180	0x3b739f2c	0.0037173731
181	0xba8e2b3b	-0.0010846624
182	0x3a0b014a	0.0005302621
183	0xba18971c	-0.0005820857
184	0x3b66b0f5	0.003520069
185	0x3ab79a1a	0.0014007718
186	0x3bb511e4	0.0055258144
187	0xbbcb56cb	-0.006205415
188	0xbbd196cf	-0.0063961516
189	0x3b000008	0.0019531269
190	0x3a2733b0	0.00063782465
191	0xbb1e6bd4	-0.0024173157
192	0xbae6647f	-0.0017577558
193	0xb92e5271	-0.00016624645
194	0x3941e794	0.00018492184
195	0xbc29161b	-0.010320212
196	0xbcfb11f8	-0.030648217
197	0xba31738e	-0.0006769233
198	0xbda6a0a2	-0.08136107
199	0x3c947c4d	0.018125677
200	0xbd2165ad	-0.039403606
201	0x3cc10583	0.023562199
202	0x3c17169e	0.009221701
203	0xbca58b92	-0.020208154
204	0xbc535e25	-0.012900864
205	0x3c23fc6f	0.010008915
206	0x3c35a970	0.01108776
207	0x3d3b1fa9	0.04568449
208	0xbc1dd101	-0.00963235
209	0xbd5b148e	-0.0534864
210	0xbc11232d	-0.008858484
211	0xbc47fbb4	-0.012206007
212	0x3c929026	0.017891001
213	0xbcd1eb15	-0.025624791
214	0x3b1b4148	0.0023690034
215	0x3c38ffda	0.0112914685
216	0x3d239d7d	0.039945114
217	0xbc04f101	-0.0081141
218	0xbd28224f	-0.041048344
219	0xb999cf00	-0.0002933666
220	0x3bfcf40b	0.007719522
221	0x3c29ffbe	0.010375915
222	0xbc6c56f9	-0.014425033
223	0x3c1db376	0.009625306
224	0x3c0142e4	0.007889483
225	0x3d3d7ed5	0.046263535
226	0xbb0c3dd5	-0.002139916
227	0x3e223aa8	0.15842688
228	0xbb83096e	-0.003998927
229	0xbd0db2c4	-0.034594312
230	0xbb47f23d	-0.0030509376
231	0xbc75aa47	-0.014994211
232	0xbd1fb58c	-0.038991496
233	0x3cc50809	0.024051683
234	0x3c0949a6	0.008379376
235	0x3ca96672	0.020678733
236	0x3c88e58f	0.016711025
237	0xba8a7a00	-0.0010564923
238	0x3d2af074	0.04173322
239	0xbb590ecc	-0.0033120392
240	0x3c67ad36	0.014140418
241	0xbb1a9800	-0.0023589134
242	0xbbc61c55	-0.006045858
243	0x3c7a45bc	0.015275415
244	0x3bde05b0	0.0067755803
245	0xbc85c60d	-0.01632979
246	0xbc5dc686	-0.013536101
247	0x3ac6e3aa	0.001517405
248	0xbcdf17c2	-0.027233008
249	0xbc0bb857	-0.008527837
250	0xba8e105f	-0.0010838619
251	0x3c67a920	0.014139444
252	0xbd04cf3d	-0.0324242
253	0xbc18130c	-0.009281885
254	0xbd1f7ddc	-0.03893839
255	0xbaafc2d5	-0.0013409505

exp_avg_sq f4 [392, 1]
0	0x3a3826de	0.00070248346
1	0x3865ff29	5.483549e-05
2	0x3bc1878d	0.0059060515
3	0x3ac55bd7	0.0015057278
4	0x3b89e6b2	0.004208409
5	0x39edc51f	0.0004535103
6	0x3a59ec73	0.0008313127
7	0x3a27991a	0.00063933583
8	0x39ea25d7	0.0004466015
9	0x3ae597c0	0.0017516539
10	0x3bed5607	0.0072429213
11	0x3c57a271	0.013161288
12	0x38d3dcdf	0.000101024045
13	0x3a0839c1	0.0005196594
14	0x3a6529aa	0.0008741865
15	0x3a49ad73	0.00076933875
16	0x3a048759	0.0005055569
17	0x3b5825e1	0.0032981562
18	0x39005166	0.00012237355
19	0x3aeacab5	0.0017913195
20	0x3a8897d8	0.001042123
21	0x387be477	6.0055838e-05
22	0x3b2c6bfe	0.0026309486
23	0x3afff8ec	0.001952914
24	0x399fcc83	0.00030479216
25	0x397be485	0.00024022356
26	0x3a0dd85d	0.0005410964
27	0x393c6b86	0.00017969133
28	0x3a01e0fd	0.00049544853
29	0x3af650a7	0.0018792347
30	0x39b07836	0.000336589
31	0x3cedac3f	0.029012797
32	0x39dfba11	0.00042672505
33	0x3b90f9b6	0.004424299
34	0x388cadc7	6.708089e-05
35	0x3b572aff	0.0032832024
36	0x3a89fbea	0.0010527347
37	0x3ad54740	0.0016271845
38	0x3b8083aa	0.0039219456
39	0x3ae64f0e	0.0017571168
40	0x3a2b4023	0.00065326894
41	0x3a927a2e	0.0011175328
42	0x3a0586a8	0.00050936127
43	0x38a7a5de	7.994076e-05
44	0x3adf0a05	0.0017016536
45	0x391e2292	0.00015080933
46	0x39f809e5	0.00047309618
47	0x3b211663	0.0024579994
48	0x3cc10bd8	0.023565218
49	0x3a831dfa	0.001000344
50	0x3a0434ef	0.0005043288
51	0x394c40f3	0.00019479152
52	0x3a4e4f6a	0.000787011
53	0x3980571c	0.00024478964
54	0x3afe34b3	0.0019394368
55	0x3a3e8c2c	0.0007268812
56	0x39ec9915	0.00045127483
57	0x38a5bc17	7.9028476e-05
58	0x3b2a5754	0.0025991993
59	0x3b7d536d	0.0038654462
60	0x3a383bc7	0.00070279505
61	0x3c11c245	0.008896415
62	0x3a585adb	0.00082532846
63	0x3cd2fd53	0.02575556
64	0x3a2dfbea	0.00066369644
65	0x3a925026	0.0011162802
66	0x3ab3a9f3	0.0013707265
67	0x3ccf3dc6	0.02529801
68	0x3b9ccfd6	0.004785518
69	0x39de2176	0.0004236807
70	0x3ac658fa	0.0015132718
71	0x3a8223c2	0.000992887
72	0x39b47d44	0.00034425606
73	0x39aad51b	0.00032583703
74	0x3a1fcd47	0.00060959574
75	0x39236f74	0.00015586411
76	0x3a7520ec	0.0009350914
77	0x3aa930a5	0.0012908174
78	0x3b8dc51b	0.0043264753
79	0x38e0e848	0.00010724418
80	0x3a6d26aa	0.0009046594
81	0x3936c8de	0.00017431701
82	0x3908d70e	0.00013050085
83	0x3a59878f	0.0008298093
84	0x3ae3ceb9	0.0017380334
85	0x37aefbf1	2.0859736e-05
86	0x3a91f35e	0.0011135151
87	0x38cf93c9	9.898056e-05
88	0x3a850a07	0.0010150083
89	0x39d8d807	0.00041359683
90	0x39604adf	0.00021390196
91	0x39859116	0.00025475834
92	0x38f81c38	0.00011830818
93	0x3b3fb6db	0.0029253277
94	0x3a42b097	0.00074268266
95	0x38afdc9a	8.3857405e-05
96	0x3b143c2c	0.0022618873
97	0x3a02bc35	0.00049871515
98	0x39f8f0d8	0.0004748169
99	0x368cf37a	4.2006695e-06
100	0x3adf2d85	0.0017027116
101	0x39f48288	0.0004663656
102	0x3b20ddf6	0.0024546362
103	0x3a5103d2	0.00079732866
104	0x39bce53e	0.00036028953
105	0x3a8214e6	0.0009924441
106	0x38651cbb	5.4624612e-05
107	0x39902daa	0.00027499843
108	0x3c023db3	0.007949281
109	0x3b599e1b	0.003320581
110	0x38941cd6	7.062561e-05
111	0x39c96468	0.00038412516
112	0x3a1099d1	0.00055160845
113	0x3a05aa3c	0.0005098914
114	0x399c4087	0.00029802715
115	0x3a06fa42	0.00051489857
116	0x36f6fd70	7.3608753e-06
117	0x3a213836	0.00061500387
118	0x393d808a	0.00018072329
119	0x38abfdfe	8.201225e-05
120	0x3a1735a1	0.0005768184
121	0x39dcdc4d	0.00042125807
122	0x39435661	0.00018628828
123	0x37e46b97	2.7229818e-05
124	0x3a3a244b	0.0007100745
125	0x39764d33	0.00023489147
126	0x393c9127	0.0001798315
127	0x3b07104d	0.0020609081
128	0x39d2c195	0.0004019855
129	0x3b7e3382	0.0038788025
130	0x395383ef	0.00020171677
131	0x3a75e983	0.0009380804
132	0x3915f831	0.00014302206
133	0x3a1c2ea8	0.000595788
134	0x39f01915	0.00045795055
135	0x39849528	0.00025288132
136	0x3a079947	0.00051726814
137	0x3a30382c	0.00067222374
138	0x39f684da	0.00047019758
139	0x39aa792c	0.00032515207
140	0x39f1d676	0.00046126888
141	0x37dd931c	2.6413756e-05
142	0x3abcc1d4	0.0014401027
143	0x38e0d561	0.00010720897
144	0x39700915	0.00022891567
145	0x39dde9b6	0.00042326533
146	0x3a14551f	0.0005658436
147	0x3a60e580	0.000857912
148	0x39adc309	0.00033142444
149	0x38f58807	0.000117078474
150	0x3a232594	0.0006223556
151	0x386132ff	5.3691674e-05
152	0x3ab48296	0.0013771828
153	0x38f27357	0.00011560943
154	0x3a13d5b2	0.0005639448
155	0x3905243b	0.00012697365
156	0x3a14991b	0.00056685664
157	0x3a8c00cf	0.0010681393
158	0x39b8a16d	0.00035215486
159	0x3b7b68ab	0.0038361948
160	0x39ebc8cc	0.00044972298
161	0x3b82e8c5	0.0039950334
162	0x3a119366	0.0005553275
163	0x38af2b2d	8.3526924e-05
164	0x3a5d0b0a	0.0008432126
165	0x3a9d196b	0.0011985725
166	0x3b312fed	0.0027036623
167	0x391a5c7d	0.00014721039
168	0x3981a881	0.00024730343
169	0x39e2d63f	0.00043265705
170	0x395822e3	0.00020612362
171	0x3931ce95	0.00016956993
172	0x3a52feb8	0.00080488203
173	0x38bb8db0	8.943246e-05
174	0x3a042fcd	0.0005042523
175	0x39e0ef82	0.00042903057
176	0x3a81e420	0.0009909905
177	0x3a282300	0.0006413907
178	0x39f70e64	0.00047122233
179	0x386151b5	5.3720276e-05
180	0x394be438	0.00019444607
181	0x3a18fd3c	0.00058360747
182	0x39ef211a	0.00045610295
183	0x35d0c290	1.5553833e-06
184	0x3a155a9b	0.00056974
185	0x396bf3bd	0.00022502146
186	0x3a1901ba	0.0005836744
187	0x3934ff0f	0.00017261154
188	0x3a2f7d5c	0.00066944
189	0x390ed88b	0.00013622844
190	0x3896f627	7.198407e-05
191	0x3a9d796a	0.0012014334
192	0x396c5b0a	0.00022540629
193	0x3746ddb5	1.185334e-05
194	0x3a5b3907	0.0008362685
195	0x3a0e8d68	0.0005437941
196	0x3c502505	0.012704139
197	0x3b0de111	0.0021649043
198	0x3d1d54c2	0.03841091
199	0x3c2b1d5e	0.010444013
200	0x3bbea2ff	0.0058177705
201	0x3ca60a98	0.020268723
202	0x3a57ed2b	0.000823694
203	0x3c261321	0.010136397
204	0x3b416de6	0.0029514967
205	0x3bb332ca	0.005468701
206	0x3de1b69d	0.11021159
207	0x3cbbcba3	0.02292425
208	0x3a92984d	0.0011184305
209	0x3c04c4fa	0.0081036035
210	0x3bba4f64	0.0056857336
211	0x3b14c660	0.0022701249
212	0x3bd275d8	0.0064227395
213	0x3d821807	0.06352239
214	0x3a1b7448	0.0005930108
215	0x3d79a842	0.06095148
216	0x3d12fdb0	0.035886467
217	0x3ab75f76	0.0013990242
218	0x3c85d9d7	0.016339226
219	0x3b9537c5	0.0045537674
220	0x3be2c63c	0.006920604
221	0x3b7f9b05	0.003900231
222	0x3b88cc6e	0.0041747605
223	0x3c45c7f5	0.012071599
224	0x3b3db74c	0.0028948365
225	0x3cd72fde	0.026267942
226	0x3aa5b52d	0.0012642496
227	0x3e8e9208	0.27845788
228	0x3ace3b32	0.0015734194
229	0x3c76b6db	0.015058245
230	0x3a8be011	0.0010671635
231	0x3c10984d	0.008825374
232	0x3ca67007	0.02031709
233	0x3c668b90	0.01407136
234	0x3c27d697	0.010244033
235	0x3c3def40	0.011592686
236	0x3c5c3b51	0.0134418765
237	0x3b8cf0ea	0.00430118
238	0x3c42457e	0.011857389
239	0x3b712d3b	0.003680064
240	0x3b87fc49	0.004149948
241	0x3b79fac1	0.0038143846
242	0x3bcdf9c6	0.006285879
243	0x3c1a116b	0.009403567
244	0x3ceb399f	0.028714
245	0x3c32b2b0	0.01090686
246	0x3ba54568	0.0050436743
247	0x3b1758ba	0.0023093657
248	0x3c1c9507	0.009557015
249	0x3b24b3ae	0.0025131512
250	0x3c5bb236	0.013409188
251	0x3b1df38b	0.0024101462
252	0x3c273db2	0.01020758
253	0x3b5b5800	0.00334692
254	0x3d0eb39b	0.034839254
255	0x3c7bd464	0.015370462
