models/cfv/mmkfcv3.pth (torch, 490360 bytes, 18 tensors)

lstm.weight_ih_l0 f4 [392, 1]
0	0x3ed2d05a	0.41174585
1	0x3e9cfdc9	0.30662373
2	0xbed94581	-0.4243584
3	0x3d4e0600	0.05029869
4	0xbf610f2f	-0.87913793
5	0xbdc9427e	-0.098271355
6	0x3e4b4089	0.19848837
7	0xbe628adc	-0.22123283
8	0x3dfdcdad	0.12392745
9	0xbe5b992d	-0.2144515
10	0xbf05bbba	-0.52239573
11	0xbed13204	-0.4085847
12	0x3daa00f2	0.083009616
13	0x3e4c7f87	0.19970523
14	0xbdce9712	-0.10087408
15	0xbec9be3c	-0.3940295
16	0xbedf3d9d	-0.43601695
17	0x3ef2401a	0.4731453
18	0x3e0b3274	0.13593465
19	0x3b5251ed	0.0032092289
20	0xbfe02b4c	-1.7513213
21	0xbe8224ba	-0.25418645
22	0x3e0707c6	0.13186559
23	0xbf4b995b	-0.79530877
24	0x3fa10c7e	1.2581937
25	0xbd2b0324	-0.041751042
26	0x3f5b8159	0.85744244
27	0xbf494bd5	-0.78631335
28	0x3f3b51ed	0.73171884
29	0x3f693037	0.91089195
30	0x3ee52670	0.44755888
31	0xbff1f06e	-1.8901498
32	0xbf22f1fd	-0.63650495
33	0xbf273e91	-0.65329844
34	0x3e868363	0.26272115
35	0xbedf001c	-0.4355477
36	0xbf77fa2b	-0.968661
37	0xbf039f69	-0.51415116
38	0xbebab37d	-0.36465064
39	0xbead91da	-0.33900338
40	0x3ec9abb3	0.3938881
41	0x3d301f96	0.042998873
42	0xbf56078b	-0.8360526
43	0x3f4ffa77	0.81241554
44	0x3da03741	0.07823039
45	0xbe3b177c	-0.18270677
46	0x3f764d30	0.9621153
47	0x3b9ebe13	0.004844436
48	0xbe616fca	-0.220153
49	0x3f924193	1.1426262
50	0x3c52cb47	0.012865848
51	0xbfafa9e5	-1.3723723
52	0x3f002b7d	0.5006636
53	0xbf8a71b9	-1.0815955
54	0xbe20497f	-0.15653037
55	0xbe855f33	-0.26049194
56	0x3f5b2c8c	0.8561485
57	0x3f91ed90	1.1400623
58	0xbed2f8a7	-0.41205332
59	0x3e31e71f	0.17373322
60	0xbe34cc0e	-0.17655966
61	0xbe86b8a1	-0.26312736
62	0x3e9adcf3	0.30246696
63	0xbd9b3f88	-0.07580477
64	0xbf2cc18a	-0.6748282
65	0xbe0f3b45	-0.13987453
66	0x3ea09091	0.31360295
67	0x3c8e8364	0.017396636
68	0xbd1eae30	-0.038740337
69	0x3f749fb7	0.95556206
70	0x3e584b18	0.21122396
71	0x3f8440d4	1.0332284
72	0xbeefdd51	-0.4684854
73	0xbeaae341	-0.33376506
74	0xbf30258d	-0.688073
75	0x3f264866	0.6495422
76	0x3b553b47	0.0032536553
77	0xbcaada6b	-0.020856103
78	0x3f6b1c26	0.91839826
79	0xbe1fb73c	-0.15597242
80	0xbed09e45	-0.4074575
81	0x3f023d13	0.5087444
82	0xbe760491	-0.2402518
83	0x3fe70172	1.8047316
84	0xbf473df6	-0.7782892
85	0x3e449300	0.19196701
86	0x3ef9f237	0.48817608
87	0x3ee5b705	0.44866195
88	0xbeb80a59	-0.35945395
89	0x3e7d3fa9	0.24731316
90	0xbebebeda	-0.37254983
91	0x3f436240	0.7632179
92	0x3f7ee547	0.995686
93	0xbed295b7	-0.41129848
94	0xbf0684dc	-0.5254648
95	0x3f0d4123	0.55177516
96	0x3e3b2875	0.18277152
97	0x3f2b427d	0.6689833
98	0x3dc27552	0.09495033
99	0x3fdfa4f6	1.7472217
100	0xbe69642b	-0.22792117
101	0xbee167b9	-0.44024447
102	0x3e7d3e67	0.24730836
103	0x3da63d9c	0.0811722
104	0xbb469e66	-0.0030306815
105	0x3ec1db65	0.37862697
106	0x3e54b9e9	0.20774044
107	0xbf147bbb	-0.580013
108	0x3fb84724	1.439671
109	0xbeaa1516	-0.33219212
110	0xbe032651	-0.12807585
111	0x3d719513	0.05898006
112	0xbe71eaae	-0.2362468
113	0xbe1d85fe	-0.15383145
114	0xbedba68e	-0.4290051
115	0xbe461fbf	-0.19348048
116	0x3e13d274	0.1443575
117	0xbf2a4013	-0.6650402
118	0xbf6c4ad9	-0.9230171
119	0xbe367a49	-0.17820086
120	0xbe7979af	-0.24362825
121	0xbe4dd05f	-0.20099019
122	0xbc706448	-0.014672346
123	0xbd94bb39	-0.072622724
124	0x3e927248	0.28602815
125	0xbee29847	-0.44256803
126	0x3dcaca7b	0.09901901
127	0x3eac46b9	0.33647707
128	0x3ed785ff	0.42094418
129	0xbe230366	-0.15919265
130	0x3d37ee27	0.044904854
131	0xba4e6cff	-0.0007874518
132	0x3e8f7c41	0.28024486
133	0xbe53828b	-0.20655267
134	0xbf031855	-0.51209
135	0xbf050d00	-0.5197296
136	0xbed12881	-0.40851215
137	0xbe7e6cdf	-0.24846219
138	0x3e9048ba	0.28180486
139	0xbcdcacbc	-0.026937835
140	0xbdbdbfb1	-0.09265078
141	0x3cfd62c7	0.03093089
142	0xbe42f41b	-0.19038431
143	0x3d9107bd	0.07081554
144	0xbe869cf4	-0.2629162
145	0xbdb74afd	-0.0894985
146	0xbeb72aa8	-0.35774732
147	0x3cbf6fba	0.023368705
148	0xbf088be1	-0.5333844
149	0xbf6f5302	-0.93486035
150	0xbeac618d	-0.33668175
151	0xbf3d5195	-0.7395261
152	0x3e93bb1e	0.28853697
153	0xbe5bfd0c	-0.21483248
154	0x3ef89c42	0.48556715
155	0x3eda5f0f	0.4265065
156	0xbb052700	-0.0020317435
157	0xbee6ad43	-0.45054063
158	0xbf56f971	-0.8397437
159	0x3e06057c	0.1308803
160	0x3f0df5a1	0.55452925
161	0xbeb6ad59	-0.3567913
162	0xbea98a66	-0.33113402
163	0x3e8329a0	0.25617695
164	0xbebacc9f	-0.36484239
165	0xbdadfbb5	-0.08495275
166	0x3ed8ddd0	0.4235673
167	0x3e99cd95	0.3003966
168	0xbd6e145b	-0.05812488
169	0x3ec0664b	0.37578043
170	0xbf860317	-1.0469693
171	0xbf51b36b	-0.81914395
172	0x3f769940	0.9632759
173	0x3e0cf634	0.13765794
174	0x3f0d8ef2	0.5529624
175	0xbe5f73a8	-0.21821463
176	0x3dfdc99a	0.12391968
177	0xbf1d9ad6	-0.61564386
178	0xbee5e0fc	-0.44898212
179	0xbe1e431d	-0.15455289
180	0x3cbfef4e	0.023429539
181	0x3ee768ef	0.45197245
182	0xbe254f97	-0.16143642
183	0xbe49bb16	-0.19700274
184	0x3e4a2d79	0.19743909
185	0x3e5fbd82	0.21849635
186	0xbf1120f3	-0.566909
187	0x3d07a2e2	0.03311432
188	0x3d14f047	0.03636196
189	0xbe386b8b	-0.18009774
190	0x3f06f99b	0.5272462
191	0xbe9a33ab	-0.30117545
192	0xbee54dd0	-0.4478593
193	0x3ed5ae17	0.41734383
194	0xbee85ee2	-0.4538489
195	0xbea43aa2	-0.32075983
196	0xbecaccf4	-0.39609492
197	0xbc438936	-0.011934569
198	0xbdea3a5b	-0.11436912
199	0xbe8f0406	-0.27932757
200	0x3ee8d2e7	0.45473406
201	0xbedf63d6	-0.43630856
202	0xbe49c9f1	-0.19705941
203	0xbdeafe46	-0.1147428
204	0xbcf12271	-0.029435368
205	0xbddce305	-0.10785488
206	0x3f39b9a1	0.7254887
207	0xbd9547f3	-0.07289114
208	0xbd8cfee6	-0.068845555
209	0xbf82e7ca	-1.0226986
210	0x3cbac40a	0.022798557
211	0xbb6221a1	-0.0034504908
212	0x3ed98f41	0.42492107
213	0xbede76fb	-0.4345015
214	0xbd4cc41d	-0.049991716
215	0x3ef00fa5	0.46886936
216	0x3f7f74a6	0.99787366
217	0xbe899c6d	-0.26877156
218	0x3f53bfb3	0.82714385
219	0x3f06f0bb	0.52711076
220	0xbed22045	-0.41040245
221	0x3e848f84	0.25890744
222	0xbf5ebfc1	-0.87011343
223	0x3edccd39	0.43125322
224	0x3ebfef8a	0.3748744
225	0x3f641598	0.8909545
226	0xbcf8841d	-0.030336434
227	0x3f6641f1	0.8994437
228	0x3efc7073	0.49304542
229	0xbdcdc18a	-0.1004668
230	0x3ed6fb45	0.41988578
231	0x3e42301b	0.18963663
232	0xbf2cad6f	-0.6745214
233	0xbdb62798	-0.08894271
234	0xbee06e4b	-0.43834147
235	0x3e2e4fd1	0.17022635
236	0xbe8d135d	-0.27553836
237	0xbf19d2cb	-0.6008727
238	0xbefb2c27	-0.49057123
239	0xbf1923b8	-0.5982013
240	0x3e85e8d8	0.26154208
241	0xbd6b46ef	-0.057440694
242	0x3ef9b641	0.4877186
243	0xbda5c4c1	-0.080941685
244	0xbf505390	-0.81377506
245	0xbf93d9f6	-1.1550891
246	0x3e472150	0.19446301
247	0xbecb64a5	-0.39725223
248	0x3efd6ae7	0.49495623
249	0xbf61b1cd	-0.8816193
250	0xbdfc78f6	-0.12327759
251	0xbe4101f0	-0.18848395
252	0xbedb5fe8	-0.42846608
253	0x3ed85768	0.42254186
254	0xbef3cabe	-0.47615618
255	0xbeb01690	-0.34392214

lstm.weight_hh_l0 f4 [392, 98]
0	0xbee9607f	-0.45581433
1	0x3f1fa1cc	0.6235626
2	0xbdcb047e	-0.09912966
3	0x3ccc9739	0.024974452
4	0x3e8cd194	0.27503645
5	0x3d3cb1f3	0.046068143
6	0x3b7d640e	0.0038664374
7	0xbeb8336e	-0.35976738
8	0xbe10e0b8	-0.14148223
9	0xbdc5d5e8	-0.0965994
10	0xbe117630	-0.14205241
11	0xbe8d0058	-0.27539325
12	0x3d9f2a7b	0.077717744
13	0xbc9eca38	-0.019383535
14	0xbe8581a0	-0.2607546
15	0xbc1491fb	-0.009068008
16	0xbec82696	-0.3909194
17	0x3e59a604	0.21254736
18	0x3e1c3ee7	0.1525837
19	0x3ea2fab6	0.31831902
20	0x3ddef786	0.10887055
21	0xbebbbd1d	-0.3666772
22	0xbef73c6c	-0.48288286
23	0xbd905cd7	-0.07048958
24	0x3e936d0d	0.28794137
25	0x3c3e054d	0.0115979435
26	0x3dc4bf6b	0.096068226
27	0xbec63f17	-0.3872001
28	0x3dcbb01f	0.09945702
29	0x3e9411a0	0.28919697
30	0xbdac9931	-0.084276564
31	0x3eb3f6f0	0.35149336
32	0xbe9f07be	-0.31060594
33	0x3d11ed6a	0.035626806
34	0xbe8d3129	-0.2757657
35	0xbca9521d	-0.020669037
36	0x39b37fb8	0.00034236698
37	0xbe889a78	-0.2668035
38	0xbee83632	-0.45353848
39	0x3f0c07a1	0.5469914
40	0x3efd9567	0.49528047
41	0x3f95a1c8	1.1689997
42	0x3ec0c6b6	0.37651604
43	0xbee1f04d	-0.44128647
44	0xbc1fd0a6	-0.0097543355
45	0xbd2ac571	-0.0416922
46	0xbe17c59b	-0.14821474
47	0xbb0ab0d3	-0.0021162524
48	0xbeabb299	-0.33534697
49	0x3e948721	0.29009345
50	0xbe825482	-0.254551
51	0x3e70b74c	0.23507422
52	0xbf32bff6	-0.6982416
53	0x3d0f9273	0.035051774
54	0x3e5f4cce	0.21806642
55	0x3bda3bb2	0.0066599483
56	0x3e818892	0.25299507
57	0xbe2ac99a	-0.16678467
58	0xbe16e729	-0.14736618
59	0x3d35c614	0.044378355
60	0x3ee02e01	0.43785098
61	0xbcf2a359	-0.029618906
62	0xbdde2875	-0.1084756
63	0xbebed6ff	-0.37273404
64	0xbec0b5fb	-0.3763884
65	0xbe627d66	-0.22118148
66	0x3e2040e9	0.15649761
67	0xbd05785f	-0.032585498
68	0x3e949b45	0.2902471
69	0xbf1e39d0	-0.61806965
70	0xbe9f5fba	-0.3112772
71	0x3eaa251b	0.33231434
72	0xbe9518f3	-0.29120597
73	0x3be5b0a2	0.0070095817
74	0xbedc6275	-0.43043867
75	0xbf152a82	-0.58267987
76	0xbf7d0034	-0.98828435
77	0x3f01dbfe	0.50726306
78	0x3ee53959	0.44770315
79	0xbf1b9f1a	-0.60789645
80	0xbe60ff84	-0.21972471
81	0xbef82b28	-0.48470426
82	0x3e0c6fd7	0.13714539
83	0x3f1aad2c	0.6042049
84	0x3e9b1aa8	0.30293775
85	0x3f5c1f7a	0.8598553
86	0xbdad8b0e	-0.08473788
87	0xbbcacf05	-0.0061892294
88	0x3e26ac05	0.16276558
89	0xbcf2576b	-0.0295827
90	0x3f126bc5	0.57195693
91	0x3e84e7b4	0.25958025
92	0xbe49210d	-0.19641514
93	0xbe810251	-0.2519708
94	0x3ebce9b1	0.36897042
95	0x3f05877f	0.52159876
96	0x3e50d27b	0.20392792
97	0x3ec16ffb	0.37780747
98	0x3e539e7e	0.20665929
99	0x3f9ff0f7	1.2495412
100	0xbe67d9a5	-0.22641619
101	0x3e731dff	0.23741911
102	0x3db6ef54	0.08932367
103	0xbe253bbc	-0.16136068
104	0xbde35dde	-0.11101888
105	0x3f217814	0.6307385
106	0xbea69991	-0.32539037
107	0xbd0c7078	-0.034286946
108	0xbf2b064f	-0.668065
109	0x3e41b9ba	0.18918505
110	0x3ea88194	0.3291136
111	0x3e5e64aa	0.21718088
112	0xbe793e05	-0.24340065
113	0xbe58c878	-0.21170223
114	0xbe068093	-0.13134985
115	0x3edbe299	0.42946318
116	0x3d86f3ea	0.06589492
117	0xbf1cb32c	-0.61210895
118	0xbd0b3858	-0.03398928
119	0xbe618efa	-0.22027197
120	0xbe5ca54d	-0.21547432
121	0x3e93c618	0.2886207
122	0x3cb77d9f	0.022398768
123	0xbf1b7a1c	-0.607332
124	0x3e30973c	0.17245191
125	0xbe52af69	-0.20574726
126	0x3e0b79fa	0.13620749
127	0xbf007ad0	-0.50187397
128	0x3e304805	0.17214973
129	0x3e82ea51	0.25569394
130	0xbf29304b	-0.66089314
131	0x3ef3bbec	0.4760431
132	0xbdc09221	-0.09402872
133	0x3e06b6e9	0.13155712
134	0x3c43f26d	0.011959654
135	0x3e783108	0.24237454
136	0xbde0fd26	-0.10985784
137	0xbeb5ae36	-0.35484475
138	0xbe123a00	-0.14279938
139	0x3d8255b2	0.06364001
140	0xbea3fe9c	-0.3203019
141	0x3ef295c4	0.47379887
142	0xbf1af20b	-0.6052558
143	0x3e403562	0.18770364
144	0xbef982e1	-0.48732665
145	0xbd492594	-0.049108103
146	0xbc88c0a2	-0.016693417
147	0x3e7bad2b	0.24577777
148	0xbe934bf4	-0.28768885
149	0x3f22b7a6	0.63561475
150	0xbefa6f65	-0.48913112
151	0x3de0e849	0.10981805
152	0x3de0b329	0.10971672
153	0xbf0460c3	-0.51710147
154	0xbe33bec6	-0.17553243
155	0x3e9facc4	0.31186497
156	0xbee591f8	-0.44837928
157	0x3ed3855e	0.4131269
158	0xbf240f72	-0.6408607
159	0x3e8fe814	0.2810675
160	0xbd087fee	-0.03332513
161	0xbea8982a	-0.32928592
162	0xbe334796	-0.17507777
163	0xbd867593	-0.06565394
164	0xbedea13d	-0.4348239
165	0x3becee71	0.007230573
166	0xbf59c1c2	-0.85061276
167	0x3eaf4ebd	0.3423976
168	0xbece1292	-0.40248543
169	0x3db3a10e	0.08770953
170	0x3eb31944	0.34980214
171	0xbe8c7790	-0.2743497
172	0xbe814cff	-0.25254056
173	0xbe1900c4	-0.14941698
174	0xbe66108e	-0.22467253
175	0x3eb25ca8	0.34836316
176	0x3eaa9fdc	0.33325088
177	0xbdc25d6f	-0.09490477
178	0xbe9118c1	-0.28339198
179	0xbd666fe7	-0.056259062
180	0xbe2d138e	-0.16901991
181	0x3e01d4b8	0.12678802
182	0x3d67e68f	0.056616362
183	0x3e106dd1	0.14104392
184	0x3f2bc274	0.67093587
185	0x3eb9a02c	0.36255014
186	0x3e1016fd	0.1407127
187	0x3ed5fcef	0.41794536
188	0x3f058a65	0.521643
189	0xbc1bdd3a	-0.009513194
190	0x3e8d4fc6	0.27599925
191	0x3e260458	0.16212595
192	0xbe631ebe	-0.22179696
193	0x3e538ef6	0.20660004
194	0x3e9ac656	0.30229443
195	0xbee5ae0f	-0.4485936
196	0xbeb3f055	-0.35144296
197	0xbf3747f7	-0.71594185
198	0x3e8f5585	0.27994934
199	0x3e833e0d	0.25633278
200	0x3e73df43	0.23815636
201	0xbe8eada0	-0.2786684
202	0xbc32d56f	-0.010915144
203	0xbe7f8505	-0.24953087
204	0xbe892294	-0.26784194
205	0xbea50ecf	-0.3223786
206	0xbf15aca5	-0.5846656
207	0xbf354cc7	-0.7082028
208	0xbed24bb9	-0.41073397
209	0xbe6ec297	-0.23316418
210	0xbdde5d66	-0.10857658
211	0xbe735ffa	-0.23767081
212	0x3ec0d7fe	0.3766479
213	0x3e913725	0.28362384
214	0x3e0afc60	0.13572836
215	0xbdff26e4	-0.1245859
216	0xbe5ad80c	-0.21371478
217	0xb9f29be1	-0.00046273976
218	0x3caafa06	0.020871174
219	0x3e9715b8	0.29508758
220	0xbecc87cd	-0.39947358
221	0xbbe09ff3	-0.006855005
222	0x3dc3813d	0.095461346
223	0xbdfb129e	-0.1225941
224	0x3eaa857c	0.33304965
225	0xbe94ab3d	-0.29036894
226	0x3b401406	0.002930881
227	0x3ccb1b99	0.024793433
228	0xbd8f1849	-0.06987054
229	0xbe2470c5	-0.16058643
230	0x3e60618e	0.21912214
231	0xbd0bcde5	-0.034131903
232	0xbdb825c5	-0.08991579
233	0xbe921a72	-0.285358
234	0xbc2a1316	-0.010380527
235	0xbf096493	-0.5366909
236	0xbf466d98	-0.77510977
237	0x3e0d580f	0.13803123
238	0xbc1b5817	-0.0094814515
239	0xbd0ec0c1	-0.034851793
240	0x3e91db41	0.2848759
241	0xbe991dc4	-0.29905522
242	0xbe16564c	-0.14681357
243	0x3d0a976f	0.033835825
244	0xbe943c04	-0.28952038
245	0xbe8f4637	-0.27983257
246	0x391910a9	0.00014597423
247	0x3e77a16c	0.24182671
248	0x3ea0a6cd	0.3137726
249	0xbddc7eb9	-0.10766358
250	0x3e3743cd	0.17896958
251	0xbe83d323	-0.25747022
252	0xbe9c1225	-0.30482593
253	0xbcb02b16	-0.02150492
254	0x3d4f00e2	0.05053795
255	0x3e66db41	0.22544576

lstm.bias_ih_l0 f4 [392]
0	0xbe160809	-0.14651503
1	0xbd8766f6	-0.06611435
2	0xbe764ceb	-0.2405278
3	0xbe22c281	-0.1589451
4	0xbe8b68a8	-0.27228284
5	0xbdf836d5	-0.121198334
6	0xbf154995	-0.583154
7	0xbe3b3b64	-0.18284374
8	0x3cd6d0a4	0.026222534
9	0xbe1b73e7	-0.15180932
10	0xbe7ea4bd	-0.2486753
11	0xbe2bfccc	-0.16795653
12	0xbe960b23	-0.29305372
13	0xb969412f	-0.00022244894
14	0xbeb5921a	-0.3546303
15	0xbe96b653	-0.29435977
16	0xbe8649d0	-0.2622819
17	0xbebab843	-0.36468706
18	0xbee3da2b	-0.44502386
19	0xbda6d3ca	-0.08145864
20	0xbea78460	-0.32718182
21	0xbea0f651	-0.31437925
22	0xbec50ad6	-0.3848483
23	0xbe15beca	-0.14623562
24	0xbe93be39	-0.28856066
25	0xbe6fd631	-0.23421551
26	0xbe4bc462	-0.19899133
27	0xbe87d3c2	-0.26528746
28	0xbf00e6fd	-0.5035246
29	0xbe83cc03	-0.25741586
30	0xbe67431d	-0.22584195
31	0xbe801fbd	-0.25024214
32	0xbdef753f	-0.11692285
33	0xbe045c2a	-0.12925783
34	0xbef01d11	-0.46897176
35	0xbe5f2de5	-0.21794851
36	0xbe50b237	-0.20380484
37	0x3d22cb1a	0.039744474
38	0xbea03b65	-0.31295314
39	0xbea1a8db	-0.3157414
40	0xbe9946c9	-0.29936817
41	0xbe818cff	-0.25302884
42	0xbd625cbd	-0.055264223
43	0xbe419758	-0.1890539
44	0xbe8ad353	-0.27114353
45	0xbf0155f2	-0.5052177
46	0xbe204241	-0.15650274
47	0xbd9e01aa	-0.07715161
48	0xbd26ceb5	-0.040724475
49	0xbee49da0	-0.44651508
50	0xbe390dee	-0.1807172
51	0xbe8a3362	-0.26992327
52	0xbe5ce1d9	-0.21570529
53	0xbec87b2f	-0.39156482
54	0xbe61b757	-0.22042595
55	0xbdff4fe4	-0.1246641
56	0xbebb3814	-0.36566222
57	0xbe856c89	-0.26059368
58	0xbe854365	-0.2602798
59	0xbedb9f4f	-0.4289498
60	0xbdd59978	-0.104296625
61	0xbdb8b4db	-0.090188704
62	0xbeff91a4	-0.49915802
63	0xbec8a099	-0.39185026
64	0xbcae9363	-0.021310514
65	0xbea341f1	-0.31886247
66	0xbe959a49	-0.29219273
67	0xbea37643	-0.31926164
68	0xbc88045a	-0.016603637
69	0xbde34e5d	-0.11098931
70	0x3ce92368	0.028459266
71	0xbe2b577b	-0.1673259
72	0xbe8b0e52	-0.27159363
73	0xbec02d00	-0.37534332
74	0xbdfb93b0	-0.122840285
75	0xbebdcfdb	-0.37072644
76	0xbe826272	-0.25465733
77	0xbeca0a86	-0.39461154
78	0xbec4b2be	-0.3841762
79	0x3d8a1cd2	0.06743778
80	0xbe9ebec5	-0.3100492
81	0xbe90895c	-0.28229797
82	0xbe5b7d79	-0.21434583
83	0xbd984a46	-0.074360415
84	0xbd81d355	-0.063391365
85	0xbe8d21cb	-0.27564844
86	0xbe47da4f	-0.19516872
87	0xbe8600ef	-0.26172587
88	0xbe5ccc4a	-0.21562305
89	0xbe1c3388	-0.15254033
90	0xbeea1cea	-0.45725185
91	0xbe4a3fd2	-0.19750908
92	0xbe31fb8c	-0.17381114
93	0xbec91692	-0.39275032
94	0xbebe379e	-0.37151808
95	0xbe9e6f91	-0.30944493
96	0xbed57d0a	-0.4169696
97	0xbec2516b	-0.37952742
98	0x3db11d81	0.086482055
99	0x3e8f7c25	0.28024402
100	0xbe4c0fce	-0.19927904
101	0x3e06a96f	0.13150571
102	0xbdb1433c	-0.08655402
103	0x3e784469	0.24244846
104	0x3e646613	0.22304563
105	0xbeb97d4e	-0.36228412
106	0x3e845caf	0.25851962
107	0xbcbee053	-0.023300325
108	0x3f002de0	0.5007
109	0xbe0b0904	-0.13577658
110	0x3e1e4cb6	0.1545895
111	0x3cbd846f	0.023134438
112	0x3c125629	0.008931675
113	0xbbeebcd1	-0.0072856923
114	0xbc21a4e8	-0.009865977
115	0x3ea3bef8	0.31981635
116	0x3dc714e9	0.09720785
117	0x3e8b8cea	0.27255946
118	0xbe14b3ed	-0.14521761
119	0x3e2fd265	0.17170103
120	0x3d5d7d55	0.054074604
121	0x3e0bb6ae	0.13643906
122	0xbe515b32	-0.20444945
123	0xbb16f205	-0.0023032438
124	0x3ec3eae6	0.3826515
125	0xbd6b9190	-0.057511866
126	0xbd74af49	-0.059737477
127	0x3e18957a	0.14900771
128	0x3dbef2aa	0.09323628
129	0xbe08ccab	-0.13359325
130	0x3d5cb12c	0.0538799
131	0x3e2c123a	0.16803828
132	0xbde6464c	-0.11243877
133	0xbe1d25ec	-0.15346497
134	0x3d96bd41	0.07360316
135	0xbd5dd5a7	-0.054158833
136	0xbd56aa65	-0.052408595
137	0xbdb8028c	-0.08984861
138	0x3dc264cf	0.09491884
139	0x3de225f3	0.110423945
140	0x3e05b925	0.13058908
141	0x3e0eacd5	0.13933118
142	0x3dca4f7e	0.09878443
143	0x3e356342	0.17713645
144	0x3f025822	0.5091573
145	0x3c9e4d29	0.019323902
146	0xbdc977ff	-0.098373406
147	0x3c966d19	0.018362569
148	0xba5a5212	-0.00083282695
149	0xbe05c1fb	-0.13062279
150	0x3d7a9f4a	0.061187066
151	0x3e2168bf	0.15762614
152	0x3e226ef6	0.1586264
153	0x3e0286b0	0.12746692
154	0xbb96bd70	-0.0046002194
155	0x3d926f87	0.071501784
156	0xbe2cec4c	-0.16887015
157	0x3e4210c0	0.18951702
158	0x3dcda031	0.1004032
159	0x3ccad251	0.02475849
160	0x3db42381	0.08795834
161	0x3cfd10bb	0.030891767
162	0x3d2933a2	0.041309007
163	0x3d96cd96	0.07363431
164	0x3dc04fd3	0.09390225
165	0x3d01ece0	0.031720042
166	0x3d65a410	0.056064665
167	0x3d8b4496	0.06800191
168	0x3d498e1d	0.049207795
169	0x3e734e22	0.23760274
170	0xbdd37112	-0.10324301
171	0x3dd4103f	0.10354661
172	0x3ea0c2e2	0.31398684
173	0xbdb013b4	-0.08597508
174	0x39ebd6f0	0.00044982834
175	0x3d117ab2	0.035517402
176	0xbec5401f	-0.38525483
177	0x3eac7561	0.33683303
178	0x3d196831	0.03745288
179	0xbe5d3cd9	-0.21605243
180	0xbdc006e6	-0.09376316
181	0xbe9d71a4	-0.30750763
182	0xbe00d9c7	-0.12583075
183	0x3d3d2c75	0.046184976
184	0x3e2fbd77	0.17162119
185	0x3d89d846	0.06730704
186	0x3e3697d1	0.17831351
187	0x3d524400	0.05133438
188	0xbdd23e81	-0.10265828
189	0xbc15be17	-0.009139559
190	0x3e8f4bc7	0.279875
191	0xbe876709	-0.26445797
192	0x3b05758c	0.0020364253
193	0xbe82d8c8	-0.25556016
194	0xbca59ecc	-0.020217322
195	0x3c86fc60	0.016477764
196	0x3d8e44e2	0.06946732
197	0x3e3fade1	0.18718673
198	0xbe6ce1c6	-0.23133
199	0xbc37ff93	-0.011230367
200	0x3dd02c0d	0.10164652
201	0x3c02135a	0.007939184
202	0xbe13ecb1	-0.1444576
203	0xbdc5c05c	-0.0965583
204	0x3e26a96f	0.16275571
205	0x3c608235	0.013702919
206	0x3ccdd1ab	0.025124392
207	0xbe1c5f25	-0.1527067
208	0x3dbfa358	0.09357327
209	0xbd05b114	-0.032639578
210	0xbdc005f8	-0.093761384
211	0xbcd099f5	-0.025464037
212	0x3d8298c6	0.063767955
213	0x3d06d6d3	0.032919716
214	0xbd937578	-0.0720014
215	0x3c566259	0.013084971
216	0xbd222283	-0.039583694
217	0xbd6280ae	-0.0552985
218	0x3d300db7	0.04298183
219	0x3e544d16	0.20732531
220	0x3dc2141a	0.0947649
221	0xbe32c029	-0.17456116
222	0x3c11dfb7	0.008903435
223	0x3ce4b001	0.027915956
224	0xbc38fc85	-0.011290674
225	0x3dbf6186	0.09344773
226	0x3da82b50	0.08211386
227	0x3d58b65e	0.052908294
228	0xbdf41e05	-0.11919788
229	0x3e66d450	0.22541928
230	0xbd195a20	-0.037439466
231	0xbd84a6c5	-0.06477121
232	0x3cb71a20	0.022351325
233	0xbe9aaa33	-0.30207977
234	0xbdf7484c	-0.120743364
235	0x3df11d47	0.11773162
236	0x3e22fe16	0.15917239
237	0x3e2ac9bf	0.16678523
238	0xbdda2240	-0.10651064
239	0xbd866ce6	-0.065637395
240	0xbda45338	-0.08023685
241	0x3d8ae029	0.067810364
242	0xbcde294f	-0.027119307
243	0xbd100af6	-0.035166703
244	0xbe01b7b5	-0.12667735
245	0x3dba1104	0.09085277
246	0xbe03a70b	-0.1285669
247	0xbe4bfef8	-0.19921482
248	0xbd9d141b	-0.076698504
249	0xbd915381	-0.07096005
250	0xbe0f2b30	-0.13981318
251	0xbe21d795	-0.15804894
252	0x3e167209	0.14691938
253	0xbc853f54	-0.016265549
254	0x3cd5f12e	0.02611598
255	0x3aad9489	0.001324312

lstm.bias_hh_l0 f4 [392]
0	0xbdab8f2f	-0.083769195
1	0xbe85e535	-0.26151434
2	0xbec1dc0f	-0.37863204
3	0xbe2d2ded	-0.1691205
4	0xbe8b1351	-0.27163175
5	0xbe804529	-0.25052765
6	0xbecfcecf	-0.4058747
7	0xbdfea76a	-0.124342754
8	0x3d5c7b30	0.05382842
9	0xbe5e5f23	-0.2171598
10	0xbea4a25d	-0.32155123
11	0xbe2628b5	-0.16226466
12	0xbe40e208	-0.18836224
13	0xbd63f2f9	-0.05565164
14	0xbeb7e2d3	-0.3591524
15	0xbe93ee3f	-0.28892705
16	0xbde27f29	-0.1105941
17	0xbe7f53bc	-0.24934286
18	0xbee3c456	-0.4448573
19	0xbe1e298e	-0.1544554
20	0xbeabd664	-0.33562005
21	0xbe9416d1	-0.28923658
22	0xbecc7f69	-0.39940956
23	0xbe88440c	-0.26614416
24	0xbeb3d7a2	-0.35125452
25	0xbe7469bd	-0.23868461
26	0xbd5d8287	-0.05407956
27	0xbe89b74d	-0.2689766
28	0xbf04d857	-0.5189261
29	0xbe831498	-0.2560165
30	0xbe97f134	-0.2967621
31	0xbe8e9e7d	-0.27855292
32	0xbe3ce500	-0.18446732
33	0xbe592318	-0.21204793
34	0xbeea365e	-0.45744604
35	0xbec22883	-0.37921533
36	0xbe935524	-0.28775895
37	0xbb6ebf4f	-0.0036429947
38	0xbe86e3a0	-0.2634554
39	0xbec597c2	-0.38592345
40	0xbec0d97c	-0.37665927
41	0xbe57895c	-0.21048492
42	0xbe1ce2b9	-0.15320863
43	0xbe87e9b4	-0.2654549
44	0xbe792ad0	-0.24332738
45	0xbee0b0bb	-0.43884835
46	0xbe4857e9	-0.19564785
47	0x3c9ea771	0.019366952
48	0xbda6e634	-0.081493765
49	0xbeb92f83	-0.3616906
50	0xbe02abaf	-0.12760805
51	0xbed4cb1a	-0.41561204
52	0xbe1cc9cc	-0.15311354
53	0xbea3df98	-0.32006526
54	0xbe2d37d9	-0.16915835
55	0xbe09e03a	-0.13464442
56	0xbec808e0	-0.3906927
57	0xbe7b404a	-0.24536243
58	0xbe7ad2bc	-0.24494451
59	0xbed1efd6	-0.41003293
60	0xbe8aec10	-0.27133226
61	0xbcf60e5b	-0.030036142
62	0xbf0fe001	-0.5620118
63	0xbf025a30	-0.50918865
64	0x3bc24a0a	0.0059292363
65	0xbe9679af	-0.29389712
66	0xbe6116d2	-0.21981362
67	0xbe8db7a4	-0.2767917
68	0xbd901547	-0.07035308
69	0xbd8b8d70	-0.068140864
70	0xbd66c2bd	-0.05633806
71	0xbe7a1dce	-0.24425432
72	0xbeca5fd0	-0.39526224
73	0xbe82f4e2	-0.25577456
74	0xbe364af6	-0.17802033
75	0xbea76543	-0.32694444
76	0xbdd985a4	-0.10621193
77	0xbeba5a36	-0.3639695
78	0xbec2a8ea	-0.38019496
79	0x3be1292c	0.006871363
80	0xbea50c98	-0.3223617
81	0xbe8049a4	-0.25056183
82	0xbeaf246c	-0.34207475
83	0xbcbb20d0	-0.022842795
84	0xbd53dd62	-0.0517248
85	0xbe3367f9	-0.17520131
86	0xbe19d468	-0.15022433
87	0xbda51456	-0.080605194
88	0xbe8b2299	-0.27174833
89	0xbdb7f12e	-0.08981548
90	0xbec12e1b	-0.37730488
91	0xbdf0abff	-0.11751556
92	0xbe44fc08	-0.19236767
93	0xbefd8541	-0.49515727
94	0xbea2596a	-0.31708843
95	0xbe930a9e	-0.28719038
96	0xbe8f7256	-0.2801692
97	0xbe4c7eae	-0.199702
98	0xbd90aecd	-0.070645906
99	0x3e917a94	0.28413832
100	0xbdfa6548	-0.12226349
101	0x3e3bc7e8	0.18337977
102	0xbd965400	-0.073402405
103	0x3e8244cd	0.25443116
104	0x3e523f0e	0.20531866
105	0xbe84609d	-0.2585496
106	0x3eb8aba8	0.36068463
107	0x3c83d299	0.016091632
108	0x3ecf11ae	0.40443176
109	0xbd5f2d84	-0.054486766
110	0x3e2b034b	0.16700475
111	0x3dc77c9b	0.097405635
112	0x3dec7a9e	0.11546825
113	0x3daa083d	0.083023526
114	0xbcd041d7	-0.02542202
115	0x3eb83f81	0.3598595
116	0x3e13a50c	0.14418429
117	0x3eb1afd3	0.34704456
118	0xbd77a3bd	-0.060458887
119	0x3d582f47	0.052779462
120	0x3d82ac23	0.06380489
121	0x3d88a6ac	0.06672415
122	0xbe44d6b0	-0.19222522
123	0xbda0b060	-0.07846141
124	0x3eaea760	0.34112072
125	0xbaa75bb4	-0.0012768419
126	0xbdbc7635	-0.09202234
127	0x3de884f8	0.11353487
128	0x3d4b288d	0.04959922
129	0xbe51481b	-0.20437662
130	0x3dcc3993	0.09971919
131	0x3ea643f0	0.32473707
132	0xbd8b9af8	-0.06816667
133	0xbe14d1c4	-0.14533144
134	0x3d17b7ea	0.03704063
135	0x3cede030	0.029037565
136	0xbdaa2800	-0.08308411
137	0xbe2165d8	-0.15761507
138	0x3e1a7e02	0.1508713
139	0x3da77c1e	0.0817797
140	0x3cd79277	0.026314957
141	0x3e45fd3c	0.19334882
142	0x3e0d6196	0.13806757
143	0x3deaf020	0.114715815
144	0x3ec6c69b	0.388234
145	0xbda4ebf9	-0.08052821
146	0xbdd27a3e	-0.10277222
147	0xbd32c185	-0.043641586
148	0x3e1980fa	0.14990607
149	0xb985b8f6	-0.00025505543
150	0x3c1290e0	0.008945674
151	0x3e2dbc75	0.16966422
152	0x3da9c29a	0.082890704
153	0x3d3f2f4e	0.046675973
154	0x3d9a8ce4	0.07546404
155	0x3e2242d0	0.158458
156	0xbe9342d7	-0.28761932
157	0x3e82bb44	0.25533497
158	0x3e729d0e	0.23692724
159	0x3d428da9	0.04749838
160	0x3e0e810c	0.13916415
161	0xbbcac890	-0.0061884597
162	0x3dc60b53	0.09670129
163	0xbcd1ab4a	-0.025594372
164	0x3aad333f	0.0013214125
165	0x3d5306a9	0.051520023
166	0x3d0000d0	0.031250775
167	0x3d79cb4e	0.060984902
168	0x3e4e4f38	0.20147407
169	0x3e90c683	0.28276452
170	0xbe0dd80b	-0.13851945
171	0x3b88fe19	0.0041806814
172	0x3ecc177e	0.39861673
173	0x3ccce33b	0.025010696
174	0xbe06e2dd	-0.13172479
175	0xbdc39762	-0.09550358
176	0xbed852b5	-0.422506
177	0x3ea6f07c	0.3260535
178	0x3de4e030	0.11175573
179	0xbe858000	-0.2607422
180	0xbd877f23	-0.06616046
181	0xbea6c408	-0.32571435
182	0xbe036746	-0.12832364
183	0xbb74c2a4	-0.003734746
184	0x3ddfb133	0.1092247
185	0xbd19f5bd	-0.03758787
186	0x3ddc4b80	0.10756588
187	0x3e1708b6	0.14749417
188	0x3c57c45b	0.013169373
189	0xbdb28d8f	-0.087184064
190	0x3e016fdb	0.12640326
191	0xbe8f580e	-0.27996868
192	0xbaa69e94	-0.0012712055
193	0xbdd48d24	-0.10378483
194	0x3c2b4ee7	0.0104558235
195	0x3e3e82b6	0.1860455
196	0x3ca8d5b2	0.02060971
197	0x3e0a42e0	0.13502073
198	0xbe28dc1b	-0.16490214
199	0xbc2aaba8	-0.010416903
200	0x3db411bf	0.08792447
201	0x3d9ae1e5	0.07562617
202	0xbda68b2b	-0.08132013
203	0xbe03673e	-0.12832353
204	0x3db23410	0.087013364
205	0x3ddd369a	0.1080143
206	0x3d9d8d15	0.07692925
207	0xbe5d86e5	-0.2163349
208	0xbd66e50a	-0.056370772
209	0x3cbb4a8c	0.022862695
210	0xbd008b10	-0.03138262
211	0xbd21eecc	-0.039534375
212	0x3e395c2d	0.18101569
213	0x3dfc244f	0.12311613
214	0xbdaa3d28	-0.08312446
215	0xbc84fa80	-0.016232729
216	0x3e211216	0.15729555
217	0xbe08c370	-0.13355803
218	0x3dc22c7e	0.094811425
219	0x3e11123b	0.1416711
220	0x3e182223	0.14856772
221	0xbe172182	-0.14758876
222	0xbd1aa92e	-0.037759
223	0x3c6ad754	0.014333565
224	0xbded7839	-0.11595196
225	0xbcec31b6	-0.028832298
226	0x3d95ec49	0.073204584
227	0x3d9c37a9	0.07627804
228	0xbb86e436	-0.0041165603
229	0x3e35e574	0.1776331
230	0xbdcac349	-0.09900529
231	0xbc92ed74	-0.017935492
232	0xbd9be008	-0.0761109
233	0xbe627157	-0.22113548
234	0xbd68bb66	-0.056819342
235	0x3dbee56e	0.09321104
236	0x3da6aef5	0.08138839
237	0x3d0aaaed	0.033854414
238	0xbe6a35f8	-0.2287215
239	0xbb575f36	-0.0032863147
240	0x3d13a6c2	0.036047705
241	0x3e329eec	0.17443436
242	0xbe0841fd	-0.13306423
243	0xbd22738a	-0.039660968
244	0x3d7a5e6b	0.0611252
245	0x3d0bbc3e	0.03411507
246	0xbe2fc53c	-0.17165083
247	0xbe0ff6a7	-0.14058934
248	0xbd4be3c2	-0.049777754
249	0xbdef8223	-0.116947435
250	0xbe0a84f7	-0.13527285
251	0xbe22b982	-0.15891078
252	0x3d8b7262	0.06808926
253	0xbd283e9e	-0.04107534
254	0x3de5ae01	0.11214829
255	0x3d644826	0.05573287

fc1.weight f4 [9, 98]
0	0x3e6a5400	0.22883606
1	0x3d93e97c	0.07222268
2	0xbfb0fec1	-1.3827745
3	0xbbe0f057	-0.0068645882
4	0xbd41bc05	-0.04729845
5	0xbc5d7eec	-0.01351903
6	0xbf8cf28e	-1.1011522
7	0xbf4a2d44	-0.7897532
8	0xbd691657	-0.05690607
9	0x3f19eb75	0.60124904
10	0xbe90f930	-0.28315115
11	0x3cca24ad	0.024675692
12	0xbe90ea63	-0.28303823
13	0x3d8906cb	0.06690749
14	0x3e266437	0.16249166
15	0x3e83572f	0.25652453
16	0x3e095e9f	0.13415001
17	0x3e1ff82a	0.15622011
18	0xbc8a74f0	-0.016901463
19	0xbe2d757d	-0.1693935
20	0xbe57c107	-0.21069728
21	0xbda3b02d	-0.07992587
22	0x3e24db8b	0.16099374
23	0x3e842640	0.25810432
24	0x3ebf8413	0.37405452
25	0x3ea5449d	0.3227891
26	0x3d95e2de	0.07318662
27	0xbf3bd8d0	-0.73377705
28	0x3f54cbca	0.8312346
29	0xbf28b302	-0.65898144
30	0xbdbabd95	-0.09118191
31	0x3bfb31a7	0.007665831
32	0xbf34a1c0	-0.7055931
33	0x3e194bbd	0.14970298
34	0xbddd1f4c	-0.10796985
35	0xbea446b9	-0.32085207
36	0x3c97b428	0.018518522
37	0xbd2f8f01	-0.04286099
38	0x3f318418	0.69342184
39	0xbf2b4e87	-0.669167
40	0x3cc0c5a8	0.02353175
41	0x3ec50c6f	0.3848605
42	0x3ec6488f	0.38727233
43	0x3ecef1ca	0.40418845
44	0x3ea3740c	0.31924474
45	0x3f39dd40	0.72603226
46	0xbd44e897	-0.048073377
47	0xbe8ab334	-0.27089846
48	0xbe549a11	-0.20761897
49	0x3e59396a	0.21213308
50	0x3dc31c4a	0.0952688
51	0x3f0ffb85	0.56243163
52	0x3e75f99e	0.24021003
53	0x3ea2a13c	0.31763637
54	0xbd9188bd	-0.07106159
55	0x3f074eaf	0.52854437
56	0x3f47bf98	0.78026724
57	0xba962f3c	-0.0011458169
58	0xbe577f84	-0.21044737
59	0x3e859d60	0.2609663
60	0xbf217cd8	-0.6308112
61	0x3c425a71	0.011862383
62	0x3f180dda	0.59396136
63	0xbca465bd	-0.020068044
64	0x3ebc1ca9	0.36740616
65	0x3e22c610	0.15895867
66	0x3ef27d2f	0.47361133
67	0xbddffee3	-0.10937288
68	0x3e2a1b65	0.16612013
69	0x3d319eab	0.04336421
70	0x3ed9b00b	0.42517123
71	0xbe94539e	-0.28970045
72	0xbdd68678	-0.10474867
73	0xbf3e2590	-0.74276066
74	0xbed655d4	-0.41862357
75	0xbea178be	-0.3153743
76	0x3e5219d6	0.20517668
77	0xbea56f19	-0.32311323
78	0x3e81a9b9	0.253248
79	0x3eb0ac81	0.3450661
80	0x3e7287f8	0.2368468
81	0x3ed0d621	0.40788367
82	0x3edcf49b	0.4315537
83	0x3ea50350	0.3222909
84	0xbe2ced7a	-0.16887465
85	0xbf27940d	-0.6546028
86	0xbf0c83ad	-0.5488842
87	0xbe198322	-0.1499143
88	0xbe8c55b9	-0.2740915
89	0xbcf62aa2	-0.030049626
90	0x3ea928d6	0.33038968
91	0xbd38b9f8	-0.04509923
92	0xbe5535d3	-0.20821314
93	0xbe0fa44f	-0.14027523
94	0xbdd6882a	-0.1047519
95	0x3e0402a7	0.12891637
96	0xbe2a6b30	-0.16642451
97	0x3e08dd2e	0.13365623
98	0x3f367433	0.71271056
99	0xbe32b78d	-0.17452832
100	0xbd9b7438	-0.07590526
101	0x3e410587	0.18849765
102	0xbdad7713	-0.08469977
103	0xbef0fa85	-0.4706613
104	0xbf5a36b4	-0.8523972
105	0x3e7f7d50	0.24950147
106	0xbe2a4709	-0.1662866
107	0x3f29276f	0.66075796
108	0x3e057920	0.13034487
109	0xbf1db575	-0.61605006
110	0xbd71fea1	-0.059080724
111	0x3ead4f29	0.33849457
112	0xbe313113	-0.17303877
113	0xbeb23d40	-0.34812355
114	0xbf78d257	-0.97195953
115	0x3d4be2ba	0.04977677
116	0x3ddc922d	0.10770068
117	0xbec74f61	-0.3892775
118	0xbc3478dc	-0.011015143
119	0x3de2a2c5	0.11066202
120	0x3ec200e5	0.37891307
121	0xbeeed524	-0.46646988
122	0x3e6454eb	0.22298019
123	0x3d1c5764	0.03816928
124	0x3d48fd68	0.049069792
125	0xbf60af15	-0.87767154
126	0x3f824c5d	1.0179554
127	0xbf1eb513	-0.6199505
128	0xbef8d226	-0.4859783
129	0x3d99be4c	0.075069994
130	0xbf0c4771	-0.5479651
131	0x3fa251ad	1.2681175
132	0x3deb646d	0.11493764
133	0xbeb7217a	-0.35767728
134	0x3e22c37c	0.15894884
135	0xbea1ce5f	-0.3160276
136	0x3ea2a59a	0.3176697
137	0xbcf8f7ce	-0.0303916
138	0xbe329220	-0.17438555
139	0xbf0474a9	-0.5174051
140	0xbf23aa8f	-0.63932127
141	0xbf7420fc	-0.9536283
142	0x3ea313a3	0.3185092
143	0x3c316191	0.010826484
144	0x3df5eea6	0.12008409
145	0x3e8173dc	0.25283706
146	0x3eae417f	0.34034345
147	0xbea85be5	-0.3288261
148	0xbe3734bb	-0.17891209
149	0x3e595ba2	0.21226361
150	0xbeb4040a	-0.35159332
151	0x3e251773	0.16122226
152	0x3e3a501b	0.1819462
153	0xbe90294b	-0.28156504
154	0x3d671514	0.056416586
155	0x3e204bca	0.15653911
156	0x3f1ace75	0.6047128
157	0xbe021552	-0.12703446
158	0x3f4ab932	0.79188836
159	0xbd4514b4	-0.048115447
160	0x3e8d0aca	0.27547294
161	0x3ebe9e02	0.37229925
162	0xbf09cecf	-0.5383119
163	0xbdc5a19b	-0.096499644
164	0x3e9a881b	0.30181965
165	0x3f6024b3	0.87556
166	0x3f18052d	0.593829
167	0xbe54799e	-0.20749518
168	0x3e00e70e	0.1258814
169	0x3da25bed	0.0792769
170	0xbec9496c	-0.3931383
171	0x3d890af9	0.06691546
172	0xbee0368c	-0.43791616
173	0x3d0e3ed2	0.03472788
174	0xbeed167d	-0.4630622
175	0x3d0191b6	0.0316331
176	0x3f32a5a4	0.69784
177	0x3ed64bd1	0.41854718
178	0xbd7e8474	-0.062138036
179	0xbf60835b	-0.8770043
180	0xbe04d79a	-0.1297287
181	0x3f6f3817	0.9344496
182	0xbc26716f	-0.010158881
183	0xbf47b0f7	-0.780044
184	0x3e6835d4	0.22676784
185	0x3f356c30	0.70868206
186	0xbec34a7e	-0.3814277
187	0xbd8dc7bc	-0.06922862
188	0xbf894b86	-1.0726173
189	0xbee44294	-0.44582045
190	0xbbd8d795	-0.0066174963
191	0x3f0d4855	0.55188495
192	0x3f1591bd	0.58425504
193	0x3f1ce423	0.6128561
194	0xbeeab95a	-0.45844537
195	0x3e3cacec	0.1842534
196	0x3f06eceb	0.5270526
197	0x3dea0262	0.11426236
198	0x3f646df1	0.8923026
199	0x3ec0722c	0.37587106
200	0xbe125839	-0.14291467
201	0xbf2972ac	-0.661906
202	0xbeda12b0	-0.42592382
203	0x3ecbf9b7	0.39838955
204	0x3e1a4c80	0.15068245
205	0xbf8d2790	-1.1027699
206	0xbf442651	-0.76620966
207	0xbe0dff58	-0.13866937
208	0xbd7c219d	-0.061555494
209	0xbe020aa2	-0.12699369
210	0x3cd1c226	0.025605273
211	0xbb904076	-0.0044022156
212	0x3e1d4365	0.1535774
213	0x3d679162	0.056535132
214	0xbbd5b3ad	-0.006521663
215	0xbda8e832	-0.08247413
216	0xbf143b2c	-0.5790279
217	0xbd6162ee	-0.055025987
218	0x3ea101fd	0.3144683
219	0xbf179470	-0.5921087
220	0x3e40af33	0.18816833
221	0x3eb08fb3	0.34484634
222	0xbeb889e5	-0.36042705
223	0x3dcc0496	0.09961812
224	0xbf91e998	-1.1399412
225	0xbf021407	-0.5081181
226	0xbeb14aa7	-0.34627268
227	0xbf204a9e	-0.62613857
228	0x3f8ec088	1.1152506
229	0x3f26634f	0.6499528
230	0xbe2c8e0d	-0.16851063
231	0x3cbcc1ac	0.023041569
232	0xbe76316a	-0.24042287
233	0x3f180d26	0.5939506
234	0x3e6d1388	0.23151982
235	0xbf9c4433	-1.2208313
236	0x3ef7f01b	0.48425373
237	0xbf4e1856	-0.80505884
238	0x3fc9babf	1.5760115
239	0x3f97bd83	1.1854709
240	0x3e965fde	0.29370016
241	0x3f39c21c	0.7256181
242	0x3de3e5be	0.11127804
243	0x3fe0bd61	1.7557794
244	0x3eec341d	0.4613351
245	0x3e5be122	0.214726
246	0xbe0fcb85	-0.1404248
247	0x3db7955d	0.08964036
248	0x3d25504e	0.040359788
249	0xbeb0e37f	-0.34548566
250	0xbf2151c4	-0.6301539
251	0xbf78d71f	-0.9720325
252	0xbf44bec7	-0.76853603
253	0x3d90a37c	0.07062432
254	0xbf094939	-0.53627354
255	0x3d2e7ad4	0.042597607

fc1.bias f4 [9]
0	0xbe683ea1	-0.22680141
1	0xbdfb156f	-0.122599475
2	0x3e043d2d	0.12913962
3	0xbdf2e002	-0.11859132
4	0xbd3ee0cd	-0.046601105
5	0x3cc7d95b	0.024395635
6	0x3d4c1daa	0.049832977
7	0x3dacc95c	0.08436844
8	0xbe960a43	-0.29304704

exp_avg f4 [392, 1]
0	0x3bc904ab	0.0061345897
1	0x3c87c853	0.016575014
2	0x3baf5b47	0.0053514573
3	0x3b35073f	0.0027622727
4	0x3bde7a19	0.0067894575
5	0x3cfa255a	0.030535389
6	0xbb91d198	-0.0044500344
7	0xbbe635df	-0.007025465
8	0xbb636206	-0.0034695878
9	0x392dc43a	0.00016571666
10	0x3b3dcbc3	0.0028960563
11	0x3abd38df	0.0014436505
12	0x3a9aac47	0.001180061
13	0xbb02af5f	-0.0019940955
14	0xba56316e	-0.0008170818
15	0x3ac98e60	0.0015377514
16	0xb9c24955	-0.000370572
17	0xbb5800d3	-0.0032959476
18	0x3bd2c0ac	0.0064316597
19	0xbaa919d4	-0.0012901374
20	0x3c143c53	0.009047586
21	0xba713f12	-0.00092028186
22	0xbb78bde9	-0.0037954992
23	0xba2e3bab	-0.00066464645
24	0x3c093a5d	0.008375731
25	0xbb54e30f	-0.003248397
26	0x3c21da5b	0.00987872
27	0xbb827d1b	-0.003982199
28	0xbb364065	-0.0027809378
29	0x3beff042	0.007322342
30	0xbbb115c2	-0.005404205
31	0xbcb54a9c	-0.022130303
32	0x3c091c03	0.008368495
33	0x3cd132ae	0.025536861
34	0x3ad23691	0.001603799
35	0xbb2f8145	-0.0026779932
36	0xbbf29420	-0.007402912
37	0x39b42664	0.0003436088
38	0x3b538d19	0.0032280146
39	0x3a712cf5	0.00092001195
40	0x3be027aa	0.006840666
41	0x3c59152f	0.0132496795
42	0xbb49b85e	-0.0030780057
43	0x3c9c32a7	0.019067122
44	0x388edda7	6.8123736e-05
45	0x3afd3082	0.0019316825
46	0x3ba26267	0.004955578
47	0xbb090a9e	-0.002091087
48	0x3a518363	0.00079922954
49	0x3c856c61	0.01628703
50	0xba5e4a42	-0.0008479693
51	0x39c74957	0.0003801088
52	0xbb3d5037	-0.0028886923
53	0xbbbbd7d1	-0.0057325144
54	0xb9e6194e	-0.00043887872
55	0x3ad66f14	0.0016360008
56	0xbc1678b6	-0.009184053
57	0xbba1dce9	-0.0049396646
58	0xbaeb3b0d	-0.0017946676
59	0x3a03895b	0.0005017721
60	0xbc54741c	-0.012967136
61	0xbb11ecb0	-0.002226632
62	0x3d03b811	0.03215796
63	0xbaf968af	-0.001902839
64	0x3c014526	0.007890021
65	0x3bc39de2	0.005969749
66	0x3b346431	0.002752554
67	0xba25118c	-0.0006296865
68	0x39233d0b	0.00015567632
69	0xbb3b9a79	-0.0028626008
70	0xb9d40301	-0.0004043803
71	0x3abe0b2e	0.0014499181
72	0xbb375b70	-0.0027978085
73	0x3b51f979	0.0032039566
74	0xbd6cd4f4	-0.057820275
75	0x3c7f6b68	0.0155895725
76	0x3abcfd92	0.0014418832
77	0x3919a730	0.00014653499
78	0xbc659715	-0.014013072
79	0x3a11408b	0.00055409287
80	0x39f1aa7e	0.0004609413
81	0xbbf5b103	-0.007497908
82	0xbbb14a26	-0.0054104505
83	0x3aaed935	0.0013339879
84	0xbc12b403	-0.008954051
85	0xbb7a8a3e	-0.0038229371
86	0x3b540b99	0.0032355546
87	0x3b95a501	0.004566789
88	0xbad7b7e6	-0.0016458004
89	0xbb0159be	-0.0019737328
90	0xba26b08f	-0.0006358707
91	0xb9a0b114	-0.00030649512
92	0x3b5057c1	0.0031790587
93	0x382db099	4.1410884e-05
94	0xbb48d87a	-0.0030646608
95	0xbbbe91e1	-0.00581573
96	0x39f33ca0	0.0004639374
97	0x3abbc840	0.0014326647
98	0x3b9de944	0.004819067
99	0xbc222f95	-0.00989904
100	0x3c244897	0.010027072
101	0x398b2a60	0.00026543718
102	0xbb26dc4e	-0.0025460902
103	0x3be4a483	0.006977619
104	0xba14fa01	-0.00056830054
105	0xbadae474	-0.0016700164
106	0xbbe6ccc0	-0.007043451
107	0x3b30854b	0.0026934918
108	0xbc0fdc88	-0.008780606
109	0x3acece49	0.001577803
110	0x3934f3dd	0.00017256984
111	0x3be82ef9	0.0070856777
112	0xba332de3	-0.0006835146
113	0x3a55a761	0.00081502466
114	0xbabaaac1	-0.0014241562
115	0xbb767390	-0.0037605502
116	0x3a5a79f1	0.0008334211
117	0xba0d4bd5	-0.0005390023
118	0x3b2e814c	0.002662736
119	0xb9485305	-0.00019104414
120	0xb9c8470c	-0.00038199907
121	0x3b233d10	0.0024908222
122	0x3b2b9b89	0.0026185235
123	0x382e503b	4.1559553e-05
124	0xba6a4798	-0.000893706
125	0xba855a28	-0.0010173963
126	0x3b9f0de9	0.004853953
127	0xbb5de75f	-0.0033859832
128	0xbb54c0bc	-0.0032463511
129	0xbc27221f	-0.010201006
130	0x3ba69400	0.005083561
131	0x3c79575c	0.015218582
132	0xba84067b	-0.0010072732
133	0x3a4f286f	0.00079024484
134	0xbb6c8803	-0.0036091811
135	0x3a21d8cb	0.0006173967
136	0x3b8f3b4a	0.0043710815
137	0x3a078e1d	0.0005171018
138	0x38221c70	3.8650294e-05
139	0x3c60d5d9	0.01372286
140	0xba6ccea6	-0.00090334786
141	0xbd1319cb	-0.03591327
142	0x39502d5b	0.00019853322
143	0x3bf11088	0.007356707
144	0x3a37d509	0.00070126407
145	0xba1b8c6c	-0.0005933705
146	0xba1cbc5d	-0.0005978996
147	0x3c2f0fce	0.0106849205
148	0x3a0e4e52	0.0005428541
149	0xba1affc9	-0.0005912749
150	0x3aa98487	0.0012933173
151	0xbb18ed3f	-0.002333477
152	0xbb3e9fa7	-0.002908686
153	0xba2821f2	-0.00064137497
154	0x3ae3b73a	0.0017373331
155	0xbc10977c	-0.008825179
156	0x3a651f24	0.0008740297
157	0x395f26b4	0.00021281355
158	0xbb993efd	-0.0046766982
159	0xb87e00d7	-6.05591e-05
160	0xbb1e87b2	-0.0024189767
161	0xba8f1d80	-0.0010918826
162	0x3bc7fcd1	0.006103136
163	0x3b71a732	0.0036873338
164	0x3b3526df	0.0027641577
165	0x3aec3422	0.0018020908
166	0x39eadfa7	0.00044798592
167	0xbb90e791	-0.004422136
168	0x3ad980f0	0.0016594213
169	0x3b0a768e	0.0021127793
170	0x3a48660a	0.00076445995
171	0x3b84828c	0.0040438827
172	0x3aa83918	0.0012834398
173	0xbba2d82a	-0.0049696164
174	0xbb029fd8	-0.00199317
175	0x3ac44075	0.0014972823
176	0x3a6148bc	0.0008593907
177	0x3a99b59f	0.0011727101
178	0xb794711d	-1.7695647e-05
179	0xbbcc8e8e	-0.00624258
180	0x3a4554e6	0.00075276045
181	0x3bcb7fb3	0.0062102913
182	0xbb736e24	-0.0037144506
183	0xbb7e352b	-0.0038789015
184	0xb99f6f5b	-0.0003040981
185	0xbab131b1	-0.0013518838
186	0xbb04369f	-0.0020174158
187	0x3b2c072b	0.002624939
188	0xbb73ff9b	-0.003723121
189	0x3a6a5bed	0.00089400896
190	0xb8969e96	-7.182096e-05
191	0xba81af69	-0.0009894195
192	0xbae6af5e	-0.0017599871
193	0xbbebff69	-0.007202078
194	0x38d9396c	0.00010358062
195	0xb848e459	-4.789638e-05
196	0x3cc1a55c	0.02363842
197	0xbda5385c	-0.0806739
198	0x3d2fd1d9	0.042924736
199	0xba937608	-0.0011250386
200	0x3bc12ebb	0.0058954633
201	0x3a3e5436	0.0007260473
202	0x3da8ab64	0.08235815
203	0x3ba3bce0	0.004996881
204	0xbbef1d5c	-0.007297201
205	0x3bc0266b	0.005863955
206	0x3bc0d162	0.0058843354
207	0x3b0cad2f	0.002146553
208	0xbb45f72b	-0.0030207138
209	0xbc032ddd	-0.00800654
210	0x3ad319bb	0.0016105691
211	0x3b61c7ec	0.0034451438
212	0xbba9453e	-0.005165725
213	0x3b64cba9	0.003491143
214	0xbc6c4669	-0.014421084
215	0xbb2724bc	-0.0025504073
216	0x3bde25c0	0.0067794025
217	0x3b97f9bd	0.0046379254
218	0xbb86df67	-0.004115987
219	0xbb6b50a1	-0.0035906213
220	0x3c02124b	0.007938932
221	0x3b2904b3	0.0025790154
222	0xbbb6ab28	-0.0055746026
223	0x3d03c6ab	0.032171886
224	0x3d6884ea	0.05676738
225	0x3b8a2f59	0.00421707
226	0xbd8acde8	-0.06777555
227	0x3d239bcb	0.039943498
228	0x3c316ad8	0.010828696
229	0xbbb8fa7f	-0.005645096
230	0xbb983731	-0.004645251
231	0xbb81c566	-0.0039602993
232	0x3b4a8b33	0.0030905723
233	0x3d43135b	0.04762588
234	0xbc69ab28	-0.014261998
235	0x3b7bb279	0.0038405939
236	0xbc7d620d	-0.015465272
237	0xbce7949e	-0.028269108
238	0x3b1109cc	0.0022131084
239	0x3dc800e6	0.09765796
240	0xbb79959d	-0.0038083561
241	0x3b03f6e3	0.002013617
242	0x3cae2409	0.021257417
243	0xbbf96c9b	-0.0076118237
244	0x3c239801	0.009984971
245	0xbcc92b82	-0.024556879
246	0x3aab8e22	0.0013088624
247	0x3bcee441	0.006313831
248	0xbb6d45bd	-0.0036204897
249	0x3b79802e	0.0038070786
250	0x3a95ff08	0.0011443803
251	0x3ba873d5	0.0051407614
252	0xbd30eabd	-0.043192614
253	0x3d38eeb9	0.04514954
254	0xbbb54d15	-0.0055328705
255	0xb941bf4b	-0.00018477176

exp_avg_sq f4 [392, 1]
0	0x3af54185	0.0018711543
1	0x3d310a8a	0.04322294
2	0x3a911b6a	0.0011070792
3	0x38829bfd	6.227938e-05
4	0x3aed3d6f	0.0018099974
5	0x3c2f7871	0.010709868
6	0x3b6f14d7	0.0036480927
7	0x3aa41473	0.0012518301
8	0x3a00e2ff	0.00049166376
9	0x38c2d16b	9.289648e-05
10	0x3a336ff8	0.0006844993
11	0x3922b36c	0.00015516364
12	0x3726e767	9.948249e-06
13	0x3c14b269	0.009075739
14	0x37d7a28e	2.5705693e-05
15	0x3825e706	3.9554223e-05
16	0x39155e4d	0.00014244877
17	0x3a515482	0.000798531
18	0x3a10edd6	0.00055286044
19	0x395d7d0d	0.00021122787
20	0x39f5ba9b	0.00046869073
21	0x3939d511	0.00017722348
22	0x3a08f070	0.0005223816
23	0x39ed6a47	0.00045283345
24	0x3aa5d00f	0.0012650507
25	0x3a2eb516	0.0006664557
26	0x3affc8ad	0.0019514762
27	0x39c5c8a9	0.00037724272
28	0x3b310618	0.0027011689
29	0x3a370ed3	0.0006983105
30	0x3c0408ac	0.008058708
31	0x3b5d8976	0.0033803857
32	0x3a576887	0.0008217175
33	0x3bdaa772	0.006672793
34	0x3a3caa1b	0.00071969785
35	0x39db45ab	0.00041822842
36	0x3aae1e4e	0.0013284178
37	0x39442ee0	0.00018709479
38	0x3a2daa84	0.0006624835
39	0x3806b721	3.211864e-05
40	0x3aa5a7df	0.001263853
41	0x3b6844ce	0.0035441401
42	0x39efada6	0.0004571501
43	0x3d254a75	0.04035421
44	0x37b86a35	2.1983966e-05
45	0x3b53e861	0.0032334554
46	0x397ad4ac	0.00023921084
47	0x3888d585	6.5247565e-05
48	0x391f7b4f	0.00015209358
49	0x3c80c255	0.015717665
50	0x38117aa5	3.4684916e-05
51	0x39bff103	0.00036609927
52	0x3942373c	0.00018521858
53	0x3b81c78d	0.003960556
54	0x39affb79	0.00033565963
55	0x398e49a0	0.00027139205
56	0x3c4a58b7	0.012350253
57	0x3a3e84fe	0.0007267742
58	0x39807cbb	0.00024506994
59	0x381419e5	3.5310066e-05
60	0x3a1e7c33	0.0006045729
61	0x38e21efe	0.000107822925
62	0x3bad6ab6	0.005292262
63	0x37e8f7ea	2.7772e-05
64	0x39837825	0.00025075782
65	0x3a341403	0.0006869437
66	0x3a388053	0.0007038165
67	0x3a332c33	0.00068348943
68	0x3a17f724	0.00057970197
69	0x3a86624f	0.0010252687
70	0x389bdd0b	7.4321484e-05
71	0x3977145a	0.00023563337
72	0x39ffe446	0.00048807467
73	0x39bfce7e	0.00036584208
74	0x3cead071	0.028663846
75	0x3ae07349	0.0017124201
76	0x39a529ee	0.00031502492
77	0x381f1c39	3.793484e-05
78	0x3b1e1c11	0.0024125616
79	0x3a6dee3a	0.0009076331
80	0x36b194dd	5.292341e-06
81	0x3a5ba92b	0.0008379395
82	0x3a291b9f	0.0006450954
83	0x3a7d4f4f	0.0009663002
84	0x3a1c28fa	0.0005957034
85	0x3a3e4ebe	0.00072596583
86	0x38ea389d	0.000111685345
87	0x3a246b92	0.0006272133
88	0x38d009af	9.9200166e-05
89	0x3a73cd63	0.00093003194
90	0x3a830e62	0.0009998793
91	0x3a57ea99	0.0008236557
92	0x38920969	6.963575e-05
93	0x3908442f	0.00012995371
94	0x38d9d3e6	0.000103868355
95	0x3ae6e0e1	0.0017614627
96	0x39646b67	0.00021783785
97	0x39dc6b9d	0.00042041848
98	0x3a43d73e	0.0007470733
99	0x3ba47bdb	0.0050196475
100	0x3bb5c628	0.0055473037
101	0x3894bba5	7.0921415e-05
102	0x3a43b6ec	0.0007465917
103	0x3b2d0bb9	0.0026404692
104	0x39b8f47d	0.00035277373
105	0x39c631b8	0.00037802546
106	0x3b5951be	0.0033160294
107	0x380a22d2	3.2934193e-05
108	0x3a84145d	0.001007687
109	0x38c4e150	9.387976e-05
110	0x354f7b28	7.7292725e-07
111	0x3b707a14	0.0036693858
112	0x374ceab3	1.2213993e-05
113	0x37c4ad65	2.3445764e-05
114	0x39650283	0.00021840078
115	0x37f31893	2.89793e-05
116	0x38bbf40b	8.9623114e-05
117	0x390d5742	0.00013479314
118	0x3918a8b5	0.00014558698
119	0x3846334e	4.725466e-05
120	0x38d9deb5	0.00010388849
121	0x39785321	0.00023682091
122	0x39d41de8	0.00040458073
123	0x398a670b	0.00026398184
124	0x3a1a190a	0.0005878365
125	0x39ac7c2a	0.00032898906
126	0x3adeeb03	0.0017007295
127	0x395a0042	0.00020790196
128	0x3a5beece	0.00083897717
129	0x3ab86bba	0.0014070191
130	0x39f6709d	0.0004700468
131	0x3ad8ca33	0.0016539752
132	0x39f25f8a	0.0004622902
133	0x39b280bf	0.0003404673
134	0x3a0a0c65	0.0005266129
135	0x398b350f	0.00026551678
136	0x39e20534	0.00043109956
137	0x38333efb	4.273558e-05
138	0x3a6ec6b8	0.0009108591
139	0x3b0788b8	0.0020680856
140	0x39291aed	0.00016127127
141	0x3cb02f7e	0.021507021
142	0x36c51f44	5.8746973e-06
143	0x3a293e94	0.0006456163
144	0x3840ae3d	4.593864e-05
145	0x378ff7e9	1.716237e-05
146	0x38b0de71	8.433767e-05
147	0x3b808ff9	0.003923413
148	0x37177267	9.026938e-06
149	0x39463fb6	0.00018906486
150	0x391de389	0.0001505745
151	0x3ac40513	0.0014955126
152	0x39765aaa	0.00023494163
153	0x393e374b	0.0001814041
154	0x39f47e17	0.0004663325
155	0x3ad05afa	0.0015896254
156	0x398e04d0	0.00027087936
157	0x3642cf52	2.902893e-06
158	0x395c9e9b	0.0002103992
159	0x37de1123	2.6472442e-05
160	0x39b72c75	0.00034937603
161	0x37a94f79	2.0183377e-05
162	0x39170cf8	0.00014405313
163	0x3a84aeff	0.0010122954
164	0x39d981f3	0.00041486285
165	0x3a19d4f5	0.000586822
166	0x3889e9d2	6.5762215e-05
167	0x3a86cc2c	0.0010284237
168	0x390110ff	0.0001230873
169	0x3a4b88a1	0.0007764195
170	0x391a062d	0.00014688885
171	0x3994cf21	0.00028383083
172	0x3a3680a6	0.0006961919
173	0x3aa4d9fe	0.0012577174
174	0x38f19712	0.000115199146
175	0x38320683	4.244457e-05
176	0x3a004dcd	0.0004894406
177	0x3928f999	0.00016114711
178	0x36041630	1.9682448e-06
179	0x3aa39de3	0.0012482967
180	0x38f305e3	0.000115882394
181	0x39e94825	0.00044494975
182	0x39f33d03	0.0004639403
183	0x3a01d748	0.0004953039
184	0x38ebb4e8	0.000112393696
185	0x399a4f17	0.00029432095
186	0x391c62de	0.0001491415
187	0x39926f84	0.00027930376
188	0x3a2601fe	0.00063326943
189	0x3a426f94	0.0007417139
190	0x38b7c8c1	8.763513e-05
191	0x389bd4f3	7.430641e-05
192	0x388001ca	6.103849e-05
193	0x3a8aa16e	0.0010576674
194	0x379ddc66	1.881849e-05
195	0x3824292d	3.9138995e-05
196	0x3c9a7413	0.018854177
197	0x3e1c4507	0.15260707
198	0x3c4e67a2	0.01259795
199	0x3a86ac54	0.0010274746
200	0x3c26a688	0.01017154
201	0x3d18078f	0.037116583
202	0x3cc4db75	0.024030427
203	0x3a83b087	0.0010047116
204	0x3dcae3e6	0.099067494
205	0x3a627e99	0.00086400803
206	0x3b8294a1	0.003985003
207	0x3b4f0544	0.0031588832
208	0x3892349b	6.971621e-05
209	0x3ce49ad7	0.027905865
210	0x391744f3	0.00014426168
211	0x3a930644	0.0011217077
212	0x3b1605a6	0.002289155
213	0x3ae7f5ed	0.0017697193
214	0x3b85362e	0.0040652966
215	0x3b537bd8	0.0032269862
216	0x3c2eb6e3	0.010663721
217	0x3baf6d4d	0.005353606
218	0x3b6f99e6	0.0036560236
219	0x3c1ef173	0.009701121
220	0x3c9e8383	0.019349819
221	0x3a647dab	0.0008716236
222	0x3b3e8b1c	0.0029074615
223	0x3b90c73e	0.004418283
224	0x3dee1a5e	0.11626123
225	0x3b969d5f	0.004596397
226	0x3d8a09c9	0.067401476
227	0x3c4a7431	0.012356804
228	0x3b3b0221	0.0028535204
229	0x3bae7b58	0.0053247623
230	0x3b79a080	0.003809005
231	0x3c38acb7	0.011271647
232	0x3caca1bf	0.02107322
233	0x3c17d604	0.009267334
234	0x3b9b243d	0.0047345445
235	0x3b0ba877	0.002131013
236	0x3d30a6f0	0.043127954
237	0x3ca06ebc	0.019584052
238	0x3b0dcb25	0.0021635976
239	0x3e77b32e	0.24189445
240	0x39bd75be	0.00036136614
241	0x3baae836	0.00521567
242	0x3b683051	0.003542919
243	0x3a568854	0.00081837666
244	0x3b5c1b8f	0.0033585762
245	0x3c760ce7	0.015017725
246	0x3aa815da	0.0012823895
247	0x3cbf2251	0.023331793
248	0x3b197a0d	0.0023418695
249	0x3b9aedce	0.0047280556
250	0x3b4f413e	0.003162458
251	0x3b632b79	0.0034663363
252	0x3e136fd4	0.14398128
253	0x3d8fc468	0.070198834
254	0x3d1617ac	0.03664367
255	0x38e5e5ea	0.00010962396
