models/cfv/mmkfcv1.pth (torch, 490360 bytes, 18 tensors)

lstm.weight_ih_l0 f4 [392, 1]
00000000: 84bb 5b3f 6804 a5be ee09 623f aa85 59be
00000010: 14fe 313f 50b0 a03f d9c5 ce3e 0af6 77bf
00000020: 49a6 a1be 52b1 b33e e76c 6ebf bdca 94bf
00000030: 28f0 e7bd 4a27 a53e aca8 ec3d 2fab b0be
00000040: 67dd 7f3e f17d db3c 3931 4bbf 0870 12bf
00000050: 73bb 25bf 3b48 23be 6d32 273f 3e44 b33e
00000060: 15b5 b43f 560d 723d 0400 183f d5b8 28be
00000070: a671 853d 4bc8 5b3f e872 f23d d5c2 013f
00000080: 19f3 22be 1de2 133f e49f 233f 080e 0d3f
00000090: d16e d6bf 55fb a0be 8908 11be 463e 013f
000000a0: 45fa 90bc c541 5ebd 1982 a93e d86b 85bf
000000b0: 5c5e 3d3f 4676 bf3e b694 ce3f 5148 46bd
000000c0: 55a1 b4bf f16c 57be 3272 a1be ae06 38bf
000000d0: c9b2 903f 0b92 36bf 3be0 613e 615a 9abf
000000e0: 2f16 613f 977c 9e3e d491 193f 31cb 9bbe
000000f0: 0446 243e 91e9 183f d39f 0fbd 75d0 6c3f
00000100: 9384 dfbd 321f 393e 29b7 473f 3788 863f
00000110: 63da cabe 2766 8bbe 0896 383e dfc2 8e3f
00000120: fce2 2bbe 4332 b93d e1dd 0bbe 30c2 3dbf
00000130: 3233 41be feeb 13be d926 3d3d a53f 59bd
00000140: 06ce 7f3d 2ae7 3d3f 0288 21be f907 b4bd
00000150: 3416 b23e 1de9 de3e 4b2f 59be 483d cf3e
00000160: 9a7f 373f 0653 9f3e b992 7f3d 519f a13f
00000170: 302d eb3e 3909 953e 4a74 103e d1a3 ffbe
00000180: a524 1c3f 5e01 79bd 59c3 863f 17e5 0a40
00000190: e130 8d3c e942 5bbf c7ee 683f 7fc9 fcbd
000001a0: 177e 653e 52e2 203e d879 ffbe 3fb4 a63d
000001b0: 5851 473f 38d5 15bf 2a6a 0cbf 1fd6 a63e
000001c0: 4cb6 563e b522 03bf ed54 c03e 0973 33bf
000001d0: a257 b5bd e5bf 3ebe 2f99 82be a0c3 913e
000001e0: fe8a 03be 5e7f 133d 163a 493f 3ddb c73e
000001f0: 9c6e e33f d00f 44bf 0c63 863e 849d 823f
00000200: 31bf ba3e 5af0 623e 0d13 04bf 05c8 ec3e
00000210: 9458 6c3d 1635 9e3e fdb9 9dbe 8c45 b13e
00000220: d2b9 473e fc57 413e 7aaf 51be d631 563d
00000230: aeb2 09be 89ae 8fbf c77c 2d3f c6c6 80bf
00000240: 4fe7 3c3e 1dbe 50bd 43c6 9abf 88a7 1ebf
00000250: ffb3 39bf 6892 87be 04e3 4b3f bd4d 53be
00000260: 21ac 1ebf 0fbb 03bf 35c8 5f3e f695 4a3e
00000270: 6853 7f3e b1a4 31bf dede eebe 9bbf 5abe
00000280: 9f28 aebd e22d ff3e 9be1 573f 88f4 383b
00000290: 2cd7 aebd 08cf 7d3e f60d 5fbe 4c81 073f
000002a0: 9163 ac3d 1144 9d3f 083c d9be ec66 b4be
000002b0: 4c73 25bd f4f9 223f 0e0f 6b3e 7f41 0dbe
000002c0: e545 ecbd 3b8b 863e aea6 133b c843 203e
000002d0: fb2e 39be f62f e43d 0fd4 903b 2623 6c3e
000002e0: f4d9 8cbe 9610 d33d 95bc 54bf 4ffc d23e
000002f0: 800a 3b3e 7594 6c3e 1c67 8a3f 432c 263f
00000300: 45b1 b5bd 55b1 efbe 9a0f e9be 354a f1be
00000310: bdf9 2abd 19bf f4be 06d0 9bbd 7a29 903e
00000320: 3558 bc3e bd84 8abf 29e5 9fbf 8a77 aa3e
00000330: c03e 033f 76a5 4abe e65f 573f 02d2 bcbf
00000340: cdfa c5be c5f6 c43d 8776 0fbe aceb d8be
00000350: 236a a5be 6439 f7be 664f 1fbf f5e5 5d3e
00000360: 0f70 163d a035 ff3c 539d 933e b344 013f
00000370: cca9 a4ba b22e 583d d6f5 ad3d bc4d f9bd
00000380: 405c 2f3e c34e 0a3f 1f65 47be 4f66 203e
00000390: 1bf0 af3e 2b79 573e c60a 763e f2f6 d43e
000003a0: 0a8a 82bf f621 43bf 5dd8 2cbe ead3 583c
000003b0: d619 343f 0dae 34be a0b3 38bf 3b45 b5bd
000003c0: 2979 123f 12ba 5fbf 41b5 5c3f 7d64 8d3d
000003d0: dc44 64be 071b 9ebb c458 ea3d 2aa9 95be
000003e0: 111a bbbe 553b 00c0 0693 a2be 0bd4 90be
000003f0: 1e05 c3be 611c 1abe 4fa4 26be 2cbd 5fbd
0.85833 -0.32229924 0.882964 -0.21242395 0.6952832 1.2553806 0.4038532 -0.968598
-0.31572178 0.35096222 -0.9313492 -1.1624371 -0.11325103 0.32256538 0.11555609 -0.34505603
0.24986802 0.026793452 -0.7937198 -0.57202196 -0.6473915 -0.15945522 0.6531132 0.35013002
1.4117762 0.05909475 0.59375024 -0.16476758 0.06515817 0.858525 0.11838323 0.50687915
-0.15913047 0.57766896 0.6391585 0.55099535 -1.6752568 -0.3144175 -0.14163412 0.50485647
-0.017697463 -0.05426194 0.3310707 -1.0423536 0.73972106 0.37394923 1.6139133 -0.04840881
-1.4111735 -0.21037652 -0.31532437 -0.7188519 1.1304561 -0.71316594 0.22058193 -1.2058831
0.87924474 0.3095443 0.5998814 -0.3042846 0.16042334 0.59731394 -0.03506453 0.9250558
-0.109139584 0.18078306 0.78013855 1.051032 -0.3961974 -0.27226374 0.18025982 1.115322
-0.16785806 0.0904279 -0.13658859 -0.7412443 -0.18867186 -0.14445493 0.046179626 -0.05303921
0.06245234 0.74180853 -0.15774539 -0.08790583 0.34782565 0.43537226 -0.21209447 0.4047644
0.7167908 0.3111803 0.062395785 1.2626745 0.45932913 0.291086 0.14106861 -0.4992967
0.60993415 -0.06079232 1.0528365 2.1702325 0.017235221 -0.8564897 0.90989345 -0.1234312
0.2241138 0.15711334 -0.49897647 0.08139848 0.77858496 -0.5852847 -0.54849494 0.32585236
0.20967978 -0.51224834 0.37564793 -0.70097405 -0.08854605 -0.1862789 -0.25507495 0.28469563
-0.1284599 0.03601014 0.7860426 0.39034453 1.776813 -0.7658663 0.26247442 1.020432
0.36473992 0.22162 -0.5159157 0.46246353 0.057701662 0.30899876 -0.3080596 0.34623373
0.19504479 0.1888122 -0.20477095 0.05229362 -0.13447067 -1.1225139 0.6776852 -1.0060661
0.18447612 -0.050962556 -1.2091755 -0.6197438 -0.7254028 -0.26478887 0.79643273 -0.20635124
-0.619814 -0.51457304 0.21853717 0.19783768 0.2493416 -0.69391924 -0.4665441 -0.21362154
-0.085038416 0.49839693 0.8432862 0.0028221924 -0.085371345 0.24786007 -0.2178267 0.52931666
0.08417428 1.2286397 -0.42428613 -0.35234773 -0.04039316 0.6366265 0.22954962 -0.13794516
-0.11536769 0.262781 0.0022529769 0.15650856 -0.18084328 0.1114196 0.0044198106 0.23060283
-0.27510035 0.10305898 -0.83100253 0.4120812 0.18265724 0.23103507 1.0812716 0.6491129
-0.08871702 -0.4681498 -0.45519716 -0.47126928 -0.041742075 -0.47802046 -0.07608037 0.28156644
0.36786047 -1.0821759 -1.2491809 0.33294326 0.51267624 -0.19789681 0.84130704 -1.4751589
-0.38667908 0.0961738 -0.14010058 -0.42367303 -0.32307538 -0.48285973 -0.6223053 0.21669753
0.03672796 0.0311535 0.28830966 0.5049545 -0.001256281 0.052778907 0.08494155 -0.1217303
0.17125034 0.5402643 -0.19472168 0.15664028 0.34362873 0.21042316 0.24027547 0.41594654
-1.0198376 -0.76223695 -0.16879411 0.013234118 0.7035192 -0.1764452 -0.72149086 -0.08851095
0.57216126 -0.87393296 0.8621407 0.06903932 -0.22291893 -0.0048249993 0.11442712 -0.29230624
-0.36543325 -2.0036213 -0.31752795 -0.28286776 -0.38089842 -0.15049888 -0.16273616 -0.054623768

lstm.weight_hh_l0 f4 [392, 98]
00000000: 032c ccbe cb9e 863e fde5 78be 6e74 f33e
00000010: 26e1 c83e d41f 133f 203a b6be b6e5 b53d
00000020: 9424 16be 8890 9cbe 7007 853d c85b 223f
00000030: ec31 953e 3309 003c 6a73 1cbe 193b e03e
00000040: 67e3 203f 8802 423e a02c 903e b5e0 48bf
00000050: 7241 6abd a841 18bf 0f64 c53e 51f0 ca3d
00000060: a077 c0bd b46f 4c3d a84e 573f 0b7f 983e
00000070: 6277 d03e 3971 a0bd 4d20 fa3e 8f18 ad3e
00000080: 34fd 2ebf c6ec 783f cd20 03bf 9017 953e
00000090: 892a 81bc 6f91 603e 077b 4c3d df6f 18be
000000a0: cf60 7b3d ad2d 373f f1ee 63be 6861 a23c
000000b0: 3219 5dbf 4821 a6bd 0716 4fbe b280 85be
000000c0: 2310 3f3e 45e3 123f adfe 3fbe 3371 d93e
000000d0: 18df ed3e d39f df3e fc43 c53e a4d5 bc3e
000000e0: 5b9b f93e 90aa 223f 6150 f7be b342 a53e
000000f0: f6b2 acbd b348 1e3f bef5 5e3e cc1d c4bd
00000100: 18b5 85bd 0589 a9be e8f5 c03e bce9 82bc
00000110: 6499 bbbe 9453 5ebd a246 47bf f8ee 223d
00000120: 6909 863d caea 35be 4840 a23e d048 10bf
00000130: b479 633e 2b6f c33d 8f40 9ebe d52f bfbe
00000140: 5a9d 02be 7ab7 84be 87f0 3c3e f54b 473f
00000150: 02c6 bb3e 824a 04be 1c80 eb3d 363b 1dbf
00000160: 41cd 853e 6986 313f 20bf 193f 167a 9a3e
00000170: e9ac 903f 4def 5ebc 1238 8cbe 1bd2 973e
00000180: 5640 6f3e 98fb 46be 28b5 4b3f ecad 36be
00000190: c3d5 05bf e840 cc3d f69b 263f 8dd0 09bd
000001a0: 3950 1f3f 56d3 c23e a8d9 7f3b 339e 7b3e
000001b0: f604 5f3f fa82 b53e dc9a f5bd 7dad c93d
000001c0: 831d 933f 3606 f43e 7a26 acbe 965f a83d
000001d0: cbd9 e83e 87ff 28be 6fba e7bd 0bfc 873e
000001e0: 0f05 603e 3405 73be 705f 28bf 8fae 693e
000001f0: ee29 9abe 0c15 27be 68ce a7bd df53 dd3d
00000200: 12ab afbe ff19 5cbe 41b4 2b3d 9db8 cb3d
00000210: 95ed 403f 7052 163f 348f 9fbd fe47 88be
00000220: ba1d 7abc 62b6 6a3e fe07 51be 0aab c6be
00000230: 0ec8 ecbe ec5e d13c fae1 b93e 0978 d03e
00000240: c029 f4bb 1585 7c3e d409 a73b c9bf 093e
00000250: d56c a93e f463 3f3f b31f eb3e edb5 12bf
00000260: d6b7 403f 66bb 513e 2323 973e f2d3 29bd
00000270: 5bc4 053f 3656 af3c a328 8a3e 4aac 423e
00000280: 5af2 65be ada4 cc3f 0d20 bd3d 4721 3d3e
00000290: ecc4 85be 9abe 283e cbdd 2e3d 1e16 eebe
000002a0: 9b95 e03e 1a68 433c 710f 92bd f893 2ebe
000002b0: 56a8 ed3e f39e 32bf f655 0d3f 111a 803c
000002c0: fe05 53bf aca4 75bd 9ae7 60be 5fd6 88be
000002d0: 6a1a 94bc c962 3dbe c10d 983d 4b15 1d3e
000002e0: a093 96be 2c69 9dbe 521f 8b3d b483 07bf
000002f0: b7a5 6a3e a9ff 51be 8735 c8be b598 80be
00000300: 3231 8abc 65ba 9cbd 1b69 acbd 1a1c 403d
00000310: c414 db3d ff99 afbe f106 563e 4e1d 17be
00000320: 6e92 363e d047 ddbe 67b8 443e 1ba4 643e
00000330: c8d8 223e f1a4 b23e 8596 4dbf 28f2 e13c
00000340: 7e87 c03e cf7b 1abe 029c f83d 646b 8bbe
00000350: 3a44 3dbf b9df 3dbe 28c1 a83e 44dc e4bb
00000360: c15c 173e 0622 3d3e 7df2 db3e 8704 d6bd
00000370: c0e0 dfbd 6b2c febd 0c81 4a3e aeb4 68be
00000380: 8ff0 c43e b13a 4dbf b40b 06be b025 d13e
00000390: 2b6b 9ebe dbbf 13bf 4f93 463e 6d1e 043e
000003a0: 3ce3 933c b59d a939 b362 22bf c011 29bf
000003b0: d6c8 82be d10a 0b3e f9c4 6c3e 08cc d33d
000003c0: 3d11 0cbf 718a 383f 9fbe f3bd 19a1 fe3d
000003d0: b0b3 54bd d7e4 3abf 86bb 01bf 276d cb3e
000003e0: 3cc8 653e bc9c 0f3e 4160 473f 5864 29bc
000003f0: f025 05bd 0fd7 b03d b7e0 dc3e 275f b23e
-0.39877328 0.26293024 -0.24306484 0.47549766 0.39234275 0.5747044 -0.3559122 0.088817045
-0.14662391 -0.3057902 0.06495559 0.634213 0.2913965 0.007814693 -0.15278402 0.43795088
0.6284699 0.18946278 0.28159046 -0.78467876 -0.05719132 -0.59475183 0.385529 0.09909118
-0.09397817 0.049911216 0.84104395 0.29784426 0.40716082 -0.078340955 0.4885277 0.338078
-0.6835511 0.9723629 -0.51221925 0.2911954 -0.015767353 0.21930479 0.049922016 -0.14886425
0.06137162 0.7155407 -0.22259118 0.019821838 -0.8636657 -0.08111817 -0.20223247 -0.2607475
0.186585 0.57378036 -0.18749495 0.42469177 0.4645927 0.43676624 0.3852843 0.36881745
0.4875134 0.6354151 -0.48303512 0.3227745 -0.084325716 0.6182968 0.2177343 -0.09575996
-0.065286815 -0.3311235 0.37687612 -0.015980594 -0.36640465 -0.054278925 -0.7784215 0.03977868
0.065447636 -0.17765346 0.31689668 -0.56361103 0.22214395 0.09542688 -0.3090863 -0.3734118
-0.12755337 -0.25921232 0.18451129 0.77850276 0.36674505 -0.12919047 0.11499044 -0.61418474
0.2613316 0.6934572 0.6005726 0.3017127 1.1302768 -0.013606858 -0.27386528 0.29652485
0.23364386 -0.19431913 0.795733 -0.17839783 -0.522793 0.099733174 0.6508173 -0.033646155
0.62231785 0.38051862 0.0039039645 0.24572067 0.87116945 0.3545149 -0.11992428 0.098475434
1.1493381 0.4766099 -0.33623105 0.082213566 0.45478663 -0.16503726 -0.11314856 0.2655948
0.2187693 -0.23732454 -0.65770626 0.22820495 -0.30110115 -0.16316622 -0.08193666 0.10807013
-0.34310204 -0.21494292 0.04191995 0.099473216 0.7536252 0.5871954 -0.07790986 -0.26617426
-0.015265876 0.22921136 -0.20413205 -0.38802367 -0.4624638 0.025557958 0.3630522 0.4071658
-0.007451266 0.24660142 0.005097607 0.13452066 0.33090845 0.7476189 0.45922622 -0.57308847
0.7528051 0.20481643 0.29518995 -0.041461892 0.5225274 0.021403413 0.26984128 0.19011036
-0.22455731 1.5987755 0.09234629 0.18469726 -0.26126802 0.16478959 0.042691987 -0.4650125
0.4386414 0.011926675 -0.071318515 -0.17048633 0.46417493 -0.6977379 0.5520929 0.01563743
-0.8243102 -0.059971496 -0.21963349 -0.26726052 -0.018079001 -0.18494715 0.07424498 0.15340154
-0.29409504 -0.30744302 0.06793083 -0.5293534 0.22914778 -0.20507683 -0.39103338 -0.25116506
-0.016869161 -0.076527394 -0.08418485 0.0469018 0.1069732 -0.34297177 0.20901085 -0.14757273
0.17829296 -0.4321885 0.19210969 0.22328226 0.15903008 0.34891465 -0.803078 0.02758129
0.37603372 -0.15086292 0.12139131 -0.2723037 -0.7393223 -0.18542375 0.32959867 -0.0069842655
0.14781477 0.1847001 0.4295844 -0.10450082 -0.109315395 -0.12410816 0.1977579 -0.22725174
0.38464782 -0.8016768 -0.13090402 0.40849066 -0.30941138 -0.57714623 0.19392131 0.12902232
0.01805269 0.00032351693 -0.63431853 -0.6604271 -0.2554385 0.13578345 0.23122014 0.1034165
-0.54713804 0.72086245 -0.119015925 0.12433071 -0.051929176 -0.7300543 -0.50676763 0.39731714
0.22439665 0.14024633 0.77881247 -0.010338865 -0.032506883 0.08634769 0.43140194 0.3483822

lstm.bias_ih_l0 f4 [392]
00000000: 00bb c6be b7ad 5ebd 136d a8bd 4ce7 27be
00000010: f8fb 2c3e 8a43 65be e41a 8dbe 2a9f 93be
00000020: 2977 0dbe 3c1b 973c 89ea 88bd 7e07 2abd
00000030: d392 0fbe 6ed7 d43b 6790 523d f220 363d
00000040: 770c 7ebd cf83 77be 8e2e 8bbd 2c48 49be
00000050: a978 67be 906b 823d f9c1 cdbd c4c8 71bc
00000060: 7189 88be 364a 8cbe 51a4 61be 6fa3 cbbe
00000070: cfe2 3fbe 9e8c e2bd ec72 51be 5643 8ebe
00000080: 7dae b33e 45fc 473e e2b2 3fbe c558 7cbe
00000090: c493 89bd 632a c3be b792 c2be 88fe 80bd
000000a0: 123f 633d 049f 80be d63b 9cbd ab09 66be
000000b0: ed29 47bd 2f33 3ebe 40bf 15be 5205 f3be
000000c0: 83be 52be d816 8dbe a717 12be eb84 43be
000000d0: 4c7c 313d 4110 d83e a33e 35be ff06 00be
000000e0: 1ab2 00bf 4369 40be 4cd5 0ebe d7a6 e4be
000000f0: f9a2 3ebe 924a 80be 48e8 9abe 4514 563e
00000100: ac1d 4fbe 54a5 31be 66d7 2bbe 4a0b d3bd
00000110: df1d 68be 7ca6 05be d582 0e3e d074 abbe
00000120: 8995 2b3d e5b5 aabe 92a6 c63d c2c1 11bd
00000130: b3c2 b1be 11fe c3be b4e6 7bbe d6e7 50be
00000140: 8912 b8be 5e67 1fbe 9653 aebe cbea 6cbd
00000150: d7bc 69be 0fa4 c1be 5b51 95be 9fe0 c5be
00000160: 8c3f 193e e666 93bd 044b cdbe ef38 ecbe
00000170: 6cb7 473e 7e3e 18be 34b9 b6be 0c13 d53c
00000180: 7278 82be a3d0 27be 0695 41bc bfa8 023e
00000190: 7c09 093e 27ef 00bd f379 41be 1dd6 643e
000001a0: 9372 863d 8fcb 82bd 4edb 7d3d b177 443e
000001b0: 6425 003e 74e6 b93e 9abf 863c 0215 9c3e
000001c0: 289c 82be a52b a9bd 924d 80bd 64c8 f23d
000001d0: 011a 1f3d a8eb 563d 0b2c 6a3d 026b 043f
000001e0: 4356 5b3e ec33 a23e 04ac 05be 50cb 2d3e
000001f0: 8ff2 a73e ace5 633d 1c46 793e 2822 5ebc
00000200: f277 913d 195d 153e 5821 b83e 0850 f6be
00000210: 8446 bfbb 38ba dfbd 3c6a c4bc 0784 593e
00000220: b30d adbc 3661 f6bd 5abf d1bd 046e 06bc
00000230: fcad 5a3e 997b 8f3a f128 d9bd 6993 a03e
00000240: c121 b33e 1a2e 883d 4ecb cdbd 4fe4 b13d
00000250: c657 833d 3096 2fbd 1b31 5cbe 7fdd 3fbe
00000260: 577e 533e 6875 4c38 8de1 72bd 9c5b 593e
00000270: 1d33 2f3e ce24 d53d 49dc 0c3e 4f3b 083e
00000280: 9d53 b63e 0745 3bbe e803 71bb b465 503e
00000290: e759 5dbd 8241 833e 5f23 b43e 4b53 193d
000002a0: f119 003f 797f 1d3e e602 5a3e e0ae 973e
000002b0: e3aa a0be a74e 2abe d0c4 5c3e f1d5 413e
000002c0: 0b56 b63e 6ab5 9a3d 6595 923d d48e d23d
000002d0: 6ee9 3b3e 2e7c 88bb 11b9 f4bc 7fd1 d83d
000002e0: 77a2 b63e be88 ba3e 3e7b 4c3e 94fe dc3b
000002f0: ebc7 61bd 4fb6 d73e 76a7 c43d 89e6 923e
00000300: 3fe2 9c3e 46b8 d03d 9c69 8d3e a6a0 f23b
00000310: 7ce1 15be fc87 4d3e bfbc bdbd e59c d43d
00000320: e47a 91be e847 323e 0bac 033d 901e 0e3e
00000330: 6be9 113e 10ff 1f3d f408 04be 9c9d 14be
00000340: a5bb f33c 8b07 7d3e 28b1 91be 2998 cb3d
00000350: 2f3a 0e3d db6c fe3c c9f1 eabd 76e0 9d3d
00000360: cdec 70bd aebe 733a 3f36 0cbe be84 b4bd
00000370: 8ad8 ab3d ddf8 5abd a652 bdbd 7af6 1dbd
00000380: acc5 23bc f254 9fbd 952b 053c 9c9b 0dbe
00000390: 276c d7bc 6925 a63d f88b 07be b08f eabd
000003a0: 66e7 e0bd 851b 92bc 40e9 113d 99d9 563d
000003b0: 5405 2c3e dd30 483e 47ca 073e a68e eb3c
000003c0: f702 c2bd ccea 11be 47e8 6bbd 508c 85bc
000003d0: 392b 36bd cf22 3cbc 09d2 e3bd 4461 d9bd
000003e0: ca17 dabc 61e4 d2b9 655c be3b 520a 90bd
000003f0: 65dc 803e ed8e 00bd c073 98bc 9fbf efbc
-0.38814545 -0.054364886 -0.08223929 -0.16396827 0.16892993 -0.22389045 -0.27559578 -0.2883237
-0.13814987 0.018445604 -0.06685359 -0.04151105 -0.14020853 0.006495408 0.051407244 0.044465013
-0.062023606 -0.24171375 -0.06795989 -0.19656438 -0.22604622 0.06368172 -0.10046763 -0.014757339
-0.2666736 -0.27400368 -0.22035338 -0.39773127 -0.18738864 -0.11061977 -0.20453995 -0.27785748
0.35094061 0.19529827 -0.18720582 -0.24643238 -0.06717637 -0.38118276 -0.3800256 -0.06298548
0.05548007 -0.2512132 -0.076286 -0.22464626 -0.048623968 -0.18574212 -0.14623737 -0.47464997
-0.20580487 -0.2755649 -0.14266835 -0.19093673 0.04333143 0.421999 -0.17699675 -0.12502669
-0.5027176 -0.18790154 -0.13948554 -0.4465854 -0.18616857 -0.25056893 -0.30255342 0.2090617
-0.20226163 -0.17348224 -0.16781387 -0.103048876 -0.22667645 -0.1305179 0.13917096 -0.33487558
0.041890655 -0.333419 0.096997395 -0.035585172 -0.34718856 -0.38279775 -0.24599725 -0.20400938
-0.3595164 -0.15566775 -0.34048146 -0.057841104 -0.22825943 -0.3782048 -0.29163632 -0.38647935
0.14965647 -0.07197361 -0.40096295 -0.46137187 0.19503564 -0.14867589 -0.35688174 0.026010059
-0.25482517 -0.16388182 -0.011815315 0.12759684 0.13382524 -0.031478073 -0.18894176 0.22347303
0.06564822 -0.06386482 0.061976723 0.19186284 0.12514263 0.36308634 0.016448785 0.30484778
-0.25509763 -0.08260278 -0.06264795 0.11854628 0.03884316 0.052470833 0.05717091 0.5172578
0.21419625 0.31680238 -0.130539 0.16972089 0.32802245 0.055638954 0.24343151 -0.013557948
0.07102956 0.14586295 0.3596294 -0.48107934 -0.0058372635 -0.1092419 -0.023976438 0.2124177
-0.021124696 -0.1203026 -0.102415755 -0.008204941 0.21355432 0.0010946869 -0.10603512 0.31362465
0.3498669 0.06649418 -0.10048543 0.086861245 0.06413226 -0.04286784 -0.21503107 -0.18736838
0.20653664 4.8746733e-05 -0.059297133 0.21226352 0.17109342 0.104074106 0.13755907 0.13303874
0.35610667 -0.1828805 -0.003677601 0.20351297 -0.054040816 0.25635916 0.35183236 0.03743295
0.50039583 0.15380658 0.21290168 0.29625607 -0.31380376 -0.16631566 0.21559453 0.18929268
0.3561252 0.07554133 0.07157401 0.102811486 0.18350765 -0.004165194 -0.029873403 0.10586833
0.35670826 0.3643245 0.19968888 0.0067442153 -0.055122297 0.42131278 0.09602253 0.2869151
0.30641362 0.10191397 0.27619636 0.0074044047 -0.14636797 0.20071405 -0.09264516 0.10381488
-0.2841407 0.17410243 0.032146495 0.13878846 0.14249198 0.039061606 -0.1289404 -0.14513248
0.029752562 0.24709909 -0.28455472 0.099411316 0.034723457 0.031057766 -0.11471898 0.07708828
-0.05881958 0.0009298128 -0.13692568 -0.08814381 0.08390911 -0.05345999 -0.092442796 -0.038565136
-0.009995859 -0.07779874 0.008128067 -0.13828892 -0.026296688 0.08112604 -0.13236988 -0.114531875
-0.10981636 -0.017835388 0.035622835 0.05245361 0.16798908 0.1954989 0.13260756 0.028754544
-0.09473222 -0.14249724 -0.057594564 -0.016302258 -0.044474814 -0.011482908 -0.111240454 -0.10614255
-0.026622672 -0.00040224477 0.005809354 -0.070332184 0.25168148 -0.031386305 -0.018609881 -0.029266177

lstm.bias_hh_l0 f4 [392]
00000000: ff9a a6be 9ec2 7fbe 79a1 61be f452 32be
00000010: bda6 2d3e 6bd9 b4be 8557 c9bd 3a57 6bbe
00000020: 1165 e2bd 6d1f 40bd 2016 0fbe 5bb7 12bd
00000030: 4379 11bd a86e 48bd 2d0b 403d c661 4c3d
00000040: 1da1 b73d f766 01be 2cd7 8abd ef03 8abe
00000050: 6c1c 70be cee9 b53d 2b94 ebbd 31e6 09be
00000060: e4a2 a8be 0a94 8ebe 4a81 9abd fe86 cdbe
00000070: 62a8 4fbe e3ae dfbd 5309 8dbe d9c1 9cbe
00000080: 5719 913e 3d6a e63d 7ce5 33be 86be d0be
00000090: f3c1 1abe 5861 d9be cd3a a9be f45c 08be
000000a0: 4fa9 b2bc 69ad 55be a069 32be 5a23 9abe
000000b0: e577 aabc 6e78 f4bd fad4 3dbe 979a c1be
000000c0: fa7d 7cbe b251 43be aa6a b7bd 245a acbe
000000d0: daed d83d 9fab fc3e 25bf 00be 2a3f 0abe
000000e0: b01a 07bf 53d0 30be 7642 febd 3af7 dabe
000000f0: a6d6 b4be 37fc 42be 1e17 bbbe 91d9 bb3d
00000100: 0439 33be 9414 18be ae73 c3bd fc1f 78bd
00000110: ea93 8fbe c98b b3bd 16b7 5e3d 88d7 d2be
00000120: 257c a7bd 5cfc 5abe df48 2b3d 3a4c 063c
00000130: 4c83 4bbe e34d b4be 83d3 77be 6876 87be
00000140: 7160 bebe 87cf fdbd 54b9 efbe 9d2c cfbb
00000150: 93ca 5dbe c035 8ebe a79d 7cbe cf48 52be
00000160: a08d bf3d 1e8b 17bc 355c a4be 7044 c3be
00000170: 00b7 343e bf8d 80be 5ddb 9abe 04b0 453d
00000180: 54b7 f1bd 469b 823c 6fff 2cbe bba5 063e
00000190: e4e6 573e 5615 a73c 4c02 34be e01a 713e
000001a0: 7049 443d 654e 233d eb14 283e efcd 6c3e
000001b0: e38a ec3c 5b85 e33e 5f75 ec3c fb1b c23e
000001c0: db20 18be 6980 fc3b d229 a0bd 3365 223e
000001d0: c7c2 af3d 9c00 023e 5f56 113e 07f3 cb3e
000001e0: e74c 653e d104 7d3e 8f4e f2bd 229e bf3d
000001f0: 6caf 923e d71d e53d ec36 583e d8d5 48bd
00000200: ac67 e03c bec3 993d 6b99 cf3e 3915 a6be
00000210: 136e 1d3d 4512 cfbd 77f6 77bd d55a 973e
00000220: 9d2c 54bd e394 40be 7452 3ebd faee 16bd
00000230: e9cd df3d a7bc 613d b4b4 88bd d39d 803e
00000240: 1a6f 6a3e aca0 08bd bacd d6bd a3a1 cb3c
00000250: 0907 5c3e 2733 b33d d7d7 88be b089 33be
00000260: 20f1 053e d95c a5bd d41a aa3c 6633 993e
00000270: 3e64 563d 65f8 2d3e dc54 8c3e da84 1f3e
00000280: 158b d03e 5e3d 61be 54d2 533d 3192 d53d
00000290: 2724 16be ef64 8d3e ea6e a73e 922b f93c
000002a0: 2b15 273f 39be 4b3e 6ee3 353e 609d 493e
000002b0: 29ac 6abe 75a1 62bd 85d8 aa3d cdb0 6e3d
000002c0: 7143 a33e b8a1 843d 1f61 153e 1910 6e3d
000002d0: 5e2d 583e 7c44 b7bc af92 04bd d02a 653d
000002e0: feaf 963e 6ed4 843e 5509 043e 7ac0 d23d
000002f0: 8fa7 783d 0ec1 af3e ae4f 6bbd eef5 8a3e
00000300: 9530 9b3e 02e3 813e fc1d 9d3e 9238 353e
00000310: e7e8 47be 831c 183e 8ec8 d6bc 6c47 d63d
00000320: 6d81 98be a597 773e 7124 c33d 092f db3d
00000330: b4b3 883d dd93 083e ebf8 9dbd 01c5 55be
00000340: b026 f6bd 6fee 9a3e 7482 63be 53c7 ae3d
00000350: ab9e 1b3e 7654 f83d c6dc 00be 13ab 433d
00000360: 295f 0d3e ae5e 9ebd e245 aebd 877d 1dbe
00000370: 4c04 0d3e 3dfc d8bc 7d71 0ebe 0b98 55bd
00000380: e0d1 eabd a5e1 4cbe 27d5 4cba 1d5a ebbd
00000390: d4d3 b53d 9490 083d 5e97 46be 72a4 8abd
000003a0: d346 55be 0a40 813d 85de cb3d 00d1 e43c
000003b0: cdbe b83d 4924 803d 6955 2a3c f695 ba3d
000003c0: 658c b03c 1cf0 12bd 3c77 27be 3b5d aabc
000003d0: e7c4 123e ffb6 8bbd 6307 1ebe 65a0 42bd
000003e0: b09f 9c39 c903 3ebd 0793 293c 3cce 91bd
000003f0: 8dff 303e 752c 66bd 3115 8a3d f6f6 cd3c
-0.32540128 -0.24976584 -0.22034253 -0.17414457 0.16958137 -0.35322127 -0.09831146 -0.22982493
-0.11054433 -0.04690497 -0.13973284 -0.035819393 -0.035516035 -0.048933655 0.046885658 0.04989793
0.08966277 -0.12636934 -0.06779322 -0.26956126 -0.23448342 0.08882485 -0.1150287 -0.13466717
-0.32936776 -0.2784732 -0.07544191 -0.40142053 -0.20279077 -0.10922029 -0.27546176 -0.30616644
0.28339645 0.11250732 -0.1756801 -0.40770358 -0.15113048 -0.4245708 -0.33052674 -0.13316709
-0.021809248 -0.20866932 -0.17423105 -0.30105096 -0.020809123 -0.11937033 -0.18538275 -0.37813255
-0.24657431 -0.19074133 -0.089558914 -0.33662522 0.105922416 0.49349687 -0.12572916 -0.13500658
-0.52775097 -0.1726697 -0.1241502 -0.42766744 -0.35320014 -0.19041525 -0.36541075 0.09172357
-0.17502218 -0.148516 -0.095435485 -0.060577378 -0.28042537 -0.08766896 0.054373823 -0.41180062
-0.081779756 -0.2138533 0.041817542 0.008196885 -0.19874305 -0.35215673 -0.24201779 -0.26457524
-0.37182954 -0.12393098 -0.46821082 -0.006322457 -0.21659307 -0.27775383 -0.24669515 -0.20535587
0.09353185 -0.009249477 -0.32101598 -0.3813815 0.17647934 -0.25108144 -0.30245486 0.048263565
-0.11802545 0.01594318 -0.16894315 0.13149159 0.21084172 0.020395916 -0.17579001 0.23545408
0.047921598 0.039869685 0.1641423 0.23125432 0.02887482 0.4443768 0.02886456 0.37911972
-0.14856283 0.0077057374 -0.078204766 0.15858917 0.08582073 0.12695545 0.14193104 0.39833853
0.22392617 0.24708869 -0.1183139 0.09356333 0.2864946 0.11187332 0.21114701 -0.049032062
0.027393185 0.07508038 0.40546736 -0.32438067 0.038435053 -0.101109065 -0.06053778 0.29561487
-0.05180036 -0.18806796 -0.046465352 -0.036849 0.10927946 0.055111554 -0.066750914 0.2512041
0.22893944 -0.033356354 -0.10488458 0.024857348 0.21487059 0.08749991 -0.26727173 -0.17532992
0.13080263 -0.0807435 0.020764746 0.29922026 0.052341692 0.16989286 0.27408493 0.15578023
0.4073111 -0.21996066 0.051714256 0.104282744 -0.14662229 0.2761607 0.32701808 0.030416284
0.65266675 0.19896783 0.17762539 0.1968894 -0.22917236 -0.05532976 0.08342079 0.05827408
0.3188739 0.06476158 0.1458783 0.05812082 0.21111056 -0.022371523 -0.03236645 0.055949032
0.29431146 0.2594332 0.12894185 0.10290618 0.06070667 0.34326977 -0.057449035 0.27140754
0.30310503 0.25368506 0.3068694 0.17697361 -0.19522439 0.14854626 -0.026218679 0.104628414
-0.29786244 0.24178942 0.09528435 0.107023306 0.06674901 0.13337655 -0.07713493 -0.20875932
-0.12019098 0.30260035 -0.22217733 0.08534112 0.15197246 0.12125485 -0.12584218 0.04777057
0.13805832 -0.077329025 -0.08509423 -0.15379916 0.1377117 -0.026487464 -0.1391048 -0.052146953
-0.11465812 -0.20007952 -0.00078137446 -0.11491797 0.08878294 0.033341005 -0.1939368 -0.06769647
-0.20827799 0.063110426 0.099545516 0.02793169 0.09020767 0.06256921 0.01039634 0.09110634
0.02155132 -0.035873517 -0.16354078 -0.020796409 0.14332925 -0.06822013 -0.15432505 -0.047516245
0.00029873615 -0.04639033 0.010349995 -0.07119414 0.17284985 -0.05619474 0.06742323 0.025142174

fc1.weight f4 [9, 98]
00000000: 5580 77be 6770 d43e 3412 0abf bb9b b93e
00000010: 4022 37bf 07c6 bc3e cab7 1c3f d4e3 ae3d
00000020: 1a20 3f3d 4598 263f c6d3 ca3e 8a98 38bd
00000030: 636d 04bb 7af3 9f3e c4a6 533f e6f2 e3bf
00000040: 6ba4 003f 99b0 d3bd 7347 78bd d3ff 473e
00000050: 69b5 0bbc bec9 b73d 17c8 de3e 7e97 10bd
00000060: 4199 a43c 9cd1 b2be 95ea 593f 1bee a0bd
00000070: c736 10bf 91e3 0dbe c050 423f 30df b6be
00000080: f561 913d 015f 0d3f 7533 32be b3eb 10be
00000090: f506 fdbd d376 163f 027d 113e e4f4 2f3f
000000a0: b1d3 2dbf 4c1d 4fbe a649 9ebe c43c 37be
000000b0: cd91 aa3f 4eac 783d 5c2c 7b3e 9082 1dbe
000000c0: 3ee1 003e 0ea0 c13e 0b27 d5be eb54 aebc
000000d0: ec25 6d3f 99f4 8f3f b3e0 b2bd a726 f7be
000000e0: b713 713f 92ba a3be 9e58 2ebf 3647 abbe
000000f0: fec1 a6be 1cc5 28bf 0b7f 463e 84a7 9bbd
00000100: e1b8 853e 4fa2 bf3c 39cb 883d 2b18 82bd
00000110: 9fae 2f3d ddf7 c7be ce2a 28be f1d7 3bbf
00000120: 7ca1 9f3e c7ac 72bf d4ee f6be 6a94 f43e
00000130: 837f fd3e 0c74 d7bd 20eb d53d 41c2 f53c
00000140: 1694 c33e e868 94bd a6a4 2dbe 3564 a93e
00000150: 02e6 88be 2854 13bf 04b6 01bf 9943 56bf
00000160: 4260 3fbf e560 05bf 8ae0 00be da3b 34be
00000170: 5993 543e d5c1 fe3d 982c 3e3e d353 8cbe
00000180: eaad 863e dc95 d5bd dcd9 d53c 1bc3 febe
00000190: 333f 34be fc14 abbe 242d d1bc 2a5b 0a3f
000001a0: 38fd 673e 9d7e 59be e085 bfbc 5c8e 9b3e
000001b0: 660e 013e b146 f93e a8ee 113e 14f5 97be
000001c0: ebc7 0bbe 7e49 9abf 3950 8cbe 5952 2d3e
000001d0: d29c 053e b985 263f a67d 3d3f 364d 6c3f
000001e0: 13a2 16bf 17a8 4abe 4e95 f73b 9c74 503e
000001f0: 7db2 fcbd 16c9 efbd 2ee5 ecbe 957d 32bf
00000200: 571a edbd 5b84 74be da8d d7bb 17bb 223f
00000210: 682d 393e dc6b f53e 2f03 dd3d 08dd 10be
00000220: c687 0c3e 2408 2dbe 8d78 283f d5ee 203f
00000230: ca52 a93c 89b4 1a3e ec65 a1bf 73bf ccbe
00000240: 3e13 8f3d 6e85 a73e ae36 f13e 3db4 eebd
00000250: a0bd 8fbe 8586 2f3f acdf 99be 699f f43e
00000260: e3c0 353e 5e48 523e 5ca2 593f 2da6 3c3d
00000270: 5d05 16bf 3788 b0bb 4c0e be3e 98b0 4c3e
00000280: 3f03 10be 1432 fabe ed8b 833e 2024 87be
00000290: 6bf4 38be 4b59 ae3d 806c 03be 3608 c8be
000002a0: 2aa1 e8be 5537 e23d 75eb 363f 9e60 2b3e
000002b0: 656e bbbd 40f2 8e3d c3ef ed3e c517 5b3b
000002c0: 5fe8 f9bb a053 7c3b 149f 843e 6927 903d
000002d0: 0987 a53e 67a6 c73e 6c04 373f 4d92 973e
000002e0: ab92 66be 49e9 8c3f ade1 9b3e c303 b2bd
000002f0: 7f7f 1c3f 02a6 39be 2af2 5f3e 001c f1be
00000300: f66d db3f fe1f 0fbf 7a54 1fbe bcbf d9be
00000310: a808 44be 6708 00be 1a4c a43d a51f b83d
00000320: bf73 c23e c16b 13bf 038a 9a3a 19f9 9fbd
00000330: 2492 033f 99fa b73e 1328 8abf a2a4 09bf
00000340: 48e1 1a3d 69a8 23bf 8d10 21bf 1aa0 a9be
00000350: 9e63 043f ba5a 933c 2381 88be 42e5 963d
00000360: feb3 c4be 3381 85be 4965 1f3f 7561 74bf
00000370: eca5 96bd 3888 c03e a361 f4be 63c4 de3e
00000380: ffdb 14be 6daf 50bd dbab dd3c 4eb5 10bf
00000390: da01 e63e e22e 753f 6010 1ebe dfe4 bc3f
000003a0: b0a8 0e3f 1a84 33be 8c46 38be 0f3d 123f
000003b0: c2c8 a3be 2153 a03e a850 983e 70ba b8be
000003c0: daf3 83bf e120 f73e 3ff0 073f 31a6 a0be
000003d0: c5d9 83be 5e69 023e 699c a1be 835b c0be
000003e0: 1dfb c8be 4984 ac3d 94f2 343f 8323 c2bb
000003f0: dd65 08bf 168e 023f 6432 90bf 8e7d 78bd
-0.24170049 0.41492006 -0.53934026 0.36251625 -0.71536636 0.36869833 0.6121794 0.085395485
0.046661474 0.65076095 0.39614695 -0.045067348 -0.00202068 0.31240445 0.8267634 -1.7808502
0.5025088 -0.10336418 -0.060615014 0.19531183 -0.008527138 0.08974026 0.4351203 -0.035300724
0.020092608 -0.34925544 0.8512357 -0.07857915 -0.56333584 -0.13856341 0.75904465 -0.35717154
0.07098762 0.5522309 -0.17402442 -0.14152412 -0.123548426 0.5877506 0.14207843 0.6873305
-0.6790114 -0.2022602 -0.30915564 -0.17894274 1.3325745 0.060711198 0.2452864 -0.15381837
0.12585923 0.37817425 -0.4163135 -0.021280726 0.9263599 1.124652 -0.08734264 -0.48271677
0.9417071 -0.3197828 -0.6810397 -0.33452767 -0.3256988 -0.65925765 0.193844 -0.076003104
0.26117614 0.023392824 0.06679387 -0.06352266 0.04289114 -0.39056292 -0.16422579 -0.73376375
0.3117789 -0.9479489 -0.48229086 0.4776948 0.49511346 -0.10520181 0.10445237 0.029999854
0.38198918 -0.07246572 -0.1695734 0.33084264 -0.26737982 -0.5755029 -0.5066836 -0.83696896
-0.7475625 -0.52100974 -0.12585655 -0.17600957 0.20759334 0.12439314 0.18571699 -0.27407703
0.2630456 -0.10428974 0.02610486 -0.4975823 -0.17602234 -0.33414447 -0.02553422 0.54045355
0.22655189 -0.21239705 -0.023379266 0.3038205 0.12603149 0.48686746 0.14251196 -0.29679167
-0.13650481 -1.2053678 -0.27404955 0.16925944 0.13048103 0.65047795 0.7401985 0.92305315
-0.58841056 -0.19790684 0.0075556403 0.20356983 -0.123387314 -0.11708276 -0.462686 -0.6972287
-0.115772896 -0.23878615 -0.0065781893 0.63566726 0.18083727 0.47933853 0.10791623 -0.14146817
0.13723668 -0.16897637 0.65808946 0.6286443 0.02066936 0.15107931 -1.2609229 -0.39989814
0.06986092 0.32718986 0.4711203 -0.116554715 -0.2807436 0.68564636 -0.3005346 0.4777787
0.17749362 0.20535418 0.85013366 0.046056915 -0.58601934 -0.005387332 0.37120283 0.1998924
-0.14063738 -0.48866332 0.25692692 -0.2639475 -0.18061988 0.08513125 -0.12834358 -0.39068764
-0.45435458 0.1104571 0.7145303 0.16736075 -0.091519155 0.06979799 0.46471986 0.0033430916
-0.0076265777 0.0038501993 0.25902617 0.07038767 0.32329586 0.38994142 0.7149112 0.29603806
-0.22516887 1.1008693 0.30445614 -0.08692124 0.61132044 -0.18129733 0.21869722 -0.47091675
1.7142932 -0.5590819 -0.15559569 -0.42529094 -0.19143927 -0.12503205 0.08022328 0.08990411
0.37978932 -0.57586294 0.0011790398 -0.078111835 0.5139487 0.35933378 -1.079348 -0.53766835
0.0378125 -0.6392885 -0.6291588 -0.3312996 0.51714504 0.017987598 -0.26661023 0.07367946
-0.38418573 -0.26075134 0.62263924 -0.9546121 -0.07355866 0.37603927 -0.4773074 0.43509206
-0.14537047 -0.05094855 0.027059486 -0.5652665 0.44923288 0.9577466 -0.15435934 1.4757346
0.55726147 -0.17530861 -0.17995661 0.5712442 -0.31989104 0.31313422 0.29749036 -0.3607974
-1.0308793 0.48267272 0.5310096 -0.31376794 -0.25752082 0.12735507 -0.31564644 -0.37569818
-0.39254084 0.08423669 0.70682645 -0.0059246435 -0.5328043 0.50998056 -1.1265378 -0.060666613

fc1.bias f4 [9]
00000000: 2472 2abe 8880 ba3d 9235 12bb 5356 a6bd
00000010: 3c56 d73c 8308 453d 9ce0 6f3d 624b 97bd
00000020: 9bf5 89be
-0.16645104 0.09106547 -0.0022309762 -0.08121934 0.026286237 0.04810382 0.058563814 -0.07387425
-0.26945195

exp_avg f4 [392, 1]
00000000: 0478 f8bb e71b 33bb 472f 0d3b 5656 1e3c
00000010: e4fe f2bb 3931 dd3c cdf4 1a3d 5ebb 4c39
00000020: 71fa 9c3a 41a0 ab3a ed8e dbbb 3c02 863d
00000030: 400a d1b9 a7f7 fa3b b320 de3a 5823 533b
00000040: 83d9 c13b b750 80bb d503 04bc 825b 9cba
00000050: 1e94 3aba b5e5 8d3a 7bf8 023b f6ea 8ebb
00000060: fd65 33bc 7198 d93b 60f8 903c ea48 4d3b
00000070: da7b adbb 7ea4 c83b af47 10bb 49ae eb39
00000080: a2fb 88ba 6d0a 3e3a 08c2 bfba b4ee f23b
00000090: 4255 4d3b 2760 573b ed27 a6bb e9a8 263b
000000a0: 6684 f0bb a289 173c b819 d1ba 3513 9e3b
000000b0: 40f1 eaba 0e9b c33c 3922 ec3a 63fe 883a
000000c0: 555b 4e39 cd08 603b 53cc f53a 5c69 143b
000000d0: 9e4e deb9 c02b 493a 10a8 5fbc 98a5 5bbb
000000e0: f7af 573d 840e 99ba 8cce 123b 7f9b b3ba
000000f0: 0b4b 05bb 65b7 3fbb e171 c7bb ce99 313b
00000100: dbbe 273b 3e47 e4ba 8b3d a0bc dad5 bd3b
00000110: e913 5bba ca03 6e3a e90c 883b 966d 243c
00000120: 2614 1fbb 6b18 403b b631 f63b 808d 733b
00000130: d346 f63c 245b 9eba 8e02 db3c f14e 9cba
00000140: d343 7d39 a19b a7ba 9bb5 2dbb d640 22bb
00000150: 0548 90bb b2c9 113c 014d 1bba 6d0e 90bd
00000160: f82d 41ba 0d84 42bc 54e8 8cbb 23ad 0ebb
00000170: 6376 ccba 1e8f 02bc b40e 1ebc 54be 703b
00000180: 5a20 733b b0ed df3b abf8 da39 edcb 163b
00000190: f07f c6ba 634b 1b3b 7b4a 083b b940 98b9
000001a0: 2095 0f3c c915 1bbb 5245 91bb 253f 8d3b
000001b0: efb0 1d3a 62f9 c73b 0341 173a 9053 7a3b
000001c0: 5cee e2ba c6d7 42b9 8eea 783c 5420 bbba
000001d0: 7b96 d939 25c4 6aba c6bd 34ba 1833 b7ba
000001e0: 4c5f 5fba 113d c43a bb7e 38bc 0087 9b3a
000001f0: 0ff1 59bc dcb4 653a 43d8 d6ba 835e fbb9
00000200: 5ee7 393b 5131 3f3b 2209 b4ba c9d3 89ba
00000210: daa4 fdb9 51fa 2b3c bfa7 253c 86bf cfbb
00000220: 0937 17ba b313 953a c8cd f9bb 076c 4d3b
00000230: 04a3 89ba 6593 523b b64b e93b 7e81 aeba
00000240: 3e71 433b f637 7537 8710 323a b8fb 213a
00000250: 86e6 feba b66d 3eba e94c 30ba 642d b43b
00000260: 7903 3cb9 d60c 92ba 8201 a33a a595 84ba
00000270: e7f2 dd39 5ed6 1cb9 057e 2e3a 2930 06bc
00000280: 69b9 d7ba 3de2 46bb a0fa be3a d817 8439
00000290: 9108 aebb 60a6 a0ba 7522 59b9 5876 67ba
000002a0: 27ee c83a 1950 133c 8422 803b 4ce4 78ba
000002b0: 8b2c e53a 869b 6b3c c668 d43b 556d 7fba
000002c0: 0586 f83b 5ede 8cbb 4e77 58ba d619 4d3a
000002d0: d430 00ba 7424 13bb 5a3b 31bc 73c4 fa3b
000002e0: ad44 7f3a babb 38bc f65c 1cbb 5d38 8f3a
000002f0: 906b 90bb da21 9c3a 9cf0 0a3b 3e43 dcbb
00000300: 0eaa 9cbb 0ac0 933b 7d7e e3ba e3de cbb9
00000310: 3831 04bc ac8d a93b 286b 053c e38e 9bbc
00000320: 3151 d43c 72c8 983a d77a 1cbc 4554 4ebc
00000330: 66a4 023c defa b03c 9b3c d3bb 847c af3c
00000340: 0d94 3639 77be 1dbc c4d4 a53b a75f 1e3b
00000350: ef88 2d3c 9724 a1ba e599 b1bc a718 fdbb
00000360: 1284 1bba 56ec 7fbb bdfb 39bc ac89 55bb
00000370: 21a8 d83b 5d5b 583a dcf4 5cbc 4e93 3d37
00000380: 8be0 32bb 38e0 21bc ab0b 1b3b 72a5 8a3a
00000390: 3660 a5bc 6165 ddb8 368b 42bc 328f 2ebc
000003a0: 4175 7d3d aefc 4cbb 9fb0 c5bc a840 613c
000003b0: ff52 dc3c 9ccc de3b e87d 2abb 559f f5ba
000003c0: 022f b4bb 1add 333c a1ea 94ba f3dd 65bb
000003d0: 5edc 3f3b 5c6d 283b 973d 2d3a 6451 053c
000003e0: e269 0a3c 6775 92bc ee9b 25bc 0040 0dbb
000003f0: 13e8 3fbe b0b6 70ba 0a42 263c b97f 3bbc
-0.0075826664 -0.0027329864 0.0021543072 0.009664139 -0.0074156392 0.02700101 0.037831116 0.00019524756
0.0011976493 0.0013094024 -0.0067003877 0.06543395 -0.00039871223 0.007658917 0.0016947001 0.0032217111
0.005915822 -0.003915872 -0.008057554 -0.0011929127 -0.0007117408 0.0010825904 0.0019984532 -0.0043615056
-0.010949609 0.006640487 0.01769656 0.0031323978 -0.0052943053 0.0061231246 -0.0022015383 0.00044952545
-0.0010450969 0.00072494784 -0.0014629969 0.0074137095 0.0031331335 0.0032863708 -0.0050706775 0.0025430268
-0.007340002 0.009249123 -0.0015953099 0.004824067 -0.0017924681 0.023877647 0.001801557 0.001045179
0.00019679715 0.0034184933 0.001875291 0.0022645807 -0.00042401714 0.0007674061 -0.013650909 -0.003351545
0.052658048 -0.00116773 0.0022400944 -0.0013702958 -0.0020338919 -0.0029253599 -0.0060865735 0.0027099731
0.0025595936 -0.0017416251 -0.019560596 0.0057933154 -0.0008357154 0.0009079544 0.0041519296 0.010035893
-0.0024273484 0.002931143 0.00751325 0.0037163198 0.030063068 -0.0012081605 0.026734617 -0.0011925382
0.00024153227 -0.001278747 -0.002650595 -0.0024757884 -0.0044031166 0.008898186 -0.0005924255 -0.070340015
-0.00073692156 -0.011872304 -0.0043001566 -0.0021770678 -0.0015599247 -0.007968692 -0.00964706 0.0036734538
0.003709814 0.0068337545 0.00041765472 0.0023009733 -0.001514433 0.0023696057 0.0020796347 -0.0002903992
0.0087635815 -0.0023664108 -0.0044333125 0.004310506 0.000601544 0.006102727 0.00057698804 0.003819678
-0.0017313468 -0.00018581664 0.015192641 -0.0014276602 0.00041501582 -0.00089556194 -0.00068947335 -0.0013977019
-0.0008520975 0.0014971812 -0.011260684 0.0011865795 -0.013302102 0.0008762607 -0.0016391355 -0.00047944867
0.0028366665 0.0029173682 -0.0013735632 -0.0010515387 -0.00048378744 0.010496692 0.010110795 -0.00633997
-0.0005768394 0.0011373669 -0.007623408 0.0031344907 -0.0010500853 0.003213131 0.007119621 -0.0013313738
0.0029822136 1.4616167e-05 0.0006792624 0.00061791716 -0.0019447363 -0.0007264273 -0.00067253277 0.005498575
-0.00017930371 -0.0011142741 0.0012436362 -0.0010115398 0.0004233338 -0.00014957177 0.00066563516 -0.008190193
-0.0016458455 -0.003034725 0.0014570542 0.00025194767 -0.00531108 -0.0012256615 -0.00020707569 -0.0008829585
0.0015329764 0.008991265 0.0039103646 -0.0009494468 0.0017484588 0.014380341 0.0064822165 -0.000974377
0.0075843357 -0.004298969 -0.0008257524 0.0007823979 -0.00048900885 -0.0022452148 -0.010817373 0.007652813
0.00097377115 -0.011275226 -0.002385912 0.0010926832 -0.0044073537 0.0011911944 0.0021200543 -0.006721883
-0.0047810143 0.004508977 -0.0017356422 -0.0003888524 -0.008068375 0.0051743593 0.008143224 -0.018989032
0.025917621 0.0011656417 -0.009550772 -0.012593334 0.007973766 0.021603998 -0.0064464337 0.021421678
0.00017412026 -0.00962793 0.005060764 0.00241659 0.01059173 -0.001229423 -0.021679828 -0.007723886
-0.0005932461 -0.003905078 -0.011351523 -0.003258328 0.0066118394 0.000825336 -0.013486113 1.1299575e-05
-0.0027294483 -0.009880118 0.0023658078 0.0010577871 -0.020187479 -0.000105569845 -0.011874011 -0.010654258
0.0618794 -0.0031278539 -0.024132071 0.013748325 0.026895044 0.0067992937 -0.0026014987 -0.0018739501
-0.005498768 0.010978008 -0.0011361429 -0.003507492 0.0029275636 0.002569995 0.0006608604 0.008137081
0.008448096 -0.017878247 -0.010107977 -0.002155304 -0.18740873 -0.0009182496 0.010147581 -0.011444026

exp_avg_sq f4 [392, 1]
00000000: 3015 fb3a c9ef ef39 99d6 6239 a7b2 643a
00000010: db0f 7b3a 6ecd 5d3d 6f7e ee3c 6a8c 023a
00000020: 5583 8a3a 6ad1 9739 3aab f939 2377 5f3d
00000030: 603c a938 42a8 c93b 607a 5a3a 50af 0139
00000040: fc65 b33a 42c9 1e39 7433 033a 922f 8a38
00000050: 32e4 3439 8fc0 f43a eecb f339 33e7 d539
00000060: 4bf5 b13b b6f4 133a 68be b33b e3ff 2a3a
00000070: 3ed4 aa3a a04b 593a a605 933a 742a 5e39
00000080: c79b 5439 5222 4739 9c81 3438 40f3 d83b
00000090: 9b0c 233b 992d 363d 1499 1d3a 4789 9139
000000a0: a12e ff3a 8db0 8c3a 02a1 8739 f8c6 443a
000000b0: 5345 3e39 ca5f 373b 73b6 3b3a d25e b737
000000c0: a486 c938 f7f7 0c3a 06d4 0a3a 59ea 6b39
000000d0: 3206 a638 9063 e33a 9c54 2b3b a402 be39
000000e0: af33 3e3d ba6a 4c39 d8ac bf38 66fc 1139
000000f0: de2e 913a 68d8 053b d548 c03a 90ac 883a
00000100: 0dcc 473a 1ce7 b439 44c8 313b debf cd39
00000110: acc2 b538 7ba8 6139 5fc1 6139 7521 e13c
00000120: a51b f738 8e3f 8a3a 968c a93a da76 e73a
00000130: 8e51 833b 0c31 3538 a094 073c 3dac a339
00000140: 1887 c037 5c59 c539 bb07 4e3a 330e 5239
00000150: 5456 2a3b bb78 cd39 ef3a 5539 22d2 153e
00000160: abdb 0d3a f18b 013a 5806 153b 85f4 0039
00000170: 210c 3339 91c5 b83a 1790 973b 8006 d539
00000180: d778 e439 8b00 c139 5b41 023a 8785 9a39
00000190: bde2 3d38 e543 9439 35f1 0b3a 2a7b 0d3d
000001a0: 99fc 433b e235 0c3a e971 f839 5d5d fd39
000001b0: a5d8 9838 3848 4d3c 0450 7637 b86a e73a
000001c0: 67fa 233a 8891 8c38 10b8 cb3a a15e c738
000001d0: e4db ba39 f771 0938 33fd e438 8664 8039
000001e0: 11f8 ef39 4da6 5d39 496e f43a 410d 8939
000001f0: 0db1 823b 7510 c139 c3ee 853a 78f7 d238
00000200: 1b7a 713a a401 203a a4c6 fb38 4f61 0a39
00000210: 42b5 2437 9736 8a3b 7cd3 013b 74e2 703a
00000220: cc0b a838 d505 e739 bf4d f139 b541 3a3a
00000230: 0aa7 8538 855a 883a 7b6d 9739 ca4f 2539
00000240: 3d83 3c3a fc50 8534 fc00 1e38 fa50 b239
00000250: 787e 8439 fa4c 9939 4281 6438 cc17 913a
00000260: 4fb0 b83a ba97 8b39 0302 2d3b 7c11 0839
00000270: af15 8139 beed 0f39 fee0 903a 53a1 a03a
00000280: de6e 2b39 4d96 0d3a f9a7 5339 384a 2239
00000290: e467 483a 29ff 8f39 b9f6 fa36 cdab 0c39
000002a0: e0e6 8a39 38e7 fa3b 1844 1e39 2a48 e83a
000002b0: 2921 833a 7849 d53a 51a0 d23a a087 ba37
000002c0: 1208 f439 bc62 6d39 125c 2337 04e5 c037
000002d0: 28a1 d338 c54e 3d39 fbc3 0f3b ee47 4a39
000002e0: 8ad8 9738 d2b2 033b 0de4 9039 ddca d839
000002f0: c042 ba3a 0bb3 dc37 5f32 8739 f27b ce3a
00000300: a7f9 6d3a b60d f639 e53b 5c39 02ee 5a38
00000310: 7db7 6c3c 74bb 2b3c e090 0d3c 3d5c f63b
00000320: 6f07 8c3c 0948 313d d52f fb3c e0ab 033c
00000330: 27d2 373c 5a20 eb3b add6 283c 93ab 5c3d
00000340: 5c07 3a3a 112d 123c 4ec2 243c 2783 c23a
00000350: 45f4 bc3a c582 c13a 392b 3f3c 8a7c 673b
00000360: 2ce3 023a 3a05 d73b af0c 473c 5d99 e53b
00000370: e51b 9f3c efb3 9c3a a983 e73c ab63 2d3b
00000380: de8a 863b 76f8 8e3b b537 8f3b 03a1 bd3a
00000390: b4b4 3c3c 4fa0 2a3b 7863 673a c2a0 853b
000003a0: 66bd 6b3d 4ef3 aa3c 4902 c03b ea27 e13b
000003b0: 31df d53b aa44 323b 5f35 3b3a 7ae7 103d
000003c0: ceb5 1f3b fd13 3f3c f533 dd3b 75c1 e438
000003d0: 6ef5 833a ef35 3b3b 046b 593a 9a2f 723b
000003e0: c5ae 883b fc7b 933a a26d 803c e6df ed3b
000003f0: 1e61 5d3e 483a 993a a323 833b b307 503a
0.0019156095 0.00045764286 0.00021632983 0.0008724131 0.0009577253 0.05415099 0.029113023 0.000498003
0.0010567704 0.0002895699 0.00047620555 0.054556977 8.069794e-05 0.006154091 0.00083342753 0.00012367708
0.001368701 0.00015143029 0.00050049205 6.5892134e-05 0.00017251147 0.001867311 0.0004650051 0.00040798783
0.0054308525 0.000564407 0.0054853447 0.00065231154 0.0013033224 0.0008289162 0.0011216893 0.00021187385
0.00020275927 0.00018990904 4.3036052e-05 0.0066207945 0.002487934 0.04447708 0.0006011885 0.00027758835
0.0019468853 0.0010733769 0.00025869167 0.00075064553 0.00018145637 0.0027980679 0.0007160671 2.1859454e-05
9.609506e-05 0.0005377526 0.0005295876 0.00022498648 7.916651e-05 0.0017348398 0.002614296 0.0003624159
0.046436008 0.00019494715 9.1397844e-05 0.00013922303 0.001107659 0.0020423178 0.0014670143 0.0010427404
0.00076216535 0.00034504465 0.0027127424 0.000392436 8.667013e-05 0.00021520436 0.00021529708 0.027481774
0.00011783027 0.0010547505 0.0012935575 0.0017659322 0.004007525 4.319944e-05 0.008275181 0.0003121811
2.2951092e-05 0.00037641346 0.00078594283 0.0002003245 0.0025991397 0.00039190598 0.00020335217 0.1463094
0.0005411456 0.00049418124 0.0022739377 0.00012298122 0.00017075289 0.0014096965 0.004625331 0.0004063137
0.00043577582 0.00036812233 0.0004968845 0.00029472655 4.5272278e-05 0.00028279345 0.0005338372 0.034541287
0.0029905199 0.00053486053 0.00047387116 0.00048325481 7.288278e-05 0.012529425 1.4681373e-05 0.0017655706
0.00062552694 6.7028275e-05 0.0015542526 9.5066855e-05 0.00035640516 3.2769483e-05 0.00010919049 0.00024488958
0.00045770456 0.00021138154 0.001864859 0.0002614055 0.0039883913 0.0003682409 0.0010218251 0.00010059675
0.00092116155 0.000610376 0.000120056124 0.00013196956 9.817364e-06 0.0042179334 0.0019809892 0.00091890176
8.0130616e-05 0.000440641 0.00046025027 0.0007105128 6.373048e-05 0.0010402953 0.00028882534 0.0001576535
0.0007191187 2.4832104e-07 3.7671052e-05 0.00034011138 0.00025271229 0.00029239786 5.4479817e-05 0.0011069714
0.001409063 0.0002662519 0.0026398904 0.00012976484 0.00024620953 0.00013726109 0.0011053381 0.001225511
0.00016349132 0.00054011197 0.00020185103 0.00015477173 0.00076448754 0.00027465195 7.479303e-06 0.00013415441
0.00026493426 0.007656958 0.00015093421 0.0017721702 0.0010004389 0.0016272506 0.0016069507 2.2236083e-05
0.0004654532 0.00022638863 9.736994e-06 2.2994827e-05 0.00010091282 0.00018053789 0.0021936882 0.00019291017
7.2405746e-05 0.00200956 0.0002763573 0.00041349875 0.0014210567 2.6309417e-05 0.00025786736 0.0015753491
0.00090780336 0.00046930992 0.00021003147 5.2196912e-05 0.014448044 0.010481704 0.008640498 0.00751832
0.017093388 0.04328159 0.030662457 0.008036584 0.011219538 0.0071754875 0.010305089 0.053874563
0.00070964335 0.0089218775 0.0100560915 0.0014840112 0.001441606 0.0014763704 0.01166802 0.0035322034
0.00049929577 0.0065619024 0.01214902 0.0070068077 0.01942248 0.001195548 0.028261023 0.0026457112
0.0041059097 0.004363115 0.0043706545 0.0014467541 0.011517692 0.0026035493 0.00088267727 0.0040780017
0.05755367 0.02086797 0.0058596474 0.006871213 0.0065268506 0.0027201572 0.0007141437 0.035377003
0.0024369839 0.01166248 0.0067505785 0.000109079214 0.0010067651 0.0028566082 0.00082938396 0.0036954642
0.004171225 0.001125216 0.015677277 0.007259357 0.21619079 0.0011690343 0.004002051 0.00079357176
