models/empty.pth (torch, 163747 bytes, 6 tensors)

lstm.weight_ih_l0 f4 [392, 1]
00000000: 3012 de3c 30d0 d53c 2cee 003d 4281 c83d
00000010: 30f6 5abc a6de bb3d a0bf 283c b0aa 30bd
00000020: e069 e9bc a0eb 1b3b 94e6 ad3c f4cc cdbc
00000030: 1002 563d 28e0 493d ce29 b63d 6885 c43d
00000040: 6046 1abd 7886 733c a717 2ebd b9a0 32bd
00000050: d57a b3bd 2cf0 003d 1895 96bd 4cce 0dbd
00000060: 5430 833d ac24 a7bd 60d2 5a3d 9329 cbbd
00000070: 5428 453d a8b5 46bc 9022 a93b 2e89 a5bd
00000080: f2b8 91bd b423 b5bd 647e b33d be94 973d
00000090: de13 a83d 08e6 263d 27d8 2dbd 5a7f a03d
000000a0: 4aba a73d 9622 46bd 75b4 bebd 6f30 96bd
000000b0: c8a0 4f3d a9d4 c6bd 88a8 0e3d 503b 243d
000000c0: 00a4 153a 4069 e6ba bf9c 8dbd 78f8 4cbc
000000d0: 965e af3d cce3 dfbc 14b5 68bd 2da9 28bd
000000e0: dec8 c33d 30f5 fe3b a833 6cbd 486f e3bc
000000f0: 642f 29bd 3222 c93d a8b8 df3c a241 903d
00000100: a3dc 51bd cf72 58bd 005c 023c 30ec 443d
00000110: ec89 5e3d 4127 43bd 00f9 c0bb 2898 763d
00000120: 204f 003b d8ad da3c 40ac 18bb 205e 7a3b
00000130: 6497 7e3d 5c7b 6b3d 5689 9c3d a011 f83c
00000140: 60d4 573d a285 823d ec54 febc 30fb d0bc
00000150: feff 69bd 0085 40bc f834 46bc 10d8 9fbc
00000160: 9e10 0cbd e060 d93b d44d 89bc d684 a13d
00000170: 7244 b43d 00a9 e4b9 1a5f 9dbd 10cb 06bc
00000180: 5528 abbd d8f4 9cbd a460 c63d 7492 bd3d
00000190: 98cc b9bd b450 07bd 2897 b93d 1cf7 3d3d
000001a0: 784f 84bc 90ec c13d 385c 0ebc 8d31 4cbd
000001b0: c0ae 073b 3e05 bebd 1e7a a93d a8b4 003c
000001c0: 3b2e b6bd 04b2 cabd 4062 66bd 1ecb 5fbd
000001d0: a07a 89bb 28be 623d 17c3 c9bd 90bb fc3b
000001e0: 888e 2ebc 8881 773d 287e 9a3c 1afd a73d
000001f0: f0e1 ef3c d01e 673d 20f3 e6bc 10f5 21bc
00000200: a05c 473d 6c70 5f3d b8be 193d 3902 41bd
00000210: a4b1 2f3d f086 803d b740 4cbd c442 4abd
00000220: 5cc6 923d a0fb 2ebb 1105 40bd 844d 333d
00000230: c092 a03d 5051 88bc d89b a5bc 68c1 fbbc
00000240: 52ca af3d 40d5 c23a bea2 20bd 10b5 863d
00000250: 0d19 b9bd 05d1 50bd 1698 c83d c89e 9dbd
00000260: ec92 c23d 3058 8a3d d468 3e3d 567a 803d
00000270: 7cb0 3f3d 76be 1fbd 1504 b1bd 7c8e 8f3d
00000280: 0610 b43d 8eec be3d 7011 c4bc 54d8 aa3c
00000290: 6036 b1bb 8086 ccbd f724 aabd a871 b83d
000002a0: 9306 c7bd 5c46 1bbd 2822 fb3c 81b4 c0bd
000002b0: 20b3 853b 0009 543b d8a2 393d c042 813c
000002c0: 6054 f6bb e8e8 b93d 5697 9dbd 6880 2bbc
000002d0: 289a cabd f6ad a93d 627e b6bd 5bba a6bd
000002e0: 08fb 6a3d dbe0 2cbd b072 fb3b 907f e1bb
000002f0: 3802 18bc 7c66 3abd ee5f 9c3d 0faf 23bd
00000300: a31d 4cbd a0c3 b43c 9051 c63c 0b92 71bd
00000310: 0c7c e8bc dc7d b4bd 300c f03c 58f2 523d
00000320: 3872 7c3d 9cf3 fbbc e6c5 00bd e01e 16bd
00000330: 6830 663d d0b6 27bc 8add 9a3d e877 e6bc
00000340: 36f6 2abd b0b7 aebd 304a 2a3c 440d 9abc
00000350: 008a 6d3b 7251 abbd 0d35 bbbd d06f 813d
00000360: ce1b ab3d 8884 703d b0a4 8c3d 44ea 9c3d
00000370: fc7b 99bc 7876 6c3d 101f a6bd 8089 6f3c
00000380: c068 853a 809c 903d b251 3cbd 6c17 553d
00000390: e04a 903d 709e 02bd 8ce8 4c3d c8f5 e2bc
000003a0: 1d59 9ebd 6711 59bd 401d b2bc 3239 b83d
000003b0: c6e8 963d d0d3 17bd bc6e 01bd 51db bbbd
000003c0: 1cc3 2d3d d8cd 68bc d222 953d 7889 0d3c
000003d0: 54a4 59bd df87 b3bd f41e 6b3d 0cb6 c0bd
000003e0: b825 5b3d b029 cabd 587b 7bbd b8b0 bbbc
000003f0: e7b7 6fbd 529d 99bd ee17 6bbd eca2 2bbd
0.027108282 0.026100248 0.03147714 0.09790279 -0.01336436 0.09173326 0.010299593 -0.04313153
-0.028492868 0.0023791566 0.021228112 -0.025122143 0.05224806 0.049286038 0.08894692 0.09595758
-0.03766477 0.014863603 -0.042503025 -0.04361031 -0.08763663 0.031479046 -0.07352656 -0.03462057
0.06405702 -0.081612915 0.053423285 -0.09920039 0.048134163 -0.012128271 0.005161591 -0.080828056
-0.07115354 -0.088447005 0.087643415 0.07401417 0.08206914 0.04074672 -0.042442467 0.078367904
0.08189829 -0.048372827 -0.09311763 -0.07333457 0.050690442 -0.097085305 0.034828693 0.040095627
0.0005708337 -0.0017578974 -0.069146626 -0.012510411 0.08562963 -0.027330302 -0.056813315 -0.041176964
0.09559797 0.0077806935 -0.05766645 -0.027763024 -0.04130496 0.09820975 0.02730973 0.070437685
-0.051235806 -0.052843865 0.007956505 0.04807681 0.05433075 -0.047644857 -0.005889058 0.0602037
0.0019578412 0.026694223 -0.0023296028 0.0038203076 0.062156096 0.05749069 0.07643382 0.030281842
0.05269277 0.06373145 -0.031046353 -0.0255104 -0.0571289 -0.01175046 -0.01209759 -0.019512206
-0.034195535 0.006633863 -0.016760744 0.078866646 0.088021174 -0.00043613464 -0.07684155 -0.008227125
-0.08357302 -0.07663888 0.096864015 0.09256449 -0.09072226 -0.03303595 0.09062034 0.04637824
-0.016151175 0.09468949 -0.008688979 -0.049851943 0.0020703524 -0.092783436 0.08275245 0.007855572
-0.088955365 -0.09897235 -0.056246042 -0.054637067 -0.0041955262 0.05535713 -0.098516636 0.007712789
-0.010654099 0.060426265 0.018858984 0.08202572 0.02928254 0.05642587 -0.028192103 -0.009885088
0.04867232 0.054550573 0.0375354 -0.04712126 0.04289402 0.06275737 -0.049866404 -0.04938008
0.0716674 -0.0026700273 -0.04687983 0.043775097 0.0784049 -0.016640335 -0.020215914 -0.030731872
0.085835114 0.0014864579 -0.039217703 0.06577504 -0.09037981 -0.050980587 0.09794633 -0.07696301
0.095006794 0.06755102 0.04648669 0.06273334 0.046799168 -0.038999997 -0.08643357 0.070095986
0.08792119 0.09322463 -0.023934096 0.020855106 -0.0054080933 -0.09986591 -0.08307832 0.09006053
-0.09718051 -0.037908897 0.030655935 -0.094094284 0.0040801913 0.0032353997 0.045321316 0.0157789
-0.0075173825 0.090776265 -0.07694881 -0.010467626 -0.09892684 0.082851335 -0.08910824 -0.08141013
0.05736831 -0.042206626 0.007673584 -0.0068816617 -0.009277873 -0.045507893 0.07635485 -0.03996187
-0.04983295 0.022065938 0.024208814 -0.058977168 -0.028379463 -0.08813068 0.029302686 0.05150065
0.061632365 -0.03075581 -0.03143873 -0.03665054 0.056198508 -0.010236457 0.075617865 -0.028133348
-0.04173871 -0.08531129 0.010393664 -0.018805154 0.0036245584 -0.08365144 -0.09140978 0.06320155
0.08354913 0.05872014 0.06867349 0.0766187 -0.018735878 0.057730168 -0.081113935 0.014620185
0.0010178313 0.070611 -0.04597635 0.05202429 0.07045531 -0.03188938 0.05002646 -0.027705088
-0.07731841 -0.05299511 -0.021742463 0.08995284 0.07368617 -0.037067235 -0.031599745 -0.09172691
0.0424224 -0.014209233 0.07282032 0.008638732 -0.05313523 -0.0876615 0.057402566 -0.09409723
0.05350277 -0.098712325 -0.061396927 -0.022911415 -0.058524992 -0.075007096 -0.057395868 -0.04190342

lstm.weight_hh_l0 f4 [392, 98]
00000000: d8c7 373c 04b9 333d 5ca5 c23d 9d7b ccbd
00000010: d0ea aabd 4053 e83c 00ab a8bc 6864 e13c
00000020: dcd6 603d cc00 4cbd c910 a4bd efe6 2fbd
00000030: f0f2 9fbb d86f c7bd f287 a8bd c8ea d03c
00000040: f8fe 653d 9013 15bc f649 b43d e86c 0cbc
00000050: d442 b63d 0cea 94bd 7c22 a1bc 30ee a0bb
00000060: 6854 513d 7d27 28bd 2abb 4abd edff 6abd
00000070: 5058 d33c b45c 5c3d 9c0c c03d 68e3 533d
00000080: d494 8fbc add9 47bd 58a8 273d f069 db3b
00000090: a009 4b3b acb0 603d 24ed 8d3d 1c3c 3a3d
000000a0: 1c8e 9bbd 5062 e83c 9848 12bd e8fa eebc
000000b0: e7b4 4fbd 004e aa3d e0bf 58bc d8ea 7d3d
000000c0: 70ee ac3d b41c 0a3d 8aad 3dbd 1cb8 a8bc
000000d0: bac5 11bd f5bb 4abd ee55 953d 42d2 ae3d
000000e0: 74ae d7bc 3416 8cbd ceb6 86bd 2f53 95bd
000000f0: 2896 8c3d 8063 a9bb f818 06bc 4429 c73d
00000100: 40de ffbc d819 95bc bc36 773d d873 203c
00000110: 9cd6 813c b426 4cbd b3fe 35bd ecfd 473d
00000120: 549e 973c 142d 06bd bc81 b8bd 34c4 26bd
00000130: f19e 33bd 78ca 3bbc 1453 a1bd c03d bd3d
00000140: 54ab a7bc 3938 93bd 2eac 8a3d 8c97 fcbc
00000150: 2c29 37bd 9c90 b8bd eaba a2bd e0b3 4b3d
00000160: 4007 90bb a893 31bc 3602 803d 684d 5e3d
00000170: 9ca5 883c 4c0a 2dbd 04da 8d3d 0840 203d
00000180: 40b6 103d 3e94 c73d c069 623c a85e 52bc
00000190: b882 c03c aa35 91bd 5cbe a53d 8631 803d
000001a0: 18c7 cb3d 248f 183d 2cd0 14bd cc12 85bd
000001b0: 0cbf d8bc 3ca6 a8bd 8078 6f3c e26f 913d
000001c0: 3403 4b3d 54e6 f7bc 7424 143d c472 963c
000001d0: e80b 87bd dc8f b33d b450 dcbc c06d 463d
000001e0: b0b2 183d 4af7 0bbd 3885 e4bc aa91 a9bd
000001f0: e2d4 09bd 1843 7b3c 8821 0ebc f030 cf3c
00000200: 7861 cd3d 34fb ca3d 4078 81ba 40e7 92bc
00000210: a05e f03b 647b 143d e686 b33d 40a1 e1bb
00000220: 2105 22bd 8662 9dbd 0070 a43a 4602 853d
00000230: 38d8 ddbc b813 283d 241c 96bc cc9e a53d
00000240: 304a 603c 4831 42bc 500c 69bc 80f1 06bc
00000250: 782c 383d 50ca 0f3c 406d 24bc 5e90 1dbd
00000260: 1833 323c 4076 f23c 3c0a 193d b835 ac3d
00000270: 7ac7 be3d dc29 103d cce3 37bd 608d 9bbd
00000280: dcfd 06bd 7ee1 a43d 007a 4a3b 0088 6cbb
00000290: 30ba abbd 20b1 3d3b 7d0c 29bd 86ca 82bd
000002a0: e56b c3bd 83e2 b7bd a43f 993d 9c11 2e3d
000002b0: d887 8b3d 5814 b03d f802 b03d 5c8f 783d
000002c0: 58fc ae3c ba4c 843d d2b4 84bd 3e9e 64bd
000002d0: c0bd 0dbb f445 bb3d 8883 3ebc 6c4c 683d
000002e0: 7643 12bd 98b4 043d 9a86 10bd 44b8 82bd
000002f0: d236 12bd 6422 c43c 48c9 0e3d 5a6c 8a3d
00000300: 4813 4a3d 38b6 943d 757a 8abd fed9 0abd
00000310: 6aab 11bd 5a0a aebd a8c9 89bd 676a cdbd
00000320: 3805 11bc a429 a73c 4c88 8f3d 6055 593c
00000330: f0e5 9d3b 0c8f 1dbd 20ef bcbd 0462 6e3d
00000340: 2cb8 98bd e186 89bd 604c 0b3d 70c4 b0bb
00000350: 4e4a 06bd c8f5 793c 086d ef3c a585 64bd
00000360: 20fe 703d 9ef9 c83d 0509 b6bd 41e5 7ebd
00000370: 2c51 6c3d 1001 373c 99e1 bfbd 6c52 b8bd
00000380: 4ee9 cc3d bde1 90bd a01a 8ebc 0061 1d3d
00000390: 2065 eabc cc54 0fbd 4bb0 a2bd 18d5 eebc
000003a0: 1457 333d cee6 c0bd c001 703d 880e f83c
000003b0: bcd3 bfbd 2a92 c1bd e060 4b3b 108e afbb
000003c0: 406b bfba 3612 c73d f4e8 7e3d 3efd 903d
000003d0: d065 2f3d 7e89 1ebd c0f1 1c3d 3828 ba3d
000003e0: 3ff4 70bd 1006 0bbd c844 29bc 5059 a73d
000003f0: 7823 52bc 74ab 4c3d a0ba 763c c808 033c
0.01121708 0.043877617 0.09504196 -0.09984515 -0.08345568 0.02836001 -0.020589352 0.027513698
0.054892406 -0.049805447 -0.08011014 -0.042944845 -0.0048812553 -0.097381294 -0.082290545 0.025502577
0.05615136 -0.009098902 0.088031694 -0.008570887 0.08899465 -0.072712034 -0.019669764 -0.0049112067
0.051105887 -0.041053284 -0.0494949 -0.057372976 0.025798947 0.053799346 0.09377405 0.051730543
-0.017527021 -0.048791576 0.04093203 0.0066959783 0.0030981079 0.054855987 0.069299966 0.04546748
-0.075954646 0.028367192 -0.035713762 -0.029172376 -0.05070963 0.083156586 -0.01322934 0.061991543
0.08443916 0.03371878 -0.046308078 -0.020595603 -0.035588957 -0.049495656 0.072917804 0.08536197
-0.026328303 -0.068401724 -0.06577836 -0.07291257 0.068645775 -0.005169332 -0.008184664 0.09724668
-0.031233907 -0.0182008 0.060354933 0.009793244 0.015849404 -0.049841598 -0.044432353 0.048826143
0.018508114 -0.032757834 -0.0900912 -0.040714458 -0.04385275 -0.0114618465 -0.07877174 0.092402935
-0.020467438 -0.07188458 0.06771122 -0.030833982 -0.044717 -0.09011957 -0.07945807 0.04973209
-0.0043953955 -0.010838427 0.06250422 0.05427304 0.016680531 -0.042246148 0.06926349 0.039123565
0.035330057 0.09745072 0.013819158 -0.012839951 0.023499832 -0.07090314 0.08092949 0.06259446
0.099500835 0.037245885 -0.03633134 -0.06497726 -0.026458286 -0.08234832 0.014616132 0.07101418
0.0495636 -0.030261196 0.036167577 0.018365271 -0.06594068 0.087676734 -0.026893951 0.04844451
0.037279785 -0.03417138 -0.027895555 -0.08279736 -0.033650286 0.015335821 -0.008674987 0.02529189
0.10028356 0.099111944 -0.0009877756 -0.017932534 0.007335499 0.036250487 0.08765964 -0.0068856776
-0.039555673 -0.076848075 0.0012545586 0.06494574 -0.02708064 0.04103443 -0.018323965 0.08086929
0.013689563 -0.01185257 -0.014224127 -0.008236289 0.044964284 0.008776262 -0.010035813 -0.038467757
0.0108764395 0.029597402 0.037363276 0.084086835 0.09315391 0.03519617 -0.04489498 -0.075953245
-0.032956943 0.08050822 0.0030895472 -0.0036091805 -0.08385122 0.0028944686 -0.041271675 -0.063862845
-0.095420636 -0.089787506 0.074828416 0.042497262 0.068130195 0.0859763 0.08594316 0.060683593
0.021360561 0.06459947 -0.06479801 -0.055814974 -0.0021627992 0.09144202 -0.011628039 0.056713507
-0.035708867 0.03239879 -0.035284616 -0.06382802 -0.035696812 0.02394218 0.034859926 0.06758948
0.049334794 0.07261318 -0.06761638 -0.0338993 -0.035563864 -0.08498068 -0.06727916 -0.1003006
-0.008851342 0.020405598 0.070084184 0.013264984 0.0048186705 -0.0384665 -0.09225297 0.058198944
-0.07457003 -0.06715179 0.034008384 -0.005394511 -0.032785706 0.015256353 0.029226795 -0.055791516
0.058836102 0.09813236 -0.08888439 -0.062230352 0.0576946 0.011169687 -0.09369201 -0.09000096
0.10005437 -0.07074306 -0.01734668 0.038422585 -0.028612673 -0.034992978 -0.079437815 -0.029154345
0.043784216 -0.094190225 0.05859542 0.030280367 -0.09366557 -0.09451707 0.0031033084 -0.0053575113
-0.0014604107 0.0972027 0.06223388 0.07079552 0.042821705 -0.03870534 0.03831649 0.09089702
-0.05882668 -0.03394133 -0.01033134 0.08171332 -0.012825839 0.049968198 0.015059143 0.007997699

lstm.bias_ih_l0 f4 [392]
00000000: 5c01 8dbd 3006 c83d bc83 803d e4ce 573d
00000010: 4013 eeba e05b 443d edae bbbd 8e19 9dbd
00000020: 4871 263d 3030 d93b 50c2 6a3d 9450 7a3d
00000030: 2c1d 0ebd 30c1 313d a85a 8bbd 108b 04bd
00000040: d80e 5dbd caea 1cbd 8c37 be3c ac6a cc3d
00000050: f84f f6bc 0462 a8bc 237a 1ebd 2eaa 9e3d
00000060: 8455 a3bc f189 63bd 06c8 54bd cdca 54bd
00000070: 7fff 21bd 5e41 80bd 206e 0e3d ca1c bc3d
00000080: 441f 9d3d a6b9 9b3d d08d 92bd 12a7 993d
00000090: 28c9 1b3d 208b 503d 1746 8fbd 50bc 8abc
000000a0: 7c3c a73d 12b3 25bd d0bf c53d f47f 9d3d
000000b0: 26c8 6cbd 8a7d 58bd aace ae3d e006 653b
000000c0: 68ad b93d fc78 90bd dc6b b63c c8d5 983d
000000d0: 517c 5dbd 73ff 31bd f192 2fbd 6883 363d
000000e0: 9054 c03b fa3e 3ebd 489f 1e3d 6eb3 a6bd
000000f0: 664f 9b3d 9205 65bd 68bc 31bc d0c7 603d
00000100: a097 7ebd 80d7 393d 88f4 173c 401d 153b
00000110: f67e ac3d 3969 96bd 6090 9abb 14db 223d
00000120: baef 993d e42b cabd 6029 c93c f858 f0bc
00000130: eceb c7bd d431 4cbd dbe3 77bd 2686 b33d
00000140: c094 243c 8873 ca3c 1870 163d 489a 413d
00000150: c481 303d 81be 7dbd f850 113d 04a0 aebd
00000160: fcc1 bc3d e041 17bc d8e1 98bd 80ad 62bd
00000170: c0a7 be3d 0c03 ce3d 8c98 88bc d803 d03c
00000180: 69f6 aebd ef1a b2bd 30f7 a73d f899 14bd
00000190: b0dd 17bd e020 7cbb 5010 423d bf58 6abd
000001a0: 3040 e0bc 0939 b9bd 3f5a 6abd b84c bcbd
000001b0: a2de c43d 96a3 76bd 9062 a83c a49d a6bc
000001c0: b800 72bc 81a0 34bd 7834 f33c 9070 2f3d
000001d0: d0bd 193c b022 8f3b 51b4 89bd ca51 be3d
000001e0: a6da b23d 74aa a33d 03e7 babd 98bf abbc
000001f0: 8834 883d 48f1 1d3d b090 a73c a4ba 273d
00000200: eea3 8f3d 3858 8dbc de3a cdbd d2f5 93bd
00000210: 9f25 a9bd 0292 1abd f82d 293d 36f3 39bd
00000220: 2468 cdbc 0c53 053d 6800 193c dc78 b8bc
00000230: e2a2 a73d 6037 40bb 40cf 7b3c ac94 a93d
00000240: 6c57 4e3d 68cb 493d beed 16bd 30b6 f2bc
00000250: dd10 75bd 364a 53bd a03c 9a3b 8601 a0bd
00000260: e06c 443c f86f 853d f984 9ebd c014 1d3b
00000270: c444 493d c763 6bbd 6042 1fbd 84ae 95bd
00000280: 0850 183c 40bc 7fbc bc69 30bd 088d 913d
00000290: 4870 903d a8bf 7a3c c064 a23c 6670 8abd
000002a0: bc71 cebd 6020 5c3b ca8e a63d c0e1 1f3d
000002b0: 3f85 96bd 1cea 99bc b409 423d 14b0 cc3d
000002c0: 38f4 153d 24b7 9a3d 061f 18bd f96c 47bd
000002d0: ebd9 84bd 00e0 35ba 5221 84bd ba83 863d
000002e0: 0452 663d a4d9 823c 0c4c cb3d eef9 b5bd
000002f0: c3e2 20bd 3098 3ebc b0e2 9d3d c80f 0bbd
00000300: a483 5b3d 18c9 c5bd 48f3 b13c 6661 afbd
00000310: ea4d 853d f826 b13d 6939 62bd 7258 82bd
00000320: 7054 cb3b 5038 df3b e61e 80bd e06d c5bc
00000330: 4c38 203d 109b d33b c42d b63c cc9a f4bc
00000340: bc46 563d ec24 9fbc 362a c1bd 4060 32bd
00000350: f5a2 2bbd 9ccc 34bd 0044 fb3b 206c 203d
00000360: 1e9a cebd 9cb0 003d 346e cfbc a0c5 613d
00000370: f43f ba3c 52fc 73bd 88f1 273d 88ef 753d
00000380: 1800 d73c 0429 a03d 6445 aa3c 3757 34bd
00000390: b0ec 70bc b8ad 55bc 1cc6 89bc a8b3 383d
000003a0: 3222 883d 78c2 b5bd 3865 10bc 58e1 cd3d
000003b0: 9086 ac3d bc99 c23d bca9 be3c cf5e c7bd
000003c0: 5ff4 c7bd 1119 c0bd a0d3 5c3c c835 1a3d
000003d0: d299 b5bd 30f3 c23b 902b e8bc 1452 a8bd
000003e0: c9ce 3ebd 2833 67bc a3bd 6fbd 8e63 64bd
000003f0: 88a8 b63d 9cba fcbc 008b 0b3a 3c08 93bc
-0.06885025 0.09766805 0.06275126 0.05268754 -0.0018163696 0.04793918 -0.09164224 -0.0767089
0.040635377 0.006628059 0.057314217 0.061112 -0.03469579 0.04339713 -0.06804401 -0.032359183
-0.053969234 -0.03830985 0.023219846 0.099812835 -0.030067429 -0.02055455 -0.038690697 0.07747303
-0.019938238 -0.055551473 -0.05194857 -0.05195122 -0.0395503 -0.06262468 0.034772992 0.091851786
0.07671979 0.07603769 -0.07155955 0.07502569 0.038033634 0.05091393 -0.069957905 -0.016935498
0.08165833 -0.040453978 0.09655726 0.07690421 -0.057808064 -0.0528541 0.08535512 0.0034946725
0.09066278 -0.07054326 0.022268228 0.074626505 -0.054073635 -0.043456506 -0.042864744 0.044558913
0.0058694556 -0.046446778 0.03872612 -0.08139692 0.075835034 -0.055913515 -0.010848142 0.054878056
-0.06215632 0.045371532 0.009274609 0.002275303 0.084226534 -0.073442884 -0.004716918 0.03975971
0.07516427 -0.09871653 0.024555862 -0.029339299 -0.097617954 -0.049852207 -0.060520034 0.08765821
0.01004523 0.024713293 0.036727995 0.047266275 0.043092504 -0.061949257 0.03547761 -0.08526614
0.09216687 -0.009232014 -0.07464951 -0.055341244 0.093093395 0.10059175 -0.016674303 0.025392458
-0.08543093 -0.086965434 0.08201444 -0.03627965 -0.037076652 -0.0038471743 0.047378838 -0.05721354
-0.027374357 -0.09044082 -0.05721497 -0.091943204 0.09612776 -0.0602146 0.02055481 -0.02033884
-0.014770679 -0.04409838 0.029688105 0.042831957 0.009383634 0.0043681487 -0.06723846 0.09292944
0.0873311 0.07991496 -0.09126093 -0.020965382 0.066506445 0.03856018 0.020454735 0.04094948
0.07013689 -0.01725398 -0.10020994 -0.07224621 -0.08259129 -0.0377369 0.041303605 -0.04539796
-0.025074072 0.032549903 0.009338476 -0.022518568 0.08185364 -0.002932988 0.0153692365 0.0828031
0.05037634 0.04926625 -0.036847822 -0.02962789 -0.059830535 -0.051584445 0.004706934 -0.078127906
0.011988848 0.06515497 -0.07740206 0.0023968667 0.049137846 -0.057468202 -0.03888166 -0.07308677
0.009296425 -0.015608847 -0.043069586 0.07106978 0.07052666 0.0153044835 0.019823432 -0.067597196
-0.10080287 0.0033588633 0.081327036 0.03903365 -0.073496334 -0.01878839 0.047372535 0.09994522
0.03660986 0.075544626 -0.03713896 -0.04868791 -0.06486877 -0.00069379807 -0.06451668 0.065680936
0.05623056 0.01597292 0.09926614 -0.08885561 -0.039278757 -0.011632964 0.07709253 -0.033950597
0.05359234 -0.09657496 0.02172245 -0.08563499 0.065090016 0.08650011 -0.05523053 -0.06364526
0.006205134 0.006812133 -0.062558934 -0.024100244 0.03911619 0.006457694 0.02223862 -0.02985897
0.05231355 -0.019426785 -0.09431879 -0.043548822 -0.041903455 -0.044140443 0.0076680183 0.039165616
-0.10087989 0.031418428 -0.025321104 0.05512011 0.022735573 -0.059566803 0.041001827 0.060042888
0.026245162 0.07820323 0.020785041 -0.044028487 -0.014704868 -0.013041906 -0.016818099 0.04509321
0.06647147 -0.088749826 -0.008813195 0.100527465 0.08424103 0.09501979 0.023274295 -0.0973488
-0.09763407 -0.09379781 0.01347819 0.037648946 -0.088672295 0.0059494004 -0.028341085 -0.0821878
-0.046583924 -0.014111318 -0.05853046 -0.055759005 0.089188635 -0.030850701 0.0005323142 -0.017948262

lstm.bias_hh_l0 f4 [392]
00000000: d00e c8bb f227 c8bd a451 9abd d020 2e3d
00000010: 80ba 98ba 0cb0 a6bd 9865 af3d 7029 95bc
00000020: 08c2 8b3d 4087 70bd 40fc 7ebc 6ed0 883d
00000030: 645a 8f3d 2823 45bc 3b9d 94bd 3094 dcbc
00000040: a420 c83d 28c4 9d3d 1495 bf3c a0af db3c
00000050: d0b7 1dbd a060 963b bc1e 5abd 08d1 2dbd
00000060: 403b a9bd f3d7 75bd fe62 be3d 51e7 63bd
00000070: a015 61bd 6dc7 7abd 6e0d 14bd 0c21 823d
00000080: 505d 163c 1047 ddbb 1ee6 75bd a6a0 b0bd
00000090: 1b17 3cbd a09e f63b d49b a7bc bc6a b2bd
000000a0: 2026 8f3b 00e6 083b 00c2 b5ba 00b3 033a
000000b0: 70b4 f5bc 9874 5d3c 6846 3d3d e8d2 cc3d
000000c0: e45c 4c3d 90fe 693c 9a5f 9a3d 9488 91bd
000000d0: 608e 0b3c f8bc e53c e0ac 093c 48a2 0d3d
000000e0: 68f7 9cbc 80b5 ffbc 0470 5d3d a1ea 7fbd
000000f0: 21c7 babd 70e9 8a3b 89f1 96bd dbd6 7fbd
00000100: aa04 0fbd de0c 903d e23a a73d 0048 373d
00000110: d0ab f93c 4ca0 fabc e952 b7bd 3c3e 18bd
00000120: 8fad 46bd 90c8 aa3c 00df fabc 48a2 6c3c
00000130: 9030 503d 3c5f 9dbc 0496 67bd 88ef dd3c
00000140: 8091 14bb b437 673d 285e babd 5c4f ca3d
00000150: b44a 603d 78af 1d3d 1eb4 a43d a64f c43d
00000160: 4c9f 133d 6c1a 5b3d 109a ad3b 20ee c93c
00000170: eca6 983d 80f2 edba 74a4 1a3d c828 433d
00000180: ec68 523d 262d be3d e1d4 99bd 62a6 04bd
00000190: 6497 233d ecb7 443d dcee 773d a845 39bd
000001a0: e8bb 38bd d8cc 593c 801e 383d 0040 57bd
000001b0: 0028 13b9 8ca7 ac3c 840b 073d 24e8 5c3d
000001c0: 10ef bb3d 2047 3d3d c087 673c 7eba a93d
000001d0: 4cda 663d cc7c a13d b082 8f3c fced d4bc
000001e0: fac7 c63d d822 273c e6dd a1bd cce8 c6bd
000001f0: 889d cc3c 0224 c23d c0d2 41bc a06b b33b
00000200: e816 d93c 7c4c b4bd 88b4 5ebd 24f5 ac3d
00000210: b2f4 1cbd 4884 f2bc 105d 9b3b c4d2 1a3d
00000220: 325a 64bd dc3e 10bd acb6 853d ed8f 51bd
00000230: eca8 b7bc 9c3d 513d 58dc 5f3d e8f8 a63c
00000240: f57c 90bd 3633 4fbd 8af2 28bd 81a9 bbbd
00000250: ca2d ba3d 0c59 a13d f2b2 42bd 1a5a 87bd
00000260: 138d 82bd 3819 80bc a05c 2e3b 0aff b63d
00000270: 6c91 8ebd 50d4 083c 5af8 c73d 8138 4ebd
00000280: dcd0 773d 0fd0 57bd 98e2 493c e0ad e6bc
00000290: 08ac b4bc acc9 0f3d d083 a3bb 29cf 98bd
000002a0: 60cc 523d 34be 463d 18a0 3c3d 7f1e 77bd
000002b0: 3871 363c c0d1 bc3d f2ab adbd fc90 febc
000002c0: 8052 28ba a0a3 843d 8039 183d d13c bfbd
000002d0: c0a4 18bd a4d4 9abc 733c 89bd 8c1c 813c
000002e0: b007 cabb 911c b6bd 30a1 e93c 605d ef3b
000002f0: f6c5 9c3d aca8 b7bd 366d 9cbd e096 4abd
00000300: 34f7 4d3d f417 623d ac9c 563d 2ee5 ab3d
00000310: b0f9 843c cc9f 0c3d 9872 373c eead 80bd
00000320: 8053 f6bb 4893 983d 00d5 173a dcd2 64bd
00000330: 6a06 16bd e661 ce3d 42a4 973d 6776 bfbd
00000340: 66f2 c7bd bcc3 133d 2ad4 02bd 7302 6cbd
00000350: 624e 9a3d 74a5 3c3d 0073 62bb 905a 213c
00000360: b29a c43d 96db 3fbd 302a d93c c095 2cbc
00000370: d6bf 9c3d 8481 05bd 407b b9bb 844d 3e3d
00000380: 3e99 a0bd ea89 34bd a891 423c 0c3c a9bc
00000390: 8291 cd3d da26 79bd 0488 a0bd f644 bc3d
000003a0: 8408 03bd 10bc ffbb 5cbc 613d 5ca9 9b3d
000003b0: e09f d33b 0848 1bbd ef9f cabd 1459 0fbd
000003c0: 6cc5 983c a024 523c 825f bdbd 34cd 073d
000003d0: 0a05 cb3d 2b06 50bd b247 92bd d804 c1bc
000003e0: 4813 a1bc 812a 76bd a324 5dbd 4deb 67bd
000003f0: 10b6 293c 20fc 63bd cc48 b13d 5457 153d
-0.0061052814 -0.09773244 -0.07535103 0.04251176 -0.0011652261 -0.08139047 0.08564299 -0.018208236
0.06824118 -0.058722734 -0.015563071 0.0668038 0.069996625 -0.012032308 -0.07256552 -0.02692613
0.09771851 0.077034295 0.023386516 0.026817143 -0.038505375 0.0045891553 -0.053251967 -0.042435676
-0.08263254 -0.0600204 0.09296225 -0.055640522 -0.054952264 -0.061225343 -0.03614562 0.063539594
0.009177521 -0.006752856 -0.06003391 -0.08624391 -0.045920473 0.007526234 -0.020460047 -0.08711764
0.0043685585 0.0020889044 -0.0013867021 0.00050239265 -0.029993266 0.013516568 0.046209723 0.10001165
0.049893275 0.014281884 0.07537766 -0.07106128 0.008517832 0.028044209 0.008403033 0.03457859
-0.019160941 -0.031214476 0.054061905 -0.06247962 -0.09120012 0.0042392537 -0.07370288 -0.06246076
-0.034916557 0.07033704 0.08165528 0.0447464 0.030477434 -0.030594014 -0.08951361 -0.037168726
-0.048505362 0.020847589 -0.030623913 0.014442988 0.050827563 -0.01921045 -0.05653955 0.027091756
-0.0022669733 0.056449607 -0.0909999 0.09878418 0.054758742 0.03849742 0.08042167 0.09585504
0.03604059 0.053491995 0.0052979067 0.02464968 0.07453713 -0.0018153936 0.03775449 0.047646314
0.051369593 0.09285955 -0.075113066 -0.032385238 0.0399393 0.048026964 0.06053053 -0.045232445
-0.045101076 0.013293467 0.044950962 -0.05255127 -0.00014033914 0.021075986 0.032969967 0.053932324
0.09176457 0.04621041 0.014131486 0.08287524 0.056360528 0.07885131 0.017518371 -0.025992386
0.09706111 0.0102011785 -0.07903652 -0.09712371 0.02497746 0.09479524 -0.011830032 0.0054754764
0.02650018 -0.08803651 -0.054371387 0.08445194 -0.038319297 -0.029604092 0.0047413185 0.037798658
-0.05575008 -0.035216197 0.065289825 -0.05116265 -0.022419415 0.051084146 0.054653496 0.02038236
-0.07055084 -0.050585948 -0.04124693 -0.0916319 0.09090765 0.078783125 -0.047533937 -0.066089824
-0.06374564 -0.015637025 0.0026605502 0.089353636 -0.06961331 0.0083514005 0.09764166 -0.050346855
0.06050192 -0.052688655 0.012322091 -0.028159082 -0.022054687 0.03510444 -0.0049900785 -0.07461388
0.05146444 0.048521236 0.046051115 -0.060331818 0.011135392 0.09219694 -0.084800616 -0.031074993
-0.0006420985 0.064765215 0.03716421 -0.09337772 -0.037266493 -0.018900223 -0.06700983 0.015760683
-0.006165467 -0.08892167 0.028519243 0.0073048323 0.076549456 -0.089677185 -0.07638018 -0.04946029
0.05028458 0.055198625 0.052395508 0.08393322 0.016232342 0.03433208 0.011196755 -0.062831745
-0.007517278 0.07449967 0.00057919323 -0.055865154 -0.03662721 0.100772664 0.074043766 -0.09348755
-0.09763031 0.03607534 -0.031940617 -0.057619523 0.075344816 0.046056226 -0.0034553409 0.009848252
0.09599818 -0.046840273 0.026509374 -0.01053375 0.07653777 -0.03259422 -0.0056604445 0.046460643
-0.07841729 -0.044076838 0.0118755475 -0.020658515 0.10037519 -0.060828067 -0.07838443 0.09192841
-0.031990543 -0.007804401 0.055111274 0.07600662 0.0064582676 -0.03791049 -0.09893786 -0.03499706
0.018648826 0.012826115 -0.09246732 0.03315468 0.099130705 -0.050787132 -0.07142581 -0.02356188
-0.019662514 -0.06009913 -0.053990018 -0.056620885 0.0103583485 -0.055660367 0.08656463 0.036460236

fc1.weight f4 [9, 98]
00000000: c45b 093d f46a 343d e073 17bc 404a 58bc
00000010: 76ab 98bd 642e 9abd 0885 74bd b007 e13c
00000020: 97d4 45bd 963b a4bd f66a c83d 9cf0 89bc
00000030: 486a 413c 16c2 95bd 04c5 4c3d a0c6 ce3d
00000040: c4df ac3c a03a b1bc c434 b9bc 3039 3e3d
00000050: c052 66bb 8acd abbd 7a99 933d 6449 313d
00000060: 80a7 5f3b e0f8 7c3c 40c9 f33c 9abe a1bd
00000070: 8c5c 5e3d 2e8c c73d f87f 793d 10b9 a9bc
00000080: b815 913d f88e 783c 8078 65bc 60a2 953c
00000090: 843c 973c e412 84bc 60ec 37bb f1a8 acbd
000000a0: ba9a a93d be7f ca3d e4c7 083d 849c 533d
000000b0: f4ee aa3d 3495 bebc c85a 3c3d f950 6ebd
000000c0: c4d7 a63d 1cac cd3d 406f dcba 500d 1b3d
000000d0: 687c 33bd 86ae 8b3d 6891 4fbd 32b6 4cbd
000000e0: 829e babd a011 863c 4b36 a8bd 0c45 c93d
000000f0: fd29 c6bd 076a 95bd 3497 963d 63ab cdbd
00000100: cc09 223d 09d1 5bbd ca85 953d 30d8 d83c
00000110: 40d2 cd3c 5c8a 813d 0aa3 c1bd 2457 a83d
00000120: 3479 603d 80a2 01ba 3060 8a3d 5af7 823d
00000130: 0089 d9ba e721 23bd 809c a63c 5aca c43d
00000140: c401 303d f877 613d 98f1 ad3d 08da d93c
00000150: d41c a43d 148e 6a3d 54a1 96bd c0c3 cf3a
00000160: 032e 9ebd e4e6 ba3d c854 323d 796a 2ebd
00000170: f49b a73c 346e 5c3d 7a65 8a3d 4016 ce3d
00000180: d035 923b 2063 753b 66cd 8a3d cc5e 80bd
00000190: 54eb 4b3d d85a b73d 84c1 80bd a480 93bc
000001a0: 4440 273d 10fd 01bc 5483 5b3d 5ce2 a7bc
000001b0: 74bd 693d d4b6 a7bd 95aa c8bd 8cdd 753d
000001c0: dc44 52bd 0014 d1b8 e9db 54bd 48a2 933d
000001d0: 8a6f 3ebd 80be 423d 8077 6bba 58ad b83d
000001e0: 7c9e 8abd 9052 0f3c da3e 96bd 384e d83c
000001f0: 309e ec3c e076 9b3d 86d4 cebd 4415 3bbd
00000200: b6fc b2bd fc2e 4ebd bc46 803d f2ed 0abd
00000210: 8c62 883d d170 9cbd 008b fa3a 381c 53bc
00000220: f627 a93d 1dc1 9bbd f76d a5bd e01c 333b
00000230: 327d 10bd f00e a3bb dc3d 17bd 3cc0 8bbd
00000240: 74ce 873d 12c2 ccbd a2cb bb3d 00f2 ef3c
00000250: fc85 bcbd 5e4c c93d c0eb 26bd 389b 503c
00000260: a69f c5bd 60f0 70bc 30c8 623d f913 adbd
00000270: a085 343b 0282 34bd 8015 c93d 9855 583d
00000280: aa9f 5bbd 2852 ed3c a413 b6bd 0c98 0ebd
00000290: 9ea8 943d 8047 29bc 20ee 713c f632 29bd
000002a0: 8093 193c 8821 46bc 00fd 023d 3826 8dbc
000002b0: c228 853d b015 ca3c 10f2 8bbc f0c1 523d
000002c0: 7007 b0bd 206f 12bd a062 c8bc 489d 893d
000002d0: 10fb 5a3c 5021 a33d 9b28 6dbd dc7f a1bd
000002e0: 1456 bbbd 1f8b aabd f8a0 76bc 5adb 8dbd
000002f0: 2097 83bd 85c2 59bd af41 8fbd 16bd 8bbd
00000300: 5002 013d 25a3 20bd 80be bd3b 738e afbd
00000310: 3330 46bd f2ba 7bbd e093 313d 3454 2a3d
00000320: 6097 0a3c 04f3 b43d e2b8 bd3d e83d 133d
00000330: 88cc b63d d431 c13d 00d7 1bbb 2a21 01bd
00000340: 63fc 5fbd ac96 09bd 22c4 80bd f05b 473c
00000350: c87d 1c3c 309e b8bb 1860 5ebc 9d1d 9cbd
00000360: 1671 9dbd f0e8 383d b665 71bd b897 563c
00000370: 50d8 87bb 68f6 6f3c 7898 023d 5210 cd3d
00000380: b582 7abd eaf4 2ebd f082 61bd e679 2abd
00000390: c00b 85bc d22e 8a3d 4a55 1abd 8c42 493d
000003a0: c1a6 27bd c05e c6ba b858 7e3d 14c0 b53c
000003b0: 482e 943d 4cef 9ebd e095 563d 1810 91bd
000003c0: 74d7 b9bd dcfa 5c3d 0088 503d d060 d13b
000003d0: 3bb3 28bd 0025 a2bd 34a7 133d 6203 3bbd
000003e0: d066 8cbc 281c 013d 5e6c c43d 6e0c a4bd
000003f0: 6e3f 39bd 2405 273d 3d58 b2bd 5280 6fbd
0.03353478 0.04404731 -0.009243935 -0.013201296 -0.074545786 -0.075283796 -0.05969718 0.027469486
-0.048298445 -0.080191776 0.09786026 -0.016838364 0.011805125 -0.073124096 0.049992576 0.100964785
0.021102794 -0.0216344 -0.022608168 0.046441257 -0.0035144538 -0.08388813 0.07207008 0.04328288
0.0034126937 0.015440196 0.02975905 -0.078976825 0.05428748 0.09743534 0.060913056 -0.020718127
0.07084221 0.015170805 -0.01400578 0.018265903 0.018461473 -0.016122289 -0.0028064474 -0.084306605
0.08281465 0.09887646 0.033393756 0.051662937 0.08346358 -0.023264505 0.045985013 -0.05818269
0.08146623 0.10042593 -0.0016817823 0.037854493 -0.043819815 0.06820397 -0.05067578 -0.049978442
-0.09112264 0.016365826 -0.082134806 0.09827623 -0.096759774 -0.07295614 0.073530585 -0.10042455
0.039560124 -0.05366615 0.07300909 0.026470274 0.02512467 0.06325218 -0.09454925 0.08219746
0.05480309 -0.0004945174 0.067566276 0.06394835 -0.0016596615 -0.039827254 0.020338297 0.09608908
0.042970434 0.05504605 0.08493346 0.026593223 0.08013311 0.057264403 -0.0735499 0.0015851185
-0.0772362 0.0912607 0.043537885 -0.04258201 0.020460106 0.053816035 0.06757636 0.100628376
0.0044619814 0.0037443116 0.06777458 -0.06268081 0.049784973 0.08952874 -0.0628691 -0.018005677
0.040832773 -0.00793387 0.05359204 -0.020493679 0.057065442 -0.081891686 -0.09798161 0.060025737
-0.0513352 -9.969622e-05 -0.051967535 0.07208687 -0.04649309 0.047544956 -0.00089823455 0.09017438
-0.0676851 0.008747712 -0.07336207 0.026404485 0.028884023 0.07591033 -0.100991294 -0.045674577
-0.08739607 -0.050337777 0.062634915 -0.03391833 0.06659421 -0.076387055 0.0019114912 -0.012885146
0.08259575 -0.07605193 -0.08077615 0.0027330443 -0.035275646 -0.004976146 -0.036924228 -0.06823775
0.06631175 -0.099979535 0.09169699 0.0292902 -0.09205243 0.09829019 -0.040752172 0.0127323195
-0.09649591 -0.014705747 0.055366695 -0.08451075 0.0027545467 -0.044069298 0.09818554 0.052816004
-0.053619064 0.02896984 -0.08890465 -0.034812972 0.07258724 -0.010331988 0.014766246 -0.041308366
0.009373546 -0.012092955 0.03197956 -0.017230138 0.065019146 0.024668545 -0.017083198 0.051454484
-0.085951686 -0.03575051 -0.02446109 0.06719452 0.013365522 0.07965338 -0.057900053 -0.07885715
-0.091472775 -0.083273165 -0.015053026 -0.069266036 -0.06425309 -0.053164024 -0.0699495 -0.06823175
0.031496346 -0.039218087 0.0057905316 -0.08572092 -0.04838581 -0.06145758 0.043353915 0.04158421
0.008458942 0.08835414 0.09263779 0.03594771 0.0892573 0.09433332 -0.0023779273 -0.03152577
-0.054684054 -0.033590958 -0.06287409 0.012167916 0.009551473 -0.005634092 -0.013572715 -0.07622836
-0.07687585 0.04514402 -0.05893489 0.013097696 -0.0041456595 0.01464615 0.031883687 0.100128785
-0.06115981 -0.042714037 -0.055056512 -0.041620158 -0.016240954 0.067472115 -0.037678994 0.04913573
-0.040930513 -0.0015134439 0.062096328 0.022186317 0.0723539 -0.07760486 0.052389026 -0.07083148
-0.090742975 0.053950176 0.05091095 0.006389715 -0.041186552 -0.079172134 0.03604813 -0.045657523
-0.017138869 0.031520993 0.09590982 -0.08010183 -0.045226507 0.040776387 -0.08708236 -0.058471985

fc1.bias f4 [9]
00000000: 0547 a9bd 94bf b43c 895c adbd 433c b8bd
00000010: 5a65 62bd a8c1 bebc 7811 b83c 4802 5b3d
00000020: 10d1 bd3b
-0.08265499 0.022064008 -0.08464915 -0.08995869 -0.055272438 -0.023285702 0.022469267 0.053468972
0.0057927445
