models/empty.pth (torch, 785379 bytes, 14 tensors)

lstm.weight_ih_l0 f4 [392, 1]
000000 e0 50 13 3b d0 8d 7e 3c 5a 55 8b bd 92 43 28 bd
       0.0022478625 0.01553674 -0.06803389 -0.041080065
000010 14 5c c2 3d 30 43 9b bd cc a6 01 bd 40 2b 67 3d
       0.09490219 -0.075811744 -0.03165321 0.05643773
000020 86 44 97 3d 58 92 4a bc 18 6c 5b 3c f8 1e 86 3d
       0.07386117 -0.012363993 0.013392471 0.065488756
000030 58 fc fc bc 90 55 09 bc 43 c4 5f bd 8c 5b 2b 3d
       -0.030882046 -0.008382216 -0.05463053 0.041835353
000040 97 e5 20 bd 12 b1 45 bd 16 52 b7 bd bc ff ae bc
       -0.039281454 -0.04826457 -0.089512035 -0.021362178
000050 70 dd ed bc 14 76 21 3d 05 50 84 bd a9 c2 c8 bd
       -0.029036254 0.03941925 -0.06460575 -0.098027535
000060 90 58 b2 3d d1 36 70 bd 58 62 f2 3c 48 97 8e 3c
       0.08708298 -0.058646027 0.02958791 0.01740612
000070 fe 52 13 bd 70 ee 1d 3c 36 78 52 bd c8 da 03 3d
       -0.03596782 0.009639367 -0.051384173 0.032191068
000080 9c 1a ad bd f2 c2 7e bd 98 9a c4 bc e6 71 c4 3d
       -0.08452341 -0.062197633 -0.023999497 0.09592037
000090 3c d2 ad 3d d8 f5 f4 bc 88 f6 c3 bc ac d5 c7 3d
       0.08487365 -0.029902384 -0.023921266 0.097575516
0000a0 c3 69 c2 bd e0 85 7e bb 00 77 5a bc 98 84 1a 3d
       -0.09492829 -0.003883712 -0.013334036 0.037724108
0000b0 c8 4f 6b bc 60 42 9f bb 48 49 c8 3d c0 5d 5b bd
       -0.014362283 -0.0048602074 0.09779602 -0.053556204
0000c0 e4 fc f0 bc b4 3a 15 3d 80 69 be bb d5 1b 81 bd
       -0.029417463 0.036432937 -0.0058109164 -0.06304137
0000d0 80 b0 92 3d 68 95 9d bc 22 65 9b bd 62 0b a8 3d
       0.07162571 -0.019236282 -0.07587649 0.08205296
0000e0 d8 d2 56 3d 78 7a 46 3c 04 f1 a4 3d b0 25 66 bc
       0.05244717 0.01211416 0.080537826 -0.014047071
0000f0 f0 09 45 3d b6 5b 09 bd 95 22 a8 bd 84 d9 52 3d
       0.04810518 -0.033534728 -0.08209721 0.05147697
000100 00 79 b6 bb c4 e3 a9 bd c0 ab f5 3c 64 78 1a bd
       -0.0055686235 -0.08295396 0.029989123 -0.03771247
000110 ac 7e 81 3d d8 e2 8d bc 79 0c 73 bd 20 82 5f bc
       0.06322989 -0.017320082 -0.059338067 -0.013641864
000120 98 4d 2d bc 35 83 ca bd 38 8a 5c 3d c8 34 81 bd
       -0.010577582 -0.09888307 0.053842753 -0.06308895
000130 c4 ee 12 3d 64 85 7e 3d 37 1e 3c bd 8a 18 c4 3d
       0.035872236 0.06213893 -0.045927253 0.09574993
000140 9e 0e a1 3d 5e b2 66 bd 28 52 f9 bc bd 42 38 bd
       0.07864116 -0.056322448 -0.030434683 -0.04498552
000150 38 02 db bc 08 67 c8 3d 38 45 0b 3d 33 56 ae bd
       -0.026734456 0.09785277 0.03400156 -0.08512535
000160 22 b7 6f bd 48 f7 83 bd c6 e3 87 bd fc ab 80 bc
       -0.05852426 -0.064436495 -0.06635241 -0.015707009
000170 64 42 90 3d c8 a7 00 3d 8e 27 82 bd f8 c1 28 3d
       0.07043913 0.03141001 -0.06355201 0.041200608
000180 41 78 b8 bd 64 17 ba 3d 64 49 b4 bd 14 ef 38 3d
       -0.090073116 0.09086493 -0.08803061 0.045149878
000190 06 3e 9f 3d 70 ec 5e 3d f4 82 b5 3d fc c2 a7 bd
       0.07775502 0.054424703 0.08862868 -0.08191487
0001a0 c8 df c9 bd f0 92 a7 bc f0 48 4b 3d 68 86 34 3d
       -0.09857136 -0.020455807 0.049630105 0.044073492
0001b0 90 5d 0c bc d0 85 fb 3c 94 55 1b 3d 40 a2 c8 3c
       -0.008567229 0.030703455 0.03792341 0.02449143
0001c0 fb 17 70 bd c8 d6 8d bd d6 c3 50 bd 90 d1 82 bd
       -0.05861662 -0.06925732 -0.050968014 -0.06387627
0001d0 54 67 8d bc 8a 49 93 bd a8 a1 18 3c ac 89 e2 bc
       -0.017261185 -0.07191761 0.009315886 -0.027653538
0001e0 5c 98 b1 bd 60 8e 92 3d 48 2a 19 3d ac b2 ac 3c
       -0.08671638 0.07156062 0.03739384 0.021081291
0001f0 69 69 41 bd b8 49 97 3d e2 5f af 3d b4 5d 98 bc
       -0.047219668 0.073871076 0.0856321 -0.018599369
000200 14 b3 91 bc 6e 94 89 3d 14 b2 89 3d 02 a4 96 3d
       -0.017785586 0.06717764 0.06723419 0.07355501
000210 c8 e1 db 3c 3f 7f ce bd f3 57 70 bd 30 8c 6b bc
       0.02684106 -0.10082864 -0.058677625 -0.014376685
000220 9a 2a ab 3d bb 17 33 bd f4 59 79 bd 7e dc b2 3d
       0.08357735 -0.043723803 -0.0608768 0.08733462
000230 cc 0d be 3c 30 6f f4 bb 02 d2 a1 bd c0 e3 ef bc
       0.023199938 -0.0074595436 -0.07901384 -0.029283404
000240 f8 f3 b0 bd 80 dd 9f bb 6c d4 17 3d cd b7 64 bd
       -0.08640283 -0.0048787 0.037067816 -0.05583935
000250 68 e8 6e bd 00 95 43 ba 02 af 8a 3d 6f 44 61 bd
       -0.05832711 -0.00074608624 0.06771661 -0.054996904
000260 c4 90 84 3d 14 d9 9c 3c e9 c5 c3 bd 60 94 9c 3b
       0.06472924 0.01914648 -0.09559233 0.00477843
000270 38 c6 e0 3c 44 09 cb 3d a8 a1 30 bc 50 26 12 3d
       0.027438268 0.09913877 -0.010780729 0.03568107
000280 96 3c 65 bd 64 06 61 3d e0 73 bb 3d 81 1d c1 bd
       -0.055965982 0.054937735 0.09152961 -0.094294555
000290 14 13 54 3d 0c 09 a5 3d b4 a7 7e 3d c5 8f af bd
       0.051776007 0.08058366 0.062171653 -0.08572344
0002a0 f0 e1 7b 3c 4e d6 98 3d 76 2b 29 bd 0a 06 c5 3d
       0.015373692 0.074627504 -0.041301213 0.096202925
0002b0 02 0a 3e bd 74 29 9c 3d 64 a5 ca bc 40 8a 42 bd
       -0.046396263 0.07625094 -0.024737068 -0.047495127
0002c0 00 54 76 3b 50 b7 ac 3c 48 98 ff bc 28 64 77 bd
       0.003758669 0.021083504 -0.031200543 -0.06039825
0002d0 d0 a3 15 3c 8a 06 82 3d 72 f4 95 3d 52 f3 91 3d
       0.009133294 0.063489035 0.07322015 0.07126488
0002e0 64 aa 64 bd 48 5b 30 3d e8 e1 0b bc 86 95 c9 3d
       -0.05582656 0.043055803 -0.008537747 0.098429725
0002f0 93 cf 82 bd a8 c6 b9 3d 10 a4 b0 3d eb 76 bf bd
       -0.06387248 0.09071094 0.086250424 -0.09348854
000300 d0 cf 93 bc 08 e7 12 bd 9c f8 80 bc 20 8b dd 3b
       -0.018043429 -0.03586486 -0.015743546 0.0067609698
000310 70 14 07 3d 08 8d ed bc c3 5a aa bd c8 f4 85 bc
       0.032978475 -0.028997913 -0.08318093 -0.016352072
000320 2c a4 ac 3d bc 1d 84 3d 50 e2 1c 3c 82 e5 bb bd
       0.08429751 0.06450984 0.0095754415 -0.091746345
000330 58 0d 38 3d e0 13 00 bc 32 06 9b 3d 80 34 87 bc
       0.0449346 -0.007817239 0.07569541 -0.016504526
000340 72 0c ac bd 6c 2e 8d bc 6a bb be 3d 08 0f f2 3c
       -0.08400811 -0.01723405 0.0931309 0.029548183
000350 69 5a c3 bd c4 e4 81 3d b8 3d 0d 3d 82 f4 8c 3d
       -0.09538729 0.06342462 0.034482688 0.06882574
000360 40 e5 0e bd 30 b0 ed 3c 06 53 64 bd 00 69 ca 3c
       -0.0348866 0.029014677 -0.05574324 0.024708271
000370 68 0c 6e bd 80 b6 5e 3a 9c 0b ae 3d d8 10 c2 bc
       -0.0581173 0.00084958225 0.08498308 -0.023689672
000380 04 af 94 3d ac b2 2e bd 50 90 8d 3b 80 99 50 bc
       0.07259944 -0.042650864 0.004320182 -0.01273191
000390 f2 45 99 3d a4 08 88 3d 97 9b b8 bd 87 ea 2b bd
       0.07484044 0.06642273 -0.090140514 -0.04197171
0003a0 9e 3e a7 bd 74 62 6b bd ec 4d 0e 3d 30 7b 6b bd
       -0.0816624 -0.05746694 0.03474228 -0.057490528
0003b0 26 fe 8a 3d 40 ce c3 3c 98 32 43 bd 04 ef bd 3c
       0.06786756 0.023902059 -0.04765567 0.02318526
0003c0 42 b3 ca 3d b8 05 c4 3d 6c 4f 3f 3d 9c 68 02 bd
       0.09897472 0.09571403 0.046706602 -0.031838045
0003d0 9c ea b7 3d a0 ff c3 3d 0c 70 87 3d ba 73 5f bd
       0.08980295 0.09570241 0.06613168 -0.054553725
0003e0 40 5f 89 3d 00 42 fb 3a 59 a1 c3 bd b3 49 c4 bd
       0.067076206 0.001916945 -0.09552259 -0.095843695
0003f0 8c 9f c1 3c 78 84 3d bc d0 81 8c bc 8a 13 ca 3d
       0.023635648 -0.011567228 -0.017151743 0.09867008

lstm.weight_hh_l0 f4 [392, 98]
000000 30 21 91 bd af 9e 52 bd 0e 3c 7d bd 04 e0 4f 3d
       -0.07086408 -0.051420864 -0.06182485 0.050750747
000010 42 dc c1 3d b2 cd 9d 3d 74 97 3d 3d 91 bb cd bd
       0.09465839 0.07705249 0.046287015 -0.10045541
000020 64 02 8c 3c 06 4c 9e 3d 5c 5e c8 bc f0 ca 89 bc
       0.017090984 0.07729344 -0.024459057 -0.016820401
000030 c8 55 5f bc 8c 4f de bc 00 02 f8 bb f0 55 a3 3d
       -0.013631292 -0.02713754 -0.007568598 0.07975376
000040 c8 c5 17 3d 50 2e fe 3b 43 92 2d bd de 3b 99 bd
       0.037053853 0.0077569857 -0.042375814 -0.07482122
000050 60 1c be 3d a8 88 4a bc f8 cf f9 3c b0 59 df bb
       0.09282756 -0.012361683 0.030494675 -0.0068161115
000060 78 b0 9d 3c 3c b3 77 3d 00 d4 a8 ba b6 b0 7f bd
       0.019249186 0.060473666 -0.0012880564 -0.062424384
000070 d7 d9 47 bd 98 6c 81 bc 00 ea 0a bb 40 6c 2b bc
       -0.048791733 -0.015798852 -0.0021196604 -0.0104628205
000080 60 94 b5 3b f0 f7 e0 3c d8 18 76 bc 58 ea f8 bc
       0.0055413693 0.027461976 -0.015020572 -0.030385181
000090 80 56 2e bb b8 76 2f 3d ba a4 9b bd b8 d4 a4 3d
       -0.002660185 0.04283783 -0.075997785 0.080483854
0000a0 3c 0f 85 3c 80 2a f1 ba 35 b2 90 bd c0 9d d9 3c
       0.016242616 -0.0018399507 -0.0706524 0.026564479
0000b0 d6 26 73 bd 7c 76 c1 bd a2 f7 9e bd b4 7d cd 3d
       -0.05936321 -0.09446427 -0.07762076 0.100337416
0000c0 08 7f 08 bc 30 7a 0e bd 65 41 65 bd 5c eb 2d 3d
       -0.008331068 -0.034784496 -0.05597057 0.042460784
0000d0 78 ca 77 3d 00 77 d0 39 f8 eb 1a 3d b8 86 19 3d
       0.060495824 0.00039761513 0.037822694 0.037481993
0000e0 18 d5 66 3d 87 14 43 bd 70 9b fb 3c 46 53 cb 3d
       0.056355566 -0.047627 0.030713767 0.099279925
0000f0 bc 13 47 3d 70 5a 49 3d f4 1d 9f 3c 94 38 cc bc
       0.048602805 0.049158514 0.019423462 -0.024929322
000100 1d 3d 82 bd c8 56 2f 3c 98 ea 60 3c 30 26 91 bb
       -0.06359313 0.010701843 0.0137278065 -0.004429601
000110 e4 5b 66 3d c2 89 78 bd 90 fd 09 3d cc b3 8e 3d
       0.056239977 -0.06067825 0.03368908 0.06967887
000120 65 c5 3d bd 0e 6f ac 3d 39 af a0 bd 1c 4f 89 3d
       -0.04633083 0.084196195 -0.07845921 0.06704542
000130 ac 77 8b 3d 33 7e 91 bd ed 15 5d bd 80 76 95 bc
       0.06809935 -0.07104149 -0.05397599 -0.018244982
000140 98 1e fe 3c bc 80 18 3d a8 f4 72 bc 00 0a 0c bc
       0.031020448 0.037232146 -0.014828838 -0.008547306
000150 2a d7 94 bd 9e cb 8f bd d8 a8 94 3d 70 70 6a 3d
       -0.07267602 -0.07021259 0.07258767 0.057236135
000160 d8 f8 bb bd 60 5d 7c 3d 80 dd 7a 3c b2 e6 c6 bd
       -0.091783226 0.061612487 0.015311599 -0.097119704
000170 80 73 37 bc c8 dc 46 3d 74 6c a3 bd 20 95 9d bb
       -0.011196971 0.048550397 -0.0797967 -0.004809037
000180 bc a7 bb 3d 60 6f 9f 3d a0 18 c2 3d ac 5d a7 3c
       0.09162852 0.07784915 0.09477353 0.020430408
000190 e4 9f 1e 3d ac ca 6c bd 0a 35 a7 bd 0c 9b 99 bd
       0.038726702 -0.05781047 -0.08164413 -0.07500276
0001a0 a0 23 64 3c 74 80 7d bd c0 60 bf ba bc 7f 90 bc
       0.013924509 -0.06189008 -0.0014600977 -0.017639033
0001b0 e6 8e b4 3d 2a 47 bf 3d 48 44 0c bd f0 0e 97 3c
       0.08816318 0.09339745 -0.034244806 0.01843974
0001c0 60 f4 5b 3d 00 48 cc bc c5 c9 ad bd 8e 57 71 bd
       0.05369985 -0.024936676 -0.0848575 -0.05892139
0001d0 10 b8 fb 3b f4 4f 8f bc 66 e2 ac bd 2e 46 c4 bd
       0.007681854 -0.01749418 -0.084416196 -0.09583698
0001e0 34 24 0d 3d 9c 84 4a 3d 69 c6 99 bd ce 55 a2 3d
       0.034458354 0.049442872 -0.07508547 0.07926522
0001f0 9a 1e c6 3d d0 0e 0f 3d 68 82 14 bc 28 8f 20 3c
       0.096738055 0.034926236 -0.009064294 0.009799756
000200 40 24 11 3d 1c 1c b9 3d 78 75 80 3d 00 b2 2d 3d
       0.03543496 0.090385646 0.062724054 0.042406082
000210 a6 65 3b bd d4 c9 9a bd dc 90 7f 3d a8 2c bd bc
       -0.045751236 -0.07558027 0.062394008 -0.023092583
000220 85 06 34 bd bc b3 f2 bc d6 39 c5 bd 98 63 86 3d
       -0.04395153 -0.02962672 -0.09630172 0.06561965
000230 7a aa 1c bd dd 8f 21 bd 46 e9 be 3d 74 ae 8b 3d
       -0.038248517 -0.03944384 0.09321837 0.06820384
000240 9c 7a ae 3d b1 d9 92 bd c4 9f a8 bc d8 c0 1e 3d
       0.0851948 -0.071704276 -0.020583995 0.03875813
000250 e0 4a a8 3d 24 13 a5 bd 60 13 64 bc 9a 2d cc 3d
       0.08217406 -0.080602914 -0.013920635 0.09969635
000260 cc 33 81 3c 60 76 8e bd fa 9f 9f bd d0 04 6c 3c
       0.015771769 -0.06956172 -0.07794185 0.014405444
000270 40 dc 20 3d 48 f9 b2 3c cb 52 48 bd e2 93 2b bd
       0.039272547 0.021847382 -0.048907083 -0.04188908
000280 c8 8b 57 bc d8 dc 04 bd e4 bd 87 3d 2c 4c ce 3d
       -0.013155885 -0.032437176 0.06628016 0.100731224
000290 2a 88 ac bd 24 8d fe bc a0 48 88 3c 1c c3 79 3d
       -0.08424409 -0.03107316 0.016636193 0.060977086
0002a0 17 57 ba bd f4 e2 c0 bd ff fb a8 bd 1c 35 92 3c
       -0.09098642 -0.09418288 -0.082511894 0.01784759
0002b0 38 3d a0 3d 6d fc ae bd fd 95 b9 bd d0 8c 13 bd
       0.078241765 -0.0854424 -0.09061811 -0.03602296
0002c0 08 02 8c bc a8 13 79 3c 88 94 5f bd 74 a8 a6 3c
       -0.017090812 0.01520244 -0.05458501 0.020343997
0002d0 14 fd cd 3d e0 25 37 bc 23 ca 97 bd 48 45 5a bd
       0.100580364 -0.011178464 -0.074116014 -0.053288728
0002e0 10 cd f8 bb 40 e5 a4 bb 72 60 b8 3d 37 30 92 bd
       -0.0075928047 -0.0050322115 0.090027705 -0.071381025
0002f0 40 a1 4e bc d8 92 13 bc 0a 21 9d 3d 1a 43 70 bd
       -0.012611687 -0.009007178 0.07672317 -0.058657743
000300 58 6d ac 3c 2c be d7 bc c0 e5 58 3c 6a 74 c7 3d
       0.021048233 -0.026335798 0.01323837 0.09739001
000310 8c 78 cc bc b8 c7 b8 bd f2 37 c0 3d 40 f0 e7 3c
       -0.024959825 -0.09022468 0.09385671 0.028312802
000320 cc 18 a2 bd b4 94 ba bd 92 40 95 3d 14 e0 9a bc
       -0.07914886 -0.09110394 0.072877064 -0.018905677
000330 c9 83 5b bd 40 6a 7e 3d 14 0b 42 3d 9f 4a b4 bd
       -0.053592477 0.062113047 0.047373846 -0.08803295
000340 54 ef 5d 3d e4 05 92 3d 82 53 96 3d 38 7d fb 3c
       0.05418332 0.0713003 0.073401466 0.030699357
000350 a6 10 b2 bd 90 dd 1f 3c f7 bc bd bd 50 7c 58 3d
       -0.08694582 0.009757414 -0.09264558 0.05285293
000360 40 4b b2 3a dc 54 ca bc f8 65 86 bc 80 15 4b 3a
       0.0013602749 -0.024698667 -0.016406044 0.0007747039
000370 d6 a3 1d bd 37 9c 90 bd 54 8a 84 bd dc b8 1f 3d
       -0.038486324 -0.070610456 -0.064716965 0.038994655
000380 f5 4d 83 bd 60 76 bb 3c 2c 6e 40 bd 94 5f a9 bd
       -0.064113535 0.022883594 -0.046980068 -0.08270183
000390 0c 89 86 3d 28 a9 6c bc 40 74 7c 3c b8 96 3c 3d
       0.06569108 -0.014444627 0.015408576 0.046042174
0003a0 ec 12 c4 bd 2c aa b8 3c 1c 64 9b bc 1c c1 a9 bd
       -0.095739216 0.022542082 -0.018968634 -0.08288786
0003b0 d0 a1 a6 bb b0 2e ca bd d0 ed fe 3b e1 1d 2e bd
       -0.0050852075 -0.09872186 0.0077798143 -0.042508963
0003c0 7e 97 85 3d b8 86 61 3d 08 e6 01 3d e4 e1 84 3c
       0.065230355 0.05506012 0.031713516 0.016220994
0003d0 e6 bd 6b bd 88 e8 cc 3d 00 18 55 b9 48 7b 15 bd
       -0.05755415 0.10005289 -0.00020322204 -0.036494523
0003e0 3a d3 c5 bd 34 27 39 3d 80 d4 98 bb d8 85 39 3c
       -0.09659429 0.045203403 -0.004664004 0.011323415
0003f0 66 09 b1 bd c4 37 e4 bc 8a 6f b5 bd 4a 48 cb bd
       -0.08644371 -0.027858622 -0.08859165 -0.099258974

lstm.bias_ih_l0 f4 [392]
000000 af e7 b9 bd a0 32 33 3d 10 21 57 bc c0 82 ec 3c
       -0.09077393 0.04374945 -0.013130441 0.02887094
000010 b2 ec aa bd 95 62 c6 bd 74 8d b4 3d 00 68 d5 ba
       -0.08345927 -0.09686772 0.088160425 -0.0016281605
000020 b8 84 a1 bc 02 2f 89 bd 50 4c 93 bd 4d 3a a2 bd
       -0.019716606 -0.06698419 -0.0719229 -0.07921276
000030 06 0e b1 bd c8 1a 2a bd dc 0e 57 3d 24 e5 03 bd
       -0.08645253 -0.041529447 0.052504405 -0.032200947
000040 5c ec a3 3d 4c c6 15 3d a0 b7 c0 3d f4 61 49 3d
       0.08004066 0.036566064 0.09410024 0.04916568
000050 ac ec 1d 3d 88 13 8b 3d 8c b0 49 bd f0 2f 8a bd
       0.038555786 0.06790835 -0.049240634 -0.067474246
000060 00 d9 6e ba 97 16 53 bd 0c e0 8c 3d a8 e2 01 3d
       -0.0009111315 -0.051535215 0.06878671 0.031710297
000070 ca 97 9c 3d 40 18 e8 bb 62 10 ac 3d ef 4d 60 bd
       0.07646139 -0.007082969 0.08401562 -0.054761823
000080 b4 5e 32 3d 0b 9e c2 bd 31 25 6a bd 20 ea ee 3c
       0.043547347 -0.095028006 -0.057164375 0.029164374
000090 64 a8 76 3d a8 77 06 3d 28 52 c9 bc 5d 3f 59 bd
       0.060219184 0.032828957 -0.024575308 -0.053038944
0000a0 16 c1 8c 3d 3c 93 08 3d b5 2f c3 bd 52 1a ae 3d
       0.06872766 0.03334354 -0.09530584 0.08501114
0000b0 48 1a 32 3c aa be c9 bd ad 21 a9 bd b5 8f 77 bd
       0.010870524 -0.098508194 -0.08258376 -0.060439784
0000c0 00 aa 55 3d dd d8 90 bd 60 9e c4 3c 48 73 40 3d
       0.052164078 -0.070726134 0.0240013 0.04698494
0000d0 ee 73 2f bd 98 61 17 3d f0 39 ba bb 74 13 49 3d
       -0.04283517 0.036958307 -0.005683176 0.049090818
0000e0 50 03 2b 3d d8 77 dd bc a2 f1 c6 3d 24 d3 b7 3c
       0.041751206 -0.027034685 0.097140566 0.022439547
0000f0 75 3e 89 bd c0 be 71 3c 44 d0 da bc d6 07 87 bd
       -0.06701366 0.014754951 -0.026710637 -0.065932915
000100 84 5f fa bc 90 41 57 bd c0 f1 17 3c c8 6d eb 3c
       -0.030563124 -0.05255276 0.009273946 0.028738871
000110 64 ce aa bc 82 ba 9e 3d ea 9d c1 bd f4 0c 54 bd
       -0.020850368 0.07750417 -0.09453948 -0.051770166
000120 18 af 17 bd 74 30 92 bd b0 5b 8c bc 30 4d 63 3d
       -0.037032217 -0.07138148 -0.017133564 0.055493534
000130 9e b5 85 3d 84 20 27 3d 2e dc bc bd 2d 34 65 bd
       0.06528781 0.040802494 -0.092216834 -0.05595796
000140 09 cb 50 bd dc e6 bc 3d c0 a8 e7 3a 3c 02 60 3d
       -0.05097488 0.092237204 0.0017674193 0.05468963
000150 f4 8f 89 3d 83 07 42 bd e2 b6 b1 3d ae 83 a5 bd
       0.0671691 -0.047370445 0.0867746 -0.080817565
000160 58 2c 78 bc 0c 85 a5 bc 6e 41 92 bd 77 ec 40 bd
       -0.015147291 -0.020205043 -0.07141386 -0.04710051
000170 02 13 8a bd 40 cb 86 3d c0 13 3b bb 0a 1c ae bd
       -0.06741907 0.065817356 -0.0028545707 -0.08501442
000180 90 84 a3 bc 4c 67 f1 bc 9a 8a aa bd 9e d5 b3 3d
       -0.019960672 -0.029468201 -0.083272174 0.087809786
000190 a7 90 ce bd 60 3f e2 3c a2 69 c5 3d 6c bf 3c 3d
       -0.10086184 0.02761811 0.096392885 0.04608099
0001a0 56 92 88 bd 90 87 bf bc 58 ae 92 3d 5c e6 c8 bd
       -0.06668536 -0.02338007 0.0716216 -0.098095626
0001b0 b2 d9 bf 3d 93 a2 58 bd a0 54 57 3c 44 96 72 3d
       0.09367694 -0.052889418 0.013142735 0.059225336
0001c0 8c 55 88 bc f8 8c 01 3c 58 93 e9 3c 4a d3 82 3d
       -0.016642354 0.007907145 0.028512642 0.063879564
0001d0 d8 b8 fc 3c ac 68 b4 bc a2 e5 84 3d 70 72 5b 3d
       0.03084986 -0.022022568 0.064891115 0.053575933
0001e0 10 16 8b bb 84 99 cc 3d 50 39 02 bc d8 5c 01 bd
       -0.0042445734 0.09990218 -0.007948235 -0.031582683
0001f0 ef 9d 8d bd 80 28 97 3b 64 6f 5a 3d 92 43 cc 3d
       -0.06914889 0.0046129823 0.053328887 0.099738255
000200 b4 99 0c bd b0 ef 95 bd b2 56 be bd b4 66 8f 3d
       -0.03432627 -0.073211074 -0.092938796 0.07002011
000210 64 e3 83 3c 34 6f 5b bd 80 be e9 3c 5a e3 bd bd
       0.01609964 -0.05357285 0.02853322 -0.092718795
000220 90 13 18 3d 44 43 81 3c 47 a8 67 bd 98 e8 ca 3c
       0.03712803 0.015779145 -0.056556966 0.024769112
000230 38 16 e0 3c 80 44 36 bc 84 c9 c7 3d d0 06 f2 bc
       0.027354345 -0.01112473 0.09755233 -0.029544264
000240 c0 ff 8e bb 5c bf 1f 3d 88 a7 b6 3c 8e 6a a2 3d
       -0.004363984 0.039000854 0.022296682 0.0793048
000250 f4 73 7b 3d b6 85 98 3d fa 2d af bd 84 1c b2 3c
       0.06138988 0.07447378 -0.08553691 0.021742113
000260 f4 78 98 bc fb 95 7f bd 4c 7e 1f 3d 24 f0 48 3d
       -0.018612362 -0.062398892 0.038938805 0.04905714
000270 8c 1a a8 3c 08 2e 3f 3d 38 11 58 bc 28 c1 6f 3d
       0.020520471 0.04667476 -0.013187699 0.058533818
000280 80 17 7f ba 14 85 77 bd c8 1b dc 3c 10 ef cf 3c
       -0.000973098 -0.060429648 0.026868716 0.025382549
000290 24 90 5d bd 7d ff 5b bd 7c 3f 79 bd 58 7b c5 3c
       -0.05409254 -0.05371045 -0.06085156 0.024106666
0002a0 88 bd 9e 3d 56 11 81 3d 60 dc 6e 3d 19 62 82 bd
       0.07750994 0.06302135 0.058315635 -0.06366367
0002b0 00 f0 6b 3d ec 99 38 3d fe 1c 9a 3d 04 04 a5 bd
       0.05760193 0.045068666 0.07525061 -0.080574065
0002c0 9c 9c 79 3d fa a8 90 3d 0c 1c 93 bc 80 8b fd 3c
       0.06094037 0.0706348 -0.01795771 0.030950308
0002d0 90 ed c2 bc 81 b4 3b bd e4 6b 97 bd 24 5c 53 3d
       -0.02379492 -0.04582644 -0.073936254 0.051601544
0002e0 1e 02 c0 3d 34 30 c2 bd 1c 59 cc 3d 90 16 72 3c
       0.09375404 -0.0948185 0.09977934 0.014775887
0002f0 c8 37 27 bc f4 38 2c bd 20 37 95 bb 17 cd a7 bd
       -0.01020617 -0.042046502 -0.0045536906 -0.08193415
000300 12 6f 40 bd 04 fb e6 bc 44 be 9d bc 10 c1 9e 3d
       -0.046980925 -0.028195865 -0.019255765 0.077516675
000310 ee 04 b8 bd 44 d7 c8 3d ab 38 6d bd 72 56 86 bd
       -0.08985315 0.09806684 -0.05791537 -0.06559457
000320 8c 92 a4 3d f8 9e 5c bd d1 2e 67 bd 18 85 a3 bc
       0.08035764 -0.053862542 -0.056441132 -0.019960925
000330 1c 07 b9 3c 6c 8e 61 3d 5e d3 98 bd 40 9e 5f 3c
       0.022586398 0.055067465 -0.0746219 0.01364857
000340 9c 30 a9 bc f8 7f 8c 3d ce 83 02 bd 6c 11 2b bd
       -0.020653062 0.068603456 -0.03186398 -0.04176466
000350 0e e6 cc 3d fe 33 ad 3d f0 75 97 3d b8 61 b4 3d
       0.10004817 0.08457182 0.07395542 0.08807701
000360 7c 0c 43 bd 9e b2 49 bd b4 f3 86 3c 50 63 8b bb
       -0.047619328 -0.04924261 0.016473629 -0.0042537823
000370 20 63 68 3d b5 a0 86 bd fc c0 4a bd b0 c5 9b bb
       0.056735158 -0.06573621 -0.04950045 -0.004753791
000380 26 b1 bc bd 04 ff 96 3d 00 90 56 3b 48 57 36 3d
       -0.09213476 0.07372859 0.003273964 0.04451683
000390 78 47 9f 3d 57 86 c7 bd 88 d1 85 3c 1c f2 35 bd
       0.077773035 -0.0974242 0.016335264 -0.044420347
0003a0 54 75 76 3d 70 41 60 3c 34 28 b6 3c 5c 40 b4 3d
       0.060170487 0.0136874765 0.022235967 0.08801338
0003b0 c8 bd 13 bc 60 cf 81 3c 94 46 50 3d 88 04 02 3c
       -0.009017415 0.015845954 0.05084856 0.007935651
0003c0 30 e4 b8 bc 50 55 54 3d 62 c6 cc bd e8 4e 9a 3c
       -0.022569746 0.051839173 -0.09998776 0.018836454
0003d0 98 02 77 3d 5c 52 90 3c f4 df 9a 3c 50 3f ab 3c
       0.060305208 0.017617397 0.018905617 0.020904213
0003e0 c0 fa 0f bd 4e 0a 97 bd d4 09 7b bd e0 43 5c 3c
       -0.035151243 -0.07375012 -0.06128867 0.013443917
0003f0 60 f1 4f 3c 18 90 7d 3c ac b8 c5 bd 50 eb d9 3c
       0.012691826 0.015476249 -0.09654364 0.026601464

lstm.bias_hh_l0 f4 [392]
000000 fe 2a c7 3d b0 12 10 bd 8b 3b cd bd 96 71 90 bd
       0.09724997 -0.03517407 -0.100211225 -0.07052915
000010 e7 37 5e bd 00 0c 7e bc c6 2a b5 3d a8 94 1c 3c
       -0.05425253 -0.015505791 0.08846049 0.009556927
000020 cc e0 b9 3d b8 18 a0 3c ec 05 96 3c 94 c1 03 bd
       0.0907608 0.019543037 0.01831337 -0.032167032
000030 54 79 70 3d 88 16 e5 bc 3a 74 4a bd 46 05 99 bd
       0.058709458 -0.027964845 -0.04942725 -0.07471709
000040 60 31 06 3d 8c e4 45 3d 68 69 b9 bc d8 bc 19 3c
       0.03276193 0.048313662 -0.02263327 0.009383403
000050 ca 4c 0a bd 8a fb bb 3d 90 e5 4f 3c 1a 51 1e bd
       -0.033764638 0.09178837 0.012689009 -0.038651563
000060 48 c6 05 bd 88 3a 07 bd 62 57 b0 3d 93 09 46 bd
       -0.0326598 -0.033014804 0.08610417 -0.048348974
000070 64 1f 1b 3d 23 c1 44 bd 7a d0 ce bd b8 db ed 3c
       0.037871733 -0.048035752 -0.100983575 0.029035434
000080 5c 62 8e bd 86 78 92 bd 0c 38 ec bc b0 9e a1 3c
       -0.06952354 -0.07151894 -0.028835319 0.019728988
000090 ea 13 90 bd 2a ae a1 3d 0c ad a5 3d 10 5d e8 bb
       -0.07035048 0.07894547 0.08089647 -0.007091172
0000a0 16 b0 8d bd f0 13 2d 3d 08 93 98 3d ba 0a bd 3d
       -0.06918351 0.042255342 0.07449919 0.092305616
0000b0 8c be b6 bd c4 c0 bb 3d 36 c2 95 bd e0 a1 9d 3b
       -0.08923063 0.091676265 -0.073124334 0.004810557
0000c0 77 13 5c bd 6d d8 b2 bd 50 30 6b 3d 62 82 99 bd
       -0.0537295 -0.08732686 0.05741912 -0.07495572
0000d0 66 0b b0 bd c0 c4 60 bc ac 06 2e 3d 00 5a 2e 3b
       -0.08595924 -0.013718784 0.04248683 0.0026603937
0000e0 40 49 e5 3b 84 b8 0d 3d bc b9 3e bd 94 1b 27 3d
       0.0069972575 0.034599796 -0.04656385 0.040797785
0000f0 7b 56 af bd e1 06 31 bd 46 4e bc bd 28 19 37 3d
       -0.08561417 -0.04321945 -0.09194617 0.044701725
000100 bc ae 4f 3d bc ab 82 3c 8b 1b 75 bd dc a1 82 bd
       0.05070375 0.01595103 -0.05984072 -0.063785285
000110 72 7f 76 bd dc 4f 8b 3d cc 72 cc 3d 32 9f ba bd
       -0.060180135 0.06802341 0.09982833 -0.09112395
000120 e4 ff cc 3d 70 b5 47 3c bc a2 24 3d b0 f2 1d 3c
       0.10009745 0.012189254 0.040194258 0.009640381
000130 8a 8f 2b bd 04 f6 bb bc 28 e4 b2 bc 18 8a 0b 3d
       -0.041884936 -0.022944458 -0.021837309 0.034067243
000140 9e f1 8e bd f0 6b 09 bd d2 40 af bd cd b9 62 bd
       -0.069796786 -0.033550203 -0.08557285 -0.055352975
000150 b0 50 91 bd 0c 8b 3d 3d 10 d0 2b 3d 5b 4f a6 bd
       -0.07095468 0.046275184 0.04194647 -0.081206046
000160 30 2e 44 3d 04 61 37 3d c0 ec e2 ba 80 c3 43 bc
       0.04789561 0.044770256 -0.0017312989 -0.011948466
000170 5b 6d c4 bd 90 a5 46 3c ae ff b9 bd 38 4e 83 bc
       -0.095911704 0.012124434 -0.0908197 -0.016028509
000180 0d 5e 26 bd 55 cf b3 bd 20 f6 9a 3c 4c a2 ab 3d
       -0.040617038 -0.0877978 0.01891619 0.08380565
000190 c8 f9 a4 3d 9a f0 c7 3d f5 80 36 bd eb 78 59 bd
       0.080554545 0.09762688 -0.044556577 -0.053093832
0001a0 52 cf 13 bd 5b 0d c9 bd 95 d6 5f bd c7 9b 91 bd
       -0.036086388 -0.098170005 -0.054648 -0.0710979
0001b0 10 03 8b 3b e8 3c ad 3c e4 9c a0 3c d4 30 14 3d
       0.0042423084 0.021147206 0.019606061 0.03617938
0001c0 28 16 a7 3d c8 cb 43 3d a0 a8 9b bb 10 05 ce 3d
       0.08158523 0.047801763 -0.0047503263 0.10059559
0001d0 b5 b9 2e bd 49 a6 87 bd dc 17 bb bd bc b8 d5 bc
       -0.042657573 -0.06623513 -0.0913541 -0.026089065
0001e0 04 4a 9b bc 28 0e a2 bd 74 38 9c 3d 00 2f de 39
       -0.018956192 -0.07912856 0.07627955 0.00042378157
0001f0 e2 e7 90 3d 52 18 93 bd 7c 66 48 3d 28 85 1c 3d
       0.07075478 -0.07182373 0.04892586 0.038212925
000200 ca f6 80 3d 10 2e fb 3b 90 d7 24 bc b4 a4 cc bd
       0.06297071 0.007665403 -0.01006116 -0.09992352
000210 f8 4d 4c 3c e4 b9 a1 bd 10 e1 b3 bc 7a ce 83 3d
       0.012469761 -0.07896784 -0.021957904 0.06435867
000220 94 33 8a bc 10 dd c6 bb 78 96 c0 3c ae e9 94 bd
       -0.016870297 -0.006068833 0.02350925 -0.07271133
000230 48 57 81 3c a4 6e c3 3d ec 8f 83 bd 30 36 7c 3c
       0.01578869 0.095425874 -0.06423935 0.015393779
000240 06 e7 ab 3d b0 8e d9 3b 98 1d e5 3c 0a ee ab bd
       0.083936736 0.006639324 0.027968213 -0.08395012
000250 58 01 21 3c 0a 8b 99 bd 6e 0b 0e bd 19 5d 77 bd
       0.0098269805 -0.07497223 -0.03467887 -0.06039152
000260 17 d6 53 bd 55 16 1f bd 90 df 43 bc c0 29 66 3d
       -0.051717844 -0.038839657 -0.011955157 0.05619216
000270 f0 12 c6 bc 72 08 87 3d 68 21 ba bd 4a 52 42 bd
       -0.024178952 0.06593408 -0.09088403 -0.04744176
000280 68 b8 56 3d 80 df e2 3b 40 e1 8b bc b6 46 ce bd
       0.052421957 0.006923616 -0.017075181 -0.10072081
000290 b2 ef 2a bd 24 29 43 3d b9 5c 21 bd 24 88 dd bc
       -0.041732498 0.047646657 -0.039395068 -0.027042456
0002a0 6e 5e 97 3d a4 cb 7b bd ec f6 82 3d 3a 82 ab 3d
       0.07391058 -0.061473504 0.06394753 0.08374448
0002b0 f8 eb 24 bd e4 38 a0 bd d4 71 bb 3c e0 ba 0e bd
       -0.0402641 -0.07823351 0.022881426 -0.034846187
0002c0 fc 24 49 3d ac e9 bf bd 74 f6 dc bc d0 71 af bd
       0.049107537 -0.09370741 -0.026972987 -0.0856663
0002d0 ec 35 d6 bc c0 9c a6 bd cc e9 bf 3c c0 4f a5 3d
       -0.026148759 -0.081353664 0.023426913 0.08071852
0002e0 9a c3 11 bd 26 80 ad bd 00 73 78 3a c1 9d 88 bd
       -0.03558693 -0.08471708 0.00094775856 -0.06670714
0002f0 63 bf 5f bd a1 94 60 bd 3e 79 7f bd bc fb c1 3c
       -0.05462588 -0.054829244 -0.062371485 0.023679607
000300 16 5a 9d 3d 22 b2 14 bd a8 ea f3 3c e4 12 bd 3d
       0.07683198 -0.036302693 0.029774979 0.09232119
000310 78 a2 39 bc a5 0c 75 bd 60 1a 7d bc 20 f9 4a 3c
       -0.0113302395 -0.059826512 -0.015448183 0.012388498
000320 4b ad c6 bd 00 4a 2f bb 50 d5 e7 3c d0 b0 4d 3d
       -0.09701022 -0.0026746988 0.028299958 0.05021745
000330 f0 0b 34 3d b8 d5 02 bc 2e e4 8c bd 5c de aa 3d
       0.043956697 -0.007985525 -0.06879459 0.08343193
000340 f3 8b 32 bd f0 7d 62 3c c8 2a 6b 3d 10 82 9a bb
       -0.043590497 0.013823971 0.057413846 -0.0047152117
000350 94 16 86 3c d4 6c 97 3c 09 dd 47 bd a0 5e 64 3c
       0.016368188 0.01848451 -0.04879478 0.013938576
000360 ec 0c 51 3d 28 d1 ef bc f0 31 89 3d 40 b7 1a 3d
       0.051037714 -0.029274538 0.06698978 0.037772417
000370 bc 92 03 3d bc 90 9c 3d 5e c1 16 bd 58 56 64 bc
       0.03212236 0.076447934 -0.036805503 -0.013936602
000380 c0 86 2e 3d 50 12 94 3d 00 dc 9c b9 e0 c8 83 bc
       0.042608976 0.07230055 -0.0002991855 -0.016086996
000390 2c ad 29 3d 68 30 bc 3d 48 a7 6b 3d 74 1a 94 bd
       0.041424915 0.0918892 0.05753258 -0.07231608
0003a0 46 f2 53 bd c0 53 a5 bd c8 e0 50 bc 40 13 c2 bb
       -0.05174472 -0.08072615 -0.0127489045 -0.005922705
0003b0 9e c9 b4 bd 28 66 80 bd 56 81 b0 bd e8 f6 38 3c
       -0.08827518 -0.06269485 -0.08618419 0.011289336
0003c0 f9 21 a9 bd 00 aa 4b bc e2 30 bb 3d 1c a1 58 bd
       -0.08258433 -0.012430668 0.09140183 -0.05288802
0003d0 14 43 22 3d 80 e1 dc ba e1 82 ba bd 7d d4 b1 bd
       0.039614752 -0.0016851872 -0.091069944 -0.08683107
0003e0 80 e7 78 3a 3e 26 95 3d 64 f2 cd 3d 28 bf 63 3d
       0.00094949454 0.07282685 0.10055998 0.055602223
0003f0 d8 84 6d 3d 35 78 af bd e6 97 a8 bd d8 c6 be 3d
       0.057988018 -0.085678495 -0.08232097 0.0931527

lstm.weight_ih_l1 f4 [392, 98]
000000 ac e7 84 3d 48 8c bc 3d ac 34 7b 3d 6c 78 89 3d
       0.064895004 0.09206444 0.06132953 0.06712422
000010 02 be 9a 3d 14 23 4d bd d8 81 a1 3d 90 c7 01 3c
       0.07555772 -0.05008228 0.07886094 0.007921115
000020 72 ed b3 bd 1c 2c 9b bd 70 f7 7b 3d 8a 58 ca bd
       -0.087855235 -0.075767726 0.06151527 -0.09880169
000030 18 bf 19 3d b4 83 bd bd be fb c2 3d 00 68 b3 3b
       0.037535757 -0.09253636 0.09520672 0.0054750443
000040 80 12 c4 3c 68 22 fc 3c 10 93 3d bd 80 f3 7d bd
       0.023934603 0.030778125 -0.046282828 -0.061999798
000050 88 fe 79 3c 08 52 87 bd 1f dd 94 bd 9c 0f a8 bd
       0.015258439 -0.06607443 -0.07268738 -0.08206102
000060 54 59 8b 3c 32 d6 84 3d f1 e5 9e bd e8 28 ce 3d
       0.017010368 0.06486167 -0.077587016 0.10066396
000070 60 eb 90 bd f0 87 bb 3d 4c b6 0f 3d a4 29 b7 3d
       -0.07076144 0.091567874 0.03508596 0.08943489
000080 80 ef 89 bd 50 bb 32 bc 9a 32 c3 3d 90 24 82 bd
       -0.06735134 -0.010908917 0.09531136 -0.0635463
000090 40 7c bb bd 2a 43 8f 3d c4 92 ba 3c 4f 49 80 bd
       -0.09154558 0.069952324 0.022775061 -0.062639825
0000a0 40 c8 76 3d c0 f8 c5 bb 14 71 45 bd 47 ed c8 bd
       0.060249567 -0.006041616 -0.048203543 -0.09810882
0000b0 64 ea aa bd d8 d5 04 3d 90 82 b5 bc 35 6e bc bd
       -0.08345488 0.0324305 -0.022156984 -0.09200708
0000c0 0a 0e 9f 3d 54 3f a4 bc 74 6a 49 3d 91 a0 71 bd
       0.077663496 -0.020049728 0.049173787 -0.05899102
0000d0 14 db fd bc 9e ff ae bd 67 96 a5 bd 03 ae c4 bd
       -0.030988254 -0.08544849 -0.080853276 -0.096035026
0000e0 d4 3d 1b 3d b4 b1 6e 3d a8 07 bf bd d0 7f 1b bd
       0.03790076 0.05827494 -0.09327632 -0.03796369
0000f0 f4 ae 91 3c c8 de c2 3c 9a 2b 96 3d c8 ca 25 3c
       0.01778362 0.023787871 0.07332535 0.010119148
000100 e3 0d a2 bd 1c f9 50 bd f0 d8 c7 bc 80 39 27 bc
       -0.07912805 -0.05101882 -0.024395436 -0.01020658
000110 5d e0 99 bd 3a b1 ac bd c0 b7 cf 3b 96 dc 84 bd
       -0.07513497 -0.08432241 0.0063390434 -0.06487386
000120 8c 59 c7 3d d4 0f 86 3c 80 49 83 bb a6 6a 12 bd
       0.097338766 0.01636497 -0.0040065646 -0.03574624
000130 62 37 84 3d 34 a2 83 3c d0 44 c4 3b 44 5b 8c bd
       0.06455876 0.016068555 0.0059896484 -0.06853345
000140 08 5a df 3c 44 3e e1 bc 60 4c 30 3d a4 69 b7 3c
       0.02726461 -0.02749551 0.043041587 0.02238924
000150 e0 95 36 3d 80 0b 6e 3d 56 2b 93 3d 4c d1 61 3d
       0.044576526 0.058116436 0.07186 0.05513124
000160 58 ce 1c bc 46 c4 05 bd 52 10 44 bd a0 aa 15 bb
       -0.009570681 -0.032657884 -0.047867127 -0.0022837296
000170 74 da a4 bc 40 2f 7c bb a4 61 c2 3d d8 34 63 bc
       -0.020123698 -0.0038480312 0.0949128 -0.013867579
000180 a9 3b 42 bd b0 40 be 3c 14 61 03 3d 8c 26 8e 3d
       -0.047420178 0.023224205 0.032075003 0.06940946
000190 24 81 aa 3d c8 c6 11 3d 38 4b 6e 3d 39 da 3a bd
       0.08325413 0.035589963 0.058177203 -0.04561827
0001a0 f4 98 c9 bd 5c dc 0b 3d c4 63 bf 3d 58 8d 7a bc
       -0.098436266 0.034145698 0.09345201 -0.015292488
0001b0 b6 ff 98 bd 80 00 9b 3a a2 2b 50 bd 1c b7 c4 bc
       -0.07470648 0.001182571 -0.05082286 -0.024013095
0001c0 0a 76 b9 3d dc 63 c2 bc 38 a4 e9 bc 38 a1 52 3d
       0.09055717 -0.023729257 -0.028520688 0.05142328
0001d0 9e 7f 97 3d ce 9b 8a 3d 68 6d cf 3c 64 e1 8e 3c
       0.07397388 0.06767999 0.025320724 0.017441459
0001e0 ea b7 84 3d 35 ce 2b bd f8 5d 29 3d a0 56 d4 3c
       0.06480391 -0.0419447 0.04134938 0.025920212
0001f0 84 2f 72 3d 1e 05 c6 bd b4 46 cf bc eb c3 73 bd
       0.059127346 -0.09668945 -0.025302269 -0.059513014
000200 42 53 85 3d 40 70 1e 3b c0 14 d1 3c 8c 4e e4 bc
       0.06510021 0.0024175793 0.02552259 -0.027869485
000210 b0 66 0a 3c 4c 9e 48 3d d1 97 a4 bd 48 bf 20 3c
       0.008447334 0.04897909 -0.08036769 0.00981123
000220 4e 91 0c bd 78 fd 7a 3d 94 a5 1f 3d f4 01 16 3d
       -0.03431826 0.061276883 0.038976267 0.036622956
000230 5b 3e c3 bd 46 62 84 3d e0 5f 4b bb c8 71 97 3d
       -0.09533378 0.06464057 -0.0031032488 0.07394749
000240 c9 2c 55 bd ea d0 46 bd 80 d1 ae 3d 80 26 a5 3a
       -0.052044664 -0.04853908 0.08536053 0.0012599975
000250 a0 0a eb 3c 04 dc d5 bc 3b f2 a5 bd 0e e4 97 bd
       0.02869159 -0.026105888 -0.081028424 -0.07416545
000260 ec 09 35 3d aa cd 8d 3d 18 52 ae 3c a1 7a 99 bd
       0.044198915 0.06923993 0.02127938 -0.07494093
000270 6c a6 2e 3d 86 10 2c bd b0 f9 3f bd 5e 84 85 3d
       0.04263918 -0.042007945 -0.04686898 0.06519388
000280 ed 4d 27 bd 5e 3f b8 3d a0 77 c2 bd 4a 59 1c bd
       -0.0408458 0.08996461 -0.09495473 -0.03817109
000290 0c ee 9f 3d 64 8e 63 3d a2 e7 b3 bd 90 42 05 bc
       0.07809076 0.055555716 -0.08784415 -0.0081335455
0002a0 6c 89 9b 3d 02 c6 2c bd 08 58 39 3d 8c fb b4 3d
       0.075945705 -0.042181022 0.04524997 0.08837041
0002b0 76 fa cc 3d 1e 43 89 bd 78 6a cd 3c e8 f2 18 3d
       0.10008709 -0.06702255 0.025075182 0.03734103
0002c0 b3 0e 46 bd 2d e4 8a bd 90 7a c2 3d 92 0a 17 bd
       -0.048353862 -0.06781802 0.09496033 -0.036875315
0002d0 48 58 0b 3c dc 39 d6 bc de cd 83 3d 54 b8 8c 3d
       0.008504935 -0.026150636 0.064357504 0.06871095
0002e0 c0 af c3 3d 20 fc 67 3d d0 66 95 3d 00 97 2f ba
       0.09555006 0.05663693 0.072950006 -0.0006698221
0002f0 e0 96 8e 3d 80 30 8b 3a 96 bb 10 bd e0 dd cb 3c
       0.06962371 0.0010619313 -0.035335146 0.024886072
000300 e0 39 4a bb 4a 4f 86 bd ac 4a 18 bd ee d8 3c bd
       -0.003085725 -0.06558092 -0.037180588 -0.046105318
000310 e4 8a 25 bd 46 dd 3b bd b8 68 9f 3c 7d ee b1 bd
       -0.04041566 -0.04586532 0.019459113 -0.08688066
000320 80 ef 2d 3d 40 de a5 bb 80 18 67 bc 8e d6 b9 bd
       0.042464733 -0.0050618947 -0.014104962 -0.09074126
000330 d0 d9 f7 3b 30 3f 91 3d 28 38 9b 3d 70 dc 75 bc
       0.007563807 0.0709213 0.0757907 -0.01500617
000340 78 2b 97 3d bc 38 bb 3d b8 bd c3 3d 64 6e 85 3c
       0.07381338 0.091416806 0.0955767 0.01628799
000350 3c 0f 82 3d 43 9a b0 bd e8 8c a4 3c c0 72 3a 3b
       0.06350562 -0.08623173 0.02008672 0.0028449744
000360 2b 5f cb bd b3 ad 9e bd 00 1c 9d 3d 18 1b 3d bc
       -0.09930261 -0.07747974 0.07671356 -0.011542104
000370 e8 4f 09 3c 28 79 1a 3c e4 35 5f 3d b0 22 0a 3d
       0.008380868 0.0094283 0.054494753 0.033724487
000380 ba a1 4c bd 4c cb 70 3d 54 60 b2 3d 56 6c c6 bd
       -0.049958922 0.05878763 0.087097794 -0.09688632
000390 9c be 29 3d e4 c2 8d 3d b8 a0 c9 bc 6b b7 ce bd
       0.041441545 0.06921938 -0.02461277 -0.10093578
0003a0 ce eb ad 3d 3c 4c f2 bc 02 50 93 bd 9c 9b b9 bc
       0.08492242 -0.029577367 -0.07192995 -0.022657208
0003b0 c8 87 7a 3d a0 a0 e9 bc 80 7c 05 3c 5f 77 5b bd
       0.061164647 -0.028518975 0.008147359 -0.053580638
0003c0 b6 f9 b8 bd a2 64 89 bd a4 5c 8f bc 59 a3 5d bd
       -0.090320036 -0.06708647 -0.01750023 -0.05411086
0003d0 d8 e7 05 bd a0 88 52 bd d6 fc 02 bd bd 45 ce bd
       -0.032691807 -0.051399827 -0.031979404 -0.10071895
0003e0 4c 3b b9 3d 7b c2 34 bd ca 5b 94 3d 30 37 fe 3c
       0.09044513 -0.044130784 0.0724407 0.031032175
0003f0 c4 e1 39 3d 98 34 1b bd c0 95 f5 bc 10 43 f8 3b
       0.045381323 -0.037891954 -0.029978633 0.007576354

lstm.weight_hh_l1 f4 [392, 98]
000000 d8 5d 51 3c 58 f3 c2 3c c0 06 af 3d d0 38 ce 3d
       0.012778722 0.023797676 0.08546209 0.1006943
000010 8c 82 02 bd a8 73 ab 3d f0 83 cf 3c 58 e5 87 3d
       -0.03186278 0.08371669 0.025331467 0.06635541
000020 2a 55 62 bd 76 a7 a6 3d f0 b7 c1 bb 4c 47 7e 3d
       -0.055257 0.081374094 -0.0059118196 0.062079713
000030 b7 24 b1 bd b4 e7 cd 3d 05 8b 67 bd 00 71 7e ba
       -0.08649581 0.100539595 -0.056529064 -0.00097061694
000040 5c b5 ea bc 88 20 31 bc 48 5b fc 3c 88 4d 27 3d
       -0.028650932 -0.010810979 0.030805245 0.040845424
000050 d0 84 4e bc 9f 6f 7e bd 01 05 ab bd 14 a6 ae bc
       -0.012604907 -0.06211817 -0.08350564 -0.021319427
000060 18 ea c2 bd 25 e4 53 bd f8 ce 4f 3c 01 8c 42 bd
       -0.09517306 -0.051731247 0.012683623 -0.0474968
000070 de 13 aa bd 0c 65 19 3d c0 d9 4f 3d 38 f2 a3 3d
       -0.083045706 0.03744988 0.050744772 0.08005184
000080 0e 4f ce bd a0 10 e3 bc 56 a6 c4 bd fc 8b 82 bd
       -0.10073672 -0.027717888 -0.096020386 -0.06374356
000090 20 9b 71 bc 34 b5 af bd 50 d0 ce 3d f9 4e 9b bd
       -0.014746457 -0.08579484 0.10098326 -0.07583422
0000a0 9e 8b a4 3d e8 32 14 3c b8 45 94 bc 94 16 08 3d
       0.08034442 0.00904534 -0.01809965 0.033224657
0000b0 a3 c3 9c bd b8 52 d3 bc cf 1e a7 bd 12 25 a7 3d
       -0.07654502 -0.02579628 -0.08160173 0.081613675
0000c0 24 6a 7a 3d 80 66 e6 bc c4 a6 91 bd 50 9a 62 3d
       0.06113638 -0.028125048 -0.07111886 0.055322945
0000d0 98 6e 22 3d f0 6c 23 3c 98 d3 5a 3d 51 56 95 bd
       0.03965625 0.009974703 0.053424448 -0.07291854
0000e0 d4 a0 46 3d d0 39 fb bc 18 50 c3 3c f6 fc 21 bd
       0.04849322 -0.030667216 0.023841903 -0.039547883
0000f0 a6 29 c0 3d 18 1d 90 3c d2 bf a9 bd 0a 19 bc 3d
       0.09382944 0.017591998 -0.0828854 0.09184463
000100 e8 ac 19 bd e0 8b 10 bb 42 cf b3 3d 1a 30 04 bd
       -0.037518412 -0.0022056028 0.08779766 -0.032272436
000110 13 bc a2 bd 70 40 c3 3d b1 87 71 bd cf 86 c9 bd
       -0.079460286 0.09533775 -0.058967296 -0.09840166
000120 80 ea 4b bd ac 2e 18 3d cc 60 4f 3d 35 a7 9a bd
       -0.049784184 0.037153885 0.050629422 -0.075514235
000130 94 f6 5c 3d 28 6b b9 bd dc 70 3a 3d 4c 55 c5 bc
       0.053946093 -0.090536416 0.045517787 -0.024088524
000140 d2 89 bb 3d a4 a9 c4 3d 2a 84 c5 3d 54 92 a7 bc
       0.091571465 0.09602669 0.09644349 -0.020455517
000150 c2 36 a8 bd 5c 80 df bc 60 2e a3 3b dc b8 52 bd
       -0.08213569 -0.027282886 0.0049798936 -0.051445827
000160 f0 e1 59 3d dc e6 09 bd a0 11 20 3d c0 43 6f 3c
       0.053193986 -0.03366743 0.03907931 0.014603555
000170 c0 05 80 3a 10 b3 89 bc 08 55 00 3d 7d 75 2c bd
       0.0009767339 -0.016809016 0.031331092 -0.042104233
000180 c8 80 b8 3d 00 de cc bb 78 04 7d 3d 29 7b 9e bd
       0.09008938 -0.0062520504 0.06177184 -0.07738335
000190 98 02 3e 3c 12 1d a0 3d 10 4c ae 3d e0 22 b9 3d
       0.011597298 0.07818045 0.085106015 0.09039855
0001a0 4c a7 a2 3c 80 ce d0 bc 80 28 28 bc 74 c9 b1 bd
       0.019855164 -0.025489092 -0.010263562 -0.08681002
0001b0 10 06 d9 bb 2c 4d 72 3d 23 9f 97 bd e0 ae 44 bb
       -0.006623037 0.059155628 -0.074034 -0.003001146
0001c0 74 d3 c3 3d e0 0c e4 3b 60 ae 4d 3d cc ea 08 3d
       0.09561816 0.0069595426 0.050215125 0.033427045
0001d0 32 8d 90 3d bb 04 6d bd 1a b8 3a bd 04 a3 ab bc
       0.07058181 -0.05786584 -0.04558573 -0.020951755
0001e0 20 98 12 3b d0 0f 6e bc 97 bd a1 bd 90 4d 9e 3d
       0.0022368506 -0.014530137 -0.078974895 0.077296376
0001f0 7e 66 05 bd e4 f8 19 3d 10 d9 e0 3c ae 5e 87 3d
       -0.032568447 0.037590876 0.027447253 0.066098556
000200 32 c2 89 bd 03 ed 89 bd d2 5f 00 bd 12 40 ca 3d
       -0.06726493 -0.067346595 -0.03134138 0.09875502
000210 18 c2 66 3d 78 f1 97 bd f6 ed 38 bd 30 8d 1a bc
       0.056337446 -0.074191034 -0.045148812 -0.009433076
000220 54 46 c5 3d f0 7c ba bd b0 22 89 3d 24 bd bc 3c
       0.09632555 -0.09105861 0.06696069 0.023039408
000230 94 3c b6 bc 10 0c f7 3b 60 7f ef 3c 6a cf a8 bd
       -0.022245683 0.0075392798 0.029235542 -0.08242686
000240 9a ac 21 bd 44 e6 50 3d 1b c6 b7 bd df 7d c7 bd
       -0.039471246 0.05100085 -0.089733325 -0.09740805
000250 48 2f 58 3d 90 a5 db bb 4b 4f 37 bd 36 72 c0 3d
       0.052779466 -0.006703086 -0.044753354 0.09396784
000260 a0 1a ee 3b 98 32 a1 bc e6 e4 b7 bd 4d 0e 93 bd
       0.0072663575 -0.019677445 -0.08979206 -0.07180462
000270 18 84 ab bc 20 33 a0 3c 80 b7 5c 3d 05 30 30 bd
       -0.02093701 0.019555628 0.053885937 -0.043014545
000280 18 45 9a bc 0c 78 5c 3d 58 f4 21 3d 90 c5 8a 3b
       -0.018831775 0.053825423 0.039539665 0.004234977
000290 8a c7 bf 3d 10 18 f5 bc e6 39 40 bd c0 ea d5 3a
       0.09364231 -0.0299187 -0.046930216 0.0016320571
0002a0 30 dd 2a 3d 59 68 6d bd a4 a8 93 3d e0 da c2 3c
       0.041714847 -0.05796084 0.072099 0.023786008
0002b0 d5 48 4d bd cc 92 85 3d c8 10 13 3d 90 3c 88 3d
       -0.050118286 0.0652214 0.035904676 0.066521764
0002c0 10 81 a0 bb 60 d5 a8 3d 42 c2 a5 3d ea ff a2 bd
       -0.004898198 0.08243823 0.08093692 -0.07958968
0002d0 6a 04 96 3d 28 d8 c4 3c 90 85 d1 bb 72 eb a9 3d
       0.07325061 0.024028853 -0.0063940957 0.08296861
0002e0 52 fd be 3d 60 8e d2 3c 7a 8c b8 bd ec e2 a5 bc
       0.09325661 0.025702655 -0.09011169 -0.020249806
0002f0 d0 23 dd 3c 80 5d ca bb b8 f0 84 3d b8 4d bf bd
       0.026994616 -0.006175697 0.06491226 -0.093409956
000300 ae cf 3e bd 00 61 de 39 00 0b a3 3c 9e ff 9d 3d
       -0.046584778 0.0004241541 0.019902706 0.07714771
000310 f8 86 2a bc 80 dc f4 3a 3c 4a f5 bc 64 0a 31 3d
       -0.010408156 0.0018681437 -0.029942624 0.0432228
000320 70 d8 68 3d e1 8f 4f bd 68 e4 0d 3d a0 d9 6d 3c
       0.056847036 -0.050674323 0.034641653 0.014517218
000330 77 83 a6 bd 40 3f 24 3c 68 a3 fe 3c 34 8a 96 bc
       -0.08130544 0.010024846 0.031083778 -0.018376447
000340 1f f9 86 bd d4 68 4e bd 8c 23 74 3d 40 5b b3 bb
       -0.06590485 -0.05039294 0.059604213 -0.0054735243
000350 50 f2 ee 3c 94 f0 20 3d 6e ab a1 bd 68 09 6c 3d
       0.029168278 0.039291933 -0.07894026 0.057626158
000360 50 bf 78 bc d8 33 db 3c 44 7d be 3d 48 c7 aa 3c
       -0.015182331 0.02675812 0.09301236 0.020846978
000370 70 3b a4 bd 04 90 40 3d b4 6f 26 bd 8a 1f 1a bd
       -0.08019149 0.047012344 -0.040633872 -0.037627734
000380 08 16 4c 3d c8 d2 19 bc 90 f0 5b 3d ef c9 4b bd
       0.049825698 -0.009388633 0.053696215 -0.049753126
000390 14 d3 9d bc c8 8d e1 3c 0d 19 98 bd c4 9b 0e 3d
       -0.019265689 0.027533427 -0.07426653 0.03481652
0003a0 5c e1 1e 3d cc ad b8 3c 15 ed ad bd ef 44 76 bd
       0.03878914 0.02254381 -0.084924854 -0.060124334
0003b0 e4 6d 3b 3d b0 7e f7 3c 61 59 4a bd b3 87 7f bd
       0.045759097 0.030211776 -0.049401645 -0.062385272
0003c0 80 ec 93 3d 3e ef 8c bd ba a4 83 bd ec 7e c3 3c
       0.07222843 -0.06881569 -0.064279035 0.023864232
0003d0 a0 d8 66 3d 96 1d 9e 3d 8c 28 e9 bc dc 8c a5 bd
       0.056358933 0.07720487 -0.028461717 -0.080835074
0003e0 98 14 44 3c 60 ee c7 3c e8 73 28 3c 5b 1c 55 bd
       0.011967801 0.024405658 0.01028154 -0.052028995
0003f0 68 1d 35 bc 88 19 0f 3d 78 4a ce 3c c0 3c d4 bb
       -0.011054374 0.034936458 0.025181994 -0.0064769685

lstm.bias_ih_l1 f4 [392]
000000 8e 20 1c bd cc b7 c5 bd 38 a1 17 bd 90 d2 33 3c
       -0.038116984 -0.09654197 -0.037018985 0.010975495
000010 f8 a8 73 3d 9a 9c a7 bd 00 20 d7 bc 10 1b 58 3d
       0.059487313 -0.08184166 -0.026260376 0.052760184
000020 f3 e2 91 bd d1 fc be bd 62 f9 85 bd 1e e8 a0 3d
       -0.07123365 -0.09325565 -0.065417066 0.07856773
000030 00 1d 80 bd 77 c5 c4 bd 31 44 c2 bd 1c ae c7 3d
       -0.06255531 -0.09607976 -0.09485663 0.097500056
000040 52 ba 9d 3d 1c f8 6c 3d a4 3b 08 3d 40 ce 9e 3c
       0.077015534 0.057853803 0.033260003 0.019385457
000050 a8 60 0a 3d a0 43 93 3c f0 53 b3 3d 8c 4b 33 3d
       0.033783585 0.017976582 0.08756244 0.04377322
000060 0e 03 84 3d d2 9d a9 3d 30 c9 95 3b b0 1a c7 3d
       0.06445895 0.08282055 0.0045711026 0.09721887
000070 b4 e2 54 3d 28 3c 2f 3d 3e ce 12 bd 4c c6 ac 3d
       0.051974013 0.04278198 -0.03584122 0.084362596
000080 0e a3 aa bd 22 88 65 bd 75 c2 c6 bd 40 68 71 3d
       -0.083318815 -0.05603803 -0.097050585 0.05893731
000090 60 69 b5 bb 40 4f d0 3c 02 f3 76 bd 94 0b 2e 3d
       -0.0055362433 0.025428414 -0.060290344 0.04249151
0000a0 e8 6b 73 3c 90 08 f8 3c 70 63 ba 3b 40 03 9e bd
       0.01485727 0.03027752 0.0056881234 -0.07715464
0000b0 88 80 55 3c dc 5b bf bd 98 56 90 3c 4a 07 34 bd
       0.0130311325 -0.09343693 0.017619416 -0.043952264
0000c0 e8 6c ac bc 20 5b 82 bc a8 5e 67 3d 8a 72 a3 bd
       -0.021048024 -0.015912592 0.056486756 -0.07980831
0000d0 f0 e0 9f 3b 60 2b f4 bc ae 0b 9e bd 53 73 64 bd
       0.0048791096 -0.029805839 -0.077170715 -0.055774044
0000e0 70 5c 6a 3d e4 1c 72 3d 90 6a 3b 3c 7a 87 11 bd
       0.05721706 0.059109583 0.011438981 -0.03552959
0000f0 d8 3c 43 3c 98 d3 2d 3d 20 b0 8c 3c c8 de 3d bc
       0.011916362 0.04243812 0.017173827 -0.01158876
000100 20 13 4c bb 66 19 a8 3d 34 f7 e8 bc ac b8 11 3d
       -0.003113933 0.08207969 -0.028438188 0.035576507
000110 f0 e5 30 3d 48 c9 7a 3d 60 a9 ba bd 00 b0 6d 38
       0.043188035 0.061227113 -0.09114337 5.6669116e-05
000120 30 d4 27 bd b6 e9 ab 3d 6c 4a 85 bd 28 80 6c 3d
       -0.040973842 0.08394186 -0.065083355 0.057739407
000130 f8 cc 7a 3d bb de 75 bd 68 bc e4 3c d9 57 93 bd
       0.06123063 -0.060026865 0.02792187 -0.0719449
000140 05 99 8e bd 74 5a 0f bd b6 29 b9 3d 2f 8b 24 bd
       -0.0696278 -0.034998372 0.09041159 -0.0401718
000150 3c 4b 53 3d 18 ae 40 3c 0c 25 14 3d 9c 47 22 bd
       0.05158542 0.011760257 0.036168143 -0.039619073
000160 f3 ca b6 bd d0 7f 35 3d 6c b9 c6 bd 20 d6 86 3b
       -0.08925428 0.044311345 -0.09703335 0.004114881
000170 80 cd 83 3d da 26 9c 3d 5c d7 7d 3d 40 52 31 3b
       0.064356804 0.07624598 0.06197296 0.0027057081
000180 47 43 53 bd 28 42 67 bc 7a 5c ce 3d cc d5 c0 bd
       -0.051577833 -0.014114894 0.10076232 -0.094157785
000190 d8 11 bc 3d 5a c3 aa 3d fa 20 80 bd 1c c7 87 3d
       0.09183091 0.083380416 -0.0625629 0.06629774
0001a0 b8 d8 d5 3c 28 42 c5 3d 00 a0 25 b9 80 b1 c3 bc
       0.026104316 0.09631759 -0.00015795231 -0.02388835
0001b0 c8 42 a8 bd f4 bb 64 3d 3c 7d 07 3d 70 cc cf bb
       -0.082158625 0.05584331 0.033078417 -0.0063415095
0001c0 58 d9 c7 bc 14 28 c2 3c 99 4f b9 bd b4 ea 6d 3d
       -0.02439563 0.023700751 -0.09048385 0.05808516
0001d0 be 1d 8c 3d 74 cc 91 3d 4c d0 a1 bd e0 4b e2 bc
       0.0684161 0.071190745 -0.079010576 -0.02762407
0001e0 61 ae 41 bd 6c a4 1f 3d fc c3 9d bd 18 1b 76 3d
       -0.04728544 0.038975164 -0.07703397 0.060084432
0001f0 58 17 c5 bd 90 73 07 3d d0 2a 85 bd 4a f9 c2 3d
       -0.09623593 0.033069193 -0.065023065 0.09520204
000200 64 12 98 bd c0 89 82 3b 70 c8 aa 3b 79 b5 91 bd
       -0.07425383 0.0039837062 0.0052118823 -0.07114691
000210 c7 77 9e bd d5 e6 71 bd f8 73 87 bd 00 a5 71 ba
       -0.077376895 -0.05905803 -0.06613916 -0.00092180073
000220 70 e5 40 3d d2 c1 8b bd 75 36 c9 bd 58 63 cc 3d
       0.04709381 -0.06824078 -0.0982484 0.09979886
000230 da ef be 3d 6e 70 1c bd c0 4f 5a 3d d6 2e 92 bd
       0.09323092 -0.03819316 0.05329871 -0.071378395
000240 b0 c7 b6 3b cc 8d b6 bc 90 5c b1 3c 04 ae 33 3d
       0.005578004 -0.02228441 0.021650583 0.043867126
000250 7f 54 cc bd cc 81 7b 3d fc f9 14 bd dd 33 52 bd
       -0.09977054 0.06140308 -0.036371216 -0.051318992
000260 f9 b4 51 bd 48 99 34 bd b6 8e 9a 3d 83 fb 37 bd
       -0.05119798 -0.044091493 0.07546751 -0.044917595
000270 fd 01 56 bd 56 1c 8b 3d 3a f3 82 3d 62 df b1 3d
       -0.05224799 0.06792514 0.06394048 0.08685185
000280 20 13 63 3d 5f d1 b3 bd 80 8a bc 3d 04 55 c4 bd
       0.05543816 -0.08780169 0.09206104 -0.09586528
000290 d6 f9 60 bd 46 b8 37 bd 1e 56 9e 3d d0 7c ea 3b
       -0.054925762 -0.04485347 0.07731269 0.007155992
0002a0 94 f9 20 3d 46 b4 8a bd a0 88 38 3d 80 0f 59 3d
       0.039300516 -0.06772666 0.04505217 0.052993298
0002b0 d0 22 bc 3d 80 43 e5 bb aa 8d 1c bd 40 d9 7e bc
       0.091863275 -0.006996572 -0.03822104 -0.015554726
0002c0 75 f0 7d bd e7 dd 99 bd fc f5 9d 3d f8 c1 8b bc
       -0.061996896 -0.07513028 0.077129334 -0.017060265
0002d0 6e f1 8a 3d 4c 14 a1 3d a6 78 8a 3d 56 d3 8e bd
       0.0678433 0.078651994 0.06761293 -0.06973903
0002e0 56 9a 24 bd 48 65 6c 3d d4 0f ce bc 19 0c 72 bd
       -0.04018625 0.057713777 -0.025154032 -0.05909357
0002f0 23 47 2b bd 10 21 b7 3d 60 71 84 bd ca 05 b3 bd
       -0.041815888 0.08941853 -0.06466937 -0.087413386
000300 e8 b1 01 3d 18 c8 12 3c c0 2b be 3d 6c a2 87 3c
       0.031663805 0.008958839 0.092856884 0.016556941
000310 e8 e4 f5 3c 18 38 7a 3c 80 2a 61 bc 40 07 9e bd
       0.030016378 0.015272163 -0.013743043 -0.077162266
000320 3e 70 98 3d 60 de be bd a8 af 42 3d 57 bd 4e bd
       0.074432835 -0.093197584 0.0475308 -0.050473537
000330 a8 66 20 bc e8 16 7c bc 6a 60 9f bd c0 47 f4 ba
       -0.0097901 -0.015386321 -0.077820614 -0.0018637106
000340 00 98 09 3b c4 84 c9 3d 60 87 0b 3d 90 cc 9e 3b
       0.002099514 0.09839776 0.03406465 0.004846163
000350 c8 3f 00 3d 5b fb 64 bd 06 da 19 bd f8 09 72 3d
       0.031310827 -0.055903774 -0.03756144 0.05909154
000360 d1 ce 85 bd c8 ae 72 bd 48 a5 04 bc 58 cd 57 bd
       -0.06533588 -0.059248716 -0.008096047 -0.052686065
000370 77 80 9d bd 1a 8f 0c bd 00 72 38 3c e0 8c 65 3b
       -0.07690518 -0.03431616 0.0112576485 0.0035026595
000380 0a b7 a3 bd 28 bc 14 3d 28 9a 09 bd 18 02 79 3d
       -0.07993896 0.036312252 -0.03359428 0.060793012
000390 60 ac 63 bb 52 6d 1f bd cc 4c 0f 3d 5f a0 4e bd
       -0.0034740195 -0.038922615 0.03498535 -0.05044591
0003a0 90 be 95 bd 20 5c 00 bc 6c 5d 8a bd 1e ee c9 3d
       -0.073117375 -0.007834464 -0.067561 0.098598704
0003b0 f0 88 73 3d 40 19 6b 3b 48 42 5f bd c0 e8 dd bc
       0.059456766 0.0035873204 -0.05450657 -0.027088523
0003c0 ec 0c 30 3d c8 a9 a7 3d 8a 0e c4 bd e0 07 60 bc
       0.042981073 0.0818668 -0.095730856 -0.013673753
0003d0 e6 3f 0d bd 9a 18 b6 3d 00 a0 48 3d 09 de 45 bd
       -0.034484766 0.08891411 0.048980713 -0.048307452
0003e0 c8 bd 0b 3d 20 32 c0 bb e4 ad 00 3d 56 8e 85 bd
       0.034116536 -0.0058653504 0.031415835 -0.06521289
0003f0 40 c7 c0 3d 8c 3a 61 bd bc e9 00 bd 18 a3 f9 3c
       0.09413004 -0.054987475 -0.031472906 0.030473277
