models/lstm2.pth (torch, 6619 bytes, 8 tensors)

lstm.weight_ih_l0 f4 [40, 1]
0	0x3fa0516e	1.252485
1	0xbf6bc880	-0.92102814
2	0x3e716cdd	0.23576684
3	0x3f7919f1	0.9730521
4	0x3e0d928c	0.13825434
5	0x3f2ab4cf	0.6668214
6	0x3f415498	0.75519705
7	0xbfb2c7d6	-1.3967235
8	0x3f9182c7	1.1368035
9	0xbca90f36	-0.020637136
10	0x4020f51e	2.5149608
11	0x3e7046dc	0.2346453
12	0x3ec74f22	0.3892756
13	0x3d39e6fd	0.045386303
14	0xbdef3db3	-0.1168169
15	0x3f65695a	0.8961388
16	0x3fc1b532	1.5133421
17	0xbf11103e	-0.5666541
18	0x3ebb7f52	0.36620575
19	0xbf6209c9	-0.8829618
20	0x3e2184b3	0.15773277
21	0x3edaf03d	0.42761412
22	0x3f137ac0	0.57609177
23	0xbdc2042e	-0.094734535
24	0x3f965af6	1.1746509
25	0x3db0f1cd	0.0863987
26	0x3dbe7d47	0.093012385
27	0x3f72c93a	0.948383
28	0x3f1a9145	0.60377914
29	0xbda57435	-0.08078805
30	0xbf24f450	-0.6443529
31	0xbf9e1d85	-1.2352759
32	0x3f9306d4	1.1486459
33	0x3f4629c0	0.77407455
34	0x3f67646c	0.90387607
35	0xbf0e0582	-0.55477154
36	0xbed2b2f5	-0.41152158
37	0xbedce9b3	-0.43147048
38	0x3f366b8e	0.71257865
39	0x3ef343cc	0.47512662

lstm.weight_hh_l0 f4 [40, 10]
0	0xbfc19a6d	-1.5125252
1	0x3e0cf053	0.13763551
2	0x3ed3a64a	0.41337806
3	0xbf3b8552	-0.73250306
4	0xbfc1f353	-1.5152382
5	0xbf07ad0d	-0.5299843
6	0xc04660dc	-3.0996618
7	0x409c9605	4.893313
8	0xbf14f5ee	-0.5818776
9	0xbdf7d434	-0.121010214
10	0x3f327174	0.69704366
11	0x3e036f53	0.12835436
12	0xbe9f05f2	-0.31059223
13	0xbfab3a66	-1.3377197
14	0x3ecac0fd	0.39600363
15	0x3f590bf7	0.8478388
16	0xbf51fb97	-0.8202452
17	0x3f664c0c	0.8995979
18	0x3ec945f5	0.39311185
19	0xbebdf036	-0.3709733
20	0xbea34692	-0.31889778
21	0xbf920443	-1.140755
22	0x3d27c9ed	0.040964056
23	0x3f6b0ac0	0.9181328
24	0x3f777c57	0.966741
25	0xbf45f90a	-0.7733313
26	0x3d38cf29	0.04511944
27	0x3f965c3e	1.17469
28	0xbfabb35d	-1.3414112
29	0x3da7fd62	0.08202626
30	0x3f0faac4	0.5611994
31	0x3f3b9712	0.7327739
32	0x3e6e22a7	0.23255406
33	0xbf3034b3	-0.6883041
34	0xc01d57fe	-2.4584956
35	0xbf0f88d8	-0.5606818
36	0xbfec9339	-1.8482429
37	0x3f3dc763	0.74132365
38	0xbec1581d	-0.37762538
39	0x3dcd2d32	0.10018386
40	0x3ff54200	1.9160767
41	0x3f7c7e3e	0.9863013
42	0x3f08582d	0.53259546
43	0x402b29b7	2.674421
44	0x3e54e32a	0.20789781
45	0xbe31bc42	-0.17356971
46	0x3f87749d	1.0582463
47	0xbfdbfc7f	-1.7186431
48	0xc0004392	-2.0041242
49	0xbf2c23ec	-0.6724231
50	0x3f9fe3de	1.2491415
51	0xbe5b0643	-0.21389107
52	0xbd471fe0	-0.048614383
53	0x3f95e6bb	1.1711038
54	0x3e8e28b4	0.2776543
55	0xbe4942a4	-0.19654328
56	0xc00e3b59	-2.2223723
57	0x3f14bbc8	0.5809903
58	0xbfe78714	-1.8088098
59	0xbf6afc4e	-0.91791236
60	0x3fd797a3	1.6843151
61	0x3d82e309	0.0639096
62	0xbf8c2b18	-1.0950651
63	0x405a75c9	3.413439
64	0xbfd78c4b	-1.6839689
65	0xc02eda69	-2.7320807
66	0xbfa00246	-1.2500694
67	0x3fcd863f	1.6056594
68	0xbfedc576	-1.8575885
69	0xbf1aafab	-0.604243
70	0x3e16ebb6	0.14738354
71	0x403c72ed	2.9445145
72	0x3f6ad402	0.9172975
73	0x4036b8c9	2.8550284
74	0x3f876d07	1.0580148
75	0xbed3b909	-0.41352108
76	0x3f403898	0.75086355
77	0x3f3c3feb	0.7353503
78	0x3da140dc	0.07873699
79	0xbf382073	-0.71924514
80	0x3e00b776	0.12569985
81	0xbf5649e6	-0.8370651
82	0x403a40c2	2.9102025
83	0xbfc0f4b4	-1.5074677
84	0xbedc96ca	-0.43083793
85	0xbf589ebe	-0.8461722
86	0x3ff8093c	1.9377818
87	0x3f3d5ab8	0.7396655
88	0xbf5ad2c6	-0.85477865
89	0xbf3a600e	-0.7280282
90	0x3dd1f3be	0.10251568
91	0x3e1ff3d3	0.15620355
92	0xbea7af8d	-0.32751122
93	0xbe8f00cc	-0.27930295
94	0x3f6e45f8	0.93075514
95	0xbfa27017	-1.2690457
96	0xbea2738a	-0.31728774
97	0xbec6a3bc	-0.38796794
98	0xbe76e870	-0.24112105
99	0x3e854212	0.2602697
100	0xbf96ac17	-1.1771268
101	0x3fbebfc8	1.4902277
102	0x3f5b1d59	0.85591656
103	0xc01b84a5	-2.429971
104	0xc044155f	-3.0638044
105	0x402b22a3	2.673989
106	0x3efeb561	0.49747756
107	0x3f8398f4	1.0281053
108	0xbe4f981d	-0.2027287
109	0xbcbb8e7a	-0.022895087
110	0x3facd2f6	1.350188
111	0xbf837a73	-1.0271744
112	0x3f6683d4	0.90044904
113	0xbed3bf07	-0.4135668
114	0x4067ae4b	3.620013
115	0xbdcc6f39	-0.099821515
116	0x3fed60b9	1.8545142
117	0x3efae3cf	0.4900193
118	0x3f638554	0.8887532
119	0xbee1f3a3	-0.44131193
120	0xbf0ed16e	-0.55788314
121	0xbfa036f0	-1.2516766
122	0xbf0771de	-0.5290812
123	0xbf42ecd6	-0.7614263
124	0x3f6f426b	0.9346072
125	0xbe99ffc8	-0.30077958
126	0x3ea25cdb	0.31711468
127	0x3fe476d7	1.7848767
128	0x3f5cf6c7	0.8631405
129	0x3e918686	0.28422946
130	0xbceb1598	-0.02869682
131	0xbf8570d6	-1.042506
132	0xbf332caf	-0.69990057
133	0xbeef9f64	-0.46801293
134	0x3cc36448	0.023851529
135	0x3f785582	0.97005475
136	0x3c89d01d	0.016822869
137	0x3f8129c0	1.0090866
138	0x3fad97db	1.3561968
139	0x3ed83cf6	0.4223401
140	0xbfb1f820	-1.3903847
141	0x3ef10f42	0.47081953
142	0xbd07fbb3	-0.033199023
143	0xc05d3df9	-3.4569075
144	0x3f548944	0.8302195
145	0x3ec51b6c	0.38497484
146	0xbf61ee47	-0.8825421
147	0x3e060ddf	0.13091229
148	0x3ec4b0bd	0.3841609
149	0x3f7a5b95	0.97795993
150	0x3ed5b159	0.41736868
151	0xc001a8d3	-2.0259292
152	0x3fd0211c	1.6260104
153	0xbfb5c435	-1.4200503
154	0xbf387151	-0.7204791
155	0x3ff89e7a	1.9423363
156	0x3e53adc1	0.2067175
157	0xbd812d9a	-0.06307526
158	0x3fbb54de	1.4635274
159	0x3f2d8d26	0.677935
160	0x3f80a1ff	1.0049437
161	0xc00ca95b	-2.1978366
162	0x3f32ba35	0.6981538
163	0xc0066a0c	-2.1002226
164	0xbf87c2dc	-1.0606341
165	0x3fcebb74	1.6150956
166	0xbe5998a5	-0.21249636
167	0x3f9b147e	1.2115629
168	0x3faa4a9f	1.3304023
169	0x3f875667	1.0573243
170	0x3e12bab7	0.14329039
171	0xbd50ec5c	-0.05100666
172	0x3d88de42	0.06683017
173	0xbf6f92cd	-0.93583375
174	0x4002c596	2.0433097
175	0x3ec8df88	0.3923304
176	0x3f995e78	1.1981955
177	0x400c8b9f	2.1960218
178	0x3d1e866b	0.03870241
179	0x3db855b2	0.0900072
180	0xbfc0b339	-1.5054694
181	0xbef070a3	-0.46960935
182	0xbdda5456	-0.10660617
183	0xbe859b26	-0.2609493
184	0xbf4641bf	-0.7744407
185	0xbd0dd694	-0.034628466
186	0x3da5b4db	0.08091136
187	0x40521611	3.2825968
188	0xbe65672c	-0.22402638
189	0x3dd28ddc	0.10280964
190	0xbeb8beb0	-0.36082983
191	0x3f88ba1d	1.0681797
192	0x3df669d9	0.120319076
193	0xbeaaa8d3	-0.33331928
194	0x3cff3d6b	0.031157216
195	0xc02d3173	-2.7061431
196	0x3eb8931d	0.3604974
197	0xbe700887	-0.23440753
198	0xbe6158c6	-0.2200652
199	0x3ed6269c	0.41826332
200	0x3f82c9a3	1.0217785
201	0x3fa21227	1.266179
202	0xbfb95017	-1.4477566
203	0x3e58d33b	0.21174328
204	0x3f407c66	0.75189817
205	0xbebba3f8	-0.36648536
206	0xbf94ae6c	-1.1615729
207	0x3e9e734f	0.30947348
208	0xbed8fa0d	-0.42378274
209	0xbf7da8eb	-0.99085873
210	0x3ed9041a	0.42385942
211	0x3f2890d0	0.65845966
212	0xbf3135b2	-0.6922256
213	0x3f7d0159	0.9883018
214	0x3df5a302	0.11993982
215	0xc059ad01	-3.4011843
216	0xbf351281	-0.7073136
217	0xbfc10f66	-1.5082824
218	0xbe9ae07b	-0.3024939
219	0x3e430cb8	0.1904782
220	0x3f1d700e	0.61499107
221	0xbdb9ff23	-0.090818666
222	0x3f85d099	1.0454284
223	0x3c581786	0.013189202
224	0xbe84f535	-0.25968328
225	0x3f05e6f8	0.52305555
226	0x3c0bb9c6	0.008528179
227	0xbe89215f	-0.26783273
228	0xbe7abb2c	-0.24485463
229	0xbeb9fee9	-0.36327294
230	0xbe2a0078	-0.16601741
231	0xbdc516b6	-0.096234724
232	0xbe47993c	-0.19492048
233	0x3e31a389	0.1734754
234	0x3f6b8e4d	0.9201401
235	0xbf9f9d94	-1.2469964
236	0x3f30ea95	0.69107944
237	0x3c1401d3	0.009033638
238	0xbf9cd91c	-1.2253757
239	0x3e2dbcac	0.16966504
240	0x3e0e60f7	0.13904177
241	0xbf9577c6	-1.1677177
242	0xbe9603e0	-0.2929983
243	0xbf73aa05	-0.95181304
244	0xbee3044f	-0.44339225
245	0xbe6b57ff	-0.22982787
246	0xbfcae822	-1.5852091
247	0x3ee52b7e	0.44759744
248	0xbf287b08	-0.6581273
249	0x3ecf1199	0.40443113
250	0xbe8d489c	-0.2759446
251	0x3f16b798	0.5887389
252	0xbeaec4e9	-0.34134606
253	0x3eba6d88	0.3641169
254	0xbe31f98f	-0.17380355
255	0x3f5310ce	0.82447517

lstm.bias_ih_l0 f4 [40]
0	0x3e2a6199	0.16638793
1	0xbdf532a2	-0.11972548
2	0xbf01b437	-0.5066561
3	0xbd888169	-0.06665308
4	0x3e11c7e4	0.14236408
5	0xbe2996bf	-0.16561411
6	0xbefb5f72	-0.49096256
7	0xbf4b461b	-0.7940385
8	0x3bf43a1a	0.0074532153
9	0x3eafaa35	0.34309545
10	0x3f822f49	1.017068
11	0x3f59810b	0.8496253
12	0xbe13711b	-0.14398615
13	0x3e97be94	0.29637587
14	0x3f2f142b	0.6839015
15	0x3f41e587	0.75740856
16	0x3f97c56e	1.1857126
17	0x3f182c2f	0.5944242
18	0x3f92376c	1.1423163
19	0x3f912f71	1.1342603
20	0xbe4f2c69	-0.20231785
21	0xbd5e522f	-0.054277595
22	0x3e0b6f9f	0.13616799
23	0x3d98083b	0.07423445
24	0xbcfb7c2c	-0.030698858
25	0xbeea72db	-0.45790753
26	0x3dbea57e	0.09308909
27	0xbd9d989b	-0.07695123
28	0xbe08686c	-0.13321084
29	0x3daad145	0.08340696
30	0x3e243d27	0.16038953
31	0x3ecdfbf2	0.40231282
32	0xbe5617e7	-0.20907556
33	0xbc6205da	-0.01379534
34	0x3f26e845	0.65198165
35	0x3f5fa1c8	0.87356234
36	0x3e7f06c0	0.24904919
37	0x3e252b2f	0.16129754
38	0x3ec7a7db	0.3899525
39	0x3f5529e1	0.8326703

lstm.bias_hh_l0 f4 [40]
0	0x3e6cd1b0	0.23126864
1	0xbe34b2ab	-0.17646281
2	0xbf1cc7b9	-0.6124225
3	0xbf2157ab	-0.63024396
4	0x3efc633e	0.49294466
5	0xbf0304ba	-0.5117909
6	0xbf6d5a42	-0.9271585
7	0xbf0c28ab	-0.54749554
8	0x3eb6f5f6	0.35734528
9	0xbd06d942	-0.032922037
10	0x3f65f289	0.89823204
11	0x3f0cb305	0.5496066
12	0xbdebaacf	-0.115071885
13	0x3f3015d6	0.6878332
14	0x3efe233d	0.4963626
15	0x3f5c31f0	0.860137
16	0x3f919222	1.1372721
17	0x3f1f0931	0.621234
18	0x3f957c90	1.1678638
19	0x3f4e72ae	0.8064374
20	0xbe806975	-0.25080457
21	0xbd59323d	-0.053026427
22	0xbd96c411	-0.073616154
23	0xbcd31d0f	-0.025770692
24	0x3e05477a	0.13015547
25	0x3de75da2	0.11297156
26	0x3dd2defa	0.10296436
27	0xbe2df51e	-0.16988036
28	0xbeb07b10	-0.3446889
29	0xbc38cec5	-0.011279766
30	0x3f020b27	0.5079827
31	0x3c8ab754	0.01693312
32	0x3e152f91	0.14568926
33	0x3ebdd043	0.37072954
34	0x3f3824d6	0.7193121
35	0x3f33733d	0.70097715
36	0x3e39d135	0.18146212
37	0x3ebf4810	0.37359667
38	0x3effbb03	0.49947366
39	0x3f6523b2	0.8950759

fc1.weight f4 [32, 10]
0	0x3e8b19b9	0.27168062
1	0x3da38c5d	0.079857565
2	0x3da5db75	0.08098499
3	0x3f1c9d00	0.61177063
4	0xbf02ff86	-0.5117115
5	0x3e8c2843	0.27374467
6	0x3f1991db	0.5998818
7	0x3f1e3d24	0.61812043
8	0x3e808a40	0.25105476
9	0x3e9379ec	0.28803957
10	0x3e06fc5e	0.13182208
11	0x3cabf827	0.020992352
12	0xbc4099ce	-0.01175542
13	0x3f4ec632	0.8077117
14	0xbf63799d	-0.8885744
15	0xbe118cf7	-0.1421393
16	0x3fb44c0e	1.408571
17	0x3f3cabed	0.7369984
18	0x3f22f4ff	0.63655084
19	0xbea2375f	-0.3168287
20	0xbe4b7d53	-0.19872026
21	0xbd418df3	-0.047254514
22	0xbede91da	-0.4347065
23	0x3de99b86	0.11406617
24	0x3ed150c6	0.40881938
25	0xbffd524a	-1.9790738
26	0xbe820587	-0.25394842
27	0x3f5adfea	0.85497916
28	0xbef3a207	-0.47584555
29	0x3ec7873f	0.38970372
30	0x3cab2bb9	0.020894872
31	0x3dfcbe32	0.123409644
32	0x3db7eeaf	0.08981072
33	0xbeb64574	-0.35599864
34	0x3f16855e	0.5879725
35	0x3eac4b92	0.33651406
36	0xbfc4c94c	-1.5373931
37	0x3e7bd4e3	0.24592929
38	0xbe5f51cc	-0.21808547
39	0x3e631d07	0.22179042
40	0xbe6bd748	-0.23031342
41	0xbdd513ef	-0.10404193
42	0x3e327404	0.17427069
43	0x3f491695	0.7855008
44	0x3e39301b	0.18084757
45	0x3f8b2767	1.08714
46	0xbf8b8067	-1.089856
47	0x3e01f7c2	0.12692168
48	0x3dc221b7	0.09479087
49	0x3f02190b	0.5081946
50	0xbec678a2	-0.3876391
51	0xbe98bca0	-0.2983141
52	0xbe3f5450	-0.18684506
53	0x3f4d3596	0.8015989
54	0x3e6b2c0a	0.22966018
55	0xbf0840ea	-0.5322405
56	0x3db4cf56	0.08828609
57	0xbd2f6808	-0.04282382
58	0xbe2adc22	-0.16685537
59	0x3e850d32	0.2598663
60	0xbee8692b	-0.45392737
61	0x3e2cce13	0.16875486
62	0x3d8389cf	0.06422769
63	0xbdeaace4	-0.114587575
64	0x3f0688d1	0.52552515
65	0xbfc566dc	-1.5422015
66	0x3e988deb	0.29795775
67	0x3e086521	0.13319828
68	0xbeeb349b	-0.45938572
69	0x3e83cb10	0.25740862
70	0xbee66623	-0.449998
71	0x3e21ad31	0.15788724
72	0x3ded91fb	0.11600109
73	0xbf3cada7	-0.7370247
74	0x3da54d46	0.08071379
75	0xbf1d98e8	-0.6156144
76	0x3f55c8b8	0.835094
77	0xbf7a0b80	-0.976738
78	0xbf3ced67	-0.7379975
79	0xbe6c1d02	-0.2305794
80	0x3ec5c7b4	0.38628924
81	0xbe48b9f1	-0.19602181
82	0x3dbfada0	0.09359288
83	0xbe9563b7	-0.2917764
84	0x3da8fe4b	0.082516275
85	0x3f2f2422	0.6841451
86	0x3fae2a52	1.3606665
87	0x3f5aece7	0.85517734
88	0xbd913bba	-0.0709147
89	0x3bad42dc	0.0052875113
90	0x3f18c702	0.5967866
91	0xbf2bea72	-0.6715461
92	0xbe474b78	-0.19462383
93	0xbef4cd12	-0.47812706
94	0xbf296e8a	-0.66184294
95	0xbf059e6f	-0.52194875
96	0x3f1e4ad0	0.61832905
97	0x3eb3c3fa	0.35110456
98	0x3e224224	0.15845543
99	0xbea39ff2	-0.31957966
100	0x3ed478ab	0.41498312
101	0x3e8e057a	0.27738553
102	0x3e6fdbe0	0.2342372
103	0x3e96d290	0.2945752
104	0xbdebf0b0	-0.11520517
105	0x3f47f832	0.7811309
106	0x3ebc89e4	0.36823952
107	0xbf8dbb3b	-1.1072763
108	0x3edc6680	0.4304695
109	0xbc92c40c	-0.017915748
110	0x3eb6ae20	0.35679722
111	0xbe8f17d5	-0.2794787
112	0xbc292866	-0.010324573
113	0xbf635996	-0.8880857
114	0x3ecbf045	0.3983175
115	0xbecb0050	-0.39648676
116	0xbeaddf86	-0.33959597
117	0x3f27673d	0.65391904
118	0xbf64a7ca	-0.89318526
119	0x3bdde7ed	0.0067720325
120	0x3f138a5d	0.57633
121	0x3e5bd250	0.21466947
122	0x3e786af3	0.24259548
123	0xbe6e97ab	-0.23300044
124	0xbeafcd80	-0.34336472
125	0xbe2cf1be	-0.16889092
126	0x3fd14aca	1.6350949
127	0xbe67c4b6	-0.22633633
128	0x3cec602b	0.02885445
129	0xbe5418b6	-0.20712551
130	0xbdd7ae95	-0.10531346
131	0xbd974a0a	-0.07387169
132	0xbd42bb1e	-0.04754173
133	0xbe82c814	-0.25543272
134	0x3ec5dade	0.38643545
135	0xc014ef9a	-2.327124
136	0xbcc34766	-0.023837756
137	0x3e25422d	0.16138525
138	0xbf0be3f1	-0.54644686
139	0x3f0395ff	0.5140075
140	0x3f5c0fbb	0.859615
141	0xbe854fdc	-0.2603749
142	0xbdc78cd0	-0.09743655
143	0x3e33086e	0.17483684
144	0x3e088a7b	0.13334076
145	0x3f31fca2	0.6952611
146	0xbf684b88	-0.9074025
147	0x3cfee734	0.031116106
148	0x3f87f64b	1.0622038
149	0xbe93cb75	-0.28866163
150	0x3ef07736	0.4696595
151	0x3e7e5908	0.2483865
152	0x3d68b832	0.056816287
153	0x3f0c7271	0.54862124
154	0xbe1f0773	-0.15530185
155	0x3df2a883	0.11848547
156	0xbd44e231	-0.048067275
157	0xbe580f1c	-0.21099514
158	0x3f279977	0.65468544
159	0x3ddbdafa	0.10735126
160	0x3ce2d444	0.027689107
161	0xbf141e2e	-0.5785855
162	0xbd2ff532	-0.042958446
163	0x3e6f1965	0.23349531
164	0x3c27ebb9	0.010249072
165	0xbf4112b5	-0.7541917
166	0xbe93ceba	-0.28868657
167	0xbf3564d7	-0.70856994
168	0x3e8b83ab	0.27248892
169	0xbd7fcc6a	-0.062450804
170	0xbf443a32	-0.766513
171	0xbe2fa1f2	-0.17151621
172	0xbd77eb8a	-0.060527362
173	0x3f2af001	0.66772467
174	0x3e8fe7a0	0.28106403
175	0x3d702d15	0.058636744
176	0xbf746043	-0.95459384
177	0xbdc50790	-0.09620583
178	0xbcff32af	-0.031152098
179	0x3e9cfa40	0.30659676
180	0xbe51ab8b	-0.20475595
181	0xbed9a774	-0.4251057
182	0xbeb20978	-0.3477285
183	0xbda18ab0	-0.07887781
184	0xbead5e70	-0.33861113
185	0xbeb20404	-0.3476869
186	0x3f4e10a0	0.8049412
187	0xbe812fb9	-0.25231722
188	0x3e325cd1	0.17418219
189	0xbf166206	-0.5874332
190	0x3f2770e7	0.6540665
191	0xbec93f4b	-0.393061
192	0xbe0feb66	-0.14054641
193	0xbe953654	-0.29143012
194	0x3e327b9f	0.1742997
195	0xbea51991	-0.32246068
196	0x3efca50f	0.4934468
197	0x3e9d7bee	0.30758613
198	0xbeaa2fdd	-0.33239642
199	0x3ee560c2	0.44800383
200	0xbd903676	-0.070416376
201	0x3f4b5681	0.7942887
202	0x3e4bf695	0.19918282
203	0xbe9e4294	-0.3091017
204	0xbf2b8592	-0.6700069
205	0x3e5f93a4	0.21833664
206	0x3dd18faf	0.102324836
207	0x3f35caa6	0.7101234
208	0x3e89a4a8	0.26883435
209	0xbf2cc1c8	-0.67483187
210	0x3e4cdafb	0.2000541
211	0xbe8b829d	-0.27248088
212	0xbde2cdcc	-0.11074409
213	0x3cb4a512	0.022051368
214	0x3d821468	0.063515484
215	0x3f25911b	0.6467454
216	0xbf6d6146	-0.9272655
217	0x3ec89e01	0.39183047
218	0xbcb1cb51	-0.021703394
219	0x3d8ba119	0.06817836
220	0xbf175b57	-0.5912375
221	0x3d288423	0.04114164
222	0x3c8ea620	0.017413199
223	0xbeb18330	-0.346704
224	0x3ec16e2f	0.37779376
225	0xbec9f93c	-0.39447963
226	0xbf7b3a50	-0.9813585
227	0xbf2fd310	-0.6868143
228	0xbebe9950	-0.37226343
229	0x3e999852	0.29999024
230	0xbf3d1cdf	-0.7387218
231	0x3d576e4a	0.052595414
232	0xbd99c25d	-0.07507775
233	0x3b2041bb	0.002445324
234	0x3d4c8ed6	0.049940906
235	0x3d760b2b	0.060069244
236	0xbe0fe9c6	-0.14054021
237	0x3ed303b8	0.41213775
238	0xbf3e559c	-0.7434938
239	0x3eb18871	0.3467441
240	0x3e9dec1a	0.30844194
241	0x3dceca26	0.100971505
242	0xbd966f7d	-0.073454835
243	0xbdac6f32	-0.08419646
244	0xbdcab9ff	-0.09898757
245	0xbe56046c	-0.20900124
246	0x3ec0272d	0.3752989
247	0x3da30c2a	0.079613045
248	0x3e3f2e68	0.18670046
249	0x3ec7d828	0.39032102
250	0xbf0d4bf7	-0.5519404
251	0x3d9fad81	0.07796765
252	0x3e631d30	0.22179103
253	0xbf096494	-0.53669095
254	0x3edbf6c5	0.42961708
255	0xbeac6a41	-0.33674815

fc1.bias f4 [32]
0	0x3e43d9b2	0.19126013
1	0x3e257cfd	0.1616096
2	0xbe24fa85	-0.1611119
3	0x3da4004a	0.08007868
4	0x3e02107b	0.127016
5	0x3de0eba7	0.10982447
6	0xbe194866	-0.14969024
7	0xbdfda2a3	-0.12384536
8	0xbe9f19d9	-0.31074408
9	0xbe79f854	-0.24411136
10	0x3f0b052d	0.5430477
11	0x3d8401d4	0.06445661
12	0x3e856464	0.26053154
13	0xbe1e7290	-0.1547339
14	0x3e2f4ffb	0.17120354
15	0x3eefc2dd	0.46828356
16	0x3d64d861	0.055870418
17	0xbe309cf5	-0.17247374
18	0xbed4444d	-0.4145836
19	0xbe255462	-0.1614547
20	0x3eb22e4d	0.3480095
21	0x3c8ce6d5	0.017199913
22	0xbe845943	-0.2584935
23	0xbe931eba	-0.2873438
24	0xbe7d79bb	-0.24753468
25	0x3e14cc44	0.14531046
26	0xbe308639	-0.17238702
27	0xbea4b376	-0.32168168
28	0x3e83eac9	0.25765064
29	0xbdc349d8	-0.09535569
30	0xbec8219c	-0.39088142
31	0xbed00201	-0.4062653

fc2.weight f4 [9, 32]
0	0x3c72d60e	0.014821542
1	0x3e40c677	0.18825708
2	0x3f4b160b	0.7933051
3	0xbdc71e8e	-0.09722625
4	0xbef3923b	-0.47572502
5	0xbd5ed1f7	-0.054399457
6	0x3e945ba5	0.2897617
7	0x3e9dc72a	0.30816013
8	0x3e53e3a6	0.2069231
9	0x3f11715a	0.56813586
10	0xbef69914	-0.48163664
11	0x3f20101e	0.6252459
12	0x3e53c641	0.20681097
13	0x3f72c18a	0.9482657
14	0xbe271396	-0.16316065
15	0xbd5b8bff	-0.053600308
16	0x3d45ec81	0.04832125
17	0xbe6fc1d1	-0.23413779
18	0x3e21fac7	0.1581832
19	0x3e656e4b	0.22405355
20	0x3dcf5ad9	0.1012475
21	0xbcecbc06	-0.02889825
22	0xbe39c644	-0.18142039
23	0x3d182025	0.03714003
24	0xbb35e64e	-0.002775568
25	0xbcf4929e	-0.029855069
26	0x3c27dc75	0.010245432
27	0xbd9c76b1	-0.07639826
28	0xbdde3c31	-0.10851324
29	0x3d952e2e	0.07284199
30	0xbe03f749	-0.128873
31	0x3ece1de5	0.40257183
32	0x3def6f58	0.11691159
33	0x3f36dba2	0.71428883
34	0xbba3c51e	-0.0049978634
35	0xbf4c3b6e	-0.7977818
36	0xbee7e2fe	-0.4529037
37	0x3d567f0d	0.05236726
38	0x3df220f8	0.118226945
39	0x3f3a34b0	0.72736645
40	0xbeadb7c4	-0.33929265
41	0x3ef60948	0.48053956
42	0x3ed70088	0.41992593
43	0xbf30bf36	-0.69041765
44	0x3f3bc32e	0.73344696
45	0x3ee8366d	0.45354024
46	0xbed3c620	-0.41362095
47	0x3e227fb0	0.15869021
48	0x3ed15d54	0.40891516
49	0xbe5da646	-0.2164546
50	0x3ec2ba16	0.38032597
51	0x3cfdd33f	0.030984519
52	0xbd7bccf0	-0.06147474
53	0xbe5ff320	-0.21870089
54	0xbe561f3d	-0.20910354
55	0xbe684809	-0.22683729
56	0x3d29c918	0.041451544
57	0xbee4a89a	-0.44659883
58	0x3f242670	0.6412115
59	0xbc7878ef	-0.015165552
60	0x3eb17fdf	0.3466787
61	0x3bf5621f	0.0074885036
62	0x3dd698f6	0.10478394
63	0xbe780fad	-0.2422473
64	0xbec7f7e5	-0.39056316
65	0xbf27eaaa	-0.65592444
66	0xbf244c03	-0.64178485
67	0x3edbbf70	0.42919493
68	0x3defe3e5	0.11713389
69	0xbe2b4f36	-0.16729435
70	0xbef82b03	-0.48470315
71	0x3d721d3f	0.059109922
72	0xbf443c99	-0.76654965
73	0x3c91e343	0.017808562
74	0x3ebfa9d9	0.3743427
75	0xbdacec9f	-0.084435694
76	0xbeb6cf24	-0.3570491
77	0xbf533063	-0.8249571
78	0x3f88d8d0	1.0691166
79	0xbbfdc6ec	-0.0077446606
80	0x3e8133be	0.2523479
81	0x3d6dfc02	0.05810166
82	0x3d2217b9	0.039573405
83	0xbdb8b197	-0.090182476
84	0xbe1389c2	-0.14408019
85	0x3ded93b4	0.11600438
86	0x3eb73db7	0.35789272
87	0xbe2bdb38	-0.16782844
88	0xbc122153	-0.008919078
89	0xbd00396e	-0.03130477
90	0x3e97378a	0.2953456
91	0x3e88facc	0.26753843
92	0xbe92d3a3	-0.2867709
93	0x3d372ef2	0.044722505
94	0xbe107033	-0.141053
95	0xbf0f797f	-0.56044763
96	0x3dd10db7	0.10207694
97	0x3e355a20	0.17710161
98	0xbeeade73	-0.4587284
99	0xbd8d19c3	-0.06889679
100	0x3b76a01b	0.0037632051
101	0xbd96862c	-0.0734981
102	0xbe236ff4	-0.15960675
103	0x3e9c8b72	0.30575138
104	0x3f183377	0.5945353
105	0x3d2c4335	0.04205628
106	0x3ca54299	0.020173358
107	0x3e901d12	0.2814718
108	0x3ecb6858	0.39728045
109	0xbf2b84bc	-0.6699941
110	0xbe5e0b4c	-0.21683997
111	0xbda1624f	-0.07880079
112	0xbe8d3e14	-0.27586424
113	0xbe269ff1	-0.1627195
114	0x3c8d2972	0.017231677
115	0x3d5ce6e1	0.05393112
116	0x3e38da25	0.18051966
117	0x3c7ac1b5	0.015304972
118	0xbebf04d8	-0.37308383
119	0x3deefab4	0.116689116
120	0xbd2178cd	-0.039421845
121	0x3d5b8d69	0.053601656
122	0xbe95258c	-0.29130208
123	0x3edf043f	0.43557927
124	0x3e6be727	0.23037396
125	0xbe9e3e3f	-0.30906865
126	0xbe5dcb23	-0.21659522
127	0x3ed20d9d	0.4102601
128	0x3e209a7d	0.15683933
129	0x3ea23f5c	0.31688964
130	0x3e5f3644	0.21798044
131	0x3d29ee8c	0.04148726
132	0x3ec8a411	0.39187673
133	0x3d698a08	0.057016402
134	0xbb03c1c8	-0.0020104516
135	0xbf335a89	-0.7006002
136	0x3e3c7f2c	0.18407887
137	0xbdcacf75	-0.099028505
138	0xbe79f4e0	-0.24409819
139	0xbee989a4	-0.45612824
140	0xbeaeb5c3	-0.34123048
141	0xbe6afada	-0.22947255
142	0x3f093789	0.53600365
143	0xbc369405	-0.011143689
144	0xbd362805	-0.04447176
145	0x3e8900fa	0.26758558
146	0x3bc002c8	0.0058597066
147	0x3db26bd4	0.08711973
148	0xbe63a1e1	-0.2222972
149	0x3d581f5c	0.05276428
150	0xbe3a79f5	-0.18210585
151	0x3e44db17	0.19224201
152	0x3ca78b4e	0.020452168
153	0xbf1ddef6	-0.61668336
154	0x3e26b91e	0.16281554
155	0x3d02c6e5	0.03192796
156	0xbdb9746c	-0.09055409
157	0xbaa1ebd9	-0.0012353613
158	0x3de8a895	0.113602795
159	0x3eddf6e8	0.43352437
160	0x3e4989b1	0.19681431
161	0x3efaf0df	0.49011895
162	0xbe949dd3	-0.2902666
163	0x3d0855bf	0.0332849
164	0x3e69d725	0.22835977
165	0xbd209d0b	-0.039212268
166	0xbe544113	-0.20727949
167	0xbebf809e	-0.37402815
168	0x3d794977	0.060861077
169	0x3d623364	0.05522479
170	0xbd2e3007	-0.04252627
171	0xbdec040a	-0.11524208
172	0x3d00b4f7	0.03142258
173	0xbf2b52d3	-0.66923255
174	0x3eacdae6	0.33760756
175	0x3d84171b	0.064497195
176	0xbdcc7ad2	-0.099843636
177	0x3b2280f8	0.002479611
178	0xbd999679	-0.074994035
179	0xbd3c11b7	-0.04591533
180	0x3ec60d58	0.38682055
181	0x3d3a8296	0.045534693
182	0xbeafacb1	-0.3431144
183	0x3d73d2af	0.059527095
184	0xbbdd1985	-0.006747427
185	0xbe23dace	-0.16001436
186	0xbea473c4	-0.32119572
187	0x3d1ae807	0.037818935
188	0x3dbc9a3f	0.092091076
189	0xbda9038d	-0.082526304
190	0xbe3b09ce	-0.18265459
191	0x3dc3f2cd	0.09567795
192	0x3e4cce68	0.20000613
193	0x3e944e91	0.2896619
194	0xbe316482	-0.17323497
195	0x3d936071	0.07196129
196	0x3eb2f7c9	0.3495467
197	0x3c2b4484	0.010453347
198	0x3c8727eb	0.016498527
199	0xbe93f959	-0.28901175
200	0xbbc07df3	-0.0058743893
201	0xbec59585	-0.38590637
202	0x3ea5a716	0.3235404
203	0xbe5b2bd8	-0.21403444
204	0x3e6a586e	0.22885296
205	0xbebae3cd	-0.36501923
206	0x3eaea658	0.34111285
207	0x3ddf1eba	0.108945325
208	0xbdb7839c	-0.08960649
209	0x3d23dbad	0.04000442
210	0xbe90dad4	-0.28291953
211	0x3d991070	0.07473838
212	0xbd8f13a3	-0.06986167
213	0x3c4143ba	0.011795932
214	0xbe9f0df4	-0.31065333
215	0x3c955f13	0.018233811
216	0xbc44ecf2	-0.012019383
217	0xbe41d905	-0.18930443
218	0x3dbf7d30	0.093500495
219	0xbc02c0da	-0.00798055
220	0x3e699c17	0.2281345
221	0xbdda5e75	-0.106625475
222	0x3d6be6ba	0.057593085
223	0xbd18c759	-0.037299488
224	0x3d6b960f	0.057516154
225	0xbeb9b4fe	-0.362709
226	0xbedd9e51	-0.43284848
227	0x3e2298b8	0.1587857
228	0x3e76e735	0.24111636
229	0xbdaa209b	-0.08307
230	0x3d0bd476	0.034138165
231	0x3ea5f768	0.32415318
232	0x3e8e5f19	0.2780693
233	0xbe2f85ac	-0.17140836
234	0x3e4be3a2	0.19911054
235	0x3d98fdaa	0.074702576
236	0x3e2e7111	0.17035319
237	0xbe78da52	-0.24302033
238	0xbe2b098c	-0.1670286
239	0xbc056ad5	-0.0081431465
240	0xbd80b12f	-0.06283795
241	0x3cc49c46	0.024000298
242	0xbe7540b2	-0.2395046
243	0x3e217a6b	0.15769355
244	0xbea98f72	-0.33117253
245	0x3c04c47e	0.008103488
246	0x3d8eab63	0.06966283
247	0x3e04a000	0.1295166
248	0x3d0be069	0.03414956
249	0x3d3a1000	0.045425415
250	0x3d256ddb	0.04038797
251	0x3ec73bb8	0.3891275
252	0x3dc60601	0.09669114
253	0xbe636c1a	-0.22209206
254	0x3e2b44b5	0.16725428
255	0x3e3042f8	0.17213047

fc2.bias f4 [9]
0	0x3dbf1edf	0.0933206
1	0xbea6e919	-0.32599714
2	0xbe9ba24d	-0.30397263
3	0xbed3d98d	-0.41376916
4	0xbd63d4d9	-0.05562291
5	0x3e231f97	0.1593002
6	0x3ef7dd60	0.48411083
7	0x3eb0f8b4	0.34564745
8	0xbf130b93	-0.57439536
