models/lstm2.pth (torch, 474339 bytes, 10 tensors)

lstm.weight_ih_l0 f4 [392, 1]
00000000: ecbe b63d 9dba 2d3f 0a26 8b3f 16e5 10bf
00000010: bea9 19bf f978 c23d 4a7e fc3d 9916 cbbe
00000020: d2f4 093e a507 173f e361 933f c9aa 94be
00000030: 1f6c cd3d a5f5 193e ea58 8a3e 2502 69be
00000040: f02a 733f 76a8 0bbf 840a 813e 9210 cf3e
00000050: c021 f5be c74a cc3e 012f 333e 0a55 bf3b
00000060: 9a19 fd3e bdc2 1ebe 1909 27bf 9c95 67be
00000070: ba9b 8a3c 4e83 b73e 2d03 8dbe 9ec9 4cbe
00000080: e4db dcbd caeb aebe 13b9 f83e 19fe c9be
00000090: 61e7 22bf 4b2b 2c3f dbc7 1c3f fa07 55be
000000a0: 1332 1cbf 57e2 6a3f ea78 2ebe cd40 8ebd
000000b0: e41c 113e 16fa 30bf 2025 12bf ed9e 4d3f
000000c0: 1fa7 5abe 13ce 7e3f cf43 58bd 25d0 023f
000000d0: 0ec0 fabd 2898 be3e 9eec e5be d532 52bf
000000e0: d720 c9be 0d34 283f 2bed 663f 79a3 f33e
000000f0: 48b0 6fbe f8b9 f93e 978f 95be c56a 0cbf
00000100: 16ad 0e3e e6bc 153e 684b 23be 5e99 88be
00000110: ceb1 69bf cf31 183f dc0f 8b3d daf5 fdbd
00000120: 3748 ef3e 3cb8 113f 45f3 f83e 7aff 97bb
00000130: 1348 333e 12e3 0a3e 3aea 613f d54a 2f3d
00000140: c097 753e 88bd 943c f505 8ebe 6ab0 2fbf
00000150: 1d5d 703d 5644 053f bdf8 823f b5b9 a53e
00000160: 294a 163e f130 133e 23f1 19be ae1a 93be
00000170: 5c91 033e b871 49bb 6639 453e 6677 7dbf
00000180: d61d ed3c 6101 4b3f 7d9d e63d 8b76 c43e
00000190: 6567 a13f b6e6 e23e f892 913e 3c22 8a3c
000001a0: 2f4a bd3e bedb 8a3c e6e2 b03d ed0b 703e
000001b0: c10c f73e 722e 183f 3a42 6f3e 07ca a63e
000001c0: a6fb ff3e 9eab 3e3e 2ff7 053f 6bc9 86be
000001d0: 179a b73e 963b ad3e 5dcf 92be 2ae5 e4be
000001e0: dfdf 0abf 04c4 88be 342e 583f 29dd 02be
000001f0: 3f5e 34be 5d56 4b3e 9331 4a3e 8a37 f73d
00000200: 9807 a73e a2b0 01bf 5f9e 933e 2e59 8a3d
00000210: df68 163f b319 b3be 926d 63bf 842a 1f3f
00000220: ce9b a43c dc30 943e a673 c9be 9e15 683f
00000230: 578e 81bd 35b9 0f3f 45d3 2f3f 711b 6a3c
00000240: 792d 26bf 67be 1d3f 4761 f83d 1529 2b3c
00000250: 25d1 cfbd a533 133f 5ab7 033f 306b ab3e
00000260: d857 843d 07fe fdbe 565e ea3d 2dde c43d
00000270: b23d e8bd 0b21 99be 25ac d1be 0264 273f
00000280: bfa2 963e 947c 94be b9fe e0be bf93 a9be
00000290: c9df ebbe 95b5 1fbe 15be 54bf 3d9a 24bd
000002a0: 9ae2 a93e f770 5d3c 7b1c 61bd b542 a03e
000002b0: 42ad 8d3e 9c5b 76be a424 c23e e2c3 323f
000002c0: 9708 30bf 3eb8 0d3f f94c e03e 1815 7f3d
000002d0: d0cb fcbd 33ec c1be b400 46bc 8e90 ba3e
000002e0: 5710 283f a611 363e f62a 5bbf e50e be3d
000002f0: fe91 cf3d 236f 4e3d 686a aa3d 7ea5 c63e
00000300: c079 d83e 8317 73bd f208 5f3d c170 0d3f
00000310: 3223 68be 4601 33bf 7a8c 5bbe c60c 5cbf
00000320: 2dc5 563f 7a3d 87bf d957 e2bb bd62 03bf
00000330: a897 553e 032b 67bf 7d73 91be 1007 073e
00000340: e087 813e 5c2e b33c 0590 e3be 17ec 44bf
00000350: f1dd 4d3e c9cb e03d b764 df3e a972 17bd
00000360: b900 053e aa03 36bf bc2d 7b3f 2da8 313e
00000370: 1a3f 0a3e cd72 2dbe a17b 373f c80c 67bd
00000380: f6cb 653f 4983 f0be 8708 b23d 0d99 27bf
00000390: 28b5 243f 5446 cbbe f072 a2bb cd7c 2bbf
000003a0: 1560 91bf 21d0 73be 3ba9 8ebe 81b5 97be
000003b0: c198 ea3e d5e5 bfbe 9a11 adbd 67a2 f2be
000003c0: 614c 953e 8de4 cd3d fc65 34be 7adc 8abe
000003d0: c564 c5be c0d5 2bbf 4413 523e ac5a 3f3e
000003e0: 6613 efbe 4221 633e abaf 8d3f c049 393e
000003f0: 0471 383e 4426 333f 0b10 003f a392 f9be
0.08923134 0.67862874 1.0870984 -0.5659956 -0.6002463 0.0949573 0.12328775 -0.39665678
0.13472298 0.5899604 1.1514248 -0.2903655 0.10030388 0.15035112 0.2702096 -0.22754724
0.9498739 -0.54553926 0.25203335 0.4044233 -0.47877312 0.399008 0.174984 0.005838995
0.49433595 -0.15503974 -0.65248257 -0.22615665 0.01691996 0.35842365 -0.27541485 -0.19998786
-0.10784128 -0.34164268 0.485787 -0.39451674 -0.63634306 0.6725356 0.61242455 -0.20803824
-0.6101391 0.9175162 -0.17038313 -0.069459535 0.14171177 -0.691316 -0.570879 0.80320626
-0.21352814 0.99533194 -0.052799042 0.51098853 -0.12243663 0.3722546 -0.44907087 -0.82108814
-0.39282867 0.65704423 0.9020564 0.47585657 -0.2340709 0.48774695 -0.29211113 -0.5485042
0.13933215 0.1462284 -0.15946734 -0.2667951 -0.91286933 0.59451 0.06790134 -0.12400408
0.46734783 0.56921744 0.486231 -0.0046386095 0.17507963 0.13563183 0.88248026 0.042795975
0.2398367 0.018156782 -0.2773892 -0.6862856 0.05868255 0.520574 1.0232159 0.32368246
0.14676727 0.14374138 -0.15033393 -0.28731292 0.12848419 -0.0030737948 0.19260177 -0.9901031
0.028944891 0.7929898 0.11260507 0.3837169 1.2609679 0.44316643 0.2843244 0.016862027
0.3697066 0.016950484 0.086370274 0.2344205 0.48251918 0.5944587 0.23365107 0.3257601
0.4999668 0.18620154 0.523303 -0.26325545 0.3585975 0.33834523 -0.2867383 -0.44706088
-0.5424785 -0.26712048 0.844455 -0.12779678 -0.17614077 0.19857164 0.19745474 0.1207114
0.3262298 -0.50660145 0.28831765 0.06755291 0.5875377 -0.34980544 -0.88839066 0.6217425
0.020093825 0.28943527 -0.39346045 0.90657985 -0.06325977 0.5614198 0.68681747 0.014288769
-0.64913136 0.61618656 0.12127929 0.010446806 -0.10147313 0.5750068 0.5145165 0.33480215
0.06462067 -0.4960787 0.114437744 0.09612689 -0.113398924 -0.29908022 -0.40951648 0.65386975
0.2942104 -0.29001296 -0.43944338 -0.33120534 -0.46069172 -0.15596612 -0.8310254 -0.040186156
0.33180696 0.013515702 -0.0549588 0.31300893 0.27671248 -0.24058384 0.3791858 0.69830143
-0.6876311 0.55359256 0.43808725 0.062275976 -0.12343562 -0.37875518 -0.012085129 0.3643841
0.6564993 0.1778017 -0.8561243 0.09280185 0.10135268 0.050398957 0.08321077 0.38798136
0.42280388 -0.059348594 0.05445189 0.55250174 -0.22669676 -0.6992382 -0.21440306 -0.8595699
0.83894616 -1.0565636 -0.006907445 -0.5132254 0.20858634 -0.90300006 -0.28408423 0.13186288
0.25298977 0.021872692 -0.44445816 -0.76922745 0.20104195 0.10976369 0.43631527 -0.036974583
0.12988557 -0.7109934 0.9811666 0.1734931 0.13500634 -0.16938324 0.7167302 -0.056408674
0.89764345 -0.46975163 0.08693033 -0.6546791 0.6433892 -0.39702094 -0.0049575493 -0.66987306
-1.1357447 -0.23809864 -0.27863488 -0.29630664 0.45819667 -0.37480035 -0.08450623 -0.47389528
0.29159835 0.10053358 -0.17617029 -0.27121335 -0.38553444 -0.6712303 0.20515162 0.18686932
-0.46694487 0.22180656 1.1069235 0.1809454 0.18011862 0.69980264 0.5002448 -0.48744687

lstm.weight_hh_l0 f4 [392, 98]
00000000: 8301 2dbe 9a44 9cbc 44d6 0bbd 4a77 c53e
00000010: 6b00 5e3e 0835 b53d b607 bbbd 5900 933c
00000020: dda1 efbe a1d4 77be 9c12 58be 609f 57bc
00000030: 1a81 233e 0807 e3bd 9999 c8be 68b0 bfbc
00000040: 89e7 4cbe 9429 793e cc4c 88be 5f14 b23e
00000050: d779 dbbe f1dc b5be a010 853e b658 10bf
00000060: b928 79bd c0f2 15be 4c2a 36bf a38c ee3e
00000070: 92cf 07bf 2376 1ebf 7457 84bc 5559 02be
00000080: 3bed b0be 3d83 fa3e 6fb3 a7be 5a61 f33e
00000090: 8535 bebd 5cf6 c53e 8d9d 643e 66f1 f1be
000000a0: 21c9 833e d307 1e3e 18cd 31be 9f0e a3bd
000000b0: af9f 123d 160f 01bd 1472 81be 710f 23bd
000000c0: bdd3 0c3e ef78 25be a4f3 27bd cac3 15bb
000000d0: 3793 58bf d0a7 a43e 37d0 c43e 9912 473e
000000e0: 0551 963e 4c6b 6cbe 0934 063f 059c 95be
000000f0: adea a83e b1b6 dbbe bf09 fa3d 5676 a1be
00000100: c19b 80bf c52c 8a3c 8ec7 613d 5675 a43e
00000110: 1af9 643e b1e1 033f 5f8e 95bd b3bc a9be
00000120: 7679 22bf 96a7 bd3d 72a3 04be db2d dd3e
00000130: 8ff4 353f 29a5 653d 65cc 3d3f bc4d ef3c
00000140: e7a2 1cbd 703e a3be ab6d 0e3f 5c6c f7bd
00000150: fa9f b83e 8b10 3bbe c0dd e53e 9fb4 a13d
00000160: b7ee 0ebf 4416 7cbe 735c 95be a8d9 46bf
00000170: 63fa 103d 7e78 08bf fcd7 073e 20a4 5bbe
00000180: 13b5 afbd 519a 2b3f 3eaf afbe 8d36 d9be
00000190: f2c3 95be 2d94 9bbe 4a6e c1be a133 43bf
000001a0: eec3 c73e 19e2 cdbc 7fc7 3e3d 7d8d c73d
000001b0: 6bba 6f3e 1b15 0ebf 37ce 113f 8e5f d63d
000001c0: 197d 0e3e aa22 bcbe b18d ac3e facd febd
000001d0: f680 9abe 04f3 e9be 1744 56bd 95a9 4cbd
000001e0: 7a8b 4f3e 374e e9bd 4cd1 b6bc 5dca 163f
000001f0: 8cc7 cdbe 1d06 49be 4aa4 d83e 0265 febd
00000200: ab39 5abe 3eb5 d03d 3e9b 73bd bbf2 28be
00000210: 1ba3 8bbe 8691 613d d7a9 acbe 083b 9a3e
00000220: 17bc 03bf bb11 4b3e ff5d 9dbe 627b 77be
00000230: 8801 073f c3de 0b3f 2dfc e7be 57c8 383e
00000240: 97cd 2f3e 90e2 c4be 484d 8c3e 1082 e9be
00000250: 02a7 cabe f4a7 0ebf bc67 943d 9563 5abe
00000260: de1e ba3e 2a13 42be 0719 abbc de35 913d
00000270: 8d5a 38bf 7060 643e c3f4 89be d61e 953d
00000280: 2d2e 09be 4a88 313e 0c88 1c3e ca71 973e
00000290: e739 f53d f434 87bd 3c44 813e 1fc0 a6be
000002a0: 5aca 023e 71f4 e53e c69e 07bd e5a0 0bbe
000002b0: 5c48 86be 9f34 14bf 01f1 05bf 1978 00bf
000002c0: cd66 fdbd bdb9 1b3e 5486 0b3e a1c0 b5be
000002d0: aa7d abbd 58a8 bdbc 3817 d2be 5deb 813d
000002e0: eecb 01be 0951 453d 91d1 c7be 5c99 15be
000002f0: 275a 9dbd f9f6 293f c64a 0bbf ab60 bb3e
00000300: 71fa b13d d735 973e 7d5d 84be c936 4c3c
00000310: 6fba 1dbf 860a d23d 3011 0f3d a46f 8fbe
00000320: 6b6b a73e 2bab edbe f3f8 eabd aa74 aabe
00000330: f359 10be 9f91 86be df36 60be 4716 233e
00000340: 1030 90be 1683 063d d292 133e d188 a0be
00000350: 859c 0a3d be04 a03d d78b fbbe 2da6 97bd
00000360: 6bbd 9ebe 2c15 68bd 8ac6 073e f61c 72bd
00000370: 3851 acbd 683f aebe b882 843e 87d0 d5be
00000380: ddb8 ccbd fa3e fbbe e582 b7be e423 7abe
00000390: 1024 843e fe50 8e3d 313b bdbc 7845 e4be
000003a0: de8a ecbd c74b be3d 90a7 203d 6e8a c1bd
000003b0: fac5 5a3e 2aa9 7ebe 2915 c83e 4f79 0fbc
000003c0: 6c71 6a3e 7fa2 7d3e 1196 a5be 1820 3a3d
000003d0: 37bf 2a3e 00d1 c8bd afd1 6dbd c7de c0be
000003e0: ea55 43bd 1649 97bd 4cd1 1f3e ab0f 56be
000003f0: 9a02 b33e 50a4 83be 4974 1e3f ad3f d4be
-0.16895108 -0.01907568 -0.034139886 0.38567573 0.21679847 0.088480055 -0.0913233 0.017944502
-0.4680318 -0.24202205 -0.21100849 -0.013160557 0.15967217 -0.110853255 -0.39179686 -0.023399547
-0.20010199 0.24332267 -0.2662109 0.34781167 -0.42866394 -0.35520127 0.25989246 -0.5638536
-0.06082985 -0.14643383 -0.7115829 0.46591672 -0.530511 -0.6189901 -0.016154982 -0.1272939
-0.34555992 0.48928252 -0.32754084 0.4753521 -0.09287552 0.3866452 0.22325726 -0.47254485
0.25739387 0.15432672 -0.17363393 -0.07961773 0.035796817 -0.031508528 -0.25282347 -0.039809648
0.13752647 -0.16159414 -0.04100384 -0.0022852295 -0.8459963 0.3215928 0.38440105 0.19440688
0.29358688 -0.23087806 0.5242315 -0.29220596 0.32991543 -0.4291282 0.1220889 -0.31535596
-1.0047532 0.01686705 0.05512195 0.3212077 0.2236065 0.5151625 -0.07302546 -0.3315178
-0.63466585 0.0926048 -0.12952974 0.43199047 0.7107629 0.056065712 0.74140006 0.029211871
-0.038241293 -0.31883574 0.5563609 -0.12081215 0.36059552 -0.1826803 0.44895744 0.07895779
-0.55833 -0.24617869 -0.29172096 -0.7767587 0.035395037 -0.53308856 0.13265985 -0.21449327
-0.08579459 0.67032343 -0.34313387 -0.4242443 -0.29251057 -0.30386487 -0.37779456 -0.76250654
0.3901667 -0.025132226 0.046576973 0.097437836 0.23410957 -0.55500954 0.56955284 0.10467444
0.13914908 -0.36745197 0.33701852 -0.12441631 -0.30176514 -0.4569322 -0.05231103 -0.049966414
0.2026805 -0.113918714 -0.022316597 0.5890253 -0.40191305 -0.19631238 0.42312843 -0.124216095
-0.21311061 0.10190819 -0.059474222 -0.16498844 -0.27272877 0.055070423 -0.33723328 0.30123162
-0.5145888 0.19830982 -0.30735776 -0.2416816 0.5273671 0.5463678 -0.45309582 0.18045174
0.1716827 -0.38454103 0.2740271 -0.45607042 -0.39580542 -0.55725026 0.07246348 -0.2132705
0.36351675 -0.18952623 -0.020885957 0.070903525 -0.7201317 0.22302413 -0.2694455 0.07281272
-0.13396521 0.17337146 0.15286273 0.29579002 0.119739346 -0.06601897 0.2524737 -0.32568452
0.12772503 0.44913056 -0.033110403 -0.13635595 -0.2622708 -0.57892793 -0.5232087 -0.50183254
-0.12373123 0.15207572 0.13625461 -0.35498527 -0.08373578 -0.023151562 -0.4103334 0.0634372
-0.12675449 0.048172984 -0.39027074 -0.14609283 -0.07683211 0.66392475 -0.5441097 0.3659719
0.08690346 0.29533264 -0.25852576 0.012464234 -0.616126 0.102559134 0.0349285 -0.28014863
0.3269914 -0.46419653 -0.114732645 -0.33292133 -0.14096813 -0.26282975 -0.21895932 0.15926467
-0.2816167 0.032839857 0.14411476 -0.31354383 0.033840675 0.078134045 -0.49130127 -0.074047424
-0.3100389 -0.056660816 0.1325933 -0.05910965 -0.08413929 -0.3403275 0.2588098 -0.41760656
-0.099961974 -0.49071485 -0.35842052 -0.24427754 0.25808764 0.06949042 -0.023099514 -0.4458425
-0.11549924 0.09291797 0.0392223 -0.094502315 0.21364585 -0.24869218 0.39078644 -0.00875695
0.2289483 0.24769019 -0.32341054 0.045440763 0.16674505 -0.098054886 -0.058061298 -0.37669966
-0.047689356 -0.07386987 0.15607184 -0.20904414 0.34962922 -0.25711298 0.6189619 -0.4145483

lstm.bias_ih_l0 f4 [392]
00000000: 4bda 08bf b63b 4b3e b506 9dbe 3026 0ebe
00000010: e5db c13e 409f 053f d9dc f1be 3316 673d
00000020: 4239 17be bcad d23e cf30 7cbe c875 63be
00000030: 0222 3dbe 6cce 35be 8366 a7be 1ca3 1f3e
00000040: a759 febd 2d62 1bbe 9de2 1abf 6370 40be
00000050: 78f1 86be 1a94 47be 3de4 063e e8a0 bfbd
00000060: a961 ecbd 697f 18bc 20ad 8fbd 9e97 d7be
00000070: f83b 973e 28f3 3dbe 3869 16bf 3ee8 8cbe
00000080: 5b2d f13c b069 7ebe 0055 68be a304 1c3d
00000090: f85e 473e 762e 8bbe 7352 86be 9852 e1bd
000000a0: 8d2a b6be 12ac 9ebe b708 02bf d252 9dbd
000000b0: 2c2f 23be 2025 96be 0fcc 753d c62e 90be
000000c0: fb7f 26be 0152 cbbd 0027 bebe 8c48 5fbe
000000d0: 0e9b 3ebe 8a61 03bf 4c21 d33d 301d 72be
000000e0: 94af bfbe 4eb0 3ebe 3a11 a2be 01d2 2abe
000000f0: 6b13 93be 810e d0be f6fc d1be b04f 18be
00000100: 86ea 8b3e 97d1 663e 9304 013f fd8d 42be
00000110: b6a1 15be af56 5bbc e36e ddbe 0a70 adbe
00000120: 8a3b aebe bf63 5dbe a69c a4be 0858 d7be
00000130: 8bb9 1ebc 5d78 1bbd 7fba 923d 4c35 b0bc
00000140: 8591 e0be baaa acbe 88b0 adbe 6b54 62be
00000150: 067c 00bf 5c52 ddbe 1a3d a9ba 7cbc bebe
00000160: d708 523e 2558 1fbd 26d1 52be 474e 7cbe
00000170: 519d aabe 130b e1bd 5bd3 463e 2d1e 2c3d
00000180: 3309 26be 6657 06be 8cbf 80bd 1983 163d
00000190: 5b9f 8cbd b4d1 b1be 317e dd3d 162f f5bd
000001a0: e69e 693e 690a 4cbe fee9 84bc 696e 71bc
000001b0: d4d8 0cbe 2dfd 1e3d 51d5 81bd abe1 39be
000001c0: f9a5 f13d d424 d8be 89a6 673d bd9a 96bc
000001d0: ec1e 143e 157a 3b3e 4de7 813e 2e7e 24be
000001e0: ea65 a1be 1374 bd3e 67c2 c33d 98f3 82bd
000001f0: c32f 39be 41a9 cc3d 3414 9d3e 0a34 b1be
00000200: dd32 cc3e d3c6 343e 6510 dabd 871b 18be
00000210: 0ff0 5cbb 7bdd 37bb 62ae 97be 101f 233d
00000220: d7d2 86be 8ded a63e 14b4 753e 6e7a be3d
00000230: b2a0 bc3e 1308 c13e 05ef 1c3e 08c1 6dbe
00000240: 5c03 c83e 5f88 6abd 9502 69bc 7d9c 0dbe
00000250: 2f80 24bd bb44 2bbe ff8c 073f 368b e83d
00000260: 7b6d 13bf d031 f73c c2e9 ed3e c473 bfbd
00000270: 01dc 22be 8d0e ff3c ba3a 903e aa90 a5be
00000280: a5fb b6bd 5df9 c53e ed90 99be 47a2 4cbd
00000290: 17ae 51be c495 fa3d 34c7 9dbd 1474 4bbe
000002a0: 3d3c 833e f8fa 943d 0885 33be 38ae a5bb
000002b0: f488 a23c fbdc 2d3e c632 0f3e db82 ba3e
000002c0: b4b2 a53e c4f3 ecbd 28e2 80bd a5ea 553e
000002d0: b8ee 9b3e aaa7 153e 9972 0d3e 050c 93bc
000002e0: 3b70 dcbd 57f7 69bd e9f8 a1be 874a d43e
000002f0: 2dc6 88be b51f 823e 6db5 8f3e 5d2e 36be
00000300: 65ae 663e a12f 92bd 530c 463e b85f e2be
00000310: fbf2 bbbc 5bdd 303c 8172 a5bd 4dce 69bd
00000320: 0c42 4f3d 8fc0 00be 480e 673d 6e19 3c3c
00000330: 3e57 623e 4c15 3a3e f555 673d faa5 25be
00000340: 9047 3dbe 8882 f8bc 4c53 59bd 52fc 30bd
00000350: 7a3c a6bd e5d7 ef3d 8419 50bd e591 853e
00000360: 4148 d73c b44e 57bd 71f5 6b3c d64e 033e
00000370: 9621 643c 97d0 86be bf28 c03d d958 2ebd
00000380: d5f2 683e 705c 813e 28d3 313d 83b4 713c
00000390: 522a 463e 17e8 7bbb 161f 9dbd 3da3 f83d
000003a0: 6eb8 5abb 2f0d 47bd 9952 8ebe f8e3 23be
000003b0: 15c1 ce3a 9e60 8a3d 09fd 073d deb2 afbd
000003c0: 3870 e7bd 2d69 783e 8b83 cebc c60d 373e
000003d0: 3586 81be 8bb4 6d3e 1cb2 10be 3541 b23b
000003e0: f243 8abd c4dd bbbd b109 56bc 6815 843c
000003f0: d7d8 013e d2ad 8dbd 9335 98be a5ac 8fbb
-0.5345809 0.19846997 -0.3066918 -0.13881755 0.3786308 0.5219612 -0.47238806 0.056417655
-0.14767936 0.41148174 -0.24627994 -0.22212899 -0.18470004 -0.17754525 -0.32695398 0.15589565
-0.124194436 -0.1517417 -0.60502034 -0.18792872 -0.263561 -0.1949009 0.13173003 -0.09356862
-0.11542065 -0.009307721 -0.07015443 -0.42107862 0.2953794 -0.18549788 -0.587543 -0.27520937
0.029440572 -0.24845004 -0.22688675 0.03809036 0.19469821 -0.27183884 -0.2623478 -0.11002082
-0.3557934 -0.30990654 -0.5079455 -0.07681812 -0.15935963 -0.293252 0.06000906 -0.28160685
-0.16259758 -0.099277504 -0.3713913 -0.21805018 -0.18613836 -0.5132071 0.10309085 -0.23643947
-0.37438643 -0.18621942 -0.31653768 -0.16681673 -0.28725752 -0.40636066 -0.41013306 -0.14874148
0.27327365 0.2254089 0.50397605 -0.18999477 -0.14612469 -0.013387366 -0.43248662 -0.33874542
-0.340298 -0.21620081 -0.32150763 -0.4205935 -0.009687792 -0.037956584 0.071644776 -0.021509789
-0.43861023 -0.33724004 -0.33923745 -0.22102515 -0.50189245 -0.43226898 -0.0012911886 -0.37253177
0.20511185 -0.03890242 -0.20587596 -0.24639235 -0.33323148 -0.1098844 0.19416563 0.042020965
-0.16214447 -0.13119277 -0.06286535 0.03674612 -0.06866332 -0.34730303 0.10815085 -0.119718716
0.22814521 -0.19925846 -0.016224857 -0.0147357965 -0.13754588 0.038815666 -0.06339515 -0.18152492
0.11799235 -0.42215598 0.056555305 -0.018384332 0.14464921 0.1830829 0.2537178 -0.16063759
-0.31523067 0.3700262 0.09558564 -0.06394118 -0.18084626 0.0999322 0.30679476 -0.34610015
0.39882556 0.1765397 -0.10647658 -0.14854251 -0.0033712422 -0.0028055597 -0.2962523 0.039824545
-0.26332733 0.32603112 0.23994476 0.09300695 0.3684135 0.37701473 0.15325554 -0.23218167
0.39065063 -0.05725896 -0.014221807 -0.13829227 -0.040161308 -0.16725437 0.5294952 0.113546774
-0.5758893 0.03017512 0.46467406 -0.093482524 -0.15904237 0.031134868 0.28169805 -0.32336932
-0.08934716 0.38666812 -0.29993382 -0.049959447 -0.20476566 0.12235597 -0.077040106 -0.19868499
0.25631896 0.07274431 -0.17531216 -0.005056169 0.019840695 0.16978829 0.13984212 0.3642796
0.32362902 -0.11569932 -0.06293136 0.20890291 0.30455565 0.1461474 0.13813247 -0.017950067
-0.10763594 -0.057120647 -0.31635216 0.4146311 -0.26713696 0.25414816 0.28068104 -0.17791124
0.22527464 -0.07137991 0.19340639 -0.44213653 -0.02294301 0.010794963 -0.080784805 -0.05708151
0.050600097 -0.12573455 0.056410104 0.011480672 0.22103593 0.18172187 0.05647846 -0.16176596
-0.1848433 -0.03033568 -0.053057954 -0.04320938 -0.08117004 0.117111005 -0.050805584 0.2608787
0.02627957 -0.05256529 0.0144017795 0.12823042 0.013924023 -0.26331016 0.09382772 -0.0425652
0.22748883 0.25265837 0.043414265 0.01475251 0.19352081 -0.0038437897 -0.07671945 0.1214051
-0.0033374089 -0.048596557 -0.27797392 -0.16004932 0.0015774096 0.067567095 0.033200298 -0.08579038
-0.11300701 0.24258871 -0.025209209 0.17876348 -0.25297704 0.23213403 -0.14130443 0.005439902
-0.06751241 -0.09173158 -0.013063834 0.016123489 0.12680374 -0.06917919 -0.29728374 -0.0043845945

lstm.bias_hh_l0 f4 [392]
00000000: 5baa bcbe afe1 283e 84e9 a4be 008a ffbd
00000010: ce8e c13e bb13 093f 3eb5 c7be 21e4 5ebd
00000020: 9fcd 8dbe fa27 a03e b224 9fbe 07a7 88be
00000030: 3408 96be 521d 67be fd97 57be 3290 843d
00000040: 514d ffbd 8380 6cbe 73b9 ecbe 153d 29bd
00000050: cc36 40be 78af 47be 9618 3a3e 4783 eebd
00000060: c272 1cbe d052 e4bc 06fb 64bd ddde 14bf
00000070: 95fc 933e 469a abbe 8c90 04bf e7a5 84be
00000080: d356 d13d 4907 ecbd 491b e5bd 84e9 8b3d
00000090: 2a75 533e 2fa9 abbe 28da 64be 358a 32be
000000a0: bd01 afbe f46e 72be d478 b5be 8533 fbbd
000000b0: f252 4abe 8262 95be ff86 debd c3c9 c2be
000000c0: 350e 98be 8379 b0bd cd9a 9abe 9a57 84be
000000d0: e61e 2fbe 651c c8be a4bd 483e ca6b 82be
000000e0: a914 e8be db3d 90be a2e7 a0be f8e0 99bd
000000f0: 8f71 85be b49f b3be 0e2f e7be d7ac 65be
00000100: b924 9d3e 1484 493e 91c5 e63e ad51 9dbe
00000110: d9fa 85be d155 e0bb 562b 99be a492 babe
00000120: a4b8 dabe 73aa 69be e81a e1be 350f d6be
00000130: 4edf 0bbe e45e d8bd 2d78 c1bc cc59 473b
00000140: 034b 0fbf 84ca cbbe 0b3e c3be 937f 9abe
00000150: 1ca0 cfbe 96db a2be 3788 953d 0d60 94be
00000160: 5242 163e 0a69 1cbe e031 44be 35f0 80be
00000170: 1e78 adbe f39b a53d 1081 943c 5780 b4bc
00000180: 3f6f 5ebe a832 a3bd 28da 083e 6d62 13be
00000190: 5ca4 9cbd dad1 87be 513f 1d3e 567b ccbd
000001a0: 95f7 473e afe6 20be b83d 093e 42c4 cebd
000001b0: b201 8ebe c90a 08bd 67dd cebc 74bf 83be
000001c0: c641 3e3d 578e dcbe d735 853d e645 a13b
000001d0: 690f ba3d ff21 3b3e 2f65 833e 0ead 18be
000001e0: af4d 75be a47a ba3e 5d0f d33d a828 4cbe
000001f0: c0a2 a5be ca81 333c fecb a13e 545c a7be
00000200: 6e83 e53e 4f15 e23d c77e 35bd fb26 afbd
00000210: cce7 7bbd 4bba 1c3e 3078 8ebe 70c4 f4bd
00000220: 22ba 3fbe 0797 913e e594 653e 0400 cd3d
00000230: cd53 c53e 6e0e ec3e 2f83 753e 84f9 9abe
00000240: 42d7 c53e 9a83 1fbd 8c3e 70bd 5c1a 9ebd
00000250: d93f b9bd 3494 cabb b8a4 fa3e 3856 923e
00000260: 3657 f2be c056 c33c 14ce e93e c456 f2bc
00000270: cf48 19be 2d0c c03d f8bd 363e 281a 83be
00000280: 2c5f 0b3c b860 a23e f488 b0be 81f5 b1bd
00000290: 9190 68be da12 98ba d5fa b6bd e86d 2dbe
000002a0: 3729 8a3e 61fa 2ebd 729f 13be 9e2f 15be
000002b0: 36b7 bdbd 0c0c b33d 34b7 8c3e f71a 3f3e
000002c0: 6970 8e3e 7cd4 95bb c6a3 72bd b418 a33e
000002d0: d07a 013e 5c78 283e 36ed 2e3e 014d 4a3d
000002e0: d07f 53bd 06f7 e7bd d7c7 c5be 3b45 f83e
000002f0: d45b 86be caa3 bf3e 89dc 893e d160 b5bc
00000300: c3d1 7d3e badd 30be ae70 233e 393b babe
00000310: be91 f2bd eec7 2abd 0b5b 423d 1da4 f1bd
00000320: 69b7 03be 0e6c 8dbd 854a ca3c 9b80 e5bd
00000330: a688 593e 4525 bf3c 5983 73bd ff8f 10be
00000340: 10bf 5cbe 3464 cdbc dc52 bf3d 802d 15be
00000350: a2b8 0cbe 5c12 1f3e 6115 9a3c 457c 053e
00000360: b631 3f3d d73a 453c c3b0 14be 2a07 e03d
00000370: 51f6 e3bd bfa9 98be e823 94bd de8c 43bd
00000380: e6e6 903e 2099 173e d22d 38bd e9f0 88bd
00000390: 2ca3 f43d aea6 673d 4423 21be 15fb f73d
000003a0: 54e6 3abe f7aa c8bd 5ef2 85be ba84 42be
000003b0: fb11 8f3d a5c3 d83d 8788 b0bc 5811 3abe
000003c0: 08f0 90bd 6d83 9b3e 7bee 0e3d a8cf a83e
000003d0: 733c a5be 742a fa3d 67d2 24bd 99b6 f63c
000003e0: c816 7b3c 673a 46be 164f 45be 829f 473e
000003f0: 7ab0 83bc ac25 f8bc 8b7c 95be e8c2 b23d
-0.3684872 0.16492341 -0.32209408 -0.12477493 0.37804264 0.5354573 -0.39005464 -0.05441678
-0.2769594 0.312805 -0.31082684 -0.26689932 -0.29303133 -0.22569779 -0.21054073 0.064728156
-0.12465919 -0.23095898 -0.46235237 -0.041318018 -0.18770903 -0.1950053 0.18173441 -0.11646133
-0.15278152 -0.02787152 -0.055903457 -0.5815256 0.28903642 -0.3351614 -0.5178306 -0.25907823
0.102216385 -0.11524827 -0.11186845 0.06831649 0.20650163 -0.33527514 -0.22348845 -0.17435534
-0.34181014 -0.23675138 -0.35443747 -0.12265686 -0.19758204 -0.29176718 -0.10865592 -0.38044557
-0.2969834 -0.086169265 -0.3019623 -0.25848085 -0.1710163 -0.39084163 0.19603592 -0.25472862
-0.45328262 -0.28172192 -0.31426722 -0.075136125 -0.260632 -0.3508278 -0.45153087 -0.22429214
0.3069208 0.1967929 0.45072606 -0.30726376 -0.26167944 -0.0068461676 -0.29915875 -0.36440003
-0.42718995 -0.22818927 -0.4396584 -0.41808477 -0.13659403 -0.10564974 -0.023616875 0.0030418513
-0.55973834 -0.39802945 -0.38133273 -0.30175456 -0.4055184 -0.31808156 0.073013715 -0.2897953
0.14673737 -0.15274444 -0.19159651 -0.25183263 -0.33880705 0.080863856 0.018127948 -0.022033853
-0.21722125 -0.07968646 0.1336447 -0.14393015 -0.076485366 -0.26527292 0.15356185 -0.09984462
0.19528039 -0.15712999 0.1340245 -0.10096027 -0.27735668 -0.03321341 -0.025252057 -0.25732005
0.046449445 -0.43077347 0.0650441 0.0049216626 0.090849705 0.18274687 0.25663134 -0.14909765
-0.23955415 0.36421692 0.10305665 -0.19937384 -0.3235073 0.010956237 0.31600946 -0.32687628
0.44826835 0.110392205 -0.044310357 -0.08552357 -0.061500356 0.1530544 -0.2782607 -0.1195153
-0.18723348 0.28435537 0.2242008 0.100097686 0.38540497 0.4610476 0.23975824 -0.3026849
0.3864079 -0.038943864 -0.0586534 -0.077198714 -0.09045381 -0.006182218 0.48953795 0.28581405
-0.47332162 0.023845077 0.45665038 -0.029582389 -0.1496918 0.09377322 0.17845905 -0.25605893
0.008506577 0.31714416 -0.34479487 -0.08689404 -0.22711398 -0.0011602298 -0.08934561 -0.16936457
0.2698457 -0.04271925 -0.14416292 -0.14568946 -0.0926346 0.08742532 0.27483523 0.1866263
0.27820137 -0.0045724493 -0.059238218 0.31854784 0.12644506 0.16452163 0.17082676 0.049389843
-0.051635563 -0.11326413 -0.38629028 0.4849032 -0.26241934 0.3742965 0.26926067 -0.022140892
0.24787049 -0.17272082 0.15960953 -0.36373308 -0.11844204 -0.041694574 0.047450107 -0.1179888
-0.12862934 -0.069053754 0.024693737 -0.1120617 0.21243533 0.023333201 -0.059451435 -0.1411743
-0.2155726 -0.025072195 0.09341976 -0.14568138 -0.13742307 0.15534347 0.018809022 0.13035686
0.046678267 0.012037954 -0.14520554 0.109388664 -0.111309655 -0.29817006 -0.07233411 -0.047741763
0.28301162 0.14804506 -0.044965573 -0.06686575 0.11945185 0.056555443 -0.15736109 0.12108437
-0.18251926 -0.09798234 -0.26161474 -0.18995944 0.069858514 0.10584191 -0.021549476 -0.18170679
-0.07077032 0.30373707 0.0348954 0.3297093 -0.32272682 0.122151285 -0.040239718 0.030116366
0.015325256 -0.19358216 -0.1926845 0.19494441 -0.016075362 -0.0302914 -0.2919658 0.08728582

lstm.weight_ih_l1 f4 [392, 98]
00000000: 14ca 203e bc54 343e 2f91 0b3d 9918 8bbe
00000010: ef92 ca3d 926d 36bf f8f4 b63e e3a1 94be
00000020: 958f ba3e 1de6 14bf 5173 8dbc db92 6bbe
00000030: a30b c8be 26ba ef3d c340 2cbf 05e2 0abf
00000040: 2301 36be ca96 31be 34d9 56be 86e1 753e
00000050: 4fb8 b7be 994e fabe 21aa 133e b190 b2be
00000060: ceec 4cbe 5937 43be 215c 4ebf 14fc edbd
00000070: 56cd a83f a05f 61be 6d3d b0bd b36c 53bf
00000080: dcdf 1a3d cd4a 1abf fb5b ae3d 3062 3cbd
00000090: 1a01 21bf f96c 0dbe 12c2 19bf 5e4f 75bf
000000a0: 8494 ea3e 4cb9 763d 9fdd 0f3f 43ba e0bc
000000b0: e98c ff3e abe1 ed3e 8527 cabe f8d9 ec3e
000000c0: aaef 25bf 055f e7bd 0d1e 95be f1c0 b03e
000000d0: 0afa 20be d7dd 3e3e b510 af3e ad74 523d
000000e0: 268d c93e b2db d23e 4cf5 31be 07b6 2abf
000000f0: 635e 023f 561b 033f 71b8 39be df2d 2ebf
00000100: 7bab 48bf 6d3f d2be 3d8e 8b3f a54c d0be
00000110: 0da3 913d 1fda bf3d ea30 6a3e 17ea 80bf
00000120: c4ec 8d3f e008 c2be 4a09 7dbe a4fd 9b3e
00000130: 34af 7c3f baa4 94bc cf53 17be f0b9 563e
00000140: 567f 653e a8fd e33e 74b4 5c3f fa2a 93bd
00000150: a143 193f 01a3 b1be e61d a9bd 58c8 99bb
00000160: 9d45 1abf f08d 9c3f 02e0 cbbe 1692 1cbf
00000170: 1c92 ba3f 6f41 153e 5449 e3be 8284 923e
00000180: 26c9 2b3f a9df 2bbf b80c 013f 393d 703e
00000190: dc7a 7bbe e92c 2cbe 32cb d93e 64b8 bfbc
000001a0: 38a3 56bd c80b ffbe 9522 a4be 5a8c 193e
000001b0: 842b 4b3e 24d6 d5bd fb49 76bd 65b4 4b3f
000001c0: 4c41 88be 46b5 93be 8a81 de3c db68 643c
000001d0: f36a 59be fd57 243e 6f21 52be a36d 82be
000001e0: 06a9 793e 03e7 ab3e 45ee dcbc 14ae b33e
000001f0: 3406 d93d f1aa 42bd 2609 143e e949 dfbe
00000200: 3ccc a0be f3d6 c8be 2e82 05bf f9b5 a13d
00000210: c172 adbe d9b8 6abd 843e 99bd b842 d3bb
00000220: d56a a5be f726 98bd 6487 803e 5f01 373e
00000230: c6a7 6e3e baf6 a33d 164a 5dbe 12d2 b1bd
00000240: 6f22 00bf 7fb8 973e 5351 c13e e27e 6ebd
00000250: b0ce 56bc afc4 0bbf f2dd 65be a696 543f
00000260: 8229 233f b91e b0bd f9a0 5c3e 54b0 9abe
00000270: 789d 9abd fb44 28be 7c77 003e 4da6 99be
00000280: 1b9f ee3e 4b3b 9bbe 4d1b 363f 54e5 063e
00000290: 5341 1ebe 3d57 3bbe 9a0e 6bbd 86f8 863d
000002a0: 59f0 c53c 07e1 eebd 03e6 b838 42b7 563e
000002b0: 8cef 4d3e bd04 a13e f628 413e 9656 703c
000002c0: 7929 94bd a16c b7be cebd 653e e83e 98bd
000002d0: 15a8 fb3d be59 01be eb2b 963d 4b52 31bf
000002e0: 46aa e23c bb54 5abe 419d 123e fd47 343d
000002f0: c446 043f 7be4 e93d b5dd b43e f3f0 dd3e
00000300: 01c5 bebe c415 eb3d e0c5 37be 725d 18bf
00000310: bd9e bab9 7371 04bf 0690 e93c bc16 003f
00000320: c311 d93e 9bf5 ddbd 3996 873e d415 ad3f
00000330: 59d8 fb3e e29a b0be bb5b c6be b16e 58be
00000340: 0753 fc3d 3169 47bf 4198 aebe 267a 903e
00000350: 4597 513e b303 adbd f947 dc3d a86a b2be
00000360: 9407 8cbe 6a86 70bf c84d 5b3f 8218 863e
00000370: f1ec 433f 320f a73e 4dd6 adbd e169 36bf
00000380: 7627 9b3e 1a86 183f a3f2 433e e9e9 6cbc
00000390: ff0f b9be 9853 563e 9f24 393f ce95 20ba
000003a0: fa20 4cbf 71ec 38be e626 8d3e 152d 37bd
000003b0: 0320 0d3f 84fe 80be 5979 2a3d 6d06 7fbe
000003c0: 3d5a 7ebd 5229 b8bd 2be8 36bf 32d9 a2be
000003d0: ce6d e63e ed58 a2be 2e02 2cbf 2ff6 2cbf
000003e0: e490 5cbe 1640 60be 3a8d a6be 15d5 fbbe
000003f0: f850 ed3d 8fa1 1b3e c2e5 713f 7edd cabe
0.15702087 0.17610449 0.034074005 -0.27167204 0.098913066 -0.7126094 0.3573377 -0.2902976
0.3643767 -0.58163625 -0.017266901 -0.2300524 -0.39071378 0.11705427 -0.6728632 -0.5425113
-0.17773871 -0.17342678 -0.20981294 0.24011812 -0.35882804 -0.4888809 0.14420368 -0.34876016
-0.20012209 -0.19064082 -0.8060933 -0.11620346 1.3187664 -0.22009134 -0.08605466 -0.82587737
0.037811145 -0.60270387 0.08513638 -0.045992076 -0.62892306 -0.13811101 -0.6006175 -0.9582423
0.45816433 0.060235307 0.5619754 -0.027432567 0.49912193 0.46461233 -0.39483276 0.46260047
-0.64818823 -0.112974204 -0.2912449 0.34522203 -0.15720382 0.18639313 0.34192434 0.051380802
0.393655 0.4118324 -0.1737873 -0.66684 0.5092527 0.51213586 -0.18136765 -0.68038744
-0.7838666 -0.41064015 1.0902783 -0.40683475 0.071111776 0.09367775 0.22870222 -1.0071439
1.108788 -0.37897396 -0.24710575 0.3046695 0.9870484 -0.018144954 -0.14778064 0.20969367
0.22411856 0.44529462 0.8621285 -0.071859315 0.5986882 -0.34694675 -0.08257656 -0.0046930723
-0.6026247 1.2230816 -0.39819342 -0.6116041 1.4575839 0.14575742 -0.44391882 0.2861672
0.67103803 -0.67138153 0.5041003 0.23460855 -0.24558586 -0.16814007 0.42537838 -0.023403354
-0.05240175 -0.49813676 -0.32057634 0.14994946 0.19840819 -0.10441235 -0.060129147 0.79572135
-0.26612318 -0.28849238 0.027161378 0.013941015 -0.21232204 0.1604919 -0.20520566 -0.2547427
0.24380884 0.33574685 -0.026969085 0.3509375 0.10596886 -0.047526304 0.14456615 -0.43611076
-0.31405818 -0.39226493 -0.52151763 0.07896037 -0.33876613 -0.05730519 -0.07482627 -0.0064471625
-0.3230807 -0.07429307 0.25103295 0.17871617 0.23306188 0.08006044 -0.21610293 -0.08682646
-0.5005254 0.29632947 0.37757358 -0.058226474 -0.013110802 -0.5459699 -0.22447947 0.8304237
0.6373521 -0.0859961 0.21545781 -0.30212653 -0.07549566 -0.16432564 0.1254558 -0.3000969
0.46605763 -0.30318674 0.7113541 0.13173419 -0.15454607 -0.18294998 -0.057386972 0.06590371
0.024162458 -0.11664014 8.816647e-05 0.20968345 0.20110911 0.31448928 0.18863282 0.014669081
-0.07234473 -0.35825065 0.22435686 -0.074338734 0.122879185 -0.1263189 0.073325954 -0.69266194
0.027669083 -0.21321385 0.143178 0.044013966 0.5167048 0.11420532 0.353254 0.43347892
-0.37259677 0.11478761 -0.17946577 -0.59517586 -0.00035594954 -0.5173561 0.028511059 0.5003469
0.42396364 -0.10837861 0.26481798 1.3522286 0.49188498 -0.34493166 -0.3874186 -0.21135975
0.12320524 -0.77894884 -0.34100536 0.28218192 0.20467861 -0.08447971 0.10755915 -0.34846997
-0.27349532 -0.939551 0.8566556 0.26190573 0.7653342 0.3262878 -0.0848814 -0.7125531
0.30303544 0.5957962 0.19135527 -0.014460065 -0.36145017 0.20930326 0.72321504 -0.0006125838
-0.7973782 -0.18058945 0.2756874 -0.044720728 0.5512697 -0.2519418 0.041619632 -0.24904795
-0.062097777 -0.08992256 -0.7144801 -0.31806332 0.4500565 -0.3170847 -0.67190826 -0.67563146
-0.21539646 -0.21899447 -0.32529622 -0.49186006 0.11587709 0.15198348 0.9449121 -0.3962211

lstm.weight_hh_l1 f4 [392, 98]
00000000: 11aa ebbd 7c74 08bf f4db 053f 5093 10be
00000010: 6e02 2cbf e6a8 b2bd 6781 a83e 49b1 e13e
00000020: 22d9 06bf 2250 933e 0790 633d 3ceb 00be
00000030: 308d 9bbc 922e 83be 64c2 3c3f f490 023f
00000040: 6436 333e b3fd 323f 90e7 4bbe 26db 1d3f
00000050: 5b21 0fbf a624 a63e a9fb 803d 93ed cb3d
00000060: 464f 2c3f e0ee 8abe 973a 82bd 7422 cfbe
00000070: a8a7 11be ddc0 67bd b180 d23e e3b7 e4be
00000080: f8ea 483f fc70 23bf 0c8c aabe 9485 083e
00000090: 9a82 1f3f c19e 9a3e 2a5d c3be f5fd a7bc
000000a0: 81d7 2dbf aa53 293f 7188 3ebc b978 60bd
000000b0: 21d8 52bf c2d3 c93e 44e8 e13e 115d 923b
000000c0: 442a 82be 4a11 383e 2f1f 6cbe 0e0f 48bf
000000d0: 83d1 233e 0115 47be ea76 4bbe 59da cbbe
000000e0: 3abb 693e 7af9 30bf 8a9a 5f3d 1f29 1dbf
000000f0: 1fc5 023e 607f 993f b604 75bd 32b0 4f3e
00000100: 7126 7e3f e61f 8c3e b58b 41be 8aca f2bc
00000110: ed8f c0bd d5a7 9cbe 7678 a1be 5299 c3be
00000120: 1cf9 663c 07ea 6a3e 15f1 28bf 8ba7 d0be
00000130: f040 273f 61ce debe a638 a4be 8bd0 abbc
00000140: 8251 dfbe 8297 173f f66e 1cbe 7ef3 053f
00000150: 5644 56bf 9dd6 7ebe 858a e5be 0120 4fbe
00000160: d001 893e 3893 323e 9e96 f9be a4dc a43e
00000170: f973 bc3c 5b6d fbbe 3973 98be 1328 56be
00000180: 81fa eebe 497a 2dbe c2f9 553f de35 5abe
00000190: e2d2 47bd a79e c43c c587 edbe 6db9 9bbe
000001a0: 2728 81be b29b 8a3e 017a 2fbf cb41 523e
000001b0: e8b0 ac3e 565a dcbe 98ac 99be 2ea5 22bd
000001c0: ca17 a7be 8a42 2a3e 5710 483d 2fbf 293e
000001d0: 9b9e fcbd 1901 36be 8cf1 393e babd a2bc
000001e0: 9d2a cc3e 7bb3 f83d 53d7 ebbe 1ff9 343e
000001f0: 27f2 943e 0d33 be3e a492 b33d 50c9 b3be
00000200: 093e 703d 608a f33e 19da 153f f933 06be
00000210: facd f7bc c606 9d3d 4990 423d ffce a53e
00000220: 48ec ac3d 0fe3 c53d d594 44be 45b1 14be
00000230: 841e 1d3f 6455 e6be 1173 213f 135f 8e3d
00000240: bcf8 c3bd edae 0ebf 3081 05bf c1e5 b73d
00000250: 663e b4bc fd55 323e df45 9bbe 1d1a 653e
00000260: 75f6 263e de0b d43e 587c e83e fa21 af3e
00000270: 44fd 4c3e 253a 71be 6c5d 2c3d fc58 c5be
00000280: 4161 453e 0fe9 c73e e098 c83e b00d c6bd
00000290: 8827 21bf 95f4 6dbd 4c43 adbe a5af e5be
000002a0: 6bd2 773d 1fa7 07bd 2852 b23d c273 b3be
000002b0: 8166 19be 424e 083e ed8f a83d 3515 1bbd
000002c0: 7f73 b53c 1648 633f c32e 79be 5680 0ebf
000002d0: aea4 66bf d55d b83b a3f8 c93e 1a25 55bd
000002e0: 57f3 7e3e 43f0 253f 2422 0dbe e648 a73e
000002f0: c350 86be c0be 0ebe 97b7 1bbe 5fd8 9ebe
00000300: 988c e1be 74a6 273e 2c47 2b3e 281f 6dbe
00000310: c277 0e3f 3ebe 8fbd b61f 58bd eed7 08bf
00000320: 0215 803d 25ef 223f 0d8a 6b3d 2a67 3a3f
00000330: 0dbd 87be a4fc 8d3d 6957 ef3d c74b 0c3e
00000340: e15e 6c3f e5fb 2abf 04f1 083f 743f 2c3e
00000350: 48e2 b1be 4587 843e 984a 663e 9622 99be
00000360: 1f5d 2bbe c4d0 d63c f749 a3be 6e47 c93e
00000370: f60d 283d 9cee 18be b8ff 0e3e aa3d 0ebf
00000380: 167b 173d 4697 32be 3f26 f5be a371 24bf
00000390: 1e5c a4bc e6e6 443f e606 5b3e ede0 82be
000003a0: 59c1 1dbf 471f 543e 5de5 24be 25d0 1bbe
000003b0: be8e 1b3f 1ea8 ca3e 729c 10bf 8b75 a73d
000003c0: b3ed 003f d359 36bf 8e25 283e f4d3 00bf
000003d0: 9a18 64bd 4ebc 9dbe 1df8 e53e d941 eabe
000003e0: d11a 9d3e 0d03 00bf 93ef eabe 2410 9d3e
000003f0: 3ff1 283f f06b 173f 01ba ccbe 1080 143e
-0.11507047 -0.5330274 0.52288747 -0.14118695 -0.6719121 -0.08723621 0.32911226 0.4408057
-0.5267507 0.28772074 0.055557277 -0.12589735 -0.018988222 -0.25621468 0.73734117 0.5100243
0.17501217 0.69918364 -0.19912553 0.6166252 -0.5591027 0.32449836 0.06298 0.09957423
0.6730846 -0.27135372 -0.063588314 -0.40455973 -0.14224112 -0.056580413 0.4111381 -0.44671544
0.78483534 -0.63844275 -0.33309972 0.13332206 0.6230866 0.30199245 -0.38157016 -0.020506838
-0.6790696 0.66143286 -0.01162921 -0.05480263 -0.82361037 0.3941937 0.44122517 0.004466661
-0.2542287 0.17975345 -0.2305877 -0.7814797 0.15997891 -0.19441606 -0.19869581 -0.39815024
0.22825328 -0.6913067 0.05459074 -0.6139087 0.12770508 1.1991997 -0.059818946 0.20282057
0.99277407 0.27368087 -0.1890095 -0.029637594 -0.09402452 -0.30596796 -0.31537217 -0.38202912
0.014097478 0.22940837 -0.6599286 -0.40752825 0.6533346 -0.4351683 -0.3207447 -0.020973464
-0.43616873 0.5921556 -0.15276703 0.52324665 -0.8369802 -0.24886556 -0.44832245 -0.20227052
0.26759195 0.17438972 -0.48747724 0.32199585 0.023004519 -0.4910687 -0.29775408 -0.20913725
-0.46675494 -0.1694118 0.83584225 -0.21309611 -0.048785098 0.024001433 -0.46392646 -0.30414906
-0.25225946 0.2707191 -0.6854554 0.2053291 0.3372872 -0.4303767 -0.3001449 -0.03970831
-0.32635337 0.16626945 0.048843708 0.16576837 -0.12334939 -0.17773856 0.18158549 -0.01986586
0.3987626 0.12143608 -0.46062717 0.17673157 0.29090998 0.37148324 0.08768204 -0.35114527
0.05865291 0.4756651 0.58535916 -0.13105763 -0.030249584 0.076673076 0.047500882 0.32384488
0.084435046 0.096624486 -0.191974 -0.14520748 0.6137469 -0.44987023 0.630662 0.06951728
-0.09568927 -0.55735666 -0.5215025 0.08979369 -0.02200241 0.17415614 -0.30326745 0.22373243
0.16304953 0.41415304 0.45407367 0.3420561 0.20018488 -0.23557337 0.04208128 -0.38544452
0.1927538 0.39044997 0.39179134 -0.096705794 -0.62950945 -0.05809458 -0.33840406 -0.4486057
0.060503405 -0.033118363 0.08707076 -0.35049254 -0.14980508 0.13311103 0.08230577 -0.03786202
0.0221498 0.8878187 -0.24334244 -0.55664575 -0.9009503 0.00562642 0.39447507 -0.052037336
0.24897514 0.64819735 -0.13782555 0.32672805 -0.2623349 -0.13939953 -0.15206753 -0.31024453
-0.44052577 0.1637209 0.16726369 -0.23156416 0.55651486 -0.07018708 -0.052764617 -0.5345448
0.06254007 0.63646156 0.057504702 0.72813666 -0.26511422 0.06932953 0.11686594 0.13700782
0.92332274 -0.6679061 0.5349276 0.1682108 -0.3474295 0.25884452 0.22489393 -0.299092
-0.16734742 0.026222594 -0.31892368 0.3931231 0.04102894 -0.14934772 0.13964736 -0.5556284
0.03698262 -0.17440519 -0.47880742 -0.64235896 -0.020063456 0.76914823 0.2138935 -0.2556223
-0.6162315 0.20715056 -0.1610312 -0.1521612 0.6076468 0.39581388 -0.56488717 0.081767164
0.503627 -0.7123081 0.16420576 -0.50323415 -0.055687524 -0.30807728 0.44915858 -0.45753363
0.30684522 -0.50004655 -0.45885906 0.30676377 0.6599311 0.59149075 -0.3998566 0.14501977

lstm.bias_ih_l1 f4 [392]
00000000: 9e20 b73d 1e8e 92be 0f4e f3bd aafe 32bf
00000010: 1dc3 c3bd 7347 1cbd c2bd d7be 8e75 82bd
00000020: d04f 30bd 325b 773e d861 ebbd ac65 74be
00000030: 8fd9 cc3c 1f7f 2bbd 7a9f 03be a61f 52be
00000040: 5871 6bbe 1f03 05be 4505 b53d 6244 e2bd
00000050: c92f a7be da71 7fbe 2b71 52be 6418 01be
00000060: b6e5 0abf 3dbf 11be 8625 76be ceda c2be
00000070: fdc9 1f3e b17f bdbd 8076 a13d e62f 2abe
00000080: da17 a1be 1195 9dbd de2e c7bd 4835 7bbe
00000090: e22f 37be 6484 503e 104f f8bc 0ea8 aabe
000000a0: 52cf ecbd ed30 d3bd 2766 08be f643 9ebe
000000b0: d565 54be b757 fdbc d86a 9dbd be68 0ebf
000000c0: 0851 aebe badc 91be a0b0 a5be 013d 33be
000000d0: b0b2 01be 2ac8 e23e 2630 0a3f e0f6 63bc
000000e0: a8a4 12be 6180 9dbe ecba 023e fb5c 5dbe
000000f0: adcc 73be 79f5 e53c a27f 043e 6f74 2ebe
00000100: df9a b2be 4679 033e fa10 f3bd b638 8fbe
00000110: 4004 1bbd 471d 73be 54e2 6ebe 906a dbbe
00000120: 7287 a3bd 01a8 06be 244a 26be 0721 3dbe
00000130: 2aff 98be 9b87 60bd 2b9d af3d c1ec c8be
00000140: ac2a 90bd 0103 5ebe 5324 66be 5416 97be
00000150: 747b b63d 98bb aabc b90b 9fbe 63d3 a9ba
00000160: 2d67 8b3c 6789 57be 5cfb 03bf a0a5 373d
00000170: ea96 d4bd eda5 06be 501e cabd 9014 d6bc
00000180: cb0f 2cba 0c7e 1ebd 6bbc 98be db1b 403e
00000190: 651d 193e 38b1 81ba 8e7b 1d3b 2af0 953c
000001a0: a2aa 8e3e 523e 873e ef24 dc3e 3925 963e
000001b0: 5c01 133d 8fed f9bd d6b6 69bd 2203 803d
000001c0: f5e3 143e 9988 a13e 9c6c 943d ff92 933d
000001d0: 89d2 00be a559 3bbe ecfc f23e 5e71 963d
000001e0: bede 853e e51a 97bd 360c ce3d 8417 f23d
000001f0: fb57 c23d 6797 453e 1bfe b0be f387 db3d
00000200: f491 e53d b023 183e f1fb 7fbd d508 1ebd
00000210: 4027 13be 483c b93e f345 f23c 89be 2dbd
00000220: 59cc dcbd f4b3 b03d bdd1 39bd 453e da3c
00000230: 56db 6d3e 1dfd 813e b2d4 533e 1872 fcbd
00000240: dc87 aaba 0529 ad3e 802f e9bc 294b 3b3d
00000250: b457 373e 08a1 0a3e 7f16 913d 990a 91bd
00000260: 8644 813e 9bd9 bd3d c3c1 c5bd a7e0 773d
00000270: b008 6bbe 07cd 853e 4c30 14be 6675 aebd
00000280: e7df 4d3e fd08 713e 7d35 e53d 05b5 c23d
00000290: 3093 233e 5eff 533d d199 9b3d c8c3 e63d
000002a0: 0016 673e 62b4 b03e 5dd3 4a3e 10f9 583e
000002b0: a9cc 04be 1094 733e 751d f63e e2ba b93e
000002c0: ace0 873e ac37 e73d d485 62bd c192 b73d
000002d0: f788 04be 4aa3 f03e 583b 013e fff9 1c3e
000002e0: a371 f33e 9574 6a3e 0b2a 9a3e 8ead be3d
000002f0: 58ab 773e 3d6a 5abe 681c 85bd eb2e 9b3d
00000300: 9976 d53e 621c e1bc 38e2 093e 9421 b83e
00000310: ba28 023e 0bce e9bd 7f88 c63d 461d abbd
00000320: 1dad d8bc 5fd1 8c3e 5036 913d 8122 02bd
00000330: 8504 a2bd 91be 8a39 931a 2a3e 7ea1 fdbd
00000340: ba49 793c f75a aabb a24f 303e 786f 21be
00000350: 7383 79bd e752 1e3d 2836 13be db9d 7bbe
00000360: b85b 95bd f582 39bd 730e 6fbd 7adc db39
00000370: 1369 413e 84b9 3abe 92c0 8abc 4089 e43d
00000380: 6dfa fc3b 74b2 123e 8f5e 82bd 560e 263d
00000390: c869 f13d 2ab6 63be bd86 303d 9cd9 a23d
000003a0: 2f49 cd3d dc6c 3f3e ddce 5ebe d4ff 613d
000003b0: 9e2e 85bc e0e0 333e a71b 90bd 7681 093d
000003c0: 25b4 03be 7bc6 083c 6bcf ca3d c110 afbd
000003d0: 8a0f 893e 04dc d4bd a1b8 d7bd f2bd 7dbd
000003e0: e84b 053e 2776 4f3e 2628 113e 779b e9bd
000003f0: d42e d33d ac5a 21be 8814 083e 996c 34be
0.08941768 -0.28624052 -0.11880123 -0.69919837 -0.09558699 -0.038154077 -0.4213696 -0.06370078
-0.043044865 0.24155882 -0.114932716 -0.2386691 0.025006084 -0.04186928 -0.12853804 -0.20519885
-0.22992456 -0.12989472 0.08838896 -0.11048199 -0.32653645 -0.24945775 -0.20550983 -0.1260696
-0.5425676 -0.14233108 -0.24037752 -0.3805756 0.15604396 -0.09252871 0.0788393 -0.16619834
-0.3146351 -0.07694448 -0.09725736 -0.24532044 -0.1788936 0.20363003 -0.030311137 -0.3333134
-0.11562981 -0.10312066 -0.13320218 -0.30911225 -0.20741971 -0.030925615 -0.076863945 -0.55628574
-0.34046197 -0.28488714 -0.32361317 -0.1750374 -0.1266582 0.44293338 0.5397972 -0.01391384
-0.14320624 -0.30762008 0.12766618 -0.216175 -0.23808546 0.028071152 0.12939313 -0.17036603
-0.34883782 0.12839231 -0.118684724 -0.27972955 -0.03784585 -0.23741637 -0.23328525 -0.42854738
-0.079848185 -0.13150026 -0.1623922 -0.1846963 -0.29882175 -0.054816823 0.08574899 -0.3924313
-0.07039389 -0.21680833 -0.22474794 -0.29509223 0.089102656 -0.020841405 -0.3106363 -0.0012956675
0.017016971 -0.21048509 -0.5155542 0.044835687 -0.10380347 -0.13149233 -0.09869063 -0.026132852
-0.00065636326 -0.038694426 -0.29831252 0.18760626 0.1495262 -0.0009894734 0.0024029943 0.018302996
0.27864558 0.26414734 0.42996928 0.29325274 0.03588997 -0.12203514 -0.05705913 0.062505975
0.14540084 0.31549528 0.07247278 0.07205772 -0.12580313 -0.18295915 0.4745859 0.07345842
0.261465 -0.073781766 0.10060923 0.118208915 0.09489437 0.19296037 -0.34568867 0.1071929
0.11209479 0.14857364 -0.06249613 -0.03858264 -0.14370441 0.36178803 0.02957437 -0.042418037
-0.10781164 0.08628073 -0.045366038 0.02664102 0.23228201 0.25388423 0.20686606 -0.12326449
-0.001301046 0.33820358 -0.028465033 0.045725975 0.1790455 0.13537991 0.07084369 -0.070820995
0.25247592 0.092700206 -0.09656098 0.06051698 -0.22952533 0.26132986 -0.14471549 -0.08518486
0.20104943 0.23538585 0.11191843 0.09507183 0.15974116 0.05175721 0.075976975 0.11267811
0.22566986 0.3451262 0.19807191 0.2118876 -0.12968697 0.2378695 0.4806935 0.36275393
0.265386 0.112899154 -0.05530341 0.08963538 -0.12942873 0.4699958 0.12620294 0.15329741
0.47547635 0.22896035 0.301102 0.09310447 0.24186456 -0.21329589 -0.06499559 0.07577308
0.41692045 -0.027479354 0.13465202 0.35963118 0.12710848 -0.11416253 0.09694003 -0.08355193
-0.026449734 0.27503487 0.070904374 -0.031771187 -0.07911018 0.00026463394 0.166117 -0.12384318
0.015215332 -0.005198832 0.17217878 -0.15765178 -0.060916375 0.03865328 -0.14376128 -0.24571936
-0.072928846 -0.045290906 -0.05836339 0.00041935203 0.18887739 -0.18234831 -0.016937528 0.11158991
0.0077202828 0.14325887 -0.06365692 0.040541016 0.11787754 -0.22237459 0.043097246 0.07951662
0.10023724 0.1869387 -0.217586 0.055175617 -0.01625758 0.17566252 -0.07036524 0.03357073
-0.12861688 0.008348103 0.09902843 -0.085481174 0.26769668 -0.10393527 -0.10533262 -0.061948724
0.13017237 0.20259915 0.14175472 -0.11406606 0.10311666 -0.15757245 0.13289082 -0.17619552

lstm.bias_hh_l1 f4 [392]
00000000: 8d25 973d fd70 8cbe b178 2cbe 19cd 28bf
00000010: 771a 3bbd abb2 9d3c 7323 a2be 80e0 40be
00000020: fde8 5dbd 44f5 233e 8305 35be f093 39be
00000030: 01d5 583d d157 08be dcf1 83be 9acd 20be
00000040: aa9b d5bd 171e 2abe 7940 5c3d f604 e2bd
00000050: 26a5 d8be 7bbc 14be 3634 e1bd b960 32be
00000060: a307 ffbe 9f3a 93be 4fbf 87be c82c d8be
00000070: 6fbd aa3d 64fc b1bd d3b5 813d 0d9e 36be
00000080: 8902 a1be a4b2 cdbd e37b 56be d238 bcbe
00000090: 95f8 39be 78e3 8a3d 5955 203d 6c6e 89be
000000a0: 2b29 2f3c e441 73bb 3bdb 84be d0c6 f4be
000000b0: cccb 9fbe 45d8 20bd c5df 2fbe ddc5 0cbf
000000c0: d45b cbbe 446d 9abe 9dfd 02bf e402 d8bd
000000d0: e720 95be a242 c73e 7f3c e23e db71 753d
000000e0: acf7 31be ecef 9fbe b71d 043e 5e3c dcbd
000000f0: be45 a5be b321 843d e7d5 263d 8694 1ebe
00000100: 8841 d1be 1d43 443e 8438 3fbe c841 afbe
00000110: ce88 b63c b1ca 4fbe 7d7d 2cbe 7fe0 92be
00000120: 86cd cc3c 74f0 a2bd 3184 ffbd 017b 32be
00000130: eec4 e7be 135b 47bd e265 503e 54bc a7be
00000140: 9e30 783a 9443 3bbe 1813 b9be 8c23 b0be
00000150: 3a43 173e 11c8 f6bb 7b13 96be 3cce 823c
00000160: 1998 c7bc 971b 81be 1da8 06bf f474 233c
00000170: 443b 0dbe 40f3 01be de39 e9bd 4852 c33d
00000180: 166e b9bc 2171 a73d 5647 15be 1869 3e3e
00000190: d204 163d 6714 b73d a6f7 8a3d c88b 5a3c
000001a0: addf 893e 3777 523e 594c e43e 0333 653e
000001b0: aeda 593b 6d21 3abe d625 72bd c7a9 073e
000001c0: 99a5 f73d 3596 973e fdd2 8c3c aed3 3f3e
000001d0: 1e22 e7bd 7acd 2ebe 4f48 093f fd46 a03d
000001e0: 89dd 1c3e 881f 46bd 4854 023e aa0f 053e
000001f0: b785 793d bd7b 0a3e f84b 90be 2166 fd3d
00000200: c557 1f3e 4475 9b3e a8f6 b13d 5b50 e83c
00000210: bb7b 3cbe cb19 d13e f013 fe3d bf8c f0bd
00000220: a0b0 d5bd 52c4 393e 8841 40bd 6f8f b83d
00000230: a981 0b3e ce68 4c3e ec6f 6f3e 562c 2fbe
00000240: 933e ce3c 8a05 643e 3106 99bd 1dde f23d
00000250: 5d2a d83d 204b 063d a7a8 e63b 8675 b2bc
00000260: c3b8 423e 411d d63d 7ad8 b9bd e9f1 dd3c
00000270: e5ec aabe eac4 593e ccd8 9cbd 6444 e9bd
00000280: e8f8 093e f565 8f3e 2423 443e 0b78 393e
00000290: ebd1 413e b3bf ce3d b8ae 743e f4b6 493e
000002a0: 9a27 983e fc1f aa3e 9b31 933e d7c3 6a3e
000002b0: a582 2dbe 23d7 e33d 13b9 fb3e 81dd cc3e
000002c0: 731a 8d3e 88a7 3d3c 18a4 7bbd e0ad 003e
000002d0: e0b9 9cbd 6510 b03e 8e0a 443d 59fb eb3d
000002e0: 3937 a93e 9aaa 8b3e fb60 1d3e 9910 253e
000002f0: a0cb f13d b848 4abe 9d8c 383d 3814 4b3c
00000300: 231d b53e cfb4 7f3c b636 ac3d 8307 653e
00000310: e00c 103d 7487 82bd 4aaa 54bb cdbe 6cbc
00000320: 8634 c6bc b13d c13e 57b8 98bb b4b3 5e3d
00000330: f0a7 03be a2ce 32bc 48ab c13d 249e 4dbc
00000340: 8c99 77bd 12be e4bd 0c3e b23d 1fb9 22be
00000350: 1bee c9bd 63b8 ce3d 73b5 17be 6828 7cbd
00000360: a26b d33d f981 25be c83c 0fbe d48e 6d3d
00000370: 2399 123e 4a6b 97be 7bc6 bbbd 415c 1c3e
00000380: d91c 1c3e 39dc 9f3e 8bf1 02be 0e8a 583c
00000390: f41a f03c 24ce 3fbe d6ad 94bc d126 af3c
000003a0: 3040 0d3d a935 313e 9862 7cbe 89ea 9cbd
000003b0: d0cb 113e 7dbb cc3d 40b1 cebd 9dbc df3d
000003c0: c47e 1ebe faae 093b 7f16 af3d 33ec 343c
000003d0: e029 983e 3983 1bbe 92e2 1ebd 50b6 03bd
000003e0: ee93 60ba 1fa4 7e3e 52d6 153e cb90 33be
000003f0: 9fd8 693d deb6 84be a198 263e a489 3abd
0.07380209 -0.27429953 -0.16842915 -0.65937954 -0.045679536 0.019250235 -0.3166767 -0.1883564
-0.054177273 0.1601153 -0.17677884 -0.1812284 0.05293751 -0.1331475 -0.25770462 -0.15703431
-0.10430081 -0.16613041 0.053772423 -0.110361025 -0.42313498 -0.14525025 -0.109962866 -0.1741971
-0.49810514 -0.28755662 -0.26513144 -0.42221665 0.08336913 -0.08690718 0.06333508 -0.17833729
-0.31447247 -0.100438386 -0.20945697 -0.367621 -0.18161233 0.067816675 0.039143894 -0.26842058
0.010690968 -0.0037118131 -0.2594851 -0.47807932 -0.31210172 -0.03926875 -0.17175205 -0.54989415
-0.39718497 -0.30161488 -0.51168233 -0.10547426 -0.29126665 0.38918024 0.4418678 0.059923034
-0.17379636 -0.31237733 0.1290196 -0.107537016 -0.32279772 0.0645174 0.040731337 -0.15486345
-0.4087031 0.19166227 -0.18673903 -0.34229875 0.02228203 -0.20292164 -0.16844745 -0.28686902
0.025000345 -0.07956019 -0.124763854 -0.17429735 -0.45267433 -0.04867084 0.20351365 -0.3276087
0.0009467694 -0.18287498 -0.3614738 -0.3440212 0.14771739 -0.007531174 -0.29311737 0.01596748
-0.024364518 -0.25216362 -0.5260027 0.009976614 -0.1379214 -0.12690449 -0.113879904 0.09537178
-0.0226355 0.081758745 -0.14577994 0.18594778 0.03662569 0.08939438 0.067855164 0.0133389905
0.26928464 0.2055329 0.445895 0.2238274 0.0033241916 -0.18176813 -0.059118114 0.13248359
0.12092132 0.29606786 0.01719045 0.18733093 -0.11285804 -0.1707057 0.5362596 0.0782604
0.15318884 -0.048369914 0.12727463 0.12994257 0.060918536 0.13523765 -0.2818296 0.12372995
0.15560825 0.30362904 0.08689624 0.028358629 -0.18406574 0.4083999 0.124061465 -0.11745595
-0.10434079 0.18141297 -0.046937495 0.09011733 0.1362368 0.19961855 0.23382539 -0.17106757
0.025176322 0.22267738 -0.07471884 0.11858771 0.10554955 0.03278649 0.007039148 -0.021784555
0.19015794 0.104547985 -0.09074493 0.02709289 -0.3338386 0.21266523 -0.07658538 -0.113899976
0.13473856 0.28007475 0.1915403 0.18112199 0.18927734 0.100951575 0.23894775 0.19698697
0.29717714 0.33227527 0.28748783 0.2292627 -0.16944368 0.111250184 0.49164638 0.40012744
0.27559242 0.011575587 -0.06143579 0.12566328 -0.0765264 0.34387508 0.04786163 0.1152255
0.33049944 0.27278596 0.15369026 0.16119613 0.118064165 -0.19754303 0.045055974 0.012394957
0.35373792 0.015607073 0.08408873 0.22366147 0.03516853 -0.06373492 -0.0032450133 -0.014449787
-0.024194967 0.3774238 -0.004660647 0.054370597 -0.12857032 -0.010913523 0.094564974 -0.012549911
-0.060449168 -0.111690655 0.08703241 -0.1589093 -0.09859868 0.10093763 -0.14815311 -0.061561972
0.10323264 -0.16162862 -0.1398803 0.05799754 0.1431623 -0.29574043 -0.091687165 0.15269567
0.1524538 0.31222704 -0.12787454 0.013216509 0.029309727 -0.1873098 -0.018149298 0.021380814
0.034485042 0.17305626 -0.24646986 -0.076619215 0.14237905 0.09996698 -0.100924015 0.10924647
-0.15478045 0.0021008835 0.08549213 0.011042642 0.29719448 -0.15186776 -0.038790293 -0.03215629
-0.0008566965 0.24867295 0.14632538 -0.17535703 0.05709135 -0.25920767 0.16269161 -0.04554142
