models/lstm1.pth (torch, 785123 bytes, 14 tensors)

lstm.weight_ih_l0 f4 [392, 1]
000000 b9 9f eb be 9e 65 b0 be d8 9b e0 3e 31 f7 87 be
       -0.46020296 -0.34452528 0.438689 -0.2655578
000010 dc 47 e6 3e 1e a0 25 3f 07 87 93 3e af 44 0e 3e
       0.449767 0.64697444 0.28813955 0.13893388
000020 24 e5 4c be 89 77 1f 3f 32 2b 0b 3c 44 23 29 3e
       -0.20009285 0.6229177 0.008494185 0.16517359
000030 df ef 00 be 2d b6 72 3d 8a bb 7c be 16 7e e6 3d
       -0.12591504 0.059255768 -0.24680915 0.11254518
000040 be e5 0f 3e 87 0b aa be bb e8 c3 3e 5a a5 ee 3e
       0.14052483 -0.3321192 0.38263497 0.46610528
000050 cd be c6 be 95 3d fb 3e d1 7f b9 3e 19 df b7 3e
       -0.38817444 0.4907042 0.3623033 0.35912398
000060 cb d3 39 be 52 4d 12 bf 16 be c4 3e 8a d6 c5 bd
       -0.18147199 -0.5714923 0.38426274 -0.09660061
000070 ae 9f 30 3f db fd 21 3f c6 ab a2 3e 02 a0 5d 3c
       0.6899365 0.6327798 0.31771678 0.013526918
000080 42 5a 8c bb 16 4d c4 bd 40 b6 04 bd af b3 25 3f
       -0.0042832205 -0.095850155 -0.03240037 0.647273
000090 c1 fa c5 3e 40 6c 50 3f 62 ae 5d 3e 60 82 f0 3e
       0.38667873 0.81415176 0.21648553 0.46974468
0000a0 34 b2 18 be ae 31 f6 3e 0e c7 ba 3d 60 de 7f 3e
       -0.14911729 0.48084778 0.09119998 0.24987173
0000b0 12 4b c0 3e 6a 72 2e 3f b3 d7 1b 3f 13 19 d2 be
       0.37557274 0.6814333 0.60876006 -0.41034755
0000c0 5f 6b 8e 3e a9 bc 8d bf 34 31 42 3e f9 37 db 3c
       0.27816293 -1.10732 0.18964082 0.026760088
0000d0 ee e3 14 3f 4d e1 2e 3f 1a 33 8c 3f fc 37 41 3e
       0.58160293 0.6831253 1.0953095 0.18869013
0000e0 2f b5 e9 bd e1 a6 e3 bd 9b d9 2a bf 1c a1 98 be
       -0.11411511 -0.11115814 -0.6673829 -0.29810417
0000f0 03 31 31 3f 8e fc 45 3f 48 40 d8 3e 1e 6e 08 bf
       0.6921541 0.7733849 0.42236543 -0.53293025
000100 c9 12 01 3f 40 ba 67 be 08 37 dc 3c dc ee 18 3f
       0.5041929 -0.22629642 0.02688171 0.5973947
000110 e1 b2 16 be 01 df a3 3d a1 7d be bd 1d 00 03 3f
       -0.14716674 0.08001519 -0.093013056 0.5117205
000120 42 93 64 3e 13 10 f4 be 66 0d 7e bd 4b f2 37 3f
       0.223218 -0.47668514 -0.062024496 0.71854085
000130 ae 73 2e 3f 1d 19 f8 be 11 d1 7f 3d 5d 82 ea 3c
       0.68145263 -0.4845666 0.06245524 0.028626615
000140 dd 7d 01 3f bd c8 8d be ad 3f 07 bf 02 ba c8 be
       0.5058268 -0.27692214 -0.52831537 -0.39204413
000150 51 65 0d 3f c6 85 b3 3e ac 27 58 3d 0a 3b 00 3f
       0.5523272 0.35063 0.05277221 0.50090086
000160 cb bb ed 3e 7f 4c 51 3f a6 13 28 3e 91 41 2d be
       0.46432337 0.8175735 0.16413745 -0.16919543
000170 7f f7 d1 3e 6d 87 3b be ca 57 bf 3e 12 34 2f bd
       0.41009137 -0.1831338 0.37371665 -0.042774267
000180 17 73 79 3f 3d f1 af 3e 34 e6 b3 be e3 be 1a be
       0.9744124 0.34363738 -0.3513657 -0.1511188
000190 97 c6 8b 3e 68 e4 74 3e e6 a9 79 3e 70 e2 22 3f
       0.2729995 0.23915255 0.24381217 0.63626766
0001a0 6c c7 27 be 60 46 bc be a3 44 83 be 29 d1 b1 3e
       -0.16384667 -0.36772442 -0.25638303 0.3472989
0001b0 c3 aa 96 be e1 41 e9 3d 7f 1c 73 be e8 fa f4 bd
       -0.29427156 0.113895185 -0.23741339 -0.11961919
0001c0 5a 49 9e be 28 39 88 bd d8 d2 c4 be 83 49 91 be
       -0.30915338 -0.06651527 -0.3844211 -0.28376397
0001d0 0a 19 9b 3e 15 8f ad 3e 6e 63 09 bd e8 f1 e4 3d
       0.3029254 0.33898225 -0.03354209 0.111789525
0001e0 58 91 1f 3f d5 7d c3 bd 27 a4 1e be 4a b0 92 3d
       0.6233115 -0.09545485 -0.15492307 0.07162531
0001f0 25 4b 11 3f 60 51 a4 be 91 d8 d0 3e 4c 94 0d 3f
       0.56755286 -0.32093334 0.40790227 0.5530441
000200 c2 85 d2 3e da eb a7 be fe 0d 83 3e 70 2a e2 bd
       0.41117674 -0.32797128 0.25596613 -0.110432506
000210 44 82 4d be b4 5b c9 3d 6c 7c 37 39 7a 75 af 3f
       -0.20069224 0.09831944 0.00017498591 1.3707726
000220 de 01 af 3d d3 aa d2 3b b4 fc 35 bc b7 f5 9d 3e
       0.08545278 0.0064290552 -0.011107612 0.30851528
000230 b6 8d 18 3e 93 1b 8e 3c 85 8b a0 3e 73 50 d9 3e
       0.14897808 0.017347133 0.31356445 0.4244419
000240 15 44 82 3e b4 1f 09 bf 6c 01 14 3e 4f 30 96 be
       0.25442567 -0.53564 0.14453667 -0.29333732
000250 6f 45 b6 3e 32 7a d8 3e c0 84 3c 3f 32 70 dc 3e
       0.3559985 0.42280728 0.7364006 0.43054348
000260 34 fc 9e 3e 57 f6 f2 bd a8 de 15 bd 17 78 47 bd
       0.3105179 -0.11863392 -0.036589295 -0.04869851
000270 87 08 11 bf 86 48 7c be 1e 2c 87 3f 7e ab fe 3d
       -0.56653637 -0.2463704 1.0560338 0.12435053
000280 ff ed 68 bd a5 da 9f be 16 d7 23 3f a9 68 58 be
       -0.056867596 -0.312215 0.6400007 -0.21133675
000290 e1 6b af 3d 55 96 f2 3d 07 9c 41 3e 82 9d ad 3e
       0.08565498 0.1184508 0.18907176 0.3390923
0002a0 c0 1c e0 be bd f2 42 3f 71 c7 e5 3e 7b b4 57 be
       -0.43771935 0.7615164 0.44878724 -0.21064942
0002b0 86 93 af 3e f0 fb 21 3e c9 08 38 3f db 70 d8 be
       0.3429224 0.15818763 0.71888405 -0.42273602
0002c0 f8 57 1e bf 22 e2 de bc 88 06 d2 3e 9f d9 ab bd
       -0.6185298 -0.027207438 0.41020608 -0.08391117
0002d0 e7 56 c2 be 4f 0f 63 be 04 3b d7 3c ff fb de bd
       -0.37956926 -0.22173809 0.026273258 -0.10887908
0002e0 0c bd 64 3e 21 d7 21 3f db ac c1 3e b1 54 a2 3c
       0.2233774 0.63218886 0.3782719 0.019815775
0002f0 7e 18 68 3e 0f e7 94 be 27 77 1d 3e c5 4c 66 be
       0.22665593 -0.29082534 0.15377484 -0.22490223
000300 55 76 d4 3d 4a ba 01 be 8b f5 e8 3e a9 61 07 3f
       0.103741325 -0.1266872 0.45499834 0.5288339
000310 c7 98 b4 bd 1c 31 8e bd 82 fc 91 3e 7c 8e 0e bf
       -0.088182025 -0.069429606 0.2851296 -0.55686164
000320 8d 88 98 3e 1f 5c 92 3e dc f4 0a 3f 38 60 41 3f
       0.2979168 0.28585908 0.54279876 0.75537443
000330 9a ee 4c 3e f6 91 5f 3e 37 a7 16 be fd 17 ef bd
       0.20012894 0.21833023 -0.14712225 -0.11674497
000340 2c fd 72 be 4f 29 8e 3e a8 00 88 3e 9e d2 1d be
       -0.2372939 0.2776589 0.26563 -0.15412375
000350 b6 e0 d9 be 20 5d a2 be 2b 7f 1e 3e 62 d0 e2 3e
       -0.42554253 -0.31711674 0.15478198 0.44299608
000360 e8 eb af be 53 84 b8 be 37 97 c8 3e 2c f6 1d 3f
       -0.3435967 -0.36038455 0.39177868 0.61703753
000370 8c ac 36 3e 40 ce 27 bf 94 9d 4f be 09 65 38 3e
       0.17839259 -0.6554909 -0.20274955 0.18007292
000380 f1 e4 e2 3e 44 ab 23 bf 58 8b 20 be f1 7c 16 3d
       0.44315293 -0.63933206 -0.15678155 0.036740247
000390 7f 5c 57 3f 69 88 44 be ad d6 3c 3e 73 2d c5 be
       0.8412551 -0.19192661 0.18441267 -0.38511238
0003a0 76 78 60 be 4b 86 b0 bc c0 9a c0 3b 04 4e c9 3e
       -0.21920952 -0.02154841 0.0058778226 0.39317334
0003b0 5c 94 a7 3e 60 1a db 3e f3 c0 5e be 41 90 90 3d
       0.32730377 0.4279356 -0.21753292 0.07058764
0003c0 95 b0 4a 3e 74 6c d4 be a1 3f 47 3e 99 fa 36 3f
       0.19793923 -0.41488993 0.19457866 0.7147613
0003d0 9a ad 8a bb 56 c5 12 bf 01 d4 29 3f d7 a2 24 bf
       -0.0042321207 -0.5733236 0.6633912 -0.64310974
0003e0 98 3e e8 be 7e 94 08 3f 68 31 23 3f 0b c0 80 3e
       -0.45360255 0.5335158 0.6374726 0.25146517
0003f0 4f 04 59 be 4e d1 02 be c3 90 cf 3e 03 16 26 3f
       -0.2119305 -0.12775156 0.40540132 0.6487734

lstm.weight_hh_l0 f4 [392, 98]
000000 f2 de 93 bd 22 f4 87 be 79 27 a5 3d 0c 6e 9a 3e
       -0.07220258 -0.26553446 0.080641694 0.30162084
000010 93 b0 92 3d aa 8f ab 3d 5d 4b c6 3d b0 b9 9d 3c
       0.07162585 0.08377011 0.09682343 0.019253582
000020 ef 22 eb be 50 1d eb 3d 8a 42 cc 3d ab 33 81 3d
       -0.4592509 0.114802 0.09973629 0.06308683
000030 ef 3a 12 be 1d 1f 37 bd 53 00 a4 be ed de 73 be
       -0.14280294 -0.044707406 -0.32031497 -0.23815508
000040 30 4e 2a 3e eb 1e 1f 3e df 76 ab 3d da 1c 24 3e
       0.16631389 0.15539138 0.08372282 0.16026631
000050 39 c5 28 bd 41 dc a2 be 0d b3 c6 bd ab 75 11 3e
       -0.04120371 -0.31808665 -0.0970212 0.14205043
000060 c4 04 55 3d cd 9d 03 3f e6 6e 0d bd bf f2 2a bc
       0.052006498 0.5141266 -0.03452959 -0.010433852
000070 db 58 82 3e d6 41 9a bd 07 56 d4 bb e4 7b 30 3e
       0.25458416 -0.075320885 -0.006479982 0.1723476
000080 73 9e aa 3d 0b 63 a7 be 75 d2 2d be ac ce 10 be
       0.08331003 -0.3269275 -0.16974814 -0.14141339
000090 c6 4a 09 3e a6 90 22 3e 57 a9 56 3e de cc 81 3d
       0.1340743 0.15875491 0.20963036 0.063379034
0000a0 26 bf 08 3e 4f e8 39 3e b8 88 44 3d d1 bd a6 bc
       0.13354167 0.18155025 0.047981948 -0.020354183
0000b0 d7 e4 62 be 4e b6 81 be 44 c5 8d be 0d 08 db be
       -0.22157608 -0.253344 -0.27689564 -0.4277958
0000c0 5f 4c 9f 3d 3d dc d9 bb 25 4d 3d 3e 0f 01 6a 3e
       0.077782385 -0.006648569 0.1848646 0.22851966
0000d0 76 b6 88 be a4 22 75 3c 25 61 4b 3e 07 35 99 3e
       -0.26701707 0.014961872 0.19861276 0.2992327
0000e0 e6 be d4 bd 3d 4b 9c 3d b7 6e 5c be 33 ec 1c 3e
       -0.103879735 0.07631538 -0.2152661 0.15324478
0000f0 b3 a6 00 be c9 e5 d2 bc 1d 96 d5 3d d1 a4 a0 3b
       -0.1256359 -0.025744336 0.104290225 0.00490246
000100 2c 38 ea 3d 49 17 ed 3e 48 7f 9f be 36 66 8c be
       0.11436495 0.46306828 -0.31151795 -0.2742173
000110 c6 3a 0a 3f 13 0b d0 bd 3f 0b c3 3e 91 d6 aa 3c
       0.5399593 -0.10158362 0.38094518 0.020854266
000120 96 8a 56 bd 55 99 18 3e ce 7e 81 3e 17 5f d0 3e
       -0.05237826 0.14902242 0.25292057 0.40697548
000130 20 61 23 be e8 64 ac be 31 da 21 3e 05 88 43 3e
       -0.15955019 -0.33670735 0.1580589 0.19094856
000140 e8 e9 89 3d a7 0f 8f bd e4 46 07 bd 6a 2e dd 3c
       0.06734067 -0.06985407 -0.03302659 0.026999671
000150 17 69 99 3c e8 ad ba 3c b3 26 ac 3c 7b e2 c2 bd
       0.018726869 0.022788003 0.021014547 -0.09515854
000160 6f 5c 8a bd ab 14 d9 3d 03 88 8f be 08 82 82 3e
       -0.067559116 0.10599645 -0.28033456 0.2548983
000170 3a 47 53 bd 40 05 7d bd e2 b3 3b 3e 1d b5 07 be
       -0.0515816 -0.061772585 0.18330339 -0.13252683
000180 5d 64 cb 37 16 17 fc bd 45 52 87 3c 26 21 89 be
       2.4246221e-05 -0.12309091 0.016518721 -0.26783103
000190 7e 28 24 be 4c f7 73 bd a6 18 71 be 72 43 44 bd
       -0.16031072 -0.059562013 -0.23544559 -0.047915883
0001a0 cb a4 03 3e 33 73 39 3e 3a 7c a3 3d f2 e7 1c 3c
       0.12855832 0.18110351 0.07982679 0.009576784
0001b0 b8 5c cb bd 29 43 e2 3d e2 b7 3a be 61 76 3f be
       -0.09929794 0.11047966 -0.18234208 -0.18697502
0001c0 72 fb 8e bd 41 8d c8 3d df 41 2e be 2d c8 f1 3d
       -0.06981553 0.09792567 -0.17017315 0.118057586
0001d0 aa da 31 3e 46 ee b2 be b0 4f ae 3e d1 52 9d 3e
       0.1736857 -0.34947413 0.34045172 0.30727246
0001e0 e7 95 09 3e 85 de 47 3d d2 37 fe 3c c2 db 86 be
       0.1343609 0.048796196 0.031032477 -0.26339537
0001f0 1d 93 0f 3e 3d f2 15 3c ec a6 5d be 20 91 c1 bd
       0.14020963 0.009151992 -0.21645707 -0.094515085
000200 f2 7f dc 3d 80 e4 8e 3e 68 78 71 3d 68 37 bc bd
       0.10766591 0.27908707 0.05895272 -0.091902554
000210 9d 5b 83 bc 7d 0d a7 bd ee f9 27 bd e1 c0 0b bc
       -0.016034896 -0.081568696 -0.041009836 -0.008529873
000220 14 84 01 be 16 63 4c be 83 53 32 3e 33 33 2c 3e
       -0.1264804 -0.19959673 0.1741467 0.16816406
000230 78 52 47 be 2b f0 3c be 90 c7 1b be b9 2d 2c 3c
       -0.19465053 -0.18450992 -0.15212846 0.010508948
000240 c1 44 d6 bd a1 b9 ba 3d d8 73 b1 3d 38 2e ba bd
       -0.104623325 0.09117437 0.086646736 -0.09090847
000250 04 12 87 be 39 88 b3 3c 1b 2e 85 3d 1b 25 45 3d
       -0.26380932 0.021915542 0.065029345 0.04813109
000260 ea f2 1a 3e 5b 8f 97 3e 87 84 2d be ad a9 96 3c
       0.15131727 0.2960156 -0.16945086 0.018391455
000270 68 38 c3 bc a5 04 af 3c 24 a9 8f 3e 45 01 21 be
       -0.023830608 0.02136452 0.28058732 -0.1572314
000280 92 fe 5b bc 7c c7 da ba 88 c6 3e be 07 a8 72 3e
       -0.0134273935 -0.0016691531 -0.18630421 0.2369691
000290 70 76 38 3e d3 5c 8b be fb 37 2b be 27 52 29 be
       0.1801393 -0.27219257 -0.16720574 -0.16535245
0002a0 db 39 92 3e 7f 61 8b be b4 fa a5 3e 28 39 1f 3e
       0.28559765 -0.2722282 0.32417834 0.15549147
0002b0 26 f2 fe bd 9c 7d 6d bd 69 55 55 be 0f 81 e7 3b
       -0.1244853 -0.05798112 -0.20833363 0.0070649455
0002c0 59 05 8a 3c 8c 87 1b 3d e3 f6 95 3d dd 4d 3f be
       0.016848253 0.037971064 0.073224805 -0.18682046
0002d0 cd 03 fe bd 2c 09 88 3c 3a 97 37 be 97 ec 6a be
       -0.12403069 0.016605936 -0.17928782 -0.22941814
0002e0 cf 5d 9a be 1b fc 4b 3e b6 32 f0 3d 31 8c 13 be
       -0.30149695 0.1992039 0.11728422 -0.14408948
0002f0 a0 b8 98 be 77 e9 b8 3d 22 50 3b 3e 30 28 38 bd
       -0.29828358 0.09028905 0.18292287 -0.0449602
000300 8a 2a 89 be 3c 18 f1 3d 66 46 0a 3d 96 db 4c 3d
       -0.26790267 0.117722005 0.033758543 0.0500141
000310 de 40 20 be e8 44 b2 be 0f 52 30 3e bc d2 28 3e
       -0.15649745 -0.34818196 0.17218803 0.16486639
000320 c3 31 ee be 02 48 46 3e 3e 62 f0 be 3c 85 32 3e
       -0.4652234 0.19363406 -0.46949953 0.17433637
000330 5e dc eb 3b 29 36 de be a8 bc 7c 3e cb 8e ef 3e
       0.0071979007 -0.43400696 0.24681342 0.4678863
000340 a1 2f 86 3d e6 e3 29 3c eb c3 29 be 66 80 89 be
       0.06552053 0.010369277 -0.16578643 -0.26855773
000350 f5 73 34 bd 77 66 c7 3e 20 d9 c6 be fd b4 a1 bd
       -0.044055898 0.38945362 -0.38837528 -0.07895849
000360 86 b4 84 3d 4e 32 cb 3e f1 a2 15 be fb 0e 37 be
       0.064797446 0.39686817 -0.14612938 -0.17876808
000370 4a 30 05 3e e9 28 a6 3d 0c e9 cc 3e db e6 94 3e
       0.13006702 0.08113272 0.4002155 0.2908238
000380 1a 54 66 be be 84 74 be 3a e4 08 3f f4 0f b9 3d
       -0.2249302 -0.23878762 0.53473246 0.09036246
000390 f1 0e a5 be 6a 6f 24 bc d4 0d 2e be 5c 40 1b 3e
       -0.32237962 -0.010036329 -0.16997463 0.1516127
0003a0 09 87 d0 3e 96 dd 0e 3c 7d fa 9e 3c c5 f8 5c be
       0.40728024 0.008719822 0.019406551 -0.21579273
0003b0 63 70 8d 3d 11 94 1f bd 36 d1 db 3e 82 2f 98 3c
       0.06906202 -0.038959567 0.42933053 0.018577341
0003c0 4d e5 e7 bd 06 13 9f 3e 76 4f d3 bd ae 1d 9d be
       -0.113230325 0.310692 -0.1031789 -0.30686706
0003d0 4f 81 b6 bd 73 02 0f bd 09 b8 fc bd 6e 23 d5 3d
       -0.089113824 -0.034914445 -0.123397894 0.10407148
0003e0 61 9f d4 3d 54 6e d2 3d 88 fb b2 bd 31 fe 1b 3e
       0.103819616 0.1027495 -0.08739382 0.15233685
0003f0 8f 08 92 be e0 fc 0b 3f d4 45 88 3d 06 0d 3a bc
       -0.28522155 0.5468273 0.06653944 -0.011355644

lstm.bias_ih_l0 f4 [392]
000000 e4 1b ca bc 02 95 4b be cc 2b 07 bf 9a 44 17 be
       -0.024671502 -0.1988106 -0.52801204 -0.14772263
000010 61 03 99 be ca 78 45 bf 20 25 84 3d e3 ab 13 3e
       -0.2988539 -0.77137434 0.064523935 0.14421038
000020 65 f1 6a be 2f 6d 31 bf f4 a6 66 be 8d 49 21 bf
       -0.22943647 -0.69307226 -0.22524625 -0.63002855
000030 d8 30 2a be fb 1d d0 be 32 8b d9 be 5c 6c 2b bf
       -0.16620195 -0.40647873 -0.4248901 -0.6696222
000040 08 34 ea be 51 92 d6 be 07 ed f6 be a6 eb fc be
       -0.45742822 -0.41908506 -0.48227713 -0.49398535
000050 5a 65 03 bf b5 a3 1c bf f3 a4 c6 be ee c7 a4 3d
       -0.51326525 -0.611873 -0.3879772 0.08045946
000060 47 92 9c be 74 7d 98 be 35 8f 24 bf 5e bb 0c bf
       -0.3058035 -0.29783213 -0.64281017 -0.549734
000070 b5 69 a2 be b1 24 cd be 35 eb 01 bf f6 dc 1a bf
       -0.31721273 -0.40067056 -0.5074952 -0.6049341
000080 d1 03 e2 3d 96 b7 03 bf 3c 5f 48 bf 50 b3 45 bf
       0.11035884 -0.51452005 -0.78270316 -0.77226734
000090 9e c9 f6 be 5c 41 33 3d 7f 88 84 bf 62 b3 0a bf
       -0.48200697 0.043763503 -1.0354155 -0.54179966
0000a0 3f 54 21 bf 2f dc 9b be fb 71 cf be 74 41 b9 bf
       -0.63019174 -0.30441424 -0.40516648 -1.44731
0000b0 31 93 45 bf 4a 92 0f bf e5 7c 06 bf 48 a7 82 be
       -0.7717772 -0.56082594 -0.52534324 -0.2551825
0000c0 ab 55 3f bf eb c9 e1 be f1 af bd 3d b6 7a 1e be
       -0.74740094 -0.44099364 0.09262074 -0.15476498
0000d0 af 42 fd be a3 2e d4 bd 71 f7 a8 be ca e5 07 bf
       -0.49464938 -0.10360458 -0.33001283 -0.53085005
0000e0 f7 bc 1b bf 9f e7 21 bf 96 58 b1 be fb b8 6d 3c
       -0.6083521 -0.6324405 -0.34637898 0.014509435
0000f0 78 07 24 3d 76 5d 99 be c1 f8 12 bf 33 b1 8d bc
       0.040046185 -0.29954118 -0.5741082 -0.01729641
000100 44 3e 1e bf 84 99 13 be d7 ef 25 bf c5 15 85 be
       -0.6181376 -0.1441403 -0.6481909 -0.2599317
000110 8f b7 7c be b8 cf 28 3e 97 8b 2f bf 06 34 f1 be
       -0.24679397 0.16485488 -0.6857237 -0.47110003
000120 ec 6e 3d bf 37 a7 0b bf 7e 9e d4 be 85 41 0a bf
       -0.7399738 -0.54552025 -0.4152717 -0.54006225
000130 7d 52 71 be a6 d4 ad be 8c f1 44 bf 2f c7 a0 be
       -0.23566623 -0.339513 -0.7693107 -0.31401965
000140 e8 84 f3 be f0 9d d5 be 42 27 f7 be e6 ee d4 be
       -0.47562337 -0.4172206 -0.4827214 -0.41588515
000150 fe 92 e5 be b7 a7 2b bf 4b 7a 1d be 35 ec bd be
       -0.4483871 -0.6705279 -0.15378682 -0.37094274
000160 28 fe 73 be 4e 45 e8 be e3 da 9a be 40 b2 ef be
       -0.23827422 -0.45365375 -0.30245122 -0.4681568
000170 f4 b4 ea be 6e 2c 22 bf 60 0f 19 bf 2c 2b 0c bf
       -0.4584118 -0.63349044 -0.59789085 -0.54753375
000180 9c dc 9b be 1f f4 76 be 7b b0 39 3d a0 da 18 3e
       -0.3044175 -0.24116562 0.04533432 0.14927149
000190 11 57 82 3d fe 84 89 3d 94 e6 4e be 3b eb a9 bd
       0.06364263 0.06714819 -0.20205146 -0.0829682
0001a0 6e 3f cd bd cb 09 dc be b5 d7 ce bc 53 4c 4d be
       -0.10021864 -0.4297622 -0.025249342 -0.20048647
0001b0 61 de c7 3d bb 42 16 be a4 7e 06 be 89 6c 0c bd
       0.09759212 -0.14673893 -0.13134247 -0.034283195
0001c0 28 c8 0e 3d 12 34 8f bd e9 0d 3c be d6 51 9a 3c
       0.034858853 -0.069923535 -0.18364681 0.01883785
0001d0 b2 6f 09 bc fa bb 1f be a6 5a 6b bd 63 cf 65 be
       -0.008388447 -0.15599051 -0.057459496 -0.22442393
0001e0 d9 56 59 bc e0 6c 43 be bf 28 b7 3d 39 b3 8a be
       -0.013265335 -0.19084501 0.089433186 -0.2708986
0001f0 9e 35 7b be 65 61 54 bb 41 8f 5c be db b4 c7 3d
       -0.24532172 -0.0032406684 -0.21539022 0.09751292
000200 ca 7e 0c be fe 22 64 bd 08 f7 b0 be 84 7c 89 bd
       -0.13720241 -0.055697434 -0.3456347 -0.067132026
000210 72 dd 94 bc 77 a9 9b be 32 7e b6 bb df 36 4f 3e
       -0.018172 -0.3040273 -0.005569243 0.20235775
000220 43 fe 4c be e8 6d a9 be 1a 6b 97 bd 42 95 75 be
       -0.20018868 -0.33091664 -0.07393475 -0.23982719
000230 99 44 29 be 29 41 d7 be 4c 97 a7 be 8a 92 8a be
       -0.16530074 -0.420419 -0.32732618 -0.27064925
000240 5b f4 86 bd 57 23 1e be 2a 63 e5 bd c9 56 b6 be
       -0.06589576 -0.15443169 -0.11200555 -0.35613087
000250 73 e9 7e be 99 b3 fd bc c2 0e bd bd 23 97 09 3d
       -0.24893741 -0.030969428 -0.092313305 0.0335914
000260 44 56 1c be cd 95 9e bd 14 62 f7 bd 0e 3c 77 3d
       -0.15267283 -0.07743416 -0.12079254 0.060360007
000270 73 cc 12 be fc 40 6c be 57 c0 9c 3e b8 35 58 3e
       -0.14335804 -0.23071665 0.30615494 0.21114242
000280 91 f2 da be 44 06 0a 3e d3 36 b9 bd f9 cb 91 bc
       -0.42763188 0.13478953 -0.0904366 -0.017797457
000290 6a 3d 14 be 49 02 3c be 36 bf 19 be fe 28 7c 3d
       -0.14476553 -0.18360247 -0.15014347 0.06156253
0002a0 c8 64 6d 3e a8 30 a5 be 37 ab b3 be 7b b0 9e be
       0.23182976 -0.32263684 -0.35091564 -0.3099402
0002b0 66 71 59 3e 68 db 2a be 81 21 64 bd 8b ec 08 be
       0.21234664 -0.1668526 -0.055696014 -0.13371484
0002c0 4c 93 2d be be eb 04 be 99 71 6e be 7c 02 1c 3d
       -0.1695072 -0.12980554 -0.23285522 0.038088307
0002d0 c7 9a 60 bd 89 11 90 3b d3 f3 86 be 7f 77 63 be
       -0.054835107 0.0043966216 -0.26357898 -0.22213553
0002e0 57 f5 93 3d ff 9d 75 be ad ad 32 3d a3 40 31 3d
       0.07224529 -0.23986052 0.04362266 0.043274533
0002f0 d8 23 bb bd 38 b4 8a 3d 45 fe 52 bd 1f 41 24 3b
       -0.09137696 0.06772655 -0.05151202 0.002506323
000300 a3 5c 83 be e6 a4 33 bb 43 76 0c 3d 53 9d 60 be
       -0.25656614 -0.002741152 0.03429247 -0.21935014
000310 26 1a 73 be 86 33 3f bd 8c f9 11 be 15 bf 5a bd
       -0.23740444 -0.046679996 -0.14255351 -0.053404886
000320 ac 5b 4c bd 43 2e 31 be e4 f7 81 3d ec 62 c7 3d
       -0.049892113 -0.17302804 0.063461095 0.09735665
000330 99 d5 45 bc ce b7 73 bd 77 ac 26 3e 66 8f e4 3c
       -0.012074851 -0.05950146 0.16276728 0.027900409
000340 a1 77 cc bc 1b 33 e4 3d bc 0b 86 3b 55 87 01 bd
       -0.024959387 0.1114256 0.0040907543 -0.031623203
000350 fb 25 ac bc 78 7b 9c bd 2b f4 bf bc 80 5b 05 3d
       -0.021014204 -0.07640737 -0.023431858 0.032557964
000360 ea 85 23 bd 93 50 b5 3c 88 68 fa bc 35 83 11 3e
       -0.039922632 0.022133147 -0.030567423 0.14210208
000370 46 4b ab 3b 92 66 ec bd 25 39 69 bd 92 0e 11 3d
       0.005227479 -0.11543001 -0.056939263 0.035414286
000380 17 b6 05 3a 90 07 5b 3c 4c 7b b9 3d 36 73 a5 bd
       0.0005100681 0.013368502 0.0905672 -0.08078615
000390 ea 5a 4b 3c b1 9e d6 bd 75 ab 2b 3d fc b2 5c bc
       0.012411812 -0.10479487 0.04191156 -0.013470408
0003a0 6a bc 0b be 66 a1 bd 3e 88 98 d1 3c b3 73 88 bd
       -0.13646093 0.370372 0.025585428 -0.06662693
0003b0 73 7b a8 3b 43 09 2c 3c f1 dd a6 ba 33 09 94 bc
       0.0051416694 0.010500255 -0.0012730939 -0.018070793
0003c0 c6 88 32 3d e5 86 47 bd 85 c3 9a bd 57 a1 5f 3d
       0.04358747 -0.04871263 -0.07556824 0.054597225
0003d0 35 c3 1b 3b 6d 1f 8e bd a4 6b cc 3d ed 14 c4 bd
       0.0023767476 -0.06939588 0.09981468 -0.09574304
0003e0 37 46 20 bd 28 68 4e 3c f6 72 bd bd 23 7a c7 3d
       -0.039129462 0.012598075 -0.09250443 0.097400926
0003f0 fb d0 e2 3b 78 6b a0 bc 11 95 4c 3d b7 52 2b 3d
       0.006921885 -0.019582495 0.04994685 0.04182693

lstm.bias_hh_l0 f4 [392]
000000 50 88 8a 3d 65 f2 77 be 5d 40 00 bf bc ab dd bd
       0.06764281 -0.2421356 -0.5009821 -0.10823771
000010 e5 42 c2 be dc bf 50 bf 2b 85 77 3d 73 6d 2a 3e
       -0.3794166 -0.81542754 0.060429733 0.16643314
000020 df 80 c8 be e8 d9 1c bf e0 dc c2 bd 77 bd 24 bf
       -0.3916082 -0.6127 -0.09514785 -0.643516
000030 a5 09 81 be 3c ab c5 be 73 98 f4 be 91 95 21 bf
       -0.2520267 -0.38607204 -0.4777256 -0.63118845
000040 64 5d f0 be 45 cd 90 be 2b 28 ff be 36 dc ac be
       -0.4694625 -0.28281608 -0.49835333 -0.33761758
000050 5e e3 21 bf e7 e2 09 bf ea b7 08 bf 11 38 e7 3d
       -0.6323756 -0.5386185 -0.5340563 0.11289991
000060 69 2b 90 be 72 67 1d be 8b bf 1c bf f9 81 1d bf
       -0.2815812 -0.15371493 -0.6122977 -0.6152645
000070 c7 08 dd be 2d 0b ac be b4 32 06 bf 75 36 3f bf
       -0.4317076 -0.33602276 -0.52421117 -0.7469247
000080 97 8a 5f bd c1 c6 13 bf 37 77 4c bf 4d b8 19 bf
       -0.05457553 -0.5772515 -0.7986941 -0.60046846
000090 ac 36 0d bf 62 ef 11 bd df f3 5b bf 26 f7 07 bf
       -0.5516155 -0.035628684 -0.8591899 -0.53111494
0000a0 b6 a8 37 bf 30 85 bf be 4c 92 b3 be 5f 66 c0 bf
       -0.7174181 -0.37406301 -0.35072553 -1.5031241
0000b0 2d 51 47 bf b1 4f 0c bf 47 43 1b bf ed 1c ae be
       -0.7785824 -0.548091 -0.6064953 -0.34006444
0000c0 64 12 34 bf 60 10 a0 be 08 50 cc 3c 57 9a f2 bc
       -0.7034056 -0.31262493 0.024940506 -0.02961461
0000d0 bb ff f1 be 07 ef 98 b9 27 dc ed be fd 29 fe be
       -0.4726542 -0.00029169788 -0.46457025 -0.4964141
0000e0 98 3c 37 bf e0 40 0d bf d9 3c 97 be 29 85 e4 bd
       -0.71576834 -0.55177116 -0.2953861 -0.11158211
0000f0 80 01 c7 bc 13 76 56 be 6f 4e 14 bf ff cc 7b bd
       -0.024292707 -0.20943479 -0.5793218 -0.061474796
000100 c3 f7 03 bf 5c 2f 85 be f8 3c 13 bf 92 c6 2a be
       -0.5154993 -0.26012695 -0.57514906 -0.16677311
000110 8e 48 72 be e0 84 39 3e ba 90 4a bf 17 d3 c7 be
       -0.2366049 0.18117094 -0.79127085 -0.39028236
000120 c7 fd 53 bf 81 0f 06 bf 19 46 0a bf 29 2b de be
       -0.8280911 -0.5236741 -0.5401321 -0.43392304
000130 71 ce f2 bd a0 48 ab be e9 b1 4d bf 43 e5 b9 be
       -0.11855782 -0.33453846 -0.80349594 -0.36307725
000140 98 9b e8 be 93 e5 a9 be f5 8d bc be f3 d5 b0 be
       -0.4543121 -0.33182964 -0.36827055 -0.3453823
000150 87 a0 af be b7 d7 3a bf d4 03 71 be 59 b1 b9 be
       -0.3430216 -0.72985405 -0.23536617 -0.36268118
000160 a0 e5 6f be 72 32 cb be 36 7b e9 be bc 76 f9 be
       -0.23427439 -0.39686924 -0.45601815 -0.487234
000170 c3 d6 07 bf 4c 1d 0a bf 00 1c 0c bf b9 d6 3c bf
       -0.53062075 -0.53950953 -0.54730225 -0.7376514
000180 75 87 a6 be 54 d8 2b be 0e e5 66 3e 08 1e 3b 3e
       -0.3252522 -0.16781741 0.22548315 0.18273175
000190 82 b4 c8 3d 8a 94 cc bb aa 67 1b be 2d 35 8b bd
       0.09800054 -0.006243293 -0.15176263 -0.06797252
0001a0 e2 51 e0 bd 02 4e d2 be ee 01 c1 3d 22 e3 76 be
       -0.10953118 -0.4107514 0.09424196 -0.24110082
0001b0 24 02 c8 3d d6 fc 22 be 5a 94 14 be 73 0c 14 be
       0.09766033 -0.15916762 -0.14509717 -0.14457874
0001c0 74 76 ff bd fa a5 81 3c b8 6d d7 bd 87 5d 0c 3e
       -0.12473765 0.015826214 -0.10518974 0.13707553
0001d0 ff 77 71 bd 29 a0 76 be 9e e3 25 be 10 ad 9e be
       -0.058952328 -0.24084534 -0.1620011 -0.3099141
0001e0 86 43 06 be 56 b8 f5 bd fe 5e 95 bd 25 dd 0c be
       -0.13111696 -0.1199805 -0.07293509 -0.13756235
0001f0 97 82 94 be 29 21 75 bc dd 7e 93 be 48 2e f4 3d
       -0.29005882 -0.014961519 -0.28807727 0.1192289
000200 71 13 25 be 6c 20 ff bd 15 99 4f be 2f 2f cb bd
       -0.16120698 -0.12457356 -0.2027324 -0.09921109
000210 a4 de 93 bc 2b c2 94 be 32 c7 e8 3d dc bb 13 3e
       -0.0180505 -0.29054388 0.113661185 0.14427131
000220 b3 76 88 be f0 55 96 be 6e 25 43 be 3a a4 62 be
       -0.2665306 -0.2936244 -0.19057247 -0.2213296
000230 70 6d 20 bd c0 3d 8e be f9 85 9d be 5f d9 57 be
       -0.039166868 -0.27781487 -0.30766276 -0.21079014
000240 64 5c 40 be 41 25 bc bd bf 23 67 be ce db 99 be
       -0.18785244 -0.09186793 -0.2257223 -0.3005051
000250 2d 58 80 be ff d4 ed 3b c2 16 0d be fc 64 d8 bb
       -0.25067273 0.007258057 -0.13778213 -0.006603835
000260 3c 0d 0c be da 7b b6 3d 98 a0 1a be bb ef ae 3b
       -0.13676924 0.089103416 -0.15100324 0.0053386367
000270 7f c1 3e 3d 48 46 be be 1a 2c 72 3e 6f e2 32 3e
       0.04657125 -0.37162995 0.23649636 0.1746919
000280 15 07 bc be 4d 23 0f 3e c1 89 22 be fc 73 09 bd
       -0.36724153 0.1397831 -0.15872861 -0.033557877
000290 44 4b 31 be 23 77 d7 bd 49 71 ec bc 9b 4d 1f 3e
       -0.17313868 -0.105207704 -0.028862612 0.15556948
0002a0 a5 e8 34 3e 0d 15 96 be 32 38 e0 be a7 0d a2 be
       0.17666872 -0.29312935 -0.43792874 -0.3165104
0002b0 80 08 69 3e 0c 41 31 be 6d 86 25 be 32 d1 a4 bb
       0.22757149 -0.1730997 -0.1616456 -0.005029821
0002c0 bb b4 26 be 10 f2 70 3b 62 36 86 be 25 f8 b6 bd
       -0.1627988 0.0036765374 -0.26213366 -0.089340486
0002d0 a8 ab af bd ad 7b 5b 3c a8 dd a0 be 91 1a cf be
       -0.08577663 0.013396186 -0.3141911 -0.40449956
0002e0 01 dc 32 3e 81 fc 83 be cb f0 f3 bd 07 d1 ba 3d
       0.17466737 -0.25778583 -0.11911162 0.091219
0002f0 46 64 65 3d 61 f1 12 3d c5 00 e2 bd 74 a2 81 bc
       0.05600383 0.035874728 -0.11035303 -0.015824534
000300 7b aa 9b be 0b de dc bc fd 32 92 bd ae 73 a5 be
       -0.30403504 -0.026961347 -0.071386315 -0.3231482
000310 80 b5 91 bd 8b 2f bb bd 96 7c 7b bd 9a 42 0b 3d
       -0.071146965 -0.091399275 -0.06139811 0.033999063
000320 88 ec 90 bb ea 3e 02 be fa 45 a0 3d 09 48 cf 3d
       -0.004422728 -0.12719312 0.07825847 0.101211615
000330 aa 5b 03 be 73 7b a5 3d e6 69 38 3d c7 ee bc bd
       -0.12827936 0.08080187 0.045022868 -0.09225231
000340 06 f7 60 bd 9d 48 cf 3d 7a 7a da 3b 2d 7d e1 bd
       -0.05492308 0.10121272 0.0066674324 -0.110102035
000350 d0 72 dd bc c5 a8 63 3c 71 b3 da 3d 4a ff 92 bc
       -0.027032286 0.013895218 0.10678757 -0.017943997
000360 36 cf 15 be 31 64 7c 3c 18 c3 d3 3d 00 ef 75 3d
       -0.14629826 0.015404747 0.103399456 0.06004238
000370 ac 17 3f 3e e1 d8 85 3c a1 1e 18 3c 07 92 03 3b
       0.18661374 0.016338767 0.009284646 0.0020076053
000380 0a e2 a0 3d 64 3a d8 3d e9 cc a2 bd 2e 71 e6 3d
       0.078556135 0.10558012 -0.0794924 0.11252056
000390 9a 5b 2b 3e 21 5f 3f bd b4 6c b3 3c a2 d4 8e 3c
       0.16734162 -0.04672158 0.02190242 0.017435376
0003a0 53 7f f8 3a e8 60 be 3e 93 55 56 3d 52 5f 76 3d
       0.0018958844 0.3718331 0.052327704 0.0601495
0003b0 3a 79 ba 3c e8 43 1a 3e 94 43 c8 bc 2f 6f f5 3d
       0.022762883 0.15064967 -0.024446286 0.11984097
0003c0 3e ef 8a 3d 24 4b 9c 3d 67 56 c2 bd 11 ee fc 3c
       0.06783913 0.076315194 -0.09489136 0.030875238
0003d0 60 e9 0d 3d 0e 9c 1c be 23 92 d3 3d bf e5 7b 3c
       0.034646392 -0.15293905 0.10330608 0.0153746
0003e0 50 5f 5d bd 52 6a a4 3d 5d 86 0d bd e7 5a 93 3d
       -0.054045975 0.080280915 -0.034551967 0.071950726
0003f0 00 df a2 bd 17 4b 5a 3d d0 0d 15 3e 83 d5 2e 3e
       -0.0795269 0.053294268 0.1455605 0.17073636

lstm.weight_ih_l1 f4 [392, 98]
000000 e1 ef 5e bf 14 69 67 bf 32 77 f6 be 28 b0 38 3f
       -0.87084776 -0.9039471 -0.48137814 0.72143793
000010 10 eb 66 be f5 21 56 bf ef 0e 4c be 32 9d 83 3d
       -0.22550607 -0.83645564 -0.19927572 0.06426467
000020 da 1b ec be 97 ee 89 be 5c c3 24 3f 32 a1 d0 3e
       -0.46115 -0.26939842 0.64360595 0.40747982
000030 a4 62 e0 3d 8b b5 20 3f 66 64 e5 be a6 ea a0 bf
       0.10956314 0.6277701 -0.4480316 -1.2571609
000040 51 7b 6b bd e1 54 4a 3f af 6f 7b be 65 6a d4 bd
       -0.05749065 0.79035765 -0.24554323 -0.10371856
000050 c1 bb 92 bf 58 40 4f 3e d7 a7 8f be ea 01 91 be
       -1.1463548 0.20239389 -0.2805774 -0.28321773
000060 36 0e 8e 3f 7b 03 dc be 13 1b 91 3d e5 c1 49 3f
       1.1098087 -0.42971405 0.07085242 0.78811485
000070 95 45 b1 be 6b a8 16 3f 08 12 ab 3e da b4 35 3f
       -0.346234 0.58850735 0.33412194 0.7097908
000080 84 b2 cb 3d 8d da e9 bd 7d 53 12 3f b0 c3 78 3e
       0.099461585 -0.114186384 0.57158643 0.24293399
000090 8f 1a d4 3e fc 0f 90 be 0a f3 ca 3e e5 90 8f bf
       0.41426513 -0.28137195 0.3963855 -1.1216093
0000a0 e2 9c 0c 3f 12 d1 37 3e 2a bf 2d 3f b9 77 e5 be
       0.54926884 0.17950848 0.6786982 -0.44817904
0000b0 a9 0d 01 bf d8 60 ca 3e e5 fb 8b bf 7a d5 e3 bc
       -0.5041147 0.3952701 -1.0936247 -0.027811754
0000c0 59 32 65 bf 03 71 03 bf 4b 5d 81 be c3 80 94 3f
       -0.8952995 -0.5134432 -0.2526649 1.1601795
0000d0 5d b7 b4 3e 92 46 00 3e 2e 4b 8d be e4 24 df 3e
       0.35296145 0.1252692 -0.2759642 0.43582833
0000e0 ea d1 29 bf e0 46 ed bd 17 94 b3 3e 1c 45 84 3d
       -0.6633593 -0.11585784 0.3507392 0.06458494
0000f0 e0 09 8a 3e 64 33 43 3f 07 ee 34 be c8 80 14 3f
       0.2696066 0.7625029 -0.17668925 0.58009005
000100 10 12 99 be 42 40 8a 3d 27 7a 51 bf 66 bb 83 be
       -0.29896593 0.067505375 -0.81827015 -0.2572891
000110 df 0a 8b be 2a 31 78 3e ac 17 9b 3e 4c a0 cb be
       -0.2715673 0.24237505 0.30291498 -0.39770734
000120 5b e7 96 3e a7 22 86 bf 30 81 3f 3f c3 39 a1 be
       0.29473385 -1.0479325 0.748065 -0.3148938
000130 eb 54 66 be e3 cb bc be 06 0d 8a 3f 4c 05 f7 be
       -0.22493331 -0.36874303 1.0785224 -0.4824623
000140 7d 77 07 bf 2b 9c 1c bf 4f 5f 1f bf fa e7 53 bf
       -0.529167 -0.61175793 -0.62254804 -0.82775843
000150 6f 71 f8 bc c5 2d 3a 3e 32 18 3f 3e 10 89 80 be
       -0.030327527 0.18181522 0.18661574 -0.2510457
000160 7e 73 4e 3d 08 84 7e 3c 91 08 a8 be 2a e3 6b 3e
       0.05040311 0.015534408 -0.32819036 0.23035875
000170 2c 2e 7f bd 89 a0 eb 3e 61 14 8b be 21 80 3a bf
       -0.062299892 0.46020916 -0.27163985 -0.7285176
000180 45 96 1d be 42 f4 80 3e b7 f7 21 be 0b f1 d3 3d
       -0.15389355 0.25186354 -0.15817152 0.1034871
000190 cd 9f 1d bf 91 36 fd 3d 74 cc a0 3d ce b1 28 bf
       -0.6157196 0.12363923 0.07851496 -0.6589631
0001a0 14 8c 38 be 25 63 f2 be 03 54 c2 3d 83 96 d8 3d
       -0.18022186 -0.47341266 0.0948868 0.10575583
0001b0 cf dd 6f 3e e7 5a 23 3e b8 91 a2 3e 81 2c 8a 3e
       0.23424457 0.15952645 0.317518 0.2698708
0001c0 04 26 31 3e ac 16 d5 3d ad d2 c7 3d 10 22 cc 3e
       0.17299658 0.10404715 0.0975698 0.39869738
0001d0 ed b8 be 3c 08 30 54 bd f4 c1 ec 3e f4 57 b0 3d
       0.023281539 -0.05180362 0.46241724 0.08610526
0001e0 0b 57 bd 3d 3f f2 7f be 21 52 16 be 73 da 63 bc
       0.09245118 -0.24994753 -0.14679767 -0.013907063
0001f0 d6 89 3c 3e 4b 63 7a 3e 7a 78 7d be 2b 65 f9 3e
       0.18411955 0.2445194 -0.2475299 0.48709998
000200 31 a3 c3 3e 12 7f 18 3d 94 1d 5a 3e bb bc b1 3e
       0.38210443 0.03723056 0.21300346 0.34714302
000210 77 b7 49 3d 13 72 b8 3e 74 64 9e bd f9 00 c1 be
       0.04924723 0.36024532 -0.07734004 -0.37696055
000220 37 0b 67 be 64 0e a3 be d7 6a a8 3e bb e9 a2 bb
       -0.22562872 -0.31846917 0.32894012 -0.0049717105
000230 34 a7 02 3f 7f 96 a6 3e 73 f8 62 bc c1 c9 c6 3e
       0.5103638 0.32536694 -0.01385318 0.388258
000240 e6 76 08 be 10 6b 21 bf 0d 8a b9 be 5d d8 23 3f
       -0.13326606 -0.6305399 -0.36238137 0.6400202
000250 2f c2 8a be fc 2a 63 3e bf 38 06 3f fc 20 98 3d
       -0.27101275 0.22184366 0.5243034 0.07428166
000260 07 eb 81 be 62 e2 32 3e 04 8d 6f be ce a0 d5 3e
       -0.25374624 0.1746917 -0.23393637 0.41724247
000270 f8 64 0a 3f 23 88 31 be ae 6b f8 3e c0 1d 2c 3f
       0.54060316 -0.17337088 0.48519653 0.67232895
000280 f1 54 fd be 74 81 d1 3e 3e 1e ac bd 5d 32 ab be
       -0.49478868 0.40919077 -0.08404206 -0.33436862
000290 06 80 fc bd 01 0e 38 be 4b 21 ab be 9c 89 bc bd
       -0.12329106 -0.17974092 -0.33423838 -0.092059344
0002a0 ec c3 3a bd 97 8b 18 bd 24 e6 5a bd 56 c8 21 be
       -0.045597002 -0.0372425 -0.053442135 -0.15799078
0002b0 40 b9 2b 3e 78 bc 25 bd 44 6d b4 3d 1d bb 2b 3f
       0.16769886 -0.04046294 0.08809903 0.6708239
0002c0 8e 0f 90 be 24 2c d8 be 4a 8a c7 be 7e f3 c2 be
       -0.28136867 -0.42221177 -0.38972694 -0.38076395
0002d0 26 7e bd bd a8 ff 57 be b9 d1 10 bd 57 a4 00 3e
       -0.092525765 -0.21093619 -0.035356257 0.1256269
0002e0 d0 3f da 3d cb 2f 45 be 97 87 b9 be 52 82 d4 bd
       0.106567025 -0.19256513 -0.3623626 -0.10376419
0002f0 38 2f 2a bd 07 94 99 be df b1 43 bd eb 81 44 3e
       -0.041548938 -0.29995748 -0.047777053 0.19190185
000300 c4 89 d8 3c a7 f5 7f be 1b 82 aa bd d1 f9 d9 3e
       0.02643288 -0.24996053 -0.08325597 0.42573407
000310 6a ee e5 3d 93 d3 55 be a9 c0 39 be 66 7e 91 3e
       0.112271145 -0.2088149 -0.181399 0.28416747
000320 88 bd f2 3d f8 a1 32 be d1 ce 69 bd 44 f0 2c bf
       0.118525565 -0.17444599 -0.057082 -0.67554116
000330 e6 68 01 bf 10 dc b5 3d 0e a1 f6 3d 37 ea 52 be
       -0.5055069 0.08879864 0.120424375 -0.20597158
000340 6a 25 0b bf a6 99 0d be a1 b3 fc 3d d6 91 1a bc
       -0.54353964 -0.13828143 0.12338949 -0.009434184
000350 a3 4e 39 3e 7e 11 09 be 40 81 36 3e 37 27 bf be
       0.18096404 -0.13385579 0.17822742 -0.37334606
000360 b9 76 f0 be 58 d4 87 3c 1e cd fd be 1f ef 0b 3e
       -0.46965578 0.016580746 -0.49570554 0.13665436
000370 8e da 3b 3e ef 80 25 bd 96 c6 2e 3d 8f c0 8d bc
       0.18345091 -0.040406164 0.042669855 -0.017303733
000380 bc 53 07 bf 5b 98 33 3f 59 c5 9d bd 63 58 41 3e
       -0.52862144 0.7015435 -0.07703657 0.18881373
000390 3c 89 3b bf 56 1b c9 be da 67 6b be db 73 00 bf
       -0.7325628 -0.39278668 -0.22988835 -0.5017678
0003a0 7c e5 54 be 14 b5 1c bf 31 ba cc 3e 30 a3 84 3e
       -0.20790666 -0.61213803 0.39985803 0.25905752
0003b0 f9 07 e7 bb e5 1f 63 bd 33 fe 31 bf 8a 78 3e 3c
       -0.007050511 -0.05545034 -0.695285 0.011625418
0003c0 d0 bd ee 3d b7 1b 9d 3e 25 e1 bd be f3 db ed 3e
       0.116572976 0.30685207 -0.37085834 0.4645687
0003d0 d9 b7 e0 3e 15 a3 fe bd da 81 2d bf 0d f9 03 3f
       0.43890265 -0.12433449 -0.6777626 0.51551896
0003e0 70 42 ac 3e 2b f0 cd be 63 57 f6 be 7c ef e5 3e
       0.33644438 -0.40222296 -0.48113546 0.44909275
0003f0 21 c6 75 3e 01 94 2c bf 29 23 61 3e 5c 40 5f 3e
       0.24001361 -0.67413336 0.21986069 0.21801895

lstm.weight_hh_l1 f4 [392, 98]
000000 40 d1 5b 3e 45 4f 0b 3f 33 c2 47 3c e2 49 3d 3d
       0.21466541 0.5441783 0.012192297 0.04621304
000010 36 95 73 3e 89 8e f5 3c b3 15 ae be 78 b2 95 3e
       0.23787388 0.029975193 -0.3400093 0.29237723
000020 30 b6 6c 3d d6 d0 42 be c8 d8 61 3f 89 39 8a 3e
       0.057790935 -0.19024977 0.88221407 0.2699702
000030 c9 6a 29 3f c8 5f a2 3e 11 ae f2 3d 2c 8a d1 be
       0.66178566 0.317137 0.11849607 -0.4092573
000040 89 a4 8f bf a3 64 30 3e 5c dd 61 3f 53 7b 98 be
       -1.1222087 0.1722589 0.8822839 -0.2978159
000050 bf ff e1 be f5 13 53 bd 42 92 8a 3e f9 2e fd be
       -0.4414043 -0.051532704 0.2706471 -0.494499
000060 6b 9a 75 bd 86 e8 7e bf 16 0b dd be 0f fe ac 3f
       -0.059961718 -0.9957355 -0.4317252 1.3515033
000070 4b d5 a0 bd 6c 1b 8a 3e 35 21 ab be ed 43 0f 3e
       -0.078531824 0.26974046 -0.33423772 0.13990755
000080 6b 3e 92 3f 31 7f 84 be 63 f6 03 3c cb 08 e4 3e
       1.1425298 -0.2587829 0.008054349 0.44537959
000090 ab b6 84 3e 00 b7 39 3e be 42 43 bf 6d fa e5 3e
       0.25920615 0.18136215 -0.76273715 0.44917622
0000a0 c3 61 50 be 23 41 ed be 56 d6 06 3e 9f 3d 96 3d
       -0.20349793 -0.46338758 0.131677 0.07335972
0000b0 88 4a de 3d d4 22 83 3e 9d 15 42 be 22 1c 8e be
       0.108540595 0.2561251 -0.18953557 -0.2775584
0000c0 69 de 73 bd 83 be d3 3d 68 39 c1 bd 51 13 e9 bb
       -0.05953828 0.103390716 -0.094347775 -0.0071128984
0000d0 15 35 ec be da 47 f2 3e 2f 0c 11 3f b8 4b 69 3e
       -0.46134248 0.47320443 0.56659216 0.2278279
0000e0 d2 19 f8 be 3e aa 90 3d 05 0f 1b be 9d 45 8e 3d
       -0.484572 0.07063721 -0.15142448 0.069468714
0000f0 7f ce da bd d4 f8 67 3d 94 2a ac 3e 6c 83 e5 bd
       -0.10683917 0.056633785 0.33626235 -0.11206707
000100 80 9c e8 3d 08 31 a7 3d 41 9e 6d 3e 0a 2e 1b 3c
       0.11357975 0.08163649 0.232049 0.009471426
000110 c7 68 67 3d dd d4 a7 be e3 07 e8 3e 3a ff 90 be
       0.056496408 -0.3277959 0.45318517 -0.28319722
000120 c1 cb 49 be 71 ca d6 be 65 a7 2a bf 33 86 06 bf
       -0.19706632 -0.41951326 -0.66661674 -0.5254852
000130 76 04 41 bf 34 d9 51 be d1 8b e1 3e 46 81 fe 3b
       -0.7539743 -0.20493013 0.44051984 0.0077668754
000140 1f 54 dc be 1a 60 d7 bc 73 c6 e3 be 17 c5 60 3f
       -0.4303293 -0.026290942 -0.44487342 0.87800735
000150 c6 b8 55 3f 8b 7d 62 be 00 5c 1a be 2a f5 49 bd
       0.83485067 -0.22118203 -0.15074158 -0.049306072
000160 31 33 cd 3e 51 e4 d2 be 30 52 1d bf 92 56 dc be
       0.40078118 -0.41189817 -0.61453533 -0.43034798
000170 49 8f e8 be 6e 91 8b 3e 58 d9 c0 bd af 87 5f be
       -0.45421818 0.27259392 -0.09416455 -0.21829103
000180 8a 0c b5 bd 8b 63 2c 3f 76 8a d8 be 21 71 23 be
       -0.08840282 0.6733939 -0.42293137 -0.15961124
000190 f8 fb 5e 3f 55 81 bb 3e 74 92 6b 3d 77 fe 06 3e
       0.87103224 0.3662211 0.057512715 0.13183008
0001a0 ed 9f f7 be 72 95 1f bf 96 4e 97 bc ef 03 b7 bd
       -0.483642 -0.6233741 -0.01847009 -0.08936297
0001b0 39 42 6d 3e 94 a0 2c 3e 9d 29 04 3f ee 56 f2 bc
       0.23169793 0.1685813 0.51625997 -0.029582467
0001c0 91 38 20 bf 50 27 d6 be bc af 9e 3e b5 d5 89 bb
       -0.62586313 -0.41826868 0.3099345 -0.004206384
0001d0 ea d9 ff bc cf 42 b5 3d 61 f1 66 3e c3 0e 20 bf
       -0.03123184 0.08850633 0.22553016 -0.62522525
0001e0 12 59 1a bf 29 48 2b 3d dc 2e d3 be 78 30 08 bd
       -0.6029216 0.041816864 -0.41246688 -0.03324935
0001f0 d1 21 18 3f 8f 3a 91 3e b6 84 1b bd 70 13 3a 3e
       0.594266 0.2836499 -0.03796836 0.18171477
000200 29 06 bf 3e c5 cb 37 3c 09 44 a8 be 9e c4 cf bd
       0.37309387 0.011218016 -0.32864407 -0.101449236
000210 1f da f9 3e 4d 62 06 bc aa 30 db be 02 5f f3 3d
       0.48799226 -0.008202148 -0.42810565 0.11883356
000220 87 52 44 3e bb 96 a0 be 64 ee 00 bf a2 77 a3 3d
       0.19172107 -0.31364998 -0.50363755 0.079818025
000230 d8 b0 2e 3e b9 64 0f be bd 41 92 be 88 83 59 3d
       0.17059648 -0.14003266 -0.2856578 0.053103954
000240 68 6c 58 be 84 a8 18 be 8f 80 af 3e 1b 08 28 3e
       -0.21135104 -0.14908034 0.3427777 0.16409342
000250 8f 04 35 3e 6b e2 52 be e8 28 96 3e f7 1e 2d 3d
       0.1767752 -0.20594184 0.29328084 0.04226586
000260 88 01 67 be 97 82 ab be 28 d0 71 bc 33 df 80 bb
       -0.22559178 -0.3349807 -0.014759101 -0.0039328574
000270 9b 38 fd 3d 88 72 0f 3e c8 18 60 3d 11 6f 18 3e
       0.12364312 0.14008534 0.054711133 0.14886118
000280 4e 9f cf 3e 11 18 ab be c5 ae 23 3e 72 12 1a be
       0.40551227 -0.334168 0.15984638 -0.15046099
000290 21 21 db be a2 d2 4e 3e 00 e2 96 3e 91 7a a6 bd
       -0.42798713 0.20197538 0.294693 -0.081288464
0002a0 7b 27 ca 3d d8 81 42 3f 2f 87 b2 3d c1 d2 93 be
       0.098708116 0.75979376 0.087171905 -0.2887173
0002b0 1b a2 0b 3f ee 70 01 be 6b b5 a7 3e f8 ca 49 be
       0.5454423 -0.12640736 0.32755598 -0.19706333
0002c0 26 e3 b1 bd a6 12 08 bf 61 dc e5 3d 42 cc b7 3c
       -0.08685903 -0.53153455 0.112236746 0.022436265
0002d0 7c 03 2b 3c 36 91 59 bf 00 d6 02 bf 31 de bf 3c
       0.010437842 -0.849872 -0.5110779 0.023421379
0002e0 98 30 81 be 5f f3 32 3b f8 72 ac 3e 2f 65 53 be
       -0.25232387 0.0027305705 0.33681464 -0.20644067
0002f0 83 1a 2b 3f 22 d7 93 3e 1d 57 21 be 21 b6 53 3c
       0.6683733 0.2887507 -0.15755887 0.012921841
000300 85 8c 5b 3d b6 62 6d 3e 6e c1 a9 be b0 48 61 bd
       0.053600807 0.23182186 -0.33155388 -0.05500096
000310 39 14 4a 3e aa 64 67 3f af 25 c9 3d 26 39 a6 be
       0.19734277 0.90387976 0.09821641 -0.32465476
000320 6c 0c 87 3e 7e 0e 1c 3e 74 b1 36 3e 6f 2d 9a 3e
       0.26376665 0.15239903 0.1784113 0.30112788
000330 00 c5 0b bc 86 7b 62 3e cd ad f2 3e f6 ae 20 3f
       -0.008530855 0.22117433 0.47398224 0.6276697
000340 b3 1d e6 be 7b 2d 9e 3c dc 0c 07 3f 5d d1 c8 3e
       -0.44944534 0.019308796 0.52753997 0.39222232
000350 76 47 94 be 1a bf 09 3e b8 30 0a be bb 0a d6 be
       -0.2896077 0.13451806 -0.13495147 -0.41805062
000360 37 a5 df 3d f5 aa 49 3e 5a 4c c5 be 0b d2 c2 be
       0.10920184 0.19694121 -0.38534814 -0.38050875
000370 3f d1 a9 3d 5d 5e 9a 3d c4 59 c7 3d ee 3b 9e be
       0.08291864 0.075375296 0.09733918 -0.30905098
000380 1f f0 b9 be 29 28 12 3e 0b 2c 8f 3d c0 39 14 3f
       -0.3631601 0.14273132 0.069908224 0.5790062
000390 0b 23 88 3e 1d 8e 8c be 6c 94 10 bf 20 be a6 3d
       0.26589236 -0.27452174 -0.56476474 0.08141732
0003a0 aa d5 db bc c7 1d d7 bd d7 41 3b bd ce a3 4d 3e
       -0.026835281 -0.105037265 -0.045717087 0.20082018
0003b0 cf 05 fe bd e3 2c 34 bf 27 ca ec 3e ca 91 ed be
       -0.12403452 -0.7038099 0.4624798 -0.4640029
0003c0 8c 1d ea 3c f1 d3 55 bf 12 44 0e bf 8f 50 7d be
       0.028578542 -0.8352652 -0.5557262 -0.24737762
0003d0 0d 77 95 be 74 a8 6f 3f 8e 44 97 bd 55 b3 70 3f
       -0.2919239 0.93616414 -0.07386123 0.9402364
0003e0 0b db ae 3e 26 3b c5 be 97 8b 2e 3f b3 4d 5b 3f
       0.34151492 -0.3852169 0.6818175 0.85665435
0003f0 41 9d 54 3f 0a f2 92 3c 5b 04 0c 3f e1 cb 0d bf
       0.8305245 0.017937679 0.54694146 -0.5538922

lstm.bias_ih_l1 f4 [392]
000000 20 9a 50 bd a6 ce 53 bd b2 40 36 be fc 09 96 be
       -0.050928235 -0.051710747 -0.17798117 -0.29304492
000010 d9 fb 40 3d 81 41 a9 3e fc eb 7f bd b6 4e a4 3d
       0.04711518 0.33057788 -0.06248091 0.080228254
000020 94 e2 b7 be 04 86 51 3d 64 b8 f1 be c0 ae 85 3e
       -0.35915053 0.051153198 -0.4721099 0.26109886
000030 29 f8 28 be c1 9e 75 3e 18 cd 0b be 1a 5e 66 be
       -0.16500916 0.23986341 -0.13652456 -0.22496834
000040 b3 d1 d6 3d ed 3c 82 3e 30 99 e1 3d cf 9c 0f be
       0.10489216 0.25437108 0.11015546 -0.14024661
000050 5a 3a dd bd e7 44 7f 3d e8 49 25 be 46 e4 f8 bd
       -0.10802145 0.06232157 -0.16141474 -0.12152915
000060 4f c2 06 3b 5b c7 f7 3e 82 83 9e 3d c3 2c f3 3b
       0.0020562594 0.48394284 0.07739927 0.0074211075
000070 1e da 82 be 5b e6 d0 be 3b a0 21 be ed 51 9c 3e
       -0.25557035 -0.40800747 -0.1578378 0.30531254
000080 29 14 02 3f c5 3a 24 bd df 36 1e be 77 26 cf 3c
       0.5081201 -0.04009511 -0.15450619 0.025286896
000090 d0 02 54 3e a9 c0 14 3d ab 43 eb 3e 6f 17 77 3d
       0.20704198 0.036316548 0.45950064 0.060325082
0000a0 2b 10 09 bf 26 22 ef bd d5 ac 08 bf 4d db 14 bf
       -0.53540295 -0.11676435 -0.5338872 -0.58147126
0000b0 d2 59 c4 bd 9a 2f 2a 3e 5c 37 63 bd 2a 7e 97 3c
       -0.09587444 0.16619721 -0.055472717 0.018492777
0000c0 a5 5a 3e 3e 1d 3e b4 be 13 54 fc 3d 1e f8 04 be
       0.18589266 -0.3520364 0.123207234 -0.12985274
0000d0 f9 e6 e3 bd 49 e7 db 3d 2b cc 58 be a3 42 92 bd
       -0.11128039 0.107374735 -0.21171634 -0.07141616
0000e0 8d 49 07 3e 90 60 1c bd ec af 16 3e d8 6b 64 be
       0.13211651 -0.038178027 0.14715546 -0.22306764
0000f0 1a d4 dc bb 66 40 fa be bc 28 8a 3e a5 17 08 be
       -0.0067391517 -0.48877257 0.26984203 -0.1329027
000100 fb 75 cd bd ef 16 40 be 4c 5e 88 bd 53 93 bd bd
       -0.100322686 -0.18758748 -0.06658611 -0.092566155
000110 65 73 69 be 2b 14 be 3e dd c8 b3 bd 20 f7 88 be
       -0.22797926 0.37124762 -0.08778546 -0.2675104
000120 89 6d 9c 3e 29 08 49 3c 2f 8b 30 3e 1c 2a e9 bd
       0.3055232 0.012270012 0.17240594 -0.11384985
000130 99 4f f1 3e 49 f1 67 be 40 19 28 3e ce 45 63 be
       0.4713104 -0.22650637 0.16415882 -0.22194597
000140 87 3f 6d be 9d 7c 00 be 63 e7 fa bc 0e e4 e3 be
       -0.23168765 -0.12547536 -0.030627912 -0.4450993
000150 72 40 55 3e 3e 7d 53 be 92 17 52 3e 93 33 73 bd
       0.20825365 -0.20653245 0.20516804 -0.059375357
000160 ff f7 f7 be c6 d4 ab 3d 12 d8 26 be 6d 60 3a be
       -0.48431394 0.08390193 -0.16293362 -0.18200846
000170 76 2a c7 be b1 b0 9b 3e 39 b7 18 3c 39 97 b2 bc
       -0.38899583 0.30408242 0.009321027 -0.021800624
000180 02 ee ed bd 0f ae 29 3e d4 d8 ae bd 99 32 c9 bd
       -0.11617662 0.16570304 -0.085374504 -0.09824104
000190 73 0e 3e bd 56 0e dd 3e eb 48 6e be 36 15 b0 bd
       -0.0464005 0.43175 -0.23270003 -0.08597796
0001a0 bf 38 bd bd 61 63 88 3e f5 10 9d 3e 2f 96 9f 3e
       -0.09239339 0.2663832 0.30677 0.31169268
0001b0 7f 54 6d bd 16 89 21 3e 7b 93 df bd f8 fd 90 3e
       -0.05794191 0.1577495 -0.109168015 0.28318763
0001c0 36 67 59 3d 52 69 54 3e 85 97 7a 3d 92 63 5b 3d
       0.053076945 0.20743302 0.061179657 0.053561755
0001d0 b8 ee 27 3e ed 0d 4d 3e 33 10 49 bc 0b d9 cd 3e
       0.16399658 0.20024844 -0.012271929 0.40204653
0001e0 30 0d 81 bc 7b 2a 25 be 98 96 d2 bd 50 b8 89 be
       -0.015753359 -0.16129486 -0.1028263 -0.26898432
0001f0 f3 c2 1b 3e f3 a3 03 bf 96 ed 10 3d 50 2f ba 3e
       0.15211086 -0.5142204 0.03538283 0.36364222
000200 fe 48 98 3e 71 b9 40 bd f9 54 c7 be 74 a6 65 3e
       0.2974319 -0.04705185 -0.38932016 0.22426778
000210 8f 4b d8 bd 63 88 fc 3d 7f 35 2c be 62 5d 27 3e
       -0.10561287 0.12330701 -0.16817282 0.16344216
000220 85 cc 84 be 0d 5b 9f bd f9 67 18 be 13 11 91 bd
       -0.25937286 -0.077810384 -0.14883412 -0.07083335
000230 92 e9 34 3c ce eb 8f 3e 88 75 f9 3e 38 73 37 3e
       0.011042016 0.28109592 0.48722482 0.17915046
000240 89 ff 32 be 24 fc fb bd 76 a8 a5 be 27 02 dc 3d
       -0.17480291 -0.123039514 -0.32355088 0.10742598
000250 21 ad 94 be 07 10 72 3e a9 bf 35 3f 6e 7d bd be
       -0.29038337 0.23638926 0.70995575 -0.37009758
000260 5c d1 b4 3e 64 2c 9e bd 59 f6 38 be 65 f1 15 3f
       0.3531598 -0.077233106 -0.18062724 0.58571464
000270 ce 71 58 be e5 e7 2e be dd 6e 90 3c 88 28 9b 3c
       -0.21137163 -0.17080648 0.017630989 0.018940225
000280 fb 13 8b 3d 23 b9 59 bd 96 30 a0 3d 63 62 a5 bc
       0.0679092 -0.053155076 0.07821767 -0.020188516
000290 45 86 b4 3e 26 a5 e2 3e 7f 8e 5a 3e 8d 77 ba be
       0.3525869 0.44266623 0.2134342 -0.36419335
0002a0 18 95 07 3f a7 b3 8a 3a 4c f0 06 be 6a 6d 2d 3e
       0.52961874 0.0010582105 -0.13177603 0.1693627
0002b0 ca c9 03 3d bb a0 df 3e 95 64 d2 be 66 d9 37 3e
       0.032174863 0.43677315 -0.41092363 0.17954025
0002c0 aa 7c 8f 3e a6 26 c7 3b e0 26 28 3d 45 31 8d 3c
       0.280248 0.0060776053 0.0410527 0.017235408
0002d0 be 07 9f bd c5 b1 8e 3e 59 69 f5 be ab 22 76 be
       -0.077651486 0.27870002 -0.47931936 -0.24036662
0002e0 c0 f8 03 be 03 66 34 be 26 b2 5b 3e a2 15 74 be
       -0.1288786 -0.1761704 0.21454677 -0.23836377
0002f0 47 23 a7 bd 41 a1 1d be 95 77 58 3e 8a f2 96 be
       -0.081610255 -0.15393545 0.21139367 -0.29481918
000300 67 92 95 bd f0 75 bd be c9 f9 cd bd 39 6e b0 bd
       -0.07303315 -0.37004042 -0.10057408 -0.08614773
000310 32 3b 66 be 5c c2 3e 38 d3 81 0d 3e d6 c6 6b 3e
       -0.22483519 4.548054e-05 0.13819055 0.23025069
000320 5d d4 92 be 88 33 93 3c 45 e2 22 3e 6a 1d 2f be
       -0.28677645 0.017968908 0.15906627 -0.17101064
000330 8f db 55 bc bb e3 90 3e 6a 4f 85 bd c4 98 82 3b
       -0.013052835 0.28298745 -0.06509288 0.0039854962
000340 50 a9 ce bc a6 dd eb bd 3c a6 e4 bd a7 34 43 be
       -0.025227219 -0.115168855 -0.11164519 -0.19063054
000350 47 0e 0f 3e 31 04 76 3e c3 8c b2 bd 46 e2 17 bd
       0.1397029 0.24025036 -0.087182544 -0.037081026
000360 45 8c 4b be fa 4c 05 be 5c 7f 97 3d e1 2d 18 3d
       -0.19877727 -0.13017645 0.07397339 0.03715313
000370 49 97 30 3e b7 11 d6 3e fe 3f aa 3d 13 98 21 be
       0.1724521 0.4181039 0.08312987 -0.15780668
000380 3a 0b 1d 3e 5c bd 15 3e 40 f8 36 bd 46 d1 0e be
       0.15336314 0.14623016 -0.044670343 -0.13947019
000390 80 5b 9a 3e 06 a8 59 3e 6e ff 3b 3d 63 dc 11 be
       0.30147934 0.21255502 0.045897894 -0.14244227
0003a0 15 1a 56 3d 64 32 a0 3d ec 25 b2 be c4 ee 1d bd
       0.052270968 0.07822111 -0.34794557 -0.038557783
0003b0 80 45 ce 3e 5d f8 d3 bb 56 37 a0 be 89 06 3e bd
       0.402874 -0.006468816 -0.31292218 -0.04639295
0003c0 cf d0 cf bd cd 3e dc bc bf 75 a0 3e 4e 27 1a be
       -0.10147249 -0.026885414 0.31339833 -0.15054056
0003d0 47 b3 d2 3d 71 4c 6a be 82 56 b2 3e 95 79 32 be
       0.10288101 -0.22880723 0.34831625 -0.17429192
0003e0 21 c0 0c be 32 1a 2c 3b e3 b7 08 be b4 ff 44 be
       -0.13745166 0.002626073 -0.13351397 -0.19238168
0003f0 53 4d 90 3d f0 07 9a 3d 72 82 23 3d ae 52 7b 3e
       0.070459984 0.07521045 0.039919324 0.24543259
