models/lstm1.pth (torch, 474339 bytes, 10 tensors)

lstm.weight_ih_l0 f4 [392, 1]
0	0xbef67f04	-0.4814378
1	0xbf86ac3a	-1.0521309
2	0x3ebd2d7b	0.3694876
3	0x3ed633a7	0.41836283
4	0x3ead922a	0.33900577
5	0xbd9eee49	-0.07760293
6	0x3ed3b67a	0.41350156
7	0xbe89c871	-0.26910737
8	0xbe0992f4	-0.13434964
9	0xbd67b792	-0.05657155
10	0xbf0e8d07	-0.5568394
11	0xbeb6d568	-0.3570969
12	0xbf3a3429	-0.7273584
13	0xbef16eb3	-0.4715477
14	0xbec8bed5	-0.39208093
15	0xbf73c628	-0.9522424
16	0x3de27a78	0.11058515
17	0xbe89e79a	-0.2693451
18	0xbeaa4db1	-0.332624
19	0xbf29f763	-0.6639311
20	0xbf1b546c	-0.6067569
21	0x3e3a8cad	0.18217726
22	0x3e748c47	0.23881637
23	0xbd8bb752	-0.06822075
24	0xbe1cb124	-0.15301949
25	0xbec7a7f2	-0.3899532
26	0xbfa484af	-1.2852992
27	0xbe69a49c	-0.228167
28	0x3e81ec3a	0.2537554
29	0xbec5c805	-0.38629165
30	0xbcd44452	-0.025911484
31	0x3e87230b	0.26393923
32	0x3f405419	0.7512832
33	0xbdd1ad0c	-0.10238084
34	0xbe80ef69	-0.25182655
35	0xbf505789	-0.8138357
36	0xbf3fae4b	-0.74875325
37	0xbf0b5491	-0.54425913
38	0xbe21079c	-0.15725559
39	0xbeb24b9f	-0.3482332
40	0x3f2a4242	0.6650735
41	0xbe2ec3f6	-0.1706694
42	0x3eafa8a4	0.3430835
43	0x3e4a637d	0.19764514
44	0xbf062584	-0.52400994
45	0x3dd16c72	0.102257624
46	0xbe3abed9	-0.18236865
47	0x3f02ec48	0.51141787
48	0x3e10f94b	0.14157598
49	0x3f0493c0	0.5178795
50	0xbed1bd52	-0.40964752
51	0x3dab806c	0.08374104
52	0x3ea02070	0.31274748
53	0x3ea65925	0.32489887
54	0xbd1084fb	-0.03528307
55	0xbf0fcf24	-0.56175447
56	0xbe72a1f9	-0.236946
57	0xbf2a3b68	-0.66496897
58	0x3e098450	0.1342938
59	0x3f21b460	0.63165855
60	0xbf1497ce	-0.58044136
61	0x3f16fafd	0.5897673
62	0x3f3560f1	0.70851046
63	0x3eebb0a8	0.46033216
64	0x3ec6d105	0.38831344
65	0x3de5e38f	0.11225044
66	0xbefba0b1	-0.49146035
67	0x3f305253	0.68875617
68	0xbed8adff	-0.42320248
69	0xbf529193	-0.8225338
70	0xbec876d4	-0.3915316
71	0xbf272d97	-0.6530394
72	0xbe43fa41	-0.19138433
73	0x3f27f1a1	0.6560307
74	0x3ed4745f	0.41495034
75	0x3d9f453d	0.07776878
76	0xbdfc4c3b	-0.12319227
77	0x3f5369a2	0.8258306
78	0x3ee3a697	0.44463035
79	0x3c6ea89b	0.014566566
80	0x3e18e715	0.14931901
81	0x3f1a33f6	0.60235536
82	0x3ecc2f75	0.39879957
83	0x3d3c8849	0.04602841
84	0x3f2900be	0.6601676
85	0xbe2dc301	-0.1696892
86	0xbf12067f	-0.5704116
87	0x3eb5d6b7	0.35515377
88	0xbce2941d	-0.027658517
89	0xbd4f851a	-0.050664045
90	0xbdca966e	-0.098919734
91	0xbf9baa9c	-1.2161441
92	0xbf4536df	-0.7703685
93	0xbee3ecb1	-0.4451652
94	0xbeba2ff3	-0.36364707
95	0x3eb4a569	0.35282448
96	0xbd01a7c8	-0.03165415
97	0x3b5f9a81	0.003411919
98	0xbdec4386	-0.115363166
99	0x3dee35df	0.11631369
100	0x3f2860d5	0.65772754
101	0x3c991986	0.018688928
102	0x3ed447e5	0.414611
103	0xbf5f0e11	-0.8713084
104	0xbe936344	-0.2878667
105	0x3ea8acf9	0.32944468
106	0x3d899ab4	0.067189604
107	0xbf633138	-0.88746977
108	0xbddaac5a	-0.10677405
109	0xbefd3b9d	-0.49459544
110	0xbeff231e	-0.4983148
111	0xbe87b0b3	-0.26501998
112	0x3c9fe878	0.01952003
113	0xbf335e2a	-0.7006556
114	0xbef13d66	-0.47117156
115	0xbf4090eb	-0.7522113
116	0xbf1a6eb6	-0.6032518
117	0xbf23fab8	-0.6405444
118	0x3e76cd98	0.24101865
119	0x3e1f7553	0.155721
120	0x3f15a26d	0.5845097
121	0x3e843abd	0.25826064
122	0xbf23f721	-0.64048964
123	0xbe9223d5	-0.28542963
124	0xbeec3742	-0.46135908
125	0x3d32eeba	0.0436847
126	0x3f462628	0.7740197
127	0xbf1d0bad	-0.6134594
128	0x3f17caac	0.5929363
129	0x3f0c742d	0.5486477
130	0x3e427572	0.18990114
131	0xbe2a0721	-0.16604282
132	0x3b20b7b7	0.0024523565
133	0xbedb0d2c	-0.42783487
134	0xbea2e7bc	-0.31817424
135	0xbf4ec904	-0.80775476
136	0xbef61a19	-0.48066786
137	0x3ef7fffb	0.48437485
138	0x3e90b00e	0.2825932
139	0xbdc03226	-0.09384565
140	0xbed7103f	-0.42004582
141	0xbef18ad4	-0.4717623
142	0x3e4f5d39	0.20250405
143	0xbe7be63f	-0.2459955
144	0xbf0b818f	-0.54494566
145	0xbeddcec6	-0.43321818
146	0x3d9f5b2e	0.07781063
147	0x3de67827	0.11253386
148	0xbf0c335b	-0.5476586
149	0x3ebc2d7b	0.3675345
150	0x3f0110d5	0.5041631
151	0x3d662fcd	0.05619793
152	0x3e0bd269	0.13654484
153	0xbe1befba	-0.15228167
154	0xbe88e9bb	-0.26740822
155	0xbf2e0543	-0.6797678
156	0xbda527e9	-0.08064253
157	0x3ef365f9	0.47538736
158	0xbe30c11d	-0.17261167
159	0x3ea41fab	0.3205541
160	0x3ed6c5dd	0.41947833
161	0x3f225a32	0.6341888
162	0xbe230639	-0.15920343
163	0x3eb7e6a5	0.35918155
164	0xbe4b4f03	-0.1985436
165	0x3f0620e3	0.5239393
166	0xbcafc7d5	-0.021457592
167	0xbf43ac7d	-0.7643507
168	0xbe3f11fb	-0.18659203
169	0xbf5699b5	-0.8382829
170	0x3eb28437	0.34866497
171	0x3db03f0e	0.08605777
172	0x3e1d3041	0.15350439
173	0xbd5e50f8	-0.054276437
174	0xbed8ac19	-0.423188
175	0x3eeed469	0.4664643
176	0xbf02ddad	-0.511195
177	0x3e9b0353	0.30275974
178	0x3ef2cc0e	0.47421306
179	0x3e97a8eb	0.29621062
180	0x3f105530	0.56379986
181	0x3dcbd220	0.099521875
182	0x3b4384e7	0.0029833855
183	0xbe848f2d	-0.25890484
184	0xbe87a89d	-0.2649583
185	0xbd8e7235	-0.06955377
186	0x3eefb011	0.46814016
187	0xbf3c523a	-0.7356297
188	0xbd94215d	-0.07232926
189	0xbf190294	-0.5976956
190	0xbf4af7b2	-0.79284203
191	0xbf294b70	-0.66130733
192	0xbf03da03	-0.51504534
193	0x3dd7a638	0.105297506
194	0xbd7809e7	-0.06055632
195	0x3da08dc3	0.07839539
196	0x3f17138c	0.590142
197	0x3eaa82eb	0.33303007
198	0xbdc55f2f	-0.096372955
199	0xbef0b245	-0.4701101
200	0x3e0ed50a	0.13948455
201	0x3f615cfb	0.880325
202	0xbee124f3	-0.43973503
203	0x3d72c658	0.059271187
204	0xbd49a8e9	-0.04923335
205	0x3f990d99	1.1957275
206	0x3ebf349e	0.3734483
207	0xbf0a231a	-0.5395981
208	0xbe8c49ba	-0.274
209	0xbf2f48b1	-0.68470293
210	0xbc906bb7	-0.017629487
211	0x3ef1d29b	0.47230992
212	0x3f844d39	1.0336066
213	0x3ef01004	0.4688722
214	0x3e1f3afe	0.15549847
215	0xbbcfc743	-0.0063408925
216	0x3da29f56	0.07940547
217	0x3e5919f9	0.21201314
218	0x3e5f81dd	0.21826883
219	0x3ebe79c3	0.37202272
220	0x3f858806	1.0432136
221	0x3e3791e3	0.17926745
222	0xbf2c1178	-0.67214155
223	0x3f9d8b27	1.2308091
224	0x3cd2f0db	0.025749614
225	0x3f6043c5	0.8760341
226	0x3bfb8305	0.007675531
227	0x3e2f1fdd	0.17101999
228	0xbe8bcb3a	-0.27303487
229	0x3e5e5203	0.21710972
230	0xbe0043d6	-0.12525877
231	0x3ecf9574	0.4054371
232	0xbf3c9b86	-0.7367481
233	0x3eebf38f	0.46084258
234	0x3eeae961	0.4588118
235	0xbba1452a	-0.004921575
236	0x3f060435	0.5235017
237	0xbe454d31	-0.19267727
238	0xbe9fbb36	-0.31197518
239	0xbeeb7ac1	-0.4599209
240	0xbf5766e1	-0.84141356
241	0x3f9a5454	1.2056985
242	0x3e4bcfb2	0.19903448
243	0x3f2f38f9	0.6844631
244	0x3f661a4c	0.89883876
245	0xbecb37af	-0.3969092
246	0xbdd56ebe	-0.10421513
247	0x3d83b1ec	0.0643042
248	0xbd49bdc6	-0.049253248
249	0x3f4b1d66	0.79341733
250	0xbd6fd8ff	-0.058556553
251	0xbe39d3b7	-0.18147169
252	0xbe9604f3	-0.2930065
253	0xbe494044	-0.19653422
254	0xbf29be56	-0.66306055
255	0x3f00f1c2	0.50368893

lstm.weight_hh_l0 f4 [392, 98]
0	0xbcefde8f	-0.029280929
1	0xbea13a5f	-0.31489846
2	0x3e933b5e	0.2875623
3	0xbe68d8d1	-0.22738959
4	0x3c9474b0	0.018122047
5	0x3e0def05	0.1386071
6	0xbf155a40	-0.58340836
7	0xbf31a57c	-0.69393134
8	0x3d3dc678	0.046331853
9	0x3ec04047	0.3754904
10	0xbf0ac214	-0.5420239
11	0x3e686d06	0.22697839
12	0xbf0ed6e3	-0.5579664
13	0xbeffed93	-0.49985942
14	0xbd4e1318	-0.050311178
15	0xbeaba8ec	-0.33527315
16	0x3e9bba2d	0.30415478
17	0x3ece9c75	0.40353742
18	0xbeb09250	-0.34486628
19	0xbce1eb2e	-0.027577963
20	0x3e44c8c2	0.19217208
21	0x3f1fc689	0.62412316
22	0x3e79a40f	0.2437899
23	0x3e655c6c	0.22398537
24	0xbd688bea	-0.056774057
25	0x3d36999d	0.04458009
26	0x3e5c34f6	0.21504578
27	0xbe86a20c	-0.26295507
28	0x3eaae0aa	0.3337453
29	0xbe5f9572	-0.21834353
30	0x3f98a75c	1.1926074
31	0x3ed2122c	0.4102949
32	0x3e2cdc1e	0.16880843
33	0x3e4d930e	0.20075628
34	0xbe11bc21	-0.14231922
35	0x3eca2acd	0.3948578
36	0x3f135643	0.575535
37	0x3dfc29f9	0.12312693
38	0xbe4793e1	-0.19490005
39	0xbca0a49b	-0.01960974
40	0x3dd01695	0.10160557
41	0xbd92db16	-0.071706936
42	0x3da7c149	0.08191163
43	0xbf2cecea	-0.67549
44	0x3f17c99b	0.59292
45	0xbc5bf2a4	-0.013424549
46	0x3f078e3e	0.5295142
47	0x3daa8a08	0.083271086
48	0xbe4256a5	-0.18978365
49	0xbf075b41	-0.5287362
50	0xbdcc5b67	-0.09978371
51	0x3f555b0a	0.8334204
52	0x3d8a54c7	0.06754451
53	0x3ea20c31	0.31649926
54	0x3dd7d89f	0.10539364
55	0x3f3fa357	0.7485861
56	0xbebe2a1c	-0.37141502
57	0xbdd440c8	-0.103639185
58	0xbc7e9b37	-0.015539936
59	0xbe160004	-0.14648443
60	0xbe9751ba	-0.2955454
61	0x3e97cf45	0.29650322
62	0xbee0464b	-0.4380363
63	0x3d88b3fb	0.066749536
64	0xbf1083c1	-0.5645104
65	0x3da2e92a	0.07954629
66	0x3eda3984	0.42622006
67	0x3d7c094b	0.0615323
68	0x3ebeb18a	0.37244827
69	0x3e1a704f	0.15081905
70	0x3e45ad76	0.19304451
71	0xbeda148f	-0.4259381
72	0x3d595aac	0.053064987
73	0x3ef43b39	0.47701433
74	0x3dee26c5	0.116284885
75	0xbea26ede	-0.3172521
76	0x3d5a1b44	0.05324866
77	0x3e47046b	0.19435279
78	0x3e52576c	0.20541161
79	0xbe643034	-0.22284013
80	0x3e023fc0	0.12719631
81	0x3ebd1073	0.36926612
82	0xbee0f0f0	-0.4393382
83	0x3e9e2ecd	0.3089508
84	0x3f00515c	0.50124145
85	0x3cf15e56	0.029463928
86	0x3ead7616	0.33879155
87	0xbe83ab4e	-0.25716633
88	0x3d7755f2	0.0603847
89	0xbf09f7e1	-0.5389386
90	0xbf5ff715	-0.8748639
91	0xbf651493	-0.8948452
92	0x3eea71dd	0.45789996
93	0x3e0f37be	0.13986108
94	0xbf2964f0	-0.66169643
95	0xbee571a4	-0.44813263
96	0x3f2b06e0	0.66807365
97	0x3ebb8613	0.36625728
98	0xbe8ac882	-0.271061
99	0x3d23a191	0.039949004
100	0x3e126798	0.1429733
101	0xbe69e490	-0.22841096
102	0x3e768c5f	0.24076985
103	0x3f591e0c	0.8481147
104	0xbed0783e	-0.40716738
105	0xbe280267	-0.16407166
106	0x3cd287b6	0.025699478
107	0xbe287e9f	-0.16454552
108	0xbf123525	-0.5711234
109	0xbc9eaa8a	-0.019368429
110	0x3ea0de28	0.31419492
111	0x3ef1c1de	0.4721822
112	0x3d5ef35f	0.054431316
113	0xbec8fea3	-0.39256772
114	0xbe97b2a8	-0.2962849
115	0x3ebc17cd	0.3673691
116	0xbeb10c78	-0.34579825
117	0x3ecbae34	0.39781344
118	0x3d52dc93	0.051479887
119	0x3e273088	0.16327107
120	0xbcbf3335	-0.023339847
121	0xbea67110	-0.32508135
122	0xbf548de6	-0.8302902
123	0x3dfe3eeb	0.124143444
124	0x3d8ea2d4	0.06964651
125	0xbe7ad6ad	-0.24495955
126	0xbeefbcd6	-0.46823758
127	0xbe148f34	-0.14507753
128	0xbf354b90	-0.70818424
129	0xbecba455	-0.39773813
130	0xbeaf38f9	-0.34223154
131	0xbef31039	-0.47473314
132	0xbe440681	-0.19143106
133	0xbe861daf	-0.26194522
134	0x3eb10140	0.34571266
135	0xbf310391	-0.69146067
136	0xbefc3674	-0.49260294
137	0xbe3ad333	-0.18244629
138	0xbf19cb94	-0.6007626
139	0x3eb14806	0.34625262
140	0xbe5a2e6e	-0.21306774
141	0xbeb33f5b	-0.35009274
142	0x3e4cafb8	0.19988906
143	0xbf5aa20f	-0.8540353
144	0x3ee4c77e	0.4468345
145	0xbf337e72	-0.70114815
146	0xbe8f6a1e	-0.28010648
147	0xbea880e4	-0.32910836
148	0x3eb1d525	0.3473293
149	0xbebf2ae9	-0.37337425
150	0xbef1fa59	-0.47261313
151	0xbfae8bb9	-1.363639
152	0xbed07668	-0.40715337
153	0x3e53e25e	0.20691821
154	0xbe839246	-0.25697535
155	0x3c972e8f	0.018454818
156	0xbdb95df3	-0.090511225
157	0x3d4d970e	0.050192885
158	0xbe95551f	-0.29166505
159	0xbf440282	-0.76566327
160	0xbf3690ea	-0.7131487
161	0x3e7843bf	0.24244593
162	0xbe14418b	-0.14478128
163	0x3f11e113	0.5698406
164	0xbd1ffba2	-0.039058335
165	0x3efa3ed9	0.48876074
166	0x3e5b8a5b	0.21439497
167	0xbeb9ebb4	-0.3631264
168	0x3f07c8a8	0.5304055
169	0xbeb2ca48	-0.34919953
170	0x3e50ffb0	0.20410037
171	0x3c567d1e	0.013091354
172	0xbec20e2e	-0.37901443
173	0x3ea2a2ee	0.3176493
174	0xbde7c1b8	-0.11316246
175	0xbe3d4b69	-0.18485798
176	0x3ed84b25	0.4224483
177	0xbf6b060a	-0.9180609
178	0xbea097c5	-0.3136579
179	0x3de11f7a	0.10992332
180	0xbf00a8bb	-0.5025746
181	0xbedb98c3	-0.42889985
182	0x3e1c8c02	0.15287784
183	0xbcfd5a58	-0.030926868
184	0x3edbbb40	0.42916298
185	0xbec1d2f0	-0.37856245
186	0xbecdfa9d	-0.40230265
187	0xbddce37d	-0.107855774
188	0xbf4109c9	-0.75405556
189	0xbe987ab2	-0.2978111
190	0xbf1ef4a5	-0.6209205
191	0x3d01ade5	0.03165998
192	0xbd2ebd51	-0.042661015
193	0xbedd241a	-0.43191606
194	0x3eb5c7a4	0.35503876
195	0x3e65f796	0.22457728
196	0x3d0f56cd	0.03499489
197	0xbee6c2ca	-0.45070487
198	0x3ee004a7	0.4375355
199	0xbe29333e	-0.16523454
200	0x3dbd81af	0.09253251
201	0x3ef6e9e3	0.48225316
202	0xbea2df20	-0.31810856
203	0xbe117a2c	-0.14206761
204	0xbdbd98df	-0.092576735
205	0xbedb76c1	-0.4286404
206	0xbef68254	-0.48146307
207	0x3df22533	0.118235014
208	0x3d964c72	0.073387995
209	0x3e20f076	0.15716729
210	0xbda8d7b5	-0.08244268
211	0x3db7f27a	0.089817956
212	0xbe4b2512	-0.1983836
213	0x3c84dac3	0.016217595
214	0xbe31d7b3	-0.17367439
215	0x3f2a9650	0.6663561
216	0xbee46983	-0.4461175
217	0x3cddc9aa	0.0270737
218	0xbf0b0b1d	-0.5431383
219	0xbd398eb2	-0.0453021
220	0xbe136310	-0.14393258
221	0xbe5f2342	-0.21790794
222	0x3d05a028	0.03262344
223	0xbf340a80	-0.7032852
224	0x3ee69346	0.45034236
225	0xbf01a834	-0.5064728
226	0x3e37bc70	0.17942977
227	0xbd2ef440	-0.042713404
228	0xbe56be81	-0.20971109
229	0xbedba747	-0.4290106
230	0xbe720bde	-0.2363734
231	0xbe4c1c29	-0.19932617
232	0xbd10b126	-0.035325192
233	0xbe45acb9	-0.1930417
234	0xbd51c525	-0.051213402
235	0x3d7f6e96	0.062361322
236	0xbd9079c4	-0.07054475
237	0x3dc78988	0.09743029
238	0xbe43f433	-0.19136123
239	0xbe566840	-0.20938206
240	0xbf0251b0	-0.50905895
241	0xbeb60923	-0.35553846
242	0x3e8359e3	0.25654516
243	0xbe7f8600	-0.2495346
244	0x3e3da127	0.18518506
245	0xbe8b7352	-0.2723642
246	0xbe22bb92	-0.15891865
247	0x3d1892d1	0.03724939
248	0x3e14e332	0.14539793
249	0xbf30a42d	-0.6900051
250	0xbd4fc719	-0.050726984
251	0xbe199c37	-0.15000997
252	0x3e6cac7a	0.2311267
253	0xbe7702f5	-0.24122222
254	0x3ea5a568	0.32352757
255	0xbf0ab764	-0.5418608

lstm.bias_ih_l0 f4 [392]
0	0xbda33f3e	-0.07971047
1	0xbef098d4	-0.469916
2	0xbeec92e8	-0.4620583
3	0xbdc7de12	-0.097591534
4	0xbeac5679	-0.33659723
5	0x3e6a1bda	0.22862187
6	0xbe883300	-0.2660141
7	0xbe59cffb	-0.21270745
8	0xbf09918c	-0.5373771
9	0xbd1fb2c2	-0.038988836
10	0xbe848a1e	-0.25886625
11	0xbe1ae31a	-0.15125695
12	0xbe756607	-0.23964702
13	0xbe2c9527	-0.16853772
14	0xbe43677c	-0.19082445
15	0xbe1af1e2	-0.15131333
16	0xbdbf4699	-0.09339637
17	0xbf0d93b7	-0.5530352
18	0xbe0882e5	-0.13331182
19	0xbed5285d	-0.41632357
20	0xbe5ebdb6	-0.21752056
21	0xbdef2960	-0.116778135
22	0xbe0ca04b	-0.13733022
23	0xbe869917	-0.26288673
24	0x3d34f8fe	0.04418277
25	0xbeeb5350	-0.45962
26	0xbe1de667	-0.15419923
27	0x3e1e4899	0.15457381
28	0xbea1c8cb	-0.31598505
29	0xbdbfe1a7	-0.09369212
30	0xbf0ec074	-0.5576241
31	0xbe9690be	-0.29407305
32	0xbe67a9a7	-0.22623311
33	0xbe47dbd3	-0.1951745
34	0xbe400573	-0.18752079
35	0xbef1a9c9	-0.47199848
36	0xbe81940e	-0.2530827
37	0xbeb63a1b	-0.35591206
38	0xbdde8d93	-0.10866847
39	0xbeeb3244	-0.45936787
40	0xbe2860b0	-0.16443133
41	0xbe8eb296	-0.27870625
42	0xbe703a35	-0.23459704
43	0x3d8352d8	0.064122856
44	0xbeca38d9	-0.39496496
45	0x3ded1833	0.11576881
46	0xbed38edc	-0.4131993
47	0xbe479eee	-0.1949422
48	0x3d265a80	0.04061365
49	0x3e21c1d1	0.15796591
50	0xbf014a28	-0.5050378
51	0xbef10277	-0.47072193
52	0xbee0e3e6	-0.43923873
53	0xbe279ba3	-0.16367964
54	0xbf13be1e	-0.5771197
55	0xbe597c2f	-0.21238779
56	0xbe8ff87b	-0.28119263
57	0xbe23a2af	-0.15980028
58	0xbeaa20b4	-0.33228076
59	0xbe378d93	-0.179251
60	0xbe50fa17	-0.20407902
61	0xbed47654	-0.41496527
62	0xbe535dba	-0.20641223
63	0x3d5d78f0	0.054070413
64	0x3d4d431e	0.050112836
65	0xbeae76ff	-0.34075162
66	0xbdf7a80c	-0.12092599
67	0xbec610a9	-0.38684586
68	0xbe3acb6e	-0.18241665
69	0xbe84493b	-0.2583712
70	0xbdf07d03	-0.11742594
71	0xbc8349fe	-0.016026493
72	0xbc62c257	-0.01384028
73	0xbb210eb6	-0.0024575419
74	0xbdea2918	-0.11433619
75	0xbebea80a	-0.3723758
76	0xbbfb74a7	-0.007673818
77	0xbea5bd7a	-0.32371122
78	0x3ccd7086	0.02507807
79	0x3e213fa7	0.15746938
80	0xbefbe3ba	-0.4919718
81	0xbeb87f8b	-0.36034808
82	0xbdce829a	-0.10083504
83	0x3d3cfacb	0.046137612
84	0xbe1a14a7	-0.1504694
85	0xbeace038	-0.33764815
86	0xbe188d4c	-0.1489765
87	0xbe18cfcd	-0.1492302
88	0xbf07d831	-0.53064257
89	0xbe6c76fc	-0.23092264
90	0x3bc5dc00	0.006038189
91	0xbe4a56f3	-0.19759731
92	0xbe6729e2	-0.22574571
93	0xbe8ac8da	-0.27106363
94	0xbe4aeaef	-0.19816183
95	0xbe6020b6	-0.21887478
96	0xbe264fdf	-0.16241406
97	0xbdaf67b9	-0.085647054
98	0xbcaba71b	-0.020953706
99	0x3d5eba5c	0.054376945
100	0x3d1f6557	0.038915005
101	0xbe5300c7	-0.20605765
102	0xbe11cd7c	-0.14238542
103	0xbe29f8cc	-0.16598815
104	0x3bbdc9b0	0.0057918653
105	0x3e8f30fd	0.27967063
106	0xbe580e28	-0.2109915
107	0xbe10aeae	-0.14129135
108	0xbe8f5ecb	-0.2800201
109	0x3c2d82cf	0.010590269
110	0xbe211e89	-0.15734304
111	0x3d7ba79e	0.06143915
112	0x3cc7285e	0.02431124
113	0xbdaf1e93	-0.085507534
114	0xbcaea47a	-0.021318663
115	0xbda0081d	-0.078140475
116	0xbddde5f7	-0.10834878
117	0xbd9097a8	-0.07060176
118	0xbe85de81	-0.2614632
119	0x3e78c6f5	0.24294646
120	0xbe08133e	-0.1328859
121	0xbde0d5e2	-0.10978295
122	0xbe8e56b7	-0.27800533
123	0xbcf2743b	-0.029596439
124	0x3db65aae	0.089040145
125	0xbd9d6781	-0.076857574
126	0x3e5055eb	0.20345275
127	0xbec02b5d	-0.37533084
128	0x3cb7edc2	0.022452239
129	0xbd5e6d6d	-0.054303575
130	0xbe92575b	-0.28582272
131	0xbd1eade8	-0.03874007
132	0xbd7801dc	-0.06054865
133	0x3e5d28a2	0.21597531
134	0xbe5579c2	-0.20847228
135	0xbeaeed60	-0.34165478
136	0x3e3a4dc4	0.18193728
137	0xbdcf7fc3	-0.101317905
138	0xbdc29207	-0.09500509
139	0xbe3f260f	-0.18666862
140	0xbcb7c1b4	-0.022431232
141	0x3e4dc16e	0.20093319
142	0xbe1256a8	-0.14290869
143	0xbeb50c29	-0.3536084
144	0x3e9bae0c	0.30406225
145	0xbecfed1f	-0.40610597
146	0xbdbf1238	-0.09329647
147	0x3ecaa56e	0.39579338
148	0xbe4dcbb7	-0.20097242
149	0x3e0cb382	0.13740352
150	0xbc8d0ce0	-0.017218053
151	0xbd30f8fb	-0.043206196
152	0x3ed12cab	0.4085439
153	0x3d082e85	0.03324749
154	0xbe7bd6d4	-0.24593669
155	0x3e3bd116	0.18341479
156	0xbe35007c	-0.17675966
157	0xbd2a0665	-0.041510005
158	0x3e497eb8	0.19677246
159	0xbc0e3ed5	-0.0086819725
160	0xbea906eb	-0.3301309
161	0xbe83ee95	-0.2576796
162	0x3e5180f1	0.20459343
163	0xbdffc2e7	-0.124883465
164	0x3ec63bd4	0.3871752
165	0xbed5d84d	-0.41766587
166	0xbec21e8f	-0.3791394
167	0xbdef5fb4	-0.11688176
168	0x3d92f22e	0.07175098
169	0x3e20cd0a	0.15703216
170	0xbe96ccda	-0.29453164
171	0x3e57663a	0.2103509
172	0xbe823689	-0.25432232
173	0xbe88325a	-0.26600915
174	0xbe7bb644	-0.24581248
175	0xbe298d9e	-0.16557929
176	0xbf192511	-0.59822184
177	0xbe19d8e1	-0.15024139
178	0xbcccfdd6	-0.025023382
179	0xbdd3d1d0	-0.10342753
180	0xbe5be654	-0.21474582
181	0xbf123c43	-0.571232
182	0x3ecddced	0.40207615
183	0xbdc9e47d	-0.09858034
184	0x3e1927d6	0.14956602
185	0xbe563273	-0.20917682
186	0xbe61e437	-0.22059713
187	0x3e3e25b0	0.18569064
188	0xbe1a51f1	-0.1507032
189	0xbdc1b54c	-0.09458408
190	0xbe3ca655	-0.18422826
191	0x3d0306c1	0.031988863
192	0x3e38d50d	0.18050022
193	0x3e9f6b61	0.3113661
194	0x3ed0d6ac	0.40788782
195	0x3e6b8178	0.22998607
196	0xbb9f8a89	-0.0048688096
197	0x3e14e3ec	0.1454007
198	0x3d4199b6	0.04726573
199	0x3e04e325	0.12977274
200	0xbe206d60	-0.15666723
201	0xbdcd6a3c	-0.10030028
202	0x3dde9c97	0.10869711
203	0x3d4244d5	0.047428925
204	0xbdd86012	-0.10565199
205	0x3d9d81af	0.07690751
206	0x3e0eb319	0.13935508
207	0x3d7094ad	0.05873554
208	0xbd127027	-0.035751488
209	0xbe803205	-0.25038162
210	0xbdac5118	-0.08413905
211	0x3da7dcef	0.081964366
212	0xbde0e346	-0.10980849
213	0x3cc2ef5c	0.023795776
214	0x3cb185ef	0.02167031
215	0x3e515f2d	0.20446463
216	0xbde2ada5	-0.11068276
217	0x3ce59a4c	0.028027676
218	0x3dca656b	0.09882625
219	0x3da0f50f	0.07859241
220	0x3db86fa5	0.090056695
221	0x3d0c6ef2	0.034285493
222	0xbc0ff8f6	-0.008787384
223	0x3de8056e	0.11329161
224	0x3b29426f	0.002582695
225	0x3e1449f3	0.14481334
226	0x3ccb143b	0.02478992
227	0xbda44d15	-0.08022515
228	0x3b7b24e5	0.0038321551
229	0xbdff3436	-0.1246113
230	0x3b02a868	0.0019936804
231	0x3e434d4a	0.19072452
232	0xbe50c791	-0.20388629
233	0xbaca621a	-0.0015440613
234	0x3e2c5055	0.16827519
235	0x3c60b059	0.01371392
236	0xbe002744	-0.12514979
237	0x3ca32f3b	0.019919982
238	0x3d672920	0.056435704
239	0x3e1f61a3	0.15564589
240	0xbd8f9401	-0.070106514
241	0x3d862466	0.06549911
242	0x3d6d9636	0.05800458
243	0x3ca3820c	0.019959472
244	0xbe55b7ef	-0.20870946
245	0x3e5f443a	0.2180337
246	0x3dabb01b	0.08383199
247	0xbc2c230b	-0.010506402
248	0x3e27044d	0.16310234
249	0xbe02ea75	-0.12784751
250	0x3d59e866	0.053200148
251	0xbd336ae2	-0.043803103
252	0x3e0d2a82	0.13785747
253	0x3e4beedb	0.19915335
254	0xbd7649c2	-0.060128935
255	0xbe21e92d	-0.15811606

lstm.bias_hh_l0 f4 [392]
0	0xbdcace39	-0.09902615
1	0xbf10d881	-0.5658036
2	0xbeeed8c2	-0.46649748
3	0x3c02a71e	0.007974414
4	0xbed59872	-0.4171787
5	0x3d9bfc4c	0.07616481
6	0xbdf28a5d	-0.11842797
7	0xbe7162f4	-0.23572904
8	0xbf1526af	-0.5826215
9	0x3d380bda	0.044933178
10	0xbead3026	-0.33825797
11	0xbe5c752c	-0.21529073
12	0xbead5734	-0.33855593
13	0xbe8a83a3	-0.27053556
14	0xbe369a22	-0.17832235
15	0xbe921458	-0.28531146
16	0xbd8b3ba1	-0.06798483
17	0xbed45c5e	-0.4147672
18	0xbe2322df	-0.15931271
19	0xbed5a05e	-0.41723913
20	0xbe5638ae	-0.20920059
21	0xbe81ccc1	-0.25351527
22	0xbe7edadf	-0.2488818
23	0xbe660ecc	-0.22466582
24	0xbc7b511c	-0.015339162
25	0xbec16d4b	-0.37778696
26	0xbe7e1654	-0.24813205
27	0x3d9f467f	0.07777118
28	0xbedd8313	-0.43264064
29	0xbdc1799f	-0.094470255
30	0xbf15fe92	-0.5859157
31	0xbebb9a2a	-0.36641055
32	0xbea88360	-0.3291273
33	0xbd5ad370	-0.0534243
34	0xbdf020f2	-0.11725034
35	0xbf116b39	-0.56804234
36	0xbdca1729	-0.09867699
37	0xbe6d63e8	-0.23182642
38	0xbe55946a	-0.20857397
39	0xbeea4bf4	-0.45761073
40	0xbe0f89c4	-0.14017397
41	0xbed61a78	-0.4181707
42	0xbe90519c	-0.28187263
43	0xbcecbb6c	-0.028897963
44	0xbeea84eb	-0.45804533
45	0x3dd4bb3a	0.10387273
46	0xbef347b9	-0.47515658
47	0xbe209603	-0.15682225
48	0x3cf1f076	0.029533606
49	0x3e90c934	0.28278506
50	0xbf081b48	-0.5316663
51	0xbec54cbf	-0.38535115
52	0xbee4fd99	-0.4472473
53	0xbda0d7dd	-0.07853673
54	0xbf1c1afb	-0.6097867
55	0xbe8f3224	-0.27967942
56	0xbeb05de4	-0.34446633
57	0xbd332f9d	-0.04374658
58	0xbe9d01d4	-0.30665457
59	0xbe7babe2	-0.24577287
60	0xbe16fd04	-0.14744955
61	0xbeee6738	-0.46563125
62	0xbe99438b	-0.29934344
63	0x3b1b36ad	0.0023683712
64	0xbd42f3aa	-0.047595657
65	0xbe6433f6	-0.22285447
66	0xbd1eaa5d	-0.03873669
67	0xbe8c5d01	-0.27414706
68	0xbe23e9f4	-0.16007215
69	0xbea64e02	-0.3248139
70	0xbe958853	-0.2920557
71	0xbe27e89d	-0.16397329
72	0xbcef5652	-0.029215965
73	0x3d103636	0.03520795
74	0xbe5f0482	-0.21779063
75	0xbeda6eb2	-0.4266258
76	0xbd496a9f	-0.049173947
77	0xbec5a929	-0.3860562
78	0x3df9e909	0.12202651
79	0x3cc9df20	0.024642527
80	0xbf0e7755	-0.55650836
81	0xbef25c21	-0.47335914
82	0xbe9242e0	-0.28566647
83	0xbd13ce2f	-0.036085304
84	0xbdfa8f2b	-0.122343384
85	0xbec78cea	-0.38974696
86	0xbd8f3116	-0.06991784
87	0xbdba22f8	-0.09088701
88	0xbf112031	-0.56689745
89	0xbddf05d1	-0.10889781
90	0xbda2436f	-0.07923018
91	0xbe99b860	-0.3002348
92	0xbd1726ee	-0.03690236
93	0xbea7ad49	-0.32749394
94	0xbe1f8224	-0.15576988
95	0xbe60c72d	-0.2195098
96	0xbe3c4035	-0.18383868
97	0xbd0cd315	-0.03438099
98	0xbd94c858	-0.07264775
99	0x3e11da47	0.14243422
100	0xbdba9bf2	-0.091117755
101	0xbe910f34	-0.28331912
102	0xbe8cd5ab	-0.27506766
103	0xbe3d6405	-0.18495186
104	0x3d156662	0.036474593
105	0x3e937452	0.28799683
106	0xbe13d985	-0.14438446
107	0x3cdac6cc	0.026706122
108	0xbe86a12b	-0.26294836
109	0x3cae673e	0.021289464
110	0xbe3858b5	-0.18002589
111	0x3d844777	0.06458943
112	0xbc8be645	-0.017077575
113	0xbdf59b08	-0.119924605
114	0xbdda9a81	-0.106740005
115	0xbe39cefd	-0.18145366
116	0xbd936ae1	-0.0719812
117	0x3d3cbbbe	0.046077482
118	0xbe71e892	-0.23623875
119	0x3e4f0a4b	0.2021877
120	0xbe083faf	-0.13305543
121	0xbe8b0da8	-0.27158856
122	0xbea2a4ad	-0.31766263
123	0xbe21547c	-0.15754884
124	0x3d33778c	0.04381518
125	0xbe2d04cc	-0.16896361
126	0x3e00205c	0.12512344
127	0xbea50e45	-0.3223745
128	0xbd2b8dd0	-0.04188329
129	0xbdc8f147	-0.09811645
130	0xbe984e7a	-0.29747373
131	0xbc28ba91	-0.010298387
132	0xbd971ab6	-0.073781416
133	0x3e3dcc02	0.18534854
134	0xbeb557ac	-0.3541845
135	0xbe58bfc9	-0.2116691
136	0x3dab1deb	0.08355316
137	0x3c5cfb91	0.0134877125
138	0xbdb8a5b5	-0.09015981
139	0xbe2d521b	-0.16925852
140	0xbdb6550d	-0.08902941
141	0x3e963a86	0.29341525
142	0xbddd2af3	-0.107992075
143	0xbeb095cd	-0.3448929
144	0x3ea54d78	0.32285666
145	0xbed4ffd8	-0.41601443
146	0xbe566b33	-0.20939331
147	0x3ebd1d57	0.36936447
148	0xbcb62911	-0.022236379
149	0x3d812da4	0.063075334
150	0xbda9b60e	-0.08286677
151	0x3b0c45d8	0.0021403935
152	0x3eaef252	0.3416925
153	0x3d19a171	0.03750748
154	0xbe252d00	-0.16130447
155	0x3e391160	0.18073034
156	0xbdfa0ebc	-0.122098416
157	0x3c6b3616	0.014356157
158	0x3e29a839	0.16568078
159	0x3d2d1503	0.042256366
160	0xbe7e9e68	-0.24865115
161	0xbed11bff	-0.40841672
162	0x3dc3e5c3	0.09565308
163	0xbe4cd166	-0.20001754
164	0x3e6c39a8	0.23068869
165	0xbe9523c5	-0.29128852
166	0xbf08527f	-0.5325088
167	0xbe00d709	-0.1258203
168	0x3b4473e7	0.002997631
169	0x3d4c7779	0.049918626
170	0xbe605dda	-0.21910802
171	0x3dd9b37f	0.10629939
172	0xbed2237a	-0.4104269
173	0xbece73b7	-0.40322658
174	0xbe924518	-0.2856834
175	0xbdee381c	-0.11631796
176	0xbf20c97a	-0.6280743
177	0xbe8ebee7	-0.27880022
178	0xbc912e63	-0.017722314
179	0xbd2bbe5e	-0.041929595
180	0xbe6d8fec	-0.23199433
181	0xbeeda837	-0.464174
182	0x3ecb3bfc	0.39694202
183	0xbde215de	-0.11039327
184	0x3c1b93da	0.0094957
185	0xbec71690	-0.388844
186	0xbe41fdfe	-0.18944547
187	0x3e6f36d5	0.2336076
188	0xbe2ed69d	-0.17074056
189	0x3d8ba971	0.06819428
190	0xbe77d9df	-0.24204205
191	0xbd8e28cc	-0.06941375
192	0x3e8db019	0.27673414
193	0x3ec0b742	0.37639815
194	0x3ef61fe9	0.4807122
195	0x3e7640be	0.24048135
196	0xbd83346c	-0.06406483
197	0xbbb93145	-0.0056516253
198	0x3d47e393	0.048801016
199	0x3de1a272	0.11017312
200	0xbca21788	-0.019786611
201	0xbdffd8d8	-0.124925315
202	0x3e67414a	0.225835
203	0x3d5fc9dc	0.054635867
204	0xbdc076f2	-0.09397687
205	0x3d91d735	0.071211256
206	0x3e6c344f	0.23066829
207	0x3e0eeaf1	0.1395681
208	0xbd970c42	-0.07375385
209	0xbdb973e9	-0.09055311
210	0xbe1e5394	-0.1546157
211	0x3c049ed6	0.00809451
212	0xbc71c395	-0.014756103
213	0x3dae4ced	0.08510766
214	0x3cf56617	0.029955907
215	0x3d8e89ff	0.069599144
216	0x3b39e18d	0.0028363199
217	0xbe17f7a8	-0.14840567
218	0xbd24679e	-0.04013788
219	0x3e43e51c	0.19130367
220	0xbaf45744	-0.001864173
221	0x3dad50ce	0.08462678
222	0xbc531741	-0.012883962
223	0xbd86f982	-0.065905586
224	0x3da4ed31	0.08053053
225	0x3d316278	0.043306798
226	0x3db40503	0.087900184
227	0xbd648bf5	-0.055797536
228	0xbdd54a6a	-0.10414584
229	0xbe2a127e	-0.16608617
230	0xbc073882	-0.008253219
231	0x3e521765	0.20516737
232	0xbe1031e1	-0.14081527
233	0x3c86451a	0.016390372
234	0x3ce26402	0.027635578
235	0xbd95c9a3	-0.0731385
236	0x3d52d689	0.051474128
237	0xbd53a69e	-0.05167257
238	0x3e1acac8	0.15116417
239	0x3e8d4b52	0.27596527
240	0x3ce7676c	0.028247558
241	0x3e11ccb0	0.14238238
242	0x3df9826a	0.12183078
243	0xbd91746c	-0.07102284
244	0xbe04e7c1	-0.12979032
245	0x3e21be08	0.15795147
246	0xbcb01cfa	-0.021498192
247	0x3d10dad9	0.03536496
248	0x3e1ac807	0.15115367
249	0xbdb332a1	-0.08749891
250	0x39ebd4ec	0.00044981332
251	0xbdeaada5	-0.11458901
252	0x3df41893	0.1191875
253	0x3e372a64	0.17887264
254	0xbc6c4d19	-0.014422678
255	0xbe847e14	-0.2587744

lstm.weight_ih_l1 f4 [392, 98]
0	0xbc2b274f	-0.010446384
1	0xbd485b2c	-0.048915073
2	0x3eb1f248	0.34755158
3	0xbe75d3fe	-0.2400665
4	0x3d86f6ae	0.06590019
5	0x3ef9de36	0.48802346
6	0xbed1b605	-0.40959182
7	0xbf09e43d	-0.5386389
8	0xbe5fd845	-0.21859844
9	0x3dffb948	0.124865115
10	0xbeee8e5b	-0.46592984
11	0xbe4c24d0	-0.19935918
12	0xbe3c147b	-0.18367188
13	0x3d689723	0.05678476
14	0x3f739e63	0.95163554
15	0xbe41e8a0	-0.18936396
16	0x3e12cb6f	0.14335416
17	0x3dd53c35	0.10411874
18	0xbee84fa5	-0.45373264
19	0xbf6c9814	-0.9241955
20	0x3f3dc54b	0.7412917
21	0x3f13f0e6	0.57789457
22	0x3c7d03d4	0.015442807
23	0x3dfd1d86	0.12359147
24	0xbe805539	-0.2506502
25	0x3e79a6e3	0.24380068
26	0x3e9c1572	0.3048511
27	0xbe2dfdeb	-0.16991393
28	0x3f248578	0.6426616
29	0x3ed041b1	0.4067512
30	0x3e9fb1a1	0.31190208
31	0xbdd2b41d	-0.1028826
32	0x3f1b3363	0.60625285
33	0x3eb9e26e	0.36305565
34	0xbe81a929	-0.2532437
35	0x3e621bec	0.22080964
36	0x3e75f7bf	0.24020289
37	0xbec11297	-0.37709495
38	0xbf01536b	-0.5051791
39	0xbe9eaca5	-0.30991092
40	0x3f0a9b4a	0.541432
41	0x3c5e1022	0.013553651
42	0xbe3a7417	-0.18208347
43	0xbf34d3fd	-0.7063597
44	0x3d21707f	0.039413925
45	0x3dd718cb	0.10502776
46	0x3eeb2233	0.4592453
47	0xbe0d1030	-0.13775706
48	0xbb2a1ca9	-0.0025957024
49	0xbe9525ba	-0.29130346
50	0xbf034fa9	-0.51293427
51	0x3ad5c965	0.0016310631
52	0x3dd1e70c	0.10249147
53	0xbd13b909	-0.036065135
54	0x3ecb2b93	0.39681682
55	0x3f1c0261	0.6094113
56	0xbdfaea4f	-0.12251722
57	0xbee0fca8	-0.4394276
58	0x3e9113d9	0.28335455
59	0xbdde88ed	-0.1086596
60	0x3d0323b5	0.032016475
61	0x3d29db6a	0.041469015
62	0xbc185553	-0.009297687
63	0x3f1467fb	0.5797116
64	0xbf1dd9dc	-0.6166055
65	0xbe757e8d	-0.23974057
66	0xbeba78aa	-0.36420184
67	0xbf9d7dc6	-1.2304008
68	0xbdf8eca6	-0.12154512
69	0xbf0f8d96	-0.5607542
70	0x3ea80834	0.32818758
71	0xbeb17f4f	-0.3466744
72	0x3e869c4a	0.26291114
73	0x3f10c796	0.56554544
74	0x3e0315d2	0.12801293
75	0x3d905ed2	0.070493355
76	0x3a8ec094	0.0010891133
77	0x3eb0a40c	0.34500158
78	0xbe79427e	-0.24341771
79	0x3e17a676	0.14809594
80	0x3e0b6a53	0.13614778
81	0xbcde3dc9	-0.02712907
82	0xbde5fc65	-0.11229781
83	0xbe0d1abf	-0.13779734
84	0xbe623fed	-0.22094698
85	0x3b1fbe21	0.00243748
86	0x3f0e753c	0.55647635
87	0xbe65e7cc	-0.22451705
88	0xbe9475ea	-0.2899621
89	0xbf058fb5	-0.52172405
90	0xbf168ece	-0.5881165
91	0x3c0b5632	0.008504437
92	0xbf15a6f4	-0.58457875
93	0x3ed101be	0.40821642
94	0xbeacb325	-0.33730426
95	0xbe9da227	-0.30787775
96	0x3eb123e2	0.3459769
97	0x3f002d99	0.50069577
98	0xbd67c81d	-0.056587327
99	0x3f132d27	0.5749077
100	0xbeb2a25e	-0.348895
101	0x3d9a037f	0.07520198
102	0x3ec61c25	0.38693348
103	0xbeacf799	-0.33782652
104	0xbd3d3ecf	-0.046202477
105	0xbe6ce856	-0.23135504
106	0x3eced119	0.40393904
107	0xbf2cfab4	-0.6757004
108	0xbbd601f2	-0.0065309936
109	0xbe586215	-0.21131165
110	0x3df818e4	0.121141225
111	0x3f070866	0.5274719
112	0x3dd33305	0.103124656
113	0x3f346546	0.7046703
114	0xbdd25533	-0.10270157
115	0xbe82c309	-0.25539425
116	0x3dc430a6	0.095795915
117	0xbe8fea6b	-0.28108534
118	0x3d70c9f0	0.058786333
119	0x3e28f193	0.16498403
120	0x3d8d80f7	0.06909364
121	0xbee632f1	-0.4496074
122	0xbebf7e32	-0.37400967
123	0x3dfff7db	0.124984466
124	0x3e81c24c	0.2534355
125	0x3dffee73	0.124966525
126	0xbe59d0f0	-0.2127111
127	0xbeda26bc	-0.42607677
128	0x3e326e28	0.17424834
129	0xbe9606ec	-0.29302156
130	0x3e9e31bc	0.3089732
131	0x3d9d88b0	0.07692087
132	0xbea581f7	-0.32325718
133	0xbf03ce5b	-0.5148675
134	0x3ef02aa3	0.4690753
135	0xbd396e84	-0.04527141
136	0xbe2a61a3	-0.16638808
137	0xbc6523aa	-0.013985554
138	0xbe51f256	-0.205026
139	0xbe89de36	-0.26927346
140	0xbd2b20c3	-0.04177929
141	0xbe6fd73c	-0.23421949
142	0x3da731cb	0.08163794
143	0xbeec7a3d	-0.4618701
144	0xbe0a5840	-0.13510227
145	0xbd44a7f1	-0.048011724
146	0xbe220758	-0.15823114
147	0xbd014885	-0.0315633
148	0x3df7e290	0.1210376
149	0xbe73f1f7	-0.23822771
150	0xbef00ad1	-0.46883252
151	0x3dac9ad0	0.08427966
152	0x3dbb3e1d	0.091427065
153	0xbdee895e	-0.116472945
154	0x3e5c1365	0.21491773
155	0xbd9ec7ae	-0.0775293
156	0x3ee84b4e	0.45369953
157	0x3dac6d31	0.08419264
158	0xbdb0381c	-0.08604452
159	0xbd94069a	-0.07227822
160	0xbeca62d3	-0.39528522
161	0x3e6e865b	0.2329344
162	0x3d02dd05	0.031949062
163	0x3eb75805	0.3580934
164	0x3e4217fd	0.18954463
165	0x3c1856ab	0.009298007
166	0xbbd7d2bd	-0.0065864013
167	0x3f1ac595	0.60457736
168	0x3df0a956	0.11751048
169	0x3e20291c	0.15640682
170	0x3ce3b933	0.02779827
171	0x3e37e22c	0.17957371
172	0xbe100039	-0.14062585
173	0x3d1582e4	0.03650178
174	0xbe3652eb	-0.17805068
175	0x3f0f7e4f	0.56052107
176	0xbd1a165c	-0.03761898
177	0xbcbf1857	-0.023327036
178	0xbe1186d3	-0.14211588
179	0xbec065ef	-0.3757777
180	0x3dcf743c	0.10129592
181	0xbf052d1e	-0.5202197
182	0xb864f61c	-5.4588643e-05
183	0xbe545c15	-0.20738252
184	0xbe23de32	-0.1600273
185	0x3e8ebe8c	0.2787975
186	0x3c046dba	0.0080828015
187	0x3eae75da	0.3407429
188	0x3f85a924	1.0442243
189	0xbd8e411c	-0.069460124
190	0x3c6972c0	0.01424855
191	0x3ee8ab53	0.4544321
192	0x3f370873	0.7149727
193	0xbe8774aa	-0.26456195
194	0x3e4b66e1	0.19863464
195	0x3ee98108	0.45606256
196	0x3eff54dc	0.4986943
197	0x3d22478a	0.039619006
198	0x3eaeabf3	0.34115562
199	0x3e2e3ad0	0.17014623
200	0x3ece0add	0.40242663
201	0xbe90f396	-0.2831084
202	0xbcbff269	-0.02343102
203	0xbe9b725f	-0.30360696
204	0x3f4878ad	0.78309137
205	0x3ebc5beb	0.36788878
206	0xbdf108ba	-0.117692426
207	0x3d95bc50	0.073113084
208	0xbe7211f6	-0.23639664
209	0x3dcd6609	0.10029227
210	0xbd536c8b	-0.051617187
211	0x3e42b671	0.19014908
212	0x3e69a53c	0.22816938
213	0x3d37b202	0.044847496
214	0x3d9e5afe	0.07732199
215	0xbdeaf7f3	-0.11473074
216	0x3ec08ef9	0.3760908
217	0x3e94b1c2	0.29041868
218	0x3ebf3e7b	0.37352356
219	0x3e9602ff	0.2929916
220	0x3ebada65	0.36494747
221	0x3e643a78	0.22287929
222	0xbf1f79ee	-0.62295425
223	0x3e26cd20	0.16289186
224	0xbc726170	-0.014793739
225	0x3bc1932c	0.005907437
226	0xbcbac05e	-0.022796806
227	0x3f45e641	0.77304465
228	0xbe83eeee	-0.25768226
229	0x3efcf0ad	0.4940237
230	0xbe97d95f	-0.29658028
231	0xbd870312	-0.065923825
232	0xbe403878	-0.18771541
233	0x3d77aa74	0.06046529
234	0xbd951348	-0.07279068
235	0x3d84baee	0.064809665
236	0xbccf2eff	-0.025290964
237	0xbea69c64	-0.32541192
238	0x3e24a4ac	0.16078442
239	0x3d52379b	0.05132256
240	0x3cdd52f2	0.02701709
241	0x3e042ef6	0.12908539
242	0x3ed5aa59	0.41731527
243	0x3e101989	0.14072241
244	0xbe0e636b	-0.13905112
245	0xbdd25b40	-0.10271311
246	0xbe942054	-0.28930914
247	0x3f2a7ae7	0.66593784
248	0xbeaf667f	-0.34257886
249	0x3ee73092	0.45154244
250	0xbe8d8cb2	-0.27646405
251	0x3e93bd8d	0.28855553
252	0x3e1ce8da	0.15323201
253	0xbf30ad74	-0.6901467
254	0x3e5b792d	0.21432944
255	0x3e15cc7b	0.14628784

lstm.weight_hh_l1 f4 [392, 98]
0	0xbb1ed2a2	-0.0024234434
1	0xbdbd3a9f	-0.09239697
2	0x3e93a8c8	0.28839707
3	0x3ef69602	0.48161322
4	0x3de99058	0.114044845
5	0xbea4f37b	-0.3221701
6	0x3da9ac61	0.08284832
7	0xbea55c66	-0.32297057
8	0x3e622e2b	0.22087924
9	0xbe2b4c13	-0.16728239
10	0x3d8ff099	0.07028312
11	0x3e937ffb	0.2880858
12	0x3e566bfb	0.20939629
13	0x3dd4a86e	0.10383688
14	0xbd2b7725	-0.041861672
15	0x3d9a4f75	0.075346865
16	0x3e5c7a1e	0.21530959
17	0xbf038fc6	-0.51391256
18	0x3dc5803e	0.09643601
19	0xbdfe239f	-0.12409138
20	0x3e59f7a0	0.21285868
21	0xbd5a7086	-0.053329967
22	0xbf0595ed	-0.52181894
23	0x3e07ada9	0.1324984
24	0xbeea3ec4	-0.4575101
25	0x3ef7fc41	0.48434642
26	0xbe68b1fe	-0.22724149
27	0x3ebf28db	0.37335858
28	0x3f229273	0.63504714
29	0xbe50fcf5	-0.20408995
30	0x3d9c8b80	0.07643795
31	0xbf0f7931	-0.560443
32	0x3e1c266c	0.15249032
33	0xbe27953a	-0.16365519
34	0x3e1e9029	0.1548468
35	0x3cfd24f7	0.030901415
36	0xbe95a5fd	-0.29228202
37	0xbe86131a	-0.26186448
38	0x3e79bdb1	0.24388768
39	0x3f0b1cfd	0.5434111
40	0xbe45effc	-0.19329828
41	0xbde958e7	-0.1139391
42	0x3de9eab2	0.11421718
43	0x3ea1746a	0.3153413
44	0xbe7d9bec	-0.2476651
45	0xbe82f7d7	-0.25579712
46	0xbe66eb85	-0.22550781
47	0x3df02b13	0.11726966
48	0xbf44a7fc	-0.76818824
49	0xbe89da89	-0.26924542
50	0xbebadb08	-0.36495233
51	0x3e71744a	0.23579517
52	0xbed20c77	-0.41025135
53	0x3ddf81e3	0.10913446
54	0xbe89f501	-0.26944736
55	0xbf1cde98	-0.6127715
56	0x3cc8a076	0.024490576
57	0xbefeb9f4	-0.49751246
58	0xbe99f7cb	-0.30071864
59	0xbf9176d0	-1.1364384
60	0xbed33be4	-0.4125663
61	0xbd11d63a	-0.035604693
62	0x3d11622a	0.035494007
63	0xbe46ed38	-0.1942643
64	0x3f109a35	0.564853
65	0xbec4a776	-0.38409013
66	0x3f350c70	0.70722103
67	0xbeb8c446	-0.36087245
68	0x3e1fef28	0.15618575
69	0xbd89d822	-0.06730677
70	0xbebb2205	-0.36549392
71	0x3f10ac7e	0.565132
72	0xbe8034f5	-0.25040403
73	0x3e0af277	0.13569055
74	0x3d8c0d0b	0.06838425
75	0xbc92d735	-0.017924884
76	0xbec9b8b0	-0.39398718
77	0xbe30ac27	-0.17253171
78	0xbee05c08	-0.43820214
79	0x3eae9afd	0.34102622
80	0xbdd5a40d	-0.10431681
81	0xbe2297dd	-0.15878244
82	0xbd4bbca8	-0.049740463
83	0xbe19bf2d	-0.15014334
84	0x3f17fa6d	0.59366494
85	0x3e280be0	0.1641078
86	0x3e4a0e8a	0.19732109
87	0xbdbbfa5d	-0.091786124
88	0xbe09bf99	-0.13451995
89	0xbdaa00ef	-0.08300959
90	0xbe48b11f	-0.19598816
91	0xbe126147	-0.14294921
92	0x3e0e2ada	0.13883534
93	0x3d32fd5d	0.043698657
94	0x3d4243f6	0.047428094
95	0xbe12380a	-0.1427919
96	0xbdc2bea5	-0.09509019
97	0xbe4e1f07	-0.20129023
98	0xbdaae7e7	-0.08345013
99	0x3f2e2821	0.6802998
100	0xbc43fb3d	-0.011961755
101	0xbeb9e1be	-0.3630504
102	0x3dc2b29a	0.09506722
103	0xbefac9ad	-0.4898199
104	0x3ef20989	0.472729
105	0xbd6ef6e5	-0.058340926
106	0x3ec47fdb	0.38378796
107	0x3eca026e	0.3945498
108	0x3ea8783c	0.32904232
109	0xbea088a7	-0.31354257
110	0x3d2d9305	0.042376537
111	0xbe485924	-0.19565254
112	0xbe92135a	-0.2853039
113	0xbd7acc70	-0.061230123
114	0xbe83b890	-0.25726748
115	0x3ebbf059	0.36706808
116	0x3e936094	0.2878462
117	0x3e771fa4	0.24133164
118	0xbf195cdb	-0.5990731
119	0xbda6382c	-0.08116183
120	0xbf405400	-0.75128174
121	0x3de39efc	0.11114308
122	0x3ef7d739	0.4840639
123	0xbdd4b0fc	-0.103853196
124	0x3e98233a	0.29714376
125	0x3dad674b	0.08466967
126	0x3de06500	0.10956764
127	0xbdf0eb30	-0.117636085
128	0x3f121bb5	0.5707353
129	0x3c8bfb95	0.017087737
130	0x3ea04fc0	0.31310844
131	0xbf49d561	-0.78841215
132	0x3c282067	0.010261632
133	0x3ef18c7f	0.47177503
134	0x3eeb7166	0.45984954
135	0x3e209712	0.15682629
136	0xbe0aa1da	-0.13538304
137	0x3cce9a4a	0.025220055
138	0xbd64136f	-0.055682596
139	0xbea7e9bc	-0.32795513
140	0xbe95d140	-0.29261208
141	0x3e649446	0.22322187
142	0xbe042bab	-0.12907283
143	0x3cdbc3f1	0.02682683
144	0xbe6ac6c0	-0.2292738
145	0xbec24fc5	-0.37951484
146	0x3e126d5f	0.14299534
147	0x3f48ae33	0.78390807
148	0xbe79afaf	-0.24383424
149	0xbee51b70	-0.44747496
150	0xbe76d619	-0.2410511
151	0x3e52adc8	0.20574105
152	0xbf1d4c3b	-0.61444443
153	0x3e758b5e	0.23978946
154	0x3ead6601	0.33866885
155	0x3eb98693	0.36235484
156	0x3c98c907	0.018650545
157	0xbe162659	-0.14663066
158	0x3e8113c1	0.25210384
159	0xbebe043e	-0.37112612
160	0x3dd4d80c	0.1039277
161	0xbe4adec0	-0.19811535
162	0xbf05e8a5	-0.5230811
163	0x3f4f0601	0.80868536
164	0xbe03da0f	-0.12876152
165	0x3ecaaa3e	0.3958301
166	0xbe1dcd25	-0.15410288
167	0x3ee9bd38	0.45652175
168	0xbf4742b0	-0.7783613
169	0xbd454bb8	-0.048167914
170	0xbe2eb9d5	-0.17063077
171	0x3dddd2bb	0.10831209
172	0xbfa83849	-1.3142177
173	0xbeb3bcb7	-0.35104915
174	0xbf07778c	-0.5291679
175	0xbcda0f97	-0.026618762
176	0x3ea1eda5	0.3162662
177	0xbe734bb3	-0.23759346
178	0xbd8e6994	-0.06953731
179	0x3e00790f	0.1254618
180	0xbe9aa894	-0.3020674
181	0x3f069d6b	0.5258395
182	0xbe8c6d1c	-0.27426994
183	0x3b8c2e66	0.004277992
184	0xbebc5cce	-0.36789554
185	0xbeb19118	-0.3468101
186	0x3f222c21	0.63348585
187	0x3da11dfd	0.07867048
188	0xbe31c007	-0.17358409
189	0xbf048089	-0.5175863
190	0xbca46055	-0.020065466
191	0xbafef98b	-0.0019453032
192	0xbe1a3f19	-0.15063132
193	0x3d9256bd	0.0714545
194	0x3eaa6de7	0.33286974
195	0xbea0d50b	-0.3141254
196	0xbe9cc5f9	-0.3061979
197	0xbeb10047	-0.34570524
198	0x3d64b6d5	0.055838425
199	0xbe506606	-0.20351419
200	0x3ed27479	0.41104487
201	0x3ed5650e	0.4167866
202	0x3ea2daa5	0.31807438
203	0xbe87bfdc	-0.26513565
204	0x3eb60f9c	0.35558784
205	0x3e854df6	0.26036042
206	0xbe3fa342	-0.18714622
207	0x3eb7a239	0.35865954
208	0x3e5b4f78	0.21417034
209	0xbedec4a8	-0.43509412
210	0xbeba715b	-0.36414608
211	0xbe965d4e	-0.2936806
212	0xbce356b3	-0.027751302
213	0x3ec56f36	0.3856141
214	0x3f25a9e4	0.6471236
215	0xbf4e8d0d	-0.80683976
216	0xbe738737	-0.23782049
217	0xbd467820	-0.048454404
218	0x3e3a58f4	0.18197995
219	0x3eb6cbb8	0.357023
220	0x3c07d360	0.008290142
221	0x3ca5eaa3	0.020253485
222	0xbebb2acb	-0.36556086
223	0x3dfb4360	0.1226871
224	0xbe7ea061	-0.24865867
225	0xbe0d2144	-0.13782221
226	0x3ea41569	0.32047585
227	0xbe58fb4c	-0.21189612
228	0xbdc3ecce	-0.09566651
229	0x3eb7eb2d	0.35921612
230	0x3e4a6ad2	0.19767311
231	0xbdeebbaa	-0.11656888
232	0xbddb2cdf	-0.10701918
233	0x3d05f63e	0.032705538
234	0xbf3210cd	-0.69556886
235	0x3f43d166	0.7649139
236	0xbe59dbda	-0.21275273
237	0xbf32c28a	-0.69828093
238	0xbf1d5731	-0.6146117
239	0xbcb7a95e	-0.022419628
240	0xbf9a7021	-1.2065469
241	0x3f9ae0f3	1.2099899
242	0xbe0a9150	-0.13531995
243	0xbe958634	-0.2920395
244	0x3eba6ce5	0.36411205
245	0x3f8db60d	1.1071182
246	0xbee1926b	-0.4405702
247	0x3e326908	0.17422879
248	0x3ea50594	0.32230818
249	0xbe80c220	-0.25148106
250	0xbcd1c170	-0.025604934
251	0x3edd9dc0	0.43284416
252	0x3f139464	0.576483
253	0xbebc364c	-0.36760175
254	0xbe0dc7f5	-0.13845809
255	0xbd274600	-0.04083824

lstm.bias_ih_l1 f4 [392]
0	0xbeaf0ec2	-0.34190947
1	0xbe319cf8	-0.17345035
2	0xbe95a533	-0.292276
3	0x3dc1e595	0.094676174
4	0xbded4bb6	-0.11586706
5	0xbda17f01	-0.07885552
6	0xbe1c3f08	-0.1525842
7	0xbe80b8be	-0.25140947
8	0x3e13eda5	0.14446123
9	0xbd28ebc1	-0.041240457
10	0xbe6a6faa	-0.22894159
11	0x3d80ace2	0.06282975
12	0xbe8ff04e	-0.28113025
13	0xbe615ad9	-0.22007312
14	0x3eb2f9b4	0.34956133
15	0x3bd2ad70	0.006429367
16	0x3e1e36ad	0.15450545
17	0xbe0c60b7	-0.13708769
18	0x3dec7d78	0.11547369
19	0xbe21bbb7	-0.15794264
20	0xbea4e3fb	-0.32205185
21	0x3dc9d4e7	0.09855061
22	0xbe970403	-0.29495248
23	0xbd960921	-0.0732596
24	0xbd9c9619	-0.07645816
25	0xbdbe295f	-0.09285235
26	0x3e858f7d	0.26086035
27	0x3e7ce48e	0.24696562
28	0xbe8260f3	-0.2546459
29	0x3de62740	0.11237955
30	0xbdab69fe	-0.08369826
31	0x3ebe1d3a	0.37131673
32	0x3e4dafb6	0.2008656
33	0x3badd95f	0.0053054537
34	0x3d05392c	0.032525226
35	0xbdd6cb12	-0.10487951
36	0xbed4a728	-0.4153378
37	0xbdecf672	-0.11570443
38	0x3eabc237	0.33546612
39	0x3cd9031a	0.026490737
40	0xbe35cf67	-0.17754899
41	0x3f4ee52d	0.80818444
42	0x3dbdc15d	0.09265397
43	0xbe6dc38a	-0.23219123
44	0x3ed7f5ae	0.42179626
45	0x3e384939	0.17996682
46	0xbe1a71d6	-0.15082487
47	0xbeb5dec5	-0.35521522
48	0xbe625fc3	-0.22106843
49	0xbea1e1d0	-0.31617594
50	0xbe1c1c51	-0.15245177
51	0x3dd5ecfd	0.104455926
52	0x3f248fac	0.64281726
53	0xbe1d0781	-0.15334894
54	0xbd387ff5	-0.045043904
55	0xbd436aeb	-0.047709387
56	0xbcbcfc4d	-0.023069525
57	0x3e1f5a57	0.15561806
58	0x3dce02e1	0.10059143
59	0x3e4bf9a2	0.19919446
60	0xbe59cc6f	-0.21269391
61	0xbd016995	-0.03159483
62	0xbd4e3bc6	-0.050349973
63	0x3d83f3aa	0.064429596
64	0x3dd1d4c0	0.10245657
65	0x3e1897b0	0.14901614
66	0x3d8897b6	0.066695616
67	0xbc63de3a	-0.013907963
68	0x3e868f87	0.26281378
69	0x3dd008fb	0.10157963
70	0xbe0458ee	-0.12924549
71	0xbde3bf5f	-0.111204855
72	0xbde30d1d	-0.110864855
73	0xbddf9ecb	-0.10918959
74	0xbeefa08b	-0.46802172
75	0xbda7a687	-0.081860594
76	0x3e4c2b12	0.19938305
77	0x3e4aeef7	0.1981772
78	0xbea159db	-0.31513867
79	0x3ea261f1	0.31715348
80	0xbd017dfc	-0.03161429
81	0xbd12000d	-0.03564458
82	0xbe936299	-0.28786162
83	0xbdff4daf	-0.12465989
84	0x3e24c877	0.16092096
85	0x3dfef8ae	0.12449776
86	0xbe27043f	-0.16310214
87	0x3da7eb4d	0.08199177
88	0xbea6d44a	-0.3258384
89	0xbd8ae26a	-0.06781466
90	0x3e1a1445	0.15046795
91	0xbe8e4ebc	-0.27794445
92	0xbe8f2cd0	-0.27963877
93	0xbe535d27	-0.20641004
94	0x3e783cab	0.24241893
95	0xbe15bff1	-0.14624001
96	0xbee5a2e7	-0.44850847
97	0xbdc49a03	-0.09599688
98	0x3e9f4bcf	0.31112525
99	0x3eb2b020	0.34899998
100	0x3f019518	0.50618124
101	0x3bd85eef	0.006603114
102	0x3f0a8b72	0.54119027
103	0x3e81a8f0	0.25324202
104	0x3e41d3eb	0.18928497
105	0x3e85dd8e	0.26145595
106	0xbd91606c	-0.07098469
107	0x3cb137d2	0.021633063
108	0xbdb2bdce	-0.087276086
109	0x3e9602fc	0.29299152
110	0x3e44d747	0.19222747
111	0x3e813059	0.252322
112	0xbdcfc98a	-0.101458624
113	0x3e4b8055	0.19873174
114	0x3c08c8ac	0.008348625
115	0x3e2cbd0e	0.16868994
116	0xbd8ee5ef	-0.0697745
117	0x3e9565a8	0.2917912
118	0x3e184ab2	0.14872244
119	0xbb32b4c8	-0.0027268399
120	0x3ec4aae8	0.3841164
121	0x3eddcf0b	0.43322024
122	0xbcd90f0d	-0.026496435
123	0x3db9b8bf	0.09068441
124	0x3e0e23b1	0.13880803
125	0x3dcee7b2	0.10102786
126	0x3d963d9e	0.07335971
127	0x3e2c95fa	0.16854087
128	0x3e6c4813	0.23074369
129	0x3e3e4ec6	0.18584737
130	0x3eb13be3	0.34616002
131	0x3c9f847c	0.019472353
132	0x3e5d66b8	0.21621215
133	0x3dbec0ef	0.09314143
134	0x3eade816	0.3396613
135	0x3e01641a	0.12635842
136	0x3e4ca9e1	0.19986679
137	0x3e515093	0.20440893
138	0x3eac223e	0.33619875
139	0x3d9ee26f	0.077580325
140	0x3eace222	0.33766276
141	0x3e0399a1	0.12851574
142	0xbe8d635e	-0.27614874
143	0xbdba14be	-0.090859875
144	0x3e6347c0	0.22195339
145	0x3eaba4c4	0.33524144
146	0xbd7fce15	-0.062452395
147	0xbd393724	-0.0452186
148	0xbc2afd1b	-0.010436322
149	0x3dc0fd26	0.09423284
150	0xbea63310	-0.32460833
151	0x3de57143	0.112032436
152	0x3e2aa434	0.16664201
153	0x3ef35727	0.4752743
154	0x3d9541e6	0.0728796
155	0x3e0bd5f8	0.13655841
156	0xbd8677bf	-0.065658085
157	0xbe119970	-0.14218688
158	0x3e8a86a6	0.27055854
159	0x3e8c1731	0.27361444
160	0x3e2d5477	0.16926752
161	0x3e2e829a	0.17042008
162	0x3f060e40	0.52365494
163	0x3ebc515a	0.36780816
164	0x3e0b3fd1	0.13598563
165	0x3e01066e	0.12600109
166	0x3e77b1fd	0.24188991
167	0x3d91bcc0	0.07116079
168	0xbd025669	-0.03182069
169	0x3d7b19a1	0.06130374
170	0x3e7a93db	0.24470465
171	0x3e2277ec	0.15866059
172	0x3eb0bc65	0.34518734
173	0x3df8068c	0.12110624
174	0x3e361c35	0.17784198
175	0x3e77d334	0.24201661
176	0x3e262654	0.16225559
177	0x3ccb8260	0.024842441
178	0x3e2ac2a4	0.16675812
179	0x3e30cd54	0.17265826
180	0xbda2213d	-0.07916496
181	0x3dde9bc2	0.10869552
182	0x3e2bd1c5	0.1677924
183	0x3dbd9db6	0.092585966
184	0x3e530eff	0.2061119
185	0x3e43f9fc	0.1913833
186	0x3e867fe6	0.26269454
187	0x3e29b351	0.1657231
188	0x3e3e26f2	0.18569544
189	0x3ec5a8bf	0.38605306
190	0x3e0e4b3a	0.13895884
191	0x3e86addc	0.2630452
192	0x3ed3c70c	0.41362798
193	0x3edddcda	0.4333256
194	0x3ea47ecf	0.32127997
195	0x3e840dcd	0.2579178
196	0x3a2668a8	0.00063479925
197	0x3b865332	0.004099273
198	0xbd57f6ee	-0.052725725
199	0xbd8f59e2	-0.06999566
200	0xbe8d6560	-0.27616405
201	0xbdf3b72c	-0.11900172
202	0xbbef8776	-0.0073098494
203	0xbc865afd	-0.016400808
204	0xbef3ba2f	-0.47602984
205	0x3b51f41e	0.0032036374
206	0x3e75c8ab	0.2400233
207	0x3e0710ca	0.13189998
208	0x3ce8dfb2	0.028426979
209	0x3d853b94	0.06505504
210	0xbda2112f	-0.07913434
211	0xbdfeb806	-0.124374434
212	0x3ed27aca	0.41109306
213	0xbebf3de0	-0.37351894
214	0x3d129d5a	0.035794593
215	0xbe5112c6	-0.20417318
216	0x3e076c8a	0.13224998
217	0xbe99b926	-0.3002407
218	0xbe161eb4	-0.1466015
219	0x3c35b7d1	0.0110911885
220	0x3e1ad62f	0.15120767
221	0xbe0484c0	-0.12941265
222	0xbe224087	-0.15844928
223	0x3db4431b	0.08801862
224	0xbea49eb4	-0.3215233
225	0x3d19a071	0.037506524
226	0x3e8bcd6b	0.2730516
227	0xbddbe71e	-0.107374415
228	0xbebcbe76	-0.3686406
229	0x3e13ac6f	0.14421247
230	0xbeb454cd	-0.35220948
231	0xbd41bb36	-0.04729768
232	0x3d21e671	0.039526407
233	0xbe177f65	-0.14794691
234	0x3dc47a22	0.095936075
235	0xbdcfb073	-0.10141077
236	0xbe218b53	-0.15775804
237	0x3f02ebc2	0.5114099
238	0x3d2806cb	0.041022103
239	0xbedc3fd5	-0.4301745
240	0x3e7ec1b4	0.2487858
241	0xbe494ae0	-0.19657469
242	0xbe14e8d6	-0.14541945
243	0x3c88a330	0.016679376
244	0x3d80f9cc	0.06297645
245	0x3e9052e6	0.28188246
246	0x3e3aa322	0.18226293
247	0x3e3574e2	0.17720369
248	0x3e07c0d5	0.13257153
249	0xbd62b41d	-0.05534755
250	0x3dfb6f81	0.12277127
251	0xbc6e9f24	-0.014564309
252	0xbdf2795e	-0.11839555
253	0xbbc746c7	-0.0060814354
254	0x3e4d3cf5	0.20042785
255	0x3d1bfffc	0.038085923
