models/lstm.pth (torch, 6619 bytes, 8 tensors)

lstm.weight_ih_l0 f4 [40, 1]
1.4089603 0.27619663 -0.39743373 0.06694266 -1.3196325 2.0246677 -0.44033486 -0.046589896
0.93840283 -1.1059285 0.173248 0.2678679 -0.14576758 2.9947522 0.89946896 -0.63780254
0.44841537 0.09152589 -1.4114966 -0.82109696 0.046435513 0.040364757 0.2919234 0.19244823
-0.60400444 -0.8421045 -0.23237969 -0.19458619 0.6727147 -1.8395922 0.52887684 0.3373069
0.46849978 0.4133894 0.38385028 0.0700496 1.0002725 -0.4079589 0.47229663 -0.4943917
00000000: d058 b43f a569 8d3e 6f7c cbbe 3c19 893d
00000010: b8e9 a8bf 2894 0140 9273 e1be 0cd5 3ebd
00000020: 2b3b 703f 118f 8dbf ec67 313e fb25 893e
00000030: 1944 15be 05aa 3f40 9943 663f 0747 23bf
00000040: b396 e53e ed71 bb3d ecab b4bf 6933 52bf
00000050: 2a33 3e3d 8455 253d fc76 953e 2611 453e
00000060: 09a0 1abf 2994 57bf f1f4 6dbe 9a41 47be
00000070: 0837 2c3f c277 ebbf 7964 073f 7db3 ac3e
00000080: 34df ef3e c7a7 d33e 0688 c43e 2a76 8f3d
00000090: ee08 803f fddf d0be ddd0 f13e e920 fdbe

lstm.weight_hh_l0 f4 [40, 10]
0.66457933 -2.2851498 -1.4110187 0.6539684 -1.5373958 0.8864568 1.9346063 -1.3123814
-0.5218172 -0.5187517 -1.1824014 -2.3713288 -0.8234178 1.6721239 0.7157767 -1.2656873
0.34839362 0.6129242 0.38519835 0.45923313 0.5587103 -0.22085135 0.804971 0.8923451
1.1157696 -1.0500659 -0.09708183 1.3333367 -0.42426676 -3.161614 -0.54792994 -0.08497327
0.1443112 0.26976815 1.2777554 -0.1717289 -0.06280322 0.34520933 -1.8369732 0.59218323
-0.16888948 0.24885136 0.45345545 -0.4517983 -0.4823036 2.4565783 -1.5369565 0.8676775
-0.7922035 -1.4177387 0.4169338 1.3902835 1.4469109 1.7564903 1.1007935 1.7823938
-1.6973231 0.85669917 -0.28416756 0.8797936 -0.60067147 -1.7421714 -0.7275527 1.8623732
0.11234044 1.8622267 1.1076505 0.42075104 -1.3330097 -1.7155478 -2.0794673 -1.3025484
-0.7696158 2.0081007 2.5345833 -1.0217503 0.19399166 -0.053693037 -1.7614392 0.16870515
-0.7348917 0.53384846 0.9305294 0.77822953 1.5560329 -0.53451854 0.7747332 0.28102684
-1.6229763 0.118166864 -3.00356 -0.22824018 -1.4735857 3.9838967 3.0327826 -1.6680576
2.1554377 -0.38428432 0.39492232 -1.7427055 0.18737297 -1.5303171 0.3323613 1.9950923
0.786047 1.0599257 1.0207561 -0.34673426 -0.600418 1.1878668 0.3489278 -0.8101322
-1.0725142 0.41834775 0.48232806 0.33934703 1.5217181 -1.5900201 0.18489316 0.97933793
1.4614526 -0.33667478 -1.0412751 -0.28815502 -0.016077993 2.3370588 1.3543257 -1.2513019
-1.2626504 0.2195727 -1.405545 1.4107988 0.738429 -1.7076064 -1.2073116 1.9403888
-1.0765625 -2.3004472 -0.57721096 5.171072 0.5156317 0.38949388 -1.1132716 0.030763395
-0.23765889 3.536048 0.20564751 -1.4491556 -0.3840764 0.08812903 0.2698273 0.7664655
-0.86995655 -2.1395998 -1.7643621 0.08796388 0.38925052 -0.31548053 -1.1002507 0.8596431
0.42208868 -1.2107983 -0.8145418 0.73238504 -1.2421542 -0.37322947 0.63694155 -0.26622194
-0.66241896 -0.1412284 0.33730856 0.31487122 -0.4239044 0.22006659 -0.028932448 -0.5209013
0.28265634 -1.3124046 0.025560055 0.20749515 1.7366942 2.2196653 0.88601375 -0.70557034
-1.5668461 -0.18991973 -0.06651102 -0.7980614 -0.73608917 -2.0800622 0.96598566 -0.8249352
0.57975435 -1.3620892 -3.2032275 -1.4992081 1.20621 -1.0145506 -0.0004527914 -0.053217
-0.5963049 0.68907565 0.3063832 1.0095706 -0.30355182 -0.18238682 0.77803975 -0.71670246
1.5927554 0.5465963 -0.5933577 0.4569344 -0.5364224 0.42251796 0.025787639 -0.6326693
0.60662174 -0.49260515 -0.33207887 0.03229744 -0.3445863 0.67460334 0.9294433 0.37993437
0.40668675 0.9179653 -0.9016072 0.11968052 0.5745945 -0.2471172 -1.2618982 1.183588
0.29245734 1.4528383 0.110310145 2.1686025 0.16485265 0.6168401 -0.8417076 -0.72941136
-0.12375804 0.5524128 -0.5877627 -0.3311223 0.27002233 -0.45436606 -0.43006858 0.89222187
-0.8334095 0.09690987 2.1696343 0.24843705 0.85432607 0.17118515 -0.20244415 0.19939862
00000000: df21 2a3f e53f 12c0 439c b4bf 796a 273f
00000010: 63c9 c4bf d5ee 623f 2ea1 f73f 1dfc a7bf
00000020: d095 05bf e9cc 04bf ee58 97bf dac3 17c0
00000030: 82cb 52bf 2808 d63f 243d 373f 0b02 a2bf
00000040: a660 b23e 9ae8 1c3f b838 c53e 9b20 eb3e
00000050: a307 0f3f db26 62be 9412 4e3f ba70 643f
00000060: 8ad1 8e3f 8f68 86bf d7d2 c6bd c7aa aa3f
00000070: 7e39 d9be e257 4ac0 2345 0cbf 7706 aebd
00000080: 51c6 133e 0d1f 8a3e 7d8d a33f b3d9 2fbe
00000090: f99e 80bd 47bf b03e f021 ebbf 5299 173f
000000a0: 5df1 2cbe e4d2 7e3e 502b e83e 1b52 e7be
000000b0: 7ff0 f6be 9438 1d40 feba c4bf 1d20 5e3f
000000c0: d9cd 4abf 7678 b5bf 5978 d53e cff4 b13f
000000d0: 6034 b93f add4 e03f cde6 8c3f 7b25 e43f
000000e0: e241 d9bf a350 5b3f 697e 91be 273a 613f
000000f0: 9bc5 19bf 79ff debf e540 3abf 3f62 ee3f
00000100: bf12 e63d 725d ee3f 7ec7 8d3f ae6c d73e
00000110: 10a0 aabf 1297 dbbf fe15 05c0 e8b9 a6bf
00000120: 8b05 45bf b984 0040 9d36 2240 b7c8 82bf
00000130: c0a5 463e 3bed 5bbd d776 e1bf 0bc1 2c3e
00000140: dd21 3cbf 4baa 083f 2d37 6e3f 0d3a 473f
00000150: 162c c73f 35d6 08bf ea54 463f c0e2 8f3e
00000160: b0bd cfbf 7801 f23d 543a 40c0 cbb7 69be
00000170: 759e bcbf 2af8 7e40 1c19 4240 e982 d5bf
00000180: b1f2 0940 eac0 c4be 4233 ca3e f910 dfbf
00000190: b3de 3f3e 6ee1 c3bf 432b aa3e 2f5f ff3f
000001a0: 603a 493f a5ab 873f 23a8 823f 2787 b1be
000001b0: feb4 19bf 050c 983f aaa6 b23e d364 4fbf
000001c0: 2548 89bf ad31 d63e b4f3 f63e e5be ad3e
000001d0: a9c7 c23f c785 cbbf a254 3d3e e4b5 7a3f
000001e0: e110 bb3f a360 acbe 8148 85bf 0e89 93be
000001f0: ffb5 83bc 5f92 1540 8b5a ad3f a92a a0bf
00000200: 879e a1bf aad7 603e e6e8 b3bf 0e95 b43f
00000210: af09 3d3f d992 dabf 3089 9abf a95e f83f
00000220: cdcc 89bf 873a 13c0 19c4 13bf 6c79 a540
00000230: 7000 043f be6b c73e af7f 8ebf 8403 fc3c
00000240: da5c 73be 9c4e 6240 4395 523e ee7d b9bf
00000250: a9a5 c4be fe7c b43d ce26 8a3e 1537 443f
00000260: 79b5 5ebf 34ef 08c0 9ed6 e1bf 6826 b43d
00000270: d84b c73e aa86 a1be 04d5 8cbf 9211 5c3f
00000280: 021c d83e 70fb 9abf d085 50bf 967d 3b3f
00000290: e9fe 9ebf ef17 bfbe 9a0e 233f 3e4e 88be
000002a0: 4a94 29bf 2d9e 10be b5b3 ac3e cd36 a13e
000002b0: ff09 d9be 2359 613e be03 edbc ca59 05bf
000002c0: 55b8 903e e0fc a7bf 5263 d13c 9c79 543e
000002d0: ff4b de3f ff0e 0e40 ccd1 623f 42a0 34bf
000002e0: 6a8e c8bf 517a 42be ee36 88bd c04d 4cbf
000002f0: 5770 3cbf bd1f 05c0 d64a 773f f42e 53bf
00000300: c86a 143f f058 aebf ae01 4dc0 0de6 bfbf
00000310: 1765 9a3f cbdc 81bf a264 edb9 12fa 59bd
00000320: 70a7 18bf 4367 303f 42de 9c3e 9c39 813f
00000330: 256b 9bbe 9cc3 3abe 9d2d 473f d079 37bf
00000340: 69df cb3f bced 0b3f 4ae6 17bf 4ef3 e93e
00000350: fa52 09bf 4654 d83e 9940 d33c 9ef6 21bf
00000360: 904b 1b3f be36 fcbe 3e06 aabe 524a 043d
00000370: 9e6d b0be ceb2 2c3f ffef 6d3f c286 c23e
00000380: 3f39 d03e c6ff 6a3f bbcf 66bf 0f1b f53d
00000390: a018 133f 4b0c 7dbe e185 a1bf d07f 973f
000003a0: f8bc 953e 9bf6 b93f 49ea e13d 62ca 0a40
000003b0: 22cf 283e 3ce9 1d3f 267a 57bf b4ba 3abf
000003c0: db74 fdbd ed6a 0d3f 9e77 16bf dd88 a9be
000003d0: 5e40 8a3e aba2 e8be f331 dcbe a768 643f
000003e0: 535a 55bf af78 c63d 4adb 0a40 4866 7e3e
000003f0: 1db5 5a3f 294b 2f3e 854d 4fbe 272f 4c3e

lstm.bias_ih_l0 f4 [40]
0.027175248 -1.0823474 -0.56110775 -0.9616866 -0.5415618 0.10607565 0.23008443 0.31536487
-0.35485166 0.35734165 1.2441533 1.1614794 1.1781976 1.5129992 0.56302106 0.44246727
1.3009012 0.82704335 1.0209147 -0.07558525 -0.09960022 -0.29064178 0.120173305 -0.06442045
0.18803892 0.11123208 0.17657794 0.08227159 -0.37000054 -0.12602812 0.9034425 0.6384761
0.5694639 0.52018124 0.23317786 0.8991954 0.1560377 1.2632927 0.92370105 0.10897714
00000000: a09e de3c 5c8a 8abf c2a4 0fbf 1831 76bf
00000010: cba3 0abf 313e d93d 419b 6b3e 8177 a13e
00000020: 1eaf b5be 7cf5 b63e 6a40 9f3f 5bab 943f
00000030: 2ecf 963f f5a9 c13f 2622 103f 128b e23e
00000040: ee83 a63f 1db9 533f 55ad 823f 71cc 9abd
00000050: 33fb cbbd 00cf 94be 6c1d f63d deee 83bd
00000060: 468d 403e a5cd e33d d9d0 343e 027e a83d
00000070: b670 bdbe 840d 01be 0248 673f 2b73 233f
00000080: 63c8 113f 992a 053f 2dc6 6e3e ab31 663f
00000090: 59c8 1f3e 93b3 a13f ac77 6c3f 682f df3d

lstm.bias_hh_l0 f4 [40]
-0.00034736205 -1.2855519 -0.74056864 -0.728584 -0.5619791 -0.07779069 0.58991975 0.34410292
-0.62415636 0.26927543 0.7879377 1.2999524 0.9725301 1.86803 0.87401 0.35390344
1.1314416 1.2105342 0.9229424 0.2439229 -0.26741636 -0.4964294 -0.46723053 0.05325968
-0.06532377 -0.045956183 0.516616 0.19301315 -0.07985824 -0.22420093 0.56565434 0.5238586
0.9084488 0.20791593 0.33452496 0.60724354 0.18349333 1.3604395 0.7652243 -0.055870228
00000000: 251e b6b9 f78c a4bf e895 3dbf 7b84 3abf
00000010: dddd 0fbf ba50 9fbd fb04 173f 422e b03e
00000020: b6c8 1fbf 78de 893e 49b6 493f d764 a63f
00000030: bcf7 783f 9b1b ef3f 1fbf 5f3f d532 b53e
00000040: 14d3 903f c9f2 9a3f f445 6c3f edc6 793e
00000050: ccea 88be ff2b febe d738 efbe d226 5a3d
00000060: 78c8 85bd 8d3c 3cbd f240 043f 3da5 453e
00000070: b88c a3bd ee94 65be b9ce 103f 991b 063f
00000080: 1a90 683f eae7 543e db46 ab3e 5074 1b3f
00000090: ade5 3b3e e222 ae3f bde5 433f 2ed8 64bd

fc1.weight f4 [32, 10]
0.34439388 0.21730466 0.94951046 -0.6491913 0.30132577 0.08044952 -0.71211445 -0.76482916
0.08142204 -0.5004139 -0.4787272 0.60278803 -0.8172547 -0.28153968 -0.260496 0.17788148
0.035182975 0.21545835 0.19902062 -0.18517329 -0.13972862 -0.13379747 -0.21357551 0.040847804
-0.087454 -0.16115017 0.09399229 0.20622328 0.5168642 0.23702966 -0.3183038 1.4755815
-0.6724032 0.26416594 -0.1227501 0.50009495 0.123593 -0.064589 -0.0263822 0.2686555
-0.28441322 -0.929576 0.7093153 -0.3655713 0.19983211 -0.029038105 0.30395794 -0.37782985
0.6232597 0.13120814 -1.2932619 -0.13417214 0.19780453 -0.019002514 0.014899444 -0.17744444
0.75503874 0.2863739 0.93539137 -0.0058336915 0.37158048 0.70495814 0.86824775 0.036873188
-0.048200913 -0.4581079 -0.34009466 -0.75537896 -0.3890679 -0.013232119 -0.07737536 -1.3994931
0.12941849 -0.27987966 0.09562204 -0.1757757 -0.29379112 -0.22893102 0.46896031 0.0033752332
0.29986128 0.40619373 0.51761115 -0.40184325 -0.4518289 -0.038633306 0.13375227 -0.63659066
-0.7675656 0.28538504 -0.6215854 0.1556336 0.47991323 0.4518677 0.60513514 0.16482629
0.7277339 0.043270826 0.31119955 -0.51052356 0.59977573 -0.3165133 0.12927365 -0.1423564
0.70584 0.6945261 -0.8342094 0.49975228 0.117207535 -0.49098146 -0.068131186 -0.1530719
-0.11984707 -0.06852846 0.08575662 0.14963253 -0.1492722 -0.7206649 0.38505274 -0.05554331
-0.03726222 -0.3626485 0.96220064 0.007331695 0.049365625 -0.18338951 0.086487405 -0.63522047
0.055617083 0.2466143 -0.123740844 -1.0324874 0.64005476 0.26520976 0.16637388 -0.64146405
-0.09455603 -0.25798768 0.27662358 -0.112518124 -0.19039589 -0.65092623 0.07101585 0.14456002
-0.23463309 -0.58480847 0.20649415 -0.28170013 0.1665151 0.17495942 0.017973226 0.5080057
-0.5703779 0.16883525 -0.9967114 -0.61023027 0.23091838 0.9941063 -0.18350184 0.85455537
0.077542655 -0.43681377 0.24213986 0.7762671 0.6786528 -0.09893135 0.3001951 -0.4134463
0.17024082 -0.40987483 0.27153397 -0.19034499 -0.13860442 0.09943271 0.09686796 0.06424171
-0.24678129 -0.43521023 0.037872616 -0.05539239 -0.31034672 1.2597827 -1.1408037 0.41116726
0.10456386 -0.40832835 -0.17854932 0.113861054 -0.48180485 -0.029240169 0.88305277 -0.21668921
0.36232296 -0.17210221 0.32461295 0.31794965 0.19614378 0.07987246 -1.0528692 -0.376056
-0.14486977 -0.8556576 0.07164215 0.098252095 0.4574739 0.01860538 -0.14511092 0.18946874
1.1684986 0.094416946 0.5318168 -0.59375674 1.1394242 -0.0861192 0.11999635 0.83945453
-0.15295199 -0.20648931 0.82334495 0.18384539 -0.23748183 0.51064944 -0.38862914 -0.54563254
-0.22544229 0.19037873 -0.46989977 0.6265593 0.79428065 0.2987145 -0.3029331 0.16240449
1.1559318 -0.50595164 -0.077380836 -0.054415837 -0.030432308 0.2321829 0.8955595 0.38368
0.15688808 -1.0681212 -0.9560207 0.2961672 -0.26679975 -0.14995572 -0.26401475 0.0041979495
0.8190222 0.4733049 -0.18604228 -0.30628264 -0.6780473 0.26383302 0.12726243 -0.25867978
00000000: 6554 b03e 1d85 5e3e 1e13 733f 6731 26bf
00000010: 5f47 9a3e b8c2 a43d 224d 36bf d8cb 43bf
00000020: 99c0 a63d 201b 00bf bb1b f5be 5150 1a3f
00000030: 9b37 51bf f825 90be bb5f 85be 9026 363e
00000040: 061c 103d 1da1 5c3e 10cc 4b3e 119e 3dbe
00000050: 0515 0fbe 3402 09be 8ab3 5abe 0750 273d
00000060: 151b b3bd 8d04 25be 087f c03d 322c 533e
00000070: 3651 043f e7b7 723e b7f8 a2be dbdf bc3f
00000080: 9e22 2cbf c240 873e 6864 fbbd 3906 003f
00000090: 541e fd3d 3d47 84bd 7c1f d8bc 378d 893e
000000a0: 9c9e 91be b1f8 6dbf b095 353f 292c bbbe
000000b0: caa0 4c3e 52e1 edbc 60a0 9b3e ea72 c1be
000000c0: f38d 1f3f 6d5b 063e 9b89 a5bf 6c64 09be
000000d0: 458d 4a3e 29ab 9bbc cc1c 743c ffb3 35be
000000e0: 384a 413f 9a9f 923e cf75 6f3f 8d28 bfbb
000000f0: cc3f be3e 2378 343f 7c45 5e3f 5708 173d
00000100: 526e 45bd 1e8d eabe e320 aebe 8460 41bf
00000110: e833 c7be 88cb 58bc f976 9ebd 9722 b3bf
00000120: 4886 043e 634c 8fbe 7dd5 c33d 8cfe 33be
00000130: ca6b 96be e56c 6abe 911b f03e 0433 5d3b
00000140: 6b87 993e a0f8 cf3e 2a82 043f 66be cdbe
00000150: 1e56 e7be f53d 1ebd 5bf6 083e 9bf7 22bf
00000160: 2e7f 44bf fd1d 923e 3920 1fbf 6a5e 1f3e
00000170: 30b7 f53e 345b e73e 23ea 1a3f 39c8 283e
00000180: c54c 3a3f c03c 313d 8c55 9f3e acb1 02bf
00000190: e78a 193f 080e a2be 5060 043e e0c5 11be
000001a0: eeb1 343f 76cc 313f bf8e 55bf 88df ff3e
000001b0: 810a f03d ec61 fbbe 5d88 8bbd e1be 1cbe
000001c0: 6172 f5bd a658 8cbd 2ba1 af3d 4539 193e
000001d0: d0da 18be 7f7d 38bf a225 c53e 6281 63bd
000001e0: 45a0 18bd 10ad b9be c852 763f b73e f03b
000001f0: 9c33 4a3d 76ca 3bbe 4f20 b13d cf9d 22bf
00000200: bdce 633d 7688 7c3e d76b fdbd 8c28 84bf
00000210: a1da 233f 93c9 873e ea5d 2a3e fd36 24bf
00000220: 98a6 c1bd f616 84be 9ba1 8d3e e76f e6bd
00000230: 24f7 42be 1aa3 26bf c270 913d 8b07 143e
00000240: a843 70be 02b6 15bf 3473 533e 003b 90be
00000250: ef82 2a3e 9028 333e 963c 933c a90c 023f
00000260: 4904 12bf 26e3 2c3e 7a28 7fbf 0d38 1cbf
00000270: de75 6c3e c07d 7e3f e8e7 3bbe 24c4 5a3f
00000280: afce 9e3d 0ea6 dfbe 83f3 773e 71b9 463f
00000290: 31bc 2d3f 859c cabd 2cb3 993e 3caf d3be
000002a0: 9c53 2e3e 1ddb d1be 8006 8b3e cce9 42be
000002b0: 51ee 0dbe 60a3 cb3d b662 c63d 2891 833d
000002c0: 3cb4 7cbe e0d3 debe 5120 1b3d 21e3 62bd
000002d0: c4e5 9ebe 8f40 a13f db05 92bf 8484 d23e
000002e0: 9425 d63d 6a10 d1be a2d5 36be fc2f e93d
000002f0: 20af f6be 1489 efbc bf0f 623f c7e3 5dbe
00000300: 6582 b93e 903b 30be ab33 a63e 4cca a23e
00000310: ead9 483e 2c94 a33d 6bc4 86bf 698a c0be
00000320: be58 14be 600c 5bbf 1fb9 923d 6538 c93d
00000330: 053a ea3e 4f6a 983c f597 14be 1804 423e
00000340: 5d91 953f ac5d c13d 2525 083f 7100 18bf
00000350: a7d8 913f 435f b0bd a5c0 f53d 7ee6 563f
00000360: 729f 1cbe ef71 53be bcc6 523f f741 3c3e
00000370: 702e 73be ecb9 023f 66fa c6be 93ae 0bbf
00000380: 58da 66be a4f2 423e b496 f0be 3166 203f
00000390: fa55 4b3f 1bf1 983e 0c1a 9bbe 5d4d 263e
000003a0: 93f5 933f 0c86 01bf d879 9ebd 24e3 5ebd
000003b0: 2d4d f9bc 5bc1 6d3e 6343 653f b471 c43e
000003c0: 45a7 203e 32b8 88bf c6bd 74bf 3aa3 973e
000003d0: fa99 88be fe8d 19be f12c 87be f48e 893b
000003e0: 70ab 513f 0555 f23e de81 3ebe 14d1 9cbe
000003f0: 8294 2dbf 1f15 873e 1551 023e ad71 84be

fc1.bias f4 [32]
-0.3274032 -0.47005168 -0.094288975 -0.49572176 -0.12794285 0.28420085 -0.21115103 -0.025429983
-0.5012043 0.60736436 0.5321232 -0.82318914 -0.007717654 0.52168834 -0.08757873 0.18463343
0.2862591 -0.43217567 -0.47824177 0.38192183 0.086820185 0.3422378 -0.3198668 0.32287362
-0.5641436 -0.11916568 0.16235289 0.2787987 0.16808891 -0.56695175 0.063089035 0.6207819
00000000: 64a1 a7be 9daa f0be 941a c1bd 3ecf fdbe
00000010: 7303 03be c682 913e fa37 58be 8a52 d0bc
00000020: ed4e 00bf 3b7c 1b3f 3a39 083f 86bc 52bf
00000030: 60e4 fcbb 5e8d 053f 7a5c b3bd 8c10 3d3e
00000040: 8e90 923e 2146 ddbe 1bdc f4be 428b c33e
00000050: c8ce b13d cb39 af3e 95c5 a3be b14f a53e
00000060: b76b 10bf 230d f4bd d63f 263e b4be 8e3e
00000070: 801f 2c3e c023 11bf d334 813d 90eb 1e3f

fc2.weight f4 [9, 32]
-0.65141577 -0.11266803 0.03072348 -0.0977353 -0.10839892 -0.13079008 -0.7427844 0.14214593
-0.26354548 -0.07035138 0.30206504 -0.2704622 -0.24022253 0.0037845077 0.034388166 0.30403966
-0.07078872 0.043864522 -0.15669373 0.4862302 -0.0014347347 -0.0324533 -0.19258896 -0.44813392
0.2540133 -0.22412863 -0.055421133 0.1107745 -0.46760786 0.5984862 0.036678687 -0.08625203
-0.26791656 -0.08493608 0.047322847 -0.81110567 0.5041785 0.22077264 -0.35256556 0.6386143
0.056354158 -0.16029179 -0.40104303 0.02805109 0.107955076 0.4459255 0.33735865 -0.27967966
-0.019886011 0.045936882 -0.14112933 0.20166466 0.22468284 -0.61090183 -0.317822 -0.38897324
0.27041307 -0.16599855 -0.039512213 0.15748669 -0.14883447 -0.30144548 0.042155623 -0.30845058
-0.18618594 -0.014369067 0.03548063 0.594216 -0.17554004 0.27186546 0.46222094 -0.4588333
0.13885641 0.48370713 -0.6218386 0.08507983 0.09756829 -0.052782625 -0.004258615 0.15185525
0.16879131 0.047034614 0.50284165 -0.21974137 -0.27275348 -0.28029636 -0.22485532 0.030095609
-0.77491087 -0.36510313 -0.056668967 0.039096512 -0.1321166 -1.0344192 0.031851493 -0.35780632
0.11402301 -0.4667208 0.045375533 -0.3443587 -0.029299721 -0.52380615 0.27570108 -0.02314445
0.0639071 0.0278577 0.5068826 -0.045744527 0.21454766 0.21830046 0.015753023 -0.044096787
0.2005817 0.038971145 -0.33697084 0.5970092 0.068001755 0.4375098 -0.34874892 0.047287066
-0.2588996 -0.2843365 -0.039745163 -0.1396887 0.14833373 -0.04117667 0.04816501 0.5364149
-0.16261242 0.0042565246 0.053400785 0.028831124 0.10491202 0.2833755 -0.26945344 0.14815013
-0.31708944 -0.058955252 0.041659623 0.012688086 -0.04663994 0.091059774 0.060819104 0.38500664
-0.040231954 0.03071193 -0.13827129 -0.54516584 0.44326955 0.22018774 0.24525799 0.31128398
0.58518165 0.93159425 -0.055119496 -0.122888274 0.36960012 0.69302636 0.039599635 0.22026148
0.0073390887 -0.2455944 0.06014651 -0.13459662 0.16563165 0.06800088 -0.010650194 0.15887885
-0.13148685 0.106434956 0.080716014 0.04328583 0.19943789 0.3217276 0.09844923 -0.2673457
0.20075923 0.055185013 -0.16262132 -0.21200494 0.34140286 0.27083862 -0.15476306 0.13686737
0.21784724 0.39249587 -0.038305894 -0.20059848 0.35769016 0.11055534 0.053959034 0.3173704
0.13551089 -0.092189476 0.04042052 -0.10587182 0.07192649 0.190085 0.09268426 -0.103973396
-0.014026303 0.22412243 0.15452828 -0.082222484 0.056939956 0.05077914 -0.008227466 0.03658741
-0.01969716 0.044945557 -0.2171545 0.16632716 0.078979164 0.1336339 0.036787093 0.34932506
-0.5784653 0.071950175 -0.041039955 0.039213397 0.12332275 -0.42165738 0.040962428 0.35656258
0.9606183 -0.0704956 0.03707687 0.19479899 0.2017722 -0.41650742 0.73928165 0.020318817
0.59436095 -0.2575933 -0.24284492 0.25087422 0.29239038 -0.09655739 0.051606003 -0.86864865
-0.04107672 0.07409232 -0.10003472 0.09640424 -0.1829384 0.18916337 -0.12058559 0.2716184
-0.33821887 -0.57068115 -0.057243593 -0.03901088 0.14477117 -0.21090159 0.03913781 0.063774616
00000000: 2fc3 26bf 7fbe e6bd cfaf fb3c 7229 c8bd
00000010: 4100 debd d6ed 05be 1e27 3ebf b48e 113e
00000020: 6fef 86be 6214 90bd 45a8 9a3e 057a 8abe
00000030: e5fc 75be 8105 783b 9bda 0c3d 16ab 9b3e
00000040: adf9 90bd 49ab 333d 5274 20be 2af3 f83e
00000050: b50d bcba c0ed 04bd 0a36 45be cf71 e5be
00000060: 080e 823e fa81 65be 4501 63bd bedd e23d
00000070: 4c6a efbe 6436 193f 643c 163d e8a4 b0bd
00000080: 5c2c 89be f8f2 adbd 9ad5 413d 9fa4 4fbf
00000090: d811 013f 3912 623e 7983 b4be 3a7c 233f
000000a0: 9ed3 663d 8823 24be 8355 cdbe 66cb e53c
000000b0: 8d17 dd3d 5950 e43e 46ba ac3e 2c32 8fbe
000000c0: fde7 a2bc 5028 3c3d 3584 10be 2e81 4e3e
000000d0: 4213 663e 1064 1cbf 91b9 a2be 8027 c7be
000000e0: 9573 8a3e 86fb 29be 8fd7 21bd 3144 213e
000000f0: 1068 18be 1057 9abe 60ab 2c3d 3ced 9dbe
00000100: 87a7 3ebe 3c6c 6bbc 2354 113d 8a1e 183f
00000110: c5c0 33be f331 8b3e 39a8 ec3e 33ec eabe
00000120: 6030 0e3e 76a8 f73e d130 1fbf 553e ae3d
00000130: e2d1 c73d 9832 58bd da8b 8bbb f17f 1b3e
00000140: a1d7 2c3e 5ea7 403d 3bba 003f e203 61be
00000150: 58a6 8bbe 0183 8fbe 7940 66be 118b f63c
00000160: 8f60 46bf ccee babe b81d 68bd aa23 203d
00000170: 9349 07be d967 84bf b676 023d 6432 b7be
00000180: e584 e93d 07f6 eebe b2db 393d c94f b0be
00000190: f805 f0bc 2918 06bf b128 8d3e 6e99 bdbc
000001a0: bae1 823d d535 e43c 0fc3 013f 9d5e 3bbd
000001b0: 62b2 5b3e 288a 5f3e 7c0c 813c d59e 34bd
000001c0: 4a65 4d3e 35a0 1f3d 7187 acbe 98d5 183f
000001d0: 8144 8b3d 4901 e03e 388f b2be 15b0 413d
000001e0: 7d8e 84be 8e94 91be d3cb 22bd 8e0a 0fbe
000001f0: cce4 173e dea8 28bd ac48 453d 7d52 093f
00000200: df83 26be 517a 8b3b c8ba 5a3d 402f ec3c
00000210: 1ddc d63d 9816 913e cdf5 89be abb4 173e
00000220: 8c59 a2be 107b 71bd 48a3 2a3d b1e1 4f3c
00000230: 8609 3fbd 8c7d ba3d 741d 793d 971f c53e
00000240: 43ca 24bd 9697 fb3c fd96 0dbe fd8f 0bbf
00000250: 3af4 e23e e578 613e e924 7b3e 9d60 9f3e
00000260: 77ce 153f f67c 6e3f fbc4 61bd d9ac fbbd
00000270: 3a3c bd3e 2d6a 313f 3a33 223d 3a8c 613e
00000280: bd7c f03b 197d 7bbe 305c 763d b2d3 09be
00000290: 589b 293e 0c44 8b3d 277e 2ebc 23b1 223e
000002a0: 7da4 06be 92fa d93d 704e a53d 7c4c 313d
000002b0: 7239 4c3e 7bb9 a43e c09f c93d 89e1 88be
000002c0: d493 4d3e ae09 623d 3486 26be d317 59be
000002d0: 5bcc ae3e 5cab 8a3e 357a 1ebe f626 0c3e
000002e0: 5913 5f3e 38f5 c83e a4e6 1cbd b069 4dbe
000002f0: 2a23 b73e d76a e23d 2604 5d3d 607e a23e
00000300: 5ec3 0a3e d6cd bcbd fd8f 253d 53d3 d8bd
00000310: 324e 933d a4a5 423e 3fd1 bd3d 01f0 d4bd
00000320: 94ce 65bc 5a80 653e a93c 1e3e 4364 a8bd
00000330: df39 693d cafd 4f3d 7ecc 06bc aedc 153d
00000340: f05b a1bc d518 383d c05d 5ebe ab51 2a3e
00000350: d4bf a13d 53d7 083e 10ae 163d bcda b23e
00000360: 4d16 14bf 9d5a 933d 8319 28bd 3a9e 203d
00000370: a390 fc3d 7ae3 d7be 38c8 273d 5f8f b63e
00000380: 15eb 753f ff5f 90bd ebdd 173d 6379 473e
00000390: 5f9d 4e3e 7640 d5be 9041 3d3f a673 a63c
000003a0: 0a28 183f 45e3 83be 57ac 78be 9672 803e
000003b0: 31b4 953e e2bf c5bd d160 533d c25f 5ebf
000003c0: 1040 28bd b7bd 973d 01df ccbd 966f c53d
000003d0: 3454 3bbe 0bb4 413e 94f5 f6bd 9111 8b3e
000003e0: 062b adbe 2918 12bf 4278 6abd dfc9 1fbd
000003f0: e53e 143e 96f6 57be f84e 203d 449c 823d

fc2.bias f4 [9]
0.28343835 -0.26532844 0.2824923 -0.16163318 0.038415506 0.018490558 0.42123008 -0.03186372
-0.9015683
00000000: d51e 913e 21d9 87be d5a2 903e 2b83 25be
00000010: 9459 1d3d 8379 973c 78ab d73e 8883 02bd
00000020: 2ecd 66bf
