models/lstm3.pth (torch, 163491 bytes, 6 tensors)

lstm.weight_ih_l0 f4 [392, 1]
00000000: 32c3 9f3c f72d 223b f3b4 003c 6107 bdbf
00000010: c33b 4c3f 601a 353f 7347 b7bf 47f5 373f
00000020: ef0a ab3e 4e1b a6bd c0e9 d93e 0504 9dbe
00000030: d303 1cbf 5187 593d 3c66 9c3f cf88 3ebd
00000040: 31a4 0bbe 5fd6 523f ffe7 1f3f e4ea 5ebe
00000050: d157 863f f8a2 80be 4ffc 193f b73d 3fbd
00000060: 5048 37be 935f 6e3f e971 3b3e b2f1 7b3f
00000070: 3363 263f cccd c2be a066 0e3e 78e0 74bf
00000080: 1d8f 6bbe 0e5b 593d 0370 7c3f f2ec 373f
00000090: e820 b6ba 3bf3 41bc 0abf 2d3f e946 3d3f
000000a0: 0aea a5be 16c2 893e 4dfe 363f f516 303f
000000b0: 4b7b 1d3d 81a2 cd3e 8edd 1b3e 014f 1b3f
000000c0: 2fea b43e 1139 ba3c f33f 1a3e becd b33e
000000d0: f10c 373d a914 043f 9c60 7a3f dd20 483f
000000e0: bd1c b03f a7a2 ae3c 7541 16c0 7679 263f
000000f0: 52f3 86be 21fa 233e 7902 6bbf fae6 563f
00000100: 366e 17bd aee9 a43e e656 92be 5d86 42bf
00000110: daf8 a1be 0517 6c3f aa66 1cbc 2052 923e
00000120: e200 0c3f eb2d 53be f148 6ebc 06ce 43be
00000130: d19d 873f 85c5 423f cfc2 edbe 986d 7cbc
00000140: 1d05 f03e 83f4 a03e 2b16 26be a28a 383f
00000150: 7c37 dd3e 8833 883f 55bb 913e 1a30 0cc0
00000160: e62a 4dbd 1ba9 563d 9bf9 54be 7358 d53d
00000170: fbc9 b63f 65ec bc3e 3781 9abe 428a d8be
00000180: 0be8 c23e 58c5 b33f 3515 c63d b8b9 193c
00000190: c6da 0e3e 60cf 20bf 85c4 8a3d bfa2 f33d
000001a0: 6f20 44be cebb 873c 5694 0c3e 79d9 04be
000001b0: fcc7 05bd 1c74 7e3e 6c55 d63c e088 e93c
000001c0: 1c32 e63d b730 45be eb20 a5be 6955 70be
000001d0: 2bd5 8ebe ae86 8ebe c04c 013f 6184 5ebe
000001e0: f135 533f 142b 0a3d e208 a5be c0d8 723e
000001f0: 09be 843d 00dd 3c3f 732f 28be 7300 cc3d
00000200: b7a3 753e 5f43 bbbe 01f3 96bd d15d a63e
00000210: c5dc 9fbe 2857 57bf a4bc 32bd 7e37 323f
00000220: 5a08 2fbe ef15 063f 8feb c6be 55a3 1cbd
00000230: 878e b83e 60b4 69be b8f6 c3bd ac8d 503f
00000240: 7172 cfbe 557f f83e 314a 17bd 13a7 7abd
00000250: 167a 1ebf 3175 a03e 3acc 72bc fc07 893e
00000260: 3642 933f 3a5c b4bd 699f 1abe 8c1b 96bd
00000270: 8c53 c53e 2e59 a73e 1ca2 143f 5162 15bf
00000280: 6e1b 7bbe 9018 ebbd bce7 15bd b5f5 213d
00000290: 22b4 b73e 36e3 843d eb31 853e ebbb 063e
000002a0: a3f0 d83d c513 44bd ceab 6140 a76f 333f
000002b0: 478b 67be e454 38bf ad0d 8d3e f59e e53d
000002c0: 5e7b ccbd f4dc a3be 6e81 2dbe 1f7d d3bd
000002d0: 69aa ab3e 23ae 033e 1571 073f b30e d3be
000002e0: c2f1 fcbd adf2 2dbf bd81 afbd 6602 c5be
000002f0: 944b 0bbe f81c bdbd 7940 cf3e e46d 623e
00000300: 563f 1c3e 7f49 623e 0144 cdbc af58 753e
00000310: 7fb3 19bd 02af 7e3e 2055 86be d06a babd
00000320: 458c 92be a47b 40bf abd5 d43f e4c6 a1bd
00000330: bb97 6fbe 52f6 52be 8424 6bbe c38a b93d
00000340: dab7 8dbe 4d8b 74bd 1c85 883e 739b 58be
00000350: 18b4 ae3e 49d9 f03e 90bc 343f e4d5 ccbb
00000360: 9466 3c3f ad86 0b3e 9d55 24bd ae11 00be
00000370: cde6 853e 1171 b7be 93d6 81be 6852 013e
00000380: f2ab 0c3f 1b0d a53e 7864 373d 486a 12be
00000390: 4777 0d3f 1947 fc3e 08ef ac3f 4eeb 3cbf
000003a0: 21b5 b5bd 0e14 583e af56 34be 13f1 91be
000003b0: 4aec 14bf 5fc6 35bf e892 913f e79e 03bf
000003c0: 4608 813e e70d 81be ef48 9c3f 03a4 16bf
000003d0: aa41 103e 0741 a0be 4a99 253e 378a 923e
000003e0: a13c c23c d64d f03c 68d5 ad3e 56c2 5fbe
000003f0: d11a 50bf f8f7 afbe 8694 b5bf 6aaf 913d
0.019502256 0.0024746635 0.007855642 -1.4767877 0.7977869 0.7074337 -1.431868 0.7185864
0.3340678 -0.08110677 0.4256115 -0.3066713 -0.60943335 0.053107563 1.22187 -0.04651719
-0.13636853 0.82358354 0.6246337 -0.21769291 1.049555 -0.25124335 0.6015062 -0.046689715
-0.17898679 0.93114585 0.18305172 0.9841567 0.64995116 -0.38047636 0.13906336 -0.9565501
-0.23003812 0.053065352 0.98608416 0.71845925 -0.0013895305 -0.011837776 0.6786963 0.73936325
-0.3240512 0.26905888 0.7148178 0.6878503 0.03844766 0.40163043 0.15221235 0.60667425
0.35334918 0.02273229 0.15063457 0.35117906 0.044690076 0.51594025 0.97803664 0.78175145
1.375877 0.021317793 -2.3477452 0.65029085 -0.26357514 0.16013385 -0.9180065 0.8394619
-0.03697034 0.32209533 -0.28581923 -0.7598627 -0.3163517 0.92222625 -0.009545961 0.2857828
0.5468885 -0.20622985 -0.014543758 -0.1912156 1.0595037 0.7608264 -0.4643769 -0.015406989
0.468789 0.31436548 -0.16219394 0.72086537 0.43206394 1.0640726 0.28463235 -2.190436
-0.05008974 0.052407365 -0.20798342 0.10417261 1.428039 0.36899105 -0.30176708 -0.42292982
0.3806766 1.40446 0.09672014 0.009382658 0.13950643 -0.6281643 0.067757644 0.11896276
-0.19152997 0.016569044 0.1372846 -0.12973584 -0.032661423 0.2484898 0.02616378 0.02850765
0.11240026 -0.19256864 -0.32251677 -0.23470081 -0.2789701 -0.27837127 0.50507736 -0.21730186
0.82504183 0.03373249 -0.3223334 0.23715496 0.06481559 0.7377472 -0.1642435 0.09961023
0.23988234 -0.36574838 -0.07370568 0.3249345 -0.3122312 -0.84117365 -0.043636933 0.69615924
-0.1709303 0.5237722 -0.38851592 -0.038241703 0.3604624 -0.22822714 -0.09568542 0.81466174
-0.40517 0.48534647 -0.03693599 -0.06119449 -0.6190504 0.3133941 -0.014819199 0.26763904
1.1504581 -0.08806653 -0.15099873 -0.07329473 0.38540304 0.32685226 0.5805986 -0.58353144
-0.24522182 -0.11479294 -0.036597952 0.039540965 0.35879618 0.064886495 0.26014647 0.13157623
0.10592773 -0.047870416 3.5261111 0.7009224 -0.22611724 -0.7200453 0.27549496 0.11211959
-0.09984468 -0.3200451 -0.16943905 -0.10326599 0.3352845 0.12859397 0.52906924 -0.41222152
-0.12350799 -0.6794842 -0.085696675 -0.38478392 -0.1360305 -0.09234041 0.40478876 0.22112232
0.15258536 0.22098349 -0.02505684 0.23959611 -0.037524696 0.24871448 -0.2623682 -0.09102404
-0.28622642 -0.7518866 1.6627706 -0.078992635 -0.23397724 -0.20601776 -0.22963148 0.0905967
-0.2767933 -0.05970316 0.26664054 -0.21153049 0.34121776 0.47040775 0.70600224 -0.0062510837
0.7359402 0.13625593 -0.04012071 -0.12506744 0.2615265 -0.3582845 -0.2535902 0.12629092
0.5494987 0.3223656 0.04477355 -0.14298356 0.5526013 0.49272993 1.3510447 -0.73796546
-0.08872438 0.211014 -0.17611192 -0.28504238 -0.5817305 -0.71005815 1.1372957 -0.5141434
0.25201625 -0.2520592 1.2209758 -0.5884401 0.14087549 -0.31299612 0.16171756 0.28621075
0.02371055 0.02933399 0.3395188 -0.21851477 -0.8129092 -0.34368873 -1.4185951 0.07113536

lstm.weight_hh_l0 f4 [392, 98]
00000000: 57ab 133d 3206 973d 4f2d e93d 259f 983e
00000010: a745 06be 0bf8 8f3e 011b 4fbf ef42 693d
00000020: 6940 233e 1021 a4bd 48de b83d bf09 703e
00000030: 3699 47bd cd0d be3e 0f3f 0ebe e193 103e
00000040: a793 613e df06 b4be c8c6 8cbe d2c7 9a3e
00000050: 710e 9b3e e2f5 943e 020e d53c 8079 08bb
00000060: 1878 b4bd 877a 3fbe 736f 6a3e 555e 5bbd
00000070: 1555 cf3c d982 863e ba7e 22be c78b 21bf
00000080: fba5 cd3d ed28 a43c 7b5c 70bd 0c44 0f3e
00000090: 2658 38bd 506b 483e aa27 a13e e77e 27be
000000a0: 1c5f 55be 8d6f 0ebe 8bbe 5c3b 6f99 113e
000000b0: be15 f63d 1a4e d6bd e67c 6abe 14c0 3ebf
000000c0: 8082 5bbc 2232 193e e25c 0fbe 78eb 0fbc
000000d0: abfb 903e be15 b9be a640 1bbe 26ad cfbd
000000e0: b27a e9bc e094 873d 8eac 813f d51a 9a3e
000000f0: 1acb 1f3e 5feb c3bd 37b1 c3be 5954 86be
00000100: d031 d0be ae86 04bf ef4f 98be 417d 16be
00000110: 8cd2 3f3e 8f6e 09bf c257 4b3e 493a 71bd
00000120: 344f f63e 8e71 283e 7642 f93e e3e9 22bf
00000130: 0361 81be 9025 5fbe efc8 833d 5a84 b43d
00000140: 062c 5f3d 336c 353e c99c c5bd ce02 603e
00000150: cf2f 50be ed39 e4be d3b6 2cbe 0982 e83d
00000160: 7eb4 9abe 2e7f 15be 06fd c73e 752b a73d
00000170: 4932 383d 8fd7 963e 3df6 4f3e 993b 8abd
00000180: 44a8 de3d 1fba 43bf 7121 a83e 2e66 7b3e
00000190: 5a4c 4d3e 5704 b5be 9346 953e 4133 94be
000001a0: 957e b1bd ffa1 56be 01ec 1abd b9fb de3e
000001b0: 6cfe cf3e 6799 babe 7655 343e f79b 48be
000001c0: 0b9b 98bd f730 c9bd 8981 3c3e 9a49 a13e
000001d0: 0ad5 313e 3d6a 3e3d 6822 19be 0094 d7bd
000001e0: 4e04 c03e b81c 82bd 9331 debd a4cb a93e
000001f0: bfa7 d0be ca0d 42be ab0c 923e 7b32 f8bd
00000200: 73b0 9a3e 48b2 a63e de2c a6bd 2fd1 853e
00000210: 43c6 803e 5e30 91be 62c8 003d 535a 143e
00000220: 1312 ed3d 997d 26ba 0b5d e33e fb11 0a3e
00000230: c917 97bc 37b4 d5bd da1a 4ebe fad8 76be
00000240: bad5 eb3e d422 023e 3457 2abe 19d6 bbbe
00000250: e1a8 343e 2ac6 43be 6c51 a7bd 2147 c43e
00000260: 6d02 2abe ca03 7d3e e138 70bf 4b1f b23d
00000270: ad8d d83e aeae a5bd dee3 0e3d 26ac 423e
00000280: 23a1 04bd 8a22 773e 840b f03e f9ce 9e3e
00000290: 8bba c6bd 75c8 24be 0ffd 313f 14f2 763e
000002a0: c567 ef3d 3186 853d d623 ffbd 34e5 06be
000002b0: 922e 95be d9ad 663e 330f 5e3d 3faf 67bd
000002c0: eba9 a73c ad9b 0e3f cc6c 373e 56f7 323e
000002d0: bb85 473e 0838 37bf 5185 623c 51d8 033e
000002e0: 2950 cdbe 53fe a9bd 8a08 923e e1c8 2a3e
000002f0: 7e68 d43d dc88 6dbc 32ea 593e 1606 31be
00000300: 1cc7 62be 0f32 4c3e 4478 c4bd f881 6fbf
00000310: 9eaa 58be d322 1dbd 686a 503e bb41 f03c
00000320: abb8 2bbd 637f 8bbe 63ea fbbd 0a91 cdbd
00000330: 5bf3 26be 550e 2c3c 37ca 42be 1c92 90be
00000340: c2f5 0fbd c031 6fbc 1845 0a3e 3f19 e63e
00000350: 3b11 f03c a205 cebe 3519 443d 84a3 b7be
00000360: 446b 9c3e 8007 fb3e 7a79 d5bd 14be 1c3e
00000370: f3de d93e 0dbf 4d3e 956a 50be 8f83 ebbd
00000380: 7a31 00bf 2f6d 12bf ca0f ab3d 7ef6 f5bd
00000390: ae48 6c3e 8be8 99be b95f 04be d95e c2be
000003a0: 325d 3bbc 0e7c eebd 2a6d 15be 684c 7bbe
000003b0: f21f 79bd b316 683e f437 8abd f869 963d
000003c0: 2426 d53d 3b56 1dbe 94f0 29be a780 44be
000003d0: 4004 753c 0f86 ec3d 45b7 1bbd 0208 463d
000003e0: 5afe bb3d 9325 873e 9139 27be 2f43 a0bd
000003f0: 8d99 9d3d 5532 08bf 8d76 713e 3400 76be
0.036052074 0.073742285 0.11385595 0.29808918 -0.13112508 0.2811893 -0.8090058 0.0569486
0.1594254 -0.08014119 0.09026772 0.23441218 -0.048730098 0.37119904 -0.13891242 0.14118911
0.22028981 -0.35161492 -0.27495408 0.30230576 0.30284455 0.29093844 0.026007656 -0.0020824373
-0.088119686 -0.18699084 0.22894077 -0.05355676 0.025309125 0.26271704 -0.15868655 -0.6310391
0.10041424 0.020039046 -0.058681946 0.13990802 -0.04500594 0.19572186 0.31475574 -0.16357003
-0.20837063 -0.13909741 0.0033682908 0.14218687 0.12015866 -0.104641154 -0.22899207 -0.7451184
-0.013397813 0.1496053 -0.14000276 -0.0087841675 0.28317007 -0.361494 -0.1516138 -0.10140447
-0.028500888 0.066201925 1.0130785 0.30098596 0.15604821 -0.09566378 -0.38221142 -0.26236227
-0.40663004 -0.51768005 -0.29748484 -0.14696218 0.18732661 -0.53684324 0.19857696 -0.058893476
0.48107302 0.16449568 0.48683518 -0.6363813 -0.25269327 -0.21791673 0.064348094 0.088143066
0.054485343 0.17717056 -0.09649045 0.2187607 -0.20330738 -0.44575444 -0.16866617 0.11352927
-0.3021583 -0.14599296 0.3906023 0.08162586 0.04496983 0.29461333 0.20308776 -0.067496486
0.10871938 -0.76455873 0.32838014 0.24550697 0.20048657 -0.35354874 0.29155406 -0.28945354
-0.08666722 -0.20960234 -0.037822727 0.43551424 0.40623796 -0.36445162 0.17610726 -0.19590746
-0.07451447 -0.098237924 0.18408789 0.31501466 0.17366424 0.046488035 -0.14954531 -0.10526276
0.37503284 -0.06353134 -0.10849299 0.33163178 -0.4075298 -0.18950573 0.2852529 -0.121190034
0.30212745 0.32557893 -0.081140265 0.26136157 0.25151262 -0.28357214 0.0314411 0.14487581
0.11575713 -0.0006351113 0.44406924 0.13483422 -0.018443959 -0.10434764 -0.2012743 -0.24106207
0.46061498 0.12708598 -0.16634828 -0.3668678 0.17642547 -0.19118562 -0.08169827 0.38335517
-0.16602488 0.24708477 -0.9383679 0.08697375 0.4229559 -0.08089958 0.03488528 0.19010982
-0.032380234 0.2413427 0.46883786 0.31017283 -0.09703549 -0.16092093 0.6952676 0.24115783
0.11689714 0.065197356 -0.12458007 -0.13173372 -0.29137093 0.22527255 0.054213714 -0.056563612
0.020466765 0.5570629 0.17912596 0.17477164 0.19484608 -0.7156987 0.01382573 0.12875487
-0.4010022 -0.083004616 0.2852214 0.16678192 0.10371493 -0.014497962 0.21280745 -0.17287478
-0.22146267 0.19940971 -0.09593251 -0.9355769 -0.21158835 -0.03836329 0.20353091 0.029328218
-0.04192416 -0.27245626 -0.12300565 -0.1003743 -0.1630377 0.010501464 -0.19022451 -0.28236473
-0.035146482 -0.014599264 0.1350292 0.44941136 0.029305091 -0.40238672 0.0478756 -0.3586694
0.30550587 0.4902916 -0.104235604 0.15306884 0.4255291 0.20092411 -0.20353158 -0.11499702
-0.50075495 -0.5719785 0.08352621 -0.12009905 0.230746 -0.3006023 -0.1292714 -0.37962988
-0.011435794 -0.11644755 -0.14592424 -0.24540865 -0.06082148 0.22664909 -0.067489535 0.07344431
0.10407665 -0.15364926 -0.1659568 -0.19189702 0.014954627 0.11549007 -0.038016576 0.04834748
0.09179373 0.26395854 -0.16330554 -0.07825314 0.07695303 -0.532018 0.2358038 -0.24023515

lstm.bias_ih_l0 f4 [392]
00000000: 0b51 e2be 3826 37be d3eb 133e 452b c3be
00000010: 8d80 4fbe 5c3e bdbe ae28 543e 9041 5bbe
00000020: 68bc d93c 5e11 b9bd 7aed cebd 6f31 96be
00000030: db6f abbd 21ec 8bbe 3286 70be 978d e2be
00000040: 767d c3be 8cfe 8cbe 0fd4 c53c 21ee d7be
00000050: efa1 36be 118a a0be 0d81 a4be 4687 bcbb
00000060: 1b21 843c 1eaf 96be fb35 56be 0cae 92be
00000070: 809e f9bd 57e1 b0be 0113 a1be f658 23be
00000080: 1350 9dbe 0786 85bd 221f 6d3e d18a 69bd
00000090: cc5f aabe 7dd8 19bd 2227 98be 9ff0 25be
000000a0: ee3f fdbe 0c9b 8dbe 936a 5637 3ee4 babe
000000b0: a50f 28bd 3139 10be 6364 acbd 51b0 f7bd
000000c0: 83f1 503d 25f6 a6bd dce2 1dbe 8ff3 1dbe
000000d0: a3aa fcbd 9fe0 2dbe 3f01 08bf ec72 e6bd
000000e0: bb64 15be bda9 97be dbb5 983a ab96 52be
000000f0: 07da a23e d5fa c8be 0cc0 d3be 6d8a 41bd
00000100: 5b14 8bbe 6f41 99bd 188e 583d b194 53be
00000110: a9fd 9fbe f9e8 19be a75b 58be 0806 54be
00000120: 368e 37be 95e7 343c 1d42 26be 64eb df3d
00000130: 2836 ecbd 8008 3dbe bcee 7abe af7c 7fbe
00000140: 804b adbc ca1a 5bbd 117c 34be 2d00 97be
00000150: a012 a73d de89 00be 63eb 9bbd 55a1 f4bd
00000160: c9d1 633d ab37 8dbc 6c73 c8bd 13e1 61be
00000170: 0c52 68be 8be4 6bbe a129 fbbe 4cb0 99bd
00000180: e878 0ebe 35bd 41be 8bf9 e9bc 1d69 5a3d
00000190: 9d83 c53c 5994 233e e442 c3bd 43ed ac3e
000001a0: 3758 043e 4880 3bbd 9690 053e dbfe 0fbc
000001b0: 00f5 373d f250 4b3e 3219 5a3d f872 6d3d
000001c0: f3c7 893d 1294 e43d 50e5 cabd 0c7e e43b
000001d0: 395a d93d c440 1c3e bfd4 963e 7a65 af3d
000001e0: d7df 9abd 1bbe 933d 3529 bc3e ff6b ccbd
000001f0: 2918 f8bc c896 1d3e f1be 1b3e bc24 253d
00000200: 14db ccbd 7ca7 7ebd 7015 dabd 407a 4a3b
00000210: a438 f53c cc7c 8f3e 1ed5 19bd 764f 333d
00000220: adae 8abd 16bf bfbb e808 be3d cf20 4ebd
00000230: 3399 b0bd c169 eb3c e7e6 4b3e 395c 983d
00000240: 3f5b 3d3e 4923 ab3e 52d9 023d 3b3d c03c
00000250: b741 07be 301e 6a3b db6c 0b3e 6759 7f3e
00000260: 17f6 413e ec5d 9b3d e003 063e c593 88bd
00000270: f5de 9f3e a831 333d 63db 653e 6820 f13e
00000280: 8324 02bc 0611 18bd 5ed8 94bd fc4d 883e
00000290: b429 983d 4122 6a3d 1ff1 1dbd d829 8f3e
000002a0: 9c30 b5bc a21c 143e 89bf ae3e 5ef7 3e3e
000002b0: ab89 47bd fa6e 993d c2e9 423e 630f 983d
000002c0: ccf6 3ebd 455d 7c3d 9be4 173d eedf 053e
000002d0: 7b81 1e3e 7013 96bd 8841 e13d d305 d03e
000002e0: 07c3 82bb ce2f 823e e3a4 373d d3ff ecbd
000002f0: 2f2d 903c b0d4 c83d bf08 113e 4b35 083b
00000300: f387 47bd da19 dd3d 8e12 1a3e 51dc 93bd
00000310: 8ab2 82bd 3ae3 fcbd 390f 04be 476e a8bd
00000320: 6c9b 723e ae64 403e bcb5 023e ba6e 9a3d
00000330: ea38 eb3d 5ecd 163e 37da 82bd 48b0 07bd
00000340: 1c15 6e3e fb09 cd3c e780 c6bd bcb0 883d
00000350: 10cb 573d ad23 613c e908 613e 8345 90bd
00000360: e235 523c 7be9 d23d 01ee 0bbe 5b03 ab3d
00000370: d2ad 1f3e 6d31 093d fa7f c33b 5160 debd
00000380: b6aa 44be f5d8 7f3e 545f 1dbe 0eb6 053d
00000390: fc6f 02bd e743 363c 722e 6bbe 7df4 6abd
000003a0: 81c9 c03d d5cf 35bd 6336 8d3d 18f9 92bb
000003b0: a6d4 423e dbf6 c33d 6d48 b0bc eab4 073c
000003c0: b8e3 46be 3971 2f3e bcee 0d3e 61e7 fc3c
000003d0: 19f6 efbc dd4a 083d 945e 76bc df6b d13d
000003e0: f11f a53d acf3 263b a576 483d 3661 de3d
000003f0: 6f3f ba3c 88e5 b03c f4b0 90be ccdf babd
-0.44202456 -0.17885673 0.14445429 -0.3811895 -0.20263882 -0.3696164 0.20718643 -0.21411729
0.026579097 -0.09036516 -0.10103889 -0.2933459 -0.08370944 -0.2732859 -0.23488691 -0.4424865
-0.38181657 -0.27537954 0.024148969 -0.42173865 -0.1783521 -0.31355336 -0.32129708 -0.0057534305
0.016129067 -0.2943048 -0.2091903 -0.28648412 -0.121884346 -0.3454692 -0.3145981 -0.15951905
-0.30725154 -0.06519704 0.23156407 -0.05701715 -0.33276212 -0.037559975 -0.29717356 -0.16205071
-0.49462837 -0.27657354 1.2780208e-05 -0.3650226 -0.041030545 -0.14084317 -0.08417585 -0.120941766
0.051011574 -0.08152417 -0.15418571 -0.15424941 -0.12337234 -0.16980217 -0.531269 -0.11252388
-0.14589207 -0.29621688 0.0011650877 -0.20565288 0.31806967 -0.3925387 -0.41357458 -0.047251154
-0.27163967 -0.074831836 0.052869886 -0.2066219 -0.31248215 -0.15030278 -0.21128713 -0.20705426
-0.17925343 0.011041542 -0.16236158 0.10933569 -0.11533767 -0.18460274 -0.24505132 -0.24949907
-0.021154165 -0.053492345 -0.17625453 -0.29492322 0.08157849 -0.12552592 -0.07613256 -0.11944834
0.05561999 -0.017238459 -0.0978764 -0.22058515 -0.22687548 -0.23036401 -0.49055198 -0.07504329
-0.1391331 -0.18919833 -0.028561374 0.0533229 0.02411061 0.15974559 -0.09534243 0.33774766
0.12924276 -0.045776635 0.13043436 -0.00878879 0.044911385 0.19855097 0.053246684 0.05797097
0.067275904 0.11161055 -0.09907019 0.006973034 0.10612912 0.15259081 0.29459187 0.08564277
-0.07562225 0.07213994 0.36750188 -0.09981536 -0.030284958 0.1538955 0.15209557 0.040318236
-0.10002723 -0.062171444 -0.1064862 0.003089562 0.029934235 0.280249 -0.03755676 0.04377695
-0.06771598 -0.0058516366 0.092790425 -0.050324257 -0.086229704 0.02873695 0.19912301 0.07439465
0.18491839 0.33425358 0.031945534 0.023466697 -0.13208662 0.003572356 0.13615744 0.24936448
0.18941532 0.075862736 0.13087416 -0.0666881 0.3122479 0.043748528 0.2244697 0.47095037
-0.007943275 -0.03712561 -0.07267831 0.26621997 0.07429829 0.057161573 -0.03856003 0.27961612
-0.022117905 0.14464048 0.34130505 0.1864905 -0.048715275 0.0749187 0.19034484 0.0742481
-0.046622083 0.061612386 0.03708325 0.13073704 0.1547908 -0.07327926 0.10998827 0.40629444
-0.003990534 0.25427097 0.044834983 -0.11572232 0.01759967 0.09806192 0.14163493 0.0020783718
-0.048713636 0.107959464 0.1504614 -0.072197564 -0.0638171 -0.123480275 -0.12896432 -0.08224159
0.23692101 0.18788406 0.12764639 0.07540651 0.11485465 0.14726779 -0.063892774 -0.0331271
0.2325024 0.025029173 -0.09692555 0.066743344 0.05268389 0.013741416 0.21976055 -0.07044508
0.0128302295 0.10298439 -0.1366501 0.083502494 0.15593651 0.0334944 0.0059661837 -0.10858215
-0.19205746 0.24985106 -0.15368396 0.032644324 -0.031845078 0.011124588 -0.22966936 -0.05736207
0.09413434 -0.044387657 0.06895139 -0.0044852607 0.19026431 0.09568568 -0.02151891 0.008282879
-0.19422805 0.17133035 0.13860601 0.030872049 -0.029292153 0.03327452 -0.015037198 0.10225653
0.08062733 0.002547483 0.048941273 0.10858385 0.022735326 0.021593824 -0.28260005 -0.09124717

lstm.bias_hh_l0 f4 [392]
00000000: bcf5 debe dc8c 35be 198e a83d 2b7d a6be
00000010: bd75 25be b5e8 c7be ffbb 6c3e f1ac 84be
00000020: 3281 21bd a624 d1bd 1691 0cbe 7f81 80be
00000030: 064a 19be c973 3abe 8d14 b4be 90de c7be
00000040: e27a b5be dd94 51be cdb2 69bd b719 07bf
00000050: fcae 82be cd30 98be 98fa 88be 045b 833d
00000060: f5c8 1d3e 3555 bdbe ac1f 4dbe 5ac8 2fbe
00000070: 39b1 02be 5c0f 5abe 8f28 c3be f451 05be
00000080: aa83 3fbe c10e 35bd 17ce 253e 83ba b1bc
00000090: f9df 8fbe a7cd 2a3d 4a08 82be 63f1 21be
000000a0: ec71 f9be 7b00 27be 855f 4b3c 0a0e 8bbe
000000b0: e70a ecbd 0be4 7abd 3eaf 523d 7191 0cbe
000000c0: 744f 4f3d 3139 d0bd fe66 1fbe 9145 7cbe
000000d0: 0a09 f5bd 3e16 a2be 0392 0cbf 9cb0 3abe
000000e0: 092f 49bd e9f7 7dbe 0f13 c6bc def7 86be
000000f0: cddf 803e 7113 0fbf 79e9 c8be 4c0d a3bd
00000100: 18af 2fbe 4727 13be c7c0 ce3d d464 0ebe
00000110: 0e23 2bbe 5d85 6bbd 6bae 3cbe 625f 7bbe
00000120: 37a3 5bbe 963d 753d 7e0e 28be ea3b 033e
00000130: db9c 17be e92f a6bd f6c0 71be cf6e 7dbe
00000140: a4fd c1bd 402f c83b 54f4 5fbe ff33 46be
00000150: d01e afbd b4a1 5fbe b9a7 12be 00ea 43bd
00000160: 4c08 2d3d 4b83 a33d e492 4bbe b51d 1bbd
00000170: 6b53 90be 2b4b 7dbe f513 97be 7078 5ebe
00000180: 8a59 bebd 8d8e 52be 7032 163e 788f 433b
00000190: 2778 163e a4dc 0b3e ce3f b5bd b0d7 d53e
000001a0: 3f6b b73c 1c41 923d a4a7 a13b d5e6 993d
000001b0: 711f cfbc 2d4b 8a3e f1ab 013e d51f 3f3d
000001c0: fd4b 003e b50b b4bc 750c 9fbb 2ee9 fd3d
000001d0: cc23 b83d 214b e83d 4116 413e 9c60 9a3d
000001e0: 35e2 87bd d32e 483d c71d 8e3e 1f0c a6bd
000001f0: dba0 63bd 78a5 623e 59e1 503e 0619 2a3b
00000200: 01f0 653c fca5 d3bc 1722 e1bd af1a e73c
00000210: bfe4 113c 6348 983e 6e66 0fbe 198a 093d
00000220: cbb5 3ebd 8bbe 05bd 6fd0 073e a4f7 3bbd
00000230: 9342 b13c f9a8 ae3d 127b 033e 84c1 7a3d
00000240: 6718 073d 0be9 9e3e aff7 2e3e 07d5 2c3e
00000250: f26b b9bd ca1e 853d 51f3 833d f408 8a3e
00000260: 9fb7 943e affb fb3d b8d7 093e defb 93bd
00000270: 384c cc3e afd8 bd3d bdd7 a13e be0f ce3e
00000280: 0980 cbbd 7729 c73d 1e50 9a3d 34ff 463e
00000290: 10e1 1f3e 25cd a73d 1f30 153d 51cc 773e
000002a0: 67c3 993d 5e54 0a3e 0e65 663e 0225 de3d
000002b0: a1ea a9bc 6751 773d 42dc b73d 2eec e83c
000002c0: ce1b 923d 6f80 b23c 23e6 233e 90c5 febc
000002d0: 1998 a63e 8b66 d6bc 8429 4f3d 5c96 ed3e
000002e0: cd5c 633d b8c4 3b3e af40 58bb c6cf 05be
000002f0: b848 9e3d 024a d13c f256 05bd 93c9 573d
00000300: f517 7bbd 6623 d53d 6409 8e3d ae78 1d3c
00000310: 771f 5d3d 4a62 00bd b4e4 fabd 1761 5cbe
00000320: 3933 ef3d 0c08 7c3e 70f5 063d 560b fa3d
00000330: 31a5 973d d509 e63d 2dd0 00be 9394 0f3d
00000340: 7d45 453d 4eb2 d0bd 7a83 b8bd 3998 1e3d
00000350: 942a 7b3d e040 cc3b 4df3 4c3e f0a1 51bd
00000360: c6e5 96bc 2390 4a3d dcd0 78bd d7bf 78bd
00000370: e64d 113e ff80 433c 4b03 16bd c192 37bd
00000380: 6982 75be f723 ef3d abb6 67be 0fbe 0d3d
00000390: ae01 0ebe 2a69 05be 8f52 76be 2bc1 293d
000003a0: f86c b73d 1e4e a83c ede0 703e 0081 c0bc
000003b0: ef5a 2b3e 1e30 563e 4a8b 3abd acd1 ae3d
000003c0: 812c 85bd 79ad 693e 515d 813d 357c 3a3e
000003d0: fe05 fb3d a12c 4fbd be47 11bd d09c c83b
000003e0: ba7b 1f3d 1dd9 2bbd e9c6 b13d 950a 98bd
000003f0: 8bbb 44bd 9b9d 1a3d 2e91 64be 790d 6dbd
-0.43546855 -0.17729515 0.08230228 -0.3251737 -0.16158195 -0.3904473 0.2311859 -0.25913194
-0.03942985 -0.10212068 -0.13727221 -0.25098798 -0.14969644 -0.18208231 -0.3517193 -0.3903699
-0.35445315 -0.20466943 -0.057055283 -0.5277361 -0.25524127 -0.29724732 -0.26753688 0.06413844
0.1540869 -0.3697907 -0.20031613 -0.17166272 -0.12762918 -0.21294922 -0.3811688 -0.13019544
-0.1870257 -0.044203524 0.16191898 -0.021695381 -0.28100565 0.04170003 -0.2539695 -0.15814738
-0.48719728 -0.16308777 0.01241291 -0.27159148 -0.11525517 -0.061252635 0.051436655 -0.13727356
0.05061288 -0.101671584 -0.15566632 -0.24635912 -0.11964615 -0.31657594 -0.54910296 -0.18231434
-0.04911712 -0.24801601 -0.02417901 -0.26360983 0.25170746 -0.5588904 -0.39240626 -0.079615206
-0.17156637 -0.14370452 0.10095363 -0.1390565 -0.16712591 -0.057500232 -0.1842591 -0.24548104
-0.2144898 0.059873186 -0.16411778 0.12815824 -0.1480593 -0.08114607 -0.23608765 -0.24749301
-0.09472206 0.0061091483 -0.21870548 -0.19355772 -0.08550799 -0.21839029 -0.14321794 -0.04783058
0.04224424 0.079840265 -0.19880253 -0.037870128 -0.28188643 -0.24735706 -0.29507414 -0.21725631
-0.09294422 -0.20562191 0.14667678 0.0029840153 0.14694272 0.13658386 -0.088500604 0.4176612
0.022390006 0.07141325 0.0049333144 0.07514731 -0.025283547 0.2701048 0.12663247 0.046661217
0.12528987 -0.021978239 -0.00485378 0.12397991 0.08991203 0.11342455 0.18856145 0.07537958
-0.066349424 0.04887278 0.27757093 -0.08107781 -0.055573326 0.22133434 0.20398463 0.0025954857
0.014034272 -0.025835983 -0.1099283 0.028210966 0.008904635 0.29742727 -0.14003918 0.033578966
-0.04656009 -0.03265242 0.13263105 -0.045890465 0.02163819 0.08528323 0.12839916 0.061219707
0.032982256 0.31037173 0.17086671 0.16878138 -0.09053792 0.06500013 0.06442893 0.26959956
0.29046342 0.12303864 0.13461196 -0.07225774 0.399019 0.09269845 0.31609908 0.40246385
-0.0993653 0.09724706 0.075348124 0.1943329 0.15613198 0.08193425 0.036422845 0.24199034
0.07507973 0.13508746 0.22499487 0.108469024 -0.020741763 0.060380366 0.08977558 0.028432932
0.071342096 0.021789758 0.16005759 -0.031100065 0.32537916 -0.026171943 0.0505767 0.46403778
0.055508424 0.18336761 -0.0032997539 -0.1306754 0.07728714 0.025547985 -0.03255362 0.05268247
-0.061302144 0.10407142 0.06935385 0.009611292 0.053985085 -0.031343736 -0.12250653 -0.21521412
0.11679692 0.24612445 0.03294891 0.122091934 0.07404555 0.11232344 -0.12579413 0.0350538
0.048161972 -0.10190259 -0.09009452 0.03871939 0.061319903 0.0062333196 0.20014687 -0.051179826
-0.018420111 0.049453866 -0.06074606 -0.060729828 0.14189872 0.0119326105 -0.036624234 -0.04481769
-0.23975529 0.116767816 -0.22628276 0.034605082 -0.13867828 -0.13028398 -0.24054931 0.041443985
0.08956331 0.020545062 0.23523302 -0.023499012 0.16733907 0.20916793 -0.045542993 0.085360855
-0.06502629 0.22820081 0.06316627 0.18211444 0.12257002 -0.05057967 -0.03546881 0.006122209
0.038936354 -0.041955102 0.08680517 -0.07423893 -0.048030417 0.03774796 -0.22321007 -0.057874177

fc1.weight f4 [9, 98]
00000000: 72d5 e73c dabf 54be e921 33bd 0a51 e0bd
00000010: 2a8d aa3e 36c4 3d3f b22d 953e 49fd d13d
00000020: 6025 83bd 222c 113f efe4 663d b770 e33e
00000030: 76f6 b1be 8de4 b13e daf3 21bf 49ed 56be
00000040: 16de d3bd a3ac 49be ecce d6bd 8543 f03e
00000050: 4e65 9d3e 1d60 0ebd 2fee 82be f900 12be
00000060: 0223 083e 2f84 00be 4aab 003e 479a babe
00000070: 89e0 0fbe 7f22 e3bd ae51 d6bb 7e25 45bf
00000080: a9fd 1abf feba f2be f2bc 963d a317 8dbe
00000090: 7aee 64bd 36ed b83d 254d 9e3e 4a65 ccbe
000000a0: 4fe3 d3bd d370 933c f920 8ebe 6c97 dbbd
000000b0: 99ec cebc 38cb 4a3f 0a26 c8bd d07d 07be
000000c0: 9978 c8be 9cb2 a5bc f9b7 213e 2aa8 933e
000000d0: 4101 19bd 50b3 bbbd 419e 17be 49e5 94be
000000e0: 9c42 80be bec6 d73e 9acf 4abe 4386 5dbf
000000f0: e53a 91be eaf9 933f 81f2 c03e b91d a93e
00000100: 05d9 bcbd 9415 b33e f254 95be 4beb 15be
00000110: 1e49 de3d cc9a 8bbd 249d f33d 143c 43bd
00000120: 421b 6a3f f08b 0f3e 49c4 173e e5c0 b13e
00000130: 7f20 b0bb adf9 443e 3533 9a3e 63ed f03e
00000140: 0cde ed3d b11e 9d3d 3950 b5be a85d 0b3d
00000150: 8bc5 a2bd b8bb 9e3e 7839 adbd f1ef a2be
00000160: 3262 e8be d052 a8be 4075 07bf 9914 5c3e
00000170: da84 243c 2ac9 093c cea4 153e c375 263e
00000180: 40d5 813d 88c7 f83e 9b0a ff3c ac7a 2e3e
00000190: be57 f0bd ebce 113d 6aa8 8ebe 5980 0cbf
000001a0: 45f5 05bf bf97 943d 161d ea3e ab2c d5bd
000001b0: 52e6 3abd dd43 3f3e 7a87 953c c532 fc3e
000001c0: 108f ccbe 76fa 42bd 9299 a8be d4d8 913d
000001d0: 330d 983c 48d9 f6bd 9c85 ee3e 76e2 863c
000001e0: 5684 90bf 8c48 b1bd f034 e6bd df7f 043f
000001f0: e1c7 4d3e 743d 053e d73c a83d cf87 c03e
00000200: 538b 9d3e 5793 c9bc 2077 a43f a1ad 60be
00000210: a8a2 a53d 3f0b 033e a332 803d fd26 86bd
00000220: e0a0 0b3e aadc e8be 0532 083d 7222 453f
00000230: 1b16 8d3d 418e 8bbe 344c 193d e2e7 81be
00000240: 85c6 91be d848 f63d 15a9 f1be 52e3 733f
00000250: 8cb7 0abf 2019 95bd 8c8b 26bf 66fc bd3d
00000260: 0147 a93e d279 823e ef69 0c3e 099a 82be
00000270: 3fb5 0b3f 11b0 80be 7e85 c9be f3b3 933f
00000280: 0dd3 193c 1e2e 1a3e 1908 263d 84e6 9abe
00000290: 9e88 d63e 86f4 a3be e4ff 293e 6c5d e8bd
000002a0: 74bc 42bd e5c8 453e 1689 0cbf c9da 1c3e
000002b0: 7e54 343c a43f d83e 4786 973a ec52 2d3d
000002c0: 0a15 893e 988d cebc 74b4 90be 29cd 97bd
000002d0: 9422 a03d b5b7 833e 4d06 93be 5fc3 d33e
000002e0: 2b66 173d ea40 b6be 0395 c93d 78a4 9a3e
000002f0: 7b33 c53d 846e 323d c895 c1be 7455 3ebf
00000300: 1d40 d8be 4ec4 9a3e 7844 0abe 111d c8be
00000310: f71e 09be f796 b43d 8e17 8c3e 9c8c b53d
00000320: d12a 573e c3c9 ebbe 0dca 873d 3ddc 64bc
00000330: cdb0 a4be ee44 c2bd 6914 a2bd aaa5 cc3d
00000340: 9473 373c e09d 92bd f52f 363e fdf8 02be
00000350: f6ed f7be e810 77bd 2721 c13d 01f2 5cbf
00000360: 764a 12bf c3cc 34be 8fc1 62bf 0ded 403e
00000370: 94c8 8c3e 4f15 a6bd c0cf 603d a9fa 7a3d
00000380: 77dc 80be 3aec 26be 840d 2ebc f46b cebe
00000390: c66c 50bd 4e39 a4bd 369a d93c ebe4 24be
000003a0: 1e28 c13e 164e 4f3e 367b 92be 53c0 173e
000003b0: 5c0c 39be 9b8d 67bd 4af1 c8bd 7b65 e1be
000003c0: 72b1 c03d cbc6 c9bc 5413 b5be 400f 86bd
000003d0: 31bd 203e a7dd 963f 5734 31bd b45f aabe
000003e0: 91c3 413e 530a b33e a18f 44bf b9e7 953e
000003f0: ad40 1dbf e28f dfbd ec9f d03e b224 5a3f
0.02830002 -0.2077631 -0.04373351 -0.10952957 0.33310825 0.7412752 0.29136425 0.102533884
-0.06403613 0.56707966 0.05637067 0.44421932 -0.34758347 0.34744683 -0.6326271 -0.20988955
-0.10345094 -0.19694762 -0.10488686 0.46926513 0.30741352 -0.03475963 -0.25572345 -0.14258184
0.13294604 -0.12550424 0.12565342 -0.3644583 -0.14050497 -0.11090564 -0.0065404987 -0.77010334
-0.60543305 -0.4740829 0.07360257 -0.27557096 -0.05589149 0.090296194 0.30918232 -0.39921027
-0.1034609 0.017998135 -0.2775953 -0.10722241 -0.025259303 0.7921634 -0.097728804 -0.13231587
-0.3915451 -0.02022677 0.15792836 0.28839236 -0.03735471 -0.091650605 -0.14806463 -0.2908118
-0.2505082 0.42143816 -0.19805756 -0.8653299 -0.28365245 1.1560643 0.37685016 0.3303049
-0.09221081 0.349774 -0.2916637 -0.14640538 0.1085379 -0.068166345 0.118952066 -0.047664717
0.9144784 0.14018226 0.1482097 0.3471748 -0.0053749676 0.19235869 0.30117193 0.47056112
0.11614618 0.076718695 -0.35412768 0.034024864 -0.079478346 0.31002593 -0.08458227 -0.31823686
-0.45387417 -0.3287568 -0.52913284 0.21492232 0.01004144 0.008409778 0.14613649 0.1625586
0.06339502 0.4858973 0.031132987 0.17038983 -0.117354855 0.035597723 -0.27862865 -0.54883343
-0.52327377 0.07255506 0.45725316 -0.1040891 -0.045629807 0.18678232 0.018253077 0.49257484
-0.39952898 -0.04760214 -0.32929665 0.07121435 0.018560981 -0.12053162 0.4658631 0.016465407
-1.1290386 -0.08656415 -0.11240566 0.51757616 0.20095779 0.13011724 0.08214729 0.37603614
0.30770358 -0.02460639 1.2848854 -0.21941234 0.08087665 0.12797259 0.06259658 -0.06550405
0.13635588 -0.45480853 0.033250827 0.77005684 0.06888982 -0.2725697 0.03742619 -0.25372225
-0.2847177 0.120256126 -0.47199312 0.9526874 -0.5418632 -0.07280183 -0.6505668 0.09276657
0.33061984 0.25483567 0.13712285 -0.25508144 0.54573435 -0.25134328 -0.3935966 1.1539291
0.009388697 0.15056655 0.040535066 -0.30253994 0.41901106 -0.32022494 0.16601521 -0.11345944
-0.047543004 0.19314916 -0.54896677 0.15317835 0.011006473 0.42236054 0.0011560404 0.04231541
0.26773864 -0.025214002 -0.28262675 -0.07412178 0.07819095 0.25726095 -0.28715745 0.41359994
0.03696267 -0.355964 0.09842875 0.30203605 0.0962896 0.043562427 -0.37809587 -0.7434914
-0.42236415 0.30227894 -0.13502681 -0.39084676 -0.13390718 0.08817857 0.2736172 0.0886471
0.21012427 -0.4605237 0.06630335 -0.0139685245 -0.32166138 -0.094858035 -0.07914049 0.099925354
0.01119699 -0.071590185 0.17791732 -0.12790294 -0.48423737 -0.060318857 0.094301514 -0.8630677
-0.5714487 -0.17656235 -0.88576597 0.18840428 0.2749678 -0.08109533 0.054885626 0.061274204
-0.251682 -0.16301051 -0.01062334 -0.40316737 -0.050884984 -0.080187425 0.026562791 -0.1610295
0.3772592 0.20244631 -0.28609627 0.1481946 -0.18071121 -0.05653153 -0.09811647 -0.44022736
0.09408845 -0.024630925 -0.3536631 -0.065458775 0.15697171 1.1786393 -0.043262806 -0.3327614
0.18922259 0.34968814 -0.7678166 0.29278353 -0.6142681 -0.10916115 0.4074701 0.8521224

fc1.bias f4 [9]
00000000: 146e 00be 3085 6abe d396 733c a2e7 84be
00000010: 1090 85bd 33a1 093e 60d4 1b3e adb3 4f3e
00000020: 6d13 25be
-0.12541991 -0.2290237 0.014867502 -0.25957972 -0.06521618 0.13440399 0.15217733 0.20283385
-0.16120692
