models/lstm1.pth (torch, 785123 bytes, 14 tensors)

lstm.weight_ih_l0 f4 [392, 1]
-0.3181673 -0.13147615 0.11823705 -0.26223907 -0.15539376 -0.33839118 -0.42623982 -0.22117732
-0.43468496 -0.8013734 0.38148624 -0.2984785 -0.49752182 -0.680007 0.28064078 -0.84808284
-0.1843589 -0.8369655 -0.66936225 -0.31607476 -0.6325773 -0.6648936 -0.3499191 -0.38240722
-0.4647756 -0.04561719 -0.5882744 0.6064037 -0.3245482 -1.14545 0.32906777 -0.18676232
0.21003051 -0.39884296 -0.27470684 -0.27662456 0.3849798 -1.1808954 -0.06720087 -0.36905846
-0.04691009 -0.83274233 0.07937548 0.06823939 0.39522436 -0.37165254 -0.56826293 -0.6451322
-1.0395561 -0.38852206 -0.3216675 -0.19112112 -0.68318903 -0.5953538 0.4833312 1.1683861
-0.007695168 -0.41022557 -0.2150394 -0.11538399 -1.1824093 0.43668455 -0.39944094 -0.28989023
-0.45339784 -0.23150267 -0.49355626 -0.4679252 0.34787446 -0.57270247 -0.4060845 -0.3838565
-0.21039127 -0.14898963 -0.48878318 -0.43860543 -0.23251598 0.8277026 -0.8110498 0.97427416
-0.6354101 -0.08471664 -0.33949974 -0.070263125 -1.0696021 -0.2756226 -0.016296148 -0.33918265
-0.79080373 0.29306656 0.45251513 -0.19958952 0.60488373 -0.37017044 0.4814536 -0.35908094
-0.23698497 -0.005981975 -0.16349895 0.14527111 0.02059143 -0.23771037 -0.6970087 -0.060380194
-0.40629557 0.20769742 0.31109378 -0.51672465 -0.5220874 -0.038731042 -0.21435453 -0.48103657
0.12794591 -0.05623072 -0.21968667 -0.8037706 -0.6291413 -0.012854998 -1.1934019 -0.16387896
0.042148933 -0.00898986 0.4354613 -0.27283314 -0.6073167 0.12723017 -0.024883816 -0.6855483
0.27722225 -0.18248035 0.47658944 -0.14373124 0.05633409 0.07153322 0.17058751 -1.0706795
0.052580122 0.046598475 0.28772452 -0.7745328 0.10570775 -0.013876079 -1.2302498 -0.16564813
-0.87849385 0.04558052 -1.0701716 -0.36630282 -0.10776274 0.21560009 -0.24155805 -0.11020361
-0.82657504 -0.31794414 -0.22939873 -0.46393558 0.5440292 1.1035159 -1.5358536 -0.17920133
-0.55646175 0.30013743 0.04237715 0.13975221 -0.118479155 0.28812736 -1.0547462 0.09238521
-1.0256441 -0.23079327 0.3067507 -0.25485632 0.1589657 0.4054595 -0.020681093 0.13487728
-1.0118347 -0.3916884 -1.0065781 -0.82921225 -0.081378736 -0.18701173 -0.4745913 0.0049633738
-0.3125061 -0.45695668 -0.34879148 0.3859 -0.47830573 -0.2564763 -0.6924493 -0.084239274
-1.1798996 -0.1492287 -1.3637043 -0.16033524 0.11960565 0.060365193 0.40089738 -0.029858919
0.069898866 0.056793097 0.028866123 0.013340429 -0.20673887 0.32355955 0.54558986 0.051827367
0.15389623 -0.19956426 -1.2195616 0.6226776 0.1170843 0.061072998 -0.027008854 -0.013978132
-0.48376316 -0.9512487 -0.11167725 -0.14362374 -0.24724592 0.0020364209 0.14686038 0.057946485
0.14873616 -0.8295586 0.14167042 -0.094012976 0.22484489 0.07040198 -0.33281666 -0.6221684
0.29476756 -0.038002305 -0.076422535 0.13734908 0.15911523 0.4133689 0.05371156 0.13396327
-1.7176613 0.02486238 -0.03987087 -0.07149088 0.44173405 0.044479467 0.037453778 -0.07884528
-0.0049559055 -0.13501717 -0.63331056 -0.38336277 0.0014106155 0.067972824 -0.20612684 -0.11045018
00000000: d3e6 a2be afa1 06be 4426 f23d 3344 86be
00000010: 8b1f 1fbe 9c41 adbe 1b3c dabe 4f7c 62be
00000020: 078f debe cf26 4dbf 2a52 c33e 2dd2 98be
00000030: 2ebb febe f014 2ebf 26b0 8f3e f51b 59bf
00000040: 94c8 3cbe 5f43 56bf 535b 2bbf 8dd4 a1be
00000050: 96f0 21bf 7836 2abf 9928 b3be e1ca c3be
00000060: 11f7 edbe 17d9 3abd 2799 16bf 463d 1b3f
00000070: 2f2b a6be 1b9e 92bf 927b a83e 9f3e 3fbe
00000080: 3d12 573e 2535 ccbe 60a6 8cbe bca1 8dbe
00000090: 131c c53e 9527 97bf 9ca0 89bd 3bf5 bcbe
000000a0: cb24 40bd 9a2e 55bf 9d8f a23d 18c1 8b3d
000000b0: d95a ca3e 3e49 bebe ae79 11bf 6227 25bf
000000c0: 2d10 85bf 5dec c6be 9ab1 a4be 41b5 43be
000000d0: 7ae5 2ebf 1b69 18bf 3077 f73e ad8d 953f
000000e0: bf27 fcbb 1609 d2be 4a33 5cbe 714e ecbd
000000f0: 3059 97bf 1e95 df3e 8683 ccbe 7e6c 94be
00000100: c323 e8be 090f 6dbe 68b3 fcbe e493 efbe
00000110: 9a1c b23e a19c 12bf 4fea cfbe d788 c4be
00000120: cf70 57be bd90 18be ca41 fabe e490 e0be
00000130: ab18 6ebe 51e4 533f f6a0 4fbf 086a 793f
00000140: 3caa 22bf eb7f adbd e9d2 adbe 1de6 8fbd
00000150: b9e8 88bf 681e 8dbe 807f 85bc 59a9 adbe
00000160: 1d72 4abf d20c 963e 10b0 e73e 3261 4cbe
00000170: a9d9 1a3f fb86 bdbe 1681 f63e 75d9 b7be
00000180: 30ac 72be 7104 c4bb 456c 27be f3c1 143e
00000190: 5caf a83c 596a 73be 2a6f 32bf 3951 77bd
000001a0: f905 d0be a2ae 543e af47 9f3e 1148 04bf
000001b0: 85a7 05bf 71a4 1ebd c17f 5bbe 6d4a f6be
000001c0: 4104 033e 2f52 66bd 8bf5 60be e9c3 4dbf
000001d0: 670f 21bf c59d 52bc 65c1 98bf e3cf 27be
000001e0: 5ca4 2c3d 354a 13bc c9f4 de3e c9b0 8bbe
000001f0: 1b79 1bbf a048 023e 25d9 cbbc 1880 2fbf
00000200: 13f0 8d3e 21dc 3abe 8803 f43e 482e 13be
00000210: 93be 663d 0280 923d 7eae 2e3e 070c 89bf
00000220: 415e 573d 0bde 3e3d a150 933e c847 46bf
00000230: 4e7d d83d 7e58 63bc d378 9dbf aa9f 29be
00000240: f9e4 60bf a4b2 3a3d 62fb 88bf 0b8c bbbe
00000250: b6b2 dcbd 45c6 5c3e fe5a 77be 6eb2 e1bd
00000260: 6c9a 53bf 93c9 a2be 80e7 6abe f788 edbe
00000270: 7f45 0b3f 0240 8d3f da96 c4bf 8e80 37be
00000280: 4774 0ebf 9dab 993e aa93 2d3d 341b 0f3e
00000290: 33a5 f2bd 6e85 933e ec01 87bf 7534 bd3d
000002a0: 4e48 83bf 1255 6cbe 6e0e 9d3e 877c 82be
000002b0: e8c7 223e 6398 cf3e 656b a9bc 451d 0a3e
000002c0: cd83 81bf 628b c8be 8dd7 80bf 4147 54bf
000002d0: e5a9 a6bd 0180 3fbe a2fd f2be cca3 a23b
000002e0: cd00 a0be 3af6 e9be cc94 b2be af94 c53e
000002f0: 7de4 f4be dd50 83be 5b44 31bf a485 acbd
00000300: f306 97bf 69cf 18be dd8d aebf ec2e 24be
00000310: cff3 f43d 7e41 773d 6c42 cd3e b19a f4bc
00000320: 2327 8f3d e19f 683d a678 ec3c d191 5a3c
00000330: 5bb3 53be 99a9 a53e c7ab 0b3f ef48 543d
00000340: f996 1d3e 935a 4cbe 981a 9cbf cd67 1f3f
00000350: e5c9 ef3d ae27 7a3d ac41 ddbc 8904 65bc
00000360: ceaf f7be 0985 73bf 0bb7 e4bd 1a12 13be
00000370: 092e 7dbe 7975 053b 9162 163e 4b59 6d3d
00000380: 4b4e 183e f45d 54bf 0d12 113e e089 c0bd
00000390: bd3d 663e ea2e 903d f266 aabe 6e46 1fbf
000003a0: c6eb 963e 4ea8 1bbd 6b83 9cbd 3da5 0c3e
000003b0: 1aef 223e 17a5 d33e a700 5c3d ab2d 093e
000003c0: 53dc dbbf 31ac cb3c a34f 23bd cf69 92bd
000003d0: f72a e23e 1a30 363d 2269 193d a279 a1bd
000003e0: 2665 a2bb f141 0abe a420 22bf 2048 c4be
000003f0: 67e4 b83a 5635 8b3d ea12 53be b433 e2bd

lstm.weight_hh_l0 f4 [392, 98]
0.20876904 -0.3249259 0.04303641 0.0639098 -0.21223064 0.17145625 -0.0384774 0.073575035
0.22427954 0.17264482 0.08781706 0.25205645 0.22770983 -0.08717395 0.04794973 -0.1400458
-0.17905839 0.28148997 -0.43778604 -0.032574244 -0.21668236 -0.5418442 -0.30190364 -0.0035106086
0.6362747 -0.24499746 0.2644789 -0.49433425 -0.06803127 0.2751897 -0.39660886 0.013831679
-0.32523626 0.094410345 0.42004547 0.06940365 -0.3655511 -0.12624599 0.32017076 -0.09445732
-0.156393 0.61931896 0.00020315833 -0.6331743 -0.07186515 0.33163625 -0.15994036 -0.44936892
0.08489582 -0.075299814 0.10233549 -0.3365331 0.45614296 0.059257872 0.2206181 0.44576535
0.26474163 0.4519599 0.08378185 -0.14484552 -0.008701674 -0.17047638 -0.4973615 0.35737294
0.00039897973 -0.17469214 0.7046234 -0.093037054 0.24288249 -0.019778 0.07286273 -0.413694
0.08910672 -0.036087144 -0.44957983 0.20344993 -0.37994352 -0.40397063 -0.18129177 -0.06437457
0.045101065 0.30392113 0.13528931 -0.19457006 -0.7492548 0.365436 -0.3147639 0.26855195
0.73854697 0.20853664 0.048944023 -0.13444723 -0.059183415 0.042172905 0.33878526 -0.01657458
-0.33746073 0.032095123 -0.1422506 0.62500775 -0.1866432 0.3742665 0.38988942 0.10934215
-0.112162195 0.27231795 -0.012373815 -0.08863547 -0.028662404 0.24106431 -0.10882979 0.051584575
0.48785537 -0.47353402 0.14332557 -0.041467264 -0.026145546 0.009863837 -0.14188848 -0.4161477
-0.08445268 0.14023127 0.05526257 -0.107343465 0.2383715 -0.53960717 -0.048597205 0.14860916
-0.36021298 0.66137505 0.18116312 -0.028026456 0.06975192 0.17725976 -0.37474242 0.037362058
0.19578294 0.022200603 0.22493066 0.29535097 0.18708521 -0.23923488 0.3731269 0.10600127
0.020507827 -0.17357023 -0.056189224 0.26627532 0.067567654 -0.20375086 -0.18540296 0.06352985
0.26558244 0.33039513 0.33917373 0.12425814 -0.18066892 -0.01260114 -0.09677719 0.06342607
-0.26162344 0.01510393 -0.056464195 0.24445221 0.015099712 0.01153218 -0.073684655 -0.026923414
-0.15860112 -0.17702122 0.060592145 0.2002313 -0.35258117 0.20973757 -0.34560084 -0.557365
0.071766645 -0.22090201 -0.10074527 0.91624486 0.06266532 -0.008903165 -0.1703458 0.3025682
0.037538465 0.11591214 0.32037574 0.3449825 0.30410576 -0.1389607 0.17315154 0.10944624
0.44599625 0.07125733 -0.085508876 -0.21931383 0.10811989 -0.28731614 0.12667245 0.0083371
-0.07341942 0.45458692 -0.058218945 0.058818717 -0.19747268 0.1003625 -0.4115247 0.3351013
-0.16270787 -0.104198106 0.16682892 -0.22653404 0.26739636 0.052226175 -0.2332341 -0.19560702
-0.10871002 -0.04114645 -0.31286186 -0.33360076 -0.04397381 0.06291185 0.03693994 0.22904532
0.11476717 0.39564332 0.073025905 -0.1377272 0.14104408 0.30645302 -0.27261308 -0.115696594
0.3672817 0.08564209 -0.09167752 0.21482156 0.06140711 0.07378995 -0.27511638 -0.328174
-0.25237712 0.2466843 0.20388253 -0.12695347 -0.16163331 0.15251471 0.27482292 -0.18647283
-0.14998911 -0.09733182 -0.3959814 -0.33541688 0.057326593 0.14473857 0.060777143 -0.3666938
00000000: 8dc7 553e b05c a6be f246 303d 24e3 823d
00000010: fd52 59be 3a92 2f3e 7a9a 1dbd 82ae 963d
00000020: 89a9 653e cec9 303e 6ed9 b33d 8b0d 813e
00000030: c42c 693e 4288 b2bd f066 443d 2b68 0fbe
00000040: 155b 37be 741f 903e 7e25 e0be 926c 05bd
00000050: fbe1 5dbe 4db6 0abf 1d93 9abe 3d12 66bb
00000060: e6e2 223f 9de0 7abe c769 873e 6119 fdbe
00000070: fa53 8bbd aae5 8c3e 5110 cbbe 449e 623c
00000080: 5e85 a6be 365a c13d 3310 d73e 8023 8e3d
00000090: 8429 bbbe a146 01be 6ced a33e d772 c1bd
000000a0: 7d25 20be b08b 1e3f e606 5539 b617 22bf
000000b0: 092e 93bd 3acc a93e 68c7 23be af13 e6be
000000c0: dcdd ad3d ca36 9abd 4595 d13d 114e acbe
000000d0: 928b e93e 62b8 723d b6e9 613e 5b3b e43e
000000e0: 378c 873e 4a67 e73e d295 ab3d 6252 14be
000000f0: 7791 0ebc 5c91 2ebe 2ba6 febe 96f9 b63e
00000100: 272e d139 7fe2 32be 3362 343f 368a bebd
00000110: 30b6 783e 7905 a2bc 0e39 953d b3cf d3be
00000120: 967d b63d 1dd0 13bd 542f e6be 2e55 503e
00000130: f587 c2be 3dd5 cebe 8da4 39be d1d6 83bd
00000140: e5bb 383d 8d9b 9b3e 4889 0a3e 603d 47be
00000150: 2acf 3fbf 6d1a bb3e bc28 a1be a47f 893e
00000160: 6a11 3d3f a18a 553e 8779 483d 89ac 09be
00000170: 4f6a 72bd 7fbd 2c3d 4375 ad3e 6ac7 87bc
00000180: a7c7 acbe 2d76 033d 24aa 11be 8200 203f
00000190: 651f 3fbe dc9f bf3e 969f c73e c7ee df3d
000001a0: 4bb5 e5bd 426d 8b3e 8bbb 4abc 8386 b5bd
000001b0: 6bcd eabc 90d9 763e 27e2 debd 594a 533d
000001c0: 2ec8 f93e 0d73 f2be f0c3 123e 94d9 29bd
000001d0: 2f2f d6bc ee9b 213c 374b 11be 5011 d5be
000001e0: 87f5 acbd c998 0f3e 015b 623d e4d6 dbbd
000001f0: a917 743e b223 0abf dd0d 47bd 002d 183e
00000200: d66d b8be e04f 293f d382 393e bd97 e5bc
00000210: 18da 8e3d 9583 353e 3dde bfbe f508 193d
00000220: 537b 483e 0ade b53c 3954 663e 3e38 973e
00000230: 4493 3f3e fdf9 74be 7d0a bf3e 3217 d93d
00000240: 0800 a83c 65bc 31be ac26 66bd 3d55 883e
00000250: e960 8a3d 11a4 50be 46da 3dbe f01b 823d
00000260: 6cfa 873e 8d29 a93e 2ea8 ad3e 0d7b fe3d
00000270: 4601 39be 0375 4ebc 1f33 c6bd 87e5 813d
00000280: 82f3 85be 7976 773c 0047 67bd ae51 7a3e
00000290: c864 773c 78f1 3c3c fbe7 96bd 7e8e dcbc
000002a0: 5568 22be 0d45 35be 782f 783d 6f09 4d3e
000002b0: 8585 b4be 72c5 563e 98f2 b0be 79af 0ebf
000002c0: 64fa 923d 2334 62be 8953 cebd 068f 6a3f
000002d0: ad56 803d 95de 11bc 216f 2ebe 38ea 9a3e
000002e0: efc1 193d 5863 ed3d 4a08 a43e 8ca1 b03e
000002f0: c0b3 9b3e b74b 0ebe a34e 313e 5a25 e03d
00000300: 9f59 e43e 5def 913d 471f afbd ce93 60be
00000310: f66d dd3d 1a1b 93be 6cb6 013e 5598 083c
00000320: ec5c 96bd 9ebf e83e fd76 6ebd e5eb 703d
00000330: 4736 4abe db8a cd3d 5eb3 d2be 6692 ab3e
00000340: e49c 26be d165 d5bd 33d5 2a3e 8af8 67be
00000350: 2de8 883e 1deb 553d ebd4 6ebe 354d 48be
00000360: 5ca3 debd 2e89 28bd 6e2f a0be b8cd aabe
00000370: e21d 34bd eed7 803d 564e 173d db8a 6a3e
00000380: 0d0b eb3d c391 ca3e 9b8e 953d 5c08 0dbe
00000390: dc6d 103e 69e7 9c3e f193 8bbe 56f2 ecbd
000003a0: 590c bc3e 1f65 af3d 6cc1 bbbd 2ffa 5b3e
000003b0: 0686 7b3d 2f1f 973d 0edc 8cbe 6c06 a8be
000003c0: 9337 81be cf9a 7c3e 95c6 503e 1700 02be
000003d0: 3483 25be d12c 1c3e 97b5 8c3e bcf2 3ebe
000003e0: bf96 19be e855 c7bd 13be cabe c3bb abbe
000003f0: 4acf 6a3d 5936 143e 74f1 783d 4abf bbbe

lstm.bias_ih_l0 f4 [392]
-1.5080243 -0.80729765 -0.11519061 -0.6281509 -0.27628997 -0.10081083 -0.85642356 -0.56955206
-0.33804867 -0.22072542 -0.28667548 -0.63150305 -0.5073457 -0.1779966 -0.30999854 -0.20615013
-0.52999634 -0.5421069 -0.53994083 -0.43010345 -0.10697137 -0.18841475 -0.11304609 -0.2168492
-0.35024613 -1.4713324 -0.331894 -0.20756307 -0.29944894 -0.5715135 -1.0855252 -0.6045397
-0.18607964 -0.24858451 -0.42732415 -0.17633854 -0.47604287 -0.23731445 -1.0886246 -0.30901283
-0.3163602 -0.12571149 -0.5567587 -0.0004100356 0.14839607 -0.68753487 -0.26525584 -0.37770903
-0.23240952 -0.92204964 -0.8842084 -0.003080615 -0.9946855 -0.3011086 0.0701534 -0.20517176
-1.0247369 -0.17108272 -0.3557872 -0.043002818 -0.34040323 -0.18735868 0.15508945 -0.4101717
-0.31348142 -0.61064893 -0.5441421 -0.25256798 -0.04200436 -0.40938127 -0.36834794 -0.025142197
-0.21584325 -0.4131975 -0.30801132 -0.28665292 -0.4625713 -0.20602342 -0.46495655 0.11116581
-0.54427844 0.25863054 -0.06763375 -0.6235165 -0.09889687 -0.38806987 -0.8021309 -0.43706927
0.11093022 -0.2183342 -0.5491019 -0.55442816 -0.034643013 -0.24331057 -0.20923433 -0.8136298
-0.26062787 -0.92591786 0.05508352 -0.37073386 0.15967375 -0.17797908 -0.17303845 0.36686558
-0.2216213 -0.03090576 -0.015630573 0.05104572 -0.09278531 0.09252428 -0.13083512 0.05217157
-0.32072166 -0.3557261 0.12070873 -0.13874209 -0.16587883 0.0011327055 -0.10859982 -0.06951925
0.46641064 0.10606252 -0.0112942755 -0.77123034 -0.05028892 -0.41441035 0.0075414064 -0.20595226
-0.30689853 -0.39964378 0.061689697 0.19983688 -0.10838561 -0.1618905 -0.11120137 -0.23068552
-0.41245887 -0.04941138 0.009956568 -0.06363082 0.14112781 0.24787596 -0.47636932 0.027930249
-0.10474379 -0.0076127606 -0.027614353 0.0038612394 -0.18379742 0.66865295 -0.61142844 -0.044669166
-0.37781164 -0.39024103 -0.21303052 -0.0061817737 -0.004606697 0.42855105 0.0054137637 0.012924578
0.25224787 -0.010709343 0.009968435 -0.11012598 -0.18718836 -0.20363614 -0.15636633 0.052609727
0.12455455 0.3969663 -0.19953802 -0.09993887 -0.45272353 0.27831474 0.04403882 -0.32273808
-0.047903333 -0.43844894 -0.2149693 -0.13795261 0.49201575 -0.2943347 -0.014594019 0.121726744
0.04416533 -0.016570535 -0.093505844 -0.29893017 -0.57196146 -0.16539593 -0.39937496 0.1331628
-0.36025664 -0.012355083 -0.30289754 -0.2512472 -0.011796704 -0.02233268 0.11705499 -0.0534942
0.13767752 -0.026325122 0.03940112 0.05795681 -0.038336076 -0.016975906 -0.31794423 0.06620546
0.008328817 0.00020738524 0.16979563 0.00053808896 0.10186417 0.00042635272 0.017978434 -0.06643431
0.14415736 0.16196968 0.005972865 0.047068406 -0.08152718 0.0037821587 -0.019745791 -0.03762898
0.0770284 -0.06790282 0.0005262822 0.097964056 0.09471065 0.01796263 -0.007107597 0.010803275
0.04342068 -0.014638316 -0.017540263 0.0188791 -0.0091845235 -0.17214791 -0.038643353 0.094899945
0.030043542 -0.011669093 0.016695505 0.020626659 -0.075962715 0.06740989 0.015329852 0.046256714
0.021398468 -0.0071933875 0.31506014 0.08724513 0.0027778181 -0.091082186 -0.019256255 0.14685905
00000000: f106 c1bf 0fab 4ebf 0ee9 ebbd 7fce 20bf
00000010: e175 8dbe e975 cebd 933e 5bbf 2ace 11bf
00000020: b714 adbe d805 62be 21c7 92be 2faa 21bf
00000030: 68e1 01bf be44 36be 21b8 9ebe 0519 53be
00000040: d7ad 07bf 85c7 0abf 9039 0abf 8536 dcbe
00000050: ce13 dbbd ccef 40be b584 e7bd b70d 5ebe
00000060: 7653 b3be 9f54 bcbf 03ee a9be 6a8b 54be
00000070: 5f51 99be b54e 12bf 7df2 8abf 1dc3 1abf
00000080: a98b 3ebe f08c 7ebe 3bca dabe 1792 34be
00000090: e4bb f3be 8f02 73be 0d58 8bbf ee36 9ebe
000000a0: f7f9 a1be 83ba 00be bd87 0ebf 0cfa d6b9
000000b0: 24f5 173e 4902 30bf 9dcf 87be 1463 c1be
000000c0: c3fc 6dbe 720b 6cbf 7b5b 62bf 25e4 49bb
000000d0: b5a3 7ebf e82a 9abe 96ac 8f3d 8c18 52be
000000e0: 942a 83bf 4f30 2fbe bd29 b6be b923 30bd
000000f0: 5549 aebe f4da 3fbe c5cf 1e3e 0602 d2be
00000100: a380 a0be 7d53 1cbf e64c 0bbf 9750 81be
00000110: c40c 2cbd 6c9a d1be 1a98 bcbe 02f7 cdbc
00000120: 0306 5dbe 9f8e d3be a9b3 9dbe 2cc4 92be
00000130: 25d6 ecbe cef7 52be c90e eebe e6aa e33d
00000140: d555 0bbf 396b 843e 9083 8abd c79e 1fbf
00000150: 718a cabd 18b1 c6be 7358 4dbf 8bc7 dfbe
00000160: 622f e33d 0093 5fbe f191 0cbf 01ef 0dbf
00000170: d5e5 0dbd 6826 79be 8641 56be 0b4a 50bf
00000180: 0471 85be f408 6dbf 429f 613d d4d0 bdbe
00000190: 8481 233e 2640 36be fe30 31be ced5 bb3e
000001a0: b2f0 62be 142e fdbc b00b 80bc 5115 513d
000001b0: 3906 bebd 5f7d bd3d a4f9 05be dbb1 553d
000001c0: a135 a4be bb21 b6be 2336 f73d 6812 0ebe
000001d0: 24dc 29be 4a77 943a 9569 debd 1c60 8ebd
000001e0: 60cd ee3e 4e37 d93d a00b 39bc 5a6f 45bf
000001f0: c1fb 4dbd 982d d4be e71d f73b 26e5 52be
00000200: ce21 9dbe 1c9e ccbe 56ae 7c3d 0aa2 4c3e
00000210: 46f9 ddbd a0c6 25be 8bbd e3bd d338 6cbe
00000220: cf2d d3be 9663 4abd df20 233c e050 82bd
00000230: cf83 103e 32d3 7d3e aee6 f3be facd e43c
00000240: ea83 d6bd 7774 f9bb 7f37 e2bc d90c 7d3b
00000250: 6435 3cbe d72c 2b3f 9386 1cbf 04f7 36bd
00000260: 8770 c1be accd c7be ac24 5abe 7a90 cabb
00000270: c6f3 96bb 0b6b db3e f165 b13b 9cc1 533c
00000280: a226 813e 3d76 2fbc a652 233c bb89 e1bd
00000290: 4eae 3fbe fe85 50be 7f1e 20be 4c7d 573d
000002a0: 7516 ff3d 2b3f cb3e b253 4cbe c0ac ccbd
000002b0: 61cb e7be 457f 8e3e 0d62 343d ed3d a5be
000002c0: 4936 44bd 617c e0be ea20 5cbe 7343 0dbe
000002d0: 7de9 fb3e 0ab3 96be c11b 6fbc df4b f93d
000002e0: b4e6 343d eebe 87bc fe7f bfbd 600d 99be
000002f0: 116c 12bf 8d5d 29be e07a ccbe d45b 083e
00000300: 8f73 b8be f96c 4abc 6315 9bbe 79a3 80be
00000310: f646 41bc 06f3 b6bc 87ba ef3d bc1c 5bbd
00000320: 56fb 0c3e c8a7 d7bc 1263 213d 1f64 6d3d
00000330: 4a06 1dbd 0e11 8bbc 96c9 a2be ba96 873d
00000340: 9775 083c 8d75 5939 e8de 2d3e 8a0e 0d3a
00000350: 299e d03d 1888 df39 8247 933c b60e 88bd
00000360: fd9d 133e 61db 253e 06b8 c33b cdca 403d
00000370: b9f7 a6bd 18de 773b edc1 a1bc d820 1abd
00000380: 11c1 9d3d a210 8bbd 33f6 093a 61a1 c83d
00000390: a8f7 c13d 5e26 933c d8e6 e8bb 3800 313c
000003a0: e2d9 313d 8cd5 6fbc 99b0 8fbc 58a8 9a3c
000003b0: af7a 16bc 8b47 30be 7e48 1ebd e75a c23d
000003c0: e01d f63c b92f 3fbc 03c5 883c 3df9 a83c
000003d0: 5792 9bbd 320e 8a3d 0f2a 7b3c ae77 3d3d
000003e0: d74b af3c 82b6 ebbb 904f a13e 93ad b23d
000003f0: 0e0c 363b 4c89 babd 4bbf 9dbc 3862 163e

lstm.bias_hh_l0 f4 [392]
-1.5353377 -0.7026682 -0.017520955 -0.6850016 -0.32709888 -0.2795203 -0.9274626 -0.61338127
-0.21982315 -0.27723557 -0.18843994 -0.44834405 -0.5203881 -0.20745297 -0.19742166 -0.0672949
-0.5773981 -0.5593675 -0.65652907 -0.504617 -0.12391467 -0.052529357 -0.17563038 -0.13457474
-0.2898545 -1.550411 -0.320193 -0.16024897 -0.30864397 -0.49346757 -1.0376313 -0.7586519
-0.0015315461 -0.25174782 -0.2559459 -0.24884634 -0.50508875 -0.32678255 -1.1866202 -0.25255015
-0.3671073 -0.15551779 -0.5161843 -0.14407301 0.09535927 -0.72822237 -0.18335988 -0.37211403
-0.2779878 -0.9671959 -0.8809242 -0.01886259 -0.94997394 -0.2703325 -0.036942456 -0.22041711
-1.1102593 -0.20515065 -0.17567289 -0.03421475 -0.29455006 -0.10342026 0.10977509 -0.26686072
-0.23210078 -0.585823 -0.5192758 -0.31503886 0.0022293818 -0.39798826 -0.5582868 -0.015056417
-0.27130505 -0.4796616 -0.41035938 -0.24233454 -0.44141832 -0.25960553 -0.5755162 0.16906038
-0.65129364 0.32147786 -0.14004172 -0.48889074 -0.041895743 -0.45939538 -0.663737 -0.3543286
0.0063821212 -0.18889493 -0.39941913 -0.5722185 -0.060878623 -0.19260481 -0.18081011 -0.8442605
-0.1710397 -0.99430317 -0.03817919 -0.253455 0.06858804 -0.19266787 -0.13173401 0.28170535
-0.27529258 -0.028956832 -0.113905445 0.046316244 -0.14924337 0.17943412 -0.20695725 0.064328104
-0.31413704 -0.23265159 0.058945592 -0.2976867 -0.06402843 0.073405445 -0.11232086 -0.13522816
0.3567787 0.09564586 -0.16004673 -0.73640645 -0.10606447 -0.5149426 -0.042448748 -0.1732457
-0.37560436 -0.38104725 -0.011034244 0.26151896 -0.12274295 -0.017363114 -0.013478801 -0.12242037
-0.51520073 -0.13809556 0.060792964 -0.0029754837 0.050813552 0.23853485 -0.37295404 -0.014315149
-0.09468055 -0.09453871 -0.048113484 0.14665069 -0.2035927 0.5748635 -0.63432956 0.010061922
-0.26710126 -0.38928926 -0.16540694 0.0058317925 -0.03170619 0.43216482 0.039277446 0.16473328
0.26027048 -0.05126493 0.090530604 -0.05619362 -0.14823537 -0.10721988 -0.01677215 0.06140555
0.024759818 0.3350816 -0.12356988 -0.07319703 -0.55882096 0.23221421 0.20784838 -0.34072527
-0.01156994 -0.4285258 -0.09564343 -0.26058364 0.43473485 -0.37150615 -0.0935573 0.13135529
0.12771513 0.1035185 -0.14434542 -0.2677454 -0.53842443 -0.24643615 -0.46706355 0.0730644
-0.21629766 0.07200859 -0.3474054 -0.25065428 -0.10887547 0.059541345 0.059865505 0.066032626
0.03331025 -0.02711411 -0.006007093 -0.08093654 -0.0003481144 -0.082724735 -0.26313335 -0.044777922
-0.05281842 0.036352314 0.03229243 0.03471406 -0.08288396 0.009264135 -0.092014365 0.03246113
0.20413272 0.014076809 0.16964531 -0.046294756 -0.09951127 0.002436846 -0.026269926 -0.12070084
-0.1013545 -0.10158497 -0.0455502 -0.0513295 0.028259274 -0.029429616 0.026575977 -0.09469552
-0.067799784 -0.029739551 -0.002086251 0.01565263 0.0808897 -0.13630174 0.041661244 0.049195636
0.036929213 -0.010534874 0.0026405207 -0.047941063 -0.037343506 -0.024102626 -0.014805484 0.09909647
-0.008377563 0.0045262943 0.1884515 0.24755234 0.00701051 0.06346288 -0.06506402 0.15830526
00000000: f285 c4bf 10e2 33bf 1b88 8fbc 445c 2fbf
00000010: 8179 a7be 491d 8fbe 306e 6dbf 8e06 1dbf
00000020: 5219 61be d2f1 8dbe 66f6 40be 5a8d e5be
00000030: 2838 05bf 8d6e 54be e728 4abe e9d1 89bd
00000040: 5dd0 13bf b532 0fbf 4a12 28bf 942e 01bf
00000050: f9c6 fdbd 0629 57bd 73d8 33be f6cd 09be
00000060: cf67 94be de73 c6bf 56f0 a3be 4e18 24be
00000070: 9506 9ebe c8a7 fcbe 1ad1 84bf 0337 42bf
00000080: 29be c8ba 17e5 80be 570b 83be 93d1 7ebe
00000090: 7f4d 01bf 0b50 a7be 2ce3 97bf 414e 81be
000000a0: 7df5 bbbe 0e40 1fbe a724 04bf e087 13be
000000b0: b94b c33d c86c 3abf b1c2 3bbe bb85 bebe
000000c0: 6b54 8ebe 279a 77bf 4084 61bf b885 9abc
000000d0: 7e31 73bf 0569 8abe f950 17bd 06b5 61be
000000e0: fa1c 8ebf 0313 52be 98e3 33be c424 0cbd
000000f0: 44cf 96be 00ce d3bd c3d1 e03d f8a1 88be
00000100: d4ab 6dbe 7ff8 15bf 42ef 04bf c64c a1be
00000110: d21a 123b 1ec5 cbbe e2eb 0ebf 31af 76bc
00000120: 7fe8 8abe 3596 f5be a01a d2be 8c26 78be
00000130: 9501 e2be 04eb 84be 0855 13bf 2a1e 2d3e
00000140: 2ebb 26bf bf98 a43e 1967 0fbe e34f fabe
00000150: df9a 2bbd df35 ebbe abea 29bf 8f6a b5be
00000160: 1d21 d13b ac6d 41be aa80 ccbe e97c 12bf
00000170: dd5b 79bd 323a 45be 4926 39be 7521 58bf
00000180: 0825 2fbe a78a 7ebf c861 1cbd dbc4 81be
00000190: e377 8c3d ba4a 45be 48e5 06be af3b 903e
000001a0: 26f3 8cbe e136 edbc 4247 e9bd 1ab6 3d3d
000001b0: 41d3 18be 94bd 373e 9aec 53be 74be 833d
000001c0: 92d6 a0be 383c 6ebe ef70 713d 646a 98be
000001d0: 5621 83bd 9855 963d 7b08 e6bd 4079 0abe
000001e0: b3ab b63e fae1 c33d 4ae3 23be 2285 3cbf
000001f0: 5438 d9bd 47d3 03bf bdde 2dbd 5267 31be
00000200: 374f c0be a018 c3be f9c8 34bc d0e5 853e
00000210: a860 fbbd 173d 8ebc 30d6 5cbc 88b7 fabd
00000220: 32e4 03bf ec68 0dbe 0b02 793d 5500 43bb
00000230: df21 503d 7b42 743e d5f3 bebe 168a 6abc
00000240: e0e7 c1bd 839d c1bd a512 45bd 992b 163e
00000250: 9b7a 50be 412a 133f 6c63 22bf c2da 243c
00000260: 7fc1 88be ec50 c7be 7060 29be 9f18 bf3b
00000270: 5ade 01bd b544 dd3e 63e1 203d d7af 283e
00000280: 2c42 853e 2dfb 51bd 1c68 b93d 482b 66bd
00000290: 03cb 17be 1996 dbbd bf65 89bc 6384 7b3d
000002a0: 1ad5 ca3c d18f ab3e 3512 fdbd 53e8 95bd
000002b0: e40e 0fbf 90c9 6d3e 35d6 543e 8b73 aebe
000002c0: d88f 3dbc bc67 dbbe b4e0 c3bd 386b 85be
000002d0: 9195 de3e 0e36 bebe f89a bfbd 0082 063e
000002e0: c1c7 023e 8201 d43d 49cf 13be ed15 89be
000002f0: 2fd6 09bf c259 7cbe f422 efbe caa2 953d
00000300: 227d 5dbe 3d79 933d 1fdf b1be c255 80be
00000310: 1afa debd a0e1 733d 8835 753d 1d3c 873d
00000320: 5470 083d 691e debc 26d7 c4bb 0fc2 a5bd
00000330: 2083 b6b9 966b a9bd 6ab9 86be 0e69 37bd
00000340: 2158 58bd 2ae6 143d 1145 043d 5530 0e3d
00000350: 11bf a9bd 99c8 173c 0772 bcbd f6f5 043d
00000360: 2b08 513e 6ba2 663c 80b7 2d3e 929f 3dbd
00000370: 91cc cbbd 7eb3 1f3b 0734 d7bc 0132 f7bd
00000380: f392 cfbd c80b d0bd d992 3abd e23e 52bd
00000390: fe7f e73c 6116 f1bc ddb5 d93c baef c1bd
000003a0: 9dda 8abd 5ca0 f3bc 7cb9 08bb f239 803c
000003b0: 80a9 a53d af92 0bbe fba4 2a3d 5d81 493d
000003c0: 1643 173d 779a 2cbc 960c 2d3b d95d 44bd
000003d0: 81f5 18bd df72 c5bc b392 72bc 17f3 ca3d
000003e0: 0c42 09bc 4f51 943b 6ef9 403e 5c7e 7d3e
000003f0: 6cb8 e53b d4f8 813d 4940 85bd c61a 223e

lstm.weight_ih_l1 f4 [392, 98]
-0.55761635 0.048933513 0.2618776 0.116161354 0.32729217 0.40059927 0.071647525 -0.14607577
-0.1371896 0.27373722 0.4204444 0.39953226 0.088661864 -0.14510252 -0.13370068 0.0607765
-0.11926748 0.13324946 -0.920805 -0.26970395 -0.1723676 -0.19000906 -0.4564741 -0.16070499
-0.039715502 0.039701845 0.2152772 -0.16725814 0.22320576 -0.5024424 0.4927516 0.064278156
0.61378276 0.33394668 0.10468998 -0.39606142 0.6593295 0.26552334 -0.30123353 0.18730828
0.4883775 0.1975949 -0.435441 -0.28675425 -0.30116135 0.2911978 -0.4068531 0.50947064
0.19368008 -0.6253722 0.352097 -0.45972013 0.50858486 -0.1931392 -0.3442518 -0.010333192
0.29224876 0.3448308 -0.197444 -0.27552438 0.30286008 -0.6730746 -0.2800247 0.13078925
-0.43513578 0.28387994 -0.035860144 0.28906026 0.65892905 0.46206078 0.042287428 -0.5471053
-0.17872739 -0.44579545 0.07728966 -0.1179576 -0.5767787 0.47520024 0.6110454 -0.66979337
-0.5144598 -0.3910434 0.37355837 0.27124465 -0.4491655 0.46087298 -0.48852026 0.07230861
-0.006786123 -0.12550801 -0.3229111 0.44476247 -0.26623067 0.23157021 -0.6416161 0.6075932
0.23273927 -0.1597599 -0.016419176 0.8508973 -0.037179455 -0.3549076 -0.43756577 0.50420123
0.15754871 -0.3306046 -0.37216726 0.4029669 -0.33198565 0.27798223 -0.30690408 0.059517596
0.2628433 -0.27364102 0.18226856 0.1563191 0.13152963 -0.35172024 0.09427665 -0.014879848
-0.45725465 -0.52748173 -0.8195061 0.24076779 -0.3666672 0.6872899 0.41786087 0.017996624
0.6094342 -0.06854164 -0.011088326 0.4314834 0.16605043 -0.12547058 0.16864955 -0.015685668
-0.20687596 0.50675344 0.35628378 -0.22262546 -0.22561578 0.04345036 -0.22767617 0.11770073
0.047998335 0.37296128 0.012958077 -0.319067 0.309526 -0.10666928 0.115757145 -0.3983356
-0.53532565 -0.4394468 -0.017558066 -0.39237127 -0.52726495 -0.19272432 0.21848363 0.012947354
0.32309073 -0.112337194 -0.5915725 0.5401986 -0.03857277 0.41518852 -0.09309973 0.40356192
-0.029002413 -0.28399998 -0.4308413 -0.15485165 -0.36880523 -0.7127991 -0.20286633 0.15890558
0.053135294 0.7258027 0.03804752 0.5308488 0.4512039 -0.331929 0.18374945 0.21136472
0.11844657 -0.27890012 0.13724373 -0.33257413 0.023051884 0.1292526 0.28617892 0.6324116
-0.5013337 0.25168464 0.1455272 0.26699907 0.058106042 -0.19408669 0.63207364 0.025194947
0.101159245 0.29223892 0.015411452 -0.43477696 -0.510697 1.3040503 0.18209486 0.048521515
0.324562 -0.6427591 -0.3575865 0.5317323 0.08200803 -0.41117945 -0.95945245 -0.40035295
-0.25667858 -0.107728526 -0.7701514 -0.2174765 -0.5978407 0.18495308 0.28685483 -0.49443692
0.45266432 -0.453259 0.26231378 -0.41084647 0.36902285 0.5849537 0.32619107 -0.67286766
0.8631744 0.15920433 -0.31215525 0.3883399 0.1954086 0.30942228 -0.37766573 -0.3583549
-0.2767849 -0.08758581 -0.35449418 0.43830156 0.5572839 -0.20214769 0.23125236 -0.7613111
0.4542751 -0.91706496 -0.75406665 0.49591875 0.0112853795 0.38351908 -0.057430908 -0.106839195
00000000: f2bf 0ebf 826e 483d d214 863e 01e6 ed3d
00000010: d792 a73e 591b cd3e f0bb 923d e394 15be
00000020: 6e7b 0cbe 4927 8c3e 7d44 d73e 7e8f cc3e
00000030: 5a94 b53d c195 14be d5e8 08be c7f0 783d
00000040: 8242 f4bd 8c72 083e e0b9 6bbf a316 8abe
00000050: 2281 30be bc91 42be f9b6 e9be d98f 24be
00000060: b9ac 22bd 679e 223d a071 5c3e b845 2bbe
00000070: 0d90 643e 11a0 00bf f049 fc3e 44a4 833d
00000080: de20 1d3f 0ffb aa3e b367 d63d 90c8 cabe
00000090: d1c9 283f adf2 873e 483b 9abe becd 3f3e
000000a0: 9e0c fa3e 5156 4a3e 1ff2 debe 74d1 92be
000000b0: d231 9abe e117 953e 0d4f d0be ab6c 023f
000000c0: 1254 463e 6418 20bf 0f46 b43e 7060 ebbe
000000d0: 9e32 023f 48c6 45be c641 b0be 8c4c 29bc
000000e0: a1a1 953e aa8d b03e c32e 4abe 8811 8dbe
000000f0: 7a10 9b3e 9e4e 2cbf 665f 8fbe 9eed 053e
00000100: 1eca debe b658 913e 16e2 12bd b5ff 933e
00000110: 93af 283f 3b93 ec3e 9535 2d3d 180f 0cbf
00000120: 5004 37be 4d3f e4be 0b4a 9e3d c193 f1bd
00000130: c5a7 13bf 724d f33e 796d 1c3f 9477 2bbf
00000140: a3b3 03bf d736 c8be 0b43 bf3e 94e0 8a3e
00000150: 05f9 e5be 8bf7 eb3e 541f fabe 8916 943d
00000160: 205e debb 2c85 00be 9b54 a5be e8b7 e33e
00000170: 634f 88be be20 6d3e f440 24bf 3a8b 1b3f
00000180: 3453 6e3e 1998 23be 8281 86bc 68d4 593f
00000190: 7c49 18bd 73b6 b5be 9f08 e0be 5513 013f
000001a0: 7354 213e 0245 a9be b58c bebe ad51 ce3e
000001b0: 06fa a9be b053 8e3e 8822 9dbe b9c8 733d
000001c0: 6693 863e ad1a 8cbe 9ca4 3a3e 1d12 203e
000001d0: b4af 063e ad14 b4be 1e14 c13d 9bca 73bc
000001e0: 481d eabe 0b09 07bf 27cb 51bf d58b 763e
000001f0: cebb bbbe 3bf2 2f3f dcf1 d53e a86d 933c
00000200: e103 1c3f 8f5f 8cbd cfab 35bc 64eb dc3e
00000210: 2009 2a3e 5c7b 00be 78b2 2c3e 3b7f 80bc
00000220: 4bd7 53be 98ba 013f d46a b63e eef7 63be
00000230: d307 67be 01f9 313d f123 69be 150d f13d
00000240: e799 443d c8f4 be3e 1d4e 543c c05c a3be
00000250: 317a 9e3e 6c75 dabd 1512 ed3d a5f2 cbbe
00000260: 1a0b 09bf 2cff e0be efd5 8fbc e3e4 c8be
00000270: d6fa 06bf 8659 45be 2cba 5f3e 2321 543c
00000280: 266c a53e 0b11 e6bd 4c71 17bf 754a 0a3f
00000290: 7bfe 1dbd 9793 d43e 12ab bebd ab9f ce3e
000002a0: 7896 edbc 7268 91be 3b97 dcbe 6e91 1ebe
000002b0: 0ad4 bcbe 007a 36bf 31bc 4fbe 25b8 223e
000002c0: 65a4 593d 35ce 393f b7d7 1b3d b5e5 073f
000002d0: 3304 e73e 99f2 a9be d128 3c3e fe6f 583e
000002e0: 1e94 f23d ffcb 8ebe 9f89 0c3e 2847 aabe
000002f0: 4ed7 bc3c cb5a 043e 0b86 923e bae5 213f
00000300: 6857 00bf cfdc 803e 1505 153e 1ab4 883e
00000310: 9a00 6e3d a9be 46be 94cf 213f a265 ce3c
00000320: 942c cf3d 57a0 953e 5180 7c3c 169b debe
00000330: 0abd 02bf 1feb a63f 1377 3a3e 7fbe 463d
00000340: fe2c a63e dc8b 24bf 9415 b7be 9c1f 083f
00000350: d3f3 a73d 1d86 d2be ad9e 75bf 10fb ccbe
00000360: 606b 83be c6a0 dcbd a428 45bf 29b2 5ebe
00000370: 170c 19bf 5764 3d3e a3de 923e d626 fdbe
00000380: 9ec3 e73e 9011 e8be fe4d 863e 785a d2be
00000390: 90f0 bc3e 87bf 153f 8402 a73e 0e41 2cbf
000003a0: fff8 5c3f 7606 233e d0d2 9fbe 7dd4 c63e
000003b0: 3119 483e 996c 9e3e 675d c1be 4b7a b7be
000003c0: c0b6 8dbe 3060 b3bd 4380 b5be 1069 e03e
000003d0: 28aa 0e3f ceff 4ebe 6bcd 6c3e 49e5 42bf
000003e0: bf96 e83e c5c4 6abf 830a 41bf 10e9 fd3e
000003f0: 50e6 383c 9d5c c43e ac3c 6bbd 82ce dabd

lstm.weight_hh_l1 f4 [392, 98]
0.64441204 -0.29680988 -0.0031202012 0.48991755 -0.44545317 -0.37730265 0.651419 -0.0010462195
-0.74726593 -0.20308079 0.35794657 0.37937665 -0.068769865 -0.19647148 0.21199471 0.19628252
-0.1652956 0.27350986 0.32343128 1.0329742 0.6427881 -0.41064367 -0.27674618 0.50977933
0.7695768 -0.40915027 -0.100346684 0.021191489 0.13214566 0.16326374 0.66704035 -0.4034146
0.16576141 -0.5189942 -0.20153011 -0.24838276 -0.6363091 0.4674282 -0.2872464 -0.20598447
0.030589666 0.05721334 -0.034377027 1.0209903 -0.4266669 -0.28191572 -1.0731403 -0.34676832
-0.29419678 0.2594765 -0.099500686 0.07494326 -0.5044809 0.1808045 0.36843026 -0.055061013
0.272514 -0.9202038 -0.39063084 0.16175854 -0.31337312 -0.039018854 -0.46060693 -0.8736871
-0.48321205 0.014890185 0.59596246 0.75462 0.09809348 -0.3278662 0.08530604 0.28902638
0.124882534 -0.56218046 -0.7058514 0.104108654 -0.14739616 0.8200234 -0.38338196 0.200173
-0.09645687 -0.56363237 -0.05397469 -0.12135371 -0.49142942 0.25231662 -0.312224 0.24321271
-0.52798986 0.33867785 -1.0343685 0.32451662 0.5613703 0.28040305 1.0978029 0.032427937
0.4118583 0.72143817 -0.04811041 0.46129367 -0.62938523 0.14466178 0.7299622 0.063926294
-0.20371357 0.5766957 0.3910048 -0.55116624 -0.025790242 -0.7045212 0.6389163 -0.9349272
-0.10046268 -0.6830791 0.10254417 -0.6123991 -0.058020413 0.45437106 -0.033129897 0.35270742
0.6182119 -0.7574784 -0.13946642 0.26169622 -0.29494667 0.029305613 0.042228255 -0.6584337
-0.18408984 0.17592768 0.75132036 0.3020188 0.16855896 0.4750497 0.0094389515 -0.30073172
-0.10884198 0.50739765 0.21721077 -0.8023831 0.41204932 -0.018919138 -0.22981033 -0.34263945
-1.0850947 0.16394575 -0.063942365 0.5543733 0.5259884 0.23905385 0.29722795 0.14489381
-0.6067151 -0.6204479 -0.072645776 -0.20340791 -0.31784388 -0.17964327 -0.70248514 0.45647785
0.3039024 0.39226937 -0.462101 -0.22257349 -0.005618063 0.008791531 0.36589742 0.071792
-0.4741415 -0.33740756 -0.13981405 0.13831925 0.1014934 -0.051316105 0.58665323 0.34297112
0.32382014 -0.4009103 1.2344255 0.33698985 0.6041139 -0.69599 0.5880764 -0.037495404
-0.000981619 -0.41749707 0.5828968 -0.56899583 0.23641242 -0.6730291 -0.13812393 0.37696645
0.020845465 -0.55339575 0.10383378 -0.6168552 -0.14976029 -0.07297736 -0.06284209 0.3757888
0.24562691 -0.48872793 0.39799505 -0.09707057 -0.44153625 0.09152178 0.3166122 -0.29688224
-0.18736571 -0.36177742 -0.17705399 -0.012094096 -0.42596218 0.17692037 0.27991438 0.009683218
0.07412452 -0.38547912 -0.67459387 0.35027486 0.3693624 -0.19075544 0.207611 0.029854057
0.12845898 0.087028734 0.34778863 -0.33411705 -0.029395778 -0.08009667 -0.1491629 -0.21948256
-0.15837064 0.16303763 -0.16845615 -0.119734846 0.5322874 0.10861128 0.41186205 0.6589743
0.026324239 -0.14344724 -0.009216889 0.37343705 -0.55740565 -0.11265558 0.35838005 -0.04246316
-0.30142832 0.025597153 0.19597384 -0.1703577 0.27609196 -0.19510433 0.25801757 0.01600212
00000000: 30f8 243f 77f7 97be 4a7c 4cbb 79d6 fa3e
00000010: 7012 e4be d02d c1be 65c3 263f 4d21 89ba
00000020: d24c 3fbf 69f4 4fbe c644 b73e a83d c23e
00000030: 37d7 8cbd d22f 49be 2415 593e 49fe 483e
00000040: 4043 29be 7c09 8c3e c998 a53e 8038 843f
00000050: c38d 243f e33f d2be adb1 8dbe e680 023f
00000060: fc02 453f 257c d1be 9082 cdbd c699 ad3c
00000070: 3151 073e 9c2e 273e 28c3 2a3f 5c8c cebe
00000080: 5cbd 293e cedc 04bf e95d 4ebe 0d58 7ebe
00000090: 27e5 22bf c052 ef3e f611 93be 98ed 52be
000000a0: 2e97 fa3c 8958 6a3d edce 0cbd cfaf 823f
000000b0: 1574 dabe 4257 90be a95c 89bf 9e8b b1be
000000c0: f6a0 96be 1bda 843e 04c7 cbbd da7b 993d
000000d0: a925 01bf d124 393e e4a2 bc3e a887 61bd
000000e0: f486 8b3e 7a92 6bbf c400 c8be 08a4 253e
000000f0: 7172 a0be 3cd2 1fbd acd4 ebbe f5a9 5fbf
00000100: 9267 f7be f6f5 733c ff90 183f c72e 413f
00000110: 3ce5 c83d 14de a7be efb4 ae3d 44fb 933e
00000120: 6ac2 ff3d 0feb 0fbf adb2 34bf eb36 d53d
00000130: 05ef 16be 0eed 513f a44a c4be 27fa 4c3e
00000140: 2e8b c5bd 364a 10bf 9114 5dbd 4b88 f8bd
00000150: a39c fbbe a52f 813e d3db 9fbe c10c 793e
00000160: 582a 07bf 2f67 ad3e 3066 84bf 0b27 a63e
00000170: f7b5 0f3f fd90 8f3e ce84 8c3f 28d3 043d
00000180: 17df d23e 2cb0 383f 6c0f 45bd af2e ec3e
00000190: 641f 21bf 3822 143e cede 3a3f caeb 823d
000001a0: 4a9a 50be 54a2 133f c831 c83e 3b19 0dbf
000001b0: 0f46 d3bc 805b 34bf 0590 233f 6457 6fbf
000001c0: 61bf cdbd 46de 2ebf ae02 d23d 30c6 1cbf
000001d0: d0a6 6dbd 53a3 e83e 37b3 07bd 1196 b43e
000001e0: 2343 1e3f 1bea 41bf 49d0 0ebe 0cfd 853e
000001f0: 4003 97be 5312 f03c 89f7 2c3d 1c8f 28bf
00000200: 0c82 3cbe 6326 343e 8856 403f 35a2 9a3e
00000210: b89a 2c3e b739 f33e d5a5 1a3c 82f9 99be
00000220: 8be8 debd d0e4 013f 806c 5e3e fb68 4dbf
00000230: 21f8 d23e 4ffc 9abc 6653 6bbe 706e afbe
00000240: 62e4 8abf 65e1 273e 37f4 82bd 69eb 0d3f
00000250: 2da7 063f 88ca 743e 432e 983e 0b5f 143e
00000260: ae51 1bbf acd5 1ebf 4fc7 94bd 2a4a 50be
00000270: 6fbc a2be 68f4 37be 11d6 33bf 77b7 e93e
00000280: 1899 9b3e 88d7 c83e 8198 ecbe 4eea 63be
00000290: ba17 b8bb 5b0a 103c e856 bb3e af07 933d
000002a0: adc2 f2be afc0 acbe 6a2b 0fbe 90a3 0d3e
000002b0: c6db cf3d d630 52bd e82e 163f e999 af3e
000002c0: c1cb a53e 1d44 cdbe a801 9e3f ef89 ac3e
000002d0: 35a7 1a3f 672c 32bf 2d8c 163f c894 19bd
000002e0: aba9 80ba 2dc2 d5be ba38 153f b6a9 11bf
000002f0: 1916 723e a34b 2cbf 5c70 0dbe bf01 c13e
00000300: 1cc4 aa3c 58ab 0dbf cea6 d43d 39ea 1dbf
00000310: c35a 19be 2775 95bd 5bb3 80bd 6467 c03e
00000320: 9f85 7b3e 8c3a fabe 02c6 cb3e efcc c6bd
00000330: 0a11 e2be c56f bb3d ff1a a23e f300 98be
00000340: ccdc 3fbe e43a b9be a44d 35be 5126 46bc
00000350: b717 dabe 9d2a 353e f050 8f3e 5ca6 1e3c
00000360: 99ce 973d 855d c5be 2fb2 2cbf 3a57 b33e
00000370: 121d bd3e 6555 43be fa97 543e 7f90 f43c
00000380: c08a 033e 1f3c b23d 5a11 b23e 6411 abbe
00000390: 6acf f0bc b909 a4bd 29be 18be 09c0 60be
000003a0: ea2b 22be 56f3 263e c57f 2cbe 8b37 f5bd
000003b0: fd43 083f 976f de3d 95df d23e 8ab2 283f
000003c0: eea5 d73c d5e3 12be 6f02 17bc 2433 bf3e
000003d0: 23b2 0ebf f8b7 e6bd 977d b73e daed 2dbd
000003e0: d054 9abe 1fb1 d13c 5ead 483e 4072 2ebe
000003f0: ed5b 8d3e 6ec9 47be e11a 843e e116 833c

lstm.bias_ih_l1 f4 [392]
-0.12990178 -0.049490586 0.025524259 0.06400628 -0.45669788 -0.02337136 -0.05113311 -0.12330163
-0.21076104 0.0810477 -0.74440134 -0.1250158 0.3242973 0.24861577 -0.09590761 -0.2611445
-0.12224583 -0.2772146 -0.0350312 -0.09538694 0.02927121 -0.1803295 -0.039772976 -0.152273
-0.19609834 -0.048528623 -0.49966976 -0.17276733 -0.26626858 -0.06501462 -0.11682372 -0.14603248
-0.08548163 -0.34407577 -0.4292285 -0.25137293 0.10587671 -0.061556388 -0.29521462 -0.21480656
-0.15852758 -0.2453701 -0.16163135 -0.3751241 -0.22838081 -0.08124591 -0.26998338 -0.26233155
-0.41138616 -0.23483406 0.013862917 -0.35153964 -0.24166173 -0.14932963 -0.017681645 -0.39964673
-0.24009404 -0.1658996 -0.08012858 -0.2366404 0.2525696 0.16129045 -0.8106086 -0.3908301
-0.41284376 -0.18636683 -0.004327601 0.10918887 -0.05709072 0.081255905 -0.02151133 -0.052299555
-0.15758702 0.15166236 0.12039067 -0.39722592 0.027126878 -0.05680284 -0.1916563 -0.11054543
-0.32159168 -0.45846224 0.08930701 0.057936862 0.22050378 -0.44403908 -0.2845828 0.002537806
-0.14429465 -0.4517202 -0.17288151 -0.32961905 -0.066724926 -0.120336965 -0.21154404 -0.4162288
-0.16000083 -0.17659262 -0.015929865 0.20822334 -0.16812763 -0.195985 -0.20373774 0.04276977
0.21697745 0.07953454 -0.20129839 -0.16552448 -0.101005614 0.06337947 0.3367845 -0.28095558
-0.19596058 -0.27272275 0.19670819 -0.2226775 -0.37037218 0.00979761 -0.05400007 -0.0643253
-0.10710955 0.38366714 0.327054 0.084143445 -0.21245468 -0.0158717 -0.16700563 0.1044998
-0.33804706 0.2697735 0.06833996 -0.15702517 0.019310683 -0.18952698 -0.14765075 0.29246604
0.20850478 0.04051013 0.06383099 -0.09875601 -0.3445772 -0.055977263 -0.18671313 -0.21524349
0.44004408 -0.056264617 -0.52154976 -0.2225198 -0.25852636 0.31631833 -0.02153403 0.16971695
0.042887866 -0.26558352 -0.05657528 0.057888888 0.056797177 -0.024121704 -0.37488124 -0.29494387
-0.22959638 -0.26211342 0.35391808 0.44520262 -0.4453991 -0.054639302 -0.19607712 0.564577
-0.5831429 0.12188932 -0.48609695 0.055493888 0.09685597 -0.06303104 -0.22802636 -0.2372118
-0.0449176 -0.025828568 0.5742131 -0.2811442 0.3252562 0.15768301 0.043921817 -0.24198341
-0.053463783 -0.037522588 0.06494902 -0.21286838 -0.24118961 -0.12599248 -0.1546267 -0.16173641
-0.041866757 -0.43488 0.15489392 -0.09784974 0.048758592 -0.16324575 -0.24638622 0.1304466
0.138994 0.09923391 0.04458335 0.510984 -0.19953312 -0.12871312 0.07016948 -0.005633431
0.16341093 -0.35118216 -0.28707546 -0.22876818 0.104899876 -0.0931436 -0.043040432 -0.087635316
0.09869178 0.100609675 0.074960105 -0.0689969 0.15596384 0.34895715 -0.17325346 0.09156618
0.10193555 -0.034912787 -0.024229348 0.1208579 0.29130587 0.086210005 0.006180809 0.023884319
-0.28024083 -0.11113228 0.030641599 0.24768946 -0.049142987 -0.23249641 0.5011603 0.003926231
0.13636756 -0.12907757 -0.28721383 0.011712283 0.1064588 -0.17833143 0.30482543 -0.03288204
0.042916946 -0.1891038 -0.10747566 -0.19231412 -0.20406352 -0.04800765 -0.03280174 -0.006238413
00000000: f904 05be a4b6 4abd 4018 d13c b915 833d
00000010: 4ed4 e9be 4b75 bfbc f470 51bd 9185 fcbd
00000020: bed1 57be 56fc a53d 1691 3ebf 2404 00be
00000030: 4c0a a63e 2295 7e3e 366b c4bd bbb4 85be
00000040: 065c fabd 12ef 8dbe e07c 0fbd 3a5a c3bd
00000050: 2dca ef3c 4ca8 38be fde8 22bd 74ed 1bbe
00000060: 01ce 48be f3c5 46bd b7d4 ffbe ebe9 30be
00000070: 5b54 88be 6326 85bd 4641 efbd 8a89 15be
00000080: fe10 afbd b32a b0be d7c3 dbbe f4b3 80be
00000090: e3d5 d83d 8d22 7cbd 5f26 97be 40f6 5bbe
000000a0: 0e55 22be 4d42 7bbe b082 25be 4410 c0be
000000b0: a9dc 69be 4164 a6bd 433b 8abe 5250 86be
000000c0: 35a1 d2be 5778 70be 4a21 633c 01fd b3be
000000d0: 2c76 77be dee9 18be 19d9 90bc 7f9e ccbe
000000e0: 36db 75be 96e1 29be 741a a4bd dc51 72be
000000f0: cd50 813e 5329 253e 0c84 4fbf e21a c8be
00000100: 4260 d3be f2d6 3ebe 8cce 8dbb 6a9e df3d
00000110: f5d7 69bd 7f69 a63d 8738 b0bc 0f38 56bd
00000120: 7e5e 21be 614d 1b3e 628f f63d 3261 cbbe
00000130: 3039 de3c 18aa 68bd 8d41 44be a465 e2bd
00000140: aaa7 a4be 90bb eabe 98e6 b63d 344f 6d3d
00000150: becb 613e 1759 e3be d6b4 91be 5251 263b
00000160: fac1 13be df47 e7be da07 31be d4c3 a8be
00000170: 14a7 88bd 3a73 f6bd 009f 58be f11b d5be
00000180: 42d7 23be b2d4 34be 597f 82bc 8038 553e
00000190: a629 2cbe 4bb0 48be a0a0 50be 5b2f 2f3d
000001a0: 562f 5e3e 01e3 a23d 2a21 4ebe 407f 29be
000001b0: 08dc cebd 18cd 813d 056f ac3e 69d9 8fbe
000001c0: e4a9 48be 51a2 8bbe df6d 493e 9205 64be
000001d0: 6ca1 bdbe 2886 203c 2d2f 5dbd fcbc 83bd
000001e0: 405c dbbd 0570 c43e 9f73 a73e 6653 ac3d
000001f0: b88d 59be 5e05 82bc 8603 2bbe fe03 d63d
00000200: 8114 adbe c11f 8a3e d2f5 8b3d 35cb 20be
00000210: 7031 9e3c 5c13 42be c231 17be 1cbe 953e
00000220: 4782 553e f3ed 253d d2b9 823d 9740 cabd
00000230: 6c6c b0be 6a48 65bd ba31 3fbe ca68 5cbe
00000240: 754d e13e ba75 66bd 4984 05bf 3bdc 63be
00000250: 915d 84be 7af4 a13e 2268 b0bc 48ca 2d3e
00000260: 30ab 2f3d 90fa 87be 7bbb 67bd e61c 6d3d
00000270: 28a4 683d e19a c5bc 6ff0 bfbe e202 97be
00000280: 501b 6bbe bb33 86be c034 b53e 99f1 e33e
00000290: 5a0b e4be 76cd 5fbd 71c8 48be 1e88 103f
000002a0: da48 15bf 1ca1 f93d b3e1 f8be 8f4d 633d
000002b0: 6c5c c63d 6b16 81bd be7f 69be a6e7 72be
000002c0: 84fb 37bd 6f96 d3bc a1ff 123f 22f2 8fbe
000002d0: fb87 a63e a877 213e 5de7 333d 80ca 77be
000002e0: d7fc 5abd 49b1 19bd fe03 853d 2bfa 59be
000002f0: 69fa 76be 2c04 01be 7656 1ebe 3b9e 25be
00000300: 7a7c 2bbd 97a8 debe 839c 1e3e 7265 c8bd
00000310: 17b7 473d e529 27be ab4c 7cbe cb93 053e
00000320: 7154 0e3e 263b cb3d 089d 363d d9cf 023f
00000330: 6952 4cbe 5fcd 03be 04b5 8f3d a598 b8bb
00000340: 3255 273e 26ce b3be 8efb 92be 3542 6abe
00000350: bfd5 d63d 12c2 bebd 2a4b 30bd 257a b3bd
00000360: ea1e ca3d 720c ce3d af84 993d 3f4e 8dbd
00000370: fcb4 1f3e 83aa b23e 5b69 31be 0d87 bb3d
00000380: 96c3 d03d b600 0fbd a07c c6bc 5984 f73d
00000390: 0b26 953e df8e b03d 6288 ca3b 0ca9 c33c
000003a0: ba7b 8fbe 5299 e3bd 1704 fb3c 4ea2 7d3e
000003b0: 284a 49bd 8a13 6ebe 0b4c 003f 9da7 803b
000003c0: f0a3 0b3e e92c 04be b10d 93be e0e4 3f3c
000003d0: 1207 da3d 849c 36be 1412 9c3e 51af 06bd
000003e0: aec9 2f3d 6da4 41be 331c dcbd feed 44be
000003f0: 07f6 50be aba3 44bd 1e5b 06bd 9a6b ccbb

lstm.bias_hh_l1 f4 [392]
-0.20897616 -0.09605445 -0.027554309 -0.102626756 -0.44732055 -0.041209564 0.07580253 0.03616925
-0.22334425 0.06251859 -0.69187784 -0.09142562 0.24602504 0.17659983 -0.19429676 -0.19715597
-0.15535256 -0.32219198 -0.013476032 -0.15100971 0.031533003 -0.17153008 0.007291354 -0.115904585
-0.15729155 -0.11681116 -0.340755 -0.12709503 -0.2879019 0.009501297 -0.051993575 -0.026032144
-0.040026117 -0.34499732 -0.34582672 -0.21131009 0.01802464 -0.043094534 -0.27679628 -0.31171337
-0.29400942 -0.19064116 -0.15807082 -0.2982884 -0.27157676 -0.16953711 -0.1427029 -0.1716568
-0.30398682 -0.37321937 0.13446745 -0.29252928 -0.31674358 -0.23612037 -0.0600855 -0.39371127
-0.2970934 -0.11477441 -0.15342511 -0.32651302 0.10106278 0.15285927 -0.6860364 -0.42768255
-0.4792018 -0.26714867 0.1271973 0.028818881 0.033214126 0.1338382 -0.023145968 0.027098361
-0.0738863 0.2775824 0.14613985 -0.4671401 0.013677187 -0.13428052 -0.1485316 -0.06670237
-0.4779718 -0.6036033 0.018632814 0.021199461 0.1791453 -0.39560768 -0.17691854 0.010590479
-0.090731785 -0.45752338 -0.11798183 -0.52521706 -0.056720577 -0.18510287 -0.28049904 -0.43534058
-0.1716877 -0.08317879 -0.0106562665 0.073296845 -0.1822345 -0.19886363 -0.2148364 0.01780773
0.21146597 0.09577534 -0.10309269 -0.0018481181 -0.29075944 0.15185305 0.42879984 -0.34159255
-0.21775779 -0.32369965 0.09687441 -0.1829452 -0.29802206 0.16911906 -0.22308612 0.095383465
-0.04165144 0.30700174 0.49046874 0.2554722 -0.24993709 0.001147167 -0.21454598 0.085848205
-0.4171503 0.30094108 0.12570295 -0.26530433 -0.07191028 -0.15530269 -0.22048277 0.19648114
0.08996575 -0.04337846 0.124459624 -0.09148559 -0.3847677 0.070046075 -0.2244076 -0.24898358
0.47251993 -0.09458962 -0.45460507 -0.20455667 -0.27958146 0.25079146 0.026729418 0.17940211
0.044955228 -0.25830883 -0.05423482 0.016869027 0.07164358 -0.047494516 -0.27199385 -0.3011219
-0.26361525 -0.21150118 0.47104567 0.41213852 -0.40957114 0.09165084 -0.19970499 0.5225008
-0.6710938 0.11275129 -0.330878 -0.021569189 0.07001302 -0.057273194 -0.14821027 -0.28123224
-0.12492487 0.04983633 0.48640105 -0.32871488 0.1642354 0.0028069604 -0.08222226 -0.2218199
-0.13535906 -0.15066966 0.14540552 -0.3515588 -0.15515158 -0.06874373 -0.08804991 -0.013842022
0.006351677 -0.37628287 0.035237808 -0.18193771 -0.06844283 -0.10228067 -0.2598229 0.12874553
0.21329089 0.24556075 0.15181297 0.44539765 -0.11557835 -0.27746844 -0.053952277 -0.055152107
0.12803373 -0.34131396 -0.41616538 -0.22843307 0.2923272 0.05552649 -0.09176095 -0.112288885
0.17256255 -0.009833623 0.09211463 -0.14483799 0.1854888 0.30561048 -0.20665613 0.09829023
0.1753501 -0.07007402 -0.09635237 -0.03725316 0.32960993 0.015664322 0.014855758 0.07576989
-0.28575122 -0.09391143 0.05974928 0.2334159 -0.046497524 -0.17878222 0.44728926 0.047895
0.16070908 -0.26387545 -0.29849678 -0.041168578 -0.023119124 -0.047436144 0.28901616 0.05450411
-0.08030713 -0.02012475 -0.07089728 -0.31201342 -0.16771732 0.029105306 0.026865074 -0.0107360855
00000000: d9fd 55be 32b8 c4bd 93b9 e1bc fa2d d2bd
00000010: 3307 e5be 5ccb 28bd 5b3e 9b3d 3526 143d
00000020: 5bb4 64be bf09 803d e81e 31bf 5b3d bbbd
00000030: fded 7b3e 96d6 343e bbf5 46be 41e3 49be
00000040: be14 1fbe 59f6 a4be 93ca 5cbc 4aa2 1abe
00000050: c028 013d 95a5 2fbe 4fec ee3b 625f edbd
00000060: 0911 21be b13a efbd 7077 aebe 3325 02be
00000070: e167 93be 54ab 1b3c 37f7 54bd 5d41 d5bc
00000080: 6df2 23bd 7da3 b0be 3310 b1be ac61 58be
00000090: 69a8 933c e583 30bd 3eb8 8dbe e598 9fbe
000000a0: 6788 96be 7037 43be 51dd 21be 42b9 98be
000000b0: 1c0c 8bbe 239b 2dbe b620 12be cdc6 2fbe
000000c0: 29a4 9bbe 9c16 bfbe d6b1 093e 66c6 95be
000000d0: 372c a2be 8ac9 71be 371c 76bd 8694 c9be
000000e0: a01c 98be d90e ebbd 791b 1dbe b72c a7be
000000f0: 01fa ce3d 2487 1c3e 15a0 2fbf 35f9 dabe
00000100: f059 f5be b6c7 88be 0240 023e 9315 ec3c
00000110: 890b 083d e20c 093e 9d9c bdbc 62fd dd3c
00000120: b351 97bd 481f 8e3e afa5 153e fd2c efbe
00000130: 4816 603c d580 09be ab18 18be 419b 88bd
00000140: b8b8 f4be bf85 1abf d8a3 983c 7eaa ad3c
00000150: de71 373e 178d cabe 222a 35be b083 2d3c
00000160: 96d1 b9bd 8140 eabe 75a0 f1bd a074 06bf
00000170: d653 68bd 9b8b 3dbe 929d 8fbe f6e4 debe
00000180: e7ce 2fbe a459 aabd 9f97 2ebc a81c 963d
00000190: ae9b 3abe e8a2 4bbe 13fe 5bbe 84e1 913c
000001a0: 898a 583e dd25 c43d 4322 d3bd 8e3c f2ba
000001b0: 6cde 94be 5e7f 1b3e a78b db3e 38e5 aebe
000001c0: e6fb 5ebe f6bb a5be 1766 c63d fd55 3bbe
000001d0: 5996 98be 8c2d 2d3e b070 64be 6858 c33d
000001e0: b39a 2abd 552f 9d3e b81e fb3e 41cd 823e
000001f0: 82ef 7fbe 895c 963a f1b1 5bbe 2fd1 af3d
00000200: b994 d5be f314 9a3e 46b8 003e f8d5 87be
00000210: b245 93bd ab07 1fbe 3cc6 61be 5a32 493e
00000220: f73f b83d 9dad 31bd b0e4 fe3d cc5c bbbd
00000230: 4600 c5be 5174 8f3d 1bcb 65be 8df5 7ebe
00000240: 22ee f13e 34b8 c1bd ffc1 e8be 4e77 51be
00000250: 4d25 8fbe bd67 803e a7f7 da3c 30b5 373e
00000260: f922 383d 0e41 84be 5525 5ebd ea30 8a3c
00000270: dfb9 923d 9c89 42bd c742 8bbe a62c 9abe
00000280: 94f8 86be c493 58be e62c f13e d203 d33e
00000290: 4fb3 d1be 70b3 bb3d 777f 4cbe 9dc2 053f
000002a0: cecc 2bbf 26ea e63d d768 a9be deb1 b0bc
000002b0: fc62 8f3d 4c97 6abd 6fc4 17be acfd 8fbe
000002c0: 9cd8 ffbd 2e21 4c3d 8f09 f93e 514d a8be
000002d0: 532d 283e fbf4 373b 2564 a8bd c224 63be
000002e0: 919b 0abe 2649 1abe 2fe5 143e 84ff b3be
000002f0: 0ee0 1ebe 83c9 8cbd 8353 b4bd a6c9 62bc
00000300: ba21 d03b 26a8 c0be 8555 103d e14d 3abe
00000310: c12b 8cbd 8778 d1bd 8207 85be ded5 033e
00000320: ed68 5a3e 4774 7b3e dc74 1b3e 290b e43e
00000330: 58b4 ecbd 5810 8ebe 10fd 5cbd 2de7 61bd
00000340: 461b 033e b4c0 aebe a113 d5be 5cea 69be
00000350: e9ab 953e bf6f 633d 2aed bbbd b7f7 e5bd
00000360: 3db4 303e 341d 21bc 98a6 bc3d 6950 14be
00000370: c7f0 3d3e fa78 9c3e aa9d 53be 634c c93d
00000380: fa8e 333e f882 8fbd 6454 c5bd c596 18bd
00000390: a2c2 a83e 7752 803c 9165 733c 3e2d 9b3d
000003a0: fc4d 92be a354 c0bd a9bb 743d 9404 6f3e
000003b0: 3074 3ebd b012 37be 1903 e53e 8c2d 443d
000003c0: ec90 243e af1a 87be 92d4 98be 62a0 28bd
000003d0: 5164 bdbc 674c 42bd edf9 933e b43f 5f3d
000003e0: 1178 a4bd a9dc a4bc 9832 91bd 39c0 9fbe
000003f0: 17be 2bbe 406e ee3c 2514 dc3c 68e6 2fbc
