models/lstm3.pth (torch, 6619 bytes, 8 tensors)

lstm.weight_ih_l0 f4 [40, 1]
00000000: 2cfc 843e 8a51 0b3e 4e78 27be cf45 593d
00000010: b5c1 a03e 0e25 0840 539f a8bf 5c29 58bd
00000020: 27f7 1e3d 8983 913f bafe 353f 767a 6ebf
00000030: ad8e b23e 3ae3 ffbd ee72 ffbd 65fe fcbe
00000040: b120 e33f 55e4 893e c728 7f3f 05a0 87bf
00000050: 6307 8a3d 05dd 433d 8542 5abd 0575 aa3e
00000060: 58a3 d33d c866 78be b2fd 3abf da50 303d
00000070: b9f6 d63e eb2f b9bf 1117 0e3e 7d66 1cbf
00000080: 1608 da3e 7be3 09bf 078f b13d db1f 6d3f
00000090: c1b1 a4bf ddc7 ffbc d096 6b40 4402 623f
0.25973642 0.13605323 -0.16354486 0.05304509 0.31397787 2.1272616 -1.3173622 -0.05277382
0.03880992 1.1368266 0.71091807 -0.9315561 0.34874478 -0.12494512 -0.12473093 -0.49412838
1.7744352 0.26932016 0.99671596 -1.0595709 0.0673969 0.047818203 -0.053286094 0.33292404
0.1033389 -0.24257958 -0.7304336 0.043045856 0.4198511 -1.4467748 0.13875987 -0.61093885
0.42584294 -0.5386273 0.086698584 0.9262673 -1.2866746 -0.031223232 3.6810799 0.8828471

lstm.weight_hh_l0 f4 [40, 10]
00000000: 0e8e c2bf a634 c23e 137f 9abf cb9c f2bd
00000010: 8e05 7abf 6806 cb3e 69e9 f1bd 8677 413f
00000020: 38fe 59bf 5861 ac3f 60e6 3a3f d9cc b7be
00000030: 35bd febf d493 233e 22a9 c4be fb55 7b3d
00000040: 8de9 92bf d107 7bbe 59a6 0c3f 741d 23bf
00000050: 9815 5a3f e578 8b3f d1c3 f2be 5b4b 073f
00000060: 0691 0b3d 3cd3 4cbf d8d4 86bd 27bd 5ebe
00000070: 42f8 19be 3c71 22bf 4e45 c53f 8cbd 353f
00000080: 062e a2be c381 273e ac9e b2be 0501 81bf
00000090: 0a80 a13c 98d1 653f 2f54 0a40 0525 03bd
000000a0: e019 673f 1f4f 053f 5aaa dcbe f5dc a63f
000000b0: 5dd9 debe a2d7 efbf e254 5b3e 1a42 19bf
000000c0: 8460 b7bd 4d1f 413f e95e f03f bc93 cabd
000000d0: a925 08c0 ad70 e4bf 479e 3e3f d963 c9bf
000000e0: ee56 5a3f e08e 443f 28f4 32bf 7c54 893f
000000f0: 6006 9a3f a14d 403f 63e3 96bf 2ecf cf3f
00000100: fa87 acbf 1d5d b43e d936 a23e df33 acbf
00000110: 0bd3 f63e 5a93 6fbf 7b91 e43e 28b2 cd3f
00000120: 8195 20bf 6df5 e2bd 82a4 93bf 73ec 183e
00000130: 3238 aabe 3ff8 f1be c85c 76be 5517 933f
00000140: 2137 a23f 7aad 023f 03a2 d3bf 4868 8540
00000150: f219 863d 7f61 d3bf 980b fe3e 966e 55bf
00000160: ed3c 90bf 36b0 ed3e 71f1 0940 d4ed 42bf
00000170: e5fc 5abf fb97 d0bf 0e3e e83d 7ff6 fdbd
00000180: cbde 1740 4d08 013f a78c 5bbf 3458 833e
00000190: 751f 4d3f d6a8 f1bf c5d3 b73f fee3 1fc0
000001a0: c3dc bb3f 5eaa 6abf 94a1 e43f 31b5 f93e
000001b0: 19fc 3040 2a9a c7bf 1b68 c63e 900b 1fbf
000001c0: f56f 80bd f668 30be 41a4 453f 83ba b13e
000001d0: e0ba 8c3f 16a9 b73d f670 803f f51b 8fbf
000001e0: 15a6 633f 1587 d6be 77f4 3f3f a679 68bd
000001f0: 8760 4e3e 70c3 d03e 460e 803f bdec de3f
00000200: 7f8c 81bd 899e 7a3e 7071 bfbe b844 cc3c
00000210: a4f8 0e3f 60bb a6bf 5abf f63e aa07 c6be
00000220: 6674 a3bf c651 87bf aad4 293f 2da4 75bf
00000230: 46b8 27bd 02f3 7dbf fd87 1c3f 9899 0a3f
00000240: bb47 083f 6722 ae3e 4080 1fbf ee74 f1bd
00000250: aee7 8c3e 1e0e b53d 28d6 4fbe 2a75 c73d
00000260: d4ab 46bf ab87 7ebf 4726 933f e410 853e
00000270: 6653 dd3f bdf9 81bf 6b41 59bf 1679 253e
00000280: 4c56 ebbe 2e33 1dbe c443 e03e 69bf 5e3c
00000290: a8b9 253e 1b78 e8bf 5ef4 82bf ac6c 6f3f
000002a0: 2402 8ebf e0d4 cbbe 3b06 07bf 061b a1bf
000002b0: f1eb 1240 baef 8fbf e529 c63e 3d4a 2540
000002c0: 58cc bd3f bdc5 de3c d68f b83f 52d4 93be
000002d0: 3d9f 8d3d b963 06bf 7b34 6a3e b068 8ebf
000002e0: edc0 8b3f 351f 65bf 7f8f 8ebf e404 ad3f
000002f0: c397 2bbe d0f4 2ebf 5111 e13f c9f7 82bf
00000300: d6a6 803f 1add c6bf a88d a53f 4f5e 7e3f
00000310: 5e4c 37c0 da43 593e 6504 6c40 62f9 febe
00000320: a2be 9e3e cede 473f dcaf 03bf 720c f93e
00000330: 4ec4 11bf e2ca 323f b809 22be b4b6 523f
00000340: ad6c f0bf e03e 783e e64c e4be 4458 4e3e
00000350: 0444 463f 24c6 383e 11dc 5fbf a593 aebf
00000360: 3e9a 3d3f a47a 763e dc84 293f 844a df3d
00000370: 61f2 623f 6188 b1be 14e1 803c 434e 79bf
00000380: 1248 093f b684 c53d 7c5d a9bd 77c6 cf3f
00000390: 3622 413d e1f8 5cbf 2da3 fc3d fbf1 46bf
000003a0: e8b8 383c 9c87 4e3d 9e8c b33e 3ce5 acbe
000003b0: eeb3 b2bd e19f 5abf f4f8 b4bf 28b1 f03e
000003c0: 485d f23f 4a99 88be 4b01 683f 7e3f 073c
000003d0: ce10 2b3f ea63 d9bc 8cfc c93b b992 953f
000003e0: 5dc5 82bf 4dcf 07bf ba7d eb3f 6e81 1bc0
000003f0: 1d6a 94bd 3323 56be b4f0 ec3f dde9 ab3f
-1.5199602 0.37930793 -1.207003 -0.11846312 -0.97664726 0.39653325 -0.118120976 0.75573003
-0.8515353 1.3467207 0.73007774 -0.35898474 -1.9901491 0.1597436 -0.38410288 0.061361294
-1.1477524 -0.245147 0.54941326 -0.63716817 0.851892 1.0896269 -0.4741502 0.5284936
0.034073852 -0.8000982 -0.065835655 -0.21751843 -0.15036109 -0.6345403 1.5411775 0.7099235
-0.31675738 0.16358094 -0.34886682 -1.0078436 0.019714374 0.8977294 2.1613882 -0.032017726
0.9027386 0.52073854 -0.43098718 1.3036181 -0.4352521 -1.8737681 0.21419099 -0.5986649
-0.08953956 0.75438386 1.8778964 -0.09891459 -2.1272986 -1.7846886 0.7446026 -1.5733596
0.85288894 0.7678051 -0.699038 1.0728908 1.2033195 0.7511845 -1.1788143 1.6235101
-1.3478997 0.3522729 0.3168247 -1.345333 0.48207888 -0.93584216 0.44642243 1.6069994
-0.62728125 -0.110819675 -1.1534579 0.14933948 -0.33246 -0.4725971 -0.2405883 1.1491495
1.2673074 0.51045954 -1.6533817 4.1689796 0.065479174 -1.6514128 0.4961822 -0.83371866
-1.1268593 0.464235 2.1553614 -0.76144147 -0.85542136 -1.6296381 0.11339961 -0.12400531
2.3729732 0.5040329 -0.85761493 0.2565323 0.80126125 -1.887965 1.4361502 -2.4982905
1.4676746 -0.9166621 1.786181 0.4877105 2.7653868 -1.5593922 0.387513 -0.6212702
-0.06271354 -0.1722754 0.77203757 0.3471261 1.099453 0.089677975 1.0034473 -1.1180407
0.88925296 -0.41899934 0.749824 -0.056756638 0.2015401 0.40774107 1.0004356 1.7415997
-0.06325626 0.24474539 -0.37391233 0.024935111 0.55848145 -1.3025932 0.48192865 -0.38677722
-1.2769897 -1.057183 0.66340125 -0.9595364 -0.04094722 -0.99198925 0.61145 0.54140615
0.5323445 0.34010622 -0.6230507 -0.11789881 0.27520508 0.08840583 -0.20296538 0.09739144
-0.7760594 -0.9942576 1.1496056 0.2598945 1.7291076 -1.0154339 -0.84865445 0.16159472
-0.45964277 -0.15351555 0.438017 0.01359544 0.16184103 -1.8161653 -1.0230825 0.93525195
-1.1094403 -0.39810848 -0.5274388 -1.2586372 2.2956507 -1.1245034 0.38703838 2.5826561
1.4827986 0.027193898 1.4418895 -0.28872925 0.06915138 -0.52495915 0.22871582 -1.1125698
1.0918251 -0.89500743 -1.1137542 1.3517118 -0.16757111 -0.68342304 1.758341 -1.0231868
1.0050914 -1.5536225 1.2933855 0.99362653 -2.864036 0.2121729 3.6877682 -0.4979964
0.31004816 0.7807435 -0.51440215 0.48642308 -0.5694016 0.69840825 -0.1582402 0.8231003
-1.8783165 0.24242735 -0.4458992 0.20150858 0.77447534 0.18044335 -0.8744517 -1.3638808
0.7406348 0.24070221 0.6621835 0.109028846 0.8865109 -0.3467436 0.015732326 -0.9738504
0.53625596 0.09644453 -0.08269784 1.6232442 0.047151767 -0.8631726 0.12335811 -0.7771298
0.011274554 0.050422296 0.3506822 -0.33768642 -0.08725725 -0.85400206 -1.4138474 0.4701016
1.8934717 -0.2667945 0.9062697 0.008254884 0.66822517 -0.0265369 0.006164139 1.1685401
-1.021648 -0.5305069 1.8397744 -2.4297748 -0.07246802 -0.20911865 1.8510957 1.3430744

lstm.bias_ih_l0 f4 [40]
00000000: 06c4 e4be 465c 10be dca7 803b f2ab 38bf
00000010: 3d9f 01bf d8c5 373e e0e6 023e b800 0cbf
00000020: 503e 88bd 40b3 80bf fcbc 933e ea6d 5d3f
00000030: 13f8 2d3f d80e 0e3f c865 a43f 552a b43f
00000040: a534 243f 5e92 263f a093 d23e a4e7 983e
00000050: 9f59 a13d 5359 69be a9fb e1be f0b4 98be
00000060: 629e cabd f284 b43e bc24 3ebd 6046 ca3d
00000070: 186d fbbe c7e7 853e 8142 b43e f030 403e
00000080: f92c 9a3f 6a95 ed3e a280 0e3f cb9e 1a3f
00000090: 927e d53e 9f98 78be 8a69 ae3f cb7b 673f
-0.44680804 -0.140977 0.0039262604 -0.7213737 -0.50633603 0.17946565 0.12783384 -0.54688597
-0.0665251 -1.0054703 0.2885512 0.8649584 0.67956656 0.554914 1.2843561 1.4075419
0.6414283 0.6506709 0.41128254 0.29864228 0.07878422 -0.2278798 -0.44137314 -0.29825544
-0.098934904 0.3525768 -0.04642175 0.09876704 -0.4910667 0.26153395 0.35206988 0.18768668
1.2044975 0.46403056 0.5566503 0.6039855 0.41698128 -0.2427697 1.3625958 0.9042327

lstm.bias_hh_l0 f4 [40]
00000000: 0df4 20bf 1d9b dbbe 3a9c 703e 8069 08bf
00000010: 2d03 d1be b603 27be 71c0 a83e 9e0a 15be
00000020: 98ca 35be 091e 81bf 1b6e 423c 0790 493f
00000030: 094e f03e 69ca 523f e885 b93f cb94 983f
00000040: 83f7 a13e 41d7 953e f4c5 8a3e eb99 2b3e
00000050: 5c8d 4bbe e173 aabc 8431 32be e585 9dbd
00000060: 00b7 8bbe fc7e 14be 6a4b 8b3d 0c62 f63c
00000070: 15e2 41be 26c1 86be b401 a93e 3f2d 823e
00000080: ab80 b03f 9d15 093e a3ac 263f cddd 6f3e
00000090: ebcb fb3e 42d5 3cbe 229e ba3f 4c31 943f
-0.6287239 -0.4289178 0.23497096 -0.5328598 -0.40822735 -0.1631001 0.3295932 -0.14554831
-0.17753065 -1.0087291 0.0118670715 0.78735393 0.46934536 0.82340103 1.449399 1.1920408
0.3163415 0.29265788 0.2710415 0.16757934 -0.19878143 -0.020807208 -0.17401701 -0.07691554
-0.27288055 -0.14501566 0.068014935 0.03007605 -0.189339 -0.26319236 0.33009112 0.25425145
1.3789266 0.13387151 0.6510717 0.23424454 0.49179015 -0.18440726 1.4579508 1.1577544

fc1.weight f4 [32, 10]
00000000: 1c74 553f 43fd d3be d78a babe 9f8d 7fbe
00000010: 7026 53bf be03 e33c 3022 10bd c579 f23e
00000020: 637e 2a3f a768 83be e3e7 893e 20f9 d0bd
00000030: 8260 95bf a5c2 2cbf cd85 223f 8101 41bd
00000040: 46e9 8bbe b9ec bf3e 0940 13be c343 8c3e
00000050: 65d5 573d 6244 a93e c96d 1ebf dea9 b4bf
00000060: 29ac ebbe 1066 49be 4852 19bf 46e6 f6bd
00000070: 7d1f c8be ffcb 85bc aec8 ae3e d390 fabc
00000080: 0786 823f c18c 1abf f3ab 03bf ce4a 20bd
00000090: ecaf a0bd d6f0 61bf 6ba5 afbe 285e 5fbd
000000a0: e7b5 3cbf 0841 963e b344 62be ab37 55be
000000b0: f961 9c3e a99a ae3d d720 e73e 2b56 87bf
000000c0: ff13 e73e 3a02 5f3d 7ba8 a63e f060 cdbc
000000d0: c6b2 3abf 2f7e c93e c31a 43bf c9fc 5cbe
000000e0: d3a3 4b3e 0a95 4ebe 1bc5 1f3f fc60 6bbe
000000f0: 28be c73d 8429 05be 84f0 99be 07ce 863d
00000100: 7aa8 483f f000 133f decd ad3e 8ebc 453f
00000110: c988 223e f958 553e 0b47 733e d668 02be
00000120: f367 01bf fd06 8f3c 6c50 ff3d f138 f43c
00000130: a183 e73e 1913 063f ce2a 02bd 9d69 22bf
00000140: 2575 e8be 4543 e5be 07e4 2dbe 8209 583f
00000150: 4cbd acbe 4a2f 893e c4df b93e fe6e 853f
00000160: 6bbe 41bf 86a3 1e3e 8582 a53e 4828 92be
00000170: e71b d7bd 5437 1b3e 70d2 583f 2a78 a13e
00000180: 90a8 123f 3c57 673f 59bb 85bf f3ef 33be
00000190: 10e9 613e 2c10 bdbc f7fc 00bf f66f 2f3f
000001a0: 03f8 7b3e 8b63 853e fb74 373e 1b23 1cbd
000001b0: d7ad a5be e0f3 b33d f695 173d b804 c93e
000001c0: e57a 413f 84ec dc3d 5f6d 7fbf 416d 26bf
000001d0: 8268 4b3e a834 63bf 3b77 0a3f 759a 1fbf
000001e0: b3fc 92bf 2127 83bd 1089 153f 8c36 aabe
000001f0: f2f4 183f b229 d7bd de11 86be 0b3c 80bf
00000200: f46b 51bf 6fdf c53e 39e6 1b3d 203f 443e
00000210: e70a ff3c d2c0 19bc bd02 363d a625 bcbd
00000220: 1a8a 3cbe 36a6 dfbd 07fc 9abe 3f64 d23c
00000230: f91b 9ebe 0718 d6bb 89d6 48be ed71 da3e
00000240: 015d aabd e43f 70bd b6c4 6aba a94d bbbd
00000250: e4e6 e73d 1201 00bd cd79 d9bd b2bc c3bd
00000260: b85a 843f e117 52be a566 58bf 4756 de3e
00000270: 2172 1abe edf8 11bf e01a c53f a149 a73e
00000280: 5da7 a03d dd41 8bbe 7d63 123f 499d 3cbf
00000290: 6ed6 79bf 7506 0fbe e9ad 953e 757d 6cbf
000002a0: acf8 36bf 8d46 74be 21c6 213f f56a e4bc
000002b0: 63c0 21bf 858e 8fbe d930 10be cbd8 2d3f
000002c0: 84fb 8bbd fcf7 a5be b131 a1bf c45b 3a3e
000002d0: 5f45 05bf 3e7c a73e 615e eb3e 6c1c fe3e
000002e0: 48c9 723f 01e5 1f3e 3201 013f e27d fc3d
000002f0: c8ea d23e d371 89be 8de3 50bf 1a40 8cbe
00000300: b05a f23e 13d8 2b3f a74f 0e3f 659f 41be
00000310: d4c3 99be f5d9 18bf f656 b4be ae78 1f3f
00000320: d1ab 343d 35f6 a1be e388 473f bc97 bbbd
00000330: e499 ef3e 95d1 6cbe 4c50 85bd dbe8 25be
00000340: 9e5a 3c3f 879e 2f3f b882 573f c5e3 3f3e
00000350: 0986 2e3e ad31 cabd e0c1 5e3f e0a3 443e
00000360: c832 e6bc bb38 4abf dd5b cb3e b218 953d
00000370: 8126 b3bb c518 613d 2114 42be 7417 90bf
00000380: cb8d f63e 5f7a 00bd e22f 3fbf e605 2f3f
00000390: b65a ab3e 33c8 e23e 214a 05bf 8e71 033e
000003a0: 705f e6be 1b0a 60bf 4d40 0a3f bf0a 193f
000003b0: fe15 c3be 1112 e83e 2162 b8be d532 483e
000003c0: 6c54 963e 0dcc 99be 989e d9be 5567 6a3e
000003d0: 8c94 913f 2ca3 133d aca7 0a3f a020 613f
000003e0: 1227 0b3f b550 823e 4d31 2e3f 3345 5c3e
000003f0: 93d9 ae3e ca99 b33c 8e7a 743e fcd7 d9be
0.83380294 -0.4140416 -0.3643405 -0.24956368 -0.82480526 0.027711745 -0.035188854 0.47358528
0.665991 -0.2566578 0.26934728 -0.10203767 -1.1670077 -0.67484504 0.63485414 -0.047120575
-0.2732641 0.37485293 -0.14379896 0.27395448 0.052693743 0.33059984 -0.6188627 -1.4114339
-0.46029785 -0.1966784 -0.59891176 -0.1205564 -0.39086524 -0.016332624 0.3413748 -0.030586636
1.0197152 -0.60371023 -0.5143425 -0.03913384 -0.078460544 -0.8825811 -0.3430589 -0.054533154
-0.7371506 0.2934649 -0.22096519 -0.20822017 0.30543497 0.08525593 0.45142242 -1.0573171
0.45132443 0.054445483 0.32550415 -0.025070637 -0.72929037 0.39354083 -0.7621271 -0.21580805
0.19886713 -0.20174041 0.62410134 -0.22986215 0.09753066 -0.13004118 -0.3006631 0.06582265
0.78382075 0.57423306 0.33946127 0.77240837 0.15872492 0.20834722 0.2375757 -0.12735304
-0.5054924 0.017459387 0.12466511 0.029812308 0.45217612 0.5237289 -0.031779103 -0.63442403
-0.45401874 -0.44777885 -0.16981517 0.8438951 -0.33738172 0.2679389 0.36303532 1.0424497
-0.7568118 0.15492067 0.3232614 -0.28546357 -0.10503369 0.15157825 0.846961 0.3153699
0.57288456 0.90367484 -1.0447799 -0.17572002 0.22061563 -0.023079 -0.50385994 0.68530214
0.24606328 0.26052508 0.17915718 -0.038119417 -0.32359192 0.0878675 0.03700825 0.39261413
0.7557815 0.10787299 -0.9977626 -0.6501046 0.19864085 -0.8875222 0.5408818 -0.6234506
-1.1483368 -0.064039476 0.58412266 -0.3324474 0.59748757 -0.105059996 -0.26185507 -1.0018324
-0.8180535 0.3864703 0.038061354 0.19164705 0.031133128 -0.009384351 0.044436205 -0.09186868
-0.18412057 -0.10920374 -0.30270407 0.025682567 -0.30880716 -0.006533626 -0.19613089 0.42665043
-0.0831852 -0.05865468 -0.0008955704 -0.09145672 0.11323336 -0.03125102 -0.10618935 -0.09557475
1.0340185 -0.20516922 -0.84531623 0.434252 -0.15082599 -0.57020456 1.5398827 0.32673362
0.07844422 -0.27198687 0.5718306 -0.736775 -0.9759282 -0.13967307 0.29234245 -0.9237893
-0.71473193 -0.23855038 0.63192946 -0.027883032 -0.63184184 -0.2803842 -0.14081134 0.67908925
-0.06835082 -0.3241576 -1.259329 0.18199068 -0.52058977 0.32711977 0.45970443 0.4963106
0.9483838 0.15614702 0.5039245 0.12328698 0.4119475 -0.26844653 -0.81597215 -0.27392656
0.47334814 0.6712658 0.5559029 -0.1890846 -0.30032218 -0.59707576 -0.35222596 0.6229352
0.04410917 -0.31633154 0.7794325 -0.091598004 0.46797097 -0.23126824 -0.06509456 -0.16202109
0.7357577 0.6860127 0.84183836 0.18739231 0.17043318 -0.09872756 0.8701458 0.19203138
-0.028100386 -0.78992814 0.39718524 0.07280101 -0.0054672365 0.054955263 -0.18952991 -1.1257157
0.48155054 -0.031366702 -0.7468244 0.68368375 0.33467644 0.44293365 -0.52066237 0.12836286
-0.44994688 -0.8751542 0.54004365 0.5978202 -0.38102716 0.45326284 -0.36012366 0.19550641
0.29361284 -0.3003849 -0.4250381 0.2289098 1.1373458 0.036044285 0.54162097 0.87940407
0.5435649 0.254522 0.6804398 0.21510772 0.3415037 0.021923918 0.23874876 -0.42547596

fc1.bias f4 [32]
00000000: 98c1 c33d d6da 073f ea3e 353f 53f5 b5be
00000010: 5dbb 653e 0376 813f d75d f4be b8ee 7dbe
00000020: 7397 0cbf ef2e 3bbf c5d5 0b3f 19c8 7d3e
00000030: cdbd 00bf b866 873e bc96 843e 82fb 03bf
00000040: 302e 7ebe ba4f 193f 2cf0 47bf bd47 19be
00000050: c4bb f7be a501 773e eeeb 5abe e5a7 ebbe
00000060: 94ea 9fbe 6626 153f b3e8 a93e ffb9 f7be
00000070: 779c c5be 9b27 a6be 786c 353d b4d4 583d
0.095584095 0.5306829 0.70799124 -0.3553873 0.22434755 1.0114139 -0.47727844 -0.24798095
-0.54918593 -0.7311849 0.5462306 0.24783362 -0.50289613 0.26445556 0.2589625 -0.51555645
-0.24822307 0.5988728 -0.7810085 -0.14968772 -0.4838544 0.24121721 -0.21379063 -0.4602653
-0.31233656 0.58261716 0.33185348 -0.4838409 -0.38595936 -0.32452092 0.044292897 0.052937225

fc2.weight f4 [9, 32]
00000000: d8d3 54be fe4f d73e 5ee4 8c3e 5a55 6fbf
00000010: 3ea8 d63e f1e9 153f d72c d1bd b54e 01bd
00000020: eee8 0fbe 43a5 a8be 6b9b af3e 3f91 18bd
00000030: 6e21 be3c 93a8 b0bd f894 c43d 0fb1 dabf
00000040: 5a0b 5cbf 50f5 aa3e b9cf e6bc b3ef 0d3d
00000050: 5935 2dbf 072a 493d 033f b6be 9b94 61bd
00000060: 6c67 a03c 3b53 583e 3d06 4e3f 58f2 4cbd
00000070: af78 89bb c0b3 01be e627 46bc 3770 a0be
00000080: 167a df3e 6e02 eebd b15d b53e 4269 b4be
00000090: 41b4 f7bd 0e16 663f 9386 e6be 696b 26be
000000a0: ee98 ee3e b922 53bf 4825 f53d ef87 993f
000000b0: af74 9bbf 98e9 c6bd 2472 d03d 4491 1c3e
000000c0: 9de9 503e 2368 a13d 0a7a 1dbf 3139 9bbe
000000d0: 2f36 21bf 144f 64bf 3d39 bebe 8ed8 e8be
000000e0: 228a 22bf cd69 59be 8421 f93d 52a0 8d3d
000000f0: 2186 bc3d 1100 d9bc bd49 26bc ece0 ce3e
00000100: 5f28 bc3c c0ce 933e b0a4 203e 381a 21bd
00000110: 287b 0bbf d47a f3be 716a c43e c2e6 9fbd
00000120: a6b3 d33e 1e04 1d3f 956f f3bc c59a 89bf
00000130: 2fb3 09bf 3a1b ddbd 35a7 d0bd 9dfb e1be
00000140: 3b30 66be 6905 1b3e eb20 b7bd 585b 88be
00000150: 596a 0c3e 50f7 70be 65e0 213f d090 e93e
00000160: 7f4f d73e 13da e73d f888 b9bc 72f8 9e3d
00000170: e21f 9c3d 3bfb 3c3d 3744 13bb 5882 0f3f
00000180: 28f3 7e3e f9d6 7bbe 2190 d8bd 5439 773e
00000190: 453f 243e 2bcb b43e 5b77 55bd d49b 673c
000001a0: a824 dcbe f3c0 1dbe 8395 94bc 8519 8d3f
000001b0: dfd8 61bf 948a c5bd 2fe7 94bd 84ac 8c3e
000001c0: 74b0 e03d 9b9f 82be 3042 613e 15ab c3be
000001d0: 07ce c03d ffd1 143f 438f 82be 7acc 1cbf
000001e0: 188d 9a3e 0a9d 853e 1aa0 dfbe 8891 01bc
000001f0: 0d41 2f3d 03dc a33d f10a 673b 2ab5 ecbd
00000200: 5641 103d dfe4 813d 7ede 9a3e d476 063f
00000210: 76da 163e f5d8 f7bd 6536 e2bd 8e1c 80bd
00000220: 6f6c 16be b67e 883e 95da 333d b471 8b3c
00000230: 275b 153f 7655 bbbd 20e3 61bd 90a1 43bf
00000240: 6e72 743f 47d9 fe3e c9ff 5abe d534 62bb
00000250: d078 2bbe 65b1 123e ee77 3cbe dba0 fc3d
00000260: 1880 d8bd fdea 753e 5bfb 693b 9c4e b03d
00000270: 9f78 6e3d 7973 b83d 82e4 d33a af42 d7be
00000280: cb24 c2bc f8ae 72bf e6c6 79be ebab 3a3f
00000290: 5b65 c3bd b5ab 86be df70 89be bb51 04be
000002a0: b9b5 d3bd 2111 aabe 6dc0 b3bd 07a7 853f
000002b0: a19e d83e d629 d7bd 4585 37bd 0066 8d3f
000002c0: 5e1d e83e 54b8 c2be 9e22 3b3d 4992 643e
000002d0: d626 d53e 8335 dd3d d755 74bd 34ce ecbe
000002e0: 0b7d 29be c81c b93e dbcb acbd f546 873d
000002f0: 4fc0 e23d d45b 383e c428 06bc 04fd e5bd
00000300: ae5f 693d 2c85 bc3e 9036 7f3d 930f 293e
00000310: 4140 2f3e ff35 18be b673 b13c e3a5 e8bd
00000320: a255 a1be 2f99 f5bd ef7e 543d 273f 14bf
00000330: a61b ac3e 1263 dcbd 6a5a 43bd 77a5 a43e
00000340: dbdb 9e3d 86eb 523e d75f 2abe 00c7 5a3e
00000350: 0cf6 9d3e 5b78 b13e ea54 a03e 5014 693e
00000360: 4d6b 5e3e 15d4 3d3e f12c 5ebe cbb1 973d
00000370: dea1 a03d 9e30 4f3c 27c3 e2bc bf65 42be
00000380: b006 2dbd 0212 b7bd 774c 25be 8c9b 003e
00000390: 12ef 993e c25b b6be 81a4 713e 800c 7cbd
000003a0: c266 c6bd 3857 1c3d a24f 39bd d42b d2be
000003b0: 1d32 133f 530f c8bd cc55 39bd 71e4 8b3f
000003c0: 5acf 1ebd b79d 49be 07a9 893e cc04 513d
000003d0: 9aab 953e 6eb5 c83d bd49 d53e 54e4 073f
000003e0: 96f9 b03e 5598 82be cee4 2abf 7a9d 533d
000003f0: 7612 943d 7ff3 19bd df2a 1ebb fb4c d0be
-0.20783937 0.42053217 0.2751798 -0.9348961 0.41925234 0.5856009 -0.10213631 -0.0315692
-0.140537 -0.32938585 0.34298262 -0.037247892 0.0232093 -0.08625903 0.09598726 -1.7085284
-0.8595482 0.33390284 -0.028175222 0.034652423 -0.6765953 0.049112346 -0.3559495 -0.05507336
0.019580565 0.211255 0.8047827 -0.050035805 -0.004195295 -0.12666225 -0.0120944735 -0.31335613
0.43647832 -0.11621557 0.35423043 -0.35236555 -0.120949276 0.898774 -0.45024547 -0.16251911
0.4660105 -0.8247486 0.119700015 1.1994609 -1.2144984 -0.09712523 0.101780206 0.1528979
0.20401616 0.07881191 -0.6151434 -0.3031707 -0.629733 -0.89183164 -0.37153044 -0.45477718
-0.63492024 -0.21231766 0.12164596 0.06915344 0.092052706 -0.02648929 -0.0101494165 0.40405977
0.02296847 0.28868675 0.15687823 -0.039331645 -0.54484797 -0.47554648 0.38362458 -0.078076854
0.41347998 0.6133441 -0.029716292 -1.0750357 -0.5378904 -0.10796209 -0.10188142 -0.44137278
-0.22479336 0.15138783 -0.089418255 -0.2663219 0.13712443 -0.23531842 0.63233024 0.45618296
0.42052838 0.11320891 -0.02264832 0.07762231 0.07623269 0.04613803 -0.002247108 0.56058264
0.24897444 -0.24593724 -0.105743654 0.24142963 0.1603976 0.35311255 -0.05211578 0.014136273
-0.42996716 -0.15405636 -0.018137699 1.1023413 -0.88221544 -0.09645572 -0.07270657 0.2747537
0.10971156 -0.25512394 0.21997905 -0.38216463 0.094142966 0.5813293 -0.25499925 -0.61249506
0.3018577 0.26096374 -0.43676835 -0.0079082325 0.042786647 0.08000948 0.0035254324 -0.11557992
0.03521856 0.06342482 0.30247873 0.5252507 0.14731774 -0.12101928 -0.11045531 -0.062554464
-0.14689802 0.26659173 0.043909628 0.017021991 0.5834221 -0.0914716 -0.055148244 -0.764184
0.95487106 0.49775144 -0.21386637 -0.0034516354 -0.16745305 0.14325483 -0.18405125 0.12335368
-0.10571307 0.24015422 0.0035702798 0.086087435 0.058220502 0.090064 0.0016166123 -0.42043063
-0.023699185 -0.9479823 -0.2439228 0.72918576 -0.095408164 -0.26302877 -0.26843926 -0.12921803
-0.10337395 -0.33216193 -0.08776937 1.0441598 0.42308524 -0.105060264 -0.04480483 1.1046753
0.45334905 -0.38031256 0.04568731 0.22321428 0.41631192 0.10801222 -0.059652176 -0.4625107
-0.16551606 0.3615477 -0.0843732 0.06605331 0.11071836 0.1800378 -0.00818843 -0.112298995
0.056976013 0.36820352 0.062307894 0.16509847 0.17114355 -0.14864348 0.02166162 -0.113597654
-0.31510645 -0.11992108 0.051878866 -0.5790886 0.33614844 -0.10761084 -0.047693647 0.3215749
0.07756778 0.20597658 -0.16638122 0.21364975 0.3085178 0.34662136 0.31314784 0.22761655
0.2172062 0.18537934 -0.21696831 0.07406958 0.07843374 0.012645869 -0.027680947 -0.18984126
-0.042242706 -0.089389816 -0.1614245 0.12559336 0.3006521 -0.3561688 0.2359791 -0.06153536
-0.09687568 0.038169116 -0.04524196 -0.41049063 0.5749834 -0.09768548 -0.045247838 1.092909
-0.038771965 -0.1968907 0.2688677 0.051029965 0.29232484 0.0980023 0.4165782 0.53082776
0.3456542 -0.25506845 -0.6675538 0.051663853 0.07230084 -0.03758573 -0.002413444 -0.4068373

fc2.bias f4 [9]
00000000: 4b9c 053e 5e9f 22bd b50d 023e 8b71 cabd
00000010: c0dc ea3d c2e4 923c d438 ba3d fb3a 18bd
00000020: cb50 0ebf
0.13047902 -0.039702766 0.12700541 -0.09884938 0.11467886 0.017931346 0.0909287 -0.037165623
-0.5559203
