models/lstm.pth (torch, 785123 bytes, 14 tensors)

lstm.weight_ih_l0 f4 [392, 1]
0	0x3e837f04	0.25682843
1	0xbe892d84	-0.26792538
2	0x3e9e69a2	0.30939966
3	0x3ee4cb90	0.44686556
4	0x3d7d5212	0.061845846
5	0x3dbd24b2	0.09235515
6	0x3d6b0365	0.057376284
7	0x3e03a909	0.1285745
8	0xbe4e0fe6	-0.20123252
9	0xbdefcd20	-0.11709046
10	0x3dc557d1	0.0963589
11	0x3e9b1435	0.30288854
12	0x3e36f405	0.17866524
13	0x3e92c802	0.2866822
14	0xbd272323	-0.040804993
15	0x3eb7f021	0.3592539
16	0x3ee98e37	0.45616314
17	0x3e04edb1	0.12981297
18	0x3dc5b441	0.09653521
19	0x3ea6b7ad	0.32562009
20	0xbdc1655c	-0.09443161
21	0xbe9bfaac	-0.30464685
22	0x3ead8c48	0.3389609
23	0x3c5da987	0.013529188
24	0xbe77bee0	-0.24193907
25	0xbf1a5470	-0.6028509
26	0xbe1e0a92	-0.1543372
27	0xbe0a2770	-0.13491607
28	0x3e1b2d8b	0.15154092
29	0x3e21db62	0.15806344
30	0x3cb7e036	0.02244578
31	0xbc3518f6	-0.011053314
32	0x3c519e3b	0.012794073
33	0x3e9aae19	0.3021095
34	0x3ec937de	0.39300436
35	0xbe8694d5	-0.26285425
36	0x3e37eb6e	0.17960903
37	0x3ed40be5	0.41415325
38	0x3e9beb78	0.30453086
39	0x3e9f2951	0.3108621
40	0x3dfcf2c6	0.12350993
41	0x3ef98018	0.4873054
42	0x3ed211e9	0.4102929
43	0x3e143117	0.14471851
44	0xbe1a28b0	-0.15054584
45	0x3e7abfc0	0.2448721
46	0x3ece7002	0.4031983
47	0x3e1eaa14	0.15494567
48	0xbf411b79	-0.75432545
49	0x3ed82f48	0.42223573
50	0x3e271b11	0.16318919
51	0xbe2c6225	-0.16834314
52	0x3e762f8f	0.2404158
53	0xbd9b676a	-0.07588084
54	0x3ea8f869	0.33002022
55	0x3dfef297	0.12448614
56	0x3e98f9e1	0.29878142
57	0xbe40f752	-0.18844345
58	0x3eca19c2	0.39472777
59	0x3e98b673	0.29826698
60	0xbe8e8b24	-0.2784053
61	0x3e2b33da	0.16718999
62	0x3e9074c6	0.2821409
63	0x3e17d2eb	0.14826553
64	0x3ed30598	0.41215205
65	0xbdf0a5d9	-0.11750383
66	0x3e42bde8	0.19017756
67	0xbe243d63	-0.16039042
68	0x3ea59ea1	0.32347587
69	0x3de54515	0.11194817
70	0x3d3f7ba0	0.046748757
71	0xbe3eb4a8	-0.18623602
72	0x3eb5e02f	0.355226
73	0xbd969369	-0.07352335
74	0x3e52232a	0.20521227
75	0xbe809d3f	-0.2511997
76	0x3e65b3f1	0.22431923
77	0x3eea2597	0.45731804
78	0xbef421f5	-0.47682157
79	0xbe327831	-0.17428662
80	0x3ce6f493	0.028192794
81	0x3ec6c5f8	0.38822913
82	0xbe2b3136	-0.16717991
83	0x3d6188eb	0.055062216
84	0xbd8349d6	-0.064105675
85	0x3e4435e9	0.1916119
86	0xbe11c215	-0.14234193
87	0x3f05e691	0.5230494
88	0xbe1113fa	-0.14167777
89	0xbdf77d78	-0.12084478
90	0x3e886c53	0.26645145
91	0xbe173746	-0.14767179
92	0x3d9c8efb	0.07644459
93	0x3d79e9a6	0.06101384
94	0x3eaa3b26	0.33248252
95	0x3e8e9977	0.2785146
96	0x3e73e580	0.23818016
97	0x3e9ac730	0.30230093
98	0x3e729eaa	0.23693338
99	0xbe0d4f8d	-0.13799877
100	0x3e58379f	0.21114968
101	0x3e3944a0	0.18092585
102	0x3e4feb43	0.20304589
103	0x3ebdcda1	0.37070945
104	0x3efc65ed	0.49296513
105	0x3d89340d	0.06699381
106	0xbe66249f	-0.22474907
107	0x3dab7c9d	0.083733775
108	0x3e562abd	0.20914741
109	0x3ba17f41	0.0049285
110	0xbccfcd2e	-0.025366392
111	0x3d610ac0	0.054941893
112	0xbdcaef72	-0.09908952
113	0x3e44692a	0.19180742
114	0x3dd5a481	0.10431767
115	0x3dcd94d5	0.10038153
116	0xbe6f3fd6	-0.23364195
117	0x3e8e0386	0.27737063
118	0xbd7d07e0	-0.06177509
119	0xbdc25514	-0.094888836
120	0x3e13be93	0.14428167
121	0xbe16ee9f	-0.14739464
122	0xbd8bddec	-0.068294376
123	0xbe5fad86	-0.21843538
124	0xbe8055f8	-0.2506559
125	0xbd0a8f1f	-0.033827897
126	0x3e1bc99e	0.1521363
127	0x3e97aa9b	0.2962235
128	0xbe456b91	-0.19279315
129	0xbe2100c7	-0.15722953
130	0xbe811fe0	-0.2521963
131	0x3d29837f	0.04138517
132	0x3e25c175	0.16187079
133	0xbc5eb316	-0.013592502
134	0x3e37bb43	0.17942528
135	0x3e19352f	0.14961694
136	0x3edae2de	0.4275121
137	0x3e3c3e04	0.18383032
138	0x3dc48308	0.09595305
139	0x3dabd84a	0.08390863
140	0x3ebcd346	0.3687994
141	0x3e34dd6d	0.17662592
142	0xbe8b3d03	-0.27194986
143	0xbe2c3d78	-0.16820323
144	0x3e776844	0.24160868
145	0x3d37e4d3	0.04489596
146	0xbd7fbfe8	-0.062438875
147	0x3e096512	0.13417462
148	0x3ed4c977	0.41559955
149	0xbe0576e6	-0.13033637
150	0x3e8289d0	0.25495768
151	0x3da5ff06	0.081052825
152	0x3e298d44	0.16557795
153	0x3e3f1837	0.18661581
154	0xbe27ebbc	-0.1639852
155	0xbe6489a9	-0.22318138
156	0x3eef7f7e	0.46776956
157	0x3da6e9b9	0.08150048
158	0xbe759cd0	-0.239856
159	0x3d835beb	0.06414016
160	0x3e2a3b19	0.16624106
161	0x3e90e20d	0.28297463
162	0xbd1c1899	-0.038109396
163	0x3e121ac6	0.14268026
164	0x3d84b951	0.06480659
165	0xbe12eab8	-0.1434735
166	0x3ec46149	0.38355473
167	0x3d9a52ec	0.07535347
168	0xbe5ad2c6	-0.21369466
169	0x3e036d61	0.12834693
170	0xbdb84308	-0.0899716
171	0xbe70d846	-0.23520002
172	0x3e01bc7e	0.1266956
173	0xbd91720a	-0.07101829
174	0x3ea4b241	0.32167247
175	0x3e678f96	0.22613367
176	0xbececafc	-0.4038924
177	0xbd66cf75	-0.05635019
178	0x3e145022	0.14483693
179	0x3d89001e	0.066894755
180	0xbe50bcb2	-0.20384482
181	0x3e103d9e	0.14086005
182	0xbe05cbb7	-0.13065992
183	0xbc33b6fd	-0.010968921
184	0x3e5173ed	0.20454378
185	0x3df9267a	0.12165542
186	0xbe83d1e2	-0.25746065
187	0xbe0707d9	-0.13186587
188	0x3e808893	0.25104198
189	0xbe0eb666	-0.13936767
190	0xbc4df65e	-0.012570946
191	0xbe057243	-0.13031869
192	0x3eed19ae	0.46308655
193	0x3e67610a	0.22595611
194	0xbd2bbb2c	-0.041926548
195	0x3e0fabb8	0.14030349
196	0xbed8582a	-0.42254764
197	0xbebf8216	-0.37403935
198	0xbee491c2	-0.44642454
199	0x3ea5c048	0.3237326
200	0xbe9e3adb	-0.30904278
201	0x3f0e7ff5	0.55663997
202	0x3ec97bac	0.39352167
203	0xbea803bf	-0.32815358
204	0x3e565288	0.2092992
205	0x3e9aebaa	0.30257922
206	0x3ebc2b92	0.36751992
207	0xbe9c3675	-0.30510297
208	0xbe92b3ba	-0.28652745
209	0xbeba6390	-0.36404085
210	0x3ec5be7c	0.3862189
211	0xbee74df7	-0.4517667
212	0xbebb28df	-0.3655462
213	0xbe8a6ca1	-0.27036002
214	0x3eaf3635	0.34221044
215	0x3eb4dbe6	0.3532402
216	0x3eab31a6	0.33436316
217	0xbed4a82f	-0.41534564
218	0xbec94531	-0.393106
219	0xbe9efbac	-0.31051385
220	0x3e8cdfc7	0.2751448
221	0xbe658f7f	-0.2241802
222	0x3ea3416c	0.3188585
223	0xbe3f0bbc	-0.1865682
224	0x3eb8e834	0.36114657
225	0x3ebbca20	0.36677647
226	0x3dae1ddf	0.08501791
227	0xbe89e683	-0.2693368
228	0xbea12398	-0.31472468
229	0x3ee01008	0.4376223
230	0x3e9ad574	0.30240977
231	0x3ed6eda8	0.41978192
232	0x3ef15547	0.47135374
233	0xbecde1ea	-0.4021142
234	0x3ecf03a4	0.40432465
235	0x3ec13ab8	0.3774011
236	0xbeda6fbd	-0.42663375
237	0x3ec1199f	0.3771486
238	0xbec59bfd	-0.38595572
239	0x3ea40386	0.32033938
240	0x3e356fea	0.17718473
241	0xbef939f4	-0.48677027
242	0xbeae2f59	-0.34020498
243	0x3ebfcd95	0.37461534
244	0xbeb35205	-0.35023513
245	0x3e9cc3a0	0.30618
246	0xbee0f322	-0.43935496
247	0xbdb5f9af	-0.08885514
248	0x3ebcc9fe	0.36872858
249	0xbeba3396	-0.36367482
250	0x3e9d2e20	0.30699253
251	0x3eb0167c	0.34392154
252	0x3e9f468c	0.3110851
253	0x3e6cf292	0.23139408
254	0x3ea4a08f	0.32153746
255	0x3e99f01b	0.30065998

lstm.weight_hh_l0 f4 [392, 98]
0	0xbd134350	-0.035952866
1	0x3e964b14	0.29354155
2	0xbd132ab5	-0.0359294
3	0x3d44f5dc	0.048086032
4	0x3cfe5559	0.031046556
5	0xbcf0ecc9	-0.029409783
6	0x3d9bd285	0.07608513
7	0xbcafcdf2	-0.021460507
8	0xbde775fd	-0.11301801
9	0x3ec035a5	0.37540928
10	0x3d0fc48e	0.03509956
11	0xbda2fe8e	-0.07958709
12	0xbe7b1db8	-0.24523056
13	0xbe44866d	-0.19191904
14	0xbcf07299	-0.02935152
15	0x3db705d1	0.08936656
16	0xbdc4a7eb	-0.0960234
17	0x3c255ae8	0.0100924745
18	0x3db34999	0.08754272
19	0x3d9fe256	0.07806842
20	0xbcf1d774	-0.029521681
21	0xbbb2935a	-0.0054496946
22	0xbd807b1c	-0.06273481
23	0x3e941f7d	0.28930274
24	0x3e823d16	0.2543723
25	0x3e5d1d1f	0.2159314
26	0xbdbc0bfe	-0.09181975
27	0xbecfde55	-0.40599313
28	0xbe071bc6	-0.13194188
29	0xbd9e7e5e	-0.077389464
30	0x3e302df4	0.1720503
31	0xbd584783	-0.052802574
32	0x3e37d80c	0.17953509
33	0x3d74a1fd	0.059724797
34	0xbd6246c8	-0.055243284
35	0xbeb4656c	-0.3523363
36	0xbd33883a	-0.043831088
37	0x3cf8b268	0.030358508
38	0x3de817c2	0.113326564
39	0xbd94904a	-0.072540835
40	0xbe669e51	-0.2252133
41	0x3d9d3e77	0.0767793
42	0x3ad916e4	0.0016562608
43	0xbd706810	-0.05869299
44	0x3f2d6fa3	0.6774847
45	0x3e1c7c19	0.15281714
46	0xbe0a43be	-0.13502404
47	0xbc50d862	-0.012746902
48	0x3e4f6d09	0.20256437
49	0x3dbb4c11	0.09145368
50	0x3d156e22	0.036481984
51	0xbe83cb27	-0.2574093
52	0x3e1794a3	0.14802794
53	0xbdb5cbde	-0.08876775
54	0x3e5636e9	0.20919384
55	0x3e12e84f	0.14346431
56	0x3de45582	0.11149122
57	0x3b0c2e33	0.0021389842
58	0x3eb4bb01	0.35298923
59	0xbe73777b	-0.23776047
60	0xbda6a62e	-0.08137165
61	0x3ea0478f	0.31304595
62	0xbd91da7e	-0.07121752
63	0x3e292546	0.16518125
64	0x3dcdcc2c	0.10048708
65	0x3c2b85b4	0.010468889
66	0xbd0399c2	-0.032129057
67	0xbeef8499	-0.4678085
68	0xbbd925f6	-0.0066268397
69	0xbe39f9b0	-0.18161654
70	0x3eb15fb3	0.34643325
71	0xbe16805b	-0.14697401
72	0x3d6d3f7a	0.057921864
73	0xbe85baa1	-0.2611895
74	0xbd901130	-0.07034528
75	0xbebbe5e2	-0.36698824
76	0xbd1c562a	-0.03816811
77	0x3a89271b	0.0010463925
78	0x3eb7ba21	0.35884193
79	0xbedfab36	-0.4368531
80	0x3d6da09e	0.058014505
81	0xbdadbd70	-0.08483398
82	0x3eaf3e64	0.34227288
83	0x3c8e27aa	0.017352898
84	0x3e9e06eb	0.30864653
85	0xbd974876	-0.07386868
86	0xbd15e25f	-0.036592837
87	0x3d081720	0.03322518
88	0x3eb784c0	0.35843468
89	0x3e9995b9	0.29997042
90	0xbd8bb712	-0.06822027
91	0x3e70da3b	0.23520748
92	0x3f123109	0.5710607
93	0xbce3dba6	-0.027814697
94	0xbd989029	-0.07449371
95	0x3e52709b	0.20550768
96	0x3d7a8bc6	0.061168455
97	0x3d6bd8e3	0.057579886
98	0x3cc737a4	0.024318524
99	0x3d51c0d7	0.051209297
100	0xbd588eaa	-0.05287043
101	0xbd88f2f1	-0.066869624
102	0xbc805998	-0.015667722
103	0xbbcf8b60	-0.0063337535
104	0xbe18ea03	-0.14933018
105	0x3b894f30	0.004190348
106	0x3d3053c5	0.04304864
107	0x3e8a50bf	0.2701473
108	0x3d1b7ec2	0.037962683
109	0x3d8043df	0.062629454
110	0xbe4457e5	-0.19174154
111	0xbd4ac0b2	-0.049500175
112	0x3dabd41f	0.08390068
113	0xbc6eb82f	-0.01457028
114	0xbb1fd0cc	-0.0024385927
115	0x3e09389e	0.13400504
116	0x3ecd69c7	0.40119764
117	0x3ddcb75a	0.10777159
118	0x3dabab3e	0.08382271
119	0xbdcbd4c2	-0.0995269
120	0x3d151e99	0.036406133
121	0x3d583c9a	0.05279217
122	0x3dc96925	0.09834508
123	0x3e4a2ec3	0.197444
124	0xbdf0ec1f	-0.117637865
125	0xbdd80df0	-0.10549533
126	0x3dd808a1	0.10548521
127	0x3e11e52b	0.14247577
128	0x3ca47e02	0.020079616
129	0x3aea5f5f	0.0017881206
130	0x3dab4b2d	0.08363948
131	0xbd59c50d	-0.053166438
132	0xbe126f0b	-0.14300172
133	0x3dbb6b50	0.091513276
134	0xbe0dc5b9	-0.13844956
135	0x3bb993bb	0.005663363
136	0x3c93999a	0.018017579
137	0x3bb6fd94	0.005584428
138	0xbec84b23	-0.39119825
139	0x3e0db19f	0.13837288
140	0xbdc4124f	-0.095738046
141	0xbd35b9b4	-0.044366553
142	0xbd239352	-0.039935417
143	0xbdc739cc	-0.09727821
144	0xbde61cf4	-0.11235991
145	0xbd9c7318	-0.0763914
146	0x3da12192	0.07867731
147	0x3e1231c6	0.142768
148	0x3cf1398e	0.02944639
149	0x3d82b410	0.063820004
150	0xbd715a90	-0.058924258
151	0x3c490dbe	0.012271343
152	0xbd1b2b12	-0.037882872
153	0x3d523235	0.051317412
154	0x3e2a4cb6	0.16630825
155	0xbe022a0c	-0.12711352
156	0x3dd880be	0.105714306
157	0xbde1b2e4	-0.11020449
158	0x3e20afcc	0.15692061
159	0x3c9f1a74	0.019421794
160	0xbd386d46	-0.045026086
161	0x3d50d12c	0.05098073
162	0x3d174175	0.03692766
163	0x3d431252	0.047624893
164	0xbe895bed	-0.26827946
165	0x3d0f8f69	0.035048876
166	0x3d8d873f	0.06910562
167	0xbd63950a	-0.055562057
168	0x3de7960c	0.11307916
169	0xbe740197	-0.23828731
170	0x3d252bd3	0.040324997
171	0x3d1c21d7	0.03811821
172	0xbc71821c	-0.014740493
173	0xbe730d29	-0.23735489
174	0xbe3a93e9	-0.18220486
175	0x3db332d9	0.08749933
176	0xbd310cba	-0.043225028
177	0xbda2d506	-0.07950787
178	0x3d3381ff	0.043825146
179	0x3bbde7f8	0.005795475
180	0x3dca22bd	0.09869907
181	0x3c2d2f2f	0.0105703315
182	0x3cecf0a3	0.028923338
183	0xbdd24b64	-0.10268286
184	0x3d710a40	0.058847666
185	0x3ddd665e	0.108105406
186	0xbd0f939b	-0.035052877
187	0x3d56a342	0.05240179
188	0x3d46c615	0.04852875
189	0x3c3ebd91	0.011641876
190	0x3d14da0b	0.036340754
191	0x3c6c0af8	0.014406912
192	0x3d26ca1c	0.04072009
193	0xbdcc1519	-0.099649616
194	0xbe63253f	-0.22182177
195	0xbc85c4cf	-0.016329197
196	0xbdc0e374	-0.09418383
197	0x3e9a5248	0.301409
198	0xbcc37188	-0.023857847
199	0xbdb99d2e	-0.09063183
200	0x3e948496	0.29007405
201	0x3de2ce02	0.11074449
202	0xbc6c2d06	-0.014415031
203	0x3cac31fc	0.021019928
204	0xba09963b	-0.00052485213
205	0x3ddad960	0.10685992
206	0xbe6e44cd	-0.23268433
207	0x3e2aa988	0.16666234
208	0x3db53960	0.08848834
209	0x3d9a4e0d	0.07534418
210	0xbe983a25	-0.2973186
211	0x3e41661b	0.18886606
212	0x3e6ec89b	0.23318712
213	0xbe46e1d7	-0.19422089
214	0x3a74f108	0.0009343778
215	0xbdbf58dc	-0.093431205
216	0x3eacfcd0	0.3378663
217	0x3daa88af	0.083268516
218	0x3ea04835	0.3130509
219	0x3dd44317	0.10364359
220	0x3e108171	0.14111878
221	0x3ebb7d42	0.36619002
222	0xbecb8c42	-0.39755446
223	0xbec8d8e8	-0.39227986
224	0xbe3fb2bf	-0.1872053
225	0xbc8d62ea	-0.01725908
226	0x3e55ebdd	0.20890756
227	0x3dd08dec	0.101833194
228	0x3e22906e	0.15875408
229	0xbd8f978f	-0.070113294
230	0xbdee32a7	-0.11630755
231	0xbef121e4	-0.4709617
232	0xbd365990	-0.044519007
233	0x3e1f7bb1	0.15574528
234	0x3c1b7b24	0.009489808
235	0xbe9277c5	-0.28607002
236	0x3e7ec985	0.24881561
237	0xbe074f40	-0.13213825
238	0xbe00335e	-0.12519595
239	0xbdf5a8aa	-0.11995061
240	0x3ec721dc	0.3889302
241	0x3d836385	0.06415466
242	0x3bbabb24	0.0056985784
243	0xbea37e9b	-0.3193253
244	0x3ebe64fd	0.37186423
245	0xbe603b6c	-0.21897668
246	0x3dd61a3b	0.10454222
247	0xbe945084	-0.2896768
248	0x3e00bc62	0.12571862
249	0x3e4e8240	0.20166874
250	0xbe8a6f0a	-0.2703784
251	0xbdba67f8	-0.09101862
252	0xbe8359c2	-0.25654417
253	0xbdeb75ca	-0.11497076
254	0x3e38c09f	0.18042229
255	0xbe8688be	-0.262762

lstm.bias_ih_l0 f4 [392]
0	0xbd02b402	-0.03190995
1	0xbd5c5d18	-0.05379972
2	0x3e9cfec3	0.30663118
3	0xbe7f93ea	-0.24958768
4	0xbd34ffd2	-0.04418928
5	0x3d8ecc12	0.06972517
6	0x3d2510f2	0.040299363
7	0xbc92ea64	-0.017934032
8	0xbd416713	-0.04721744
9	0x3cb7ea34	0.022450544
10	0x3b86d784	0.004115047
11	0x3d9bd577	0.076090746
12	0x3dbeb306	0.0931149
13	0x3dea2012	0.11431898
14	0x3e10cb62	0.14140084
15	0x3dcc761c	0.09983465
16	0xbde02850	-0.10945189
17	0xbe3c1c7b	-0.1837024
18	0x3e054c48	0.1301738
19	0x3d621433	0.055195045
20	0xbe936621	-0.28788856
21	0x3cbdd441	0.0231725
22	0x3e09d5be	0.13460442
23	0xbd30c33c	-0.04315494
24	0xbe09c1f1	-0.13452889
25	0xbe6687da	-0.22512761
26	0xbd3bef08	-0.045882255
27	0xbd28a6ce	-0.041174702
28	0xbddaa8bf	-0.10676717
29	0x3ddeef64	0.10885504
30	0xbebc7955	-0.3681132
31	0xbe1f3d4a	-0.15550724
32	0xbdf5b24c	-0.11996898
33	0x3c913218	0.017724082
34	0xbe5b24e7	-0.21400796
35	0x3dbd77dc	0.09251377
36	0x3e290613	0.16506223
37	0x3debe397	0.11518019
38	0x3dd2e49c	0.1029751
39	0x3d60d041	0.054886106
40	0x3e5b8c95	0.21440347
41	0x3d1241bd	0.035707224
42	0xbd1b434f	-0.037905987
43	0x3c9a49b5	0.018833974
44	0xbddbfc0a	-0.10741432
45	0x3db86671	0.09003914
46	0x3d413524	0.04716982
47	0x3d6f6590	0.058446467
48	0xbe4c1fb7	-0.19933973
49	0xbcd24bb9	-0.025670873
50	0x3df78305	0.12085537
51	0xbe3c4ff6	-0.18389878
52	0xbcda4e9d	-0.026648814
53	0xbcd10e87	-0.025519622
54	0xbcb51b97	-0.022107882
55	0xbd5276db	-0.05138288
56	0xbb383936	-0.0028110272
57	0xbca5f46d	-0.020258153
58	0x3d7bee3d	0.0615065
59	0xbd1bfe2c	-0.038084194
60	0xbe0915b2	-0.13387182
61	0x3d1f5d18	0.03890714
62	0xbe4bcf6d	-0.19903345
63	0x3e32dffd	0.17468257
64	0x3bc9e3c8	0.006161187
65	0x3ccebe31	0.025237175
66	0x3e4f45d3	0.2024148
67	0xbe5793ea	-0.21052518
68	0x3cc9169b	0.024546912
69	0xbe176f54	-0.14788562
70	0x3c4c1e66	0.012458419
71	0x3dc9a72c	0.09846339
72	0x3e1b64a5	0.15175112
73	0xbe358b60	-0.17728949
74	0xbd5dd01b	-0.054153543
75	0xbe2e13eb	-0.16999786
76	0x3e6271c6	0.22113714
77	0xbc829c7d	-0.01594376
78	0xbe5dbe98	-0.21654737
79	0xbe297bd2	-0.1655114
80	0x3e80f2b2	0.25185162
81	0x3d225626	0.03963294
82	0xbd117a13	-0.03551681
83	0xbe4b63bd	-0.19862266
84	0x3e4417fa	0.19149771
85	0xbc9d252e	-0.019182768
86	0xbdbc6d83	-0.09200575
87	0xbd79d3c4	-0.06099297
88	0xbdef2f7f	-0.11678981
89	0x3c77faf7	0.015135518
90	0xbdc62746	-0.096754596
91	0xbea4193f	-0.3205051
92	0xbd8a4733	-0.067518614
93	0xbe071570	-0.13191772
94	0xbc593ed0	-0.013259605
95	0x3ed67077	0.4188268
96	0x3d751a0b	0.05983929
97	0xbe27a56b	-0.16371696
98	0xbe352c85	-0.17692764
99	0x3ccee654	0.025256313
100	0xbdfb1b3d	-0.12261055
101	0xbe3ca6c5	-0.18422993
102	0xbdeef49e	-0.11667751
103	0x3c08154c	0.008305859
104	0xbe4cdaea	-0.20005384
105	0xbdbbddd2	-0.09173168
106	0xbda6a0c4	-0.08136132
107	0x3e9752db	0.295554
108	0x3bbf6c20	0.005841747
109	0xbe057d04	-0.13035971
110	0xbe47f2a0	-0.19526148
111	0xbd73a310	-0.05948168
112	0xbdf44748	-0.11927658
113	0xbd448e63	-0.047987353
114	0xbdc1a01c	-0.094543666
115	0xbd7f798f	-0.062371787
116	0xbe8c02a7	-0.27345774
117	0xbe2c047e	-0.16798589
118	0xbcdccf07	-0.026954187
119	0xbdf1e379	-0.11810965
120	0xbe19c7d6	-0.15017638
121	0x3c59c969	0.013292649
122	0x3dc7b10f	0.09750568
123	0xbe64ab55	-0.22330983
124	0xbddd2789	-0.10798556
125	0x3b2d98c9	0.0026488772
126	0xbe1d1865	-0.15341337
127	0xbdece591	-0.11567224
128	0xbe4649ea	-0.19364133
129	0xbe8c8e60	-0.27452374
130	0xbd7c39de	-0.061578624
131	0xbd33fe02	-0.043943413
132	0xbe288dbe	-0.1646032
133	0xbd681d84	-0.056668773
134	0xbe38aeba	-0.18035403
135	0xbe57b81a	-0.21066323
136	0xbe85b198	-0.26112056
137	0xbe8d20fa	-0.27564222
138	0xbdf9285d	-0.12165902
139	0xbd949b81	-0.072562225
140	0xbde804b3	-0.11329021
141	0xbd623d79	-0.055234406
142	0xbd8eb8a6	-0.06968813
143	0xbde1fb74	-0.11034289
144	0xbe3fb5c4	-0.18721682
145	0xbe10c629	-0.14138092
146	0xbd9df4d5	-0.07712714
147	0xbe77ae44	-0.24187571
148	0xbe236929	-0.15958084
149	0xbda7980c	-0.081832975
150	0xbe0a5065	-0.1350723
151	0xbd0abd58	-0.03387198
152	0x3caf4180	0.021393538
153	0xbe00dabd	-0.12583442
154	0xbd7f1fde	-0.06228625
155	0xbd53dae1	-0.05172241
156	0xbd4e8fe2	-0.050430186
157	0xbd899be7	-0.06719189
158	0xbcc966a8	-0.024585083
159	0x3e0eea35	0.1395653
160	0xbd5d6dc1	-0.054059748
161	0xbe3c3003	-0.1837769
162	0x3cf43a42	0.029812936
163	0xbd32daf2	-0.043665834
164	0xbe508258	-0.20362222
165	0x3e27c447	0.16383468
166	0x3da4382c	0.080185264
167	0xbdfebb02	-0.12438013
168	0xbdc84b0b	-0.09779938
169	0x3dc63ab7	0.09679168
170	0x3d481364	0.048846617
171	0xbdb8bcb9	-0.09020371
172	0xbe626b4a	-0.2211124
173	0x3dc66df9	0.09688944
174	0xbdc87801	-0.09788514
175	0xbd0a8752	-0.033820458
176	0x3d9302a6	0.071782395
177	0xbe1d1186	-0.15338716
178	0xbe3e2e00	-0.18572235
179	0xbd919f01	-0.07110406
180	0xbd8d756b	-0.06907161
181	0xbdc5b9fc	-0.09654614
182	0xbe11e697	-0.1424812
183	0x3ca25e86	0.019820463
184	0x3d79e0d4	0.06100543
185	0xbe8c08e4	-0.27350533
186	0xbdf99ab5	-0.12187711
187	0xbd89b1cc	-0.06723365
188	0xbe4f7435	-0.20259173
189	0xbe3d6838	-0.18496788
190	0xbdf541cc	-0.119754404
191	0xbe250cf4	-0.16118222
192	0xbd5e14ad	-0.054218937
193	0xbe4ccffc	-0.20001215
194	0xbe9e6e28	-0.30943418
195	0xbd9b2e11	-0.07577146
196	0x3d4bee65	0.049787898
197	0x3d94af07	0.07259946
198	0xbdc46028	-0.09588653
199	0x3c889ca4	0.016676255
200	0xbc83838b	-0.016053936
201	0x3d865182	0.06558515
202	0xbcc2474a	-0.023715634
203	0x3d949182	0.07254316
204	0x3b6e12cc	0.0036327122
205	0x3d55ba03	0.052179348
206	0x3d523697	0.051321592
207	0x3d14497b	0.03620289
208	0xbd49d3f3	-0.049274396
209	0x3c6a02ac	0.014282864
210	0xbd388c51	-0.04505569
211	0x3d113d3b	0.035458785
212	0x3cba11f4	0.022713639
213	0x3de84eac	0.113431305
214	0x3c0d6fc5	0.008632605
215	0xbc9ceb4a	-0.019155163
216	0x3dfba252	0.122868195
217	0xbb75544e	-0.0037434283
218	0xbd142ac6	-0.036173604
219	0xbcf5b01c	-0.029991202
220	0x3d2c08de	0.042000644
221	0xbc0ff790	-0.008787051
222	0xbd85c5b3	-0.06531849
223	0x3d33d7ed	0.043907095
224	0x3d5faf65	0.05461063
225	0x3d55475f	0.052070018
226	0x3c2a6036	0.010398915
227	0xbd03d4e5	-0.032185454
228	0x3d77c19a	0.060487367
229	0xbddce0d2	-0.107850686
230	0xbdaac119	-0.08337612
231	0xbc99914e	-0.018746044
232	0xbcdd59e1	-0.027020397
233	0xb8db7f72	-0.00010466472
234	0x3ca6fd11	0.020384343
235	0x3db5de08	0.0888024
236	0xbb58ce0e	-0.0033081803
237	0x3d907b28	0.0705474
238	0xbd21f95b	-0.039544445
239	0xbd96e584	-0.073679954
240	0xbd89c538	-0.067270696
241	0x3abd07d1	0.0014421885
242	0xbc4e9ca7	-0.012610591
243	0xbcdc26da	-0.026873995
244	0xbdc8bcd6	-0.098016426
245	0x3cd05007	0.025428785
246	0xbd9eb37c	-0.07749078
247	0x3ccd7ea1	0.025084795
248	0xbe06259b	-0.13100283
249	0x3d1e8505	0.038701076
250	0xbd76a0b6	-0.06021186
251	0x3909d8a7	0.00013146047
252	0x3cde5aa5	0.027142832
253	0xbdc5917a	-0.09646888
254	0x3991e343	0.00027825878
255	0xbc2a0282	-0.0103765745

lstm.bias_hh_l0 f4 [392]
0	0xb9bb9818	-0.00035780738
1	0x3d941c4b	0.07231959
2	0x3efd7b73	0.49508247
3	0xbe2c1a7e	-0.16806981
4	0x3d4c04f1	0.0498094
5	0x3dd1ea84	0.102498084
6	0x3c2963f2	0.01033877
7	0xbd57b73c	-0.05266498
8	0xbe38994c	-0.18027228
9	0x3d3090a4	0.04310669
10	0x3e159539	0.14607705
11	0x3d706d7c	0.058698162
12	0x3da60b10	0.08107579
13	0x3d34e8e3	0.04416741
14	0x3d63894c	0.05555086
15	0x3d4352a9	0.047686253
16	0xbdb86fe9	-0.0900572
17	0xbce17d01	-0.027525427
18	0x3e1a5e79	0.15075101
19	0xbcb0fab2	-0.021603916
20	0xbe6886d8	-0.22707689
21	0x3d37fb27	0.044917252
22	0x3d8cb130	0.06869733
23	0xbdef4315	-0.11682717
24	0xbcde729e	-0.027154263
25	0xbdd583e3	-0.10425546
26	0xbd9f1585	-0.077677764
27	0xbe1bf514	-0.15230209
28	0xbd90c537	-0.07068866
29	0x3e1afd45	0.15135677
30	0xbea75475	-0.32681623
31	0xba034d58	-0.00050087785
32	0xbc9596ea	-0.018260438
33	0x3ddc150a	0.107462004
34	0xbe7ebf71	-0.24877717
35	0x3e13e979	0.14444532
36	0x3e07be4a	0.13256183
37	0xbcb8181b	-0.022472432
38	0x3d3e5c65	0.046474833
39	0x3c971239	0.018441306
40	0x3e9a119a	0.30091554
41	0x3e1b7281	0.15180399
42	0xbbcb863d	-0.006211071
43	0xbdeabe80	-0.11462116
44	0xbd9c097a	-0.07618995
45	0x3d52e8fd	0.051491726
46	0x3d713e1e	0.05889713
47	0x3d321243	0.043474447
48	0xbce2a9d3	-0.02766887
49	0xbe11a7a2	-0.14224103
50	0x3e43d1f3	0.19123058
51	0xbe62d21a	-0.2215046
52	0xbcd2e345	-0.025743136
53	0x3daabc8d	0.083367445
54	0xbc984cc0	-0.018591285
55	0xbd1386ba	-0.036017157
56	0x3b94ac01	0.004537106
57	0xbd5a909e	-0.053360574
58	0x3db0b09e	0.08627437
59	0xbcc28bb2	-0.023748253
60	0xbe178659	-0.14797343
61	0xbcefc220	-0.02926737
62	0xbe4611ca	-0.19342723
63	0x3e817eb3	0.25291976
64	0x3ccb7202	0.024834637
65	0xbca44202	-0.020051006
66	0x3e1664e7	0.14686929
67	0xbdf1909b	-0.117951594
68	0x3dd641a7	0.10461741
69	0x3d07205c	0.032989845
70	0x3e5040c6	0.20337209
71	0x3e05cab4	0.13065606
72	0x3c804aa6	0.015660595
73	0xbc76db4f	-0.015066936
74	0xbd64d8c0	-0.05587077
75	0xbe96f6cb	-0.29485163
76	0x3dbc1c67	0.09185105
77	0xbe110aef	-0.14164327
78	0xbe452cc8	-0.19255364
79	0xbdb440c0	-0.088014126
80	0x3da507e4	0.08058146
81	0xbdfac6c1	-0.122449405
82	0xbd89e3ca	-0.067329004
83	0xbe2b3e74	-0.16723043
84	0x3d860d85	0.065455474
85	0xbc4324bf	-0.011910616
86	0xbda8318c	-0.08212575
87	0xbd49099b	-0.049081426
88	0xbe36de0a	-0.17858139
89	0x3d92503a	0.07144208
90	0xbe2679a9	-0.16257347
91	0xbe2f7e94	-0.1713813
92	0xbcf8476e	-0.030307498
93	0xbe29b368	-0.16572344
94	0x3d68ae7b	0.056807023
95	0x3edca0af	0.43091342
96	0x3dab970d	0.0837842
97	0xbd8c2a5d	-0.06844018
98	0xbdcaad86	-0.09896378
99	0x3ba0b060	0.004903838
100	0xbe9f8ef8	-0.31163764
101	0xbe124776	-0.14285073
102	0xbd250abd	-0.040293444
103	0xbe291a1a	-0.16513863
104	0xbe02024e	-0.12696192
105	0x3d27289c	0.040810212
106	0xbc2d74dd	-0.010586944
107	0x3e8b66cb	0.27226862
108	0xbde9eb9b	-0.11421891
109	0xbd2c73b1	-0.04210252
110	0xbe3069c2	-0.17227843
111	0xbe2c8075	-0.16845877
112	0xbe658c4a	-0.22416797
113	0xbe40dddc	-0.18834633
114	0xbe20fffd	-0.15722652
115	0xbe49f86f	-0.19723676
116	0xbe58cd68	-0.21172106
117	0xbde6f1dd	-0.112766005
118	0xbd35b304	-0.044360176
119	0xbd342081	-0.04397631
120	0xbe5bf45b	-0.21479933
121	0xbcbfa786	-0.023395311
122	0xbd083691	-0.033255164
123	0xbe8c80b6	-0.2744195
124	0xbdc30b53	-0.09523644
125	0xbd4eba14	-0.050470427
126	0xbd9dc380	-0.07703304
127	0xbccd54db	-0.025064876
128	0xbd8e466a	-0.06947024
129	0xbe27f6ec	-0.16402787
130	0xbcdbea0c	-0.026845
131	0xbe2101b4	-0.15723306
132	0xbe0fd30d	-0.14045353
133	0xbd91a1d1	-0.07110942
134	0xbdce3105	-0.100679435
135	0xbe36b271	-0.17841507
136	0xbddb76fc	-0.10716054
137	0xbdb07ede	-0.08617948
138	0xbe33363f	-0.17501162
139	0xbd8852e3	-0.066564344
140	0xbe1b35f3	-0.15157299
141	0xbe0381f4	-0.12842542
142	0x3b5232cc	0.0032073734
143	0xbe259989	-0.1617185
144	0xbe6f58be	-0.23373696
145	0xbe567dc2	-0.2094641
146	0x3d7ec1e2	0.06219662
147	0xbe840658	-0.2578609
148	0xbdef0746	-0.11671309
149	0x3cbf1d2b	0.023329338
150	0xbd454205	-0.048158664
151	0xbcff9c1e	-0.031202372
152	0x3bad4093	0.005287239
153	0xbe1d7cac	-0.1537959
154	0xbe19af46	-0.15008268
155	0xbd94c9ed	-0.07265077
156	0xbdb8f7aa	-0.09031613
157	0xbe52e724	-0.20595986
158	0xbda7b8d7	-0.08189552
159	0x3e3f2d3e	0.18669602
160	0xbdeb45f4	-0.11487952
161	0xbdccd8ad	-0.10002265
162	0x3cdb215b	0.026749304
163	0xbd6b22bd	-0.057406176
164	0xbe543bc4	-0.20725924
165	0x3dd03d46	0.10167937
166	0x3d9ba316	0.075994655
167	0x3cea7e7b	0.028624764
168	0xbdae3014	-0.08505264
169	0xbd27df48	-0.040984422
170	0x3d431dad	0.047635723
171	0xbe1323f0	-0.14369178
172	0xbd734bd3	-0.059398483
173	0x3d71548e	0.05891853
174	0xbdca44d2	-0.09876408
175	0xbdf47331	-0.119360335
176	0x3cd615dd	0.026133472
177	0xbe0b15ad	-0.13582487
178	0xbdf1d755	-0.118086495
179	0xbd8df2d1	-0.06931079
180	0xbdc9163f	-0.09818696
181	0xbdee5205	-0.11636738
182	0xbdb2201c	-0.086975306
183	0x3de25ff7	0.1105346
184	0xbc9d7d7e	-0.019224878
185	0xbe8b4808	-0.27203393
186	0xbcbd2115	-0.023087064
187	0x3cbc4633	0.022982692
188	0xbd857779	-0.06516928
189	0xbe5e38aa	-0.21701303
190	0xbe08ef7e	-0.13372609
191	0xbd85b2a7	-0.06528216
192	0xbe1f880a	-0.15579239
193	0xbe1a94df	-0.15095852
194	0xbe5edbde	-0.2176356
195	0xbe2169cf	-0.15763019
196	0x3b7e5821	0.0038809853
197	0x3d502627	0.050817635
198	0x3d77b67a	0.060476758
199	0x3c25754b	0.010098766
200	0x3d892548	0.06696564
201	0xbc592433	-0.0132532595
202	0xbccf1e7a	-0.025283087
203	0xbc842e10	-0.016135246
204	0x3d83baf2	0.06432141
205	0x3dcc4b25	0.0997527
206	0x3dd7551b	0.105142795
207	0x3db22352	0.08698143
208	0x3d9dafa3	0.07699516
209	0xbd148a9e	-0.03626501
210	0x3d4afb6c	0.04955618
211	0xbd087d18	-0.033322424
212	0x3dc68141	0.09692622
213	0xbccc7761	-0.024959268
214	0x3da663fe	0.08124541
215	0x3d2476ae	0.040152244
216	0x3df0ed07	0.117639594
217	0x3c433476	0.011914363
218	0x3d5ed65b	0.054403644
219	0x3ce7d52a	0.028299887
220	0xbce2e9cd	-0.027699376
221	0xbd8be3fb	-0.06830593
222	0xbda6dc4d	-0.08147488
223	0xbdbe653a	-0.09296651
224	0x3d555973	0.05208726
225	0x3d3c9c94	0.046047762
226	0xbd17172c	-0.036887333
227	0x3cafeea0	0.02147609
228	0x3ce28bd5	0.027654568
229	0xbd76fe1a	-0.060300924
230	0x3db31594	0.0874435
231	0x3d79def9	0.06100366
232	0xbdac9f0b	-0.084287725
233	0x3c97c042	0.018524293
234	0xbd44ead3	-0.04807551
235	0xbd86c30a	-0.065801695
236	0xbdea42dd	-0.114385344
237	0xbd4ce897	-0.050026502
238	0x3b8e4411	0.0043416102
239	0x3da03042	0.078217044
240	0x3d6ee576	0.0583243
241	0xbaecb222	-0.0018058459
242	0xbc988082	-0.018615965
243	0xbd0e9712	-0.03481204
244	0x3d476f5e	0.048690192
245	0xbc49731e	-0.0122955125
246	0x3c79bcea	0.0152427945
247	0x3d3e15cb	0.046407502
248	0x3c873ba3	0.01650793
249	0x3d8731e8	0.06601316
250	0xbd1a416c	-0.037660047
251	0xbd26b71e	-0.040701978
252	0x3dc5b6ac	0.096539825
253	0xbd057a4b	-0.03258733
254	0x3c1fba6e	0.009749038
255	0x3dbccf17	0.09219187

lstm.weight_ih_l1 f4 [392, 98]
0	0xbda5f7eb	-0.08103927
1	0xbc1a9835	-0.009435703
2	0x3d171ddf	0.03689372
3	0x3b796461	0.0038054215
4	0xbc8d80ee	-0.017273393
5	0x3e07d5ff	0.13265227
6	0x3d20acf6	0.03922745
7	0x3e33c877	0.1755694
8	0x3e51e1c1	0.20496275
9	0x3d94c7ab	0.07264646
10	0x3e4da0ef	0.20080923
11	0x3dbfbd9d	0.09362338
12	0x3dc7d282	0.09756948
13	0x3d433a0d	0.047662783
14	0xbe9b2b88	-0.3030665
15	0x3cdb98a2	0.02680618
16	0x3d708677	0.058721986
17	0x3dbbc90a	0.091692045
18	0x3d640e45	0.05567767
19	0xbd7f2d84	-0.062299266
20	0x3e2a7e21	0.16649677
21	0x3dc3a084	0.095521
22	0x3dc8166f	0.09769904
23	0xbde803b6	-0.11328833
24	0xbb5db740	-0.003383115
25	0x3e172ac8	0.14762414
26	0xbe98807a	-0.2978552
27	0x3d4c3fcd	0.049865533
28	0x3ed4c1d5	0.41554132
29	0xbd409f70	-0.04702705
30	0xb9aa01ff	-0.00032426414
31	0xbe0b9e85	-0.13634689
32	0x3dd46a21	0.10371805
33	0xbdff6299	-0.12469978
34	0x3d308843	0.0430987
35	0xbb795437	-0.003804458
36	0xbdf874a0	-0.121316195
37	0xbd0aba1a	-0.033868887
38	0xbc20bf2c	-0.009811204
39	0xbe469418	-0.19392431
40	0xbd7f39ba	-0.06231091
41	0xbd72cbe6	-0.059276484
42	0xbca5f623	-0.020258969
43	0x3c6fcaed	0.014635784
44	0x3dbdebe6	0.0927351
45	0x3b487252	0.0030585718
46	0xbcf44d2e	-0.029821958
47	0xbdf1634a	-0.11786516
48	0x3ec3118d	0.38099328
49	0x3d543fae	0.051818542
50	0xbd88b1da	-0.066745475
51	0xbc031bb8	-0.008002214
52	0x3d814b5c	0.06313202
53	0x3e6167a6	0.22012195
54	0xbc7b2660	-0.0153289735
55	0xbda9bd4e	-0.0828806
56	0x3e5344f1	0.20631768
57	0xbe0966a7	-0.13418065
58	0x3c95fa37	0.018307788
59	0x3d21d892	0.03951318
60	0x3ea59cfc	0.32346332
61	0x3e8ba309	0.27272823
62	0xbe1e53f6	-0.15461716
63	0xbce45f96	-0.02787761
64	0x3e85c6b7	0.2612817
65	0x3e39bbb9	0.18138017
66	0xbd899f2d	-0.067198135
67	0xbd232764	-0.039832488
68	0xbd0a622e	-0.033785038
69	0xbe296c60	-0.16545248
70	0x3ce3585f	0.0277521
71	0xbd9235d1	-0.07139171
72	0x3deb90f8	0.1150226
73	0x3e9d8df5	0.30772367
74	0x3db261ac	0.08710036
75	0xbd1918dc	-0.037377223
76	0xbe0be719	-0.13662376
77	0xbd815767	-0.06315499
78	0xbe979d25	-0.2961208
79	0xbe191d79	-0.14952649
80	0xbe399e91	-0.18126895
81	0x3dd73577	0.105082445
82	0x3c1feff6	0.009761801
83	0x3e1643cd	0.14674301
84	0xbdaa7eaa	-0.083249405
85	0xbe1172cf	-0.14203952
86	0x3db5e62e	0.08881794
87	0x3e180c76	0.14848503
88	0xbe0ae9e8	-0.1356579
89	0xbd6c3ccd	-0.05767517
90	0x3cd63090	0.026146203
91	0x3bb8d0d2	0.0056401277
92	0x3c6faad8	0.014628135
93	0xbe30b639	-0.17257012
94	0x3c20ae26	0.009807145
95	0xbe74f293	-0.2392066
96	0xbdef2a51	-0.11677993
97	0x3d8282ee	0.06372629
98	0x3e6c06e4	0.23049504
99	0x3d987b9f	0.07445454
100	0x3df7b915	0.120958485
101	0xbe354c82	-0.17704967
102	0x3eaf8481	0.3428078
103	0xbea27158	-0.317271
104	0xbe93bbd0	-0.28854227
105	0x3eecef0d	0.4627613
106	0xbe1c5a43	-0.15268807
107	0xbe17256c	-0.14760369
108	0xbe94cc0d	-0.29061928
109	0x3e946aae	0.2898764
110	0x3eebdef9	0.46068552
111	0x3ea525b8	0.3225534
112	0xbea5b950	-0.32367945
113	0x3ec54ad9	0.38533667
114	0x3e984d43	0.29746446
115	0x3e708f09	0.23492064
116	0xbdbff670	-0.09373176
117	0xbea87b5d	-0.3290662
118	0xbe92a08f	-0.2863812
119	0x3ea94783	0.33062372
120	0x3ede9171	0.43470338
121	0x3ea5847e	0.32327646
122	0x3d27d40c	0.040973708
123	0x3ce9ed7d	0.028555626
124	0xbe85bbfb	-0.2611998
125	0xbda7929c	-0.081822604
126	0xbedc5e79	-0.43040827
127	0xbd6a6c63	-0.057232272
128	0x3c1629f1	0.009165273
129	0x3eb2a6ba	0.34892827
130	0x3e87c16d	0.2651476
131	0xbefc8714	-0.49321806
132	0xbe8a91ff	-0.2706451
133	0xbef0c0eb	-0.47022185
134	0xbee1c2fb	-0.4409407
135	0x3e2da79e	0.16958472
136	0xbec8bf1d	-0.39208308
137	0xbebdd5b7	-0.37077114
138	0xbcd1252d	-0.025530422
139	0xbe80884b	-0.25103983
140	0x3e9626a4	0.29326355
141	0xbee2cf27	-0.4429867
142	0x3c6287b2	0.013826298
143	0x3eb7255b	0.35770687
144	0x3e5511b5	0.20807536
145	0xbe45e65b	-0.19326155
146	0x3e0df47a	0.13862792
147	0xbe5627b8	-0.20913589
148	0x3eafeae0	0.34358883
149	0xbe0f0cf5	-0.13969786
150	0xbefeaabf	-0.49739644
151	0x3e40dabc	0.1883344
152	0xbe871331	-0.2638183
153	0xbe8d8925	-0.27643695
154	0xbe40b1a3	-0.18817763
155	0xbe9a01ff	-0.30079648
156	0xbeba481d	-0.36383143
157	0xbea2b94d	-0.31781998
158	0xbe54af79	-0.20770063
159	0x3daec16b	0.08532985
160	0x3dbca624	0.09211376
161	0xbe57c159	-0.2106985
162	0xbdf7114e	-0.120638475
163	0x3edd7700	0.43254852
164	0x3bf535ac	0.007483205
165	0x3d266c7e	0.04063081
166	0x3d846414	0.06464401
167	0xbeb3cac0	-0.35115623
168	0x3e1a09a6	0.15042743
169	0x3da40330	0.080084205
170	0x3f11bde9	0.56930405
171	0xbeb31bf7	-0.34982273
172	0x3ebe7f3c	0.37206447
173	0xbd563b56	-0.05230268
174	0x3ea8e5cf	0.3298783
175	0x3e9414f5	0.2892224
176	0x3e2cc420	0.16871691
177	0xbdb46f62	-0.08810307
178	0xbe8a44c0	-0.27005577
179	0x3eac2f69	0.3362992
180	0x3e98dba5	0.29855075
181	0x3e55a62d	0.20864172
182	0x3eede0ad	0.46460477
183	0xbec44a8b	-0.38338122
184	0xbe66b951	-0.2253163
185	0xbe4622fd	-0.19349284
186	0x3e45f7e1	0.1933284
187	0x3ec1b376	0.3783223
188	0xbe7408d7	-0.23831497
189	0x3dec55f2	0.1153983
190	0xbdc6e0b9	-0.09710831
191	0x3eb98c4b	0.36239848
192	0x3e3339da	0.17502537
193	0xbe87b3bd	-0.26504317
194	0x3e01c36e	0.12672207
195	0x3ecc1523	0.39859876
196	0x3e511506	0.20418176
197	0xbd8f797b	-0.070055924
198	0x3e99d805	0.30047622
199	0xbe44029c	-0.1914162
200	0x3db6a952	0.08919014
201	0xbce7c3fb	-0.028291693
202	0xbe0a91e8	-0.13532221
203	0x3e13de09	0.14440168
204	0x3db9797d	0.09056375
205	0x3d196235	0.037447173
206	0x3dd0b6d6	0.10191123
207	0x3e3d7789	0.1850263
208	0x3b9c2f27	0.004766363
209	0x3e7e8763	0.24856333
210	0x3c0f3a4c	0.008741926
211	0x3e834c34	0.25644076
212	0x3e40943d	0.18806548
213	0x3d95174d	0.07279835
214	0x3ad7dc3f	0.0016468837
215	0xbe287320	-0.16450167
216	0xbdad0c7f	-0.08449649
217	0xbd97f380	-0.07419491
218	0x3de7441d	0.112922885
219	0xbe0197b1	-0.12655522
220	0xbdee1b3d	-0.11626289
221	0xbcf7447d	-0.030184025
222	0xbdc93272	-0.09824075
223	0xbb204771	-0.0024456645
224	0xbe04ba7a	-0.1296176
225	0xbc8de6db	-0.017321995
226	0x3d761664	0.060079947
227	0xbd89595b	-0.06706496
228	0x3d4feef8	0.050765008
229	0xbe76dd00	-0.24107742
230	0xbe067446	-0.13130292
231	0xbe0e0bbf	-0.13871668
232	0xbe6527db	-0.22378485
233	0x3e30aade	0.1725268
234	0xbe3a158b	-0.1817228
235	0xbd9694dd	-0.07352612
236	0xbd1a8ad6	-0.03773006
237	0xbe51a46e	-0.20472881
238	0x3db175ed	0.08665071
239	0x3d80142d	0.06253848
240	0xbdba40af	-0.09094369
241	0x3e159db9	0.14610948
242	0x3e55a02e	0.20861885
243	0xbdc1f11c	-0.09469816
244	0xbc95895b	-0.018253973
245	0xbd57594b	-0.05257539
246	0x3d8cd33f	0.068762295
247	0x3e043afd	0.12913127
248	0xbe3f29e9	-0.18668331
249	0x3df65dab	0.120295845
250	0xbe32c4c5	-0.17457874
251	0xbe657c66	-0.22410735
252	0xbdea2ad2	-0.114339486
253	0x3cae915d	0.021309549
254	0xbe92bfad	-0.28661862
255	0xbd5df0f4	-0.05418487

lstm.weight_hh_l1 f4 [392, 98]
0	0x3e84d6c1	0.25945094
1	0x3e731217	0.2373737
2	0x3d5809c5	0.052743692
3	0x3e005d78	0.12535655
4	0xbda1912e	-0.07889019
5	0x3d5f7685	0.05455639
6	0x3dd259cb	0.10271033
7	0x3e66a2be	0.22523019
8	0xbe1bebab	-0.15226619
9	0x3dea9c4b	0.11455592
10	0x3e29d035	0.16583331
11	0x3e43bb59	0.19114436
12	0x3bb8db62	0.005641387
13	0xbc24c41a	-0.01005652
14	0x3e38248a	0.17982689
15	0xbe9579c5	-0.29194465
16	0xbe5a6e50	-0.21331143
17	0xbd377672	-0.044790693
18	0xbe1374df	-0.14400052
19	0x3e8ac621	0.27104285
20	0xbdacde0d	-0.0844079
21	0x3e3cc292	0.18433598
22	0xbd8c3fe1	-0.068481214
23	0xbdbcce05	-0.092189826
24	0x3e26fb03	0.16306691
25	0xbe1db6eb	-0.15401809
26	0x3d744ced	0.059643675
27	0x3e379c5e	0.17930743
28	0x3d9936a8	0.07481128
29	0x3d80444a	0.06263025
30	0x3da7d3a0	0.08194661
31	0x3e0e44c0	0.13893414
32	0xbe89b2cf	-0.26894233
33	0xbe076287	-0.13221179
34	0x3d5cf35c	0.053943023
35	0x3e4858ea	0.19565168
36	0x3dc68231	0.09692801
37	0xbdc0d23b	-0.09415098
38	0x3aed4936	0.0018103484
39	0x3d8cb5b8	0.068705976
40	0x3deacd85	0.11464981
41	0xbe53b211	-0.20673396
42	0xbde5d50b	-0.11222275
43	0x3e249867	0.16073762
44	0x3d37dde9	0.044889364
45	0xbdd763df	-0.10517096
46	0xbba2eded	-0.0049722106
47	0x3de660b2	0.11248912
48	0x3c6924ea	0.014229992
49	0xbe69d0a7	-0.22833501
50	0x3dccad00	0.09993935
51	0xbe040624	-0.12892967
52	0xbb9ff051	-0.004880943
53	0xbe2ae09d	-0.16687246
54	0x3d44dda5	0.04806294
55	0x3c3ab431	0.0113955
56	0x3edeb2ff	0.43495938
57	0x3d7e01a8	0.0620133
58	0x3d98daa9	0.07463581
59	0xbe20b87e	-0.15695378
60	0x3e111c7f	0.14171027
61	0x3ddc9c85	0.10772041
62	0x3e1a5324	0.15070778
63	0x3e6336a2	0.2218881
64	0xbd8c03e3	-0.06836679
65	0xbe0f4301	-0.13990404
66	0xbdba2bf7	-0.09090417
67	0x3d9d663a	0.07685514
68	0xbd291f62	-0.041289695
69	0xbe9ac79b	-0.30230412
70	0x3e03fa64	0.12888485
71	0xbe3919a4	-0.18076187
72	0x3de037a1	0.1094811
73	0xbe5e6fd3	-0.21722345
74	0xbcfbef00	-0.030753613
75	0xbd1a22ae	-0.03763073
76	0x3d76021e	0.060060613
77	0x3e600255	0.2187589
78	0x3d46e5c8	0.04855898
79	0xbe935daa	-0.28782398
80	0xbba4b232	-0.0050261253
81	0x3c7b5919	0.015341067
82	0x3cb692e9	0.02228685
83	0xbd24ed6d	-0.04026549
84	0x3e673765	0.22579725
85	0xbc26e415	-0.010186215
86	0xbdd09797	-0.101851635
87	0xbddcc86e	-0.107804164
88	0xbe259871	-0.16171433
89	0xbd8b40a3	-0.06799438
90	0xbdd5648a	-0.10419567
91	0x3e75ade6	0.23992118
92	0xbd78f6aa	-0.060782112
93	0x3e6e6968	0.23282397
94	0xbda7c123	-0.08191135
95	0xbc66188a	-0.0140439365
96	0x3dad53a7	0.08463221
97	0xbe0651ef	-0.13117193
98	0x3d6379d5	0.05553611
99	0x3d4292e5	0.04750337
100	0xbdff6447	-0.12470298
101	0xbc389b5c	-0.011267509
102	0xbb296fbc	-0.0025853952
103	0x3e77de66	0.24205932
104	0x3e0ae847	0.1356517
105	0xbdd4fa84	-0.103993446
106	0xbce3c27b	-0.027802696
107	0xbc908a0d	-0.017643953
108	0x3de70a54	0.11281267
109	0xbea4f9b5	-0.3222176
110	0xbe383a5c	-0.17991012
111	0x3da32865	0.07966689
112	0xbd15d5c9	-0.036580835
113	0xbdcbdea3	-0.09954574
114	0x3e08cdd4	0.13359767
115	0xbe926302	-0.28591162
116	0xbe980255	-0.2968928
117	0x3def6a29	0.1169017
118	0xbe9c653c	-0.30545986
119	0x3d078abd	0.033091296
120	0x3d10782e	0.035270862
121	0xbbdda7d3	-0.006764391
122	0xbe15e9dc	-0.14639992
123	0xbe73a844	-0.23794657
124	0xbdd22d4d	-0.10262547
125	0x3daa0311	0.08301366
126	0x3cfa00aa	0.030517895
127	0xbe316c64	-0.17326504
128	0x3e736591	0.23769213
129	0x3e85ffd2	0.26171738
130	0xbda8f5af	-0.082499854
131	0x3e029f60	0.12756109
132	0x3e61d61a	0.2205433
133	0x3e3f70c6	0.18695363
134	0x3e681a0c	0.22666186
135	0xbd14c6ae	-0.03632229
136	0x3dae4505	0.08509258
137	0xbbc83ce2	-0.0061107734
138	0xbdc02b2f	-0.093832366
139	0x3ccab7f3	0.024745917
140	0xbe841b6e	-0.25802177
141	0xbd7558e2	-0.05989922
142	0x3c30cdf6	0.010791292
143	0xbd4a9ace	-0.04946404
144	0x3ea1a780	0.31573105
145	0x3e481c3b	0.19542019
146	0xbd83ec5c	-0.06441566
147	0x3e2b8d4c	0.16753119
148	0x3e6ae6a2	0.22939542
149	0x3e425929	0.18979324
150	0xbe1e61a9	-0.15466942
151	0xbd847cb9	-0.064691015
152	0x3dc21988	0.09477526
153	0xbe317573	-0.1732996
154	0x3be4b4fe	0.0069795838
155	0x3ce37974	0.027767874
156	0x3e355da4	0.17711502
157	0xbe2eaad7	-0.17057358
158	0x3b6bc6a2	0.0035976549
159	0xbd4684e5	-0.04846658
160	0xbbefe0ab	-0.0073204837
161	0xbd768c5a	-0.060192443
162	0xbe20ceee	-0.15703937
163	0xbce04356	-0.027375858
164	0xbd94e499	-0.07270164
165	0x3e22de79	0.15905179
166	0xbdedd741	-0.11613322
167	0xbeaa0eee	-0.33214515
168	0x3e540fae	0.20709106
169	0x3ddc645e	0.10761331
170	0x3dff2e5e	0.12460016
171	0x3ecf34ec	0.40470064
172	0xbe55af29	-0.208676
173	0xbdcdf468	-0.100563824
174	0x3ea17a54	0.3153864
175	0x3cb6ed6e	0.022330012
176	0xbf110361	-0.5664578
177	0x3d31d60c	0.04341702
178	0xbbe4ac11	-0.0069785197
179	0xbd40d0a8	-0.04707399
180	0x3c33cdae	0.010974331
181	0x3e1b9e25	0.15197046
182	0xbdcde74d	-0.10053883
183	0xbe19ccb0	-0.15019488
184	0x3e6f151c	0.23347896
185	0xbe328bff	-0.17436217
186	0xbe9a1413	-0.3009344
187	0xbc2abdf9	-0.01042127
188	0xbda53641	-0.08066989
189	0xbe1da7d1	-0.15396048
190	0x3e1d4077	0.15356623
191	0x3de28b27	0.110616975
192	0x3ec44b86	0.3833887
193	0xbde51e61	-0.11187435
194	0xbf08d870	-0.5345526
195	0x3e8b71ab	0.2723516
196	0x3da71ab3	0.08159389
197	0x3e27e863	0.16397242
198	0xbe5edf06	-0.21764764
199	0xbe9b2933	-0.3030487
200	0xbe46c5e1	-0.19411422
201	0x3e447d56	0.19188437
202	0x3e782c6c	0.24235696
203	0x3d8ae19c	0.06781313
204	0xbdef5f55	-0.11688105
205	0xbe751ac7	-0.23935996
206	0x3d8ac087	0.06775003
207	0xbe2d15cf	-0.1690285
208	0xbe9c313a	-0.30506307
209	0xbe3e4da1	-0.185843
210	0xbcd393e1	-0.02582735
211	0x3dcc6b31	0.09981383
212	0xbc9e5c91	-0.019331248
213	0x3dda700b	0.10665902
214	0xbee45a31	-0.4460006
215	0xbe64fa8f	-0.22361206
216	0xbef6a3f9	-0.48171976
217	0x3dd01477	0.10160153
218	0xbe96a380	-0.29421616
219	0xbd132422	-0.03592313
220	0xbd9521ca	-0.072818354
221	0xbebf7058	-0.373904
222	0x3d790266	0.060793303
223	0xbcdd4c07	-0.027013792
224	0x3dd0e3c6	0.10199694
225	0x3d5b92e9	0.0536069
226	0x3eab7d75	0.33494154
227	0x3ea09828	0.31366086
228	0xbcfdca85	-0.030980358
229	0xbd726f32	-0.059188075
230	0x3eb99f78	0.36254478
231	0x3e8a07bf	0.26959035
232	0x3e9bb49f	0.3041124
233	0xbeb1fbe3	-0.34762487
234	0x3ebd8beb	0.3702081
235	0x3e8b2f54	0.27184546
236	0xbd2f3ffe	-0.042785637
237	0xbe93dda2	-0.2888003
238	0xbe7632c9	-0.2404281
239	0xbdf39b10	-0.1189481
240	0xbd8e9e7c	-0.06963822
241	0xbe14ccc4	-0.14531237
242	0x3da92868	0.0825966
243	0x3ebd6d98	0.36997676
244	0xbe7e27f0	-0.24819922
245	0xbda1f79e	-0.07908557
246	0x3edcab4e	0.43099445
247	0x3d8a99fb	0.06767651
248	0xbe206176	-0.15662178
249	0xbe69de67	-0.22838746
250	0x3eb2e5be	0.34940904
251	0xbcf59ec1	-0.029982926
252	0xbdfb85bd	-0.12281368
253	0x3e819b26	0.2531368
254	0x3dd3ce5c	0.10342094
255	0xbddabceb	-0.106805645

lstm.bias_ih_l1 f4 [392]
0	0x3e36e230	0.17859721
1	0xbe088719	-0.13332786
2	0x3d52ebef	0.051494535
3	0xbe886aa0	-0.26643848
4	0xbdd18272	-0.102299586
5	0x3c605a42	0.013693394
6	0x3d99aaf0	0.07503307
7	0xbda6f7f3	-0.08152761
8	0xbe23d743	-0.16000085
9	0x3da42804	0.08015445
10	0xbdeef103	-0.11667063
11	0xbd1347e5	-0.035957236
12	0xbd238c92	-0.03992898
13	0xbe040e6f	-0.12896131
14	0x3b752723	0.003740736
15	0xbe28db1f	-0.16489838
16	0xbe1819f4	-0.1485365
17	0x3d207d1a	0.039181806
18	0xbdc2191f	-0.09477448
19	0xbdca090e	-0.09865008
20	0xbd01def2	-0.031706758
21	0xbde72b42	-0.11287548
22	0xbe0287e0	-0.12747145
23	0x3c08921c	0.008335616
24	0xbdcd486e	-0.100235805
25	0xbc2f1774	-0.010686744
26	0xbe532831	-0.206208
27	0xbe87e99b	-0.26545414
28	0xbe2bb546	-0.16768369
29	0x3cf40203	0.029786116
30	0xbe1231d7	-0.14276825
31	0xbd1a27da	-0.03763566
32	0x3c24dedb	0.0100628985
33	0x3d40ca81	0.047068123
34	0xbca6e352	-0.020372067
35	0xbe108e16	-0.14116701
36	0x3c3c97af	0.011510774
37	0xbe011283	-0.12604718
38	0xbe3282f3	-0.17432766
39	0xbe1d6835	-0.15371783
40	0xbd990baf	-0.074729316
41	0xbddd046f	-0.10791861
42	0xbd73d576	-0.059529744
43	0xbd9ce8f4	-0.0766162
44	0xbe275e53	-0.16344576
45	0xbcbcdcbe	-0.023054477
46	0xbc870d12	-0.016485725
47	0x3bf2b9f8	0.007407423
48	0x3d2bba05	0.04192545
49	0x3c2932e2	0.010327073
50	0xbdf3448a	-0.11878307
51	0xbd47b992	-0.048760958
52	0x3cc82520	0.024431765
53	0xbe2d703a	-0.16937342
54	0xbd9ce7d7	-0.076614074
55	0xbdf6c9b7	-0.12050193
56	0xbdca7036	-0.09884684
57	0xbde2f966	-0.11082725
58	0xbe66d53d	-0.22542281
59	0x3dbe5ae7	0.09294682
60	0xbe209e1f	-0.15685318
61	0xbd4b61be	-0.04965376
62	0x3d232a60	0.039835334
63	0x3cb97fe7	0.022643996
64	0xbe2dd213	-0.16974668
65	0x3dd0af7b	0.1018972
66	0xbe081cc2	-0.1329222
67	0xbe898175	-0.2685658
68	0x3d3f5d48	0.04671982
69	0x3b94fa0c	0.0045464095
70	0xbdf62915	-0.120195545
71	0xbe1d8df1	-0.15386178
72	0x3d30efc7	0.04319742
73	0x3d499a03	0.049219143
74	0x3d78cddc	0.060743198
75	0xbe820ac5	-0.25398842
76	0xbc4c3ad9	-0.012465202
77	0xbe3fd901	-0.18735124
78	0xbde1a983	-0.1101866
79	0xbde3ad46	-0.11117034
80	0xbdeb61f2	-0.11493291
81	0x3dc35823	0.09538295
82	0xbd9fbf62	-0.07800175
83	0xbe13dce2	-0.14439729
84	0xbd377695	-0.044790823
85	0xbdf9c68a	-0.121960714
86	0xbe3c1483	-0.183672
87	0xbcaf0eeb	-0.021369418
88	0xbda56016	-0.080749676
89	0xbce756ba	-0.028239597
90	0xbc300144	-0.010742489
91	0xbe119dbf	-0.14220332
92	0xbbeb631d	-0.007183446
93	0xbe871f35	-0.26390997
94	0x3e8f8a70	0.28035307
95	0xbd0bcd3c	-0.034131274
96	0x3dff9dbf	0.124812596
97	0x3d3cf40d	0.046131182
98	0x3ec3a657	0.38212845
99	0xbe25ec54	-0.16203433
100	0x3dafafd2	0.08578457
101	0x3e915972	0.28388554
102	0x3c5d6016	0.013511678
103	0x3a95e99e	0.0011437421
104	0x3e0a77e8	0.13522303
105	0xbbab7754	-0.005232731
106	0xbdef751f	-0.11692261
107	0xbdee8d26	-0.11648016
108	0xbd2ca3b9	-0.042148326
109	0x3d89ae0f	0.06722652
110	0x3d162b87	0.036662605
111	0xbdbb4675	-0.09144298
112	0xbe536883	-0.20645337
113	0xbc579120	-0.013157159
114	0x3b1ca227	0.0023900361
115	0xbcae604b	-0.02128615
116	0x3d1f1b4e	0.0388444
117	0xbe43b75d	-0.19112916
118	0x3e5a0556	0.21291098
119	0xbd275043	-0.040848028
120	0x3e2e4e01	0.17021944
121	0x3d7866c4	0.06064488
122	0xbdab262f	-0.08356892
123	0xbd3bfa83	-0.045893203
124	0x3bb57798	0.0055379383
125	0xbc33b2fb	-0.010967965
126	0xbe1fb5e3	-0.15596728
127	0xbd23294f	-0.039834317
128	0xbe82e66d	-0.25566426
129	0x3c5bb457	0.013409696
130	0x3d7f6dcc	0.06236057
131	0x3d8bcd8c	0.06826314
132	0x3e472512	0.19447735
133	0xbc9a649a	-0.018846799
134	0x3cdab35d	0.026696855
135	0x3e16816a	0.14697805
136	0x3db00717	0.08595102
137	0x3de0699d	0.10957644
138	0x3e5e4410	0.21705651
139	0x3e49c47b	0.19703858
140	0x3e3d0ea7	0.1846262
141	0x3dd639c4	0.10460237
142	0x3ccb8f60	0.02484864
143	0xbd09d9d5	-0.033655006
144	0xbdbc7c8b	-0.09203442
145	0x3e1cb760	0.15304327
146	0x3e0d5db3	0.13805275
147	0xbe303c10	-0.17210412
148	0x3e37f25e	0.1796355
149	0xbd3709a2	-0.04468692
150	0x3e9d45cc	0.30717313
151	0xbd485bdd	-0.048915733
152	0x3d26f5f7	0.040761914
153	0xbe03c770	-0.12869048
154	0xbd85acdc	-0.06527111
155	0x3c10ee17	0.008845828
156	0x3e29b751	0.16573836
157	0x3e81dd9e	0.25364393
158	0xbe1fc160	-0.1560111
159	0x39deb14b	0.00042475233
160	0xbcfd3af7	-0.030911906
161	0x3d396ca6	0.04526963
162	0x3e1b9f0a	0.15197387
163	0x3d04d7dc	0.032432422
164	0x3ca12d52	0.01967493
165	0xbd9ac609	-0.075573035
166	0x3e2ed396	0.17072901
167	0x3da403d7	0.08008545
168	0x3e40d301	0.18830492
169	0xbcaa81aa	-0.020813782
170	0xbd3b2523	-0.045689713
171	0x3dc82838	0.09773296
172	0x3e04ed28	0.12981093
173	0x3d0cc347	0.03436592
174	0x3d433a41	0.047662977
175	0xbe432b9a	-0.19059601
176	0x3cacb61d	0.021082932
177	0xbd95e1a1	-0.07318426
178	0xbcf63b5a	-0.030057598
179	0x3e5e6f88	0.21722233
180	0xbd9d7f42	-0.07690288
181	0x3dbb88b9	0.09156937
182	0x3d03380f	0.032035884
183	0x3d74d7e0	0.059776187
184	0x3d2a5be2	0.041591533
185	0x3e6243d5	0.22096188
186	0x3df31998	0.11870116
187	0xbcc30e15	-0.023810426
188	0x3ce9080c	0.02844622
189	0xbe7a3b4e	-0.24436685
190	0x3e1e5886	0.15463457
191	0x3c80c7aa	0.015720207
192	0x3ed352b6	0.4127404
193	0x3e7e9fb6	0.24865612
194	0x3d7bd474	0.061481908
195	0xbbc3bd18	-0.0059734695
196	0xbe25e8f9	-0.16202153
197	0x3d77978d	0.060447264
198	0xbe1bd985	-0.15219696
199	0x3cb03aeb	0.02151247
200	0xbdb93e66	-0.09045105
201	0x3dbff627	0.09373122
202	0x3bf3fcb9	0.0074458984
203	0x3dd0ebcb	0.10201224
204	0xbda65520	-0.08121705
205	0xbd3d1e8e	-0.046171717
206	0x3adbd969	0.0016773167
207	0x3d83b9b9	0.06431908
208	0xbd8b5dc9	-0.068049975
209	0xbe436250	-0.19080472
210	0xbc8f9f1a	-0.01753192
211	0xbde56461	-0.112007864
212	0xbc99360d	-0.018702531
213	0xbd4e6e26	-0.050398014
214	0xbd13ded8	-0.036101192
215	0xbd9bd9cf	-0.07609903
216	0xbd8b3e88	-0.06799036
217	0x3de6bf90	0.112670064
218	0xbdc5e3e5	-0.09662608
219	0xbca23b6e	-0.019803729
220	0x3d476a35	0.04868527
221	0xbe4fba83	-0.20285992
222	0x3d9171e3	0.071018
223	0xbdfcf711	-0.12351812
224	0x3dc1ba8b	0.094594084
225	0x3d9cd276	0.0765733
226	0x3e0ec597	0.13942562
227	0x3e3dd0f2	0.18536738
228	0xbe10ea50	-0.14151883
229	0xbd2bca91	-0.04194123
230	0x3cb5f78f	0.022212772
231	0xbda65e66	-0.08123474
232	0x3e893fe3	0.26806554
233	0xbd80821b	-0.06274816
234	0xbad92ab0	-0.0016568508
235	0x3e25cd2d	0.1619155
236	0x3e0e0949	0.1387073
237	0xbd04c9a2	-0.032418855
238	0xbe5d93bd	-0.21638389
239	0x3e218cc1	0.1577635
240	0xbe188cf2	-0.14897516
241	0xbda00190	-0.07812798
242	0x3c4a5f62	0.012351843
243	0x3e431966	0.19052657
244	0x3c84df3d	0.01621973
245	0xbc442d7c	-0.011973735
246	0x3d8bb0e1	0.06820846
247	0x3d17ef6c	0.037093565
248	0x3d443c1f	0.0479089
249	0xbc93e19b	-0.018051913
250	0x3d060e3b	0.032728415
251	0xbd79c10b	-0.060975116
252	0xbd7795f1	-0.06044573
253	0x3e2839bb	0.16428272
254	0xbc6bb642	-0.014386715
255	0xbd44376b	-0.047904413
