models/lstm2.pth (torch, 6619 bytes, 8 tensors)

lstm.weight_ih_l0 f4 [40, 1]
0.059990644 -1.0469267 -0.65531045 0.3633702 0.055507 0.2275991 1.0741538 1.7529315
-0.05523284 0.911307 -0.046537913 2.6531386 0.41869682 0.07788259 -0.8703332 0.765417
-0.3850881 1.0820751 -0.062120833 -1.5215441 0.15345046 0.76104885 0.21093506 0.46234968
0.4031813 -0.1780018 -0.70524776 -1.0657142 0.64054066 0.26001117 0.049304314 0.0816987
0.4465097 1.3428653 2.732059 -0.59509003 0.26286373 0.6345033 -0.43569043 0.90522873
00000000: c0b8 753d b201 86bf 6dc2 27bf a90b ba3e
00000010: 4f5b 633d bd0f 693e df7d 893f 0f60 e03f
00000020: d53b 62bd 6a4b 693f 8a9e 3ebd 06cd 2940
00000030: 6e5f d63e e880 9f3d 28ce 5ebf 5ef2 433f
00000040: 442a c5be 7081 8a3f 6a72 7ebd f5c1 c2bf
00000050: 1e22 1d3e 19d4 423f 5cff 573e 19b9 ec3e
00000060: c86d ce3e 1b46 36be 1e8b 34bf 5369 88bf
00000070: 79fa 233f 2f20 853e 52f3 493d a651 a73d
00000080: eb9c e43e 03e3 ab3f 0eda 2e40 d257 18bf
00000090: 1396 863e cf6e 223f d112 dfbe 12bd 673f

lstm.weight_hh_l0 f4 [40, 10]
-0.68290156 -0.17556092 1.2505627 -1.5626447 3.645919 1.4803834 0.5466445 1.0160244
0.15177338 0.35071138 -0.6237396 -0.08118673 0.9458968 -0.7998616 -0.53746045 0.20831302
-0.88628733 -0.110567965 -0.4171791 1.4883125 -0.4089744 0.12121881 0.718287 -0.9692773
0.77298373 -0.53404623 0.5189167 0.81927407 1.0050821 -0.40427023 -0.94822234 -0.26858068
0.7375088 -0.28581554 0.4116456 1.0685223 -0.03167229 0.7597165 1.5825826 -0.21497364
0.040523402 -0.32402876 1.2682881 -0.34732416 0.64030975 -0.6030686 1.8080041 0.26276553
-0.34634256 -0.2265317 -0.30295962 -0.6690715 0.23298979 -1.5059288 0.6161023 0.43214825
0.9941251 1.4663433 0.42742053 -0.67681515 0.39821446 -1.7020448 1.1589272 0.3206797
0.49909452 0.49547893 0.45675564 1.5698954 -3.6883426 -0.8680504 -0.8813243 -1.1707991
1.3112594 -1.1399902 -2.5375834 0.39953786 -2.3120065 -1.3807818 -1.0900648 0.4174646
-0.5382528 -1.2345155 0.39654037 -1.5864097 -1.386608 -0.9332319 1.9905132 -0.104293264
0.20225133 1.4010075 -0.99457324 -0.15250528 1.2226218 -0.52905786 0.33691943 -0.91658026
0.6886671 -1.8352705 2.4841926 1.7369134 1.6977165 -0.6321419 -0.20244946 0.5400516
0.5372754 0.563937 -0.5528418 -0.25917035 0.20047969 -0.113799 0.953118 -0.8035968
-1.6794356 -0.21798815 1.4912248 0.10941684 0.48725462 0.16766772 -0.32410142 -1.2905047
1.1755881 0.6059865 -0.94614375 -0.3325564 0.9367928 0.37600106 -0.31058174 0.5104022
-1.3381039 -0.26823106 0.15151641 0.057905745 -0.6173063 0.59782845 -0.07845339 1.8144765
-0.97663695 0.87423813 0.79079527 -1.2299706 1.1326964 1.6034952 0.6335379 1.6665905
0.52355856 -1.2227355 -1.5849838 -2.215609 1.2044418 0.5868574 0.7666678 -0.21101753
-0.01931543 1.044703 1.0247332 0.6728146 -2.2573168 0.1721446 -2.5600996 0.6311891
0.87408674 0.30808538 -2.3491197 1.4811784 0.6787224 0.81204647 -0.3170199 -0.25615582
-2.0540848 1.0002317 0.55040133 0.79919875 -0.40507492 -0.55509645 -0.012913789 -1.758738
1.1018809 0.42555302 -2.8466606 -1.3264166 0.73546535 1.1706078 0.6628241 1.2296387
-1.9009061 0.25449163 0.48958695 0.0020437653 -0.7451794 -1.2864527 0.26043072 1.3435382
0.39190376 -0.069803 -0.67174757 -0.2660668 -1.246019 -0.4784873 0.36072233 -0.82224464
0.92687166 -0.56501144 -0.014463785 -0.0920253 1.8420823 -0.38385272 -0.35278276 0.08482843
0.3435526 0.13523708 0.65384334 0.5770601 -0.5125183 -0.022622569 0.12608929 0.63811713
-0.5721917 -0.47978246 0.8176482 0.31021264 -1.8908682 0.7820321 1.7889489 0.3647447
-0.65725166 1.5459002 0.69441617 0.98499465 -0.6004274 1.0276916 0.8963522 -0.5252893
-0.77251154 1.3715501 0.57352376 -0.54750425 -0.41631964 -0.027012534 0.083860666 -0.013014169
-0.89663017 -0.46341372 -0.27062878 -0.7452389 0.8193139 0.63187647 0.10471232 1.7236563
-0.03925467 -0.47072735 -0.32557055 -0.019804303 -0.23953202 1.0382513 -0.3551482 0.957992
00000000: a3d2 2ebf 3ec6 33be 7012 a03f be04 c8bf
00000010: bd56 6940 347d bd3f e5f0 0b3f 160d 823f
00000020: 7b6a 1b3e 7190 b33e 66ad 1fbf 3a45 a6bd
00000030: 4b26 723f bbc3 4cbf 0297 09bf 0250 553e
00000040: bae3 62bf 7571 e2bd 8098 d5be 0681 be3f
00000050: 1865 d1be 9141 f83d a8e1 373f 8f22 78bf
00000060: 43e2 453f 41b7 08bf bad7 043f f2bb 513f
00000070: 88a6 803f 82fc cebe b3be 72bf 6883 89be
00000080: 60cd 3c3f 6a56 92be 36c3 d23e 57c5 883f
00000090: ceba 01bd c87c 423f 1192 ca3f 0d22 5cbe
000000a0: defb 253d 19e7 a5be 4457 a23f 79d4 b1be
000000b0: 57eb 233f b462 1abf ae6c e73f 3489 863e
000000c0: d053 b1be edf7 67be 861d 9bbe 4548 2bbf
000000d0: e094 6e3e 46c2 c0bf e1b8 1d3f 8942 dd3e
000000e0: fc7e 7e3f 23b1 bb3f ddd6 da3e c243 2dbf
000000f0: c4e2 cb3e 9bdc d9bf ba57 943f 2130 a43e
00000100: 5189 ff3e 6aaf fd3e e0db e93e 55f2 c83f
00000110: ce0d 6cc0 8d38 5ebf 789e 61bf bfdc 95bf
00000120: 59d7 a73f 33eb 91bf c467 22c0 3a90 cc3e
00000130: eaf7 13c0 75bd b0bf 3e87 8bbf ecbd d53e
00000140: efca 09bf 9b04 9ebf 5707 cb3e 790f cbbf
00000150: 5f7c b1bf 49e8 6ebf 23c9 fe3f b597 d5bd
00000160: f91a 4f3e 3754 b33f 5a9c 7ebf 582a 1cbe
00000170: df7e 9c3f 5670 07bf b480 ac3e 01a5 6abf
00000180: 7d4c 303f 25ea eabf 03fd 1e40 2e53 de3f
00000190: c64e d93f 0dd4 21bf e94e 4fbe d240 0a3f
000001a0: e18a 093f 2d5e 103f 0a87 0dbf fab1 84be
000001b0: 8c4a 4d3e 730f e9bd 8bff 733f 85b8 4dbf
000001c0: bff7 d6bf 4938 5fbe 74e0 be3f f015 e03d
000001d0: 7079 f93e 16b1 2b3e 9ff0 a5be 422f a5bf
000001e0: ac79 963f ee21 1b3f 7a36 72bf d544 aabe
000001f0: a7d1 6f3f 3683 c03e 9204 9fbe b8a9 023f
00000200: fd46 abbf 9555 89be 1e27 1b3e 932e 6d3d
00000210: c907 1ebf 490b 193f 2cac a0bd c440 e83f
00000220: e104 7abf 12ce 5f3f 8f71 4a3f ad6f 9dbf
00000230: 32fc 903f 553f cd3f 8a2f 223f d652 d53f
00000240: ef07 063f 9982 9cbf c0e0 cabf 8acc 0dc0
00000250: 262b 9a3f 493c 163f 5744 443f fb14 58be
00000260: 653b 9ebc d4b8 853f 752a 833f 943d 2c3f
00000270: e177 10c0 ad46 303e acd8 23c0 9c95 213f
00000280: 26c4 5f3f 5ebd 9d3e fa57 16c0 4197 bd3f
00000290: c0c0 2d3f 47e2 4f3f 6f50 a2be db26 83be
000002a0: 2076 03c0 9807 803f 1ae7 0c3f 4a98 4c3f
000002b0: fb65 cfbe cd1a 0ebf 5b94 53bc 541e e1bf
000002c0: 6f0a 8d3f 16e2 d93e b02f 36c0 05c8 a9bf
000002d0: 7547 3c3f 7ad6 953f d7ae 293f cd64 9d3f
000002e0: e450 f3bf ba4c 823e 24ab fa3e b1f0 053b
000002f0: 14c4 3ebf 7baa a4bf 2d57 853e 0ff9 ab3f
00000300: 9ca7 c83e e0f4 8ebd a6f7 2bbf e839 88be
00000310: 8d7d 9fbf 4afc f4be 99b0 b83e a07e 52bf
00000320: 7647 6d3f 97a4 10bf 83f9 6cbc c377 bcbd
00000330: 5ac9 eb3f 5888 c4be f19f b4be 87ba ad3d
00000340: 20e6 af3e 977b 0a3e 4762 273f 36ba 133f
00000350: 6634 03bf f752 b9bc 8d1d 013e a55b 233f
00000360: 287b 12bf 0ca6 f5be 6451 513f 31d4 9e3e
00000370: f807 f2bf 4133 483f 47fc e43f d1bf ba3e
00000380: a541 28bf 0fe0 c53f 42c5 313f 9c28 7c3f
00000390: 9cb5 19bf 668b 833f 5677 653f 5c79 06bf
000003a0: 51c3 45bf f48e af3f 74d2 123f 3d29 0cbf
000003b0: d927 d5be 6449 ddbc 24bf ab3d 6239 55bc
000003c0: 8e89 65bf 9044 edbe db8f 8abe fac7 3ebf
000003d0: 8ebe 513f a8c2 213f 6a73 d63d c5a0 dc3f
000003e0: 81c9 20bd 2d03 f1be 2fb1 a6be a23c a2bc
000003f0: e247 75be 6be5 843f fcd5 b5be f73e 753f

lstm.bias_ih_l0 f4 [40]
-0.5544491 -0.4061897 -0.4434596 -0.073948205 -0.82386625 -0.13558206 -0.8617166 0.38599572
0.30706328 -0.21274143 1.3692948 0.13243842 0.7040596 1.2848917 1.1595423 0.40045103
0.23105614 -0.05301776 0.7421785 1.188748 0.051249713 -0.098060876 0.064281516 -0.4143868
0.5258883 -0.026760446 -0.15349653 0.51646566 -0.13356568 0.06782019 0.8596604 -0.100430354
0.45063302 0.6027699 0.58192784 0.8837099 -0.021927223 0.5992491 0.4144858 0.1432947
00000000: 60f0 0dbf 19f8 cfbe 230d e3be 2872 97bd
00000010: e6e8 52bf 06d6 0abe 7699 5cbf 3ba1 c53e
00000020: 6637 9d3e e4d8 59be 0d45 af3f f09d 073e
00000030: 403d 343f 5577 a43f e26b 943f eb07 cd3e
00000040: fb99 6c3e 2729 59bd 69ff 3d3f e528 983f
00000050: 38eb 513d 24d4 c8bd 07a6 833d 822a d4be
00000060: 9ea0 063f b938 dbbc 322e 1dbe 1837 043f
00000070: 71c5 08be 50e5 8a3d b412 5c3f 6eae cdbd
00000080: 5fb9 e63e 214f 1a3f 39f9 143f d03a 623f
00000090: b8a0 b3bc 6468 193f 7c37 d43e d9bb 123e

lstm.bias_hh_l0 f4 [40]
-0.69812506 -0.17887229 -0.48741603 0.07867328 -0.85769796 -0.37854955 -0.95991373 0.10345107
-0.06315069 -0.14084747 1.2458903 -0.103521146 0.8155623 1.1319602 0.91913474 0.5608002
0.31399745 0.023038922 0.70990545 0.9495759 0.28469095 -0.023624035 0.22666469 -0.18591844
0.36908612 0.102740884 -0.19578065 0.23520833 -0.013122315 -0.39074332 0.7656578 0.25051057
0.5657365 0.42851043 0.6583966 1.063931 -0.12024396 1.0039542 0.54519254 0.45715782
00000000: 53b8 32bf 4c2a 37be 988e f9be 751f a13d
00000010: 1892 5bbf 3fd1 c1be e8bc 75bf 28de d33d
00000020: 2655 81bd 523a 10be 5579 9f3f e502 d4bd
00000030: b1c8 503f 12e4 903f 6a4c 6b3f 9a90 0f3f
00000040: 46c4 a03e 1fbc bc3c 5dbc 353f 6817 733f
00000050: 03c3 913e 3187 c1bc ca1a 683e 6761 3ebe
00000060: dbf8 bc3e d069 d23d b97a 48be 74da 703e
00000070: fafe 56bc 820f c8be 2602 443f ec42 803e
00000080: 1bd4 103f b865 db3e ae8c 283f e42e 883f
00000090: 7742 f6bd 9281 803f bd91 0b3f 9710 ea3e

fc1.weight f4 [32, 10]
-0.17555279 -0.19436325 0.00402829 0.75849205 -0.1263956 -0.3527015 -0.47340745 -0.2800156
0.3115296 0.60257316 0.8286784 0.4171137 -0.08120372 -0.3507064 0.29432324 0.77749586
-0.043194313 0.5193336 -0.19025159 -0.12933102 -0.9505802 0.21621257 -0.16112171 0.7261453
-0.1364227 -0.34672934 0.37144202 -0.0150481155 0.4026635 0.15082158 0.19490974 0.03811535
-0.15515631 -0.18450533 -1.1773633 -0.61710036 -0.14770299 0.2630814 0.90335 -0.7566734
0.015855126 0.610817 0.3305615 -0.5118101 0.59090775 -0.29515183 -0.6205128 0.44089624
0.6226404 0.2337057 -1.0727162 0.25320202 -0.4395895 0.20953147 0.6637811 -0.2671341
0.3922753 -0.0025168129 0.15944737 -0.7676721 0.7487231 -0.04379296 -0.054147586 -0.30648014
-0.49011093 -0.080643445 -0.05234734 0.80494523 0.043707907 -0.19774172 0.8080168 -0.22241011
-0.004125583 0.34530106 -0.36269748 0.4532194 0.5638414 0.2979857 -0.5571683 -0.5392868
0.13191468 0.08599859 0.10235634 0.22314306 1.253541 0.1135428 0.55801713 -0.098839425
-1.1116052 -0.16065599 -0.37502906 -0.40693825 -0.13460232 -0.031798203 -0.66650426 -0.38365412
-0.6074956 -0.18371987 1.2096233 0.4440987 -0.23263423 -0.40469164 0.40483934 0.5087623
-0.16246355 0.7232811 0.2413574 -0.011083567 0.015241947 0.29539463 0.8537295 0.26315844
0.26350754 0.58882976 0.7520846 0.28287223 0.58256334 0.33674976 -1.0100241 0.8098324
0.5886495 0.2591933 -0.4255931 -0.4799945 0.14127642 -0.6719987 -0.1490246 0.35667044
0.6444185 -0.2099583 0.58590543 0.07351331 0.31069258 -0.23063253 1.2181729 0.40270898
0.21937267 -0.2531706 -1.1544304 -0.44606087 0.069839224 0.23480952 0.37945503 0.024544148
1.065597 0.23241219 -0.47357172 0.36799625 0.8007643 0.24556321 -0.41773286 -0.2434894
-0.16857898 0.018643983 -0.54116696 -0.1433827 -0.026466956 -0.16848476 -0.18026158 0.32653388
0.81183505 -0.2709059 0.48422065 0.09471449 0.6002925 -0.17042342 0.5010385 0.53331494
-0.48236775 -0.21365416 -0.9317604 0.068244986 -0.8558427 -0.592397 -0.29895604 -0.21317308
-0.035327192 0.3402626 0.22488752 -0.18305522 0.24671863 0.102837384 0.0994803 -0.4743491
-0.56215096 0.097734034 0.5701195 -0.03651535 0.46817183 0.038327973 -1.0685039 0.2822756
0.0047320332 -0.46724343 0.6863787 0.37915772 -0.095713325 0.090219736 -0.6243327 -0.71892947
-0.41040498 0.2149214 -0.5843859 -0.79372066 -0.18801375 0.44226706 0.43331957 0.10256449
-0.33530062 -0.8817894 1.1102189 -0.34584036 -0.04596104 -0.34217504 -0.28048572 -0.34815004
-0.2352731 -0.35622877 -1.0854572 -0.7110486 0.0776802 -0.1816108 0.43811673 -0.34622145
-0.85317606 0.11840915 0.015245008 -0.033146568 1.0144441 -0.60668343 0.03594883 0.14124663
0.0006656804 -0.20938113 -0.46370646 -0.06044866 0.6257319 0.28810808 0.4366922 -0.13376705
-0.9690409 -0.14288667 -0.5897846 -0.2763112 0.407298 -0.30259407 -0.40944862 -0.116309546
0.5689355 -1.0689374 1.2651963 -0.31990153 0.85450083 0.10484807 -0.35437346 0.20052947
00000000: 1cc4 33be 2907 47be bfff 833b 892c 423f
00000010: d96d 01be 4a95 b4be 7662 f2be 345e 8fbe
00000020: cf80 9f3e 3c42 1a3f 4524 543f ed8f d53e
00000030: 234e a6bd ca8f b3be 89b1 963e f809 473f
00000040: 85ec 30bd 0cf3 043f 50d1 42be 5a6f 04be
00000050: 3959 73bf d466 5d3e 17fd 24be a9e4 393f
00000060: 64b2 0bbe 8286 b1be a62d be3e 5f8c 76bc
00000070: e929 ce3e f970 1a3e 6b96 473e d71e 1c3d
00000080: 4ce1 1ebe f7ee 3cbe d7b3 96bf 4afa 1dbf
00000090: 743f 17be 9bb2 863e f241 673f 59b5 41bf
000000a0: 9ce2 813c 815e 1c3f 5b3f a93e fd05 03bf
000000b0: bb45 173f 241e 97be edd9 1ebf 27bd e13e
000000c0: 5c65 1f3f 8c50 6f3e c44e 89bf b2a3 813e
000000d0: e011 e1be 6b8f 563e 8fed 293f cdc5 88be
000000e0: 4fd8 c83e 1df1 24bb 2c46 233e 2986 44bf
000000f0: 51ac 3f3f 3f60 33bd dcc9 5dbd f7ea 9cbe
00000100: d2ef fabe 6428 a5bd 2a6a 56bd e410 4e3f
00000110: 1007 333d ce7c 4abe 30da 4e3f 7abf 63be
00000120: e62f 87bb 4dcb b03e 7cb3 b9be 600c e83e
00000130: e957 103f 9591 983e 95a2 0ebf b30e 0abf
00000140: a414 073e 0720 b03d 33a0 d13d 9d7f 643e
00000150: 0874 a03f 2189 e83d 36da 0e3f 536c cabd
00000160: 1449 8ebf 0183 24be cf03 c0be 365a d0be
00000170: 31d5 09be d53e 02bd 06a0 2abf 506e c4be
00000180: d584 1bbf 1021 3cbe f0d4 9a3f e860 e33e
00000190: ab37 6ebe be33 cfbe 1a47 cf3e 3f3e 023f
000001a0: d85c 26be f328 393f 6526 773e d997 35bc
000001b0: 5cb9 793c f73d 973e 048e 5a3f b4bc 863e
000001c0: 76ea 863e 8cbd 163f 9e88 403f a1d4 903e
000001d0: df22 153f 776a ac3e 7848 81bf 2d51 4f3f
000001e0: bcb1 163f fcb4 843e 57e7 d9be d7c1 f5be
000001f0: c4aa 103e 1b08 2cbf e899 18be 829d b63e
00000200: 9cf8 243f 4fff 56be e6fd 153f 258e 963d
00000210: 1913 9f3e ef2a 6cbe 17ed 9b3f df2f ce3e
00000220: 3ba3 603e 949f 81be 60c4 93bf 1762 e4be
00000230: de07 8f3d e871 703e ee47 c23e cf10 c93c
00000240: 7c65 883f 76fd 6d3e fe77 f2be 016a bc3e
00000250: e4fe 4c3f ec74 7b3e 15e1 d5be 4955 79be
00000260: f89f 2cbe 44bb 983c eb89 0abf ead2 12be
00000270: 3bd1 d8bc 4587 2cbe 7e96 38be 732f a73e
00000280: 6cd4 4f3f 2eb4 8abe c5eb f73e acf9 c13d
00000290: c5ac 193f 7a83 2ebe 0f44 003f 5487 083f
000002a0: e8f8 f6be 28c8 5abe d987 6ebf 07c4 8b3d
000002b0: 8218 5bbf 54a7 17bf c410 99be 0b4a 5abe
000002c0: 3fb3 10bd e636 ae3e ea48 663e d472 3bbe
000002d0: cfa3 7c3e 689c d23d 54bc cb3d e3dd f2be
000002e0: 20e9 0fbf c828 c83d 5af3 113f 1f91 15bd
000002f0: 38b4 ef3e cbfd 1c3d bcc4 88bf 6d86 903e
00000300: 2c0f 9b3b 883a efbe 84b6 2f3f f620 c23e
00000310: 5905 c4bd 20c5 b83d 45d4 1fbf c30b 38bf
00000320: 9a20 d2be 5b14 5c3e 509a 15bf 4731 4bbf
00000330: ad86 40be d470 e23e 10dc dd3e 550d d23d
00000340: 86ac abbe f3bc 61bf a71b 8e3f fd11 b1be
00000350: a541 3cbd 9131 afbe d39b 8fbe b940 b2be
00000360: 6eeb 70be 9e63 b6be 43f0 8abf 4807 36bf
00000370: cc16 9f3d 2ef8 39be d650 e03e f043 b1be
00000380: bf69 5abf 7f80 f23d 33c6 793c b2c4 07bd
00000390: 4ed9 813f 9b4f 1bbf 153f 133d f5a2 103e
000003a0: 0e81 2e3a 0268 56be ef6a edbe 0499 77bd
000003b0: f72f 203f e782 933e 1f96 df3e 3bfa 08be
000003c0: 1013 78bf e250 12be 20fc 16bf a978 8dbe
000003d0: 5d89 d03e 9ced 9abe 40a3 d1be b333 eebd
000003e0: c2a5 113f f1d2 88bf f4f1 a13f 22ca a3be
000003f0: 91c0 5a3f 96ba d63d 7070 b5be 9957 4d3e

fc1.bias f4 [32]
-0.49487558 -0.71983033 0.45414233 -0.025033863 0.47011212 0.43537697 -0.2834348 -0.82537466
0.030379849 0.36902755 0.05605772 -0.2870124 0.076988116 -0.3665966 -0.027298747 0.21256375
0.2909413 0.67111313 0.8678205 0.33303112 0.3249571 -0.7618283 0.43828905 0.7946612
0.06917225 -0.7713259 0.023880716 -0.23284589 -0.1517241 -0.003579255 -0.06257651 0.11689346
00000000: 5560 fdbe cd46 38bf 5885 e83e d113 cdbc
00000010: 89b2 f03e bbe9 de3e 5e1e 91be c14b 53bf
00000020: 29df f83c 2ef1 bc3e c89c 653d 4af3 92be
00000030: f2ab 9d3d 8db2 bbbe 9fa1 dfbc 50aa 593e
00000040: 42f6 943e 12ce 2b3f 7c29 5e3f 0e83 aa3e
00000050: c760 a63e 2e07 43bf 6c67 e03e eb6e 4b3f
00000060: 2eaa 8d3d 9d75 45bf 7ea1 c33c 276f 6ebe
00000070: 905d 1bbe ef91 6abb 1d28 80bd d765 ef3d

fc2.weight f4 [9, 32]
-0.17558537 0.2071132 -0.2040892 -0.7139002 0.10493214 -0.19203348 -0.0035217567 -0.15747407
0.01566385 -0.25440904 0.34147722 1.0744619 -0.5010675 0.19657362 0.013582072 0.0927171
0.1805703 0.3175104 0.51029617 0.37571934 0.40520456 -0.57382464 -0.043675113 0.06536691
-0.78254426 -0.79398674 -0.73311657 -0.5972343 -0.015990354 -0.5166485 -0.33857608 0.4923758
-0.10938601 -0.58185315 0.6705458 -0.46300727 0.19852501 1.1784946 -0.20244424 -0.94739527
0.014928457 0.22287893 0.498812 -0.5100339 -0.33715275 -0.36132196 0.2915435 -0.024312394
0.13047333 0.7620488 0.67988926 0.35234374 0.29504004 -1.8763962 0.20523155 0.35110047
0.34897846 -1.1356456 0.34692872 -0.13273892 0.085524686 -0.29740226 -0.6177807 0.48191178
0.06074803 0.31928363 -0.33288583 -0.079171345 0.7301597 0.0405074 0.032324012 -0.7133749
-0.16299534 0.22697718 -0.19346145 -0.64896345 0.39045304 0.024719926 0.6079474 -0.20941626
0.008101251 0.54466015 -0.2752815 0.21096162 0.05623929 -0.19433628 -0.12019949 -0.14630683
0.83570653 0.4187747 0.41176572 0.75059515 0.10599726 0.6437944 0.3284746 -0.36813298
0.2307448 -0.7120753 0.40476152 -0.10787747 -0.19041213 0.5926498 -0.00918022 -0.3261363
-0.07895955 0.03426887 -0.14152488 -0.44926593 -0.14353392 -0.2116367 -0.3630536 0.22361253
0.015621301 0.41694987 -0.17153232 0.13325977 -0.10907069 0.018843334 -0.22272146 -0.15535885
0.3173933 -0.9312828 0.24702807 -0.20460367 -0.051357225 0.009377453 0.28810447 0.09120185
0.055863194 0.1361422 -0.16494836 -0.007825209 -0.47618526 0.06420391 0.0631871 0.96908575
0.017841674 -0.25749743 0.11812042 0.2759736 -0.22826189 0.3074894 -0.22127804 0.032489195
0.18884267 -0.42380404 -0.14924236 -0.00017406375 0.26673028 0.61354023 -0.07095888 -0.14333786
0.22459048 0.6423218 0.24624844 -0.2775173 -0.14539981 -0.17251508 -0.14982836 0.5478186
0.09765311 0.16300294 -0.07643287 0.0460254 -0.14191099 0.10573475 0.0016329787 0.12743555
-0.18276522 0.0042433976 -0.10661286 -0.5546999 -0.05570576 -0.094453454 -0.2523559 0.074520364
-0.20550635 0.51848906 -0.27521014 0.08451518 0.600447 0.3294076 -0.1629021 -0.24899152
0.38466096 -0.13978791 -0.45984256 -0.23904979 -0.1826911 -0.07671399 0.2122763 -0.009487578
0.042847954 -0.2634335 0.1562676 0.23146755 0.045754507 0.30987582 0.02033439 0.12803696
-0.09440263 -0.07974974 -0.051386703 -0.15648776 -0.05774815 -0.06922299 -0.12840928 -0.00046689398
0.1392143 -0.10336833 -0.007405574 0.036854427 0.008663498 0.22812426 0.12138343 0.012926309
0.13976228 0.34732202 0.5699428 0.025126303 0.051950656 -0.08272103 0.035998564 -0.2458666
0.10460866 -0.15155995 -0.13176312 0.33633238 -0.002365734 -0.53174853 0.12849125 0.06511896
-0.29898903 0.25586215 -0.12981008 0.020414522 0.17211479 -0.34222504 -0.18364424 0.064650066
0.025473591 -0.14284815 0.13945639 -0.72782207 -0.26086065 0.34194487 0.19968309 -0.0050637983
-0.33955625 0.8871542 0.12757833 0.28016433 -0.061207768 0.16264102 0.047482986 -0.4679898
00000000: a7cc 33be 7c15 543e c2fc 50be 2ac2 36bf
00000010: a9e6 d63d 6da4 44be 46cd 66bb e240 21be
00000020: 7951 803c e741 82be 1ad6 ae3e f887 893f
00000030: f645 00bf 984a 493e 5787 5e3c 77e2 bd3d
00000040: 6ce7 383e b990 a23e c5a2 023f 495e c03e
00000050: f976 cf3e 2ce6 12bf ade4 32bd 16df 853d
00000060: d254 48bf b742 4bbf 87ad 3bbf 59e4 18bf
00000070: 34fe 82bc 1343 04bf d859 adbe ae18 fc3e
00000080: c605 e0bd 54f4 14bf e4a8 2b3f 4a0f edbe
00000090: 244a 4b3e e9d8 963f 8b4d 4fbe 7f88 72bf
000000a0: 7d96 743c 603a 643e 4964 ff3e 9591 02bf
000000b0: 499f acbe 31ff b8be 3145 953e c92a c7bc
000000c0: cd9a 053e a115 433f 390d 2e3f 6666 b43e
000000d0: 7d0f 973e c02d f0bf 3828 523e 71c3 b33e
000000e0: 4ead b23e d65c 91bf a4a0 b13e b6ec 07be
000000f0: 9127 af3d 1c45 98be e026 1ebf 24bd f63e
00000100: edd2 783d 2579 a33e 0370 aabe 9624 a2bd
00000110: bfeb 3a3f 16eb 253d 2f66 043d bd9f 36bf
00000120: 40e8 26be b56c 683e c21a 46be 7822 26bf
00000130: 76e9 c73e 7181 ca3c 71a2 1b3f 3771 56be
00000140: 1cbb 043c d96e 0b3f b2f1 8cbe 5306 583e
00000150: 2b5b 663d 1700 47be 262b f6bd 75d1 15be
00000160: ddf0 553f a369 d63e f5d2 d23e 0127 403f
00000170: 1715 d93d b6cf 243f d32d a83e ed7b bcbe
00000180: 5d48 6c3e 914a 36bf e73c cf3e ddee dcbd
00000190: 66fb 42be e6b7 173f a268 16bc 56fb a6be
000001a0: 8bb5 a1bd 845d 0c3d e6eb 10be 2f06 e6be
000001b0: 8efa 12be 4bb7 58be 29e2 b9be affa 643e
000001c0: 7cf0 7f3c 747a d53e 2ba6 2fbe 4075 083e
000001d0: 7460 dfbd 565d 9a3c 1811 64be 6416 1fbe
000001e0: 6081 a23e 8d68 6ebf edf4 7c3e a083 51be
000001f0: f45b 52bd e3a3 193c 6e82 933e 09c8 ba3d
00000200: ced0 643d dc68 0b3e 39e8 28be 4e35 00bc
00000210: 8ece f3be 577d 833d 3d68 813d 0116 783f
00000220: b428 923c b4d6 83be 1ee9 f13d 694c 8d3e
00000230: 7cbd 69be 406f 9d3e b696 62be 6413 053d
00000240: f95f 413e d8fc d8be fdd2 18be e284 36b9
00000250: df90 883e f910 1d3f e452 91bd 29c7 12be
00000260: 0cfb 653e 346f 243f 8d28 7c3e bf16 8ebe
00000270: b0e3 14be cba7 30be 9b6c 19be d73d 0c3f
00000280: 5bfe c73d 3eea 263e d688 9cbd 2185 3c3d
00000290: 1d51 11be 768b d83d ac09 d63a 777e 023e
000002a0: ce26 3bbe 330c 8b3b d857 dabd d000 0ebf
000002b0: b92b 64bd d070 c1bd cb34 81be 229e 983d
000002c0: 4270 52be b3bb 043f 58e8 8cbe 4b16 ad3d
000002d0: e5b6 193f 1da8 a83e cfcf 26be a2f7 7ebe
000002e0: 48f2 c43e 9024 0fbe 7c70 ebbe 78c9 74be
000002f0: 6013 3bbe 391c 9dbd f55e 593e c971 1bbc
00000300: 5681 2f3d c1e0 86be 9d04 203e d405 6d3e
00000310: 1469 3b3d 0ba8 9e3e 4f94 a63c 1f1c 033e
00000320: 2b56 c1bd d553 a3bd dd7a 52bd 543e 20be
00000330: 5389 6cbd c8c4 8dbd b97d 03be 73c9 f4b9
00000340: 328e 0e3e c6b2 d3bd 75aa f2bb abf4 163d
00000350: 58f1 0d3c 6899 693e e097 f83d dfc8 533c
00000360: d81d 0f3e 31d4 b13e c5e7 113f add5 cd3c
00000370: 36ca 543d a569 a9bd 3b73 133d 74c4 7bbe
00000380: 113d d63d 8832 1bbe e9ec 06be c233 ac3e
00000390: 6e0a 1bbb ac20 08bf 3693 033e 175d 853d
000003a0: 1715 99be 5d00 833e efec 04be 5b3c a73c
000003b0: dc3e 303e 1f38 afbe 3c0d 3cbe 4167 843d
000003c0: fead d03c c946 12be a8cd 0e3e 8c52 3abf
000003d0: 878f 85be 6613 af3e b979 4c3e 38ee a5bb
000003e0: 51da adbe 8a1c 633f e5a3 023e b371 8f3e
000003f0: ffb4 7abd 5e8b 263e 857d 423d 5c9c efbe

fc2.bias f4 [9]
0.08302171 0.15192017 0.091636024 0.04860696 -0.06687648 -0.05513389 0.4679281 0.16221668
-0.87954026
00000000: 4907 aa3d f690 1b3e abab bb3d 1718 473d
00000010: 89f6 88bd 13d4 61bd 4694 ef3e 211c 263e
00000020: 8d29 61bf
