models/lstm2.pth (torch, 785123 bytes, 14 tensors)

lstm.weight_ih_l0 f4 [392, 1]
0	0xbe88269f	-0.26591966
1	0x3ee2bece	0.44286197
2	0x3da65a3f	0.08122682
3	0x3f3f3499	0.7468963
4	0x3ece0891	0.4024091
5	0xbc5f4c6d	-0.013629061
6	0xbeb6cf52	-0.35705048
7	0x3ee0eaf4	0.43929255
8	0xbeb2906b	-0.34875807
9	0xbf303845	-0.6883586
10	0x3e34ee9e	0.1766915
11	0xbdfb2965	-0.12263755
12	0x3e2c8866	0.16848907
13	0xbed7e45f	-0.4216642
14	0xbf3f3a93	-0.7469875
15	0xbe3eb7b5	-0.18624766
16	0xbf42aabf	-0.7604179
17	0xbf977a8d	-1.1834275
18	0xbf4d4e43	-0.8019754
19	0x3f00e6d3	0.5035221
20	0xbd551e97	-0.052031126
21	0xbe47289d	-0.19449086
22	0xbe60236e	-0.21888515
23	0xbf9d3a42	-1.2283404
24	0xbe63d8fd	-0.22250743
25	0xbf4e0ba5	-0.8048652
26	0x3f343b8e	0.70403373
27	0xbea3733e	-0.3192386
28	0x3f13d2ad	0.5774334
29	0x3cdb5d05	0.026777754
30	0x3f53fd3d	0.82808286
31	0xbef181e0	-0.471694
32	0x3f3a5c94	0.72797513
33	0xbf601181	-0.8752671
34	0x3eb43e40	0.35203743
35	0x3f00f469	0.5037294
36	0x3e06a252	0.13147858
37	0xbb791014	-0.0038003968
38	0x3ec45e91	0.38353398
39	0x3f09c80a	0.5382086
40	0x3f15b44f	0.58478254
41	0xbe84233d	-0.25808135
42	0x3e984cc7	0.29746076
43	0xbf711291	-0.94168955
44	0x3f1ebfc8	0.62011385
45	0xbec357a8	-0.38152814
46	0x3e20bcc4	0.15697008
47	0xbee7f06f	-0.45300624
48	0x3e392532	0.18080595
49	0xbe53d7f3	-0.20687847
50	0xbe71d320	-0.23615694
51	0xbf501e52	-0.81296265
52	0x3ee259b3	0.4420906
53	0xbf6d82b7	-0.9277758
54	0x3e43ff3c	0.19140333
55	0x3ea50249	0.32228306
56	0xbf2b04ec	-0.66804385
57	0x3df7ddcf	0.121028535
58	0xbd93557a	-0.07194038
59	0x3f1dad22	0.61592305
60	0xbf6a4dd7	-0.91525024
61	0xbe7f02d5	-0.24903424
62	0xbf3e18d3	-0.7425663
63	0x3e9ed565	0.31022182
64	0x3ed6a0f9	0.41919687
65	0xbeace408	-0.33767724
66	0x3e00f8b7	0.12594877
67	0x3f749c46	0.95550954
68	0x3ebd7442	0.3700276
69	0x3f22b830	0.635623
70	0x3f857037	1.042487
71	0x3e83a13d	0.25708953
72	0xbdb488dd	-0.08815167
73	0x3e8753c6	0.26431102
74	0x3ebdae1d	0.370469
75	0xbed6b475	-0.41934553
76	0x3ef25e7a	0.47337705
77	0xbbbece5f	-0.005822941
78	0xbeb85b65	-0.36007228
79	0x3f188444	0.5957682
80	0x3f0cf5a7	0.55062336
81	0xbd4e8939	-0.050423834
82	0x3e5d4a67	0.21610413
83	0x3c19218f	0.00934638
84	0xbd961f36	-0.07330172
85	0x3f198ba8	0.59978724
86	0xbf866e6e	-1.050245
87	0xbf801900	-1.0007629
88	0x3dba28e8	0.090898335
89	0xbf505ae6	-0.813887
90	0xbe9656aa	-0.29362994
91	0xbf020878	-0.5079417
92	0x3b2404cb	0.002502727
93	0xbee3c844	-0.44488728
94	0xbbf1f48d	-0.007383889
95	0x3ef4e8e0	0.4783392
96	0xbebeb1a6	-0.3724491
97	0xbe1e1f3a	-0.154416
98	0xbed877cf	-0.42278907
99	0x3d3f80d2	0.046753712
100	0x3d8ec3bc	0.06970927
101	0xbe120bc8	-0.14262307
102	0xbdbc1453	-0.09183564
103	0x3f1bc153	0.60841864
104	0xbebe16de	-0.3712682
105	0xbe302010	-0.17199731
106	0x3da00f6d	0.07815442
107	0x3daf9158	0.08572644
108	0x3e811b1c	0.25215995
109	0xbe917296	-0.28407735
110	0x3c96c33c	0.018403642
111	0x3ef82f88	0.48473763
112	0xbca18e72	-0.019721244
113	0x3ee290b6	0.4425103
114	0xbf01291a	-0.5045334
115	0xbc4c2062	-0.012458893
116	0xbf5da6bc	-0.8658254
117	0x3f02d6c1	0.5110894
118	0x3dd869c9	0.10567052
119	0x3df9d3d2	0.12198605
120	0xbe5512e6	-0.2080799
121	0xbec89a89	-0.391804
122	0xbf034dbf	-0.51290506
123	0x3d6fc336	0.058535777
124	0x3fb6f563	1.4293636
125	0xbe638d44	-0.22221857
126	0xbf7516b9	-0.957378
127	0x3e48f580	0.19624901
128	0x3c1a4ef3	0.009418237
129	0xbe3679bc	-0.17819875
130	0x3f0d1d6f	0.5512304
131	0x3d23e99d	0.040017713
132	0xbf5c6f13	-0.86106986
133	0x3e01a589	0.12660803
134	0x3f00ea66	0.50357664
135	0x3e061258	0.13092935
136	0xbf25fc6e	-0.648383
137	0x3f1f341c	0.6218889
138	0x3df86602	0.121288314
139	0xbf2b1323	-0.66826075
140	0x3eea63dd	0.45779315
141	0xbe80e2a2	-0.25172907
142	0x3dade2f7	0.08490556
143	0xbf1ad145	-0.6047557
144	0x3e2e6679	0.17031278
145	0xbddb5745	-0.10710005
146	0x3f370006	0.7148441
147	0xbec9176d	-0.39275685
148	0x3dc4360e	0.095806226
149	0xbdbe9c13	-0.093071125
150	0xbf28397f	-0.6571273
151	0xbe200b29	-0.15629257
152	0xbdc0c168	-0.09411889
153	0x3f023f25	0.508776
154	0x3d8dc29c	0.069218844
155	0xbf6c1361	-0.9221707
156	0x3ec7994c	0.38984144
157	0x3d3be133	0.045869064
158	0x3ea9ed3b	0.33188805
159	0x3e257374	0.16157323
160	0xbf26c49d	-0.6514376
161	0x3f192bfb	0.59832734
162	0x3e0eef5c	0.13958496
163	0xbec025f0	-0.37528944
164	0x3de6859f	0.11255955
165	0x3ed64a05	0.41853347
166	0xbde9640d	-0.11396036
167	0x3e369750	0.17831159
168	0x3f7b55c7	0.9817776
169	0xbef4de1a	-0.478257
170	0x3d514bf2	0.051097818
171	0x3f054063	0.5205137
172	0x3e4efec0	0.20214367
173	0xbec36074	-0.38159525
174	0x3e0da9a4	0.13834244
175	0xbf0f2ffa	-0.5593258
176	0xbf0f2fe6	-0.5593246
177	0xbe7bce36	-0.24590382
178	0x3e28283d	0.164216
179	0x3c538a22	0.012911351
180	0x3e5cc4bb	0.21559422
181	0x3e45c843	0.19314675
182	0xbe9859b2	-0.29755932
183	0x3d26dbba	0.04073689
184	0xbe21ef8a	-0.15814033
185	0xbdf50c05	-0.11965183
186	0x3ee0708b	0.43835863
187	0x3c6e9374	0.014561523
188	0xbeeb8fe3	-0.46008214
189	0xbdf744dc	-0.12073681
190	0x3e764171	0.24048401
191	0xbf0c41d3	-0.5478794
192	0xbeba4ab8	-0.3638513
193	0x3e4bceab	0.19903056
194	0xbf24551b	-0.6419236
195	0xbe2f4ccb	-0.17119138
196	0x3f1b8c5e	0.6076106
197	0xbf867d42	-1.0506976
198	0x3e6049f2	0.21903208
199	0x3eccdbcc	0.40011442
200	0x3f201cf1	0.6254416
201	0x3f0b6be0	0.5446148
202	0xbf26f100	-0.65211487
203	0x3ead81b9	0.33888033
204	0xbe83f1a7	-0.25770304
205	0x3f2c1e6c	0.6723392
206	0xbf3f132b	-0.74638623
207	0x3f288286	0.6582416
208	0xbe820071	-0.25390962
209	0x3f74304b	0.9538619
210	0x3f554873	0.83313674
211	0x3f8c5249	1.0962611
212	0x3e7ce19e	0.24695441
213	0xbf1df12b	-0.6169612
214	0xbe43509c	-0.19073719
215	0xbf33fa7a	-0.7030407
216	0x3eb15565	0.34635463
217	0xbf066302	-0.52494824
218	0x3ef40777	0.47661945
219	0x3f633cbc	0.8876455
220	0xbe1cd1e4	-0.15314442
221	0x3f09172f	0.53551
222	0xbf1d1594	-0.6136105
223	0xbd4b7b34	-0.049678043
224	0x3f98222b	1.1885427
225	0xbeff3de7	-0.49851915
226	0x3f47dabb	0.7806813
227	0x3f48bde4	0.7841475
228	0xbf0e19f8	-0.55508375
229	0xbe4965bc	-0.19667715
230	0xbf1651f9	-0.5871883
231	0xbf0c387f	-0.54773706
232	0xbd49a60c	-0.04923062
233	0x3f012222	0.5044271
234	0x3f87bfaa	1.0605366
235	0xbf2bdd5a	-0.6713463
236	0xbeb19c44	-0.34689534
237	0xbcf95c9d	-0.03043967
238	0xbe94c177	-0.29053852
239	0x3f643751	0.89146906
240	0xbf0e87f2	-0.55676186
241	0xbb5b83bf	-0.0033495275
242	0x3e8ec31a	0.27883226
243	0xbce826ff	-0.028338907
244	0xbf0a1893	-0.5394375
245	0x3e7e568c	0.24837703
246	0x3f1383a2	0.5762273
247	0x3f5ff449	0.87482125
248	0x3f237f1a	0.63865817
249	0x3f25a2be	0.6470145
250	0xbe6045d6	-0.2190164
251	0xbee35590	-0.44401217
252	0x3f07dd6c	0.5307224
253	0x3f8680ce	1.0508058
254	0xbf13008f	-0.5742273
255	0x3f6c127b	0.922157

lstm.weight_hh_l0 f4 [392, 98]
0	0xbec2425d	-0.37941256
1	0xbdeaf6f8	-0.11472887
2	0x3d723504	0.05913259
3	0xbe66bc7c	-0.22532839
4	0x3d340228	0.04394737
5	0x3f1ee152	0.6206256
6	0x3e1712b2	0.14753225
7	0x3ddf5283	0.1090441
8	0x3bdc6c63	0.006726788
9	0x3d9e08f6	0.07716553
10	0xbd32a981	-0.043618683
11	0xbe7e8e96	-0.2485908
12	0xbee2cccd	-0.44296876
13	0x3eebeea7	0.46080515
14	0xbeb6103f	-0.3555927
15	0x3bfa9a30	0.007647775
16	0x3f073346	0.5281261
17	0x3ee654a3	0.44986448
18	0xbd0e6cc6	-0.034771703
19	0xbeb05832	-0.34442288
20	0x3e50ea2a	0.20401827
21	0x3d6f9b14	0.058497503
22	0x3d24b7a7	0.040214207
23	0x3d907213	0.07053008
24	0x3e98abc6	0.29818553
25	0xbd7cb913	-0.061699938
26	0xbe3c6658	-0.18398416
27	0xbe939e17	-0.2883155
28	0xbdd2a32c	-0.10285029
29	0x3dae0643	0.08497288
30	0xbea19a48	-0.3156302
31	0xbe417592	-0.18892506
32	0x3ed0daa2	0.40791804
33	0xbe0b654f	-0.13612865
34	0x3ddfcdd0	0.109279275
35	0x3c3de605	0.011590485
36	0xbe7d27c4	-0.247222
37	0xbd8b73dc	-0.06809208
38	0xbe2b33f2	-0.16719034
39	0xbe79b91e	-0.24387023
40	0xbd84ced8	-0.06484765
41	0xbe016936	-0.12637791
42	0x3e11536e	0.14191982
43	0xbde61918	-0.11235255
44	0x3ecf37f6	0.40472382
45	0xbcd2306c	-0.025657855
46	0x3e86c5c6	0.26322764
47	0x3e9891df	0.2979879
48	0xbd1488ac	-0.036263153
49	0x3dcce16a	0.10003932
50	0x3cc96b34	0.024587251
51	0xbf094e59	-0.53635174
52	0x3e12d15a	0.14337674
53	0xbd3572a8	-0.044298798
54	0xbf7d45fa	-0.989349
55	0xbf1e6bd6	-0.61883295
56	0xbe1dae55	-0.15398534
57	0x3c7b6803	0.015344623
58	0x3f118f74	0.5685952
59	0xbe35dd89	-0.1776029
60	0x3d32b3f4	0.043628648
61	0x3dfbec3d	0.12300918
62	0xbe855642	-0.26042372
63	0xbd81f8be	-0.06346272
64	0x3eb505a9	0.3535588
65	0xbed9a6c0	-0.42510033
66	0xbea92b3c	-0.33040798
67	0x3d396962	0.045266517
68	0xbd9730b2	-0.07382335
69	0xbe121471	-0.1426561
70	0x3dab443c	0.08362624
71	0xbe77d917	-0.24203907
72	0xbdc3187c	-0.095261544
73	0xbe3cd953	-0.18442278
74	0x3ec11baa	0.37716419
75	0x3e08fe69	0.133783
76	0xbe56f51f	-0.20991944
77	0xbdf87382	-0.12131406
78	0x3df5a3ef	0.119941585
79	0xbd24a8fb	-0.040200215
80	0x3f22c036	0.6357454
81	0xbde88ed5	-0.11355368
82	0xbe29045f	-0.16505574
83	0xbd7331e6	-0.05937376
84	0xbd988b76	-0.07448475
85	0x3da63884	0.08116248
86	0xbe1a2860	-0.15054464
87	0xbef8ef00	-0.48619843
88	0xbd1ae938	-0.03782007
89	0xbe92e99f	-0.28693864
90	0x3ebe9ec7	0.37230512
91	0xbeac376e	-0.3363604
92	0x3e80c40a	0.25149566
93	0xbd4ff76a	-0.05077306
94	0xbe2e7218	-0.17035711
95	0x3e1d3b6b	0.15354697
96	0x3dac0f5b	0.08401366
97	0xbcb0fdc5	-0.021605382
98	0xbe9dd2ca	-0.30824882
99	0x3dfded0a	0.12398727
100	0x3d9885a8	0.07447368
101	0xbf1be8c9	-0.60902077
102	0xbdd5bde2	-0.10436608
103	0xbe4a30b3	-0.1974514
104	0x3ea315ce	0.31852573
105	0x3e9b0e92	0.30284554
106	0x3e3759ae	0.17905304
107	0x3ec4364f	0.38322684
108	0xbe58b497	-0.2116264
109	0xbe558430	-0.20851207
110	0x3efda48b	0.495396
111	0xbf349a0d	-0.7054756
112	0x3d9a43c1	0.07532454
113	0xbe5ee9c9	-0.2176887
114	0x3e03e313	0.1287959
115	0xbe9b4b0a	-0.30330688
116	0x3dcb3310	0.09921849
117	0x3d4538ab	0.048149746
118	0x3e9d8bfa	0.30770856
119	0xbef6367a	-0.48088437
120	0xbf33ac49	-0.7018476
121	0x3d25f290	0.04051453
122	0x3c3a853a	0.011384303
123	0x3e901a3d	0.28145018
124	0xbe35ef62	-0.17767099
125	0x3eaf6fe5	0.34265056
126	0xbe70216a	-0.23450246
127	0x3d94e307	0.072698645
128	0xbdd88f52	-0.10574211
129	0xbe154774	-0.14578038
130	0xbdf39e6c	-0.11895451
131	0x3ea68a04	0.32527173
132	0xbdb3dd29	-0.08782417
133	0x3ed78875	0.42096296
134	0xbd082047	-0.033233907
135	0x3d8b6493	0.068062924
136	0xbeba1f81	-0.3635216
137	0x3e6e1abe	0.23252389
138	0x3dae8c9e	0.08522914
139	0xbe043c0d	-0.12913533
140	0xbd3d46c2	-0.046210058
141	0x3dcd50a7	0.10025149
142	0xbe355b7c	-0.1771068
143	0xbec1def3	-0.3786541
144	0x3de61a03	0.1123543
145	0xbe57e51f	-0.21083497
146	0x3e4b6b84	0.19865233
147	0xbf116543	-0.5679514
148	0xbe656335	-0.22401126
149	0xbe9dd67a	-0.30827695
150	0xbf3d4b3f	-0.7394294
151	0xbf03caad	-0.51481134
152	0x3f1d409c	0.6142671
153	0x3f2b15e5	0.66830283
154	0xbcc87d66	-0.024473857
155	0xbdb7ed83	-0.08980849
156	0xbe3e4956	-0.18582663
157	0xbd368fa2	-0.044570573
158	0x3d279f73	0.040923547
159	0xbe37f081	-0.17962839
160	0x3eaec60d	0.34135476
161	0xbecf8d70	-0.40537596
162	0x3eb46704	0.35234845
163	0xbf181b37	-0.59416527
164	0x3f17d810	0.5931406
165	0x3eb26d2c	0.34848917
166	0x3e1454d3	0.14485483
167	0x3edd2c3b	0.43197808
168	0x3edf403c	0.43603694
169	0xbc277a41	-0.010222019
170	0x3e6006f7	0.21877657
171	0xbe4cf5fa	-0.20015708
172	0xbf05ea88	-0.5231099
173	0xbeb282a3	-0.34865293
174	0x3f132d34	0.5749085
175	0xbecd9263	-0.40150747
176	0xbe3cc103	-0.18433003
177	0x3ed83477	0.42227527
178	0xbef03ee0	-0.4692297
179	0xbe4d271f	-0.20034455
180	0xbe9e9be8	-0.30978322
181	0xbd5e7077	-0.054306474
182	0xbf35ba19	-0.7098709
183	0x3e1c7156	0.15277609
184	0xbdb82613	-0.08991637
185	0x3e2940ed	0.16528673
186	0xbe6e9f7b	-0.23303024
187	0x3e38f8d7	0.18063675
188	0xbf035b3d	-0.51311094
189	0xbdf2979d	-0.11845324
190	0x3e667c4b	0.22508352
191	0xbec8edc7	-0.3924391
192	0x3e41bae1	0.18918945
193	0xbeafea3b	-0.3435839
194	0x3e900d00	0.28134918
195	0xbe28b316	-0.16474566
196	0x3ddd2d84	0.10799697
197	0x3cff4e84	0.031165369
198	0xbf4a7a20	-0.790926
199	0xbe1a2b07	-0.15055476
200	0x3f6ead7e	0.9323348
201	0xbddfa050	-0.10919249
202	0xbdef5741	-0.11686564
203	0x3eae2349	0.34011295
204	0x3f3aaf8d	0.7292412
205	0x3e701ef2	0.23449305
206	0x3db4dd45	0.08831266
207	0xbe7839b2	-0.24240759
208	0xbedb781b	-0.4286507
209	0xbcef69a5	-0.02922518
210	0xbe283163	-0.1642509
211	0x3e90f226	0.28309745
212	0xbe3c449e	-0.1838555
213	0x3d4c372f	0.049857315
214	0xbe69f5f2	-0.22847727
215	0x3eac1d2f	0.33616015
216	0xbdaac93e	-0.08339165
217	0xbe1c9b74	-0.15293676
218	0xbde89a4a	-0.11357553
219	0x3ec74e85	0.38927093
220	0x3f060e38	0.52365446
221	0xbe995a8d	-0.29951897
222	0x3f0ac3b9	0.542049
223	0x3e8041eb	0.2505029
224	0x3f79f543	0.97639865
225	0x3eb59b59	0.35470083
226	0xbea6515b	-0.32483944
227	0x3e0f84c1	0.14015485
228	0x3db69896	0.08915822
229	0x3d181092	0.037125178
230	0xbe7675af	-0.2406833
231	0x3da0eda8	0.07857829
232	0xbd8fa329	-0.07013542
233	0xbe97e14f	-0.29664084
234	0x3ee18c05	0.4405214
235	0x3e6c9d0f	0.23106788
236	0xbdee256a	-0.1162823
237	0xbb9c553f	-0.0047709043
238	0x3bc2542f	0.0059304456
239	0x3f80334b	1.0015653
240	0x3e221cc5	0.15831287
241	0x3e600978	0.21878612
242	0x3d8e281e	0.069412455
243	0x3ebbc7e2	0.36675936
244	0xbdf02cf2	-0.11727323
245	0xbbc14835	-0.0058985003
246	0xbe74f18d	-0.2392027
247	0x3dd233eb	0.10263809
248	0x3e4f0409	0.20216383
249	0x3f3e764d	0.7439926
250	0x3ec46b58	0.38363147
251	0xbe0e1b64	-0.13877636
252	0x3dde2b48	0.10848099
253	0x3e9ee787	0.31036016
254	0xbc12e7f2	-0.008966433
255	0x3de9b2dd	0.114110686

lstm.bias_ih_l0 f4 [392]
0	0xbf125590	-0.5716181
1	0xbd1d25c0	-0.03836608
2	0xbe67b238	-0.22626579
3	0xbea17ada	-0.3153904
4	0xbdda4b2c	-0.10658869
5	0xbf305a25	-0.6888755
6	0xbe180aa5	-0.1484781
7	0xbe3a4588	-0.18190587
8	0xbee6d09d	-0.45081034
9	0xbe8846b3	-0.2661644
10	0xbe3cdaff	-0.18442915
11	0xbe8dd533	-0.2770172
12	0xbf3efd1f	-0.7460498
13	0x3c57cc20	0.013171226
14	0xbe5cabf4	-0.2154997
15	0x3ebc6aa9	0.36800125
16	0xbf36a11c	-0.71339583
17	0xbdc49e06	-0.09600453
18	0xbefb80e6	-0.4912178
19	0xbf02259d	-0.50838643
20	0xbf1875a9	-0.59554535
21	0xbf4cd04c	-0.80005336
22	0xbf03591c	-0.51307845
23	0xbbb50fe5	-0.0055255764
24	0xbe1b12a5	-0.15143831
25	0xbec36fcf	-0.3817124
26	0xbebb07d2	-0.36529404
27	0xbeccca79	-0.39998224
28	0x3ec6a753	0.38799533
29	0xbefd995d	-0.4953107
30	0xbe42cb54	-0.19022876
31	0xbe9cb14e	-0.30604023
32	0xbe4dc005	-0.20092781
33	0xbed465d4	-0.4148394
34	0xbf3af931	-0.73036486
35	0xbead5656	-0.33854932
36	0xbf1891b7	-0.59597343
37	0xbf282b25	-0.65690833
38	0xbd357f5a	-0.044310905
39	0xbeb16d98	-0.34653926
40	0xbf1c1423	-0.60968226
41	0xbf24cdb5	-0.64376384
42	0xbf21384f	-0.62976545
43	0xbe6f06b7	-0.23342405
44	0xbdb937d5	-0.09043852
45	0x3db660fe	0.089052185
46	0xbeda54dc	-0.42642868
47	0xbf0d6559	-0.5523277
48	0xbeddb1d1	-0.43299726
49	0xbedb8e82	-0.42882162
50	0xbf0f914a	-0.5608107
51	0xbe5cec22	-0.21574453
52	0xbebc8392	-0.3681913
53	0xbeebcd3c	-0.4605502
54	0xbf06acd4	-0.52607465
55	0xbf00413a	-0.5009953
56	0xbeb24d91	-0.34824803
57	0xbe360c82	-0.17778209
58	0xbe6eedd6	-0.23332915
59	0xbd5799ba	-0.05263684
60	0xbef1a42f	-0.47195575
61	0xbe35632d	-0.17713614
62	0xbf04ac7b	-0.51825684
63	0x3e8bea3f	0.27327153
64	0xbc5e18da	-0.01355573
65	0xbdedab81	-0.116049774
66	0xbd3c6304	-0.045992866
67	0xbe15b28a	-0.14618888
68	0xbe9f21de	-0.31080526
69	0xbf214fb9	-0.6301227
70	0xbecae607	-0.39628622
71	0xbea7cb1c	-0.32772148
72	0xbee8f6ad	-0.455007
73	0xbf4574b0	-0.77131176
74	0xbf238242	-0.6387063
75	0xbef26178	-0.47339988
76	0xbf031ee2	-0.51219
77	0x3f1b2e7a	0.6061779
78	0xbed897e6	-0.4230339
79	0xbe972fe9	-0.2952874
80	0xbea054e1	-0.31314757
81	0xbf498836	-0.78723466
82	0xbf3c697e	-0.7359847
83	0xbeebee83	-0.46080408
84	0xbeb12e3f	-0.34605595
85	0xbeda69db	-0.42658886
86	0xbf174e84	-0.5910418
87	0xbed3f4b8	-0.41397643
88	0xbecad8f4	-0.39618647
89	0x3d0c623f	0.034273382
90	0xbf5ff0d5	-0.87476856
91	0xbf12b83a	-0.5731236
92	0xbf054ac0	-0.52067184
93	0xbebeb809	-0.37249783
94	0xbe416c47	-0.18888961
95	0xbeca80b4	-0.39551318
96	0x3c815d96	0.015791696
97	0xbf14105a	-0.5783745
98	0xbd106af4	-0.03525825
99	0xbee61972	-0.44941288
100	0xbda86c4a	-0.082237795
101	0xbe6ad741	-0.22933675
102	0x3bdb5efa	0.0066946717
103	0x3e433915	0.19064744
104	0xbdf14ef4	-0.11782637
105	0x3db7fd8f	0.08983909
106	0xbd8499ca	-0.064746454
107	0xbe842453	-0.25808963
108	0xbddd17c1	-0.10795546
109	0xbec67c8d	-0.387669
110	0xbd005f33	-0.03134079
111	0x3e8775fb	0.264572
112	0xbec263fe	-0.37966913
113	0xbca44913	-0.020054376
114	0x3df7f0f4	0.12106505
115	0xbea52247	-0.32252714
116	0x3ce9c428	0.028535917
117	0xbe73938b	-0.23786752
118	0xbe142bec	-0.1446988
119	0xbbfc6cb9	-0.0077033904
120	0xbd6db0f2	-0.058030076
121	0xbe768381	-0.24073602
122	0x3e0c1b91	0.13682391
123	0xbe539a4f	-0.20664333
124	0xbe385377	-0.1800059
125	0xbdf5205e	-0.11969064
126	0xbea9f3f2	-0.33193928
127	0x3d08b4af	0.03337544
128	0xbef44328	-0.47707486
129	0xbe95ae89	-0.29234722
130	0xbee1fa21	-0.44136146
131	0xbef4a0cd	-0.4777893
132	0xbea073a8	-0.3133824
133	0xbe1c6293	-0.15271978
134	0xbce6a88d	-0.028156543
135	0x3d7b81a1	0.06140292
136	0xbde16e82	-0.11007406
137	0xbebaadc0	-0.36460686
138	0x3e0b1645	0.13582714
139	0xbe0208fc	-0.1269874
140	0x3d55654a	0.05209855
141	0xbee79001	-0.45227054
142	0xbec1b863	-0.37835988
143	0x3e836734	0.25664675
144	0x3db16a7e	0.0866289
145	0x3da39f4b	0.07989367
146	0x3d856df5	0.06515113
147	0x3d3f9b8d	0.046779204
148	0x3e140160	0.1445365
149	0x3d8b4584	0.068003684
150	0x3da9253c	0.08259055
151	0xbed81364	-0.42202294
152	0xbb0ca695	-0.0021461595
153	0x3e410354	0.18848926
154	0xbe2c3ab4	-0.16819268
155	0xbddcef9a	-0.10787888
156	0x3da686f1	0.08131207
157	0xbe302793	-0.17202596
158	0xbc61df1e	-0.013786105
159	0xbe894bb5	-0.26815572
160	0xbe9022b3	-0.28151473
161	0xbed8643a	-0.42263967
162	0xbf12e50a	-0.57380736
163	0xbf0eaaad	-0.5572918
164	0x3db2e932	0.08735885
165	0xbea249cf	-0.31696936
166	0x3e5aac3a	0.21354762
167	0xbba038ea	-0.004889597
168	0xbee62a3a	-0.4495409
169	0xbea24736	-0.31694955
170	0x3e31a1d0	0.17346883
171	0xbc9f8e6a	-0.019477088
172	0xbe948e38	-0.29014754
173	0xbdf72a53	-0.120686196
174	0xbdbb666c	-0.09150395
175	0xbefea2d7	-0.49733612
176	0xbe0e2dd2	-0.13884667
177	0x3da8d63d	0.08243988
178	0xbe468eb7	-0.19390379
179	0xbe5e154f	-0.21687816
180	0xbc2ba478	-0.010476224
181	0x3e0fcd7a	0.14043227
182	0x3dda6625	0.10664014
183	0xbeedd9bb	-0.46455178
184	0xbd4853c4	-0.04890801
185	0x3d132f4c	0.035933778
186	0xbc07ec55	-0.008296092
187	0xbe9d0bd6	-0.30673093
188	0xbf13b1c2	-0.5769311
189	0x3e1ea8ae	0.15494034
190	0x3d796549	0.06088761
191	0xbd3bd81a	-0.045860387
192	0x3e286797	0.16445766
193	0xbd03a447	-0.03213909
194	0xbe9f3b3f	-0.3109989
195	0x3ccd3f8c	0.025054716
196	0x3e9bedf7	0.3045499
197	0x3d44abc5	0.048015375
198	0xbe338e1c	-0.17534679
199	0xbda61d46	-0.08111052
200	0xbdfe4f07	-0.12417417
201	0x3d6d69a1	0.057962064
202	0xbd9164ce	-0.07099305
203	0xbe8da4ab	-0.27664694
204	0xbc0ecf2d	-0.008716387
205	0xbd2b9bb0	-0.041896522
206	0x3e00b5b2	0.12569311
207	0x3c6df5d8	0.014523946
208	0x3e356e6c	0.17717904
209	0xbd722459	-0.059116695
210	0xbc4d308a	-0.01252378
211	0xbd99c859	-0.075089164
212	0xbd9ecdb4	-0.077540785
213	0x3e1f3dca	0.15550914
214	0xbe63e9a2	-0.22257093
215	0x3e1e2692	0.15444401
216	0xbcd21113	-0.025642907
217	0x3d3db8c6	0.04631879
218	0x3e30c5e4	0.1726299
219	0x3ac396c8	0.0014922256
220	0x3e3f0af0	0.18656516
221	0xbab56ea7	-0.0013842181
222	0x3d1f3012	0.038864203
223	0x3e9450a3	0.2896777
224	0xbc948826	-0.018131327
225	0x3e4caecf	0.19988559
226	0xbdfd4840	-0.12367296
227	0x3dc73c0c	0.0972825
228	0x3e3ff3d3	0.18745355
229	0xbe550877	-0.2080401
230	0x3d49b641	0.049246076
231	0x3e3811ca	0.17975536
232	0x3d393d50	0.045224488
233	0xbd9eb45f	-0.07749247
234	0x3d63aa70	0.055582464
235	0x3e827a0a	0.25483733
236	0x3e147fcf	0.1450188
237	0x3dc34656	0.095349
238	0x3dfffa10	0.124988675
239	0x3e05793a	0.13034526
240	0x3dedfe46	0.116207644
241	0x3e8d75f4	0.27629054
242	0xbe1fa5de	-0.15590617
243	0x3e04e1cc	0.1297676
244	0x3ddbfdc0	0.10741758
245	0xbb134372	-0.002247062
246	0xbd99e267	-0.07513886
247	0x3dddbc94	0.10826984
248	0x3d4ef2df	0.05052459
249	0x3d885fb1	0.06658877
250	0x3e677ea4	0.22606903
251	0x3e676dcd	0.2260048
252	0xbd89598a	-0.06706531
253	0xbc92d6ce	-0.017924692
254	0x3d32d5c3	0.04366089
255	0xbdecce46	-0.11562781

lstm.bias_hh_l0 f4 [392]
0	0xbf0cbc89	-0.5497518
1	0x3c7cf191	0.015438453
2	0xbeb90fff	-0.36145017
3	0xbee7507e	-0.45178598
4	0xbe165c3a	-0.14683619
5	0xbf2d7f1b	-0.6777207
6	0xbda649a0	-0.081195116
7	0xbe256403	-0.16151433
8	0xbec82145	-0.39087883
9	0xbe98b122	-0.29822642
10	0xbe4c6b89	-0.19962896
11	0xbea9953c	-0.3312167
12	0xbf121888	-0.5706868
13	0x3d94b10f	0.07260334
14	0xbe41bf39	-0.18920602
15	0x3efb5539	0.49088457
16	0xbf2c1596	-0.6722044
17	0xbe0cd5b9	-0.13753404
18	0xbed9dca4	-0.42551148
19	0xbf05a0f3	-0.52198714
20	0xbf0cfab3	-0.55070037
21	0xbf2fe61a	-0.6871048
22	0xbf1a95f6	-0.6038507
23	0xbcafece6	-0.021475267
24	0xbe922056	-0.28540295
25	0xbeac9d6c	-0.33713853
26	0xbec5be77	-0.38621876
27	0xbead8f64	-0.3389846
28	0x3eb3daa8	0.3512776
29	0xbef00b2d	-0.46883526
30	0xbe86022c	-0.26173532
31	0xbe745535	-0.23860629
32	0xbe768fe8	-0.24078333
33	0xbed06e1a	-0.40709
34	0xbf528e40	-0.82248306
35	0xbe8f00cc	-0.27930295
36	0xbf3a6f24	-0.7282584
37	0xbf11328a	-0.5671774
38	0xbe05936d	-0.1304452
39	0xbeaa0b59	-0.33211783
40	0xbf413d91	-0.7548457
41	0xbf17a4b1	-0.59235674
42	0xbf084728	-0.53233576
43	0xbe5930c5	-0.2121001
44	0xbdf8b097	-0.12143057
45	0x3dbbe880	0.09175205
46	0xbee5c4ee	-0.44876808
47	0xbed3124e	-0.41224903
48	0xbf06f3f2	-0.5271598
49	0xbf13e82c	-0.5777614
50	0xbef23a0e	-0.47309917
51	0xbe31a4fa	-0.1734809
52	0xbe82f94b	-0.2558082
53	0xbeab4e7e	-0.33458322
54	0xbf154d6f	-0.5832128
55	0xbf0795f1	-0.5296317
56	0xbe8505ae	-0.25980896
57	0xbe592f4a	-0.21209446
58	0xbe63257d	-0.2218227
59	0xbca64bdc	-0.020299844
60	0xbebc6c3a	-0.3680132
61	0xbe23035f	-0.15919255
62	0xbf0ce308	-0.5503392
63	0x3e98dc94	0.29855788
64	0x3d497fdd	0.049194206
65	0xbd86676c	-0.06562695
66	0x3df408e8	0.11915761
67	0xbe87ac9d	-0.2649888
68	0xbe877f7d	-0.26464453
69	0xbf3222cc	-0.69584346
70	0xbee89021	-0.45422462
71	0xbec12143	-0.3772069
72	0xbe9b65a1	-0.30350974
73	0xbf4a23b9	-0.7896076
74	0xbf021bd6	-0.50823724
75	0xbf139ed7	-0.57664245
76	0xbf03e788	-0.51525164
77	0x3f02e4bc	0.5113027
78	0xbec85645	-0.39128318
79	0xbead5080	-0.3385048
80	0xbe742ccf	-0.23845218
81	0xbf287655	-0.6580556
82	0xbf226ec3	-0.6345026
83	0xbef28c08	-0.4737246
84	0xbed97703	-0.4247361
85	0xbe90d662	-0.2828856
86	0xbef41f88	-0.47680306
87	0xbec8f0f6	-0.3924634
88	0xbec391dc	-0.3819722
89	0xbdee1375	-0.11624805
90	0xbf635a63	-0.88809794
91	0xbf06fe5a	-0.5273186
92	0xbf153f10	-0.5829935
93	0xbec01ff9	-0.37524393
94	0xbe92c567	-0.2866623
95	0xbf073dc9	-0.5282865
96	0xbd68d51c	-0.056843862
97	0xbef5021f	-0.4785318
98	0xbd84b155	-0.06479136
99	0xbeb85f7e	-0.36010355
100	0xbdcbeeb2	-0.09957637
101	0xbec3a123	-0.38208875
102	0xbe2c985b	-0.16854994
103	0x3e470577	0.19435678
104	0xbe18ca11	-0.14920832
105	0x3e3ea27f	0.18616675
106	0xbdde410a	-0.10852249
107	0xbe3fdfc9	-0.18737711
108	0x3b711eff	0.0036792157
109	0xbec8121c	-0.39076316
110	0xbd08fd80	-0.03344488
111	0x3dc0d36c	0.094153255
112	0xbed9dfd5	-0.42553583
113	0x3d90b1e9	0.07065184
114	0x3d90665e	0.07050775
115	0xbec65083	-0.387333
116	0x3bb350fb	0.0054723
117	0xbe9420f6	-0.28931397
118	0xbdda0ca3	-0.106469415
119	0x3d2cd46a	0.04219476
120	0xbd3ee781	-0.046607498
121	0xbe5c2c6d	-0.21501322
122	0x3e2a6af6	0.16642365
123	0xbe9fbc55	-0.31198373
124	0xbe84894a	-0.25885993
125	0xbdbe52f6	-0.09293167
126	0xbe4b1242	-0.19831184
127	0x3d4978b0	0.049187362
128	0xbee0b867	-0.43890688
129	0xbe993d30	-0.29929495
130	0xbec4c591	-0.3843198
131	0xbeb97c4c	-0.36227643
132	0xbe9dcc49	-0.3081992
133	0xbdf8faaa	-0.121571854
134	0xbd4d6747	-0.05014732
135	0x3d91fb49	0.07128007
136	0xbe8a49f1	-0.27009538
137	0xbe91640b	-0.2839664
138	0x3e391a6f	0.1807649
139	0xbe1634c2	-0.14668563
140	0xbc11dafb	-0.008902307
141	0xbf041a52	-0.5160266
142	0xbec8e465	-0.3923675
143	0x3e8e38e8	0.2777779
144	0x3cd27d5f	0.025694547
145	0x3dfa6dac	0.122279495
146	0x3d4f4236	0.050600253
147	0x3e18ee4f	0.14934658
148	0x3e1684bd	0.14699073
149	0x3c85aad0	0.016316801
150	0xbd5eeee7	-0.054427054
151	0xbeb099a4	-0.34492218
152	0xbd8000dc	-0.06250164
153	0x3eadcd8f	0.3394589
154	0xbd06357d	-0.032765854
155	0xbe349ca7	-0.17637883
156	0x3e085d04	0.13316733
157	0xbe9ab99e	-0.3021974
158	0xbd59f7ea	-0.053214945
159	0xbe24645e	-0.16053912
160	0xbe6673cd	-0.22505112
161	0xbedbf8e5	-0.4296333
162	0xbf3ce417	-0.7378554
163	0xbf0b7e99	-0.5449005
164	0x3b2a74c3	0.0026009537
165	0xbe74c701	-0.23904039
166	0x3e2d2bb0	0.16911197
167	0x3cf16a58	0.029469654
168	0xbe8f8d27	-0.28037378
169	0xbe95a215	-0.2922522
170	0x3dc8c7a5	0.09803704
171	0xbdc96e2e	-0.09835468
172	0xbe6ac27b	-0.22925751
173	0xbca6fae3	-0.020383304
174	0x3d27a76a	0.040931143
175	0xbeb22e86	-0.3480112
176	0xbde0c5d4	-0.10975233
177	0x3e012bec	0.12614411
178	0xbd80a697	-0.062817745
179	0xbe2897ef	-0.16464208
180	0xbda25387	-0.07926088
181	0x3e759773	0.23983555
182	0x3e2d4865	0.16922148
183	0xbed59e6c	-0.4172243
184	0x3c43dfe2	0.011955233
185	0xbd79aa55	-0.060953457
186	0xbcf0335b	-0.029321363
187	0xbed9e5dd	-0.42558184
188	0xbee32191	-0.44361547
189	0x3d1afa17	0.03783616
190	0x3e2e18a9	0.17001595
191	0xbd5a1e16	-0.05325135
192	0x3e50e8e7	0.20401345
193	0x3ca072ca	0.019585986
194	0xbe12ad11	-0.14323832
195	0x3dac36f7	0.08408921
196	0x3e24aa4c	0.16080588
197	0x3e2c0e54	0.16802341
198	0xbd4f22cf	-0.050570305
199	0xbd298b90	-0.041392863
200	0x3ca3e331	0.020005794
201	0xbdc95836	-0.09831278
202	0xbdf10343	-0.117682
203	0xbe0e34a6	-0.13887271
204	0xbd9443f3	-0.07239523
205	0xbdb1656b	-0.08661922
206	0xbd6974d4	-0.05699618
207	0xbbca49dd	-0.006173356
208	0x3e5d23df	0.21595715
209	0xbe092385	-0.13392456
210	0xbda545ca	-0.08069952
211	0xbdb3bc42	-0.08776142
212	0x3c82d2d9	0.01596968
213	0x3e2906d9	0.16506518
214	0xbe60b38e	-0.21943495
215	0x3e59ef45	0.2128268
216	0xbd11cff8	-0.035598725
217	0x3e34cfa3	0.17657332
218	0x3e17a211	0.14807917
219	0xbd4cdf43	-0.050017606
220	0x3ea87c14	0.32907164
221	0xbd99c3d6	-0.07508056
222	0x3d8f2015	0.06988541
223	0x3eae807a	0.34082395
224	0x3e072c82	0.13200572
225	0x3e4b65ba	0.19863024
226	0xbe5a674f	-0.21328472
227	0x3e0a76fb	0.1352195
228	0x3e0c8de7	0.13726006
229	0xbe1e986b	-0.1548783
230	0x3dd5ba02	0.10435869
231	0x3e321d0d	0.17393894
232	0x3b7faebd	0.0039014064
233	0xbdfec230	-0.12439382
234	0x3dcc44a1	0.099740274
235	0x3e16f9fc	0.14743799
236	0x3e23530e	0.15949652
237	0x3ba246be	0.004952281
238	0x3df9456e	0.12171446
239	0x3d419c55	0.04726823
240	0x3d960c59	0.07326574
241	0x3e232e68	0.15935671
242	0xbe75fda4	-0.24022537
243	0x3e01ae98	0.12664258
244	0x3e20366a	0.15645757
245	0x3e39463c	0.18093199
246	0xbe4f86f4	-0.20266324
247	0x3d792394	0.060824946
248	0xbd84dff6	-0.0648803
249	0x3e11e8e9	0.14249004
250	0x3daac818	0.08338946
251	0x3e55cdcf	0.20879291
252	0x3d447cfd	0.04797076
253	0x3dab5e8a	0.08367641
254	0x3ae75759	0.0017649933
255	0xbd9df66e	-0.07713018

lstm.weight_ih_l1 f4 [392, 98]
0	0x3b8ec51e	0.0043569943
1	0x3f6e6c98	0.9313445
2	0xbeba1df3	-0.36350974
3	0xbe231df5	-0.15929396
4	0x3dc34198	0.095339954
5	0xbd98dad9	-0.07463617
6	0x3efd1489	0.4942973
7	0x3e555fa8	0.20837271
8	0xbe32eb1b	-0.17472498
9	0xbf65c6fe	-0.89756763
10	0x3ea09842	0.31366163
11	0xbf5ba03c	-0.85791373
12	0xbf0f1fc7	-0.55907863
13	0xbe020cca	-0.12700191
14	0xbf902796	-1.1262081
15	0xbfa4c3f0	-1.2872295
16	0xbe0dd4cf	-0.13850711
17	0x3f5a8e26	0.8537315
18	0xbe466748	-0.19375336
19	0x3e56b159	0.2096609
20	0x3e8c14d5	0.27359644
21	0x3e9b0cfe	0.3028335
22	0xbf362fa6	-0.71166456
23	0xbf087c12	-0.53314316
24	0xbea35061	-0.31897262
25	0x3de75806	0.11296086
26	0x3f6d1bfe	0.9262084
27	0x3e043711	0.12911631
28	0xbf081009	-0.5314947
29	0xbcebb8e3	-0.028774684
30	0xbe04519f	-0.12921761
31	0xbf295dc9	-0.6615873
32	0xbcdd90dd	-0.027046615
33	0xbf05e357	-0.5230002
34	0x3ee1c53e	0.44095796
35	0x3e9bd228	0.30433774
36	0xbe091845	-0.13388164
37	0xbf133657	-0.5750479
38	0xbf70c702	-0.9405366
39	0x3ef59454	0.47964728
40	0x3ea0b5e2	0.31388766
41	0x3e757994	0.2397216
42	0x3e2903e1	0.16505386
43	0xbf46c92d	-0.7765072
44	0x3f8228cf	1.0168704
45	0x3e89d5dc	0.26920974
46	0xbe80eb10	-0.25179338
47	0x3e421709	0.189541
48	0xbeb3f41f	-0.35147187
49	0xbd288515	-0.041142542
50	0x3e3c44fb	0.18385689
51	0xbec062b8	-0.37575316
52	0xbe8d051a	-0.27542955
53	0xbe98a0c7	-0.29810163
54	0xbf33bd1e	-0.70210445
55	0xbeb7922b	-0.35853705
56	0xbf0dc297	-0.55375046
57	0xbf37b7c2	-0.7176477
58	0x3f2592e8	0.64677286
59	0xbf31a0a4	-0.69385743
60	0xbe294e15	-0.16533692
61	0xbf63dbe8	-0.89007425
62	0x3f064b0b	0.52458256
63	0x3fa1eca2	1.265034
64	0x3fb13a6a	1.3845952
65	0xbef4830f	-0.4775624
66	0x3d0504a8	0.032475144
67	0x3fb6f3a1	1.42931
68	0x3e93973f	0.2882633
69	0x3f0eb428	0.55743647
70	0x3fb5081c	1.41431
71	0xbf9582c1	-1.1680528
72	0xbd378c59	-0.04481158
73	0x3f220e8a	0.63303435
74	0x3e071de6	0.13194999
75	0x3f22987a	0.6351391
76	0x3f3571d0	0.7087679
77	0xbfa3c6ea	-1.2795079
78	0xbeaa9300	-0.33315277
79	0x3e3cc378	0.1843394
80	0x3e0bedfc	0.13665003
81	0x3e06b797	0.13155971
82	0x3da70b3f	0.08156442
83	0x3e7c7e2e	0.24657509
84	0x3f15bbfe	0.5848998
85	0x3d33ff46	0.04394462
86	0xbf1cfde7	-0.61324924
87	0x3f113908	0.5672765
88	0x3cd31f26	0.025771689
89	0xbefabf33	-0.48973998
90	0xbf04cd23	-0.51875514
91	0x3eac2056	0.3361842
92	0xbc5c4ec6	-0.013446515
93	0xbe1e4cb8	-0.15458953
94	0x3ea9ff72	0.33202702
95	0xbf18c219	-0.5967117
96	0x3f21fc9c	0.63276076
97	0xbe8937e5	-0.26800457
98	0x3e26fc41	0.16307165
99	0x3e3862e6	0.18006477
100	0x3d8416db	0.06449672
101	0xbeaed3bc	-0.34145916
102	0xbe16ef7f	-0.14739798
103	0xbe3ddf48	-0.18542206
104	0x3d264873	0.040596437
105	0xbedc26e0	-0.4299841
106	0x3e43a44c	0.19105643
107	0xbf0b73f1	-0.5447379
108	0x3e391357	0.18073784
109	0x3c3c0c3e	0.011477528
110	0x3e47b90f	0.19504188
111	0xbe98f95b	-0.29877743
112	0xbd2a36d7	-0.041556206
113	0xbec43c97	-0.38327476
114	0xbe3ca8ea	-0.1842381
115	0xbe17837c	-0.14796251
116	0xbdab5277	-0.08365338
117	0x3e952772	0.29131657
118	0xbe6a8fbb	-0.22906391
119	0x3e858d87	0.2608454
120	0x3cae6d27	0.021292282
121	0xbe1169ec	-0.14200562
122	0x3dcff420	0.10153985
123	0x3e52f994	0.20603019
124	0x3d94471e	0.07240127
125	0x3c517661	0.012784571
126	0xbb1dcfda	-0.0024080188
127	0x3e4ea605	0.20180519
128	0xbed035ae	-0.40665954
129	0xbe403b82	-0.187727
130	0x3d9a2ea1	0.07528425
131	0x3f304973	0.68862075
132	0x3e89f7bc	0.2694682
133	0x3eb356c3	0.3502713
134	0xbd852091	-0.06500352
135	0xbd3c911d	-0.04603683
136	0xbebea1ed	-0.37232915
137	0x3ed1d982	0.40986258
138	0x3eb7586c	0.35809648
139	0xbd807e06	-0.06274037
140	0x3ddd36bd	0.10801456
141	0xbefb529f	-0.49086472
142	0x3e80e50e	0.25174755
143	0xbc4ebf05	-0.012618785
144	0xbe397c47	-0.18113814
145	0xbb699f39	-0.0035647883
146	0x3e891f5a	0.26781732
147	0x3db4b4de	0.0882356
148	0xbe03ddf9	-0.12877645
149	0x3d86671d	0.06562636
150	0xbda23466	-0.079201505
151	0xbe1c9b23	-0.15293555
152	0x3e9c37ce	0.30511326
153	0x3e41bf2a	0.1892058
154	0xbe77ca54	-0.24198276
155	0xbf049045	-0.5178264
156	0xbe835301	-0.25649264
157	0x3e1b1adf	0.1514697
158	0x3cda2a9e	0.02663165
159	0xbdf34785	-0.11878876
160	0x3e76e447	0.24110518
161	0x3bb4a067	0.0055122855
162	0x3c811f19	0.015761899
163	0xbd8b26fb	-0.06794544
164	0x3d904da4	0.07046059
165	0x3d87d516	0.0663244
166	0xbe229cbd	-0.15880103
167	0x3f08346a	0.5320498
168	0x3ea6c018	0.3256843
169	0x3ea077b1	0.31341317
170	0x3cebfbca	0.028806586
171	0xbe407df7	-0.18798052
172	0xbe9296c0	-0.28630638
173	0x3ead9d81	0.33909228
174	0x3eb3231c	0.34987724
175	0xbddbc5d2	-0.107310906
176	0xbbc7aa38	-0.0060932897
177	0x3f1e16e1	0.6175366
178	0xbdb47179	-0.08810706
179	0x3c28d04d	0.010303569
180	0x3e5334f2	0.20625666
181	0x3d477106	0.048691772
182	0xbeb3b0c7	-0.35095808
183	0x3dfb6f70	0.122771144
184	0x3ea8cf4d	0.32970658
185	0x3defcb4b	0.11708697
186	0x3e1eb5c7	0.1549903
187	0xbe102db5	-0.14079936
188	0x3da90865	0.08253554
189	0xbe4f62de	-0.20252559
190	0xbdcf305e	-0.10116647
191	0xbe806ec0	-0.25084496
192	0x3cedd1a4	0.029030629
193	0xbe82548c	-0.2545513
194	0xbaf8fbd9	-0.0018995955
195	0x3da70c74	0.08156672
196	0x3f34c01e	0.7060565
197	0xbf4a6592	-0.79061234
198	0x3f04916a	0.51784384
199	0xbdb5f76b	-0.08885082
200	0x3f08c263	0.5342161
201	0xbd48ffc2	-0.049072035
202	0xbe929608	-0.2863009
203	0x3f436013	0.7631847
204	0xbea26e51	-0.3172479
205	0xbedeeeea	-0.43541652
206	0xbe7ce52d	-0.24696799
207	0x3f4d291a	0.8014084
208	0x3e3f2671	0.18667008
209	0x3f508082	0.8144609
210	0x3ee8623d	0.4538745
211	0x3e6b5618	0.22982061
212	0xbe8d6f32	-0.27623898
213	0xbe079ed5	-0.13244183
214	0x3e077dfc	0.13231653
215	0xbf55bca8	-0.8349099
216	0xbd2caef4	-0.042159036
217	0x3ddd31eb	0.10800537
218	0x3eab1608	0.33415246
219	0x3ee500d1	0.44727185
220	0xbdd29aa8	-0.102834046
221	0xbf08e093	-0.53467673
222	0xbe37381d	-0.178925
223	0x3dc7dc9c	0.09758875
224	0x3f01bf15	0.50682193
225	0xbee10c3a	-0.4395464
226	0x3f3c6e8b	0.73606175
227	0x3e785cef	0.24254201
228	0x3dab8a68	0.08376008
229	0xbec92a82	-0.39290243
230	0xbec4c655	-0.38432565
231	0xbf081257	-0.53152984
232	0x3ddf44b0	0.10901773
233	0x3da886d0	0.082288384
234	0x3f9412de	1.1568258
235	0xbf9b141b	-1.2115511
236	0x3e2a8ac9	0.16654505
237	0x3f0fa746	0.56114614
238	0xbe23244d	-0.15931816
239	0x3f03eb77	0.51531166
240	0xbee5f3fa	-0.44912702
241	0x3eb6ca50	0.35701227
242	0x3dc1e854	0.09468141
243	0xbe694a1e	-0.2278218
244	0xbf2f5996	-0.6849607
245	0xbea933ab	-0.33047232
246	0x3f229fa3	0.63524836
247	0xbec469a0	-0.38361835
248	0x3f312abb	0.69205827
249	0xbefa8d44	-0.48935902
250	0xbe7b6ed5	-0.24553998
251	0xbf545b22	-0.8295156
252	0x3f1e34bd	0.6179922
253	0x3f5043b2	0.81353295
254	0xbe51754d	-0.20454903
255	0x3de1b0df	0.110200636

lstm.weight_hh_l1 f4 [392, 98]
0	0xbeef067a	-0.4668463
1	0xbefef44d	-0.49795762
2	0x3eff0675	0.49809614
3	0x3e837f67	0.25683138
4	0xbb9b7e8c	-0.00474531
5	0xbf21967b	-0.6312024
6	0xbda69815	-0.08134476
7	0xbee8821c	-0.45411766
8	0xbf0f47f9	-0.55969197
9	0x3e3b7e6c	0.18309945
10	0x3e7d6684	0.24746138
11	0xbda598ac	-0.080857605
12	0xbe00f4d7	-0.12593399
13	0x3e062959	0.1310171
14	0x3d5f5b1a	0.05453024
15	0x3ed5311e	0.41639036
16	0xbe7ce438	-0.24696434
17	0xbf05731e	-0.5212878
18	0x3ea920b5	0.33032766
19	0x3d2f37a2	0.042777665
20	0xbea15282	-0.3150826
21	0x3dce49e1	0.10072685
22	0xbe4de1bf	-0.20105647
23	0xbe2997d3	-0.16561823
24	0x3f37cfd5	0.718015
25	0xbd395ebb	-0.045256358
26	0x3f029775	0.51012355
27	0x3f5081cf	0.8144807
28	0xbeac3fab	-0.33642325
29	0xbef849bf	-0.48493764
30	0x3eceb113	0.40369472
31	0xbd99be63	-0.075070165
32	0x3ee5d5e0	0.44889736
33	0x3eb85ccd	0.360083
34	0x3e33a4c0	0.17543316
35	0x3e914b6e	0.2837786
36	0xbeaf4163	-0.34229574
37	0xbc3f8a1d	-0.011690644
38	0xbf3401b9	-0.7031513
39	0x3e254951	0.16141249
40	0xbddb601f	-0.10711693
41	0xbe4f084e	-0.20218012
42	0xbec34722	-0.38140208
43	0xbddecdb9	-0.10879082
44	0x3e37dce6	0.1795536
45	0xbe4df3eb	-0.20112579
46	0x3b21cf03	0.002469004
47	0xbeede24d	-0.46461716
48	0x3bb4aa84	0.005513491
49	0xbed3a8b5	-0.4133965
50	0x3f37a733	0.717395
51	0x3ec734c6	0.3890745
52	0x3d5a25c4	0.053258672
53	0x3e1acc3f	0.15116976
54	0xbf0a6159	-0.5405479
55	0xbd64c0c2	-0.05584789
56	0xbe22c79b	-0.15896456
57	0xbf014147	-0.5049023
58	0x3eb5025b	0.3535336
59	0x3eaa803b	0.33300957
60	0x3ea0ddfa	0.31419355
61	0x3d8fa5e2	0.070140615
62	0xbddbf77f	-0.107405655
63	0xbe89661c	-0.26835716
64	0x3e07fd09	0.13280119
65	0xbe6f8de8	-0.23393977
66	0xbc210d58	-0.009829842
67	0xbe058001	-0.13037111
68	0xbc5f482a	-0.013628045
69	0x3ebc30b9	0.36755922
70	0x3eadaab5	0.33919302
71	0xbec8c9ce	-0.39216465
72	0x3d61ef89	0.05516008
73	0xbead4cbf	-0.33847615
74	0x3c321fc7	0.010871834
75	0xbdbf1555	-0.09330241
76	0x3d98ac95	0.074547924
77	0x3f15d21d	0.5852373
78	0x3e5f4ca2	0.21806577
79	0xbe2231a6	-0.15839252
80	0x3eab7b18	0.3349235
81	0x3e347feb	0.17626922
82	0xbe0ccf2a	-0.13750902
83	0xbc41be21	-0.011825115
84	0xbeea8212	-0.4580236
85	0xbdda136e	-0.10648237
86	0xbda91922	-0.08256747
87	0x3f5ef50d	0.8709267
88	0x3e67df39	0.22643746
89	0x3f3240e1	0.6963025
90	0x3db8c91f	0.09022736
91	0x3d3423ae	0.04397934
92	0x3e9b7fdb	0.30370983
93	0x3eaa7635	0.3329331
94	0xbaead955	-0.0017917553
95	0xbe65806b	-0.22412269
96	0xbf2daf35	-0.6784547
97	0xbdec482c	-0.11537203
98	0xbe1b90e8	-0.15191996
99	0x3de135b5	0.10996572
100	0xbd652209	-0.05594066
101	0x3f36fe22	0.71481526
102	0xbee3edca	-0.44517356
103	0x3ef29c70	0.47384977
104	0xbe36fb97	-0.17869411
105	0xbe04f934	-0.12985688
106	0x3dd9db6f	0.10637557
107	0x3cf1905a	0.029487778
108	0xbe424000	-0.18969727
109	0xbe34204d	-0.17590447
110	0xbe3b2513	-0.18275861
111	0x3d946cd8	0.07247323
112	0xbc9e03c9	-0.019288914
113	0x3dd13cb0	0.10216653
114	0xbe147cbb	-0.14500706
115	0xbeda4dcb	-0.42637476
116	0xbd2190e5	-0.039444823
117	0x3f49d96f	0.788474
118	0x3dc82d37	0.09774249
119	0x3e95a16d	0.2922472
120	0x3dbef6cb	0.09324416
121	0xbe607bf9	-0.21922292
122	0xbdf58cda	-0.11989756
123	0x3e68833b	0.2270631
124	0xbe0d0ee7	-0.13775216
125	0xbf0a7af2	-0.5409385
126	0xbe3c6030	-0.18396068
127	0x3b7baa60	0.0038401112
128	0x3d85e1c6	0.065372035
129	0xbd9d7ab4	-0.076894194
130	0x3ce6b4e5	0.02816243
131	0x3ed1c760	0.40972424
132	0xbdb21784	-0.086958915
133	0xbea698be	-0.32538408
134	0xbea0d327	-0.31411096
135	0xbd881aad	-0.06645713
136	0xbe59b0d9	-0.21258868
137	0x3ef6fb0b	0.48238406
138	0xbee10312	-0.43947655
139	0xbd393cbf	-0.045223948
140	0xbeda101e	-0.4259042
141	0xbe389df0	-0.18028998
142	0x3eb85365	0.36001125
143	0x3eabd6b2	0.33562237
144	0x3e45097b	0.19241898
145	0xbebccb60	-0.36873913
146	0xbcbff879	-0.02343391
147	0xbe7fa3b6	-0.24964795
148	0x3ec1168f	0.37712523
149	0xbdfdf510	-0.124002576
150	0xbea270a8	-0.31726575
151	0x3f04f9c8	0.51943636
152	0x3d563d9a	0.05230484
153	0xbd73a249	-0.05948094
154	0xbd9766f3	-0.07392683
155	0xbef467ae	-0.4773535
156	0x3e6569c1	0.22403623
157	0x3e981e47	0.297106
158	0xbdc355e5	-0.095378675
159	0xbf06bf05	-0.5263522
160	0xbdd8adb3	-0.105800055
161	0xbf0eb29e	-0.557413
162	0x3e99952d	0.29996625
163	0xbedb9e37	-0.42894146
164	0xbde762ef	-0.11298167
165	0x3d188029	0.037231598
166	0x3df42950	0.11921942
167	0xbf02906f	-0.5100164
168	0x3f0d57c4	0.55212045
169	0x3dd05908	0.10173231
170	0xbf229ad8	-0.6351752
171	0xbd206fcf	-0.03916913
172	0x3ebd2ee8	0.3694985
173	0x3e50b6a9	0.2038218
174	0x3e6db2d7	0.23212753
175	0x3e0e6c06	0.13908395
176	0x3ece7e3c	0.40330684
177	0xbea9dd2f	-0.33176562
178	0x3ebb9838	0.3663957
179	0x3e832f29	0.25621918
180	0x3cf45121	0.029823842
181	0xbe30bcca	-0.17259517
182	0x3ce7702a	0.028251726
183	0x3df402a1	0.11914564
184	0xbd5ed497	-0.05440196
185	0x3e86306d	0.2620882
186	0x3f674903	0.9034578
187	0x3e8b6757	0.2722728
188	0x3e2494ce	0.1607239
189	0xbf11e71b	-0.56993264
190	0x3e28e2f7	0.1649283
191	0x3d5a4c9b	0.053295713
192	0xbe24e99f	-0.16104744
193	0xbd01d2c7	-0.031695154
194	0xbeffd671	-0.49968293
195	0xbe92d10c	-0.28675115
196	0x3f478b98	0.7794738
197	0xbe58ddf0	-0.21178412
198	0xbd9a8c45	-0.075462855
199	0x3eb561a5	0.3542606
200	0xbe03a9e6	-0.1285778
201	0x3eeb5e10	0.45970201
202	0x3ec7df9a	0.39037782
203	0x3eadf2de	0.33974355
204	0xbf236bf8	-0.6383662
205	0xbd9894ce	-0.07450257
206	0xbf3bd51e	-0.73372066
207	0xbf0a074e	-0.53917396
208	0x3eabe985	0.335766
209	0xbdbe7e6f	-0.09301459
210	0x3fcbe0a1	1.5927926
211	0xbe4218c7	-0.18954764
212	0xbe4955f0	-0.19661689
213	0x3df7d118	0.12100428
214	0xbe8073b5	-0.25088277
215	0x3f0f2da0	0.55928993
216	0xbd7b92e6	-0.06141939
217	0xbe5573eb	-0.20845
218	0xbe958aa2	-0.2920733
219	0xbf25e905	-0.64808685
220	0xbef3fe08	-0.47654748
221	0x3e20284d	0.15640374
222	0x3f05c7bf	0.52257913
223	0xbe4cad84	-0.19988066
224	0xbd67b062	-0.056564696
225	0xbebd7e12	-0.37010247
226	0x3eec5a95	0.4616286
227	0xbf2613af	-0.64873785
228	0x3ec872b9	0.39150026
229	0xbe40d917	-0.18832813
230	0xbda8b167	-0.08236962
231	0x3da54145	0.0806909
232	0xbe2fa3b0	-0.17152286
233	0xbf21860c	-0.63095164
234	0x3e1fc56e	0.15602657
235	0xbf4cf51d	-0.80061513
236	0xbf0d5f6a	-0.55223715
237	0xbe92c78d	-0.2866787
238	0xbe56a108	-0.20959866
239	0x3e6fb8cd	0.2341034
240	0x3f140cd1	0.57832056
241	0x3ea9cd5c	0.3316449
242	0xba6db4c6	-0.000906777
243	0x3ea93367	0.3304703
244	0xbef0f9bc	-0.47065532
245	0x3f127989	0.572167
246	0x3c288885	0.010286455
247	0xbe3a3cad	-0.18187208
248	0x3f0c1ca8	0.54731226
249	0xbd856d98	-0.06515044
250	0xbdad9ecd	-0.084775545
251	0x3f81e4ae	1.0147913
252	0xbe5590e2	-0.2085605
253	0x3f5b9099	0.85767514
254	0xbf124221	-0.57132155
255	0x3e695702	0.22787097

lstm.bias_ih_l1 f4 [392]
0	0x3e301440	0.17195225
1	0xbe9367c1	-0.28790095
2	0x3ec100c6	0.37695903
3	0x3cec1c02	0.028821949
4	0xbe009b4e	-0.12559244
5	0x3dad9dfe	0.084774
6	0xbe2d623d	-0.16932006
7	0xbe049bb2	-0.12950018
8	0xbe12b959	-0.14328517
9	0x3ec916d6	0.39275235
10	0xbed50945	-0.41608635
11	0x3d9fdca1	0.078057535
12	0xbc66a512	-0.014077442
13	0xbe899ed5	-0.26878992
14	0x3db21261	0.08694912
15	0xbebe4a6c	-0.37166154
16	0x3db86443	0.090034984
17	0x3dc92157	0.09820812
18	0xbe1bbc69	-0.15208592
19	0xbe0fedc2	-0.14055541
20	0xbe837478	-0.25674796
21	0x3d95f63d	0.07322357
22	0xbe630e15	-0.2217334
23	0xbebb75ad	-0.36613217
24	0xbea083c0	-0.31350517
25	0xbdd18f2f	-0.10232388
26	0xbe391b09	-0.1807672
27	0x3ec24175	0.37940565
28	0x3ec41995	0.38300768
29	0xbe4ac5be	-0.19801995
30	0xbc2ad143	-0.010425868
31	0xbb234de3	-0.002491825
32	0x3e74259b	0.2384247
33	0xbea30bbe	-0.31844896
34	0xbe9ad659	-0.3024166
35	0x3c4ee690	0.012628213
36	0xbe590e05	-0.21196754
37	0xbee75e95	-0.45189348
38	0xbdc5f143	-0.09665158
39	0xbe4bda8e	-0.19907591
40	0xbd832776	-0.06404011
41	0x3e5ec872	0.21756151
42	0x3e161916	0.14658007
43	0xbe8075a7	-0.25089762
44	0xbe8fed17	-0.28110573
45	0xbd6b0ace	-0.05738335
46	0xbe51f105	-0.20502098
47	0x3e8245c4	0.25443852
48	0x3e3d7149	0.18500246
49	0xbe5471f7	-0.20746599
50	0xbef553c9	-0.47915486
51	0xbe9cd5d4	-0.30631888
52	0x3e6f505e	0.23370501
53	0x3eb4d14b	0.35315928
54	0xbdfb9c7c	-0.122857064
55	0x3ea01e14	0.31272948
56	0xbe3d9dd1	-0.18517233
57	0xbe722b38	-0.23649299
58	0xbdd99e50	-0.10625899
59	0xbdf1faef	-0.1181544
60	0xbe8e8142	-0.2783299
61	0xbe96f623	-0.29484662
62	0xbe1ce25d	-0.15320726
63	0x3e4901a1	0.19629528
64	0x3e5fcdc0	0.21855831
65	0xbedec40c	-0.43508947
66	0x3da236ae	0.079205856
67	0xbdfdc484	-0.12390998
68	0xbea280c1	-0.31738856
69	0xbe123d9a	-0.14281312
70	0xbe46ed38	-0.1942643
71	0x3e89140c	0.26773107
72	0xbeca5005	-0.39514175
73	0xbec38733	-0.38189086
74	0xbe61821d	-0.2202229
75	0x3d8fab2d	0.07015071
76	0xbe9b5a99	-0.30342558
77	0xbddbc4fd	-0.10730932
78	0xbe1de95f	-0.15421055
79	0x3bfa1d24	0.0076328684
80	0x3edd8047	0.4326193
81	0xbe5cd135	-0.21564181
82	0xbf1f7434	-0.62286687
83	0x3e99f9db	0.30073437
84	0x3ee44b1a	0.44588548
85	0xbe5bc8c1	-0.214633
86	0xbe33ac98	-0.17546308
87	0x3e86dd10	0.26340532
88	0x3e0bc18b	0.1364805
89	0x3dec45f6	0.115367815
90	0xbe8256e5	-0.2545692
91	0x3f8f50de	1.1196554
92	0xbc6d3145	-0.014477079
93	0x3df62034	0.12017861
94	0xbdf73cfd	-0.120721795
95	0x3e1d9753	0.15389757
96	0xbe1af2ec	-0.1513173
97	0xbcfc12df	-0.030770717
98	0xbe82fd48	-0.25583863
99	0x3de670eb	0.11252006
100	0xbccdf7cb	-0.025142571
101	0xbd647a6f	-0.055780824
102	0x3e6a46e1	0.228786
103	0x3da5276b	0.08064159
104	0xbd23d817	-0.040001
105	0x3e10ea9a	0.14151993
106	0x3d884b6f	0.06655013
107	0x3e1763ae	0.14784119
108	0xbe032bc0	-0.12809658
109	0xbe6e4010	-0.23266625
110	0x3e393408	0.18086255
111	0x3e172b1b	0.14762537
112	0xbd5b6052	-0.053558655
113	0x3d59f877	0.05321547
114	0x3f00f625	0.50375587
115	0x3dae9059	0.08523626
116	0xbea5a338	-0.3235109
117	0x3e5dd465	0.21663053
118	0x3a14554d	0.0005658463
119	0x3d09a10a	0.033600844
120	0x3e129be3	0.14317279
121	0x3e193b2c	0.14963979
122	0xbc96715f	-0.018364606
123	0x3e5f7ba3	0.21824507
124	0x3e824132	0.25440365
125	0xbe66e41a	-0.22547951
126	0xbd725329	-0.05916134
127	0xbe4dd5b6	-0.20101056
128	0xbddaf4b9	-0.106912084
129	0xbd9b682e	-0.0758823
130	0x3e796ca7	0.24357854
131	0xbe9c0514	-0.30472624
132	0x3ed19f47	0.4094183
133	0x3e70e1e3	0.23523669
134	0x3d334e40	0.043775797
135	0x3e2b2ef9	0.16717137
136	0x3d5a6b05	0.053324718
137	0x3ba4e6be	0.0050323894
138	0x3ea20bc5	0.31649604
139	0x3ebc7c98	0.36813807
140	0x3e16462f	0.1467521
141	0x3e858fe1	0.26086333
142	0x3e7f73b0	0.24946475
143	0x3e06823b	0.13135616
144	0x3e5c72c2	0.21528152
145	0x3e124ae0	0.14286375
146	0xbdebd801	-0.11515809
147	0x3d42e77f	0.047584053
148	0xbc6eee0e	-0.014583124
149	0x3e6af95e	0.22946689
150	0xbd9d0463	-0.07666852
151	0x3d7b039c	0.06128274
152	0x3eab5251	0.3346124
153	0x3e296180	0.165411
154	0x3d5488dd	0.051888335
155	0x3e981dc8	0.2971022
156	0xbd95501d	-0.07290671
157	0x3d244d1d	0.040112603
158	0x3d90488c	0.07045087
159	0x3ea05dc7	0.31321546
160	0x3e4b57f5	0.19857772
161	0x3d0ae1a1	0.033906583
162	0x3e6f1171	0.23346497
163	0xbdc373d8	-0.0954358
164	0x3d8c2153	0.068422936
165	0x3da1637e	0.07880305
166	0x3cc29d76	0.023756724
167	0x3e81f9cc	0.25385892
168	0x3e7524df	0.23939846
169	0x3e93f416	0.2889716
170	0x3e2cdd76	0.16881356
171	0xbf02615c	-0.5092981
172	0x3edaaa1c	0.42707908
173	0x3d079217	0.033098307
174	0x3eed9cce	0.46408695
175	0xbdc2bbea	-0.09508498
176	0x3df84f1c	0.12124464
177	0xbe16b2ee	-0.14716694
178	0x3dfc1485	0.12308601
179	0x3de42863	0.11140516
180	0xbdd8591c	-0.10563871
181	0x3e95afe2	0.2923575
182	0x3eab4ca8	0.33456922
183	0x3be84ede	0.00708948
184	0xbcdda369	-0.02705546
185	0x3d2cbcfc	0.042172417
186	0x3d9850d0	0.07437289
187	0x3c075228	0.008259334
188	0x3db6306b	0.08895954
189	0xbca9b0c4	-0.020714171
190	0xbe2115a2	-0.15730909
191	0x3e231102	0.15924457
192	0x3ea49ded	0.32151738
193	0x3d525df9	0.05135915
194	0x3c701af7	0.014654866
195	0x3e96d361	0.29458144
196	0xbec1f8b4	-0.37885058
197	0x3e3fca44	0.18729502
198	0x3d4e658f	0.050389823
199	0x3e40a3fc	0.18812555
200	0x3da36c8e	0.079796895
201	0x3eba5923	0.3639613
202	0x3d279996	0.040917955
203	0x3d8c59de	0.06853078
204	0xbe1fbd73	-0.15599613
205	0xbcdc73e5	-0.026910732
206	0xbd708eda	-0.058729984
207	0xbd309d73	-0.043118905
208	0x3c74bd25	0.014937674
209	0x3c3c666b	0.011499028
210	0x3dfc2f40	0.123137
211	0x3d0f6a81	0.03501368
212	0x3d976c6a	0.07393725
213	0xbe5f0762	-0.2178016
214	0xbe2312da	-0.1592516
215	0x3e901c01	0.28146365
216	0x3df1506b	0.11782917
217	0x3dd4eb74	0.103964716
218	0xbdf7a85e	-0.1209266
219	0x3dbbc27c	0.09167954
220	0xbd00e02a	-0.03146378
221	0xbe547652	-0.2074826
222	0xbe67cab6	-0.22635922
223	0xbe917371	-0.28408387
224	0xbea8c142	-0.32959944
225	0x3e9376b1	0.28801492
226	0xbd454165	-0.04815807
227	0x3e6b0f75	0.22955115
228	0x3f05b695	0.52231723
229	0x3d4c6838	0.04990408
230	0xbd0112b9	-0.031511996
231	0xbe08c219	-0.13355292
232	0x3ce76fed	0.028251613
233	0x3cffbc18	0.03121762
234	0x3b0d1612	0.0021528048
235	0xbec1b333	-0.3783203
236	0xbe491ede	-0.19640681
237	0xbdc55680	-0.09635639
238	0xbee76078	-0.45190787
239	0xbe3170a8	-0.17328131
240	0xbc96508b	-0.018348953
241	0x3e0ec24c	0.13941306
242	0x3e499046	0.19683942
243	0xbed10523	-0.40824232
244	0x3eb8cd11	0.36093953
245	0x3cac7f21	0.021056714
246	0x3dbb4278	0.09143537
247	0xbe680b0d	-0.22660466
248	0x3dc871f2	0.09787358
249	0x3e34254a	0.1759235
250	0x3e7d030a	0.2470819
251	0xbd2ea742	-0.04263998
252	0xbd19024b	-0.037355702
253	0xbc16fe5a	-0.009215916
254	0xbd8eac6b	-0.0696648
255	0x3b0e907b	0.0021753598
