models/lstm3.pth (torch, 785123 bytes, 14 tensors)

lstm.weight_ih_l0 f4 [392, 1]
000000 1c 95 35 3f 8b d0 8c 3d bb cb 14 bf 40 8d 3b 3f
       0.7093065 0.06875714 -0.5812337 0.73262405
000010 a6 ed 92 be be 0a b8 be 78 10 58 be be ac 1a 3f
       -0.28696936 -0.35945696 -0.21100032 0.60419834
000020 a7 53 1f 3f 3f f8 3c 3f bf 69 8c be 0c 70 58 3f
       0.6223702 0.73816293 -0.27424428 0.8454597
000030 05 94 db 3e 61 dd 2b be 83 13 8d be aa 0e 9e be
       0.42886367 -0.16783668 -0.2755395 -0.30870563
000040 bd da f4 be 41 14 fc 3e 55 3c c1 be 56 00 10 3f
       -0.47823134 0.49234203 -0.37741342 0.5625051
000050 7f c8 a5 be e2 5b b2 be 68 3a 63 bf af 06 03 c0
       -0.3237953 -0.34835726 -0.88760996 -2.047283
000060 7b a6 53 bf 15 07 bb bf b6 d7 89 3e c4 04 9c bf
       -0.82675904 -1.4611536 0.26922387 -1.2188954
000070 2e 2d c9 be c3 1a 5a bf 41 9c f3 be 77 cb 5e 3f
       -0.39292282 -0.85197085 -0.4758015 0.8702921
000080 0e 51 45 3f 8d 60 e3 be 43 78 b8 be ee 7c 2c 3f
       0.77076805 -0.444096 -0.36029252 0.6737813
000090 76 48 3c bf 05 16 2d be 69 66 19 3f fc e4 08 bf
       -0.73548067 -0.16902931 0.5992189 -0.534744
0000a0 ec 33 0c bf 68 0e 23 3f 80 44 48 be 93 74 b6 be
       -0.54766726 0.6369386 -0.1955738 -0.35635814
0000b0 1a d3 15 bf 83 e7 03 3f 09 90 a5 3e 60 9e 79 bf
       -0.5852524 0.51525134 0.32336453 -0.97507286
0000c0 18 87 0e bf ab 34 08 bf fd b0 02 bc 4c b8 db be
       -0.55674887 -0.53205365 -0.007976768 -0.42914045
0000d0 29 a4 2f bf 98 0d 66 3f df 15 9c 3f a0 ec 2d bf
       -0.68609864 0.8986449 1.2194175 -0.67939186
0000e0 c5 fd 03 3f fd 78 16 3f b4 7d 33 3f 19 ca 60 3e
       0.51559097 0.58778363 0.7011368 0.21952094
0000f0 17 c3 29 bf 34 3d b0 3e e7 e6 90 3f 1c be 2b bf
       -0.6631331 0.34421694 1.1320466 -0.6708696
000100 98 9e 46 bf 56 fa d3 bd c9 f1 e3 be 7b 80 e0 bf
       -0.77585745 -0.10350482 -0.44520405 -1.7539209
000110 ba 8d 31 3f dc e3 eb be fd 77 89 3f c8 c9 d3 be
       0.6935688 -0.4607228 1.0739743 -0.41364884
000120 e2 4b 22 bf c3 0e 21 3f 73 40 58 bf 0d 99 23 bf
       -0.6339704 0.6291315 -0.8447334 -0.6390541
000130 74 d3 f2 be 9b a2 86 bb 53 ff 94 bf 02 0c b5 be
       -0.4742695 -0.0041087396 -1.1640419 -0.35360724
000140 09 1a a4 be ee ad bd be 5d 25 2e bf 68 71 99 bf
       -0.32051113 -0.3704676 -0.6802576 -1.1987734
000150 7e fe 62 3f 45 26 72 3f d1 92 02 bf 7e 20 ec be
       0.88669574 0.94589645 -0.51005274 -0.4611854
000160 42 08 f5 be 7a 91 72 bf 2a 59 d2 be c1 c2 14 bf
       -0.47857863 -0.9475323 -0.41083652 -0.5810967
000170 da 0e be be 1c e9 8a 3f f1 2e ee be 2b a0 30 3e
       -0.37120706 1.0852389 -0.46520188 0.17248599
000180 d7 75 54 bf 93 90 23 3f 65 1e 52 3e 8f 57 af be
       -0.8299231 0.6389248 0.20519407 -0.3424649
000190 10 43 82 be d0 d5 b8 bc 2b 66 04 bf 93 99 f4 be
       -0.2544179 -0.022562891 -0.51718396 -0.47773418
0001a0 0a 21 09 3e ca 76 df 3d 06 24 5e 3f 1d 46 55 3e
       0.1339151 0.10911329 0.8677372 0.20827527
0001b0 6f d7 4f be bd ab a5 3c 58 e2 b7 bd 94 94 a8 be
       -0.20297025 0.020223493 -0.089787185 -0.32925856
0001c0 57 c5 85 bf 13 c2 d6 3d d8 ac 1e bf 12 1c bf 3e
       -1.0450848 0.104862355 -0.6198249 0.37326103
0001d0 d7 5c 9e 3e 8a 88 11 3f b0 c6 06 bf 77 63 76 be
       0.30930206 0.5684897 -0.52646923 -0.2406138
0001e0 78 eb 01 bd 06 6c 0d bf 9e 25 a1 be 2c c0 ac 3b
       -0.0317187 -0.55242956 -0.31474012 0.005271932
0001f0 d4 dc c6 3c 38 2f a6 be 5d b2 2b bf b1 d8 9f 3e
       0.02427522 -0.324579 -0.67069036 0.3122001
000200 0a fd 38 bf 95 69 a9 3f 08 a1 8b 3d e7 27 88 3e
       -0.72261107 1.3235346 0.06817824 0.26592943
000210 fb 82 34 3e 92 61 4e 3f 75 11 85 3e 91 f9 9d be
       0.1762809 0.8061763 0.2598988 -0.30854467
000220 d6 a2 7b 3e e6 b3 d0 be f6 14 30 bf e1 bb 83 3f
       0.24573836 -0.40762252 -0.68781984 1.0291711
000230 1e b6 b7 be 27 f2 33 be ca 65 f0 be 74 93 2e 3e
       -0.35881132 -0.17572843 -0.4695266 0.17048436
000240 04 21 2a 3f 31 17 48 bf e1 d0 d9 be 0f 18 62 bd
       0.6645663 -0.7816039 -0.42542174 -0.055198725
000250 c2 c9 2d 3f 7e 09 fe be c1 78 cf be a5 01 03 3e
       0.67885983 -0.49616617 -0.40521815 0.12793596
000260 34 b9 0d 3f 2b d4 22 bf c8 1e 3f be e6 15 6c 3f
       0.5536072 -0.6360499 -0.18664086 0.92220914
000270 78 d9 22 3e 8a b8 2d 3f 6a 55 d7 be 85 53 f3 3e
       0.1590327 0.6785971 -0.42057353 0.47524658
000280 36 5c c9 3e 5c 5e bd be 52 d8 be be 1b e7 f7 be
       0.39328164 -0.36986053 -0.37274414 -0.48418507
000290 e2 42 09 bf d3 af 19 3e 55 a6 10 3f cf 3a be be
       -0.5361768 0.15008478 0.565038 -0.37154242
0002a0 69 01 4d bc 52 23 a2 be 16 15 d2 be 90 ee d7 be
       -0.012512543 -0.31667572 -0.41031712 -0.42174196
0002b0 92 95 23 bf 71 75 74 bd c0 51 fb 3e 19 6b 54 3c
       -0.639001 -0.059682313 0.49085808 0.012964987
0002c0 2a 5a 3f bf 32 b2 0b 3f cc 76 d6 be ea 52 1e 3f
       -0.74746954 0.5456878 -0.4188751 0.61845267
0002d0 71 85 5d bf 52 03 41 bf 30 2c a1 3e 1a 81 e0 3e
       -0.8653174 -0.7539569 0.31479025 0.43848497
0002e0 18 94 61 bf 39 0d 23 bf 9d 18 83 be 74 ec 29 bf
       -0.881166 -0.6369205 -0.25604716 -0.66376424
0002f0 5c 27 a9 be 1f d6 e1 be 4f 07 04 bf a5 50 3e 3f
       -0.3303784 -0.44108674 -0.5157365 0.74341804
000300 f9 71 93 3c 28 fa 4a 3f bf 81 ff be fb 79 91 3e
       0.017998682 0.7928796 -0.49903676 0.28413376
000310 ef 2f 31 bf fc 5c f6 3e 4e 3a 35 3f ae 8d 8a bf
       -0.69213766 0.48117816 0.7079209 -1.0824487
000320 61 32 96 bf 1a 03 1a 3f 5d c4 aa 3e 10 10 65 bf
       -1.1734124 0.6016098 0.33352938 -0.89477634
000330 7b 48 01 bf ab e6 0e 3f d7 38 15 bf 00 d5 c0 be
       -0.5050122 0.5582072 -0.58289856 -0.37662506
000340 4a be 86 3f 65 8b a4 bd c3 65 95 be 2f b7 d1 3e
       1.0526822 -0.080344 -0.291792 0.4096007
000350 b6 83 b1 3e 01 02 f6 be b8 b8 12 3f 7f 30 3c bf
       0.346708 -0.48048404 0.5731311 -0.735115
000360 7f c3 22 3f f5 72 6b bf 7d 5b 03 bf f9 26 d9 3e
       0.63579553 -0.91972286 -0.51311475 0.42412546
000370 02 15 eb 3e c7 ef 50 bf c3 6c 9f 3e 42 78 58 bf
       0.45914465 -0.8161587 0.31137666 -0.845585
000380 20 63 4a bf a3 92 79 bf 4b 16 2f bf bc a2 24 bf
       -0.790575 -0.97489375 -0.6839339 -0.6431081
000390 fc 65 15 3f c7 6b c3 be 98 14 78 be 96 11 2a bf
       0.5835874 -0.38168165 -0.24226606 -0.66433084
0003a0 d1 d9 79 3f 27 78 b8 3d 9c 87 d1 be ea 35 95 3e
       0.97597986 0.09007292 -0.40923774 0.29142696
0003b0 91 26 1a 3f a8 f3 91 be 98 72 17 3f 15 49 1c 3f
       0.602151 -0.28506207 0.5915923 0.61049014
0003c0 22 41 e1 bc fe 1c 42 bf e1 d7 41 bf b6 d8 12 3f
       -0.027496878 -0.7582549 -0.7572003 0.57361925
0003d0 16 9d 8b 3d 67 27 a5 be 3f 73 8b bf 90 32 4e bf
       0.06817071 -0.32256624 -1.0894545 -0.805459
0003e0 17 80 a8 be d2 45 33 bf ec 2e 48 bf 5f cc 5a be
       -0.32910225 -0.7002841 -0.781966 -0.21367024
0003f0 88 56 c4 be 48 7d dd be 0d 76 87 3f d6 c6 3f bf
       -0.38347268 -0.43259645 1.0582901 -0.74912775

lstm.weight_hh_l0 f4 [392, 98]
000000 ce a7 ee 3e 4f c5 84 3e 9e b3 65 3d 17 de 86 bd
       0.466124 0.25931785 0.0560795 -0.06585329
000010 ee 61 1c be c5 bc 88 3d 91 2a 3f be be a2 72 3e
       -0.15271732 0.0667663 -0.18668582 0.23694894
000020 ae 53 18 3f 77 db ee bd cb ea ac be 37 de 02 3f
       0.59502685 -0.11662953 -0.33772883 0.5112032
000030 6e d0 ae bd d2 3d f1 3e 45 0c 68 3e c6 d7 a9 bd
       -0.085358486 0.47117478 0.2266093 -0.08293109
000040 1b d6 c0 3d 0a eb 8f 3e 57 76 d4 3e ed f6 c2 3c
       0.094158374 0.28109008 0.41496536 0.023799384
000050 01 0f e1 bd 8a 24 c3 3d 35 bc 90 be 62 79 1e 3f
       -0.1098919 0.09528454 -0.2826859 0.61903965
000060 49 f5 6b 3f a7 55 fb bd 9f ac 1d bf d9 20 18 3f
       0.9217115 -0.12272196 -0.61591524 0.5942512
000070 e4 3f 07 3e 9d 9b 85 be c6 5f 18 be fc aa 6a 3e
       0.13207966 -0.26095286 -0.14880285 0.22916788
000080 31 81 c4 be a9 6b 91 be 09 f8 6a 3d e5 7a 02 3f
       -0.38379815 -0.2840245 0.05736545 0.5096877
000090 5d 63 14 bc cf fc cc 3d a9 dd c1 3e c4 6f 5c bb
       -0.009056893 0.10009157 0.37864426 -0.0033635953
0000a0 be 53 14 be 7f 53 b6 3e 3e 2f 28 bd d8 9d a7 be
       -0.1448507 0.35610577 -0.04106068 -0.32737613
0000b0 09 ec 6a be 08 83 31 3f b8 7c a0 3e 86 90 7a 3e
       -0.22941603 0.6934056 0.31345153 0.24469194
0000c0 45 57 44 bf 5a c2 7c 3e 77 e0 a4 bd 4b 48 d3 bc
       -0.7669566 0.24683514 -0.08050626 -0.025791308
0000d0 57 34 53 be 2c 37 73 3e 4f 47 dc 3e c0 37 89 bd
       -0.20625435 0.23751515 0.43023154 -0.067000866
0000e0 cf 0e 0b 3e 25 11 08 3f 50 98 1a be 5b ec 85 bd
       0.13579868 0.5315116 -0.15097165 -0.06539222
0000f0 30 3c e4 bd 30 a6 d8 bc 26 61 d4 be 26 7f 9a be
       -0.11144292 -0.026446432 -0.41480368 -0.30175132
000100 0d ad 0b 3f 31 c3 0e bd 94 ea 9e be 62 cb 32 be
       0.5456093 -0.034854118 -0.31038344 -0.17460397
000110 df f1 c4 be 3f 7a f8 be bd 54 9d 3e bc 83 55 be
       -0.38465783 -0.48530766 0.30728713 -0.20851034
000120 9b 0b be 3e 4e 65 82 3c f7 4e bf be 2e 92 48 3e
       0.3711823 0.015917446 -0.37364933 0.19587013
000130 8b 53 a7 bc ed 64 bb be 5a 4b 7a be a8 72 1f be
       -0.020425579 -0.36600438 -0.24442807 -0.15571082
000140 de 99 98 be ab 1d 8c 3e 5e e1 e3 3e 53 3b 9f bd
       -0.2980489 0.27366385 0.4450788 -0.07774987
000150 16 c0 5c 3e d8 de 2d 3e 7d ef 62 bd 13 95 19 3e
       0.2155765 0.1697954 -0.055404175 0.14998274
000160 8f 60 08 3f 87 ac 81 be 65 6e b1 be 43 17 87 3e
       0.53272337 -0.2532694 -0.34654537 0.26384935
000170 93 23 4f be 39 ce 84 be 19 9f 33 bf fb 00 42 bd
       -0.20228414 -0.25938585 -0.7016464 -0.047364216
000180 f6 a3 7f 3e 74 2f 9b be cd 6c 5f bf 3e 60 1d bd
       0.2496489 -0.3030964 -0.8727539 -0.03842186
000190 6c 77 13 bd a6 7c 50 bd 3a 08 5f be c2 93 63 be
       -0.03600256 -0.050900124 -0.21780482 -0.22224334
0001a0 25 7b dd bd 51 0b 96 be fa ba 05 3f bc 8d a6 be
       -0.108145036 -0.2930551 0.5223843 -0.3253001
0001b0 0d 4f a7 3d 45 07 a9 3e 95 2f 7b be 1a 18 ad 3d
       0.081693746 0.3301336 -0.2452987 0.08451863
0001c0 4b 03 61 bf 27 49 bc be 94 df 4e bf 7e a4 a8 3d
       -0.8789565 -0.3677456 -0.80809903 0.082344994
0001d0 bf 2e 00 be 86 6d 16 3f 8d f3 1e be dc 5b a4 3e
       -0.12517832 0.5876087 -0.15522595 0.32101333
0001e0 84 59 96 bd 79 af bd be 89 28 78 3d 3d 51 e2 bd
       -0.073412925 -0.37047938 0.060585532 -0.11050651
0001f0 67 61 a9 3d ed e5 0f be 8c 8c 5a be 23 7e 64 3c
       0.08270531 -0.14052553 -0.21342677 0.013946089
000200 e3 0e 10 3e 5e 31 50 3f b2 1e 4a 3c 1d 69 b4 3d
       0.14068179 0.8132533 0.01233642 0.08809111
000210 30 81 4d 3c 30 44 58 3e 23 c9 b2 3c 25 a3 80 bd
       0.012543008 0.21119761 0.021824425 -0.06281117
000220 68 22 f5 bc e6 d9 9e 3e f5 e9 18 bf 4b 41 a9 3e
       -0.029923633 0.31025618 -0.5973199 0.33057627
000230 a8 d7 20 bb df 28 89 3e 1b 75 fc be 2b 75 1f bf
       -0.0024542604 0.26788995 -0.49308094 -0.6228816
000240 24 0f 05 3f e8 a8 33 be 27 11 3d 3e d6 49 14 bf
       0.5197623 -0.17544901 0.18463574 -0.57925165
000250 7b 31 1a 3e 7a a1 b6 be 13 b6 0f bf f5 8d 8d bd
       0.15057938 -0.35670072 -0.561372 -0.06911842
000260 6d ce ef 3e 02 68 3c bf ae 42 22 be d8 21 9a 3e
       0.46837178 -0.73596203 -0.15845749 0.30103946
000270 6f 31 8e 3e 70 1d f4 3e 1c 94 16 bf 5a 8a 24 be
       0.2777209 0.4767871 -0.58819747 -0.16068402
000280 09 05 8e 3e 2c ce 60 3d 7a 67 b6 bd a6 0d f1 3e
       0.27738217 0.05488412 -0.08906455 0.47080725
000290 91 28 d9 bd c1 23 dc bd 4c 00 ba be 96 17 75 be
       -0.106034406 -0.10749007 -0.36328351 -0.23934779
0002a0 eb 3d 46 bf e6 7f ff 3e 35 bc 4d be 26 90 2b be
       -0.7743823 0.49902266 -0.20091327 -0.16754207
0002b0 d4 b2 91 3e 71 19 65 bd d9 9d ac 3d ac 36 08 3d
       0.28456748 -0.055932466 0.084285446 0.033255264
0002c0 39 b7 28 be 41 17 70 3d 3a 53 3d be 57 ed 74 be
       -0.16476144 0.058615927 -0.1848878 -0.23918663
0002d0 0b 6d 92 3d 17 7c 08 be a7 68 03 3f 0c a6 c3 3c
       0.071497045 -0.13328587 0.5133156 0.023882888
0002e0 11 b3 53 3e 34 bb 1f be ad f4 9c 3e 8a 74 c3 3d
       0.20673777 -0.15598756 0.30655423 0.095437124
0002f0 09 63 a4 3d 57 c1 19 bf f0 29 17 be f3 bd 95 be
       0.08026702 -0.6006064 -0.14762092 -0.29246482
000300 03 07 59 bf e8 ad 03 3e 1a b8 09 3e a0 c4 d4 3e
       -0.84776324 0.12859309 0.13449135 0.41556263
000310 f0 70 41 bf 2a c5 22 3f 37 25 db 3e d6 3b ff bd
       -0.75562954 0.635821 0.4280183 -0.12462585
000320 4b 41 fa be 10 b5 a9 3e 86 05 17 be 4b 50 a6 bc
       -0.4887794 0.33145952 -0.14748201 -0.020301959
000330 4f 55 02 bf 39 ce 1d 3f 5c d0 56 be d0 7a 8b be
       -0.5091142 0.61642796 -0.2097792 -0.27242136
000340 8a be 09 3f bc dc e8 3b 18 7d 2a bf 26 1b 1b 3d
       0.53806365 0.0071063917 -0.6659713 0.037867688
000350 53 e8 97 3c 7a 61 bd be 04 97 3d 3e 43 c2 51 be
       0.018543398 -0.3698843 0.18514639 -0.20484261
000360 c0 55 c8 3e 03 9a a2 be 80 ef c2 be d8 a7 ae 3d
       0.39127922 -0.31758127 -0.3807335 0.085281074
000370 d6 4f e2 bd 10 ae bf be 9f d3 d6 3e 60 0f 8c be
       -0.11050384 -0.37437487 0.4195833 -0.2735548
000380 f1 28 cc be 4d 1d 6e be 94 20 c5 bd a5 75 98 3c
       -0.39874986 -0.23253365 -0.096253544 0.018610785
000390 99 6b 9e be ab cf 1a be fb 68 ed 3e a6 c0 d6 be
       -0.30941465 -0.15118282 0.46369156 -0.41943854
0003a0 63 b2 16 3f a2 90 bd bd 84 80 77 be c9 82 0b 3d
       0.58865947 -0.09256102 -0.24170119 0.034060273
0003b0 0f 70 09 3f 3e 5e 6b 3e 11 b5 10 3f 5b fe 58 3f
       0.5368661 0.2298517 0.56526285 0.84763116
0003c0 7f d1 39 3f 07 a7 9a bd 33 57 88 3c bf 3f 09 3e
       0.7258529 -0.07551389 0.016643142 0.13403223
0003d0 10 4a be 3e bd 39 22 bf 06 84 5c bf a5 94 ec be
       0.3716588 -0.6336935 -0.8613895 -0.46207157
0003e0 ff f5 d7 3b 4b 69 d8 be 4e 5e ef be 36 62 24 be
       0.0065906043 -0.42267832 -0.46751636 -0.1605309
0003f0 25 0e 0f bf 3e e2 0a be 38 74 85 3e df 5e ae 3d
       -0.5588096 -0.13562867 0.2606523 0.08514189

lstm.bias_ih_l0 f4 [392]
000000 2b bd 91 3c 27 33 b2 be a5 d2 5a be 36 2f b6 bd
       0.017790398 -0.3480465 -0.21369417 -0.088957235
000010 c0 27 ab 3d 64 9c 30 bf fa 8d a3 be 82 99 3d be
       0.08357191 -0.68988633 -0.31944257 -0.1851559
000020 26 38 24 bf c1 66 a6 be 88 1d d5 bc 29 2b 38 bf
       -0.64148176 -0.3250027 -0.026015058 -0.7194086
000030 ed 1d 97 3e da 2c 3f bf c8 4d f9 bd 09 e4 fb be
       0.2951502 -0.74677813 -0.12173039 -0.49197415
000040 88 47 94 be ac e4 7e be 4d 6e 88 be d9 f7 01 bf
       -0.28960824 -0.24891919 -0.26646653 -0.5076881
000050 97 dd c0 be d3 d6 4d be 03 d0 4c be ad 48 6e be
       -0.3766906 -0.2010148 -0.20001225 -0.23269911
000060 30 6b fa bd 11 a5 00 bf 55 df ea be d7 5e 24 3e
       -0.12227476 -0.5025187 -0.45873514 0.16051804
000070 47 a3 5d be 8f a6 7a be 78 49 97 be 14 c7 ed be
       -0.21644317 -0.244776 -0.2954824 -0.46440947
000080 8b f8 bf be b0 3a fb be 82 dc 22 bf 0f af 9a be
       -0.3749431 -0.49068213 -0.6361772 -0.30211684
000090 10 02 05 bd f4 6e 69 bf d3 17 f5 be 9c 35 1f bf
       -0.03247267 -0.91184926 -0.4786974 -0.62191176
0000a0 15 f8 3d bf 1a c2 1f bf bb cd 2e bd 78 6c fb be
       -0.7420667 -0.6240555 -0.04267667 -0.49106193
0000b0 6a 86 1c bf 84 e4 1b bf 9a 9b 11 bf 2c c8 1e bf
       -0.611426 -0.6089556 -0.56878054 -0.6202419
0000c0 4a 3e 49 bf f0 7c 79 be 79 93 0e 3d 84 d8 dd bd
       -0.7861067 -0.24364066 0.03480861 -0.10832313
0000d0 e5 f1 d5 be 43 6b ff be 71 62 14 bf e3 87 e8 be
       -0.41786113 -0.49886522 -0.5796271 -0.45416173
0000e0 a5 2b 0b bf 48 bd 1a bf f6 22 5b 3d 44 2a ba be
       -0.5436347 -0.6044507 0.05350014 -0.3636037
0000f0 6d 9a 0e bf a3 87 1c be f9 71 fc be 90 62 a4 3d
       -0.55704385 -0.15286116 -0.49305704 0.08026612
000100 af 77 1a bf 0c 11 af bc 93 8e f1 be cf e5 0b bf
       -0.6033887 -0.021370433 -0.47179088 -0.54647535
000110 4d 0b 9d be 4b 53 a9 be a6 d2 09 bf 5f 9e 3e bf
       -0.30672684 -0.3307136 -0.5383705 -0.74460405
000120 14 56 65 be a1 f3 f6 be 37 be 20 bf 43 ea 0f bf
       -0.22396117 -0.4823275 -0.62790245 -0.5621683
000130 68 9f be be 6f 51 e2 3d 57 ef 90 be ce b7 22 be
       -0.37230992 0.110506885 -0.28307602 -0.15890428
000140 39 7c b4 be fb d5 6e be c3 95 2e bf 45 13 ef be
       -0.35251024 -0.23323815 -0.6819727 -0.4669439
000150 54 7d e2 be b1 5f 7a be 1b 7f f2 be f1 2c 00 bf
       -0.44236243 -0.24450566 -0.473626 -0.50068575
000160 c8 c6 1c bf d1 3f d7 be bf b7 0c bf f5 dc 34 bf
       -0.61240816 -0.42040876 -0.54967874 -0.70649654
000170 78 31 af be ff 3e 42 bf 76 16 33 bf 46 e3 21 be
       -0.3421743 -0.75877374 -0.6995615 -0.15809354
000180 9c fc df be 27 7e 10 bf 8d cc 88 be f8 fb f0 be
       -0.43747413 -0.56442493 -0.2671856 -0.47067237
000190 4d 85 de bd ae 3b d7 be e3 46 f9 be 7d be 22 bc
       -0.10865269 -0.4203772 -0.48686895 -0.009933111
0001a0 bb a7 a8 be c6 88 25 be 39 46 a7 bd e2 80 8a be
       -0.32940468 -0.16165456 -0.08167691 -0.27051455
0001b0 83 69 00 be 7d bb b1 be 80 8c ca be e5 82 a6 be
       -0.1254025 -0.34713355 -0.39560318 -0.3252174
0001c0 34 8b 01 bc 0e e9 25 be 17 d3 6f 3d cd ea 8b 3e
       -0.007906724 -0.16202185 0.05855092 0.27327576
0001d0 ef f5 1e 3e 01 9f dd 3e 26 3c a4 3d e7 13 88 be
       0.15523504 0.43285373 0.08019285 -0.26577684
0001e0 1f f8 0b bf 62 cd 0e be aa d4 a8 be a9 ec 5e be
       -0.5467548 -0.13945535 -0.3297475 -0.21769966
0001f0 c1 f2 10 be f6 c1 dc be e7 79 0f bf 67 5e f8 3d
       -0.14155103 -0.4311673 -0.56045383 0.12127381
000200 6e d1 a9 bd 31 1e 86 3e d9 04 2a be ff bd 5d 3e
       -0.08291899 0.2619491 -0.16603412 0.21654509
000210 f0 2f f9 bd 28 fa a4 bc 7d 99 e5 be 7e b2 f3 bd
       -0.121673465 -0.020138815 -0.44843665 -0.11899279
000220 d7 61 c6 bd 0f 47 96 3e 1f 09 17 bf 96 9d 75 3e
       -0.0968663 0.29351088 -0.5899829 0.23985896
000230 d1 08 58 be eb 5d cb be 0a 5e b1 be 66 1c 39 be
       -0.21097113 -0.3972009 -0.3464206 -0.1807724
000240 3a 09 2c 3e 70 5a be 3d 62 b4 72 be c2 b3 4f 3d
       0.16800395 0.09294593 -0.23701623 0.05070854
000250 c6 2d 1a be 4c b3 c8 be ee 08 51 be 76 7d f3 bd
       -0.15056524 -0.39199293 -0.20413563 -0.11889164
000260 28 c8 d7 bd ca 47 01 be b1 78 bd 3d 24 2a a0 bc
       -0.10536224 -0.12625042 0.09251536 -0.019551344
000270 d6 43 ae be 96 16 4e 3e af 30 f3 be 85 d0 ae bd
       -0.3403613 0.20125803 -0.4749808 -0.08535866
000280 84 f5 62 be 1c c1 4b bf 0e fc 33 be 67 e8 96 be
       -0.2216397 -0.79591537 -0.1757662 -0.29474184
000290 ac 79 e3 be ec 43 45 bc 52 07 94 be 18 64 e2 be
       -0.44428766 -0.01204012 -0.28911835 -0.4421699
0002a0 7d fc 9b bd 5a cd 79 be e0 7d 80 be 18 af 7e bd
       -0.07616518 -0.24394742 -0.25096035 -0.0621787
0002b0 14 9e 7e be 30 63 9a be ea 7d 88 be c1 63 79 be
       -0.2486499 -0.301538 -0.26658565 -0.2435446
0002c0 5b 37 11 bd 3a 78 37 3e d6 76 b0 3d 34 70 b6 ba
       -0.03545318 0.17916957 0.08616416 -0.0013918937
0002d0 ea 81 ed 3a 8d 7d d8 be 66 52 26 3f 42 14 6c be
       0.0018120382 -0.42283288 0.6496948 -0.23054603
0002e0 eb 52 ca bd 3a 44 12 be 1b 52 c6 3d f2 23 42 be
       -0.098790966 -0.14283839 0.09683629 -0.18959025
0002f0 0e ca de bd db 9e a5 bd 01 fc e1 be 31 e3 8d 3e
       -0.108783826 -0.0808694 -0.44137576 0.27712396
000300 18 97 c6 bd 13 a7 57 3e 79 79 83 be 8c c4 29 be
       -0.096967876 0.21059828 -0.25678614 -0.16578883
000310 cb 8e b5 3d 80 e8 5a 3d 3d f6 68 3d b4 2c e0 3d
       0.08865126 0.053444386 0.056875456 0.109460264
000320 49 2c c3 bd dd b4 95 3d 75 e8 01 be 7e 90 68 3e
       -0.09529931 0.073098876 -0.12686332 0.2271137
000330 5b 3c 44 3e 6d 5d 62 be 52 68 0a be da 73 b9 3d
       0.19163649 -0.22105952 -0.13516358 0.090553
000340 f6 02 fb bd c6 f6 30 3e ed 3a f3 bc 6a fa 87 3e
       -0.12256424 0.17281637 -0.029691184 0.26558238
000350 a0 88 1e 3e fc eb 50 3e 87 5b a1 bd 1a e3 40 3d
       0.15481806 0.20402521 -0.078787856 0.04709158
000360 b7 cd 11 3e aa a9 95 3d 25 d9 9f bc 20 03 e4 3d
       0.1423863 0.073077515 -0.019512722 0.111334085
000370 ae 66 95 3e a4 13 21 be 2f 71 85 be db 7a 85 3c
       0.291799 -0.15730149 -0.26062915 0.016293934
000380 af cf e4 bc de 7d 0b be 78 c6 95 bc ae f7 6e 3d
       -0.027931063 -0.13622233 -0.018283114 0.058341675
000390 71 ed 9a be 0f 87 9e 3d f8 52 b8 3d c4 c6 91 3d
       -0.30259278 0.07740604 0.090002 0.0711799
0003a0 da 62 5c bd 39 77 5a 3e 88 87 7e 3e fc 2d 24 3d
       -0.05380521 0.21334542 0.24856389 0.040082917
0003b0 f5 9b 22 3e d5 1f 33 3e 43 06 1b 3d 58 f3 e4 bd
       0.15879805 0.17492612 0.03784777 -0.11179227
0003c0 30 f8 90 bc 4b 0e ac 3d 81 6a 88 3d 47 b5 20 3e
       -0.01769647 0.08401164 0.06660939 0.15694152
0003d0 e3 8c 08 bd 70 2e c7 3d 21 2d 18 bd 72 00 fd bd
       -0.033337485 0.09725654 -0.037152413 -0.123536006
0003e0 34 1c 4d bd 77 b4 1f 3e 55 6f 46 3e e9 ad 25 bd
       -0.050075725 0.15596186 0.19378407 -0.040449057
0003f0 73 40 0c 3e 1a 49 35 3d 70 03 8d bc 55 86 b5 bb
       0.1369646 0.04425917 -0.017213553 -0.0055396953

lstm.bias_hh_l0 f4 [392]
000000 3b fa e7 3d 9e 5f ac be 40 01 a9 bd f7 d8 80 be
       0.113270245 -0.336667 -0.082521915 -0.2516553
000010 25 55 43 3e ff 37 14 bf 98 c0 cf be e0 5d 4c be
       0.19075449 -0.57897943 -0.40576625 -0.19957685
000020 42 5f 0c bf ee 2c a9 be a8 8b 85 bc 38 81 3f bf
       -0.5483285 -0.3304209 -0.016301945 -0.7480655
000030 e8 10 9d 3e 4e ae 49 bf 09 bb 80 be 32 2a 06 bf
       0.3067696 -0.7878159 -0.25142696 -0.52408135
000040 e1 3e 1f be fa 5d 2a be 4b 82 29 be 24 2d cf be
       -0.1555133 -0.16637412 -0.16553609 -0.40464127
000050 ba 69 d1 be f7 2f 45 bd b3 d2 5d be a0 8e 34 be
       -0.40900975 -0.048141446 -0.21662407 -0.17632532
000060 13 37 52 be c8 88 c6 be 7a 9e 19 bf 25 7f 8e 3d
       -0.20528822 -0.3877623 -0.6000744 0.06957845
000070 e9 3c 98 be f3 4d 1d be 5d 79 b2 be d0 80 e1 be
       -0.2973397 -0.15361767 -0.34858218 -0.4404359
000080 73 dd cd be 84 44 d5 be 15 c9 0b bf 08 e1 d5 be
       -0.40208015 -0.41653836 -0.546037 -0.41773248
000090 1c ed f8 bd ec d1 69 bf ff 49 12 bf fe d7 1c bf
       -0.121546 -0.9133594 -0.5714416 -0.6126708
0000a0 5e dc 46 bf 29 0c 33 bf c9 22 06 bd 49 6b 06 bf
       -0.77680004 -0.6994043 -0.032748017 -0.52507454
0000b0 72 b3 02 bf 73 09 19 bf fa f0 e1 be 11 46 0e bf
       -0.5105506 -0.59780043 -0.44129163 -0.5557566
0000c0 b4 7a 2f bf 8b e4 82 be bd 00 90 bd 1e 2b 15 be
       -0.68546605 -0.2556499 -0.07031391 -0.14567229
0000d0 7c 7c a3 be ef a9 b0 be 99 e9 08 bf 0f be fc be
       -0.31930912 -0.3450465 -0.5348144 -0.49363753
0000e0 70 ef 17 bf fd 7a 16 bf 6c ee c8 3d 74 d6 0b bf
       -0.5934973 -0.58781415 0.098111 -0.54624104
0000f0 09 84 05 bf 1e 6e a8 bd 51 9e 11 bf d1 58 fb 3d
       -0.52154595 -0.08224128 -0.56882197 0.122728
000100 63 ea 3d bf ed a6 c9 3d 02 db 12 bf 2d 4a 15 bf
       -0.7418577 0.09846292 -0.5736543 -0.5831631
000110 4f 9d 2f be 01 a6 95 be 7e 13 23 bf 5c c7 32 bf
       -0.17149852 -0.29228213 -0.6370162 -0.6983545
000120 31 cc 8e bd a9 19 1c bf 90 eb 0a bf e9 d5 02 bf
       -0.0697254 -0.60976654 -0.5426569 -0.5110765
000130 8a 15 87 be 4e bd c0 3d 09 f4 85 be 4c 2e 43 be
       -0.2638362 0.09411107 -0.26162747 -0.1906063
000140 00 ed af be 4e 85 92 be 34 39 21 bf 23 b4 e4 be
       -0.34360504 -0.28617328 -0.6297791 -0.44668683
000150 b2 8a d5 be 2f 20 51 be a1 2a 9c be 99 02 aa be
       -0.4170738 -0.20422433 -0.30501273 -0.33205107
000160 f3 3a 19 bf 15 9d 15 bf 6f cf f6 be 76 fd 2e bf
       -0.59855574 -0.58442813 -0.48205134 -0.683555
000170 98 03 b5 be 70 89 37 bf cc 1b 28 bf 02 fd 5f be
       -0.35354304 -0.7169409 -0.65667415 -0.21873859
000180 d5 9f 92 be f3 93 05 bf 9c 0b 6a be 93 78 ab be
       -0.28637567 -0.5217888 -0.22855991 -0.33490428
000190 d3 6b 7b bd 8b 61 99 be 57 86 13 bf 61 a3 d4 3d
       -0.061382126 -0.29957232 -0.5762686 0.103827246
0001a0 c8 7a 9f be 86 a9 14 be e0 de 22 be cb 3e 98 be
       -0.31148362 -0.14517793 -0.15905333 -0.29735407
0001b0 68 a6 0a bd 7f ca 8d be e9 d2 ed be 56 c7 4b be
       -0.033850104 -0.27693555 -0.46449974 -0.1990026
0001c0 aa c8 86 3d 57 9b b0 3c c4 0b e6 3d a5 9a 8e 3e
       0.065812424 0.021558447 0.11232713 0.2785236
0001d0 42 bd 9a 3e 15 ea a1 3e 40 67 2b 3e 5c b6 98 be
       0.30222517 0.31623903 0.16738605 -0.2982663
0001e0 cb a0 f0 be a1 f2 eb bd b8 8a bb be bc 2c ad bd
       -0.46997675 -0.11520887 -0.36629272 -0.08455798
0001f0 2f 0c 09 3d c9 f9 b5 be 3c ae de be a3 c9 8b 3d
       0.033458885 -0.35542133 -0.43492305 0.068255685
000200 5e 1b 39 be 69 61 6b 3e c2 9c 9d bd af 4e af 3e
       -0.18076846 0.22986378 -0.07695915 0.34239718
000210 92 91 bd 3c 07 11 c6 3d 3c 9c c0 be 7d 5f 24 be
       0.023140702 0.096712165 -0.37619197 -0.16052051
000220 ac 2d a6 bd 82 b5 3b 3e 42 0a 14 bf d2 8e 78 3e
       -0.0811418 0.18330958 -0.5782815 0.24273232
000230 b4 c0 1b be a8 ba de be 99 58 95 be 7a 25 e5 bd
       -0.15210229 -0.43501782 -0.29169157 -0.11188789
000240 bd d5 66 3e cb 65 09 bd 86 2c 03 be 7e 76 f6 3d
       0.22542472 -0.033544343 -0.12809953 0.12034319
000250 a2 58 a6 be a0 2f c9 be 45 5a 93 be 46 05 e6 bd
       -0.32489496 -0.39294147 -0.28779808 -0.112314746
000260 1b f1 0d be c6 c1 fd bd ea 28 7f 3e 04 8f e9 bc
       -0.13861506 -0.12390475 0.24917951 -0.028510578
000270 6f 5a 9a be 9e cd 75 3e 25 eb f3 be ca 59 9e bd
       -0.3014712 0.24004218 -0.4764034 -0.0773197
000280 db 2b 09 be 0a fd 4d bf 3a 0b 1a be 24 0f 8c be
       -0.13395636 -0.8046423 -0.15043345 -0.273553
000290 8c 64 07 bf 13 10 15 be 31 e0 a6 be 42 a7 0e bf
       -0.528878 -0.14556913 -0.3259292 -0.55723965
0002a0 5a 1c 58 be 15 0a b2 be ac aa 80 be cb fa 78 3c
       -0.21104565 -0.34773317 -0.25130212 0.015196512
0002b0 24 6c 93 be 97 34 9d be 52 9b 88 be 8e f4 c6 be
       -0.28793442 -0.30704185 -0.26681 -0.38858455
0002c0 a0 e6 66 bd 2a a3 83 3d c6 f3 38 3e e4 58 82 bd
       -0.056372285 0.064276055 0.18061742 -0.06364611
0002d0 34 3c de bd 5d b4 a0 be 12 7c 0e 3f 04 00 a7 be
       -0.108513266 -0.31387606 0.55658066 -0.326172
0002e0 02 ea 62 bd c0 60 29 be fb ce 3b 3e 4e 06 22 be
       -0.05539895 -0.16540813 0.18340676 -0.15822718
0002f0 60 e0 c9 3c 6a 3f 00 be 4a f5 13 bf 45 9f 7d 3e
       0.024643123 -0.1252419 -0.57796156 0.24767788
000300 b9 e5 8f bd fa 30 29 3e a6 4f 3b be f0 ea 46 be
       -0.07026238 0.1652259 -0.18292102 -0.19425559
000310 3d 5d 33 3e ce 20 8a 3c dd 15 01 3e 00 69 5a 3d
       0.17516036 0.016861346 0.12605996 0.053322792
000320 01 97 d9 bd ef 71 00 3e c1 3e a8 bd 95 17 91 3d
       -0.10624505 0.12543462 -0.08215094 0.07084576
000330 35 db 26 3d 03 78 27 be e9 be 53 bd f9 4d 08 3e
       0.040736396 -0.16354375 -0.051695738 0.13310994
000340 1b 07 ef bd e1 42 34 3e 2a f6 d2 3d 4a c0 8a 3e
       -0.11671277 0.17603637 0.10300858 0.2709983
000350 35 b6 05 3e 12 ab 2e 3e 76 ae 65 3d c9 b1 b0 3d
       0.13057788 0.17057446 0.056074582 0.0862766
000360 0d dd 0d 3d 94 91 a3 3d b8 7b 84 3d 7c f5 18 3e
       0.03463464 0.07986751 0.0646891 0.14937395
000370 c1 a6 56 3e 53 83 66 be 02 26 0f be 88 d7 bf 3d
       0.20962049 -0.22511034 -0.13979343 0.09367281
000380 6c 2f 1f 3d 2b c7 91 bd e6 2c 99 3c a9 ca 7c 3d
       0.038863584 -0.071180664 0.018698167 0.06171671
000390 3c 98 41 be cb 43 cd bd a1 2e 5c bd a1 3a 98 3b
       -0.18905729 -0.10022696 -0.053755406 0.004645661
0003a0 b9 e4 5b 3d 82 bb 5b 3e be b1 83 3e c0 0a 6e 3d
       0.053684924 0.21458247 0.25721544 0.05811572
0003b0 aa c9 53 3e 78 a5 95 3d 5d 27 2c 3e 51 1b f8 3b
       0.20682397 0.07306951 0.16811891 0.0075716157
0003c0 20 92 e9 3b ce 36 69 3e 82 79 ab 3c f7 f4 17 3c
       0.007128015 0.22774813 0.020931963 0.009274713
0003d0 0c c1 4c bd 03 82 33 bd fb 5f c1 bc 95 94 47 3d
       -0.04998879 -0.04382516 -0.023605337 0.048725683
0003e0 f0 53 cd bd c0 4c 3f 3e f9 2d ac 3d 3a c0 3c be
       -0.100257754 0.18681622 0.08407206 -0.18432704
0003f0 0e d7 4e 3e 99 8b da 3d d0 a1 b6 bc 73 ac 52 bc
       0.20199224 0.106711574 -0.022293955 -0.012858498

lstm.weight_ih_l1 f4 [392, 98]
000000 3f 5f 77 3e 9d 83 d0 3c 41 41 cd 3d 51 ae 97 3e
       0.24157427 0.025453383 0.10022212 0.2962518
000010 7a 31 b5 bc 2b f1 fc 3d 23 cc ee 3d 36 e6 89 3e
       -0.022118319 0.12350687 0.1166003 0.2693345
000020 ee ee c1 3d 0e 22 15 3e b9 3e 03 be 32 3b 5c 3e
       0.094694 0.14563772 -0.12816896 0.21506956
000030 a3 ba ab bd ea cb 9f be 84 42 35 be ca 90 70 3d
       -0.083852075 -0.31210262 -0.17701155 0.05873183
000040 5d 4d 89 be 5b 31 46 3e 18 14 8d bd 14 5b 0c 3e
       -0.26816836 0.19354765 -0.06888598 0.13706619
000050 6d 51 bc 3d 72 78 07 bf ee 00 19 3f 9b e1 13 3f
       0.09195218 -0.5291816 0.59767044 0.5776612
000060 d0 27 ec 3e f9 2b 11 3e 0f 29 8f be 81 1c 90 be
       0.46124125 0.1417693 -0.27961013 -0.28146747
000070 fc ee 41 bd bf 0a 6d be 8b aa 8e be 40 b0 96 3e
       -0.047347054 -0.2314863 -0.2786449 0.29431343
000080 cc 97 f3 3b 01 bb 0e bd 59 cb 90 3e ab 23 92 3e
       0.007433867 -0.03484631 0.28280142 0.28542838
000090 29 3b 9c bd f9 3e 97 3c 4d 45 a6 3d 51 52 e5 3e
       -0.076284714 0.018462645 0.08118687 0.44789365
0000a0 92 d8 12 3e 00 cd 83 bc b0 d2 d7 be f5 e5 0b 3e
       0.14340428 -0.016088963 -0.4215293 0.1366194
0000b0 57 f3 56 be 67 ac 70 3f ea 4e cf 3e f8 76 a5 3e
       -0.20991264 0.94013065 0.40489894 0.32317328
0000c0 ab 18 0c bf 53 9d 03 3e 27 c1 97 3d 21 38 17 3f
       -0.5472514 0.12852983 0.07409888 0.5907002
0000d0 e7 4b 91 3e c2 cc 11 3e 6b df 04 3f d6 0d 95 be
       0.2837822 0.14238265 0.5190341 -0.29112118
0000e0 1e 41 46 3e 87 45 30 3e 8c 3a e1 be a1 39 85 3e
       0.19360778 0.17214023 -0.4398998 0.2602053
0000f0 16 ec fc 3e a9 53 1c bf c8 aa 21 bf 1f 01 0a 3e
       0.4939887 -0.61065155 -0.63151217 0.1347699
000100 19 a0 ac 3e 16 27 ea 3e 92 82 39 3e 84 6d 2c 3f
       0.33715895 0.45732945 0.18116215 0.6735461
000110 a9 83 df be 17 1b 08 3e 06 a6 07 3e c5 44 05 3e
       -0.43655136 0.13291584 0.13246927 0.13014515
000120 90 83 48 3e aa 21 b1 3e 69 f8 4b be a8 50 08 3e
       0.19581437 0.34595996 -0.1991898 0.13312018
000130 a0 26 7e 3c dc 1f 30 3f 9b 7a 10 bf c0 8c 5a bc
       0.015512139 0.68798614 -0.5643708 -0.0133392215
000140 1d cc cc 3d 67 6a ba 3d 36 61 e3 bc a0 0b 4a bf
       0.09999869 0.09102326 -0.027756315 -0.7892399
000150 48 11 05 3f e9 72 91 be 58 a5 44 bf 93 26 d8 be
       0.51979494 -0.28407982 -0.76814795 -0.4221693
000160 34 1a 78 be 91 64 24 be 29 38 b9 be 2d 1b d8 3d
       -0.24228746 -0.16053988 -0.3617566 0.10552058
000170 6a cb 2d 3c a9 45 e9 be 74 42 e6 bd 15 11 d5 bd
       0.01060758 -0.4556096 -0.11243144 -0.10403649
000180 25 32 18 3f dc 39 25 bf 14 95 9e be d7 fb bc be
       0.59451514 -0.6454141 -0.30973113 -0.3691089
000190 29 cb ad be c6 d5 a3 3d 76 1e 47 3e 67 7b b7 be
       -0.3394406 0.079997584 0.19445214 -0.35836336
0001a0 1a 90 25 3e 01 ce e6 bd 36 7d 47 3d cc 41 b0 be
       0.16168252 -0.11269761 0.048703395 -0.344252
0001b0 6d 9f c9 3e 99 e2 c2 3d 58 37 2b bf c0 c2 84 ba
       0.39379445 0.09515876 -0.6688132 -0.0010128841
0001c0 ae d1 00 3e 07 1d f1 3c 24 73 a4 be 61 7f b6 3d
       0.12579986 0.029432787 -0.32119095 0.08911014
0001d0 0e 44 a7 bc 09 31 2c 3e 1d d4 a3 be 36 2b c8 3d
       -0.020418193 0.1681558 -0.31997767 0.09773867
0001e0 0e 76 83 bd a5 71 d5 be 74 b5 09 bf e1 bd cf 3d
       -0.064190015 -0.41688266 -0.537925 0.101436384
0001f0 d9 f8 22 3e a0 50 a7 be 1a d2 3e be 54 0d 31 3f
       0.1591524 -0.326787 -0.18634835 0.6916096
000200 24 b8 0b 3d de e8 d2 3d 34 27 76 be 62 eb ba 3d
       0.034111157 0.10298322 -0.24038392 0.09126927
000210 cd 5b 1f be cc ef e2 bd d3 74 93 3e e7 d0 0f bf
       -0.15562363 -0.11080894 0.28800067 -0.56178135
000220 12 a4 7a 3e 75 77 97 be 8d 00 19 3d 26 75 c8 bd
       0.2447665 -0.29583326 0.03735404 -0.09787969
000230 b7 1b 8b 3c 23 ce 91 3d 60 d8 03 3f 6e 1b 9d 3e
       0.016980989 0.071193956 0.5150204 0.3068499
000240 56 30 20 3e 5d 33 29 bd 84 cd 60 3e cf c1 74 be
       0.15643439 -0.04130875 0.21953398 -0.23902057
000250 1c be 10 3f 4b 7d 8d be ef 7b 37 be 1d f5 04 3e
       0.56540084 -0.27634653 -0.1791837 0.12984128
000260 82 7c 1b 3e f5 e2 9f 3e 56 93 a4 bd a3 cf a8 3d
       0.15184215 0.31227842 -0.080359146 0.082427286
000270 45 34 5b be 2a a8 c2 be 39 79 05 3e 34 f6 95 bd
       -0.21406658 -0.38018924 0.13034524 -0.0732235
000280 ee d3 29 3c 3f 2c 9b be 46 3d 81 be e1 bf 56 3e
       0.010365469 -0.30307195 -0.2524206 0.20971633
000290 6e 13 5a 3e b8 28 13 bd 40 91 f4 bd f3 51 63 bf
       0.21296474 -0.035927504 -0.11941767 -0.8879692
0002a0 0d 68 3f 3e bd d1 2c 3f 9c e9 20 3e 19 14 87 3e
       0.18692036 0.67507535 0.15714115 0.2638252
0002b0 c8 21 dc 3d e9 89 8c 3e 35 90 d3 3c e5 4d 42 bf
       0.10748631 0.27448967 0.0258256 -0.7590011
0002c0 1b 16 90 3e a6 81 bd bc 18 c3 54 be 6b 70 bb be
       0.28141865 -0.02313311 -0.20777547 -0.36609206
0002d0 11 40 0c 3e 73 f5 1c 3e 7f 76 4e 3e 83 02 67 3d
       0.13696314 0.15328006 0.2016239 0.05639888
0002e0 f4 e4 1e 3e b0 a9 a0 be 1a 1e e1 be 52 11 42 be
       0.15517026 -0.3137946 -0.43968278 -0.1895192
0002f0 26 44 b2 3e bd 5b aa 3d 0e ea ab 3d a1 25 25 3e
       0.34817618 0.08318279 0.08394252 0.16127636
000300 68 fb 1b be 86 72 0d be 84 93 56 bd 58 5c a9 be
       -0.15232623 -0.13813218 -0.052386776 -0.33078265
000310 ce 41 83 be aa 19 c4 be 24 19 aa be 2e 03 83 be
       -0.25636142 -0.3830083 -0.33222306 -0.25588363
000320 58 22 b9 3e 4d 11 29 be c1 8f 45 3f 05 95 51 3e
       0.36159015 -0.16510506 0.77172476 0.20467003
000330 c3 6d f0 3d fa dd 1d 3e dc eb cb be e6 7a dd be
       0.117396854 0.15416709 -0.39828384 -0.43257827
000340 86 da 97 3e 2d 20 b1 3e 92 0e cd bd c3 75 44 3d
       0.29658908 0.3459486 -0.10012545 0.04796387
000350 76 a8 ef be 7a 9b 87 3e f6 92 cb 3e c6 7c a2 be
       -0.46808213 0.26485807 0.3976056 -0.3173582
000360 37 bc 7c be 85 0a 2b 3e 54 9d 95 3f 09 7b 08 bf
       -0.24681173 0.16703232 1.1688638 -0.53312737
000370 60 34 ac be 09 41 05 be bc 22 aa 3e 5c 3c 29 3e
       -0.3363371 -0.1301309 0.33229625 0.16526932
000380 be cb 8c 3e aa f9 f0 be 81 49 c5 bd a8 e4 10 be
       0.27499193 -0.4706548 -0.096331604 -0.14149725
000390 9b 18 fc bd c1 4b f1 bd c2 85 de be 7e 2a 08 3f
       -0.123093806 -0.11782027 -0.43461424 0.5318984
0003a0 4e d2 97 3e f0 46 df be 36 84 60 be e2 a0 11 3f
       0.29652637 -0.4360881 -0.21925434 0.5688611
0003b0 2a 23 46 bd eb b4 85 bd 4c 5a f2 3e 4d c1 6b be
       -0.04837338 -0.06528648 0.47334516 -0.23022957
0003c0 10 79 59 be 37 e9 31 3e 11 ac a1 3c 32 e8 80 3e
       -0.21237588 0.1737412 0.019735368 0.2517715
0003d0 67 e5 e6 3d c4 c4 ab 3e b0 93 cf be d0 32 07 3e
       0.11274224 0.33548558 -0.40542364 0.13202977
0003e0 49 7f 0c 3f d8 3d 85 bd 27 43 97 bd 66 73 a8 3e
       0.5488172 -0.065059364 -0.07385855 0.32900542
0003f0 c5 77 9d 3e 62 ba 1b 3e 8b 25 4c 3d 84 3a 9b 3e
       0.3075544 0.15207818 0.04984049 0.3031808

lstm.weight_hh_l1 f4 [392, 98]
000000 0c 35 67 3e dc fa d1 be a0 26 82 3d 5f 73 1e bf
       0.2257883 -0.41011703 0.063550234 -0.6189479
000010 58 ea 3c 3f 28 e0 97 3c 6a 7a 3f bc b6 46 2a bf
       0.7379508 0.018539503 -0.011686901 -0.66514146
000020 ea 2b ad 3e 59 c5 1e 3e a8 ff 2e 3e 94 f7 97 be
       0.33822566 0.1550497 0.17089713 -0.29681075
000030 7e b5 f0 be 47 5d d3 3d 0b c5 f3 be 63 e8 b5 3e
       -0.47013468 0.103205256 -0.4761127 0.3552886
000040 05 14 b5 3e 92 32 08 3f 1d 76 65 bf 9f ca 8b bd
       0.35366836 0.53202164 -0.8963335 -0.06825756
000050 e4 05 11 3f 09 ea bc be 06 d6 42 bf b4 15 38 bf
       0.56649613 -0.36897305 -0.76107824 -0.71908116
000060 b9 33 9b 3d 18 ed 17 be b0 ed ca be de 63 5c 3f
       0.07578225 -0.14836538 -0.39634466 0.86089885
000070 0e 2a 7b be fe b3 36 be fe ff 9a be 5f 33 f3 be
       -0.24527761 -0.17842099 -0.30273432 -0.4750013
000080 a3 18 1a bf 77 e7 f7 be 53 bd 0f bf 5f 99 6d be
       -0.6019384 -0.4841878 -0.5614826 -0.23203038
000090 ed d2 a4 3e e5 32 32 bf c0 30 65 be c9 5f 31 bf
       0.32192174 -0.6960891 -0.22381878 -0.6928678
0000a0 1b a4 1b be e4 02 0a 3f f3 a6 26 bf db cf 4d be
       -0.1519932 0.5391066 -0.65098494 -0.20098822
0000b0 a8 21 a8 bc 41 9a c7 bd 48 a0 ef 3e 2d d2 9c bf
       -0.020523861 -0.097462185 0.46801972 -1.225164
0000c0 21 ff a0 3e d4 78 01 bf 89 ac a1 be 6a b6 ef be
       0.31444648 -0.50574994 -0.31576946 -0.46818858
0000d0 2e c4 c4 3e 25 d7 82 3e 06 7d c3 be 18 27 8f bb
       0.38430923 0.25554767 -0.38181323 -0.004368674
0000e0 b0 8f 67 bd 52 cd a6 3e 0c c8 d2 be cc ed 98 3c
       -0.056533515 0.32578522 -0.4116825 0.018668078
0000f0 6c fe 57 be 84 c8 ac be 78 bf 6b 3e ab 98 d8 bd
       -0.21093148 -0.3374673 0.23022258 -0.10575994
000100 db 8d 54 bd 8f d7 38 be 2e dd 85 3e ee e9 c9 3e
       -0.051893096 -0.18050979 0.2614531 0.39436287
000110 25 5c b4 3c 04 9c e4 be d1 36 00 bf 0c 7a ba be
       0.022016594 -0.4465028 -0.50083643 -0.3642124
000120 14 e8 97 3b 1f 85 86 3e d3 60 cd 3e 81 51 a0 be
       0.00463582 0.26273438 0.40112934 -0.31312183
000130 80 ca ea be f7 0c 54 be 9e c5 25 3e 9e a6 b8 bb
       -0.4585762 -0.2070807 0.16188666 -0.0056350967
000140 bc 46 a4 be 3f 65 29 3f 6e da 9b 3d 56 bb eb 3e
       -0.32085216 0.66170114 0.076100215 0.46041363
000150 fe 73 08 3e d2 82 5a 3e e6 3c f4 3e f4 ea 1d 3e
       0.13325498 0.21338966 0.47702712 0.15421659
000160 25 f9 7b bd 50 28 88 bb 93 e1 42 3f 28 8f 59 3e
       -0.0615169 -0.0041551962 0.7612545 0.21246016
000170 f4 c9 3e be 1e 07 06 bf fa a3 cf be 2a b2 88 be
       -0.18631727 -0.5235461 -0.40554792 -0.26698428
000180 6e 63 eb 3d db 78 15 3b e6 1b 8b bd d0 64 0f 3f
       0.11493574 0.0022807631 -0.067924306 0.560132
000190 5a d0 25 3e 67 9c 12 3f 47 38 05 bf e2 36 96 3e
       0.16192761 0.572699 -0.52039 0.29338747
0001a0 dd 3a 2a bf 1a 75 74 3e 19 42 d2 3c f9 b4 88 3d
       -0.6649607 0.23872796 0.025666283 0.06675143
0001b0 e5 94 44 3e 1d 06 75 3e 9c 04 ec be 7d e9 9c 3e
       0.19197424 0.23928113 -0.46097267 0.30646887
0001c0 8e 98 03 3e 9d bb 39 3e c9 a1 22 bc 7d 36 6d be
       0.12851164 0.18137975 -0.009926268 -0.23165317
0001d0 1d cc ad be fd c1 6e bd 8c d1 04 bf d5 74 03 3e
       -0.3394479 -0.05829047 -0.51882243 0.12837537
0001e0 8e 26 42 3e 90 3e 52 3d bf bb fa bd de 01 7e 3d
       0.1896002 0.051329195 -0.12242841 0.0620135
0001f0 3b 70 cf bc 4e 8f b3 bd fb 16 a5 be 57 2e ab 3e
       -0.02532207 -0.087675676 -0.32244095 0.33433792
000200 10 28 c4 bd 36 db 7f 3d 19 22 46 3e a4 13 25 bc
       -0.09577954 0.062464915 0.19348945 -0.0100754835
000210 55 61 1f be a0 b3 a1 be 5f 0e a6 3e 42 8b 17 bf
       -0.15564473 -0.31582355 0.3243284 -0.59196866
000220 fa 24 a6 bd f4 6f ac 3d 66 4d 09 3e ff 6d 9e 3e
       -0.081125215 0.08419791 0.13408431 0.30943295
000230 31 79 c0 3e 17 f9 8d be 39 62 ba bd 1e 4b be bc
       0.37592462 -0.27729103 -0.09100766 -0.023229178
000240 30 78 25 bd 04 a7 90 bd 6d 03 c2 3e ab aa 88 3d
       -0.040397823 -0.07063106 0.3789324 0.06673177
000250 fe 1d 95 3c 14 24 71 bc 03 c1 11 3c c0 00 30 3e
       0.018202778 -0.014718074 0.008896115 0.17187786
000260 95 47 f4 bd f9 80 11 bf 7d 9c 72 3e 17 59 6b be
       -0.11927716 -0.5683742 0.23692508 -0.22983204
000270 1d 21 ba be de 8c 94 3e 8b 72 ba 3d d4 10 9d 3e
       -0.36353388 0.29013723 0.091038786 0.306769
000280 5d e4 25 3e bc b2 46 be 80 e1 b1 3d 3b 75 86 3d
       0.16200395 -0.19404119 0.08685589 0.06565329
000290 4a 3f 76 3e 6a 63 11 3e 40 d3 9b bd 44 ae a4 be
       0.2404758 0.1419808 -0.07608652 -0.32164204
0002a0 79 96 05 be 73 77 02 3e f8 71 85 be 3d 64 ce 3d
       -0.13045682 0.12740879 -0.26063514 0.10077713
0002b0 9e be ce be b8 18 bf bd b8 a5 81 be ab a5 2d 3e
       -0.40379804 -0.093308866 -0.25321746 0.16957729
0002c0 0d 7c af be 70 09 b5 3e 2a 7b 1a 3e d5 58 a0 bd
       -0.3427433 0.35358763 0.15086046 -0.07829443
0002d0 f0 8a b7 3e 45 89 b0 3e 36 34 48 bd 64 9c d2 3e
       0.35848188 0.34479728 -0.048877917 0.41134942
0002e0 5a 64 e0 be 2d 04 a8 bd e6 19 67 3e d1 a0 06 be
       -0.43826562 -0.082039215 0.22568473 -0.13147284
0002f0 b0 34 0a bf 2a ce 9a 3e 19 00 9d bd 9c d0 81 3e
       -0.53986645 0.30235416 -0.07666034 0.2535447
000300 54 b8 03 bf ba 2a cc 3d a3 45 b7 3e 8f c7 54 3e
       -0.5145314 0.09969087 0.35795316 0.2077925
000310 a9 1e f0 3d 07 b4 ad be d3 70 41 3f e2 46 88 3d
       0.11724598 -0.33926412 0.7556278 0.06654145
000320 d6 eb 45 3f 1f cb 2d 3e 71 1a 41 bf ee db c4 be
       0.7731298 0.16972016 -0.7543097 -0.38449043
000330 e1 de da be 9a a5 35 bf 1d 48 34 3e 6d a9 83 bd
       -0.42748168 -0.7095581 0.17605634 -0.064288
000340 75 a8 19 be 35 53 00 3e ee c0 db 3e 16 f9 3f 3f
       -0.15005668 0.12531741 0.4292063 0.7498945
000350 01 79 ba 3e a3 9b cc bd 71 24 d5 bb ee bd 4b 3c
       0.36420444 -0.09990623 -0.0065045883 0.0124354195
000360 a7 f8 b4 be 5e 9e 54 3d 72 0f bb be ef 1b 06 bf
       -0.35345957 0.051908843 -0.3653522 -0.52386373
000370 35 cf 9d 3d e2 8e d6 bb f2 8c c9 be e2 6f 2a 3f
       0.07705537 -0.0065477947 -0.39365345 0.6657697
000380 85 72 0f be 14 12 a5 3d 40 6f 57 be 26 a2 5a bd
       -0.1400853 0.08060089 -0.21038532 -0.053377293
000390 e2 04 18 be 7a 43 37 be be f3 da be 96 77 8d bd
       -0.14845613 -0.17896834 -0.42764086 -0.06907575
0003a0 4a 11 44 3f 14 01 cb be 13 e8 eb 3e dd b9 c5 3e
       0.7658888 -0.3964926 0.46075496 0.38618365
0003b0 67 e6 25 be 70 94 13 3e 39 51 31 3e 41 f7 34 3e
       -0.16201173 0.14412093 0.1731614 0.17672445
0003c0 64 e2 2c be ff d4 8c be 38 39 49 3e 44 0b 15 bf
       -0.16883236 -0.27506253 0.19650733 -0.58220315
0003d0 2b 0d b3 3e cd 25 20 3e 62 48 a3 be ab 8f 6f be
       0.34970984 0.1563942 -0.3189116 -0.23394649
0003e0 8e 50 24 bd 0e 9d 75 3e bb 81 b1 be da 23 c7 bd
       -0.040115885 0.23985693 -0.3466929 -0.09723635
0003f0 ab 5c 87 3e 60 ae 3d 3f e2 f4 2c bf ff b6 3a be
       0.26437888 0.740942 -0.6756116 -0.1823387

lstm.bias_ih_l1 f4 [392]
000000 4f a2 81 be 9b 3a 8c bb ad 14 b2 be 1f fb 9d be
       -0.25319144 -0.0042794473 -0.347814 -0.30855653
000010 1d 22 1d bf 9e 9a 85 3e 6f 5e b9 3e c8 88 e5 3d
       -0.6138018 0.26094526 0.3620486 0.112077296
000020 16 5c 8b be 59 26 04 be bd 2e 91 be c3 36 ee be
       -0.27218693 -0.12905253 -0.2835597 -0.46526155
000030 2f 30 36 be 80 f8 c9 bd 46 25 81 3d 0f 9a ea be
       -0.17791818 -0.09861851 0.063059375 -0.45820662
000040 97 7a c3 3b 45 07 d9 bd eb b5 93 be 5b e7 76 be
       0.0059655416 -0.1059709 -0.2884973 -0.24111693
000050 c0 aa ec bd 65 65 a6 3d 94 f3 eb bd fe 05 7a bd
       -0.115560055 0.08124808 -0.11521068 -0.06104087
000060 d5 a7 d3 be 7d 28 37 bf 0a 03 3d be ca d8 c5 bd
       -0.41338983 -0.71546155 -0.1845819 -0.0966049
000070 da a5 13 3c 19 3e 3b be 1e e0 b4 be 7c 76 01 bf
       0.00901171 -0.18285407 -0.35327238 -0.5057142
000080 0a a0 c2 bd 31 e2 d8 3c e3 68 18 bd e6 d9 f6 be
       -0.09503181 0.026475044 -0.037209403 -0.48213118
000090 3d 70 4a bd b2 f7 5c bd 9b 67 b9 bd 5e 0e 09 bf
       -0.049423445 -0.05394716 -0.09052964 -0.5353755
0000a0 cd 78 43 be 35 76 44 be e9 ce bb bd 33 dd 27 be
       -0.1908905 -0.19185717 -0.09170324 -0.16392975
0000b0 42 74 33 3d 4b f8 b4 be 28 d5 ba be 14 a6 24 bc
       0.043812044 -0.35345683 -0.3649075 -0.010049362
0000c0 ca 55 be be ea 73 8a bd d5 31 e5 3c c0 95 c6 be
       -0.37174827 -0.0676039 0.027977863 -0.38786125
0000d0 9b a7 c3 bd 2b 10 d5 bb 17 8b 9b 3d 7a cf 8d 3c
       -0.095534526 -0.0065021715 0.07594889 0.017310847
0000e0 7e e3 c5 be 66 93 ec 3b 70 d8 5d be 88 8f f7 bc
       -0.38650125 0.0072197197 -0.21664596 -0.030219808
0000f0 ca 87 79 be 09 ec d2 be a1 90 5b be 68 fc 4b be
       -0.24368206 -0.41195706 -0.2144189 -0.19920504
000100 60 a5 93 be 79 e6 56 3d 10 bc 9d be 1b c2 d4 be
       -0.2883711 0.05246589 -0.30807543 -0.4155434
000110 7b c6 b7 bc 7d ec e1 bd 1c 19 b1 be 3d f4 bc be
       -0.02243351 -0.11031435 -0.3458947 -0.3690509
000120 b7 81 e4 bc 33 d2 93 bc d5 0d af be c3 d0 d8 bc
       -0.027893884 -0.018044567 -0.3419024 -0.026466733
000130 c3 52 64 be 1b a3 5d be 69 a4 a0 be 9f a9 a5 be
       -0.22297196 -0.21644251 -0.31375435 -0.32355973
000140 88 b1 02 bf 34 f2 22 bf 0a 2e 93 be 9a 2a e2 be
       -0.5105214 -0.6365082 -0.28746063 -0.44173127
000150 9e f2 b4 be 03 9a 30 3e df 87 cf 3d b7 c2 9a bd
       -0.35341352 0.17246251 0.10133337 -0.0755667
000160 39 bd 2c bd 74 16 8a 3d be 39 a3 be ed 18 64 bd
       -0.042172644 0.06742564 -0.3187999 -0.055687834
000170 ef 10 c7 be 19 df 78 be e4 ad e2 3c c5 03 63 bd
       -0.38880107 -0.24303855 0.027670808 -0.055423517
000180 00 c4 c9 be fb 4f 9e bd f0 67 cc bd 76 35 95 3e
       -0.3940735 -0.07730099 -0.09980762 0.2914235
000190 43 01 0c bc b2 a5 8c be 0a 91 db 3d 12 37 fe 3e
       -0.008545223 -0.27470165 0.107210234 0.4965139
0001a0 7c a4 6f 3e 59 34 3f be cd bb c9 3e 55 a5 d4 3e
       0.2340259 -0.18672313 0.39401093 0.41532388
0001b0 7a af 6d be f2 f5 f8 3d fe f5 2a 3e f4 f3 4d bb
       -0.2321147 0.12156285 0.16695401 -0.0031425925
0001c0 57 f1 38 be f0 62 43 3e 2d a3 ff 3e 90 35 b0 3d
       -0.18060814 0.1908071 0.4992918 0.08603966
0001d0 ef 2b 8d be 9d 9b a6 3e 06 e4 a5 be a5 76 bf 3e
       -0.2757258 0.325406 -0.3240053 0.37395206
0001e0 7c 35 f6 3c 8a 2c 83 3c e9 79 6c 3d f8 84 4c bd
       0.0300548 0.016012449 0.05773345 -0.049931496
0001f0 07 06 21 3e 1e 48 7e 3e 5a 73 a0 be e1 15 21 be
       0.15724955 0.24832198 -0.31338006 -0.15731002
000200 2b 08 13 3d 23 1a 08 3d 04 00 44 3e a8 6a bf 3e
       0.03589646 0.03322805 0.19140631 0.3738606
000210 f0 c1 11 3e 20 e9 2e be 6e 56 8e 3e ce 82 10 3e
       0.14234138 -0.17081118 0.27800316 0.14112398
000220 b4 19 25 3e 0b e7 11 3e 80 64 6e 3e 26 f1 77 3e
       0.16123086 0.14248292 0.23280525 0.24213085
000230 52 66 6d bd bf 3f 96 3e 98 d8 52 3e 50 97 5f 3e
       -0.05795891 0.2934551 0.20590436 0.21835065
000240 d8 84 de bc d5 61 c6 3d 60 88 2c be 3f 01 95 3e
       -0.027162954 0.09686629 -0.16848898 0.29102513
000250 e0 e2 ea 3b ec 18 97 3c 63 df b8 3e 3d 27 f0 3d
       0.007168159 0.0184445 0.3610793 0.11726234
000260 7f 20 74 3e 7b 6e 98 be 87 b0 04 3d 79 ca d3 3e
       0.23840521 -0.2977179 0.032394912 0.41365412
000270 5d 47 38 3e a9 5c b1 3d 79 1c f8 bd cb 00 4b bd
       0.17995973 0.08660252 -0.12114806 -0.049561303
000280 47 da 87 3e a0 8d 70 3e 2b ba b6 3e 79 6b e5 3e
       0.2653372 0.23491526 0.3568891 0.44808558
000290 d9 d7 81 3e fe 0d 34 3e 6a 24 d6 3d f8 b6 90 3c
       0.2535999 0.17583463 0.10456164 0.017665371
0002a0 bd aa a3 be 7d 2f 92 3e 3a f7 50 3e 00 3e 10 be
       -0.319662 0.28551856 0.2040681 -0.14086151
0002b0 ca df 30 3e 2e a5 94 3e 81 ca e0 3d f7 15 9c 3e
       0.17272869 0.29032272 0.109761246 0.30485508
0002c0 20 85 3d be 04 9b 12 be 89 a4 32 3e 1d 0e 02 3e
       -0.18507814 -0.14316946 0.17445578 0.12700696
0002d0 5e 70 88 3e 48 f6 17 be 22 0d 90 be 68 ba 0f ba
       0.2664823 -0.14840043 -0.2813502 -0.0005482794
0002e0 f6 cb 07 3d c0 0c 2f 3e d9 a6 88 be ec 22 9e 3e
       0.033153497 0.17094707 -0.26689795 0.30886018
0002f0 9b 9e 41 3e 82 1d 22 be 6c a0 b8 3e 2c 99 24 3f
       0.1890816 -0.15831569 0.36059892 0.6429622
000300 96 f9 ac 3d 1e d8 1f 3f de 24 9e 3e 3c 89 11 be
       0.08446042 0.62439144 0.30887502 -0.14212507
000310 21 28 b6 bd 58 25 e8 be 27 57 35 be b5 e4 62 bd
       -0.08894373 -0.4534099 -0.17709027 -0.055393893
000320 ac 8c c6 3b 38 88 c7 bd 6a c3 39 be 5c 7c 5a be
       0.00605925 -0.097427785 -0.18140951 -0.21336502
000330 98 c7 94 bc 7a 9a 27 be 64 50 9c 3c f0 ae 94 bd
       -0.01816158 -0.16367522 0.019081302 -0.07259929
000340 67 7f 0f be 6b 0b db bd ad 9f c4 3c 45 55 b6 be
       -0.14013444 -0.10695537 0.02400192 -0.3561193
000350 80 87 05 3d f8 20 c5 3d 09 6e 9b 3e c8 7a 6d be
       0.032599926 0.09625429 0.30357388 -0.23191369
000360 3f f8 93 3e da f9 35 be 00 3b fb bd 64 fb 51 be
       0.28900334 -0.17771092 -0.12267113 -0.20506054
000370 9e 54 ac 3e 0f b8 50 be 65 eb aa bc 52 3d 27 3e
       0.33658308 -0.20382713 -0.020864198 0.16331986
000380 0f 8e 9f 3c 28 d2 98 3d 71 82 35 bd 51 9c 9d be
       0.019476919 0.07461959 -0.04431385 -0.30783322
000390 55 d6 05 3e 9c 3e 79 bc d0 64 33 be 16 f0 1a 3e
       0.13070042 -0.015212681 -0.17518926 0.15130648
0003a0 5b 63 33 3e 60 6f 8b 3d 64 89 32 be 42 bd e4 bd
       0.1751837 0.068083525 -0.17435223 -0.111689106
0003b0 d6 d8 06 be 21 26 09 3c f1 79 e0 bd 1b 56 69 bd
       -0.13168654 0.008370907 -0.109607585 -0.056966882
0003c0 02 d8 d4 3d 19 25 f2 bd 1a 37 39 be 2a 8b 1e 3e
       0.10392763 -0.11823482 -0.18087426 0.15482774
0003d0 27 1c 23 be 9b 2e e3 bb 68 db d8 bb 85 55 03 3e
       -0.15928708 -0.006933046 -0.006617952 0.12825592
0003e0 3b 1c c0 bd 7f a0 ab 3e 89 5c 93 3d c8 71 c2 bd
       -0.093803845 0.33520886 0.07195384 -0.09494358
0003f0 97 7f 50 bc 5d cf 2c 3a 2f 81 5a be 1b 8c 0a 3d
       -0.012725732 0.0006592179 -0.21338342 0.03382502
