models/manuscriptmodel.pth (torch, 498936 bytes, 18 tensors)

lstm.weight_ih_l0 f4 [392, 1]
000000 41 62 1a bd 43 c9 38 3f f6 81 8f bd 57 12 91 3e
       -0.03769136 0.721821 -0.0700721 0.28334305
000010 de d1 f2 3d 51 46 0b 3e b1 06 ad 3e 05 fe 13 3f
       0.11856435 0.13601042 0.33794168 0.5780948
000020 51 18 f5 3e 5b 48 93 be c7 3d bc 3c 41 3a 93 3f
       0.47870114 -0.2876614 0.022978676 1.1502153
000030 a3 ce 8f 3e bd e1 a2 be df 6a 1d be 13 cc bb 3d
       0.2808734 -0.3181285 -0.153728 0.091697834
000040 ce 98 a0 be 98 0b e6 3d af 7f 4d 3f fe 34 d5 3d
       -0.3136658 0.1123268 0.80272955 0.10410498
000050 32 b2 3b 3f 82 e7 1b 3f 80 bc 94 3d 18 35 97 3e
       0.7331878 0.6090013 0.07262516 0.29532695
000060 52 67 f6 3c 3f 7f 39 3f f6 e2 7c be 28 53 cb be
       0.030078564 0.7245979 -0.24695954 -0.3971188
000070 ea 99 56 bf 67 6e 27 3f a4 72 ca 3e 04 58 3b 3e
       -0.83828604 0.65402836 0.3954059 0.18295294
000080 4f 28 16 be 35 74 4f bd 38 94 b5 bd 80 91 fd 3d
       -0.14663814 -0.050647933 -0.08866161 0.123812675
000090 fd 80 0d bf dd 9e 30 3e b6 f8 12 3f f0 85 1b bf
       -0.55274945 0.17248102 0.5741075 -0.6075125
0000a0 99 3b 93 3f 15 d0 15 bd d6 2a 73 be bd 9e da 3d
       1.1502563 -0.036575396 -0.2374681 0.10674808
0000b0 19 ab 04 bf ff c7 9b be bf f0 10 3e ee 6b 0b bf
       -0.51823574 -0.30426022 0.14154337 -0.5446156
0000c0 12 ba 31 3f 72 50 e2 bd d0 92 67 bd 20 a1 18 bf
       0.69424546 -0.110505 -0.056536496 -0.5962086
0000d0 28 07 54 bd 57 25 52 be 27 56 a7 3f c9 d4 b9 be
       -0.051764637 -0.20522057 1.3073167 -0.36295155
0000e0 fb 67 de be bc a4 f2 be c1 0a a0 3e 4d 50 10 bd
       -0.43438706 -0.47391307 0.31258205 -0.03523283
0000f0 4e b2 03 bf f0 d9 e3 3e 89 eb 40 3c 4f 01 25 3e
       -0.51443946 0.4450221 0.011774906 0.1611378
000100 ec 38 84 3e 33 7f ae 3f 8e 4d de be 47 41 29 3f
       0.25824678 1.3632568 -0.43418545 0.6611523
000110 45 ec 98 bd ef 2e 3a bf de e4 5f 3f ea 0e 4f bc
       -0.0746694 -0.72727865 0.874586 -0.012637833
000120 00 9d 10 c0 88 d7 f1 3f 55 b2 c4 3f cc bc ad 3f
       -2.2595825 1.88939 1.5366923 1.3573241
000130 74 c6 30 3e ce 1f 39 3e 22 d6 5a bd c0 b8 d7 bf
       0.17263204 0.18078539 -0.05342687 -1.6853256
000140 2b 7a 96 bd 91 b7 67 be 18 3b c7 bd d2 f7 b9 3c
       -0.073475204 -0.22628619 -0.09728068 0.022701178
000150 03 5c 36 3d 2d 6e 9a 3f 81 53 ac be d7 0f e4 bd
       0.044521343 1.2064873 -0.33657458 -0.11135834
000160 11 26 07 be 7d d6 dd 3d 2c 31 d4 3e 49 f6 88 be
       -0.13198115 0.10831926 0.41443765 -0.267504
000170 c2 51 83 3e de 5a 7f 3e 41 03 d3 be 37 7a 93 3e
       0.25648314 0.24937007 -0.4121342 0.2880418
000180 63 3b 47 3f 4f 0f e9 be ae 3f ef 3e ff 0b c0 3d
       0.7782499 -0.45519492 0.4672827 0.09377288
000190 f1 2f 92 3f 0a dc fd 3a 45 d8 c9 bd 22 6a 3a bf
       1.142088 0.0019367945 -0.09855703 -0.72818196
0001a0 dd d7 a6 3e af bf 6b 3f 19 a3 cc 3e af bb f0 be
       0.32586566 0.9208936 0.39968184 -0.4701819
0001b0 9b e3 9e be 08 fd d7 3e a7 0d 8f 3d 76 6a 24 be
       -0.31033024 0.42185235 0.06985026 -0.16056237
0001c0 fe 4d 8b bd 19 00 93 3d 9c 64 7a be 7c cf b2 be
       -0.06801985 0.07177753 -0.24452442 -0.34923923
0001d0 dd 30 52 3d c7 82 4d 3d 4b 21 15 3f d0 3b a2 bf
       0.05131613 0.050173547 0.58253926 -1.2674503
0001e0 8f 25 ee 3d b2 7a 39 be 51 89 b2 3e 3e 94 35 bd
       0.116282575 -0.18113211 0.3487039 -0.044330828
0001f0 f3 39 12 be 60 b8 64 3d bb b9 23 bf fe ae 88 3f
       -0.14279918 0.055839896 -0.6395528 1.0678403
000200 c0 2e 9c 3e 2b 49 77 3d de de b7 be 47 ab ae 3e
       0.30504417 0.060372513 -0.35912222 0.3411505
000210 2b f2 3f 3f 2b 22 9c 3e 60 93 7d be 82 15 fb be
       0.74978894 0.30494818 -0.2476325 -0.49039847
000220 ef bf 9e be c4 8b 9e bd 38 8c 15 3f cf 24 ab be
       -0.3100581 -0.07741502 0.5841708 -0.3342652
000230 37 d5 01 bf 11 74 f4 3e e2 2e fe 3c 03 9d 2b bb
       -0.50715965 0.47744802 0.031028215 -0.0026186116
000240 c0 54 35 3f 1a 54 a4 be 44 49 7d 3f 45 74 94 be
       0.70832443 -0.32095414 0.9893992 -0.28994957
000250 52 b2 40 3d 98 6c 98 be 6a 25 62 bf 92 f1 63 be
       0.04704506 -0.2977035 -0.8833834 -0.2226012
000260 8d a6 7b 3e 71 06 39 bf 19 fd 8c bf 53 df 35 be
       0.24575253 -0.72275454 -1.1014739 -0.17760973
000270 4c 4f 8a 3f d6 4e 9a be 48 d8 00 bf 91 ff 5d 3f
       1.080545 -0.30138272 -0.5033002 0.8671809
000280 f0 c4 d0 be 36 ac ab 3f 14 6a 9f 3e d2 9e b6 3e
       -0.4077525 1.341193 0.3113562 0.35668045
000290 fb 5f a1 3e 6d 62 1c 3f c3 39 79 ba 8c 17 0c be
       0.3151854 0.61087686 -0.00095072034 -0.13680857
0002a0 c5 62 d5 be 99 5a ab 3e a8 d0 85 be 01 1e 5c be
       -0.41676918 0.33467558 -0.26135755 -0.2149582
0002b0 00 ac 26 3f 2a f5 d2 bb 79 56 8b 3b b0 dc f0 3c
       0.651062 -0.0064379172 0.0042522517 0.029402107
0002c0 03 ad f9 be 61 4a d1 bf 88 d8 96 3e 30 b8 64 3e
       -0.4876481 -1.6350824 0.29462075 0.22335887
0002d0 c2 ee 6a be 01 d1 46 3e c9 16 6b 3e d0 c1 27 3f
       -0.22942641 0.19415666 0.2295791 0.6553011
0002e0 ba 1d 9f be 82 99 2e 3d 66 ac 1a bd b6 bf c2 be
       -0.31077367 0.042626865 -0.03776207 -0.3803689
0002f0 a1 59 bf 3e 87 16 dc bd 84 65 7a 3e b2 01 66 3e
       0.3737307 -0.10746484 0.24452788 0.22461584
000300 db 45 0a 3f 57 2a 11 3e 25 97 24 3f fd f4 e7 be
       0.5401284 0.14176308 0.6429313 -0.453041
000310 2c aa 4e bd 68 e3 90 be 49 09 9c bf a9 ab 4f bf
       -0.050455257 -0.28298497 -1.2190334 -0.8112131
000320 7d ec 90 be 20 7e 01 bf 84 8c 87 3e 78 af 45 3e
       -0.28305426 -0.50583076 0.26474392 0.19305217
000330 41 11 fb 3e c1 7d 47 3f 08 ff 32 3e 1a 25 93 3f
       0.490366 0.7792626 0.17480099 1.1495697
000340 e4 fa 8e 3c 58 34 85 3e 6f c7 36 be 79 76 52 3e
       0.017453618 0.26016498 -0.17849515 0.20553006
000350 68 97 4f 3f ab d8 c5 3e aa 49 28 bf 25 44 73 bd
       0.810904 0.38641867 -0.657374 -0.05939116
000360 c8 af 38 3e c5 00 26 bf fd f4 46 bf c7 08 27 3f
       0.18035805 -0.64844924 -0.7771757 0.6524777
000370 fb 8f be 3e 64 0f b1 be f6 4c 83 3e bf 5d b1 3e
       0.37219223 -0.34582055 0.25644654 0.34641835
000380 93 79 50 3d 1d 56 14 3f ba 66 59 3e 14 7c 1b 3e
       0.050897192 0.579439 0.21230593 0.15184051
000390 8b 5d 0d bf 37 41 56 3f ff 7d ab be 3b b2 4f 3f
       -0.5522086 0.8369326 -0.33494565 0.81131333
0003a0 6c ed 47 bb 72 84 23 3e 34 ce 4e 3f 3a c8 39 3f
       -0.0030506505 0.15968493 0.8078339 0.72571146
0003b0 22 46 30 3e 98 c4 90 3e 64 40 61 be c6 2c 30 3d
       0.17214254 0.2827499 -0.2199722 0.04301145
0003c0 dd 20 3b 3d 49 d4 c0 bf 87 1f 69 3e 20 f2 33 bf
       0.045685638 -1.5064784 0.22765933 -0.7029133
0003d0 b4 36 da be 1c 98 b1 3d 56 20 09 3e ce 22 17 bc
       -0.4261986 0.08671591 0.13391241 -0.009224607
0003e0 ef c8 b5 3e ea e0 d2 be ab 8e ef be 38 e3 91 3e
       0.35504863 -0.4118722 -0.46788535 0.28493667
0003f0 72 55 37 3f 2d 41 39 3f a6 6d a6 3c 67 1b 3c 3f
       0.71614754 0.72365075 0.020315956 0.7347931

lstm.weight_hh_l0 f4 [392, 98]
000000 dd d7 26 bf 39 67 90 bd 0a 31 7c 3e a8 be c6 3e
       -0.6517313 -0.07050938 0.24628082 0.38817334
000010 71 c8 aa 3e 80 08 93 bd 79 de 17 be 82 24 d8 3e
       0.3335605 -0.071793556 -0.1483096 0.42215353
000020 32 6a f6 bd 39 0a 2b be eb 8c 10 3f 48 fd 9c 3d
       -0.12031974 -0.16703118 0.56465024 0.07665497
000030 ae 26 e3 3e 38 1c e9 be c0 0b 28 bf b2 34 4f 3e
       0.44365448 -0.45529342 -0.6564293 0.20234945
000040 1c 94 08 be 11 b0 2b 3f bf 31 29 3d dc c8 03 bd
       -0.13337749 0.6706553 0.041307207 -0.032173976
000050 97 c1 83 3e 50 1e e0 be 39 32 38 3d 3c c5 b1 3e
       0.25733635 -0.43773127 0.04496977 0.3472079
000060 37 73 be 3e 8c bb bb bc 2a 93 62 3e f7 22 bf 3e
       0.37197277 -0.022916578 0.22126451 0.37331364
000070 f1 fd c6 be 0a 60 06 be 70 07 0d 3e 92 67 c8 be
       -0.38865617 -0.13122573 0.13772368 -0.39141518
000080 b8 87 24 bf f7 c0 07 bd af ad c9 3e 9f 7e ac be
       -0.6426959 -0.03314301 0.39390323 -0.33690354
000090 04 96 04 3f 44 67 06 3f fb 54 45 3d 3e 28 65 bf
       0.51791406 0.5250132 0.048176747 -0.8951453
0000a0 b0 d4 d8 3d 85 7b 1a 3e 4b ef c7 3c b2 25 a3 3d
       0.10587442 0.15086181 0.024406096 0.07966174
0000b0 64 67 23 3e 96 88 a1 3e d5 ea 24 be 81 59 fe be
       0.15957409 0.3154952 -0.16105206 -0.4967766
0000c0 97 8c d3 bc ca 41 22 be 66 50 9a be 2b cc 89 3e
       -0.025823874 -0.15845409 -0.30139464 0.2691358
0000d0 84 54 06 3f c2 e2 1e 3e f3 d5 36 bd 3c b5 80 3e
       0.5247271 0.15516189 -0.04463763 0.2513827
0000e0 b9 bb f6 bd a7 97 bf 3d 29 07 64 be ad 8c 8c 3e
       -0.12047524 0.09355097 -0.22268356 0.27451077
0000f0 b3 98 96 bd 1d 49 67 be e8 5b 96 be 0b 91 0f 3f
       -0.07353344 -0.22586484 -0.29366994 0.56080693
000100 25 96 44 bd 01 30 00 be 7e ab c5 be 1b c8 c6 3d
       -0.04799475 -0.12518312 -0.386074 0.09706136
000110 4c 7d 20 3e 69 66 96 3e 21 7e 31 3d e0 c1 8d 3d
       0.15672797 0.29375008 0.043333177 0.06921744
000120 89 d2 e5 be 33 ce 4b be 79 61 b2 be 2d e5 5d 3e
       -0.44887188 -0.19902878 -0.3483999 0.21669455
000130 ad f2 88 3e 0b 94 fc 3e 47 72 00 3f d7 7c 42 3d
       0.26747647 0.49331698 0.50174373 0.047482338
000140 c5 56 ce 3e b8 9e f1 3d 7a af 1f bd 45 70 5f bc
       0.40300575 0.11797851 -0.038985707 -0.013637607
000150 56 c7 8d 3e fa 37 9d bd a6 e4 90 be 29 50 c9 3e
       0.27691144 -0.07676692 -0.28299445 0.3931897
000160 3b 73 d6 3e 05 07 e3 be 6c 1a 4a 3e 8f ff e3 3e
       0.4188479 -0.44341293 0.19736642 0.44530913
000170 b4 89 28 3e 30 47 d0 be ad 26 b1 3c 22 85 05 be
       0.1645878 -0.40679312 0.021624887 -0.13039067
000180 2e 0d 0f be 8e c4 ec 3e c9 d7 14 3e 6c 82 73 3f
       -0.13969871 0.4624371 0.1453544 0.95120883
000190 f6 64 41 be 67 f1 36 3e 31 a6 fa 3e 20 a3 2a 3e
       -0.1888617 0.17865525 0.4895492 0.1666379
0001a0 12 7b 0a 3f f7 ed 80 3e 53 9d 84 be c1 8c ac 3e
       0.5409404 0.25181553 -0.2590128 0.33701137
0001b0 9c 76 53 be b3 d7 d5 bd c9 8a 74 be 96 77 2e 3d
       -0.20650715 -0.10441532 -0.23881067 0.042594515
0001c0 1e 53 0e be 91 8e c6 3e 72 9d b2 3d 5a fd b6 bc
       -0.13898894 0.38780645 0.087214366 -0.022337604
0001d0 d8 3f f2 3e 6a 5b 12 be 23 92 c9 3e 3e 0f 2f be
       0.47314334 -0.14292684 0.39369306 -0.17095658
0001e0 ed 76 73 bd f6 72 64 be 8a f2 9c 3e dd fc da 3e
       -0.05943959 -0.22309479 0.30653793 0.42771044
0001f0 19 1d 54 be 3d a9 06 3f bc 9d 2e 3f c1 3f 05 bb
       -0.20714225 0.5260199 0.68209434 -0.002033219
000200 32 96 cc be 74 e9 fe be b0 22 05 bf 65 5a 3b bd
       -0.3995834 -0.49787486 -0.52006054 -0.045740504
000210 96 e7 54 3d 75 bd 2a bf 2a 75 29 bf f2 ab 6b be
       0.05197867 -0.6669534 -0.66194403 -0.2301481
000220 39 50 87 3b 74 49 d5 bd ab e3 7f 3e 0a 97 e9 3d
       0.0041294363 -0.10414401 0.24989192 0.114057615
000230 24 1f 66 be f5 a1 af 3e 62 d2 b4 bd d5 ec 1f be
       -0.22472817 0.3430325 -0.0882919 -0.15617688
000240 67 07 bc 3e 95 b2 af bd 7f 1e 24 bd f4 9f 86 bf
       0.36724398 -0.08578984 -0.040068146 -1.0517564
000250 79 d4 89 be cb 56 ed bc 7b 9a c2 bc 1a 81 07 bd
       -0.26919916 -0.02897205 -0.023755303 -0.033082105
000260 06 e1 96 3d de 19 0f 3e 54 a3 11 3f a0 67 08 3f
       0.073671386 0.13974711 0.56889844 0.5328312
000270 d7 7b 2c be 8e 8b 98 bd 55 09 cb bd 8f 83 0e bf
       -0.16844116 -0.07448493 -0.09913889 -0.5566949
000280 b6 f5 9b 3e 19 f5 0e 3e a3 53 99 be eb 12 8f bf
       0.304609 0.13960685 -0.29946622 -1.1177648
000290 9f 6f 33 be ca 6a c9 3e e7 27 19 be 58 aa b1 3e
       -0.17523049 0.39339286 -0.14956628 0.34700274
0002a0 5f 4e 85 be b5 e3 e1 3d 7c 1b 72 3d d7 20 93 3e
       -0.26036355 0.1102976 0.059108242 0.28735992
0002b0 09 fc 60 bf 57 68 94 3e 89 0c 8b be b1 b9 00 3f
       -0.87884575 0.28985855 -0.27158 0.5028334
0002c0 83 d3 0b be 4d 83 7d bf 6c d6 ca 3d 95 47 2c 3e
       -0.13654904 -0.99028474 0.09904179 0.16824181
0002d0 22 89 3f bf 6c b8 9d 3e d4 72 29 bf a2 22 17 3e
       -0.74818623 0.30804765 -0.6619084 0.14759305
0002e0 4f 44 43 3f a1 20 36 3d fb 2f 15 bc c3 5d ac bc
       0.76276106 0.04446471 -0.009105678 -0.021040803
0002f0 7c b0 b4 3e b6 1e cb 3d 5a 09 ba 3e 49 36 4a be
       0.35290897 0.09917967 0.3633526 -0.1974727
000300 66 42 cd 3e fb c0 89 3f fd 93 35 bf 2f 9f b0 3c
       0.4008972 1.0762018 -0.7092894 0.02156028
000310 cf dc d3 3e 32 c5 14 be 98 ad 08 3f 6c a0 f0 bd
       0.413794 -0.14528349 0.53389883 -0.11749348
000320 fa 52 20 be 24 91 e9 bd 1d ac 08 3f 12 5f d6 3d
       -0.15656653 -0.114046365 0.53387624 0.10467352
000330 75 be 10 bd 10 8f 56 3e 1c 27 39 bd 81 a4 7a 3c
       -0.035337884 0.20953012 -0.045203313 0.01529801
000340 ef a3 84 3c 64 53 67 3b f6 3f b6 3e e5 3a 85 be
       0.01619145 0.0035297507 0.35595673 -0.26021495
000350 50 5b ce be c8 4d 5b be 30 15 3b 3e fb 32 29 bf
       -0.4030404 -0.2141639 0.18269801 -0.66093415
000360 0c b3 19 be e2 1d be be fd 0e e3 3d 5d 1a a9 3d
       -0.15009707 -0.37132174 0.11086843 0.082569815
000370 1b 00 03 bf c2 22 3a 3f 0f 30 26 be cf b1 b6 be
       -0.51172036 0.72709286 -0.1622927 -0.35682532
000380 65 7a 50 bf 99 d4 c6 be ab 45 99 3d 1d 40 3a 3e
       -0.8143676 -0.38834074 0.07483991 0.1818852
000390 38 74 cb 3e 37 75 8e bd 34 6a ac be bb 9a 0e 3e
       0.39737105 -0.06955951 -0.33674777 0.13926212
0003a0 73 21 f9 3e 63 80 15 3d 26 4c 19 3f b1 04 8f 3e
       0.48658332 0.036499392 0.5988182 0.27933267
0003b0 7d d8 c7 3e 12 62 46 be bc b8 da be 44 1d 86 be
       0.39032355 -0.19373348 -0.42719066 -0.26194203
0003c0 3b 28 b5 be d7 3d 13 3d bd 0f 8d 3e 1f 2a a9 bd
       -0.35382256 0.035947647 0.2755107 -0.08259987
0003d0 3a f1 39 be 16 cd dd be 32 03 b1 3e 59 85 f7 3d
       -0.18158427 -0.4332053 0.3457275 0.12085981
0003e0 c4 f7 23 be 55 d6 c9 be 57 3d 86 bf 16 9d ba be
       -0.16012484 -0.39421335 -1.048747 -0.36447972
0003f0 1a 60 5d 3d ce 0d 26 be 02 3d 03 3f 5f 0c 60 3f
       0.054046728 -0.16216204 0.51264966 0.87518877

lstm.bias_ih_l0 f4 [392]
000000 af e6 bd be 13 df 5a 3d 28 5f cb be d0 e9 2e 3d
       -0.3709006 0.053435396 -0.39721036 0.04270345
000010 1c d1 b9 bd 0a 98 f8 bd 25 84 a4 3d a3 f4 d9 3b
       -0.090730876 -0.12138374 0.08033017 0.0066514774
000020 84 4f bd be 91 77 5a 3c a2 a0 47 be 4c a8 bd 3c
       -0.36974728 0.013334171 -0.1949487 0.02315154
000030 2c 47 79 be 0d 56 02 be 67 73 ac be 13 91 a9 be
       -0.24343556 -0.12728138 -0.33681795 -0.33118495
000040 3b 7b 0a be 26 15 65 be 7b aa 29 be 49 92 30 be
       -0.13523571 -0.22371349 -0.1656894 -0.17243303
000050 7f 06 f3 bc 5a ba 5b bd 0a 0e 93 be b5 73 a6 bc
       -0.029666184 -0.053644516 -0.28721648 -0.020318845
000060 f3 8b 8d be f9 1f 94 be 91 61 9f be fa 8e 18 be
       -0.27645835 -0.28930643 -0.31129125 -0.14898291
000070 27 50 12 be 3f 64 ea be 15 4a 6f be 50 c7 05 be
       -0.14288388 -0.45779607 -0.23368104 -0.13064313
000080 ac 2b ad bd cf a4 23 3e 70 20 37 be f5 2c b2 be
       -0.084555954 0.15980838 -0.17883468 -0.34799924
000090 7c 89 19 be e2 7f 9a 3d 91 20 95 bd b4 ee 0c be
       -0.14993852 0.07543923 -0.07281602 -0.13762933
0000a0 cf 3b a3 be ee fa d6 be e8 87 5d be a3 b1 87 be
       -0.31881568 -0.4198832 -0.21633875 -0.26502714
0000b0 02 17 98 be 04 05 14 bd 88 45 51 be e5 15 63 3d
       -0.29705054 -0.036137596 -0.2043668 0.055440802
0000c0 69 29 c1 be 38 3a 74 bd 9d a2 91 be 85 1b 98 be
       -0.37726906 -0.059625834 -0.28444377 -0.29708496
0000d0 94 08 ba be c1 c0 0d be 6f 01 c2 bc e1 0a 82 be
       -0.3633467 -0.13843061 -0.023682324 -0.25398925
0000e0 66 99 28 bd 61 05 a8 bd 8e 96 59 be f7 98 ea bc
       -0.041161917 -0.08204151 -0.21248838 -0.028637392
0000f0 e3 03 3e bd f2 d3 11 be 26 42 86 be ee 3a 67 be
       -0.046390425 -0.14241007 -0.26222342 -0.22581074
000100 34 96 0c be 31 b1 f8 be 8c 48 ca bd 5a d4 71 be
       -0.13729173 -0.48572686 -0.098771185 -0.23616162
000110 37 46 fc be bb e9 a3 bd b0 ef e8 3d 54 c7 92 be
       -0.4927232 -0.08003565 0.11373842 -0.286677
000120 b5 6a d8 bd ab fd 74 be 9f a9 b5 be 81 ef 66 be
       -0.10567228 -0.23924892 -0.35480973 -0.22552301
000130 08 6f 82 be 48 de c9 be 94 27 8c be d9 6f 67 bc
       -0.25475335 -0.394274 -0.27373946 -0.014125788
000140 56 55 29 3d 4a 4e dd bd bf a6 5e be 66 0a a0 be
       0.04134115 -0.10805948 -0.21743296 -0.31257933
000150 e9 09 c9 bd d7 59 39 be b5 56 d4 bd e0 72 9c bc
       -0.09816343 -0.18100677 -0.103681006 -0.019097745
000160 ce ca 31 be f3 e4 ee be d5 7d ab be b9 e7 16 be
       -0.1736252 -0.4665905 -0.3349444 -0.14736833
000170 8e d8 d6 bd 40 5d 8f 3d 6b f7 a6 be 4b dc b5 3d
       -0.10490523 0.07000208 -0.3261064 0.08879908
000180 93 62 c1 be b5 ae d5 be 04 fb 02 be 90 6e 68 be
       -0.3777052 -0.41734853 -0.12791067 -0.22698426
000190 f1 bf 01 3e 7b 78 ff bd d4 68 26 be ef 15 c9 bd
       0.12670876 -0.12474152 -0.16250926 -0.098186366
0001a0 10 64 9d be da 3b 37 be 6d 6b c9 bd 86 8c 5c bd
       -0.30740404 -0.17893925 -0.09834943 -0.05384495
0001b0 11 20 21 be 8d 0e ec bc 34 91 4f 3e a6 15 e4 bc
       -0.15734889 -0.028815532 0.20270234 -0.027842354
0001c0 02 e3 72 3e 46 04 9c 3d eb 7e 30 3d 98 1d b2 3d
       0.23719409 0.076180026 0.04308979 0.08697051
0001d0 79 d8 ad bd 45 bb ce bc 3d ab 11 3e 1e 00 a7 bc
       -0.084885545 -0.025235781 0.14225478 -0.020385798
0001e0 a7 81 ff 3d 1e 9a c5 3c 19 45 bb bd 78 b6 d3 3d
       0.12475901 0.02412134 -0.09144039 0.103375375
0001f0 16 db 6a 3e 53 ad e8 38 40 4b 75 3d 9e 90 de bc
       0.22935137 0.00011094906 0.059886217 -0.027168568
000200 78 f9 a6 3e b0 f9 87 3e 4f 03 09 3c 94 95 69 bd
       0.32612205 0.26557684 0.008362605 -0.057027414
000210 14 7f 84 3e a4 2f ff 3d 53 84 b5 3d 15 48 93 3e
       0.25878203 0.124602586 0.088631295 0.28765932
000220 34 81 92 be 36 46 18 bd a4 8a 9c 3d 58 fe f5 bd
       -0.286142 -0.037176333 0.07643631 -0.12011403
000230 24 b6 67 3d 52 eb 0e 3e 56 e6 40 3e af b4 df 3d
       0.056570187 0.13956955 0.18837866 0.109231345
000240 82 4f 81 3e 45 8a f7 3e f9 35 3a 3b 67 f8 cb 3d
       0.25255972 0.4834768 0.0028413518 0.09959488
000250 b7 81 cb bb f0 b8 a6 be 08 7a d3 3c 36 cc 9d 3e
       -0.0062105316 -0.3256297 0.025815025 0.30819863
000260 71 42 89 be 92 81 a1 3c fd 3c c2 bd c0 f7 52 3d
       -0.26808503 0.019715104 -0.09484289 0.051505804
000270 e1 ca 93 bd fb da 5e be e0 c3 96 3e 3e e9 70 3e
       -0.072164305 -0.21763222 0.29446316 0.23526475
000280 8d 62 f7 bd ab f8 de 3d 9d 82 47 3d f5 c1 90 be
       -0.12079344 0.108872734 0.048708547 -0.28272977
000290 3c fb 35 3e 7d 59 4e 3e 47 42 21 be b9 e8 16 3e
       0.1777162 0.20151325 -0.15747939 0.14737214
0002a0 dc 47 f5 3d e8 c5 3d 3e 4f 7e 4b 3e 28 23 ce 3d
       0.11976597 0.18532526 0.19872402 0.10065299
0002b0 54 a5 8f be 9a bd 28 3d cb 62 29 3e e2 fc 11 3e
       -0.28055823 0.041196443 0.16541593 0.14256623
0002c0 ad 06 3d be 15 9b bd 3d 8d dc f7 3e c8 8a 90 3e
       -0.18459578 0.09258095 0.48410454 0.28230882
0002d0 06 c1 1d 3e 50 7c b9 be 36 be 03 3e 54 73 be bc
       0.15405664 -0.36227655 0.12865528 -0.023248352
0002e0 97 3c 3f 3d f6 10 9f 3e 32 1d a2 3e 22 94 b4 3c
       0.046688642 0.31067628 0.316629 0.022043291
0002f0 64 7d bb 3d 92 42 e1 bc ad 6b 1d 3f c6 ed a3 bc
       0.09154776 -0.027497564 0.61492425 -0.02001084
000300 2a 2d d2 3d c0 7a 62 3d e9 23 aa 3d 85 1f 70 be
       0.102625206 0.055292845 0.083076306 -0.23449524
000310 e2 6f ba 3d 66 c0 9c 3d 29 6f 3d bc 7e 3f e4 3c
       0.09103371 0.076538846 -0.011562147 0.027862307
000320 ba 53 17 bd 4c ad 05 3e 49 21 25 3c 2b 42 a4 3d
       -0.036945082 0.13054389 0.010078737 0.08020433
000330 da 10 15 be 28 16 01 bc 3b 18 08 be cd be 68 bd
       -0.1455721 -0.007878818 -0.13290493 -0.056822587
000340 9e 21 0c be b1 ee 9e 3d f6 6c 9d bb 74 df c6 bd
       -0.13684699 0.077603705 -0.004804249 -0.09710589
000350 a4 93 9e 3c 1e 0d 12 be d4 79 8f 3e cb 0f e1 bd
       0.01935751 -0.14262816 0.28022635 -0.109893404
000360 b7 8e 9f bd 6f f2 aa 3d e6 98 04 be c5 02 21 be
       -0.077908926 0.08347022 -0.12948951 -0.15723713
000370 70 e3 e0 bd 6b c3 14 3e b3 88 3f bd cc bf 34 3e
       -0.1098088 0.14527671 -0.046761226 0.1765129
000380 53 ff 0b 3e 9c d8 88 bd c3 e5 29 bd 28 36 20 be
       0.13671617 -0.0668194 -0.041478883 -0.15645659
000390 32 32 d8 bd f7 fc 28 bd 8d ae 86 bd 27 0f 0d be
       -0.10556449 -0.04125687 -0.06576262 -0.13775311
0003a0 59 e1 28 be 96 47 34 be 79 6a 05 be d2 96 1a 3e
       -0.16492213 -0.17605433 -0.13028897 0.15096596
0003b0 09 01 a6 bd 54 58 5e bd b5 4a 48 3d a6 82 bb 3d
       -0.08105666 -0.054283455 0.04889937 0.091557786
0003c0 fb b1 a9 bd 11 29 fe bd 99 b7 b9 3d f8 07 16 bd
       -0.082859 -0.124101765 0.090682216 -0.036628693
0003d0 73 e3 98 3d 84 0b a8 3d 1e 56 cb 3d 1a 86 9d bd
       0.074652575 0.082053214 0.09928535 -0.076915935
0003e0 a3 ff 8e bc 45 4e 58 bd 5f 0e 92 bd fa bd 89 bd
       -0.017455881 -0.05280902 -0.07131647 -0.06725688
0003f0 52 e0 25 3e de 28 94 bd e3 c7 6e bd 62 e8 b2 bd
       0.16198853 -0.07234357 -0.058296096 -0.0873573

lstm.bias_hh_l0 f4 [392]
000000 16 d4 b8 be 47 bd dd bc 7b 59 70 be 5f 5f 88 bd
       -0.3609931 -0.027067794 -0.23471634 -0.066588156
000010 d3 1e 40 be 55 56 7d be 95 47 5e 3d b5 ba e9 3d
       -0.18761759 -0.24739964 0.054267485 0.11412565
000020 fc d5 82 be 0b 19 21 be bd 32 71 be 47 9f 91 bd
       -0.25553882 -0.1573221 -0.23554511 -0.07110458
000030 55 f5 29 be 42 a4 bb bd 36 56 c1 be 34 16 aa be
       -0.16597493 -0.09162189 -0.37761086 -0.33220065
000040 82 f5 30 be d0 6b 1b be 57 11 87 be c7 e2 d2 bd
       -0.17281154 -0.15177846 -0.26380417 -0.102971606
000050 20 78 00 bd b6 87 2b 3d db ae 4a be fe fe 5a bd
       -0.03136456 0.04187747 -0.19793265 -0.053465836
000060 f5 7c a2 be d2 b2 b3 be 94 e4 96 be ab 6b 44 be
       -0.3173596 -0.35097367 -0.29471266 -0.19181697
000070 cf 47 2f be 97 d9 ae be 15 c6 3b be 71 7b f8 bd
       -0.17117237 -0.34150383 -0.18337281 -0.121329196
000080 bd 27 0d be c9 e6 23 3e 3b 33 ed bd a8 96 d9 be
       -0.1378469 0.16006006 -0.11582037 -0.42497754
000090 19 d4 35 be 46 21 9f 3d 66 d5 eb bc 85 a6 86 bd
       -0.1775669 0.07770018 -0.02878828 -0.0657473
0000a0 de be 4a be df 83 88 be d8 8e 6c be 9a 27 0a be
       -0.19799373 -0.2666311 -0.23101366 -0.1349167
0000b0 14 e1 87 be fe 34 29 be cc 8f 50 be 05 6f 48 bd
       -0.26538908 -0.16524121 -0.20367354 -0.048934
0000c0 41 63 95 be 5c 10 ad bd 31 91 46 be f6 39 8e be
       -0.29177287 -0.08450386 -0.19391324 -0.27778596
0000d0 b7 e9 a6 be 2a 7d 43 be 67 2a 54 3d 4d b3 99 be
       -0.32600185 -0.19090715 0.05179825 -0.30019608
0000e0 c7 1d a1 3d b3 c9 aa bd f4 de 08 be 54 a9 e7 bd
       0.07867008 -0.08339252 -0.133663 -0.11311594
0000f0 83 24 22 3d ca 3d 80 be 36 82 81 be e2 3c 0d be
       0.0395856 -0.2504714 -0.25294656 -0.13792756
000100 82 67 ab bd 4c 86 bf be fd 82 3d bd 9f 18 65 be
       -0.08369352 -0.37407148 -0.0462675 -0.22372673
000110 92 53 ff be 06 c2 75 bd f9 66 52 3b 1d e2 63 be
       -0.49868447 -0.05999949 0.0032104834 -0.22254224
000120 a9 b5 c8 bd 03 b3 74 be eb 79 a9 be d9 aa ec bd
       -0.09800274 -0.23896413 -0.3310083 -0.11556024
000130 db d5 25 be 8d aa 9b be b5 8e 8e be 02 8f dc 3c
       -0.1619486 -0.30403557 -0.27843252 0.02692366
000140 a4 e5 d0 3c f7 21 8b be d8 a2 9b be 55 e6 46 be
       0.025500126 -0.2717435 -0.30397677 -0.19423802
000150 be b7 40 be 39 26 0d be 00 dc eb bc 77 db 11 bd
       -0.18820092 -0.13784112 -0.028791428 -0.03560969
000160 34 b2 1e bd e5 18 d0 be 79 19 d3 be ca b8 04 be
       -0.038744166 -0.40643993 -0.41230372 -0.12961116
000170 2a 8e 24 be 98 09 a6 3d 5a 63 21 be 9e e6 8f 3b
       -0.16069856 0.081072986 -0.15760556 0.0043915054
000180 5d eb ff be 0a f6 03 bf 0e a9 d9 3b dd db 30 be
       -0.49984255 -0.515473 0.0066424673 -0.17271371
000190 14 f6 61 3e 17 48 32 be c7 81 33 bd b7 d0 ab 3d
       0.22066528 -0.17410313 -0.043824937 0.083894186
0001a0 38 4b 42 be df f9 e8 bc a4 56 db bb 5d e5 af bc
       -0.18974006 -0.02843946 -0.006693678 -0.021471674
0001b0 0c 54 03 be 26 1d 91 bd cf 60 5d 3e c1 c7 3d bd
       -0.1282503 -0.07085638 0.21618961 -0.04633308
0001c0 a3 36 4c 3e 38 2c 5c bd 19 31 65 3d 1b f2 33 bc
       0.19942717 -0.053753108 0.055955026 -0.010983015
0001d0 5a cc b8 3d 65 ee e6 bd 3c d1 66 3e 88 ff e3 3c
       0.09023352 -0.11275939 0.22540754 0.027831808
0001e0 2b cc dc 3d a6 0c 9f bd 4b 03 53 be be 04 86 3d
       0.107811294 -0.077660844 -0.20606725 0.06543873
0001f0 76 8c 1c 3e 45 fe 08 bd e7 b0 36 3e 7f 0f 03 3d
       0.15287957 -0.033445615 0.1784092 0.0319972
000200 5d f2 7b 3e 2e e7 df 3e 7f d1 ae 3c 09 83 9f bd
       0.24604173 0.43731064 0.02134013 -0.07788665
000210 b0 06 7b 3e 17 7e b8 3d 84 21 ba bc 3c 18 d4 3e
       0.2451427 0.09008425 -0.02272106 0.4142474
000220 a5 b6 95 be 8e b4 b4 3c 0e 00 a5 3d b3 61 41 3d
       -0.2924091 0.022058751 0.08056651 0.047212314
000230 36 64 9a 3d a0 4c 20 3e b2 65 ff 3d 4f b4 d5 3d
       0.07538645 0.1565423 0.12470569 0.10434782
000240 49 ac 53 3e cc f6 09 3f 42 14 33 be 92 82 a4 bb
       0.2067119 0.5389221 -0.17488196 -0.005020448
000250 ac b0 9e 3d 29 2e 5d be 41 6f 2e 3d 49 6d e8 3e
       0.07748541 -0.2159964 0.04258657 0.45395878
000260 dd 56 91 be f1 e6 ea 3d 7b 1d 22 be ed ce e5 bd
       -0.28386584 0.1146983 -0.15831558 -0.112211086
000270 00 66 32 bd cf 22 4d be f4 02 9f 3e 77 fc 9b 3e
       -0.043554306 -0.2003281 0.3105694 0.30466053
000280 a5 27 10 be b7 4c a1 3d 8a f9 0a 3b 38 00 54 be
       -0.14077623 0.0787596 0.0021205866 -0.20703208
000290 86 54 9e 3e cb 44 db 3d 5c 66 4e be 05 bd 8c 3e
       0.3092386 0.107064806 -0.20156235 0.2748796
0002a0 0d e7 01 3e 42 3a 42 3e dc 93 88 3e 1b e8 f8 3d
       0.12685795 0.18967536 0.26675308 0.121536456
0002b0 d2 9a 9d be 45 d3 85 3d 34 c7 fa bb 55 11 9c 3e
       -0.3078218 0.06534437 -0.0076531414 0.30481973
0002c0 12 c2 5a be 22 05 0b 3e 0b 54 c1 3e 0b 36 e8 3e
       -0.21363094 0.13576177 0.37759432 0.45353732
0002d0 57 44 f9 3c ba 7f 61 be 4c 2d 2b 3d 9f 5d 73 bc
       0.030428095 -0.2202138 0.041791245 -0.014853864
0002e0 18 28 29 3e 22 51 a0 3e 31 1f 93 3e 7e cd 95 3b
       0.16519201 0.313119 0.28734735 0.0045716157
0002f0 51 31 32 3e 0b 51 f9 bd 93 5f 07 3f 28 18 f2 3c
       0.17401625 -0.12173661 0.5288021 0.029552534
000300 5f f0 25 3e c6 6f 13 bd 39 4b ea 3c 4e cf 13 be
       0.16204976 -0.035995267 0.028600322 -0.14434549
000310 fa c5 45 bd bd ed cc 3d ad 69 48 bd ee 09 b8 3d
       -0.04828451 0.100062825 -0.048928905 0.08986269
000320 da 4d a3 3d 7c 8c 07 3d e9 62 90 3d 2e 0b d9 3d
       0.079738334 0.03309296 0.070501156 0.105978355
000330 81 10 22 be 0a 52 e6 bc 6f ca a5 bd 92 77 c5 bd
       -0.15826608 -0.028115291 -0.08095252 -0.09641947
000340 27 25 ac bd 1a aa 54 3e f7 c4 bc 3d 50 02 26 3d
       -0.08405524 0.20768014 0.092172556 0.04052955
000350 c1 0f cd 3d 1e b7 8a bd cc e2 ce 3d cc d5 44 bd
       0.100127704 -0.06773208 0.10101852 -0.048055455
000360 74 09 94 bc ee a6 02 3e 50 ce 02 be 65 cb 10 3c
       -0.018070914 0.12758991 -0.12774014 0.008837556
000370 7d 9b 96 bc 00 63 42 3e 76 3f 78 3d 2f 62 0a 3e
       -0.01838469 0.18983078 0.060607396 0.13514017
000380 0b a5 20 3e b5 1f de bd 08 f6 13 be 74 b1 3d be
       0.15687959 -0.108458914 -0.14449322 -0.18524724
000390 91 32 26 bd d4 35 aa bd dc e2 50 bd 8e 86 2e be
       -0.040575568 -0.08311048 -0.0509976 -0.17043516
0003a0 d4 69 08 be 94 65 7f be 22 c6 0b be 9f bd cd 3d
       -0.1332162 -0.24941093 -0.136498 0.10045933
0003b0 d1 d1 a8 3d 1a 85 20 bd cd 6b b4 bc b2 75 b6 3d
       0.08243144 -0.039189436 -0.02202406 0.08909167
0003c0 c1 16 81 be 9d 6d ef bb da 18 97 3d 4a 93 70 bc
       -0.25212672 -0.007306768 0.07377787 -0.014683554
0003d0 0b bf ec 3d 00 e0 f4 bc b9 85 39 3e 6d 7c 10 3d
       0.11559876 -0.029891968 0.18117417 0.03527491
0003e0 8d 73 e4 bd e6 f2 38 bd 97 2a fe bb 5a 57 8c 3d
       -0.11154852 -0.04515352 -0.007756542 0.068525985
0003f0 5a b6 f1 3d 23 45 99 3d 4d 59 cf bd 62 55 ac 3c
       0.11802359 0.0748389 -0.10124455 0.021036807

fc1.weight f4 [9, 98]
000000 2f 76 bb 3d 5a 18 e5 3e 62 a1 9b 3e 84 dd 3a 3e
       0.09153401 0.4474514 0.30396563 0.18248564
000010 d5 4f ec bd 3f 0b 13 bf d7 18 ae 3e 9d b9 1f 3f
       -0.11538664 -0.57439035 0.34003326 0.623926
000020 b9 b7 28 be 93 c8 ac be eb 1d d2 be 07 e1 56 3e
       -0.16476335 -0.33746776 -0.4103845 0.20984279
000030 0c 54 2d bf 01 80 8d 3e 5d e8 05 be 55 74 07 3d
       -0.6770637 0.27636722 -0.13076921 0.033069927
000040 1b c2 48 3f 64 06 a2 3d a7 72 c6 3e e0 d9 90 3e
       0.7842118 0.07911375 0.38759348 0.28291225
000050 00 68 1c be 49 a5 24 3f 9b ea 26 3e bb ac 28 3e
       -0.15274048 0.64314705 0.16300432 0.16472141
000060 da fb 2a 3d 6b e0 1c be 4d a7 19 3e ec dd 0a be
       0.04174409 -0.15319984 0.15005226 -0.13561219
000070 0e cc 2d 3e 79 09 17 bf 7f 2a ff be fb 4a a6 be
       0.16972372 -0.5899883 -0.4983711 -0.3247908
000080 e5 36 c6 be 21 7d 9d 3e e2 4c 86 be 89 b5 cf be
       -0.38713756 0.30759528 -0.26230532 -0.40568188
000090 6a 52 45 3f e3 2c 07 be 16 af 29 3f 95 fd 4b be
       0.7707888 -0.13200717 0.66282785 -0.19920953
0000a0 c8 7d 74 be 5b ea 7f 3e 26 8a d2 be 45 c5 2b bd
       -0.23876107 0.24991743 -0.41121024 -0.041936178
0000b0 5d c0 96 3d 44 d8 51 3b 81 bc 4c be 20 7f 2b b9
       0.07360909 0.0032019773 -0.19993784 -0.00016355189
0000c0 64 fc b7 be 09 31 b5 3d ae a6 0f bc b2 cb 2a be
       -0.35934746 0.08847243 -0.008767767 -0.16679266
0000d0 8c 35 31 3e 41 68 a4 3d 96 91 e2 3e 00 1f 8e 3c
       0.17305583 0.08027697 0.44251698 0.017348766
0000e0 10 a7 88 be 3d ca 86 3f 15 ae 15 3f c2 05 0e be
       -0.2668996 1.0530468 0.58468753 -0.13869384
0000f0 e0 20 29 be 53 a3 d9 bc e0 45 23 bd 1f 7b f5 3e
       -0.16516447 -0.026567137 -0.03986156 0.47945496
000100 22 86 97 be c6 71 ed be 33 df 14 3f 84 1e 63 3e
       -0.29594523 -0.46375865 0.58153075 0.2217961
000110 44 c5 39 3e 34 40 21 3f 56 c1 a2 3d 86 1d 24 bf
       0.18141657 0.6298859 0.07947032 -0.6410755
000120 d2 e0 bc bd 1b b8 52 3d 5f f8 80 be e7 54 bd 3d
       -0.092225686 0.051445108 -0.25189492 0.092447095
000130 cc 99 83 3e f6 38 52 bd 76 fb 58 bf 49 08 6f 3d
       0.25703275 -0.051323853 -0.847587 0.05835751
000140 df c4 88 be 2f 91 10 bf 28 e4 4c 3c 6b a6 6f 3f
       -0.267127 -0.5647153 0.012505569 0.9361331
000150 2c 7e 0f bf 47 1c 50 be 97 d9 b5 be 56 e6 ec bd
       -0.560519 -0.20323287 -0.3551757 -0.115673706
000160 69 f4 c5 bc 31 9b 11 3f d9 ca 95 3d 1c 55 45 3e
       -0.024164395 0.5687743 0.07314081 0.19270748
000170 d4 49 98 bd a2 d2 52 bf 90 1a 1b bf 5b 0d ef 3e
       -0.074359566 -0.8235265 -0.60587406 0.46689877
000180 0c f6 80 bf f9 9b 8f be 13 ca 09 be f8 4d 98 be
       -1.0075088 -0.28048685 -0.13455991 -0.29746985
000190 55 de 5f bd aa d1 ad bd 2b 2f 79 3f d8 77 e4 bf
       -0.05465539 -0.08487256 0.973376 -1.7849073
0001a0 af c5 84 bd f4 b7 46 be ef a8 b2 3c f5 f7 8a be
       -0.06483018 -0.1940611 0.02180907 -0.271423
0001b0 ff f0 b4 3e 75 fe ee bb c5 a3 88 bf 46 2c 8e 3e
       0.35340115 -0.0072935172 -1.0674978 0.27768153
0001c0 e9 04 29 be e5 bd 4a 3e 69 ca 18 3f b3 45 bd 3a
       -0.1650578 0.19799002 0.59683853 0.0014440328
0001d0 d4 b5 04 3f 2f cf 38 3e 6c bb 31 3f 20 10 8a 3e
       0.5183995 0.18047784 0.6942661 0.26965427
0001e0 5b 8a 75 3d 2f ad b8 3d b4 b5 bc 3e d2 7d a3 3d
       0.0599464 0.09017407 0.36857378 0.07982983
0001f0 0f 7d 22 3e 71 dd 27 bc 47 55 ae bd 6c c9 2b 3e
       0.15868019 -0.010245667 -0.08512359 0.16776055
000200 1d 65 b9 3d 14 f0 10 3f d6 18 54 bd e3 bc 1e 3f
       0.09052489 0.5661633 -0.051781498 0.6200697
000210 6e 4c 2c 3f 46 95 97 be 92 5e 3a 3f 73 b7 08 3e
       0.6730412 -0.29606074 0.7280055 0.1335123
000220 17 ff 5a bf 85 e7 84 3e 6a d0 6e bf e7 7e b4 3e
       -0.85545486 0.25957885 -0.93286765 0.3525307
000230 5a 4d 29 bf a2 41 eb 3f af 1b 6f 3c e0 16 b3 bb
       -0.66133654 1.8379405 0.014594003 -0.0054653734
000240 ac a2 d2 3e 65 08 b6 3e f8 b9 67 3e f1 9a 5e bb
       0.41139734 0.3555328 0.22629535 -0.0033966864
000250 76 3f 48 bd 36 47 07 bf 88 8d 9a 3e 3b dc ac 3e
       -0.048888646 -0.52843034 0.30186105 0.33761773
000260 e2 fd be 3e 02 3d e0 be 5e 4e ad 3e ad 19 38 be
       0.37303072 -0.43796545 0.33848852 -0.17978545
000270 d0 44 e5 be b0 22 a6 be 2d a3 91 3e 4c 55 b7 bf
       -0.44779062 -0.3244834 0.28444806 -1.4322906
000280 e5 47 b0 3e dd 66 f8 3e 26 a8 7e 3e d5 e3 27 3f
       0.3442985 0.48515978 0.24868831 0.6558202
000290 90 a1 a6 be 2e bb 09 3e 87 aa 45 3e e3 ba aa 3e
       -0.32545137 0.1345031 0.19303332 0.33345708
0002a0 65 3a e9 bb d7 62 b0 3e 7a 69 8e be 8e 6a 44 3e
       -0.007117557 0.3445041 -0.27814847 0.19181272
0002b0 cb 3b d9 bd e3 c5 65 3e 78 a3 2d 3e b9 de 71 be
       -0.10607108 0.22438769 0.1695689 -0.23620118
0002c0 c6 f1 da be 54 30 97 bc 6e 75 ea 3d 25 57 9b bd
       -0.42762583 -0.018455662 0.11448179 -0.07584981
0002d0 2a 1e b7 bc 86 33 20 bd c5 5f d3 3d fd 8b 96 3e
       -0.02235325 -0.039111637 0.10321001 0.29403678
0002e0 bf c3 92 3e f8 ad b1 3d 10 7b 0a 3e 85 60 b3 be
       0.28664967 0.0867576 0.13523507 -0.35034576
0002f0 1c 42 25 be 6c 75 29 3e c6 0a 78 be 5e 32 83 3f
       -0.161385 0.16548699 -0.2422286 1.0249746
000300 ef 8b 7c 3e 06 7a 81 3d b4 18 95 be d7 88 5f 3e
       0.24662755 0.06322102 -0.2912041 0.21829544
000310 94 8c 8c 3e d3 e2 b2 bc b5 c3 a9 3e 42 b9 93 3e
       0.27451003 -0.021836674 0.33157125 0.28852278
000320 49 84 f5 be c2 39 45 be 77 91 2f 3f 2f 85 ea 3e
       -0.47952488 -0.19260314 0.68581337 0.45804736
000330 2d ed 20 3f 97 1e 93 3e b3 1e fc 3d da 6b 0a bc
       0.628619 0.28734276 0.12310543 -0.008448565
000340 84 5f 61 3d 40 35 b3 be 70 cd 6c 3d 7a d8 a0 bd
       0.05502273 -0.35001564 0.057813108 -0.0785379
000350 0e 0e ce 3e e7 55 f2 3e 0c 3f 39 bd 7b 95 98 be
       0.40245098 0.47331163 -0.04522614 -0.29801545
000360 0a c9 4f 3e 46 a7 5d be 6a ff 29 be de 67 cf bf
       0.20291534 -0.21645841 -0.16601339 -1.6203573
000370 d5 6b 85 bc e0 d0 4c bf 63 a5 50 bd 75 29 85 be
       -0.01628677 -0.8000622 -0.050938975 -0.26008192
000380 98 da 3a bf b0 c7 a2 bd 0f d0 5f 3e 41 4a 1b 3d
       -0.729898 -0.079482436 0.21856712 0.03791261
000390 c9 36 11 3f e8 4a 4c be 0f 05 72 bf db a4 a4 3f
       0.5672422 -0.1995045 -0.9453897 1.286281
0003a0 18 ee e1 bc bc e0 0c be 27 0e 53 3f b2 42 a2 bd
       -0.027579352 -0.13757604 0.8244347 -0.07922877
0003b0 6f 8b 8a bf eb e5 8c 3e 6f 6d 8b 3d 9e 03 b4 be
       -1.0823802 0.27519163 0.06807982 -0.3515901
0003c0 af 01 58 3e 43 1e b0 3d b6 ac e4 bf ab 13 f2 be
       0.21094392 0.08599522 -1.7865207 -0.4728063
0003d0 e9 ee 85 bd 3e a7 c5 3e f1 ee 31 3c ea 9c 1c be
       -0.06539709 0.38604158 0.010860191 -0.15294233
0003e0 42 d2 df 3e db be 50 be bd c9 5d 3c 7e 91 82 3e
       0.437151 -0.20385306 0.013536868 0.25501627
0003f0 13 00 03 3e b1 b6 4c bf c2 fd 23 bf ea 1f 8e be
       0.12792997 -0.79966265 -0.6405908 -0.27758723

fc1.bias f4 [9]
000000 42 46 e4 bc 76 29 09 3e 79 9f 96 3c e6 d7 bd bd
       -0.027865533 0.13394722 0.01838659 -0.09269695
000010 96 3c f6 bd 3c 4e d8 3d 96 07 4c 3e c3 3e 85 bd
       -0.120232746 0.10561797 0.19924769 -0.065061115
000020 31 5d 6a be
       -0.22887112

exp_avg f4 [392, 1]
000000 1a 73 7b ba 6b 27 18 3b d1 ce fd 3b 44 d8 bc bb
       -0.00095920416 0.0023216854 0.0077456017 -0.0057630856
000010 80 79 24 3b 60 7a 66 39 72 60 5c ba f2 33 4e bc
       0.0025096834 0.00021980098 -0.00084067055 -0.012585627
000020 f9 e0 f2 b9 65 42 13 39 2a a4 16 3b 0f 4b c2 bb
       -0.00046325455 0.00014043746 0.0022986033 -0.005929358
000030 f7 ed 89 bc 99 d9 03 bc 5e a8 d2 3a 68 1e 84 39
       -0.016837103 -0.008047485 0.0016071906 0.00025199656
000040 e8 71 92 3b c2 d4 bf 39 08 7d 9a bb 10 70 d8 bb
       0.004469145 0.00036588876 -0.004714612 -0.0066051558
000050 9f 5b 3a bc 11 96 ec 3b 63 d7 9f 3c a7 d1 68 b9
       -0.011374383 0.0072200377 0.019511884 -0.00022203346
000060 73 cc ed 39 c0 29 9e ba ab d4 0a ba 1c 96 27 bb
       0.0004535649 -0.0012066886 -0.0005295972 -0.002557165
000070 84 2d ea 39 90 e5 b2 b8 3a 45 9c 3b 48 2d 66 bb
       0.0004466587 -8.530461e-05 0.0047689946 -0.0035122205
000080 e2 99 96 3a 25 07 15 bb 72 54 a7 3b 62 8d 0f bd
       0.0011489952 -0.0022739854 0.005106502 -0.035046943
000090 aa 9d a9 bb a9 37 ad ba b5 00 10 3c 66 93 f5 ba
       -0.0051762657 -0.001321544 0.008789231 -0.0018735945
0000a0 8a e6 32 3a bc 56 12 3a 1f 94 99 b8 13 c6 46 bb
       0.0006824514 0.00055823824 -7.323198e-05 -0.0030330464
0000b0 7d 3c 7d bb 68 32 8b bb a2 4d 44 3b a0 91 6c 3b
       -0.003864079 -0.0042479523 0.00299535 0.0036097541
0000c0 0e 95 12 bb d9 ec 25 3b 29 15 1d 39 c3 e1 94 3b
       -0.0022366676 0.0025318174 0.0001498057 0.0045435145
0000d0 a7 25 bb bb f2 6f 1b 3a e3 1e 37 bb f6 67 46 ba
       -0.0057112756 0.0005929462 -0.0027941994 -0.0007568592
0000e0 0f 22 8e 3b af 36 5e bc bd 1c f0 39 80 b3 03 3b
       0.004337556 -0.013562842 0.0004579778 0.0020096004
0000f0 c5 9a 0e bb 5a 85 00 bc 34 5d f6 b9 aa 63 9a ba
       -0.002175973 -0.0078442935 -0.00046990218 -0.001177897
000100 30 db 24 39 96 bc b1 bb 9c 46 c1 bb d4 73 84 bb
       0.00015721912 -0.0054240925 -0.00589831 -0.004042128
000110 7e 3a 03 3b b9 82 71 3d 8c 61 3f bc 44 0d bc ba
       0.0020023878 0.058962557 -0.011680972 -0.0014347215
000120 e8 67 5d bc bd 07 73 3c 1c a8 20 bb 5e 6d b5 ba
       -0.013513543 0.014833388 -0.0024514263 -0.0013841798
000130 fd 00 25 bc 25 8c cf 3b c3 c9 10 3b 30 c8 dd ba
       -0.010071036 0.006333845 0.0022092916 -0.0016920622
000140 9e 08 9c 3b 96 4e 68 bc dd f9 3c 3a 5f ca 50 3b
       0.0047617694 -0.014178893 0.00072088634 0.0031858904
000150 79 f9 8c 3b 0e fd 06 bb a9 c9 b8 3b 53 bb 10 3b
       0.0043022004 -0.002059761 0.005639274 0.002208431
000160 48 85 59 3b 43 4a 99 3a cb bd 5a bc b7 1a 53 3a
       0.0033191014 0.0011695105 -0.013350914 0.0008052992
000170 56 0c 08 bc 84 b2 19 3b 62 e4 c9 bb 38 23 3f 3a
       -0.008303722 0.002345235 -0.0061612586 0.000729132
000180 e4 f7 f6 3d 17 87 4e 3a 2b d3 07 b9 09 cf df b9
       0.12059 0.00078784063 -0.0001295327 -0.00042688128
000190 88 12 1a bc f1 47 c0 bb e1 f4 9f 3b da 52 72 ba
       -0.009403832 -0.005867951 0.0048814868 -0.0009243913
0001a0 6e d4 b5 39 85 7f 4d 3b 5f 00 1d bb 63 d3 af bb
       0.00034681283 0.0031356525 -0.002395652 -0.0053657754
0001b0 ce e6 14 38 b4 60 b1 bb 38 10 34 bb 48 f7 62 ba
       3.5500903e-05 -0.0054131392 -0.0027475487 -0.00086580636
0001c0 c6 21 a4 b9 61 2f 3b 38 e0 90 8f bb 2b b0 65 ba
       -0.0003130568 4.46284e-05 -0.004381284 -0.0008761908
0001d0 1a ed bd ba 64 14 aa bb 7e eb 7a bb 6d 08 0d 3b
       -0.0014490217 -0.005190419 -0.0038287337 0.0021519915
0001e0 2e 34 81 ba ba de 3c bb fd d1 0a 3a bd e7 9f bb
       -0.000985747 -0.0028819279 0.0005295573 -0.0048799203
0001f0 f8 9d 82 ba ab 07 18 bb 59 16 94 b9 ea a0 aa 3a
       -0.0009965291 -0.002319793 -0.0002824541 0.0013017927
000200 c4 f3 ec 3b 65 a5 3c bb de 28 30 ba b5 4f 84 ba
       0.0072312076 -0.0028785106 -0.0006719957 -0.0010094555
000210 a3 f7 15 39 d0 01 19 bb 6e f6 65 bb 6e b1 3a bb
       0.00014301999 -0.0023347028 -0.003508951 -0.0028487104
000220 a2 f8 69 bc 3b 5f b4 38 56 61 cf bb 5f fb 13 3a
       -0.01428047 8.600807e-05 -0.006328742 0.0005645062
000230 b4 08 9c b9 82 19 53 bc 4b 95 17 bb c6 6b 1b ba
       -0.00029761123 -0.0128844995 -0.0023129757 -0.000592884
000240 c8 98 87 3c 39 8a 78 3c 67 e8 96 bb cb eb d0 b9
       0.016552344 0.015169674 -0.0046053412 -0.0003984853
000250 aa fd 4e 38 d5 47 de b9 f8 80 44 3a 72 25 0a bb
       4.935047e-05 -0.0004239666 0.00074960245 -0.0021079448
000260 49 92 86 bb 6b fe 97 bb 05 13 70 3b 8c 30 c6 bb
       -0.004106794 -0.0046384833 0.003663243 -0.0060482677
000270 6e ec a8 bb 3c 9d 29 ba 11 0c e5 ba 92 06 a0 3b
       -0.0051551377 -0.0006470268 -0.001747491 0.0048835957
000280 0a fb 93 b9 af 17 0b bb e2 31 f3 3a 09 b5 68 bb
       -0.00028225064 -0.0021223833 0.0018554295 -0.0035508296
000290 2f a8 a8 bb c6 cf 19 3b 62 b2 e5 37 68 6f 0f 3d
       -0.005147002 0.002346979 2.7381993e-05 0.035018355
0002a0 2e f3 21 bb 22 c3 d8 bb f4 31 25 3c f8 6c f7 ba
       -0.0024711597 -0.0066150585 0.0100827105 -0.001887708
0002b0 42 83 c3 ba f6 39 38 bc c8 d3 12 b9 ea ea a5 b9
       -0.0014916437 -0.011244288 -0.0001400254 -0.00031646277
0002c0 3b bd 19 ba dc c4 53 bb 88 3e 99 39 86 6c 48 bc
       -0.00058646844 -0.0032313382 0.00029229023 -0.012232905
0002d0 e2 b9 eb ba 10 21 77 b9 c2 e7 7d ba 12 cc 19 bc
       -0.0017984475 -0.00023568072 -0.00096857187 -0.009387033
0002e0 2a 9d 8a 3b 53 1d ef 39 72 d9 dd 39 8c 1c 34 ba
       0.004230161 0.0004560748 0.00042314414 -0.0006870709
0002f0 09 f9 ae bc 2f cc 30 39 5c 44 d7 bb bc 9a 05 3b
       -0.021358984 0.00016860732 -0.0065694284 0.0020386418
000300 c5 aa c7 ba 77 81 71 b9 2d 91 e9 bc 6a bf 99 b6
       -0.0015233388 -0.0002303178 -0.028511608 -4.582039e-06
000310 d9 04 25 bb 26 10 20 3c d4 de 0e 3b ba d2 ff bc
       -0.0025179891 0.009769475 0.0021800296 -0.031228412
000320 8b 3a da bc f5 f8 02 3b d4 7a 3d 3b 26 22 18 3d
       -0.026639244 0.0019984816 0.0028912323 0.03714194
000330 04 33 15 3b e4 fe 0e 3d ba 45 1e bc 52 55 56 3c
       0.0022766003 0.03491105 -0.009660179 0.013081865
000340 06 1c 8a 3b 48 24 01 bb de 17 52 3b 2b 13 41 3a
       0.0042147664 -0.0019705463 0.0032057683 0.0007365222
000350 a2 20 4e bb 1f 48 66 bb a3 9f 9d bb 12 3b 6f 3d
       -0.0031452556 -0.0035138202 -0.00481029 0.058405943
000360 9f 15 07 3d 56 1b 2b bd 10 74 31 b9 0c a4 94 bb
       0.032979604 -0.041774116 -0.00016923272 -0.0045361575
000370 13 3a a2 b9 66 b9 24 3c 82 ff 5e b9 fc 5f 99 3b
       -0.00030942317 0.010053968 -0.00021266754 0.0046806317
000380 dc 6a 6d bc 81 27 11 3c c2 e8 a3 3c e4 69 30 bd
       -0.014490809 0.008859516 0.020008449 -0.043069735
000390 1d 2a 46 3b 7f 20 04 bc 97 c1 d7 bb 77 3b 95 3c
       0.0030237504 -0.008064388 -0.006584357 0.018216832
0003a0 39 b0 5b bc 4b 06 87 bb ff 4d dd bc ee ec 8c 38
       -0.013408714 -0.004120623 -0.02701473 6.719852e-05
0003b0 51 b2 dd bc 56 3a 8c 3b 00 65 bd 3a 28 e6 ec bb
       -0.027062567 0.004279415 0.0014449656 -0.007229585
0003c0 9f 7f bc b9 7d 3d 72 bb 02 02 56 bc de 23 38 bc
       -0.0003595324 -0.003696292 -0.013062002 -0.01123902
0003d0 a6 25 33 bc fe 7e 43 3b 4c e0 df b8 0c 70 48 3c
       -0.010934269 0.0029830332 -0.00010675247 0.012233745
0003e0 cd 20 95 bc 74 fc 86 3b 47 7f 89 bc 5a 97 d1 bb
       -0.018204117 0.00411945 -0.016784323 -0.0063962163
0003f0 52 05 3b 3b 8b 58 81 bb a6 5f d1 bd 2a aa 5c bc
       0.0028537107 -0.0039473227 -0.102233216 -0.013468305

exp_avg_sq f4 [392, 1]
000000 1e 9d 89 38 78 6c 62 3a ec 4a 11 3c 07 09 b9 3a
       6.5619344e-05 0.0008637379 0.00886796 0.001411707
000010 f1 48 f0 3a d1 84 22 39 03 98 52 38 ef 78 6f 3a
       0.0018332285 0.00015499002 5.0209474e-05 0.0009135147
000020 a4 0f 2f 39 8f a7 95 39 d2 88 15 38 da 57 13 3a
       0.00016695127 0.00028544336 3.5651792e-05 0.0005620696
000030 4c e2 a3 3b 8d 80 92 39 c1 ca 09 39 b9 9f b9 37
       0.005001342 0.00027943068 0.0001314087 2.2128095e-05
000040 d7 db a8 39 36 00 05 39 5f 16 cd 3a 45 b5 f0 39
       0.0003220725 0.00012683947 0.0015646926 0.00045911424
000050 05 cf 9c 39 9a 91 8f 3a dd d0 88 3b 8d ea 2a 3a
       0.0002990888 0.0010953427 0.004175289 0.0006519936
000060 65 95 c2 38 dd 35 b0 3a 96 0e 98 39 19 9d bc 38
       9.278468e-05 0.0013443787 0.00029002567 8.9938e-05
000070 ff fa 83 39 f9 79 40 3a f8 25 07 3b 97 6d af 3b
       0.00025173274 0.0007342394 0.0020621996 0.0053536403
000080 0b ba 47 39 32 cd 82 39 af 28 ae 39 13 c5 e0 3b
       0.00019047425 0.00024948415 0.00033218178 0.0068594306
000090 7a 36 4b 3a 2a c7 45 39 49 4e 51 39 7f 9e fd 38
       0.0007751953 0.00018861578 0.00019960957 0.00012093502
0000a0 1c 3c f0 38 87 e2 e5 38 89 7e 4c 39 c4 7e 77 39
       0.00011455288 0.00010961765 0.00019502094 0.0002360298
0000b0 ea 93 d6 38 0b 66 b3 3b 33 ac 07 3b 3f 56 e7 3a
       0.00010231866 0.005474811 0.0020702004 0.0017649605
0000c0 10 8c 81 3a 4f 30 5e 39 31 b4 bc 38 2b 31 96 39
       0.0009883661 0.00021189566 8.998102e-05 0.00028646862
0000d0 9f 1c 87 3a e2 c3 3a 39 53 2a 06 39 44 5c a5 39
       0.0010308212 0.00017811314 0.00012795003 0.00031539996
0000e0 85 2b 44 3a 61 5b 0d 3b 95 b2 db 39 17 70 3e 3a
       0.00074832916 0.0021569359 0.0004190399 0.00072646275
0000f0 c6 e0 06 39 71 8f 3e 3c 8e f1 3f 39 1e 9c 29 3a
       0.0001286297 0.011630879 0.00018305166 0.00064701017
000100 e9 95 8d 39 2a f2 b4 3a 55 c6 3d 3a 8d 20 15 3b
       0.00027005307 0.0013805081 0.00072393316 0.0022754997
000110 0c e3 81 38 23 71 dc 3b 67 bc d9 39 99 22 23 3b
       6.19349e-05 0.006727354 0.00041529836 0.0024892448
000120 5f d8 38 3b 13 e2 0b 3b 66 89 ae 39 33 0f 71 3a
       0.002820514 0.0021344468 0.00033290236 0.0009195685
000130 ae 26 c6 39 bb 5a 73 3a 18 ca f2 38 c9 33 f1 38
       0.00037794322 0.0009283234 0.00011577102 0.00011501421
000140 fe d1 35 3b e7 f5 62 3a b2 4a 16 39 81 b3 b3 38
       0.0027743573 0.0008657858 0.00014332941 8.56882e-05
000150 07 56 ba 39 ad 4c 9f 3b 26 14 1a 3a 67 78 64 38
       0.0003554078 0.0048614354 0.0005877636 5.447157e-05
000160 ae 68 b3 38 77 eb 82 38 fd 5d 01 3a 25 a8 0e 38
       8.554883e-05 6.242742e-05 0.0004934965 3.4012035e-05
000170 76 2c a7 3b c9 83 83 39 69 4c 4b 39 c0 1d 38 38
       0.0051017357 0.00025084455 0.00019388054 4.3896725e-05
000180 58 5a 51 3c 62 8d 1f 37 7a d2 36 36 70 ac b0 38
       0.012777887 9.510057e-06 2.7242627e-06 8.424453e-05
000190 eb b4 63 3a b4 ef 8d 39 f3 c8 8f 3a 7b 52 5c 39
       0.00086863217 0.00027072208 0.0010969922 0.00021011561
0001a0 cd 39 02 37 c4 c4 0a 3a b9 2a a7 38 f4 30 91 39
       7.762062e-06 0.00052936026 7.971138e-05 0.00027693028
0001b0 d2 df 6a 37 59 10 ed 39 e3 a0 97 3a c5 57 89 38
       1.3999599e-05 0.00045216343 0.0011568334 6.5490174e-05
0001c0 5b 24 d9 36 52 20 31 38 5e 4a 20 39 40 31 b6 38
       6.4713363e-06 4.223019e-05 0.00015286493 8.68761e-05
0001d0 e1 32 de 39 5a e3 d5 39 aa 45 bc 39 7b 96 62 3a
       0.00042381047 0.00040795916 0.00035910058 0.0008643639
0001e0 ac d5 86 3a 17 41 3a 39 85 b9 61 36 c0 0a 3e 3a
       0.0010287068 0.0001776259 3.36356e-06 0.00072495267
0001f0 d6 f8 df 37 9b d9 8d 38 85 41 4e 39 1a 9b a1 39
       2.6699545e-05 6.763936e-05 0.00019670099 0.00030823873
000200 fb c6 14 3a cb d9 76 3a a0 db c3 37 87 17 d0 38
       0.00056754024 0.0009416609 2.3348082e-05 9.922595e-05
000210 72 ee c3 38 17 23 90 3a 04 c7 9e 39 d0 3c 83 38
       9.3427385e-05 0.0010996786 0.00030284387 6.257894e-05
000220 ef e5 b1 39 19 cc bf 38 00 0c 7f 39 2e 86 0f 38
       0.00033931385 9.145606e-05 0.00024323165 3.421882e-05
000230 f7 07 93 38 f3 10 82 39 58 ca b0 37 60 5b a3 38
       7.01099e-05 0.0002480816 2.1075059e-05 7.7894656e-05
000240 cb cf 5d 3b c1 fa 9b 3a 12 a3 e4 39 a0 b0 2c 39
       0.0033845778 0.0011900292 0.00043609046 0.00016468996
000250 2b c8 92 37 ef 71 f3 38 4e 41 5f 3a 6e ac 1f 39
       1.7497767e-05 0.00011608365 0.0008516506 0.00015227657
000260 c3 1b 67 39 46 16 14 39 7f e6 06 39 cf c4 c8 3a
       0.00022040219 0.00014122677 0.00012865102 0.0015317443
000270 41 88 95 39 76 c1 90 39 11 eb b6 38 e1 2a a3 3a
       0.00028521012 0.0002760996 8.722221e-05 0.0012448692
000280 11 0f 82 38 65 0b 1b 39 03 d1 62 38 9f 72 47 3a
       6.2016894e-05 0.00014786197 5.4077256e-05 0.00076083274
000290 2b 39 6a 39 64 51 a2 39 00 6c 1a 36 95 d7 be 3a
       0.00022337276 0.0003095969 2.3010653e-06 0.0014560098
0002a0 1e ef bc 39 c5 e2 41 3a 72 a7 84 3a 3a 23 9c 3b
       0.0003603631 0.0007396157 0.0010120703 0.0047649415
0002b0 0b 50 d0 39 fe f4 95 3a 55 f0 2b 39 10 fc 92 39
       0.00039732488 0.0011440811 0.00016397361 0.0002803509
0002c0 6c 10 28 38 5a d4 8c 38 ec 52 cd 38 c9 9c cd 39
       4.0069615e-05 6.715274e-05 9.790607e-05 0.0003921746
0002d0 48 91 b9 38 c9 af 05 38 b3 06 20 39 81 a6 90 3b
       8.848548e-05 3.1873384e-05 0.00015261285 0.00441438
0002e0 d8 90 50 39 75 7f 92 36 fc d2 93 36 15 2f 7d 37
       0.00019890384 4.365977e-06 4.405503e-06 1.5090937e-05
0002f0 b2 27 af 39 a4 a3 28 36 30 b5 28 3b b5 71 91 39
       0.00033408176 2.5129202e-06 0.0025742762 0.00027741274
000300 d8 33 ad 37 77 b9 5c 36 be ad b2 3a d1 a6 a1 35
       2.0647349e-05 3.289051e-06 0.0013632101 1.2043985e-06
000310 46 4f b1 39 1a c0 00 3c 0f 0f 31 3b d7 de ee 3b
       0.00033819134 0.007858301 0.0027017032 0.007289748
000320 aa ea de 3b fe 7d e0 3a b0 6c 18 3a 97 9a c4 3c
       0.0068028765 0.0017127392 0.00058145355 0.023999495
000330 26 2d 6b 3b 89 a5 c1 3b eb da 48 3a 0e 95 af 3b
       0.0035885065 0.005909626 0.0007662016 0.005358345
000340 31 b6 07 3d b5 6c 7f 3a 89 59 46 3b 81 f6 c4 39
       0.033132736 0.00097436766 0.003026577 0.00037567693
000350 12 dd eb 3a ff 7b 9a 3a 60 a9 da 3b 0d 6d 75 3c
       0.0017994961 0.0011786221 0.006673023 0.014979613
000360 5d 29 8a 3c 81 78 86 3c 61 87 06 3b 3c bb 89 3b
       0.016865427 0.016414883 0.002052747 0.0042032283
000370 46 15 48 39 30 ee bb 3c d1 61 8c 3b 6b ff ff 3a
       0.00019081411 0.022940725 0.0042841216 0.0019531077
000380 c8 43 9e 3b d1 77 93 3b 65 d8 bd 3c 26 9d 97 3c
       0.0048298575 0.004500367 0.023174474 0.018507551
000390 a7 a9 d0 3b 42 8e e1 3a a7 89 15 3b 97 33 d0 3c
       0.0063678804 0.0017208534 0.0022817643 0.025415225
0003a0 f6 b7 c4 3a a7 e2 fe 3a d1 5d cb 3b 90 52 81 3a
       0.0015008438 0.001944621 0.006206252 0.0009866524
0003b0 6f ab 7c 3c 38 a3 2c 3a 83 34 60 3a b5 b3 14 3c
       0.015421732 0.0006585601 0.0008552747 0.009076049
0003c0 e4 b8 04 3a 58 f8 a2 3a 95 0c 0a 3c bf 53 9b 3b
       0.0005062951 0.0012433631 0.008425851 0.004740208
0003d0 20 0e 2b 3c 7e f6 98 3a 3f 85 ae 39 f2 36 4d 3b
       0.010440379 0.001167014 0.00033287142 0.0031313268
0003e0 61 ee d5 3b 2c b9 43 3c a5 e2 d7 3b 90 98 22 3b
       0.006528661 0.011946004 0.0065882974 0.0024810173
0003f0 c3 35 62 3b 91 ee 43 3b 14 c4 af 3c d2 f0 98 3b
       0.0034516908 0.0029896835 0.021455802 0.00466738
