models/mmempty.pth (torch, 163747 bytes, 6 tensors)

lstm.weight_ih_l0 f4 [392, 1]
0.09548698 0.06120813 0.09420507 0.04286748 -0.049245533 -0.014693104 -0.02936744 0.03597842
-0.031929426 0.051825136 -0.044714652 -0.040809505 0.076544955 -0.067112654 -0.051037185 -0.042149052
-0.092546836 0.09352963 0.011493966 -0.0070861503 -0.035694733 -0.055113774 -0.091331705 0.051493123
0.020172082 -0.069561854 0.010391414 -0.031976923 -0.08537622 0.08729565 -0.018691324 0.07148774
0.08811754 0.00058517605 -0.027091801 -0.09962081 0.009871997 -0.042407498 0.08411513 -0.046041325
0.040781587 -0.08624172 0.06337124 -0.03471546 -0.013261519 -0.078033276 -0.061358094 0.088119686
-0.010047905 0.006670773 0.08277871 0.08501029 0.048315644 0.011599161 0.029838681 0.05291538
0.014169954 -0.083427325 -0.030697703 -0.048885297 -0.09457105 -0.077183716 -0.030207671 -0.06495899
-0.042887826 0.08491267 -0.07463431 0.026333347 0.09839891 0.036256507 0.0977055 0.053304866
-0.0987731 -0.0018899143 -0.023117945 -0.048382245 0.07471833 0.05330941 -0.03156154 -0.049109206
-0.08625727 0.08375126 0.10075252 0.034392014 -0.0070049614 0.074278325 0.008058757 0.0009282455
0.07814838 -0.099134 -0.054386027 -0.01769162 0.083016515 -0.05583976 0.021338068 -0.043788746
0.006808281 -0.044112023 0.07688241 -0.096722335 0.072564945 -0.10016812 0.02747409 0.045422822
-0.0020087883 -0.07378333 -0.044035967 0.059841096 0.06044309 0.06027685 0.0072135627 -0.048053633
-0.066569254 -0.012555882 0.015112355 0.07704562 -0.04272721 -0.021790743 0.034027427 0.0059458762
-0.007929131 0.033233613 -0.084601715 0.028185025 0.040166065 -0.020051435 -0.016815856 -0.042109963
0.015009321 -0.093203634 0.092158824 0.09202489 -0.030916028 -0.013343029 0.042283133 -0.049332876
-0.0038715526 -0.080585726 0.07847315 0.07125369 -0.029146604 -0.067903474 -0.100057416 0.047717497
0.015353844 0.036480248 0.07632072 0.043247744 0.010580353 -0.0857463 -0.074449494 0.030134097
-0.03338717 0.0805773 -0.09205458 -0.022772253 -0.10082264 -0.026730783 0.06446907 0.035846382
0.06940822 -0.062942535 -0.018187255 -0.05683015 -0.01993221 0.07562077 0.0034480244 0.040083945
0.025467575 -0.0942109 0.01920566 -0.019216232 -0.09450836 -0.074166745 0.044587508 0.002598308
-0.06646235 -0.021197274 -0.053032465 -0.09134787 0.01199729 -0.006463349 0.08974534 -0.09112458
-0.059656553 0.09532718 -0.004850343 -0.033397123 -0.068826675 -0.011495225 0.08056861 0.06685653
-0.030154735 0.016684555 -0.018277116 0.08846417 -0.010669194 -0.066050306 0.0942789 -0.05140232
-0.0011318028 0.055779606 0.07948984 -0.07865776 0.04719962 -0.097336605 -0.00690002 -0.08234984
0.008053891 -0.032194145 0.058940887 0.060365662 -0.015015125 -0.06828351 -0.0826843 -0.073392354
-0.039504483 0.06527299 0.087402835 0.09658797 0.09592259 -0.027006216 0.005847059 0.04186794
0.01501967 -0.036173977 -0.034202628 0.041484162 -0.044087663 -0.096007764 0.0037178844 -0.033212677
-0.028498687 -0.0052570477 -0.093272135 -0.02866029 -0.06552309 -0.046113167 0.06045872 -0.037045904
0.080683514 -0.012304977 -0.07731996 -0.088071354 -0.05102549 0.06346585 -0.0739128 0.082725346
0.03037788 0.074208036 -0.08505283 -0.077945516 0.007869668 0.07110092 0.008225262 0.07581349
00000000: ae8e c33d 60b5 7a3d 96ee c03d d095 2f3d
00000010: afb5 49bd 58bb 70bc fc93 f0bc 1c5e 133d
00000020: 6ec8 02bd 9846 543d b626 37bd de27 27bd
00000030: 9ac3 9c3d 5c72 89bd 5e0c 51bd 7ca4 2cbd
00000040: 3289 bdbd 768c bf3d 3051 3c3c f032 e8bb
00000050: a434 12bd fbbe 61bd 1e0c bbbd 74ea 523d
00000060: ec3f a53c 7276 8ebd c040 2a3c 3cfa 02bd
00000070: bad9 aebd 10c8 b23d 8c1e 99bc 2a68 923d
00000080: f876 b43d 8066 193a a0ef ddbc ff05 ccbd
00000090: 28be 213c 7cb3 2dbd 8e44 ac3d d495 3cbd
000000a0: 980a 273d 809f b0bd c8c8 813d cc31 0ebd
000000b0: d846 59bc e9cf 9fbd a052 7bbd 1878 b43d
000000c0: f89f 24bc 8096 da3b e287 a93d e019 ae3d
000000d0: a0e6 453d 680a 3e3c 4070 f43c ccbd 583d
000000e0: 1829 683c f2db aabd c079 fbbc f33b 48bd
000000f0: 77ae c1bd 7f12 9ebd 1476 f7bc 3809 85bd
00000100: 25ab 2fbd b2e6 ad3d e0d9 98bd 08b9 d73c
00000110: 5e85 c93d b481 143d d219 c83d 3456 5a3d
00000120: 8d49 cabd 00b7 f7ba d861 bdbc 762c 46bd
00000130: ec05 993d f85a 5a3d ac46 01bd bc26 49bd
00000140: a7a7 b0bd c885 ab3d 5657 ce3d a4de 0c3d
00000150: e089 e5bb 3c1f 983d e008 043c 8055 733a
00000160: 420c a03d c406 cbbd e2c3 5ebd 04ee 90bc
00000170: 9004 aa3d 3bb8 64bd 2ccd ae3c d45b 33bd
00000180: 0018 df3b cfae 34bd 8674 9d3d 5c16 c6bd
00000190: ee9c 943d f124 cdbd 5811 e13c 480d 3a3d
000001a0: e0a5 03bb b71b 97bd 0f5f 34bd f01b 753d
000001b0: 2c93 773d dce4 763d c05f ec3b e3d3 44bd
000001c0: 7655 88bd 30b7 4dbc d099 773c 18ca 9d3d
000001d0: ba02 2fbd 8082 b2bc 5860 0b3d a0d5 c23b
000001e0: 30e9 01bc f81f 083d aa43 adbd 48e4 e63c
000001f0: 2c85 243d e842 a4bc 68c1 89bc 7f7b 2cbd
00000200: a8e9 753c 8ce1 bebd c4bd bc3d 8c77 bc3d
00000210: 9c43 fdbc b89c 5abc 1431 2d3d 4511 4abd
00000220: e0b9 7dbb 210a a5bd 88b6 a03d 74ed 913d
00000230: dcc4 eebc fa10 8bbd e7ea ccbd 6c73 433d
00000240: b08e 7b3c 506c 153d 0a4e 9c3d 8c24 313d
00000250: 3859 2d3c c29b afbd fa78 98bd c8db f63c
00000260: fcc0 08bd b605 a53d 1d87 bcbd e08c babc
00000270: 1a7c cebd 84fa dabc 5c08 843d a8d3 123d
00000280: e625 8e3d 04e8 80bd 70fd 94bc bbc6 68bd
00000290: e048 a3bc 10df 9a3d 40f8 613b 102f 243d
000002a0: 60a1 d03c a5f1 c0bd 3055 9d3c 5c6b 9dbc
000002b0: 998d c1bd bce4 97bd 64a1 363d 6048 2a3b
000002c0: 6a1d 88bd e8a5 adbc 9238 59bd 9814 bbbd
000002d0: 4890 443c 80ca d3bb 68cc b73d 869f babd
000002e0: 6e5a 74bd e63a c33d a0ef 9ebb 6ccb 08bd
000002f0: 00f5 8cbd 7856 3cbc 2801 a53d 14ec 883d
00000300: 1007 f7bc 0cae 883c e4b9 95bc b42c b53d
00000310: d8cd 2ebc 6245 87bd 4c15 c13d 3d8b 52bd
00000320: 0059 94ba 2879 643d 92cb a23d 5217 a1bd
00000330: 6454 413d 6a58 c7bd 9019 e2bb 08a7 a8bd
00000340: 78f4 033c 02de 03bd 006c 713d fc41 773d
00000350: 0002 76bc 3ad8 8bbd 6356 a9bd bb4e 96bd
00000360: 74cf 21bd d8ad 853d 4200 b33d eacf c53d
00000370: 1073 c43d 243c ddbc b098 bf3b b87d 2b3d
00000380: 1015 763c 2a2b 14bd 0e18 0cbd 4ceb 293d
00000390: 4495 34bd b89f c4bd c0a7 733b 040a 08bd
000003a0: 1476 e9bc 5043 acbb 7605 bfbd fcc8 eabc
000003b0: f830 86bd 29e1 3cbd 90a3 773d 72bd 17bd
000003c0: 663d a53d d09a 49bc ed59 9ebd c15e b4bd
000003d0: 1b00 51bd 62fa 813d 985f 97bd e86b a93d
000003e0: 08db f83c 62fa 973d 2e30 aebd e6a1 9fbd
000003f0: c8ef 003c 5c9d 913d 40c3 063c 1a44 9b3d

lstm.weight_hh_l0 f4 [392, 98]
0.023816556 0.09301342 0.084391356 0.032760262 0.08652224 0.09408513 0.06116067 0.0044521987
-0.09354934 -0.057654202 0.0728282 -0.07259029 0.0411375 -0.008358903 -0.01708673 -0.027000412
0.051178187 0.007930532 -0.04390949 -0.05308156 -0.098056525 -0.09003499 -0.05352945 0.09340142
-0.06544933 -0.02871164 -0.07623012 0.07301915 -0.053464495 0.09568651 0.0881563 -0.056974076
0.019938506 -0.09304366 0.018627666 0.08945474 -0.09918418 0.019262299 -0.05208463 -0.038843043
-0.09403117 0.01820705 -0.013563745 0.025319025 -0.0033222884 -0.026749097 0.062382594 0.040855497
0.038230762 -0.022634782 -0.090311006 0.08353031 0.010729782 -0.027277537 -0.041890584 0.017173856
0.044324532 -0.059135184 0.09687877 0.056671754 -0.0434932 -0.007176392 0.00018122792 -0.036645673
0.030811772 0.030304015 0.09999938 -0.0695906 -0.041785926 -0.03882028 0.013431102 0.085718766
-0.07278104 0.052105695 0.06929402 -0.03508871 -0.032389157 -0.06840974 -0.06141787 0.092052385
0.08359198 -0.023599908 -0.0027298853 -0.0973328 -0.0030234605 0.035394624 0.044521645 -0.089925975
-0.08888562 0.013888299 -0.069607645 -0.028198928 0.09976879 -0.076959305 -0.042002827 -0.045230325
-0.10052163 0.044870853 0.058040768 0.08606017 -0.018437654 -0.07476692 0.009657651 0.05606246
0.07503381 -0.09614096 0.043673128 0.06845263 0.022818208 -0.09388095 -0.073681735 0.057776093
0.05087684 -0.053500067 -0.055930242 0.08201076 0.050236374 0.04387632 0.020314313 0.03593728
0.08341557 0.019316718 0.04000342 -0.0057207868 -0.10043611 -0.03402496 -0.02994024 0.023326851
-0.042499114 0.08385338 -0.00485947 0.013484031 -0.08556461 -0.0402641 0.044447377 -0.03352849
0.0847404 0.10044892 -0.009632349 -0.052493516 0.09084681 0.032698855 -0.066160575 0.096060455
-0.015780777 0.043626606 -0.09285902 0.08671594 0.09214164 0.057306424 0.060456842 0.0681663
-0.045774803 0.07345089 -0.036066838 -0.029116027 -0.017828837 -0.05966474 -0.050582528 -0.05111953
-0.037283815 -0.031484827 0.053794608 -0.043363955 0.0567683 0.0797347 -0.06682831 -0.055914648
0.045983315 0.04324694 0.065385744 0.08039948 -0.062881954 0.0040719286 -0.07146156 -0.017039806
-0.051938236 -0.06482551 -0.01362668 -0.02457925 -0.037148535 -0.060670268 0.016234808 -0.014559351
0.04083839 0.03368081 0.051098302 -0.05157234 -0.053450912 -0.0072326064 0.069192156 -0.094855696
-0.005964309 -0.069158494 -0.038184404 -0.0661609 0.034735113 0.06242405 0.008020379 -0.04003039
0.055003226 0.07227868 -0.020439282 0.024408162 -0.09644415 -0.05579282 -0.011613555 -0.086896144
0.07662679 -0.082667634 -0.059985142 0.050106347 -0.030493796 0.03794627 0.022365138 -0.07932088
-0.098570146 -0.046187237 -0.012458213 0.0066402107 -0.019138232 0.008484557 -0.012391567 -0.015327893
-0.06360407 0.077956215 -0.08396609 -0.037536032 -0.047665425 0.02405177 -0.034568384 -0.030104108
0.015396692 -0.007175334 -0.080194555 0.020579718 0.059728533 0.04454793 0.022390455 -0.09190785
-0.04270875 -0.05052339 0.047610387 -0.054166142 -0.045631513 -0.057499815 -0.025490321 0.04787089
0.028033078 -0.07225008 -0.009069644 0.0687525 -0.071637705 0.0034454837 -0.024339207 -0.023104876
00000000: f01a c33c d27d be3d 60d5 ac3d a02f 063d
00000010: 9232 b13d b4af c03d 9c83 7a3d c0e3 913b
00000020: cc96 bfbd d026 6cbd f426 953d 38aa 94bd
00000030: cc7f 283d c8f3 08bc 78f9 8bbc f82f ddbc
00000040: 38a0 513d 10ef 013c 70da 33bd 0d6c 59bd
00000050: dcd1 c8bd 4464 b8bd b241 5bbd 3e49 bf3d
00000060: 4c0a 86bd ac34 ebbc 8a1e 9cbd 108b 953d
00000070: 96fd 5abd 4af7 c33d 4a8b b43d a65d 69bd
00000080: 1456 a33c ad8d bebd 0c99 983c 0c34 b73d
00000090: 1321 cbbd f8cb 9d3c b156 55bd e219 1fbd
000000a0: 6a93 c0bd f426 953c 783a 5ebc d869 cf3c
000000b0: c0ba 59bb ec20 dbbc e484 7f3d 1858 273d
000000c0: dc97 1c3d 946c b9bc faf4 b8bd f011 ab3d
000000d0: f8cb 2f3c 2475 dfbc 7695 2bbd 30b0 8c3c
000000e0: a48d 353d bc37 72bd 6068 c63d a420 683d
000000f0: ed25 32bd f027 ebbb 0008 3e39 c619 16bd
00000100: f868 fc3c 2040 f83c 7acc cc3d 8485 8ebd
00000110: b827 2bbd 0402 1fbd 200e 5c3c 528d af3d
00000120: 3a0e 95bd c86c 553d 06ea 8d3d 2eb9 0fbd
00000130: 7eaa 04bd 681a 8cbd 4e91 7bbd f685 bc3d
00000140: 4632 ab3d 9854 c1bc e0e7 32bb 6b56 c7bd
00000150: 4025 46bb f4f9 103d 545c 363d 1c2b b8bd
00000160: aa09 b6bd c08b 633c 748e 8ebd 7001 e7bc
00000170: 9453 cc3d d79c 9dbd 280b 2cbd 6f43 39bd
00000180: 49de cdbd 80ca 373d 28bc 6d3d 5040 b03d
00000190: 900a 97bc 661f 99bd 203b 1e3c c0a1 653d
000001a0: 54ab 993d 8de5 c4bd 98e2 323d e430 8c3d
000001b0: 40ed ba3c a844 c0bd 73e6 96bd a0a6 6c3d
000001c0: 3c64 503d e322 5bbd 1c17 65bd 42f5 a73d
000001d0: a8c4 4d3d a8b7 333d 346a a63c f832 133d
000001e0: c8d5 aa3d 183e 9e3c a0da 233d 7075 bbbb
000001f0: 72b1 cdbd c25d 0bbd 3c45 f5bc f417 bf3c
00000200: 8d13 2ebd 52bb ab3d 303c 9fbb 20ec 5c3c
00000210: 803c afbd f8eb 24bd 740e 363d 2c55 09bd
00000220: 608c ad3d 2ab8 cd3d 00d1 1dbc 7103 57bd
00000230: e40d ba3d 3cef 053d 327f 87bd 58bb c43d
00000240: b046 81bc d0b1 323d df2c bebd 2098 b13d
00000250: c2b4 bc3d 24ba 6a3d 98a1 773d c69a 8b3d
00000260: 5c7e 3bbd 6c6d 963d d2ba 13bd bc84 eebc
00000270: c80d 92bc 0463 74bd a02f 4fbd b662 51bd
00000280: eab6 18bd 3cf6 00bd bc57 5c3d 679e 31bd
00000290: e085 683d f24b a33d 48dd 88bd c206 65bd
000002a0: 0059 3c3d b423 313d f6e8 853d 7ca8 a43d
000002b0: 41c8 80bd d06d 853b 705a 92bd 1097 8bbc
000002c0: 30bd 54bd 3dc3 84bd 7042 5fbc 6c5a c9bc
000002d0: 1029 18bd 6381 78bd dcfe 843c 588a 6ebc
000002e0: 2846 273d e4f4 093d 744c 513d 853d 53bd
000002f0: 58ef 5abd 80ff ecbb 9eb4 8d3d b443 c2bd
00000300: 4070 c3bb f8a2 8dbd 4067 1cbd 5e7f 87bd
00000310: 6846 0e3d 5cb0 7f3d e867 033c e8f6 23bd
00000320: 104b 613d d806 943d 4870 a7bc a0f3 c73c
00000330: 8384 c5bd 0387 64bd c846 3ebc 9bf6 b1bd
00000340: 82ee 9c3d a64d a9bd fbb2 75bd 503c 4d3d
00000350: 20ce f9bc 8c6d 1b3d 1837 b73c fc72 a2bd
00000360: 25df c9bd d42e 3dbd 881d 4cbc 2096 d93b
00000370: c8c7 9cbc d002 0b3c 0006 4bbc d821 7bbc
00000380: da42 82bd 82a7 9f3d 6af6 abbd 62bf 19bd
00000390: d23c 43bd 3808 c53c 9497 0dbd e49c f6bc
000003a0: 6842 7c3c 101f ebbb 0b3d a4bd cc96 a83c
000003b0: e8a5 743d e477 363d 306c b73c 2f3a bcbd
000003c0: 5fef 2ebd 9df1 4ebd 1c03 433d 51dd 5dbd
000003d0: 1ce8 3abd ed84 6bbd 14d1 d0bc 4414 443d
000003e0: a0a5 e53c daf7 93bd d898 14bc 1cce 8c3d
000003f0: cab6 92bd a0cd 613b 0463 c7bc 7046 bdbc

lstm.bias_ih_l0 f4 [392]
0.014410332 -0.08785607 -0.054520838 0.09151442 0.011863932 -0.02196581 -0.029264532 -0.049970508
0.06555158 0.04402794 -0.094256505 -0.0074922442 0.033981293 0.059031054 -0.07152561 -0.050115976
0.09388308 0.056228384 -0.035330772 -0.09586776 0.015425906 -0.022326581 -0.08476875 0.024028033
0.07736729 -0.04634057 -0.008151285 -0.0481311 0.08819759 0.08582674 -0.07500185 -0.09626992
-0.097413376 -0.037119105 -0.052070335 -0.0057476982 -0.06966193 0.086843416 -0.04196027 -0.09444313
0.004870273 -0.099604994 -0.0062108934 0.006803043 0.07092005 0.09622571 0.06726563 0.024492458
-0.0032004863 -0.06654849 -0.084482096 -0.030107386 0.097910404 -0.040015385 0.053443864 0.029065564
-0.09438659 0.059178084 -0.06601698 0.026032656 0.033908993 -0.053370878 -0.059867382 -0.036738887
0.07452452 0.011516601 0.06831342 0.067469716 0.0055556074 0.081719354 0.06392962 0.037412852
0.03076759 0.033952728 0.09229438 0.023710996 0.097799584 0.07529971 0.04776515 0.0027858317
0.018544756 0.0955476 -0.030236773 -0.061384536 0.06945011 0.061476603 -0.042441987 -0.085929275
-0.07089165 -0.035493776 0.09671916 0.08447382 -0.08316151 -0.09047794 0.007092908 0.009292357
0.021300115 -0.05636014 0.025386825 -0.08896828 -0.08397582 0.034581587 0.021691896 0.034616858
-0.097534046 -0.09021847 -0.039591894 -0.08122411 -0.034356616 -0.046403643 -0.053827353 0.009842046
-0.088027656 -0.050583996 -0.089794286 -0.005752623 0.06848611 0.031205028 0.09284924 -0.07864344
-0.045170598 0.047648996 -0.07951623 -0.018851765 0.013457514 -0.03784945 -0.033105493 -0.04300769
0.038724646 -0.06692164 -0.0135580525 0.013489716 0.09249212 -0.0054787323 0.05855897 0.07924689
-0.035985135 -0.0014255717 -0.06599474 -0.010077506 0.074682966 -0.03366489 -0.04226008 0.047703087
-0.09402972 -0.054508507 0.0031985343 0.06124562 0.0033174157 0.06893873 -0.013535798 -0.07643004
-0.023324221 0.07963154 0.018444806 -0.07001403 -0.054559916 -0.036134228 -0.09122383 0.018673524
-0.08936713 0.043714657 -0.007031396 -0.05604452 0.033070967 0.056256935 -0.07876155 0.10079123
0.0053859353 0.014193386 0.04684651 0.025630563 -0.015143484 -0.066259846 0.068053946 0.011284649
0.089354515 -0.041238356 0.0275691 -0.08246071 0.056973577 0.0060212314 -0.04445299 -0.08796576
0.029248506 -0.026466936 0.03556165 -0.08101176 0.08369252 -0.040548015 -0.062332936 -0.024942502
-0.02240605 -0.060192384 0.09716958 0.005125262 -0.06612035 0.07197462 0.030146614 -0.01028005
-0.06932363 -0.08862525 -0.04120376 -0.044382885 -0.011738077 -0.027964868 -0.035159297 -0.0137933865
-0.01029066 -0.046782978 0.021842614 0.023856811 -0.070054084 -0.050453126 -0.05413087 0.014788665
-0.035324454 -0.040424753 -0.07249015 0.035422444 -0.06845385 0.015256897 0.03469473 0.025222406
-0.027539037 0.06673062 0.07134746 -0.09129142 0.08793165 0.0152870715 0.089217484 0.034371093
0.06885663 -0.08040499 0.009936012 0.048168436 0.03463608 0.0886872 -0.015134454 0.09906553
-0.0037326366 -0.02198758 0.011204496 -0.10066 0.018552825 0.029870197 0.032053426 0.00960286
0.020839825 -0.007843636 0.066587895 0.058771223 -0.050557915 0.08476128 -0.0047177 0.051409632
00000000: 5019 6c3c e2ed b3bd 3e51 5fbd ea6b bb3d
00000010: f060 423c a4f1 b3bc 2cbc efbc e0ad 4cbd
00000020: e83f 863d a456 343d 8e09 c1bd 8081 f5bb
00000030: f82f 0b3d 8cca 713d 057c 92bd 6946 4dbd
00000040: c645 c03d bc4f 663d 00b7 10bd 5156 c4bd
00000050: f0bc 7c3c 3ce6 b6bc 3d9b adbd 70d6 c43c
00000060: be72 9e3d 9ccf 3dbd f88c 05bc 1e25 45bd
00000070: f0a0 b43d eec5 af3d 929a 99bd 2a29 c5bd
00000080: aa80 c7bd 340a 18bd b447 55bd 3057 bcbb
00000090: eaaa 8ebd f6da b13d 88de 2bbd 666b c1bd
000000a0: d096 9f3b b4fd cbbd c084 cbbb 10ec de3b
000000b0: 883e 913d fc11 c53d 90c2 893d 68a4 c83c
000000c0: 40bf 51bb 934a 88bd f304 adbd c4a3 f6bc
000000d0: 4085 c83d 2ce7 23bd f4e7 5a3d e81a ee3c
000000e0: c24d c1bd b864 723d e933 87bd 7042 d53c
000000f0: 28e4 0a3d 6c9b 5abd 8037 75bd 847b 16bd
00000100: 50a0 983d 20b0 3c3c e8e7 8b3d 902d 8a3d
00000110: d00b b63b 7a5c a73d 88ed 823d 383e 193d
00000120: 500c fc3c 0412 0b3d d604 bd3d 903d c23c
00000130: 264b c83d bc36 9a3d 64a5 433d 8092 363b
00000140: 2ceb 973c 76ae c33d 1cb3 f7bc 5a6e 7bbd
00000150: dc3b 8e3d e4ce 7b3d a6d7 2dbd b0fb afbd
00000160: a42f 91bd ec61 11bd b214 c63d 9c00 ad3d
00000170: 9550 aabd 804c b9bd a06b e83b f83e 183c
00000180: 947d ae3c e4d9 66bd 08f8 cf3c 0035 b6bd
00000190: 84fb abbd 6ca5 0d3d 34b3 b13c 68ca 0d3d
000001a0: eebf c7bd 76c4 b8bd 1c2b 22bd d458 a6bd
000001b0: 86b9 0cbd bf11 3ebd 127a 5cbd 8840 213c
000001c0: d847 b4bd 2a31 4fbd 11e6 b7bd 8080 bcbb
000001d0: 7242 8c3d b0a1 ff3c be27 be3d d00f a1bd
000001e0: ce04 39bd 982b 433d 68d9 a2bd 046f 9abc
000001f0: e87c 5c3c 0608 1bbd a099 07bd d528 30bd
00000200: bc9d 1e3d 360e 89bd 9822 5ebc f803 5d3c
00000210: 826c bd3d f086 b3bb 88db 6f3d 324c a23d
00000220: 2665 13bd 40da baba 4028 87bd 201c 25bc
00000230: 62f3 983d 32e4 09bd e818 2dbd 5064 433d
00000240: a792 c0bd 5044 5fbd 809e 513b b0dc 7a3d
00000250: 0069 593b c02f 8d3d 40c5 5dbc 5a87 9cbd
00000260: 7012 bfbc dc15 a33d 9019 973c 8463 8fbd
00000270: 387a 5fbd 7c01 14bd 8fd3 babd 38f9 983c
00000280: 1d06 b7bd 240e 333d a067 e6bb f08e 65bd
00000290: 6c75 073d ac6d 663d bc4d a1bd a26b ce3d
000002a0: 807c b03b 608b 683c 20e2 3f3d 30f7 d13c
000002b0: 601c 78bc 3eb3 87bd de5f 8b3d 40e3 383c
000002c0: 80ff b63d 8de9 28bd 98d8 e13c 29e1 a8bd
000002d0: 205d 693d c04d c53b 5714 36bd 6427 b4bd
000002e0: 909a ef3c 30d1 d8bc 18a9 113d 7ee9 a5bd
000002f0: fc66 ab3d ad15 26bd d250 7fbd 3854 ccbc
00000300: e48c b7bc 4a8c 76bd d800 c73d d0f1 a73b
00000310: 1b6a 87bd 6e67 933d 08f6 f63c a86d 28bc
00000320: 8cf9 8dbd 2881 b5bd 46c5 28bd d4ca 35bd
00000330: 1051 40bc 9416 e5bc 3203 10bd a8fd 61bc
00000340: 289a 28bc 829f 3fbd 48ef b23c 5c6f c33c
00000350: 8478 8fbd f0a7 4ebd 55b8 5dbd 284c 723c
00000360: 60b0 10bd 6d94 25bd b775 94bd 2017 113d
00000370: 8831 8cbd 10f8 793c 101c 0e3d 389f ce3c
00000380: 8c99 e1bc 10aa 883d 9e1e 923d fff6 babd
00000390: 8215 b43d a076 7a3c a8b7 b63d b4c8 0c3d
000003a0: b404 8d3d 5fab a4bd a8ca 223c 444c 453d
000003b0: 90de 0d3d a2a1 b53d 80f6 77bc dee2 ca3d
000003c0: 409f 74bb 4c1f b4bc 1093 373c d526 cebd
000003d0: 18fc 973c 58b2 f43c 744a 033d 5055 1d3c
000003e0: 48b8 aa3c 9882 00bc 3c5f 883d 18ba 703d
000003f0: d115 4fbd 5297 ad3d f096 9abb e892 523d

lstm.bias_hh_l0 f4 [392]
0.088980466 0.054504454 -0.020388708 -0.02001477 -0.066933066 0.02680105 0.007856175 -0.06668738
-0.07283469 -0.046580154 0.07801251 0.044469535 -0.06963828 -0.095574 0.098023966 -0.07778186
-0.078591205 -0.05954737 -0.032425135 0.030185625 0.079171464 -0.0869464 0.089393124 -0.0696807
0.05498068 -0.003744036 -0.059165373 0.029169679 0.08692852 0.07017486 0.026158229 0.052693114
0.05589497 0.009802081 0.010260664 -0.083876975 0.09722921 -0.054185253 0.06859857 -0.043214936
-0.06331643 -0.02679824 0.048133105 -0.07007763 -0.0056852847 -0.08715766 -0.021070212 -0.0483851
-0.034402184 -0.028421476 0.08176613 -0.060713463 -0.09726809 0.024427429 0.09516613 -0.05394882
-0.07181624 0.06373237 -0.023230389 -0.09648364 0.057815537 -0.04372 -0.05628313 0.041425288
-0.09091885 -0.091760844 0.05252929 -0.08957072 -0.029937916 -0.04907673 -0.023844264 0.04808849
-0.027504936 0.05622503 -0.006262541 -0.08054802 0.07086733 -0.040765565 0.06489593 0.038085073
0.07095723 0.053650454 -0.04922687 0.0025095418 0.012194768 -0.021028519 0.029130965 0.06855461
-0.08020184 -0.09616577 0.023101725 0.04996264 -0.009650439 -0.06432411 0.026768088 -0.0050448924
0.076372296 0.072987854 0.08532217 -0.0028493106 -0.028637543 0.06223759 -0.06400268 -0.012939893
-0.020829082 -0.08657554 -0.0338713 -0.008963108 0.078125745 0.09136863 0.040930167 0.042317882
-0.09463686 -0.0916863 -0.054802187 -0.013062611 -0.100912414 0.06658532 0.09351975 -0.084205344
-0.017030299 -0.04747841 -0.09455105 -0.08114266 0.0033765435 0.06543146 0.0374178 0.043761536
0.07396974 -0.06628711 -0.04474366 0.090415716 -0.035216592 -0.021879815 0.032402202 0.032713532
0.0136271715 -0.058403395 0.0317605 -0.031063601 0.07803507 0.03323686 -0.018156022 0.07338658
0.09345463 -0.008362055 0.09989606 0.08624451 0.046225816 0.03072153 0.04092951 0.034776717
-0.02272299 -0.015696526 -0.085789226 -0.052823838 0.032262817 -0.011615276 0.019673064 0.0033123717
-0.06583294 0.053169638 -0.09713182 0.017023042 -0.013485439 0.012636602 0.009295717 0.037254512
-0.0068937317 0.09268744 0.05977243 0.0033247098 -0.076025814 -0.022180945 0.078587875 0.08066438
-0.015933119 0.010394193 0.008755453 0.030164912 0.06364383 0.08590916 -0.0856484 -0.049941704
-0.0061567277 0.083928555 -0.008213289 0.07652864 -0.033418715 -0.024757192 0.028713793 0.06626196
-0.077651136 0.09744452 0.073462084 -0.046919968 0.07977162 -0.08710889 -0.06944817 -0.056230087
-0.06025317 -0.00202737 0.019230224 0.06158358 0.018488802 0.02444376 0.07528143 0.08379969
0.021154068 0.053189367 0.076150835 0.05038151 -0.07966996 0.02463466 0.0649617 -0.01838389
0.073306635 -0.047789097 0.010866649 -0.10091628 0.038723826 0.0108127 -0.09559147 0.012873143
0.026951924 -0.09412402 0.06734645 -0.097673275 -0.0444153 -0.09979901 -0.06585075 0.07609184
0.08785978 -0.0819988 0.010061115 -0.07292072 -0.08392812 -0.017983876 -0.078179404 -0.07571297
0.04866889 0.07256217 -0.041038133 -0.087393336 -0.037979476 -0.018184751 0.0037208572 -0.036117636
0.095551044 0.050256416 -0.017056875 0.039691314 -0.07578748 -0.016766593 -0.017265193 -0.000849016
00000000: 643b b63d 1040 5f3d 3806 a7bc 04f6 a3bc
00000010: 3414 89bd e08d db3c 30b7 003c 6593 88bd
00000020: 5b2a 95bd d5ca 3ebd 06c5 9f3d b025 363d
00000030: 849e 8ebd 4dbc c3bd cac0 c83d 194c 9fbd
00000040: 6df4 a0bd f1e7 73bd 38d0 04bd d847 f73c
00000050: a624 a23d f410 b2bd be13 b73d c1b4 8ebd
00000060: 6c33 613d 805e 75bb 6457 72bd 40f5 ee3c
00000070: 9407 b23d d6b7 8f3d c849 d63c bcd4 573d
00000080: 20f2 643d e898 203c 581c 283c b1c7 abbd
00000090: 1c20 c73d 5bf1 5dbd 687d 8c3d 2502 31bd
000000a0: 0bac 81bd fc87 dbbc 3827 453d dc84 8fbd
000000b0: a04b babb b77f b2bd 709b acbc 742f 46bd
000000c0: 4ee9 0cbd 28d4 e8bc 0075 a73d aeae 78bd
000000d0: 7e34 c7bd 081c c83c 76e6 c23d 70f9 5cbd
000000e0: 6514 93bd 1e86 823d a84d bebc 3799 c5bd
000000f0: fccf 6c3d be13 33bd 2489 66bd 90ad 293d
00000100: a933 babd 1ced bbbd f428 573d db70 b7bd
00000110: 5c40 f5bc ae04 49bd 0c55 c3bc 70f8 443d
00000120: 0852 e1bc 384c 663d 0036 cdbb 5cf6 a4bd
00000130: e422 913d cbf9 26bd 28e8 843d 18ff 1b3d
00000140: 0652 913d 94c0 5b3d 1da2 49bd 2077 243b
00000150: 90cc 473c 0044 acbc 10a4 ee3c 5c66 8c3d
00000160: dd40 a4bd 8ff2 c4bd d43f bd3c a0a5 4c3d
00000170: e01c 1ebc 5cbc 83bd c048 db3c a04f a5bb
00000180: 1469 9c3d a87a 953d 64bd ae3d 80bb 3abb
00000190: 4899 eabc d8ec 7e3d d613 83bd d801 54bc
000001a0: c0a1 aabc 844e b1bd a2bc 0abd 00da 12bc
000001b0: 6400 a03d 7a1f bb3d 64a6 273d 8455 2d3d
000001c0: f8d0 c1bd 07c6 bbbd 4278 60bd 9004 56bc
000001d0: 2bab cebd e25d 883d 4887 bf3d da73 acbd
000001e0: 2083 8bbc b978 42bd fba3 c1bd 1f2e a6bd
000001f0: 0049 5d3b ee00 863d 6843 193d 4c3f 333d
00000200: 727d 973d 89c1 87bd 2145 37bd e02b b93d
00000210: 463f 10bd 4c3d b3bc 2cb8 043d a0fe 053d
00000220: 8044 5f3c 6638 6fbd 4c17 023d 1879 febc
00000230: dad0 9f3d 6023 083d f0bb 94bc b44b 963d
00000240: 2465 bf3d 0001 09bc 4e96 cc3d f6a0 b03d
00000250: 4857 3d3d b8ab fb3c b4a5 273d 0872 0e3d
00000260: 9025 babc 0096 80bc 43b2 afbd cf5d 58bd
00000270: 0426 043d 004e 3ebc 6829 a13c 6014 593b
00000280: 6cd3 86bd 68c8 593d 0ced c6bd e873 8b3c
00000290: 08f2 5cbc c009 4f3c 104d 183c 3098 183d
000002a0: d0e4 e1bb ead2 bd3d f0d3 743d 60e3 593b
000002b0: 6cb3 9bbd d0b4 b5bc aef2 a03d 5e33 a53d
000002c0: 2c86 82bc 684c 2a3c 0873 0f3c 681c f73c
000002d0: b257 823d 24f1 af3d 6e68 afbd ac8f 4cbd
000002e0: 60be c9bb bce2 ab3d 0891 06bc 0cbb 9c3d
000002f0: 10e2 08bd 98cf cabc 3039 eb3c 5ab4 873d
00000300: 8f07 9fbd fe90 c73d 4a73 963d 272f 40bd
00000310: 4e5f a33d 2566 b2bd d83a 8ebd 8551 66bd
00000320: 07cc 76bd a0dd 04bb b488 9d3c 103f 7c3d
00000330: d475 973c 483e c83c 262d 9a3d 2c9f ab3d
00000340: 4c4b ad3c 18dd 593d f8f4 9b3d d85c 4e3d
00000350: 012a a3bd a0ce c93c a40a 853d d099 96bc
00000360: ca21 963d 80be 43bd 080a 323c 32ad cebd
00000370: e09c 1e3d c027 313c 76c5 c3bd e0e9 523c
00000380: 48ca dc3c 18c4 c0bd f0ec 893d ed08 c8bd
00000390: d1ec 35bd 6c63 ccbd c2dc 86bd 0ad6 9b3d
000003a0: d4ef b33d fdee a7bd 60d7 243c 7557 95bd
000003b0: 82e2 abbd ec52 93bc 861c a0bd 670f 9bbd
000003c0: 0859 473d 7a9b 943d 9a17 28bd 47fb b2bd
000003d0: 5e90 1bbd 30f8 94bc a0d9 733b 16f0 13bd
000003e0: 44b0 c33d acd9 4d3d dcba 8bbc 5c93 223d
000003f0: 7736 9bbd 185a 89bc bc6f 8dbc 8090 5eba

fc1.weight f4 [9, 98]
0.055228025 0.04259555 0.052273154 0.07702826 0.048375353 0.069343194 0.034993052 0.084639475
-0.10008942 0.046204567 0.079513386 -0.061616898 0.052585706 0.016779348 0.097922355 -0.010450505
-0.09002611 0.09712759 -0.028371654 -0.04760266 0.027967736 -0.075965986 0.07962747 0.08952701
0.0578921 -0.015087642 0.07491052 0.009124577 -0.08878241 -0.09310063 -0.0045782775 0.021940745
0.037541524 -0.053710956 0.090215504 0.09155634 -0.06013045 -0.0051689968 0.037747756 0.041019082
0.0017974079 -0.07131387 0.06325759 0.09086268 -0.013937399 0.0038966537 -0.026662566 0.018020272
0.05471377 0.09120968 -0.040659882 -0.028101832 -0.07698121 0.01533059 -0.057502426 -0.079202525
-0.038227454 -0.024331234 -0.025088504 -0.015811563 -0.06749962 0.038504675 -0.065879606 -0.07213261
0.09448153 0.052962944 0.017497122 -0.05100502 0.051969588 0.020155631 -0.005844213 -0.019229956
0.065834835 0.025076479 0.08330536 -0.028793737 0.01316493 0.057630017 -0.10053558 -0.007814735
0.012418941 -0.039009497 0.0814722 0.051970065 0.029731587 -0.035314396 -0.04914597 -0.06638177
-0.021320708 -0.07949699 0.07717995 -0.0663853 -0.09997013 -0.01566001 -0.010314874 0.044467986
-0.053069025 -0.06675615 0.09852469 -0.029248722 0.03288406 0.031514823 -0.031052813 0.090116456
0.09275234 0.07578473 -0.021051288 0.006955363 0.0700399 0.0082147345 0.06216626 0.07704987
0.022673786 -0.057478573 -0.020742476 -0.039467804 -0.05078162 0.06509766 0.09443118 0.039571896
-0.072581016 0.03820771 -0.044909287 -0.031007975 -0.08760288 -0.006079994 0.06111966 -0.022274658
0.030900016 0.094958395 -0.042511925 -0.065215796 0.019851066 0.088376686 -0.09614363 -0.09480741
0.049228728 -0.0138986185 -0.08044925 -0.041990723 -0.001293622 -0.04710715 -0.09659575 0.016772963
0.07250118 0.011215396 -0.06587559 0.03410597 -0.08335336 -0.100973964 0.05133456 -0.004961431
-0.03145065 -0.067585334 -0.09313555 0.03779514 0.032702193 -0.0030154735 -0.1002044 -0.018215
-0.08682693 0.013632953 -0.09796377 0.08146438 -0.050467324 0.0034953132 0.008888349 0.092356
0.046893403 -0.0001699999 0.057268873 0.028197765 0.040911227 -0.012597755 0.07165182 0.07978898
-0.006171033 0.0027123094 -0.099620156 -0.011854634 -0.021503903 -0.058293898 -0.064623944 -0.06707233
0.09316689 -0.06064781 -0.09562128 0.0066515952 -0.04652428 0.07837653 -0.08706535 -0.0823822
-0.079605885 0.037537158 -0.054662067 0.06649853 -0.064772494 -0.09771996 -0.08172523 -0.006239429
0.076351985 -0.008407861 -0.01131326 -0.08478633 0.09643841 0.100100935 -0.00095350295 -0.07269736
-0.065252714 0.092748 -0.06961715 0.03502728 0.06644647 0.09037502 0.03178905 -0.021317191
-0.08590225 0.04278183 -0.08389736 0.03146641 0.024028793 -0.05493513 0.095085084 0.062480852
0.019953668 -0.021259807 0.075732455 0.07655607 -0.059616707 0.09947859 -0.027496628 -0.09819879
-0.08371606 -0.09652427 -0.086599916 0.012483813 -0.060672194 0.09767455 0.09760675 0.031248167
-0.0838402 0.02745308 0.00491067 0.046244502 -0.077131465 -0.065484226 0.069165036 0.09440175
-0.09212121 -0.013782516 -0.059724793 -0.03091517 0.057409972 0.06324266 -0.048794165 -0.04034984
00000000: c836 623d ac78 2e3d 601c 563d fec0 9d3d
00000010: 3c25 463d ce03 8e3d e054 0f3d 7657 ad3d
00000020: affb ccbd 0041 3d3d ead7 a23d 0062 7cbd
00000030: 1c64 573d d874 893c 848b c83d 9838 2bbc
00000040: 9c5f b8bd d4ea c63d ac6b e8bc 02fb 42bd
00000050: 981c e53c 0e94 9bbd ba13 a33d f059 b73d
00000060: 4420 6d3d 2832 77bc b06a 993d 407f 153c
00000070: 8dd3 b5bd 8bab bebd 6005 96bb 14bd b33c
00000080: 24c5 193d 0500 5cbd e8c2 b83d e481 bb3d
00000090: 594b 76bd b060 a9bb 649d 1a3d a003 283d
000000a0: 0097 eb3a 020d 92bd 328d 813d 3616 ba3d
000000b0: b059 64bc 005f 7f3b 746b dabc 409f 933c
000000c0: 8c1b 603d 24cc ba3d fa8a 26bd d035 e6bc
000000d0: 53a8 9dbd 282d 7b3c aa87 6bbd ef34 a2bd
000000e0: 6494 1cbd 4c52 c7bc 6886 cdbc 4087 81bc
000000f0: 3e3d 8abd 14b7 1d3d e3eb 86bd 43ba 93bd
00000100: 887f c13d acef 583d 2056 8f3c a4ea 50bd
00000110: 10de 543d 6c1d a53c d080 bfbb 2488 9dbc
00000120: 6ad4 863d 306d cd3c 009c aa3d d8e0 ebbc
00000130: b8b1 573c 740d 6c3d 99e5 cdbd 6009 00bc
00000140: d078 4b3c 6cc8 1fbd e6da a63d 90de 543d
00000150: a88f f33c d4a5 10bd 494d 49bd 2af3 87bd
00000160: c4a8 aebc 51cf a2bd 8610 9e3d 04f5 87bd
00000170: 24bd ccbd 6c49 80bc b8ff 28bc 1024 363d
00000180: e85e 59bd 73b7 88bd 50c7 c93d 049b efbc
00000190: 70b1 063d b015 013d 7862 febc fa8e b83d
000001a0: f0f4 bd3d 0635 9b3d c073 acbc d0e9 e33b
000001b0: 1471 8f3d 1897 063c 0ca2 7e3d 52cc 9d3d
000001c0: 60be b93c a76e 6bbd 20ec a9bc fea8 21bd
000001d0: 6300 50bd ec51 853d 2265 c13d 2416 223d
000001e0: 5ba5 94bd b07f 1c3d cdf2 37bd 7004 febc
000001f0: 2469 b3bd b03a c7bb 9c58 7a3d 5879 b6bc
00000200: 0822 fd3c 8c79 c23d fc20 2ebd dc8f 85bd
00000210: b49e a23c d6fe b43d f4e6 c4bd 632a c2bd
00000220: 10a4 493d 08b7 63bc 94c2 a4bd 77fe 2bbd
00000230: c08e a9ba 6df3 40bd fed3 c5bd 7467 893c
00000240: 807b 943d c8c0 373c c8e9 86bd b4b2 0b3d
00000250: 2bb5 aabd 70cb cebd 3044 523d 8093 a2bb
00000260: 66d2 00bd 2e6a 8abd dabd bebd 14cf 1a3d
00000270: bcf2 053d 409f 45bb f737 cdbd a037 95bc
00000280: 51d2 b1bd c05c 5f3c 3ba1 c8bd ccd6 a63d
00000290: d3b6 4ebd a011 653b 70a0 113c 2425 bd3d
000002a0: 4c13 403d 0042 32b9 c492 6a3d 00ff e63c
000002b0: 8892 273d d066 4ebc 30be 923d 6868 a33d
000002c0: 6036 cabb 00c1 313b a705 ccbd f039 42bc
000002d0: f428 b0bc 95c5 6ebd 8f59 84bd 385d 89bd
000002e0: 48ce be3d d769 78bd 17d5 c3bd a0f5 d93b
000002f0: 3e90 3ebd e083 a03d 514f b2bd 00b8 a8bd
00000300: 6908 a3bd 90c0 193d 55e5 5fbd 6230 883d
00000310: 71a7 84bd 6721 c8bd 8f5f a7bd 2074 ccbb
00000320: 6e5e 9c3d 20c1 09bc 405b 39bc 75a4 adbd
00000330: 8081 c53d b801 cd3d 80f4 79ba 5ae2 94bd
00000340: 37a3 85bd aaf2 bd3d 7093 8ebd c478 0f3d
00000350: 1615 883d 8a16 b93d 3c35 023d 64a1 aebc
00000360: 85ed afbd 003c 2f3d 61d2 abbd ece2 003d
00000370: 08d8 c43c a903 61bd f8bb c23d eceb 7f3d
00000380: e075 a33c 0c29 aebc 9e19 9b3d 6ec9 9c3d
00000390: a630 74bd 6ebb cb3d 9c40 e1bc 721c c9bd
000003a0: 5373 abbd 84ae c5bd 4c5b b1bd e888 4c3c
000003b0: 6883 78bd 9809 c83d 0ce6 c73d 28fc ff3c
000003c0: 69b4 abbd 48e5 e03c b0e9 a03b e06a 3d3d
000003d0: 1af7 9dbd 981c 86bd 66a6 8d3d b455 c13d
000003e0: 0caa bcbd 10d0 61bc fca1 74bd d041 fdbc
000003f0: b826 6b3d 5e85 813d 64dc 47bd e045 25bd

fc1.bias f4 [9]
0.09894805 -0.054994125 0.08409393 0.07156961 0.003599584 0.08721252 -0.08131537 -0.024585247
0.07608619
00000000: 46a5 ca3d 8541 61bd 7039 ac3d 1693 923d
00000010: 00e7 6b3b 7a9c b23d ac88 a6bd 0067 c9bc
00000020: 14d3 9b3d
